Test/model.onnx (onnx, 179269 bytes, 10 tensors)

conv1.weight f4 [6, 1, 5, 5]
00000000: 57b8 65bd 0b51 ce3c ec64 31be b108 a9bd
00000010: 722c 963e 8392 333e 9457 f8bc 10b9 05bf
00000020: 9e88 a9be c74b c2be 18c2 4a3e 3fe3 7f3e
00000030: 223a 45be 6de4 90be b404 e3be 1d73 683e
00000040: 084b f53e fc6a 6c3e c9c5 af3e b978 813e
00000050: 1a5e 90bc 0aa6 b33e 8778 803e e4ce eb3e
00000060: fa62 393e 0f69 07be fedf 173d a683 a53e
00000070: aa9f b23e f77d b8bd be1f 1dbe 967a 9e3e
00000080: f88c a93e 79cb 033d e69d 773c 6e87 643e
00000090: 1c5b d03e 9d3a 143e a01f 793d 8266 bf3b
000000a0: deec ba3e aaff 4f3d 4353 4c3e d4a1 96bb
000000b0: ab30 a7bd e6ce f93d d805 f8bd 899e 4c3e
000000c0: 5a25 373e 97f0 523e ef5c 3f3e 1229 a53e
000000d0: e5c3 3c3e 3edd 01be 652a a3bd 495b 073e
000000e0: d361 7d3e d19b f73b 4e40 48be 6835 bcbe
000000f0: 6316 f93d 3a30 743e bfe0 84bd 9c5f 243e
00000100: 266a 43bd 1406 c8bd 6ae9 a13e 8464 f13d
00000110: 80af 053e 8413 933e ccb1 e13d 7af6 353e
00000120: 6370 0c3d b1ce 183e 22f4 563e 70f7 d4bd
00000130: 74d4 74bc 2747 21be f3f1 dd3c 14a4 423e
00000140: 3a49 8b3e cfa5 003e 4739 8f3e 32d3 643e
00000150: fd0b 573e dde2 f33d 517d cd3d ea40 483d
00000160: be0f 4bbe 9c24 b2be 6f26 813e d012 c63d
00000170: 0ec2 243e 6f65 ddbd b4c7 b9be f374 a63e
00000180: 5c9b 653e 4ef8 5c3e baaa 9a3e 02b9 8ab9
00000190: 2dbd 483e 0add e23d 1aa9 e13e b67f 733e
000001a0: 3138 4b3d 1198 be3e ffbb c63e dfc9 e53d
000001b0: f72e 7f3e df6c 743e 6520 9b3e 2e2c 3bbc
000001c0: fcd9 84be 82b7 13be b354 83bd a869 59be
000001d0: 2ce4 a0be 4ca3 92be 8402 f4be 27a8 d2be
000001e0: af11 95be 2b10 083d a9b4 de3d ad5c 713e
000001f0: 27b0 873e 34f6 993e 64bb b23e f3a4 7e3e
00000200: 76eb a13e 2c83 993e 9997 063e 3598 a33e
00000210: bcbf 0c3e 5886 5b3e c966 323e 6661 4e3d
00000220: 65a7 ebbd 104f 003e 6f28 df3e a09e 813e
00000230: e4d0 3bbe 39d5 9abe 48b2 b83d 6244 a83e
00000240: d1b4 ce3e 2605 c0be c0b2 79be 2cab 64be
00000250: 4d6a 963d 2fe9 ef3d
-0.056084003 0.025185129 -0.17323655 -0.08253611 0.29330784 0.17536359 -0.030315198 -0.5223551
-0.33112043 -0.3794844 0.19800603 0.24989031 -0.19260457 -0.28299275 -0.44339526 0.22700162
0.47908807 0.23087686 0.34330586 0.25287417 -0.017622996 0.35087615 0.25091955 0.46056283
0.18104163 -0.1322367 0.03707885 0.32327002 0.3488744 -0.09008401 -0.1534414 0.309529
0.33115363 0.03217647 0.0151133295 0.22317287 0.4069451 0.14475484 0.060821176 0.0058410773
0.3650884 0.05078093 0.19953637 -0.004596928 -0.081635796 0.12197666 -0.121104896 0.19982351
0.17885342 0.2059959 0.18687795 0.32257897 0.18434103 -0.12682053 -0.079670705 0.13218416
0.24744348 0.0075564166 -0.1955578 -0.36759496 0.12162473 0.23846522 -0.064881794 0.16052097
-0.047708653 -0.09766784 0.31623393 0.1178675 0.13055229 0.28725827 0.1102024 0.17769805
0.034286868 0.14922597 0.20991567 -0.103987575 -0.014943231 -0.15749799 0.02709291 0.19007903
0.27204305 0.12563251 0.27973387 0.2234619 0.21000667 0.11908505 0.10033668 0.048890032
-0.19830224 -0.34793556 0.25224635 0.09671557 0.16089651 -0.108103625 -0.36285174 0.325111
0.22422546 0.21579096 0.3020838 -0.00026459253 0.19603415 0.11077316 0.44074327 0.23779187
0.049614135 0.37225392 0.38815305 0.112201445 0.2492026 0.23869656 0.30298153 -0.0114241075
-0.2594756 -0.14425471 -0.064126395 -0.21231711 -0.3142408 -0.2864021 -0.4765817 -0.41143915
-0.29115054 0.033218544 0.10874302 0.23570509 0.2650158 0.3007065 0.34908593 0.2486761
0.31624955 0.2998289 0.13143767 0.31952062 0.13745016 0.21437967 0.17422022 0.050385855
-0.11506537 0.1253016 0.43585536 0.25316334 -0.18341404 -0.302408 0.090183794 0.32864672
0.40372327 -0.37503928 -0.24384594 -0.22330922 0.07344494 0.11714398

conv1.bias f4 [6]
00000000: ddf8 19b9 213d 74bb fa87 073a e62c d0bb
00000010: ecc3 95b8 e573 e138
-0.00014683926 -0.003726788 0.00051701034 -0.0063530086 -7.141367e-05 0.00010750423

conv2.weight f4 [16, 6, 5, 5]
00000000: 6b62 24bd 2bab 3b3b 623c 26bc c798 79bc
00000010: 269e 0c3e 6cf5 cebd 84b2 b63d 68cb 803e
00000020: 082c babc 8e6a 22be a630 883c e01c 383e
00000030: ff3a cc3e 8de0 863e 4230 b6bd 103b 8bbd
00000040: 46a6 8cbc e7ca 3d3e 9e9c c73e 36f7 cb39
00000050: 182f 0e3e 4064 d23b 0c01 1dbe ccec 11bd
00000060: 46bd 493d fd83 32bd 865f b4bd f6a0 10bb
00000070: 18be 353b 2384 8d3d f85e 363d 7cd4 823d
00000080: 0bed 21bc dde5 16be 20fa e8bc e50f 573d
00000090: 2e21 d93d 3269 013d 5e94 41bd fb99 6dbc
000000a0: 9830 83bd 1775 37bd 3567 1ebd 93c8 cfbc
000000b0: 1cac 873b daf5 01be 2363 39bd d510 05bd
000000c0: 2934 e13c 0f39 c0bd e636 65bd 7999 59bc
000000d0: f10f bbba 4b24 5dbd f6fd b43d cfbe f73b
000000e0: c3c0 9b3d 6d68 c13d 7d7e aabd 5a70 8fbc
000000f0: 4ebc 463d 1126 0f3e 8be9 3a3e 9744 863d
00000100: 63a2 c73c a716 8fbc 9285 33bd 31ad 2e3e
00000110: ac99 6f3c 56fb 023d bc07 27be bb71 dabd
00000120: 5f32 aabd 47e0 c3bc a81b 823b 7825 d13c
00000130: 2b4c d5bc e335 b03d cde6 403d efb8 c43d
00000140: ed84 1c3d 9f32 97bb 7c40 c23d 6e4f f7bd
00000150: 64aa 1abe 28b0 b0bd 69dc b63d 1e98 973d
00000160: 9ffd 113e ecf0 ccbd f28d 82bd 9abb 47bd
00000170: c7d9 d83c 425f 063d 9eb4 1e3d 1eed efbb
00000180: 46d2 d6b9 5a48 ebbd 7a87 12bd d3f3 183d
00000190: a42f f9bd a805 98bd 2e2b 63bd 1eb2 0c3d
000001a0: 98c8 9a3d ff78 0fbe 576d 98bd 7a73 b33c
000001b0: 8cac 2dbe 969d 83be 979a 23be 9bc0 72bd
000001c0: 0204 11be d6b2 42be fa56 63be c2eb abbd
000001d0: e827 aebd 5784 183e 9907 1a3e 0071 a63c
000001e0: ec39 8a3c 0483 2f3e 2dce 653e d0d3 743e
000001f0: 03c4 823e a2e1 453d 429d 7cbd b6d0 09be
00000200: 7f4e 4b3d 4297 aa3c 15c4 15bd 2803 a03d
00000210: 0c75 dabd 47ad cfba 9284 d93d 5b5e 913d
00000220: 8868 e03d facd cabc 1069 afbd fe64 b13c
00000230: c6e2 ecbc 5d30 1c3e 56b2 0d3e f050 8d3c
00000240: c332 133d 0602 7bbe 2461 38bd 1173 f43d
00000250: 055d 4a3e e446 b7bc 1ca7 9a3e 345b 633e
00000260: 585d b63e 1502 5f3e 01dc 993d dc77 b2bd
00000270: b3fa f5bd 0c46 393d 841c 393e 4e33 253e
00000280: ec44 463d 9287 60be e099 afbe d735 88be
00000290: b8c9 403d 005d 013e cd54 173d 3cdd 943d
000002a0: 173f 26be f9ed f33d dd63 d03d 0a53 1a3e
000002b0: d1cb ef3d c4c6 443d f6d7 593d 4e92 3c3d
000002c0: 414f 443d 5890 893d 3e28 d1bc 4537 c0bd
000002d0: a1a2 513c 83c4 563d b48b f83c 7b1d 963d
000002e0: 4d9d 4c3c 610b a3bd 3a61 04be 5138 77bd
000002f0: 9883 93bd 6d36 fd3c 4e80 c7bd 5fc1 5bbe
00000300: 41e0 b7bd 15d0 95bd 1f26 ee3c 2fcf b13b
00000310: 8d9f 3fbd c8d3 51bd e12a 3e3d 8063 193d
00000320: 4aaa 273e c4be fe3d a9da 0d3e 7f05 183e
00000330: 43db 873b e549 973c 096c 47bd 2a43 a53d
00000340: a436 fa3d 6446 583d c8d7 e5bd 6f1e 0dbe
00000350: 9f94 cebb 0742 b03c 4ea1 873d 3b8e 4dbd
00000360: d4b8 a0bd b21e 30be 76d6 f2bd 489d f43c
00000370: 8603 32bd d511 3bbc 261b 193d c81e 1abe
00000380: d1bc f5bd f0ba a43d 2568 143e 1c80 c83d
00000390: da1f cc3d 2b80 c13d 2d00 ad3d 47d9 203d
000003a0: 9d57 8f3d 1305 da3c 4942 dd3d ecd8 9f3d
000003b0: 581b 48bb 4e5f 7fbc f919 bbbb 2484 a8bd
000003c0: 623f 1bbe e1fb c3bc f3a4 f9bd 5022 b7bd
000003d0: c7f7 953c 96aa dcbd bb15 873c 8751 ce3c
000003e0: 329e 113d 22ee a63c d989 82bd 9c16 043d
000003f0: 1c49 473d 4fad 3f3d a4a9 c7bd ddcb 723e
-0.04013292 0.002863596 -0.010146232 -0.015234179 0.13732204 -0.10105404 0.08920768 0.25155187
-0.022726074 -0.1586096 0.01662476 0.17979765 0.3988876 0.26343194 -0.08895923 -0.06798375
-0.01716913 0.18534432 0.38986677 0.00038903364 0.13885152 0.006420642 -0.1533243 -0.035626218
0.04925277 -0.043582905 -0.08807282 -0.0022068596 0.0027731713 0.06909969 0.044524163 0.063881844
-0.009883176 -0.14736123 -0.028439581 0.052505393 0.10602032 0.031594463 -0.047260635 -0.014502044
-0.06405753 -0.0447894 -0.038672645 -0.025364196 0.00414039 -0.12691441 -0.04526056 -0.032486755
0.027490692 -0.09385883 -0.05596056 -0.01328122 -0.0014271719 -0.05398969 0.08837502 0.007560588
0.07605126 0.09443746 -0.08324907 -0.017509628 0.048519425 0.13979365 0.18253152 0.06556051
0.024369424 -0.017466856 -0.043828554 0.17058255 0.014624041 0.031977974 -0.16311544 -0.106662236
-0.08310389 -0.023910655 0.003970582 0.025530562 -0.026037296 0.08604028 0.04709511 0.09605586
0.038212705 -0.004614189 0.09484956 -0.12075697 -0.15104061 -0.08627349 0.08928759 0.07402061
0.14256905 -0.1000689 -0.0637473 -0.048762895 0.026471032 0.03280569 0.03874647 -0.0073219677
-0.00040973927 -0.11488409 -0.03577373 0.037341904 -0.1216729 -0.07422954 -0.0554611 0.034349553
0.075577915 -0.14011 -0.0744273 0.02190565 -0.16960353 -0.25706166 -0.1597694 -0.059265714
-0.14161685 -0.19013533 -0.22201148 -0.083945766 -0.08503705 0.14894234 0.15041961 0.020317554
0.016873322 0.17139822 0.22441931 0.23908925 0.2554017 0.048310883 -0.06167341 -0.13458523
0.049635407 0.020824078 -0.03656395 0.07813102 -0.10666856 -0.0015844487 0.10620989 0.07098075
0.10957438 -0.02475642 -0.08564961 0.021654602 -0.028916728 0.15252824 0.13837561 0.017250508
0.035937082 -0.2451249 -0.045014516 0.1193601 0.19762047 -0.02237267 0.3020562 0.2220276
0.3561809 0.21778138 0.075126655 -0.087142676 -0.12010708 0.045232818 0.18077284 0.16132852
0.048405573 -0.21926716 -0.34297085 -0.26603577 0.047067374 0.12633133 0.036946107 0.072687596
-0.16235004 0.11910624 0.101752974 0.1507074 0.11708797 0.04804112 0.053184472 0.046037965
0.047927145 0.067169845 -0.025531884 -0.09385542 0.012795121 0.052433502 0.030340053 0.07329842
0.012488675 -0.07961155 -0.12927714 -0.060356442 -0.07202834 0.030909741 -0.09741269 -0.21460484
-0.0897832 -0.07315079 0.029070912 0.0054263095 -0.04678302 -0.05122736 0.04642761 0.037448406
0.16373554 0.124387294 0.13852943 0.14845847 0.004146011 0.018467853 -0.048687015 0.08069451
0.12217453 0.052801505 -0.11222798 -0.1378114 -0.006304338 0.02151586 0.06622563 -0.05018447
-0.07847753 -0.1719921 -0.118573114 0.029860154 -0.04346039 -0.011417826 0.037379406 -0.15050805
-0.119989045 0.08043468 0.14492853 0.0979006 0.09967013 0.09448274 0.08447299 0.03926971
0.06999133 0.026613748 0.108036585 0.078050464 -0.0030533876 -0.015586687 -0.0057098833 -0.08228329
-0.15160897 -0.023923816 -0.12189665 -0.089420915 0.018306626 -0.10774724 0.016489854 0.02518536
0.035551257 0.020377222 -0.063739486 0.032248124 0.048653707 0.04679614 -0.09749153 0.2371058

conv2.bias f4 [16]
00000000: 856c aabd 98f8 243c cab8 2a3d b8b8 3d3e
00000010: 892e 7fbc ac7f 273d 7514 a4bd 3571 d83d
00000020: 7935 1fbe 92f3 a2bd 5e26 603c b736 18be
00000030: a1e8 9dbd 35dc 18bb 04c6 24bd 5ad6 02bd
-0.0832148 0.010069035 0.041680135 0.18527496 -0.01557506 0.04089324 -0.08011714 0.105684675
-0.15547742 -0.079566136 0.013681022 -0.14864622 -0.07710386 -0.0023324613 -0.040227905 -0.031942703

dense1.weight f4 [128, 256]
00000000: a679 993c e452 003c e77f 05bd 309f 573c
00000010: e796 133e 2b43 433d 2a93 783c 5984 403d
00000020: fdb9 d9bc ce9e 09be 1800 dbbd be58 23bd
00000030: 0bdd 0cbd 3b81 c6bd 0184 ed3c f86a b73d
00000040: 866e 86bd f406 563d 3bd6 02bb c9cf db3d
00000050: 7880 b23d 7b2d 303b 7165 2f3d cea1 bb3d
00000060: ff93 ca3d 5573 1b3d 34f5 353d cf7d f33c
00000070: e57c e5bd ae7c c6bd f8b3 9dbd 793f 21be
00000080: 8966 cdbc d854 c73d f40a 223e 3ea9 763d
00000090: ee1d 123d ff46 8e3d 5ade c5bc 7ea0 17bd
000000a0: 2f6e 20bd 5d14 8abd 8693 983c 8ef5 0c3d
000000b0: 4f5c b93d 4a2f 333e 9dec 20bd bc33 e4bc
000000c0: 3e7d 933d 882a 6d3d 7227 843d 2b7f e63d
000000d0: 3124 ec3d d7de db3d e94a b4bd d443 a0bd
000000e0: d419 feba 4c19 fdbb 56c3 f3bd 259b edbb
000000f0: 1855 3ebe 63ff 1bbe e89d 33bd 2631 8dbc
00000100: 0fbe 003d 7c7e 22bd 0bdc 91bc 3d10 03bd
00000110: eedb 2cbd 94af 023e 6918 7ebc 64e5 1b3e
00000120: 7fe1 5d3d 951f 8dbc 56a6 fb3c a46a ca3c
00000130: 83fa b63c 7faf 99bd 2f4f d7bd ed4d 2bbe
00000140: 1628 9a3d dacb 453d baf8 45bd 716e 53bd
00000150: 0aa3 1bbd bc42 403b 0e77 623d a9dc b53d
00000160: afa3 963c 5597 a33d 9f20 1d3e d26a edbd
00000170: 880c b4bc c7f7 113e 835b 2c3e ca2f 823d
00000180: 234f fdbb 520d 2fbd 03ba 8d3d 899a 7b3d
00000190: 86e3 913d c3d0 8d3c c3bf 843d 2b55 b2bc
000001a0: dcfc e73d 70b5 a7bd 1166 02bd 3862 07be
000001b0: d218 14bd 3ebe 5dbe 1a1b 57bd cb53 023e
000001c0: 4532 5ebe b682 62bc 1ae1 9fbd 1317 48bd
000001d0: 74a6 a6bc 82f5 793d c7a1 90bd 7eb7 57bc
000001e0: f8c2 fa3c 5477 433e 2bfe a43d 71e3 fd3b
000001f0: 7c7d 563e 6061 373e 6c67 bcbd a51e debd
00000200: 4c2d 72bc 0ec8 ec3c 6570 32bb 5121 0c3d
00000210: 2be1 b7bd 274e 9d3b ce46 4d3d ff77 4ebd
00000220: 588e 983c 8750 da3d a183 b33c 3df8 18be
00000230: 2069 44bc 1100 ecbb e42d a4bc 09d5 213c
00000240: e3eb 2ebb adc6 323c 0ed1 ff3c 0a5c ca3d
00000250: 7639 9f3c dce5 1f3d f3f1 823d 62c1 ad3d
00000260: f5cb c63c 529f b33c d93d ddbd fe4e 833d
00000270: 983c 6a3d 94a3 113c 174d abbb 53b5 d5bd
00000280: 6615 e33d 1865 d93b eb1c 023c ba2d e0bb
00000290: a41b 413d eba8 843d b49b b4bd 9f3e e93d
000002a0: c483 43bb 094f ca3c bf4f 01bd cabc 8c3d
000002b0: 5ec2 59bd 8576 983d 8a78 0cbc 125d 0b3d
000002c0: 00f1 933d 3862 3c3d 9e20 98bd 836b 3b3e
000002d0: 9cba 723c 0546 f53c 5cdc 2fbd a492 5d3d
000002e0: 35ad edbd 6205 7d3c 36ac 06bc 02af ccbd
000002f0: ac49 25bd afcf 6a3c 615c 653c 92a3 c7bc
00000300: ad83 9cbc 2e26 a73c d4a0 4c3d c1af 423d
00000310: a553 c23d 7382 38bd 8b33 07bd 8f6a e13d
00000320: 4149 bdbc ebde ffbc acb0 0d3d 9ff8 303d
00000330: d4fa 8abc 1279 233c 4bfd 9d3d 3622 3cbb
00000340: e292 c4bd ff01 c13c c035 cf3d 688e 2d3c
00000350: 90eb 573d c93e aebc 7510 003c 8e16 ca3c
00000360: 4683 3dbc c336 e3bc c51f 69bc fd54 ae3d
00000370: 6e55 ccbd 0401 dfbd be75 8f3c 037e 893d
00000380: b9fa 8b3d f3f8 533d 96b6 baba 9144 3fbd
00000390: 4d5b fd3d 79b7 c33d 5698 093d ba22 7c3c
000003a0: ac94 9abd e0e9 8cbd c9ce 44bd d918 573d
000003b0: 5a00 89bd 84b3 19bd e15d ae3d ff3d 303d
000003c0: 1209 9cbc 229d f53c d471 a43d e1fb 393b
000003d0: 5ffa 1cbc e6a1 1fbd 115c 24bd 25e4 003d
000003e0: 9511 c6bb e094 963d bcdc ed3c cc1e 293d
000003f0: 6a50 d73c 38bc 1d3d 94d8 43bd 12ad 71bc
0.018734764 0.007832263 -0.03259268 0.013160512 0.14413033 0.04767148 0.015171805 0.047001217
-0.026577944 -0.13439485 -0.10693377 -0.039879553 -0.03439049 -0.096926175 0.028993608 0.089559495
-0.065640494 0.052252725 -0.0019964117 0.10732991 0.0871591 0.0026882577 0.04282135 0.09161721
0.09891509 0.037951786 0.044423297 0.029723076 -0.11205462 -0.096917495 -0.07700342 -0.15746869
-0.025073307 0.097329795 0.15824491 0.060219996 0.035673074 0.06947135 -0.024153877 -0.03701829
-0.03916758 -0.06742165 0.018625032 0.034413867 0.090508096 0.17498508 -0.039288152 -0.0278567
0.072016224 0.05790189 0.06452836 0.11254724 0.115303405 0.10735863 -0.088033505 -0.07825437
-0.001938636 -0.007723963 -0.11902492 -0.0072511607 -0.18587148 -0.15234141 -0.043851763 -0.01723535
0.031431254 -0.039671406 -0.01780512 -0.031997908 -0.04220193 0.1276229 -0.0155087495 0.15224224
0.054170128 -0.017226974 0.030718964 0.024709053 0.02233625 -0.07504176 -0.1051315 -0.16728945
0.07527177 0.04829011 -0.048332907 -0.051618997 -0.037997283 0.0029336652 0.05528932 0.08879978
0.018388597 0.07987849 0.15344475 -0.1159264 -0.021978632 0.14254676 0.16831784 0.06356771
-0.007730381 -0.042737313 0.069202445 0.061426673 0.07123475 0.01731146 0.06481888 -0.021769127
0.11327526 -0.08188903 -0.03183562 -0.13221061 -0.036156483 -0.21654603 -0.05251608 0.12727277
-0.21698864 -0.013825109 -0.078066066 -0.04885013 -0.020343043 0.06102515 -0.070621066 -0.013166307
0.030610546 0.19088489 0.08056291 0.0077480604 0.20946306 0.1790824 -0.09199414 -0.10845689
-0.014781307 0.028903987 -0.0027227637 0.03421146 -0.08978494 0.0048005763 0.050116353 -0.050407406
0.018622562 0.106598906 0.021913351 -0.14938445 -0.011987954 -0.0072021564 -0.020041414 0.009877452
-0.0026690892 0.010911626 0.031227615 0.09880836 0.01943658 0.03903757 0.063938044 0.084841505
0.024267176 0.021926556 -0.10802812 0.06411551 0.057186693 0.008889098 -0.0052276957 -0.104349755
0.11088066 0.006634366 0.007941465 -0.0068413885 0.0471455 0.06477531 -0.088187605 0.11388897
-0.0029833177 0.02469589 -0.031570192 0.06871946 -0.05316388 0.07444481 -0.008573661 0.034024306
0.072237015 0.045992106 -0.07428096 0.18302731 0.014814999 0.029940614 -0.04293476 0.054094926
-0.11605302 0.015443178 -0.008219769 -0.099943176 -0.040353462 0.014331742 0.013999076 -0.024369989
-0.019105757 0.020403948 0.049958065 0.047530893 0.0948861 -0.04504628 -0.03300814 0.110066526
-0.02310622 -0.031234225 0.034592316 0.043205854 -0.016965307 0.009977596 0.077143274 -0.0028706915
-0.09598328 0.023560522 0.10117674 0.010593034 0.052714884 -0.021270173 0.007816424 0.024668958
-0.011566943 -0.027736073 -0.014228766 0.08512304 -0.09977232 -0.108888656 0.017512199 0.06713488
0.06834931 0.05175109 -0.0014245089 -0.04669625 0.1237093 0.09556479 0.033592544 0.015389139
-0.07547888 -0.068805456 -0.04804877 0.05251393 -0.0668952 -0.037524715 0.08514 0.043027874
-0.019047294 0.029982153 0.080295235 0.0028378891 -0.0095811775 -0.038972758 -0.040126864 0.031467576
-0.0060445764 0.073526144 0.029035918 0.041289136 0.026283462 0.038509578 -0.047813967 -0.014750736

dense1.bias f4 [128]
00000000: 1d61 f33c be8b b23c 82a8 72bc 94ff 8a3d
00000010: 9136 263d 706c 7ebd 99b5 9e3c deac 543d
00000020: 248f 8bbd 9b77 e73b 4ecc 2a3d 5f58 89bc
00000030: 9ed5 d13d 699b 04bc 1e93 f63b 531d 03bd
00000040: 9b5f af3c 7471 503d 44c6 403c fb1d 883d
00000050: 187e c2bb fdd8 693d adaf 1b3c e24e 8d3d
00000060: 98b3 90bc 1597 5dba 3c12 31bd 9b11 a83c
00000070: b5e5 b9bc 7547 f03d a8f6 f33c cc70 073c
00000080: defe 23bd cf95 3abc 1d56 013d e043 103b
00000090: f765 f13d 7201 673c 4d30 92bb 0790 35bd
000000a0: a9e4 ecbb cbf9 e53c bbb8 73bc 03a6 813d
000000b0: 9463 72bd f973 0fbc 2219 9e3c 1a50 033b
000000c0: d5db 323d 85e8 a4bd a694 f43c 5d34 153d
000000d0: b539 a63c 171c 9c3a f791 5d3d fe30 30bd
000000e0: 70ed 943c 4118 19bc f4ec 9ebc e2d1 3fbc
000000f0: 081c f0bb bcf0 1a3d ac6f 19bd 6ed3 723d
00000100: 0865 1a3d b455 31bd c2eb c83c d144 1dbc
00000110: 8159 753c de20 05bd eaba 423d 40cc 393d
00000120: 1b88 ab3d 988c 283d f3c1 cabb 5fd5 aabc
00000130: ed35 d3bc a8b2 923c 98b3 4d3d a868 2a3b
00000140: 7f52 1d3d cfd7 043d 3b21 963d 887b 403d
00000150: cb60 a8bc 6938 043d f6ac 52bc 9cfb e1bc
00000160: 2320 443d 9646 5f3d 05ad a13d 76aa 9bbc
00000170: 26dd 833d f9ac 37bd 88a9 f0bc e3cd fbbc
00000180: dd24 3ebd f9bb 313c 63f0 e43d 875e 39bc
00000190: 247d 843d 7a8e 543d 03d8 2f3d 9a34 0e3d
000001a0: 5cbc 573d 7f7f dfbc 93f4 dc3c fe36 1e3d
000001b0: e547 27bd 60d1 163d d82a 773c 0a7d 21bc
000001c0: 4ab2 ccbc 54ba 5b3c 126b 74bc 0c64 8f3d
000001d0: c5ab 793c 269a cd3d 85ff 0cbc 5206 d2bc
000001e0: 40bb 843d 5fa7 363c a16d c7bc 069a 603c
000001f0: d548 993c af73 0a3d 6993 81bc 662d d13c
0.029709393 0.02179515 -0.014810683 0.06787029 0.040579382 -0.062115133 0.019373702 0.05192267
-0.06814411 0.0070638186 0.041698746 -0.016765771 0.10245822 -0.008093693 0.007524862 -0.032010388
0.021407893 0.050889447 0.01176602 0.06646343 -0.0059354417 0.0570917 0.009502334 0.06899811
-0.017663762 -0.0008452994 -0.04323028 0.020516207 -0.02269254 0.11732379 0.0297807 0.008266639
-0.040037982 -0.011388256 0.031576265 0.0022013113 0.117870264 0.014099466 -0.0044613243 -0.04432681
-0.007229407 0.028073212 -0.014875586 0.06330492 -0.059176996 -0.008755677 0.019299094 0.0020036758
0.04366668 -0.08052162 0.029856037 0.03642689 0.020291189 0.0011910227 0.05409428 -0.043015473
0.018179625 -0.0093441615 -0.019400097 -0.011707755 -0.0073275603 0.03782724 -0.037460014 0.059283666
0.037694007 -0.043294623 0.02452648 -0.009598927 0.014974953 -0.032502048 0.047541536 0.045360804
0.083755694 0.041149706 -0.0061876713 -0.020853696 -0.02578255 0.017907456 0.050220102 0.0026002321
0.038408753 0.032432374 0.07330557 0.04699281 -0.020553967 0.03228036 -0.01285862 -0.027585797
0.04788221 0.054510675 0.07894329 -0.01900218 0.06438665 -0.044842694 -0.029377714 -0.030737823
-0.046421874 0.010848039 0.11178663 -0.011314041 0.06469181 0.05189369 0.042930614 0.034718134
0.052669868 -0.027282475 0.02697209 0.038626663 -0.04084005 0.03682077 0.015085898 -0.009856472
-0.024987359 0.013411123 -0.014918106 0.07001504 0.015238707 0.10039167 -0.0086058425 -0.02563778
0.064810276 0.011148303 -0.024344267 0.013708597 0.018711487 0.03380173 -0.015817361 0.025534343

dense2.weight f4 [64, 128]
00000000: 0721 ac3d e36e 953d e2c9 b4bd 6632 d6bc
00000010: 38b2 24bd 6fdb 8abc 166f bb3d 0ea3 9b3e
00000020: f34b 33bd bd58 69bc f270 9b3d 91df 903c
00000030: 1319 213e 410e 3b3d 82e0 44bd b5eb 54bc
00000040: 3c34 f83c 79af 2bbd c7e6 59be da26 01bd
00000050: b486 99bd 44f6 3bbd a3b2 89bd d995 8a3c
00000060: 7d82 0cbc ab3d c1bc ddc6 54bc 896a 3cbd
00000070: b277 04bd 75ee 043e ab52 5a3e ffe8 ae3c
00000080: 5578 33bd fb69 de3c 3af7 603d 1479 b3bc
00000090: b8c6 713d 7afd 173d 8198 263d 3094 963c
000000a0: b432 cfbc 333f 013d 67a3 a5bd a085 873d
000000b0: 7ff6 943c 5270 873d 5403 143d 67c0 003e
000000c0: d364 bbbd 2c83 bf3c 2d08 063e 375e c2bc
000000d0: 7c22 173d 424d c33d 8fb6 f9bd a55f a9bd
000000e0: 7517 11bd 4da6 3cbe de2a f93b fffb 95bd
000000f0: 5e34 7bbc 92b8 be3c e0d5 95be 3003 42be
00000100: 26ea 5a3d 0913 c63a 4386 fcbd d566 d2bc
00000110: 3615 cc3d c280 51bd a3ea 9f3d 9e20 e13d
00000120: 02f6 b13d 4a68 913d 339d 183d a121 b4bd
00000130: 8c96 943d a3ec 8dbd 238f 083e 7782 95bd
00000140: 6a88 12be 90cb e4bd 1b39 be3d 6865 2fbe
00000150: 2e34 323d e0be 9cbd 0a8f 983d e38e 533c
00000160: 4cad 583d 16a7 063e 8274 1fbd 4786 e0bd
00000170: 5716 08be 958e 483d b4ad 67bd a66b 433d
00000180: 1dd0 70bd 51c1 f43d 1ffe 9c3d d469 c7bc
00000190: 613b 373e 0b5b db3d 3186 8f3c b848 ccbc
000001a0: bec5 c2bc 1f62 c93d 1c98 3f3d 7992 bdbd
000001b0: 9159 debd f0a8 97bd 9020 303d 1cea 4c3d
000001c0: d1e6 073e 2733 00be 60ab 37bd 1cc5 613d
000001d0: 3d37 7fbd 9c4c 253a 01e3 eebd 6457 f9bb
000001e0: aff8 b33b 98b4 d63d 27fd 663d 223a afbd
000001f0: d769 31bd 74ca e23b fb5a 3e3d 4f6d b53c
00000200: 38e8 813d dea1 a3bd f29f aa3d de21 83bd
00000210: e37b 4abd 1613 bbbd 768b 1f3d c486 e7bc
00000220: e003 ae3d 8209 363b caa9 bfbd f1ac 08bd
00000230: b9f6 15bc 0e97 5f3b 49d9 8c3d a136 06bc
00000240: 21fa 813d 28eb 673d 5d77 50bc 1635 febb
00000250: f465 1f3c 6893 423d 1cc4 633b 12a8 e9bc
00000260: 9bf0 bbba 33b5 0bbd 055b 27bc 1a7e 6a3d
00000270: 2eff ef3b 4bd8 96bb 3af0 8fbd 8685 96bc
00000280: 5440 babd e0e9 963c f1bc e13c 942d 2a3d
00000290: 443e 573d b219 71bd 91ed c0bd ea4c a23d
000002a0: a9df 043d 6df6 913d f2a1 10bd a87e 7a3a
000002b0: 46e2 b53a bc04 053b ea08 a8bd 7094 483d
000002c0: cb95 9bbd c73c 75bd 0059 c2bd c2aa a0bd
000002d0: ca66 743d 0ad4 2cbc 14d4 8abd a349 8cbd
000002e0: 5c35 a5bd 93eb dabb a040 04bb 6211 7cbd
000002f0: 5b47 5fbd bb3f 483d 3a6d 28bc c1ee bbbc
00000300: a22b 803c b024 053d 9a70 553d 79e8 52bd
00000310: 3f39 4bbd 0ffe b5bd 0ab3 9fbd 5001 c5bc
00000320: 2f93 c3bd 7da2 c5bc f912 5f3c 0832 c9bd
00000330: 63da 39bd 22a9 31bd b224 053d 234a 823d
00000340: 9d2d 4a3d 51c5 9e3d c16c 93bd d208 063d
00000350: 1e48 1b3d a444 8fbc 2516 0bbb b421 babd
00000360: 9a91 7e3d 44b9 f23b 4666 e7bc ae51 bcbd
00000370: 0b7b a1bd 8aee 65bd 213a 58bd f7f9 413d
00000380: 2e62 7abd d955 17bd 4758 40bd 5396 663d
00000390: e58f 94bc 9a61 863d b4ba 62bc 77c5 983d
000003a0: 5019 82bb 7c3c 65bd 9fae 23bd de79 773d
000003b0: b6bb a4bd 95ed 97bd 31bd cabc f1a3 89bc
000003c0: b26e cbbc c00c 97bc dc8e 69bd 8fb1 88bd
000003d0: 18ef 8b3d afb3 5ebc b1db f9bc fd4d b0bd
000003e0: f4a7 b0bd 43f5 623d 4e98 823d 20e4 153d
000003f0: b095 253d f495 503d 0191 0cbd 036d 403c
0.08404737 0.072965406 -0.088275686 -0.026147079 -0.040209025 -0.016950337 0.09152047 0.30397838
-0.043773603 -0.014242348 0.07589902 0.01768473 0.15732221 0.04566789 -0.04806567 -0.01299565
0.030298345 -0.04191539 -0.21279441 -0.031531192 -0.07496396 -0.045889154 -0.067235254 0.016917156
-0.008576033 -0.023588976 -0.012986866 -0.046000037 -0.032340713 0.12981589 0.21320598 0.021351336
-0.04381593 0.027150145 0.054923274 -0.02190832 0.059027404 0.03710697 0.040672783 0.018381208
-0.025292732 0.031554412 -0.08087807 0.06617284 0.018183945 0.0661322 0.036135986 0.12573396
-0.0915009 0.023377977 0.13089056 -0.023726566 0.03689812 0.0953622 -0.121930234 -0.08270196
-0.03542276 -0.18422814 0.007603987 -0.07323455 -0.0153323095 0.02328137 -0.29264736 -0.18946528
0.053445958 0.0015111874 -0.12330296 -0.0256838 0.09964983 -0.051148184 0.07808425 0.10992549
0.086895004 0.0709997 0.03725929 -0.08795477 0.07255277 -0.069299005 0.13335852 -0.07300275
-0.1430985 -0.11171639 0.09288236 -0.17128527 0.043506794 -0.07653594 0.074491575 0.012912485
0.052899644 0.13149676 -0.03892947 -0.10963111 -0.13289772 0.0489641 -0.05656214 0.047710083
-0.058792222 0.11950935 0.07665657 -0.024342455 0.17893745 0.107107244 0.017520042 -0.024937019
-0.023775931 0.09833168 0.046775922 -0.09256453 -0.10856927 -0.07405269 0.042999804 0.05002795
0.13271643 -0.12519513 -0.04484117 0.05511962 -0.06230854 0.0006305666 -0.11664391 -0.0076092947
0.005492292 0.10483664 0.05639377 -0.0855601 -0.043313827 0.006921107 0.046473484 0.022146849
0.0634312 -0.07989858 0.083312884 -0.06402944 -0.049434554 -0.091345 0.03895136 -0.028262503
0.08496833 0.0027776663 -0.093585566 -0.033368055 -0.009153062 0.0034117135 0.06877381 -0.0081917355
0.063465364 0.056620747 -0.012723771 -0.007757793 0.009728897 0.04750386 0.0034754341 -0.028522525
-0.0014338674 -0.034108352 -0.010214572 0.057249166 0.007324121 -0.004603421 -0.070282415 -0.018374216
-0.09094301 0.018422067 0.027555915 0.041547373 0.052549616 -0.058862396 -0.09420312 0.079248264
0.03243986 0.0712708 -0.035310693 0.00095556164 0.0013876639 0.0020297011 -0.08204825 0.048969686
-0.0759693 -0.059872415 -0.09489632 -0.078450695 0.05966834 -0.010548601 -0.06778732 -0.068499826
-0.08066818 -0.0066809147 -0.002018012 -0.061540015 -0.05451141 0.048888903 -0.010279948 -0.022940995
0.015645806 0.03250569 0.05210934 -0.051491234 -0.04961514 -0.088863485 -0.07797821 -0.024048477
-0.095495574 -0.024125332 0.013615363 -0.09823996 -0.045374285 -0.04337419 0.0325057 0.06361797
0.049359906 0.07752479 -0.071984775 0.032723255 0.037910573 -0.017488785 -0.0021222916 -0.090884596
0.062150575 0.0074073393 -0.02824701 -0.09195267 -0.07884797 -0.05613569 -0.05278981 0.047357526
-0.061128788 -0.036947105 -0.046959188 0.056295704 -0.01813502 0.06561585 -0.013838459 0.074595384
-0.0039703026 -0.055965886 -0.039961454 0.060418956 -0.080436155 -0.07418362 -0.024748417 -0.016801806
-0.024833057 -0.018438697 -0.057021007 -0.066744916 0.06832713 -0.013592645 -0.030500265 -0.08608625
-0.086257845 0.05540968 0.06376706 0.03659451 0.040425956 0.050924256 -0.034317974 0.01174474

dense2.bias f4 [64]
00000000: a9cb 263e c4d0 383d 8b8f acbd f08d ac3d
00000010: db6f 523d 1515 28bd 1b79 94bd 3da2 023e
00000020: f42f a63d 8f55 14bd ed25 49bd c5ac 973d
00000030: 2580 d13d c43e 4abd 3b8c c0bb 7338 1d3d
00000040: 0b02 1abd 4e6e 51bd e380 c2bd 5f11 ae3c
00000050: 81df f3bb db83 acbd 2429 9c3d 576e de3d
00000060: 228d 82bd b11e 643d 60d3 9fbd 9534 a8bd
00000070: 9fa2 f5ba aa81 58bd 13f7 a0bd 702c 33bd
00000080: 3ca3 9abb 68a4 bf3c 2788 49bd 1ff8 d6bd
00000090: 8a7b 6e3d 5fe8 f63c 3441 05bd ca9e 3f3d
000000a0: 8af0 8e3d 10cf a9bd a6b3 ef3d 5335 e63c
000000b0: a88a 6c3b 2813 193e 2b6c 37bd 94dd c2bd
000000c0: d537 9a3c 3c5a e03b c180 cabd b4ae 893d
000000d0: 19e5 b93b 9545 2a3e d18c a2bd 1fc6 03bd
000000e0: 8bdd f6bb de51 903c dd01 603b 1fa5 9cbd
000000f0: 4c1a 8f3d 212c e7bd 52df 703a 3116 c5bd
0.16288628 0.04512097 -0.08425816 0.0842551 0.051376205 -0.04103573 -0.072496615 0.12757201
0.08114615 -0.036214408 -0.049108434 0.07406 0.1022952 -0.049376264 -0.005876092 0.038383912
-0.037599605 -0.051130585 -0.094972394 0.021248518 -0.007442415 -0.08423587 0.076250345 0.108608894
-0.06374575 0.055693332 -0.078039885 -0.08213154 -0.0018740481 -0.052858032 -0.07859626 -0.04374355
-0.004719166 0.023393825 -0.04920211 -0.10496544 0.058223285 0.0301401 -0.032532886 0.046782292
0.06979473 -0.08291447 0.11704187 0.028101599 0.0036093388 0.14948714 -0.04478089 -0.09514919
0.01882545 0.0068466943 -0.09887839 0.06722775 0.0056730625 0.16628106 -0.07937015 -0.032171365
-0.007533734 0.017617162 0.0034180798 -0.07648682 0.069874376 -0.11287714 0.0009188551 -0.09623373

final.weight f4 [10, 64]
00000000: 7152 623d b4e8 cbbc 7f43 e23b 3679 bf3d
00000010: b334 d1bd 2db6 773d 149f 1f3d ab77 81be
00000020: 5e22 cd3c 55ec 4e3d c5f7 103e f1bd 94be
00000030: 0bc4 243d 9888 c4bd 6f63 553d 2d59 42be
00000040: ed26 c5bd 8da0 62bd fa49 7dbd fd7c f73d
00000050: 6fea 6c3d dd02 a9be cf26 db3d fa05 ef3d
00000060: b901 b43d ebaa 8cb9 fc23 b83c 37e2 b8bd
00000070: 82fe 873d 2ab0 26be ab06 41bd 4949 383d
00000080: c307 493d 4e38 12be 7b07 49bd 5e86 a7bd
00000090: a836 5c3e 27e9 a93d a940 e1bd f4e4 24be
000000a0: 620e d8bc 314e a23d eb8c f8bd fdae 213e
000000b0: bd5c 13be 0a19 1c3e ac3a 8dbc 2ef5 b2bc
000000c0: bd60 96bd f1d9 c23c affc 893c c903 03be
000000d0: 9106 0fbe ecf5 03bd 61b0 473e 4c7a ecbd
000000e0: ddf3 36bd 6bed 87bc 7d72 1abe 7d29 bfbd
000000f0: 2547 96be e524 e53c f01c 2d3c e293 86bd
00000100: 505c c83d 4bde abbc 438d edbd 1e75 21be
00000110: f13e 153d 18bc dc3e e192 7f3d 2523 e4bd
00000120: bd32 1a3e a0ff a3bd 87d1 0abe 6469 d03c
00000130: 0939 2e3e f039 c4bd d3a8 4cbe 1c53 aeba
00000140: b25f 06be 7ff8 14bd 9aea b63c efae 40be
00000150: 7b4d 333e 3c24 083e 64e2 f4bd b86e 2cbe
00000160: 7244 be3d d6fa 143e 56a2 1b3d 2172 ea3d
00000170: 1dfb 78bc 823b 733c 127a 973d 8f0a 34bd
00000180: 05b3 babd 0f96 0fbe 663c 3d3d d465 343d
00000190: 38bc 32bd 5888 bbbd d901 1e3d 0bfb 38be
000001a0: 8326 1fbe b93e 60be 0314 083e 46d0 7e3d
000001b0: c85b 283c d82d b23d 479e b83d a659 413d
000001c0: 1fbd 9f3b 6718 4f3e 5ea3 2e3d dd05 013e
000001d0: 0840 73be 5ee6 d33d 8a07 5abe 88be 0e3e
000001e0: 83f4 613e d5cb ac3c 4245 003e 7686 453d
000001f0: 25f7 873d 75f3 f7bc de81 8a3d b825 bebd
00000200: 66ef 6bbe b257 66bd b997 393e 04f4 6bbe
00000210: fb35 8f3c 7664 3dbd e8b2 d4bb ee66 af3d
00000220: 66c2 babd 01ff 3dbd 3386 583e 801b 82be
00000230: 8a93 013e 8e53 d4bc 4bb4 e33d b3a9 6bbe
00000240: 49f1 bc3d f90c d9bc f1fe 883c a824 78be
00000250: 492b 243e 5492 abbd 52d6 843c 08ba 403e
00000260: 8b3b e4bc 47ae 103d 560f 85bb 7ad3 d13d
00000270: 6032 7abd e7b9 ac3d 752c 76be 4913 243d
00000280: aaa1 513d 4936 2a3e 5cc5 d8bd 8dc2 acbd
00000290: dcbc 043e 9231 5bbd 3aab 803d a733 bfbc
000002a0: ea02 50be 2bd1 b93d 7b4d 013c c572 4d3e
000002b0: 5525 1dbe 39a9 b7be c101 873d 8e0d b43a
000002c0: f91e 893d 1453 bbbe ea6f e63d ee5d 5abb
000002d0: a533 88bd 33db 50bd 4018 a0bd ab15 1cbd
000002e0: 5b32 ca3d 8374 8c3c fef6 6cbd bf3f a3bd
000002f0: 9dcf fa3d fdb3 b3bd eb34 c13b add4 3ebd
00000300: 23f7 43bd c59d abbd c842 e1bd 7e1c 413e
00000310: 46d4 9d3c 98a4 84be 4dc5 7a3d 8d38 02be
00000320: 7130 9e3d 0165 ccbd 4598 66be 4cb9 3e3e
00000330: 559e 813c 3273 193d 0374 ba3d ae35 3e3e
00000340: 828e ebbc 8d11 82bc dc2a f8bc 2af4 13be
00000350: 0d4d d3be ce68 ffbe 1063 303e 3b5f dcbd
00000360: 4df8 c0bd a338 6e3b ef0c 58bd 1969 f53d
00000370: 0aad 2a3d 8bab f03d d228 033d caaf 78bc
00000380: 8524 1d3e 50ec a03d 140f 983d 9633 76bd
00000390: fd1d 9a3d bf12 823d 5d38 50bd 17bf 7dbe
000003a0: 9207 e0bc fa8a 1fbd 892b f6bd bfac ec3c
000003b0: 3074 4c3e 7be5 a8bc f444 f5bd 11c7 c5bd
000003c0: b347 51bd e4cf 3cbe 63d1 6a3c ce36 523e
000003d0: 63c0 8cbd 85d3 2fbd a673 e4bd 80bc 4abd
000003e0: 60f8 a4be b183 a23d f503 29be cebe 39bd
000003f0: 80ce 033e 8af1 e93c 8822 143e 03fb 8dbd
0.055254404 -0.024891235 0.006905019 0.09349291 -0.1021513 0.06047647 0.038970068 -0.25286612
0.025040802 0.050518353 0.14157017 -0.29051164 0.040226024 -0.09596366 0.05209678 -0.1897933
-0.09626565 -0.055328894 -0.061838128 0.120843865 0.05784076 -0.33009997 0.107007615 0.11671062
0.08789391 -0.00026830225 0.022478096 -0.09027522 0.066403404 -0.16278139 -0.0471255 0.044991765
0.049079668 -0.14279291 -0.0490794 -0.081799254 0.21505225 0.082964234 -0.10998661 -0.16102964
-0.026374046 0.0792507 -0.12136253 0.15789409 -0.14390846 0.15243927 -0.017239891 -0.021845426
-0.0734267 0.023785563 0.016844122 -0.12794413 -0.13967349 -0.03221695 0.19500877 -0.11546764
-0.04466616 -0.016592702 -0.15082736 -0.09334085 -0.29351154 0.027971694 0.010565981 -0.06571175
0.09783232 -0.020980021 -0.11599209 -0.15767333 0.03643698 0.43112254 0.062395934 -0.11139516
0.15058418 -0.08007741 -0.13556491 0.02544088 0.17013945 -0.09581363 -0.19986276 -0.0013299915
-0.13122442 -0.036369797 0.022328664 -0.18816732 0.17510025 0.13295072 -0.11957243 -0.16839111
0.09290399 0.14548811 0.037996612 0.114475496 -0.015196589 0.014845731 0.0739633 -0.043955382
-0.091161765 -0.14022087 0.04620018 0.044042423 -0.04363653 -0.09156865 0.03857598 -0.18064515
-0.15542035 -0.21898927 0.13288884 0.062210344 0.010275789 0.0870015 0.09014564 0.047204636
0.00487484 0.20224153 0.042636268 0.12599893 -0.23754895 0.103466734 -0.21291938 0.1393987
0.2206593 0.021093288 0.1252642 0.048223935 0.06638936 -0.030267457 0.067630515 -0.09284538
-0.23040542 -0.056235977 0.18124284 -0.23042303 0.017481795 -0.046238385 -0.006491054 0.08564554
-0.0911911 -0.04638577 0.21144943 -0.25411606 0.12653938 -0.025918748 0.111183725 -0.23013954
0.09225709 -0.026495444 0.016723128 -0.24232733 0.16032137 -0.08377519 0.016215477 0.18820965
-0.027860424 0.035322454 -0.004060666 0.10245414 -0.061083198 0.084338956 -0.24040397 0.040057454
0.051179565 0.1662227 -0.10584518 -0.08435545 0.12962669 -0.05351407 0.06282659 -0.02334006
-0.20313612 0.09073099 0.007892008 0.20063312 -0.15346272 -0.35871294 0.065921314 0.001373695
0.06695361 -0.3658682 0.11251815 -0.0033320147 -0.066504754 -0.050990295 -0.07817125 -0.0381066
0.09872886 0.0171454 -0.057852738 -0.07971143 0.1224663 -0.087745644 0.005896201 -0.046589542
-0.04784311 -0.083797015 -0.10999066 0.18858525 0.019266259 -0.25906825 0.061223317 -0.12716885
0.07724083 -0.099802025 -0.22519024 0.18625373 0.015822569 0.037463374 0.09104159 0.18575165
-0.028754476 -0.01587751 -0.030293874 -0.1444861 -0.41269723 -0.49884647 0.1722529 -0.10760351
-0.094223596 0.0036349676 -0.05274671 0.119829364 0.04166893 0.11751469 0.03202135 -0.01517863
0.15345962 0.07857573 0.07424751 -0.06010779 0.07525251 0.06351232 -0.050835002 -0.24779926
-0.02734736 -0.038950898 -0.120200224 0.028890966 0.19966197 -0.020617237 -0.119760424 -0.096571095
-0.05109377 -0.18438679 0.014332148 0.20528719 -0.06872632 -0.04292633 -0.11154871 -0.049496174
-0.32220745 0.079352744 -0.16505416 -0.04534798 0.12871742 0.028557558 0.14466298 -0.06932642

final.bias f4 [10]
00000000: f2a7 063e f7e7 093e 4e08 8b3d f608 ae3d
00000010: 28d9 07be 46ca f1bc cb6f a83d b30e fd3d
00000020: 91d1 3cbd d99e 603d
0.13150004 0.13467394 0.06788693 0.08497803 -0.13266432 -0.029515397 0.08224448 0.12356319
-0.046098296 0.05483899
