Superclass/models/constraint_only_10_eps.pth (torch, 249354 bytes, 10 tensors)

conv1.weight f4 [6, 1, 5, 5]
00000000: 4555 4abc a310 45bc 0c0a 8e39 9ecb 2d3c
00000010: 26df ab3c e26f 4bbd 4376 9dbd 16f3 1ebc
00000020: 4d8c 9e3d bd96 cf3d cd1c 39be acad 5abe
00000030: fcd0 e63b b5dc 6c3e d13f 4b3e 5809 97be
00000040: 26f6 57be 313f 9d3d ab31 a63e cbc8 453e
00000050: 28bf e8bd b8e7 82bd 4739 963d c3b3 393e
00000060: 0ba2 8b3d e739 353d 80c0 d83d 716e f03d
00000070: 2926 b43d e247 233d 2b56 d93d 99fd 5b3e
00000080: 17fd 813e 7be5 853e 6c2f 173e e699 d33d
00000090: 7eae 513e 093f 713e 4e8d 9a3e f783 203e
000000a0: b460 8f3d 0fb5 473e a7fd 8c3e 7136 8a3e
000000b0: e695 ae3d f14a ec3c 1d58 df3d 3c09 2a3e
000000c0: e055 fc3d cec2 85bb 01ef a63b 31dd b53c
000000d0: 21e5 463c 46b2 0dbd 7351 2cbd b598 423c
000000e0: c189 c83d e10d 363e d8d8 013e dfbe fd3c
000000f0: 1969 a3b9 2718 8f3d 0d48 693e 2c91 a43e
00000100: 84ad 2b3e ee6f acbc a93a 14bd 6231 153d
00000110: d218 513e 30e4 2d3e eea2 d8bc b3a7 59bd
00000120: 5015 c9bc d931 613d 93f4 8e3d 4c97 b83c
00000130: f4d7 853d fb96 fd3d e058 f73d 5e2e 4c3d
00000140: 4756 583d 5350 1c3e b8d0 893e cb14 4b3e
00000150: 9a66 633d 0c6d b83c 1a71 5a3d 9159 bb3d
00000160: 4402 7a3d 7525 ec3b 9364 cbbc 4b85 35bd
00000170: 0c12 27bd ee1a 28bd 6b79 cbbc bd01 10bd
00000180: cb6c 7ebd a330 7fbd df2a 53bd 3e12 cebc
00000190: 5245 67bc 4bde 4c3c 3d27 0f3d a52d 123d
000001a0: a1a6 6e3c a5d0 43bd 5874 ecbc 4257 e23c
000001b0: 2ef1 383d 1549 9f3c c1b9 c5bc 2e4b 86bd
000001c0: 8cc0 25bd 0bb0 5ebc 7ff6 49bb 832c 183d
000001d0: 83f2 363b f39c 29bd 9d8f 43bd b7c2 40bc
000001e0: 4dc4 0d3d 1f33 f23c 8e16 30bb d06b 8ebc
000001f0: 097d 06bc 14e3 39bd 3a21 d1bd 7b20 a4bd
00000200: 05c4 c7bc 9414 9cbb 2ec6 07be 9f84 8cbe
00000210: 1e03 31be 190e ecbc 9955 6ab9 ff15 03be
00000220: 5fe8 5bbe c24c d8bd 732e b43b 3421 763c
00000230: 14da 26bd e8b9 77bd 4da4 bdbc a5d1 6b3c
00000240: 4427 7e3c bf69 d73a d098 0ebb 0ec4 efba
00000250: 9c81 3e3b 3344 bb3b
-0.012349431 -0.012027892 0.00027091836 0.010607628 0.020980429 -0.049667247 -0.07688572 -0.009701511
0.07741604 0.10136173 -0.18077393 -0.21355313 0.007043956 0.23131068 0.19848563 -0.29499316
-0.21089992 0.076780684 0.3245977 0.19314878 -0.11364585 -0.06391853 0.073351435 0.1813498
0.068180166 0.044244673 0.105835915 0.11739815 0.08796341 0.039863475 0.10612138 0.21483459
0.25388405 0.26151642 0.14764184 0.10332088 0.2047672 0.23559202 0.30185932 0.1567534
0.070008665 0.19502662 0.2753727 0.2699466 0.085246846 0.028844329 0.10905478 0.16605085
0.12321067 -0.0040820604 0.0050944095 0.022200199 0.0121395895 -0.034593843 -0.042069864 0.0118772285
0.097918995 0.17778732 0.12680376 0.030974803 -0.00031168087 0.069870286 0.22781391 0.32142007
0.1676541 -0.021049466 -0.036188755 0.03642405 0.20419624 0.16981578 -0.026444878 -0.053138446
-0.024546295 0.05497918 0.069802426 0.022533081 0.065353304 0.12382313 0.120774984 0.049848907
0.052816655 0.15265016 0.26917052 0.1983215 0.05551777 0.022512935 0.05333052 0.09147943
0.061037317 0.0072066137 -0.024828231 -0.04431657 -0.040788695 -0.041041307 -0.02483817 -0.035157908
-0.06211547 -0.062302243 -0.051554557 -0.025155183 -0.014115648 0.012504171 0.03494953 0.03568806
0.014566095 -0.0478064 -0.02886407 0.027629498 0.045151882 0.019444028 -0.024136426 -0.06557308
-0.04046683 -0.013591777 -0.003081709 0.037151825 0.0027915544 -0.041409444 -0.047744382 -0.011765174
0.034611035 0.029565392 -0.0026868912 -0.017385393 -0.008208522 -0.045382574 -0.102114156 -0.08014008
-0.024385462 -0.0047631953 -0.13259193 -0.27444932 -0.17286345 -0.028815316 -0.00022347867 -0.1280136
-0.21475361 -0.105615154 0.0054987012 0.015022565 -0.04073532 -0.06048003 -0.023149634 0.014393245
0.015512291 0.0016434713 -0.0021758564 -0.0018292682 0.0029068952 0.005714917

conv1.bias f4 [6]
00000000: b2c4 8bbd 9d36 2f3f 4232 5d3f c60d 493f
00000010: 0346 ec3e 275c 30be
-0.06824626 0.6844271 0.8640481 0.7853664 0.46147165 -0.17222653

conv2.weight f4 [16, 6, 5, 5]
00000000: a676 fcbc ef56 dc3c d66d 993d 0501 ab3d
00000010: 6a6b ef3c 56e3 76bc 1495 e03c 2fc8 e33d
00000020: fe55 443e db60 de3d 5a5b 8d3a d6ed 06be
00000030: 4ec6 5fbe 1071 83bd 7461 b73c 2533 bdbc
00000040: 7277 e8bd f677 81be 2b0d 41be 4beb 673c
00000050: 600a c4bc 292c dfbc b005 4dbd 3359 643b
00000060: ec5f 7f3c d7de a43d 368b 783d 3d8c 883d
00000070: efa2 8b3d a5d7 b23d 65bb e6bd 6c86 04be
00000080: 0031 40be b212 26be a229 2bbe 97a6 d9bd
00000090: 0f4b 6dbd b36e f3bc 4fc9 acbd 4b5a 0ebe
000000a0: 3966 b43d a8d5 2f3e f664 1a3e 0d18 383e
000000b0: 3e04 983b 3113 503b f12c e53c e454 8a3c
000000c0: a3c8 263d 2a2c 3fbc e581 733c 56f9 61bd
000000d0: 7d28 183d 3bc8 b23d c53c 85bc 7507 93bd
000000e0: 5810 b9bd 09f7 5abe 9f01 12be 2439 a9bd
000000f0: e8a9 763d 029d 2c3c 059d fd3d 24ee 11bd
00000100: 90b2 edbc ffa8 253d 326f c93c 27f1 1d3e
00000110: 6500 943d 8fa2 933c 6853 e8bd be9e b7bd
00000120: 3427 a5bd 53c2 49bd 0f9c 5bbc f88d 44bd
00000130: 559b 603d 1124 153e a53a 983d 7c4c cb3c
00000140: c4f9 183e 271b 583d 7039 3c3b ec64 193d
00000150: e144 cc3c ae41 15bd 709e 42bd 5ecf 57be
00000160: fbe6 6fbe 4497 10bd 9674 833d 53e9 153e
00000170: c4d3 803e eb78 0c3e 80df ee3c f8a9 0e3d
00000180: f123 0b3e 649e 7d3d 1e75 e13d 953b 3abb
00000190: 76fa e6bb 6df7 0ebc b728 bdbc d0de 1fbd
000001a0: a239 eebc 30d0 a83b b88d d23d df28 1c3e
000001b0: b550 173e ce6e aa3d 5340 ef3c 25de b9bd
000001c0: f56c 88bc 76d4 bb3d 667b 8c3d 6606 77bd
000001d0: ae67 3dbe f2f1 90be 5a10 98be a2ee 4c3c
000001e0: 2744 723c 5ded 983c ada0 93bd b62f 10be
000001f0: 6e69 a1bb 8864 173d ae7d 823d 9954 8d3c
00000200: 98f7 9f3c 9eda ed3b b549 403b 4995 023e
00000210: b638 173e 995d a03d af9c 603d 7398 5cbc
00000220: 093c 573d d28e 653e 5e4d 3d3e 17e3 813d
00000230: b0b7 3bbc 28b9 f3bd 7bfd 20be f3a0 43bc
00000240: 3218 0b3d 1a5b 1bbd 14b2 a6bd 6827 11be
00000250: 1b0f b4bd 8feb b6bb 2c16 d6bc d939 6a3d
00000260: d116 a73b a92f 0ebe 50d2 c33c eb07 993c
00000270: 4069 c03d de2f a23b 1814 b6bd 05cc c3bd
00000280: 7ff8 403d a77e b63d 69ef 023d c09d ec3c
00000290: 0d48 863d e6c5 023c ca65 d43c f14b 42bc
000002a0: c32c 763c c7c9 083d e7d9 d3bc efbc 083d
000002b0: 3e8a 473c a026 56bc 4f07 333d 9e28 54bd
000002c0: daf1 773c 98bd 5c3d d4e0 a03d af5d 16bd
000002d0: 2e5c aabd 188f ba3c 83f7 293d 559c 1f3d
000002e0: 9126 4bba 28d1 adbd 3800 b0bd b22c 78bd
000002f0: b695 be3d a3d1 863d fad4 2ebd 3046 16bd
00000300: 98fb 053d b778 b2bc e9a8 ca3b ed44 a1bd
00000310: 727f 18be b5d6 a3bd 50b5 db3c 144f 28bc
00000320: f554 cd3c c1ef bf3d ad5d 983c 9b31 f73c
00000330: c6e2 a0bb c3df 98bd f068 653d b99d 773e
00000340: d42a 0f3e 1d63 903d 8238 f2bd 6a20 8dbd
00000350: 9dd1 f33c f5d8 1b3e 715a d53d e750 bfbd
00000360: 677a 47bd 47ea c8bd 294f c23c 99e1 8b3d
00000370: e0ca e2bd 2868 3ebd db9f 8abd c91d c6bb
00000380: b8f1 213b 57e0 01bc 9f6d a83d e71d 9a3d
00000390: 1493 4bbd ddb8 22bd 7ad9 683d 4339 0a3e
000003a0: 2c0c 703d b64a 1b3d 5ca4 6ebd 9160 53bc
000003b0: b9aa 4ebd ddc7 c63d 95cc 2b3e 83d1 043d
000003c0: 7ac2 1cbd e6d4 cebd 0704 75bd 1ec7 f63b
000003d0: 0495 b9bb e918 34bd 7ebf b2bc a189 41bd
000003e0: 00e8 dabc ef23 09bc 4f1b 8b3c cb4e 853d
000003f0: 176c 8e3d 056b 6c3d 6a4c 793c 524d af3b
-0.030818295 0.026896922 0.07491653 0.08349804 0.029226024 -0.01506885 0.027414836 0.11122166
0.19173428 0.108583175 0.0010784671 -0.13176665 -0.21852991 -0.06418049 0.022385336 -0.023095677
-0.113509074 -0.25286835 -0.1885268 0.014155219 -0.023930728 -0.027242737 -0.050054252 0.0034843206
0.015586834 0.08050316 0.060679637 0.06667373 0.068181865 0.08732537 -0.112662114 -0.12941903
-0.18768692 -0.16218069 -0.167151 -0.106274776 -0.05793291 -0.029715871 -0.08436834 -0.13901632
0.0880856 0.17171347 0.15077576 0.17977925 0.0046391776 0.003174972 0.027975531 0.016886182
0.040718686 -0.011668244 0.014862512 -0.055169426 0.037147988 0.08729597 -0.016264329 -0.07179157
-0.090363204 -0.21383299 -0.14258431 -0.08262852 0.06022063 0.01053548 0.12383465 -0.0356275
-0.02901581 0.04044437 0.024589155 0.15424024 0.07226638 0.01802185 -0.113440335 -0.089658245
-0.08064118 -0.049257588 -0.0134039065 -0.047986954 0.054835636 0.1456454 0.074330606 0.024816744
0.14939028 0.05276027 0.002872076 0.037449762 0.024935188 -0.03643959 -0.04751438 -0.21075198
-0.23427956 -0.03530051 0.064187214 0.14639787 0.25161564 0.13718002 0.029159307 0.034830064
0.1358793 0.06191863 0.110086665 -0.0028416861 -0.0070489002 -0.008725983 -0.023090703 -0.03903085
-0.029080216 0.005151771 0.10280937 0.15249966 0.14776881 0.083219156 0.029205477 -0.09075574
-0.016653517 0.09171383 0.06859474 -0.060308836 -0.18496582 -0.2830959 -0.29699975 0.012508066
0.014786757 0.018667871 -0.07208381 -0.140807 -0.0049258983 0.03696111 0.06371628 0.017252253
0.019527242 0.007258727 0.0029340808 0.1275226 0.14767727 0.07830352 0.054836925 -0.013464081
0.05254749 0.22417763 0.18486544 0.06342142 -0.011457369 -0.1190055 -0.15721695 -0.011940229
0.03395862 -0.037928678 -0.081394345 -0.14175189 -0.08791944 -0.00558228 -0.02613362 0.057184074
0.0050991555 -0.13885368 0.023903996 0.018680533 0.09395075 0.004949554 -0.08890551 -0.09560398
0.047111984 0.08910876 0.0319666 0.028883815 0.06556711 0.007981753 0.025927443 -0.011858926
0.01502532 0.033395555 -0.02586074 0.033383306 0.012178956 -0.013070732 0.043708142 -0.051796548
0.0151333455 0.05389175 0.078553826 -0.036710437 -0.08318363 0.02277331 0.04149581 0.03896745
-0.00077495823 -0.08487159 -0.08593792 -0.0605895 0.09305899 0.06582954 -0.04268358 -0.03668803
0.03271064 -0.021786077 0.0061846864 -0.07874475 -0.14892367 -0.079999365 0.026819855 -0.01027276
0.025064925 0.09371901 0.018599356 0.03017502 -0.004909846 -0.07464554 0.05600828 0.2418126
0.13981181 0.07050154 -0.11827184 -0.06890948 0.029763037 0.15219481 0.10417641 -0.09341603
-0.048700716 -0.0981031 0.023719387 0.06830139 -0.110738516 -0.04648605 -0.06768771 -0.006046031
0.0024710726 -0.007927022 0.082240336 0.07525235 -0.04970081 -0.03972708 0.056848027 0.13498406
0.058605358 0.037913047 -0.058262214 -0.012901441 -0.050455783 0.0970609 0.1677726 0.03242637
-0.038271405 -0.10099201 -0.059818294 0.007531061 -0.005663516 -0.04396907 -0.021819826 -0.047250394
-0.026721954 -0.008370384 0.016980795 0.06509169 0.0695421 0.05771925 0.015215972 0.0053497935

conv2.bias f4 [16]
00000000: 22e9 90be 75cc 553e 9de5 7e3d 4b44 f23d
00000010: ae0f ee3d fbe2 e5bc 8ccf 4ebe 77a3 f63d
00000020: 174a 8f3e 5a27 bc3e b103 573e 634f d3bd
00000030: 58dd 91bd 1bfa 103f 636f a53d baf4 103e
-0.28302866 0.20878775 0.062230695 0.11829432 0.116240844 -0.028062334 -0.2019636 0.12042897
0.27986214 0.36748773 0.20997502 -0.10317876 -0.07122296 0.5663163 0.08077886 0.14155856

dense1.weight f4 [120, 400]
00000000: 3f59 26bc fcc8 893c 7a60 6cbd b154 4bbd
00000010: 6dbb de3c 1b82 92bc 8619 273d 0538 4cbd
00000020: 1cc2 4dbd 3224 17bd 80c8 acbc d163 4aba
00000030: a49b 89bc 3b97 063d 2b2d e53c ee28 edbc
00000040: 62bf 01bd 9529 a9bc e7f8 b4bc 0843 0cbc
00000050: 2658 9b3a ec82 263d 884e 9ebc 786b 093d
00000060: 51c2 8e3b 74b1 2ebd b1fa 49bd 8f97 27bd
00000070: 695d 21bd b408 f2bc 6e88 8e3c 569a db3b
00000080: 2b7c b03c b79b 51bd 2c73 123d b8f7 5fbd
00000090: 5d37 a03a 5699 9a3c 5a14 043d 408b a7bc
000000a0: 7002 2ebd feea 52bc 2f9f 56bd 167a 703c
000000b0: 85bc a4bc bf73 f3bc 9f99 67bd c745 fe3c
000000c0: 6a8e c0bb ab79 4ebc f031 eb3c 1a3c a93c
000000d0: b7e2 983a 567c c1bc 16b9 0bbd 5bed 3fbd
000000e0: 5c50 3dba 8588 64bd 56a6 63bd 5c60 753b
000000f0: d711 253d b57c 28bd 9a45 c3bc b6be 8ebc
00000100: 6d47 60bc f4bb d2bc e87b 033d ee67 05bd
00000110: b619 42bd 09bf 223c 4413 e93c 357f d13c
00000120: 97aa 0a3c f823 57bd e9b5 51bd 70cc 143b
00000130: baae eb3b 46c2 723c d491 923c 17f8 163d
00000140: dbd7 a3bc b65d 533b b4ea 913b 7888 b73c
00000150: ff3c 22bd 1e9d f6ba 5993 33bd 9108 33bd
00000160: bf00 0abd a1d7 e13c 367c 25bd 6246 4ebc
00000170: f91e 11bd f1b8 36bd 616c ef3c 280d 033b
00000180: f656 dc3c f352 883c bc4d 6d3c 76d2 7e3b
00000190: 2ea5 e6bc e152 64bd cd26 e03b edc0 a2bc
000001a0: bc8a 7d3b 2376 443d a42b 9b3c 8b56 153d
000001b0: 06b4 863c 4d75 94bc 3bee b3bc 3ae3 22bd
000001c0: e031 6ebc 6787 363d 70ce 863c 73c5 ed3b
000001d0: fa4d 1e3d ba53 12bd 270c 7b3c 30de 0cbd
000001e0: 0152 37bd bc84 d23c 7dda bb3b 6336 43bd
000001f0: bf6e acbc d931 8c3c d7d3 063d 6e55 3ebd
00000200: 9288 0abd bbba 243c 01b6 c7ba 24cb 50bc
00000210: fe7a 88bc df2f 973b 5fea d7bc 5f65 babc
00000220: 8b68 07bd 96ff e2ba 2d0f cd3b 3c63 113c
00000230: 3063 5739 897f 983c fdb3 6bbc e8fe ea3c
00000240: 3484 1dbd fed4 45bd ed0a abbc 5c98 e5bc
00000250: 431f 313d 8bf2 0dbd 927a 03bd 6463 28bd
00000260: c96f 8abc 0725 77bc d854 45bd d346 0ebd
00000270: cbe9 16bc 82f5 82ba 2110 c6bc 382f 423b
00000280: dcb3 ba3c 9670 ffbc bba9 49bc 312b e63c
00000290: 71d9 ec3c ce64 8d3c 9b38 853b cf04 e0bc
000002a0: 968d 74bb 73a9 b4bc 1a49 ba3c a4e9 33bd
000002b0: 65af 823c ea1b d2bb 47d5 86bc 3fbb 993b
000002c0: 0e29 813b baeb 6cbd 6134 d83c 9021 ec3c
000002d0: 4002 603b bca1 e43a 5ef1 50bd 86f8 54bb
000002e0: 9663 e735 636f 9d3c cbdf 96ba b7f9 52bc
000002f0: b9ad 6dbd 49b2 93bc decb cd38 00d9 54ba
00000300: 8785 5fbd 6139 30bc c556 46bd c187 d33c
00000310: 12f3 b6bc 42b6 163d f76c 2cbd dffb 5dbd
00000320: 4604 70bc 6373 c0bb 4aa6 25bd 7f73 53bd
00000330: 8650 193a f8da 213d 12b2 0f3a 24f0 4fbd
00000340: b844 e0bb a734 01bd e889 f8bb 3796 68bb
00000350: 93b1 b73c 5708 ebbc 4dce cfbc b71e 0dbd
00000360: d5cf 1cbc abb6 23bd 68ad 013c e4b3 c2bc
00000370: 1451 ee3b 822c 9cbc ea41 d4bb 5c14 c7bb
00000380: ec5f 64bd 7fc2 2fbd fa4e 693c dea9 fcbb
00000390: 72af 98bc ef02 2dbd 0a4b 283d d791 c23a
000003a0: d4c8 133d 17fb 29bd 8cd5 35bc 76d7 37bd
000003b0: c843 b33c 67c9 c63b 03fb 04bd f824 06bd
000003c0: 097e 64bd 6b8e bf3c d7ba caba 1cc5 7f3b
000003d0: 2fe7 c33c 17cb 46bd ba2d 3dbd ca29 97bc
000003e0: 5727 d1ba 7f7c c5bb 751e 52bc 7896 f83c
000003f0: 459e 36bc c945 f33c d5b3 b13c f721 1c3d
-0.010153114 0.01681947 -0.057709195 -0.049641315 0.027188981 -0.017884305 0.040795825 -0.049858112
-0.050233945 -0.036899753 -0.0210917 -0.0007720562 -0.016797848 0.03285907 0.02797564 -0.02895018
-0.031676657 -0.02064971 -0.022091342 -0.008560903 0.0011851832 0.0406522 -0.019324556 0.033549756
0.0043566604 -0.0426497 -0.049311344 -0.040916022 -0.039395723 -0.029545166 0.01739904 0.006701748
0.021543583 -0.051173892 0.035754368 -0.054679602 0.0012223531 0.018871944 0.03224597 -0.020452142
-0.042482793 -0.012873409 -0.052397903 0.014677545 -0.020109424 -0.029718278 -0.05654299 0.031039132
-0.005876352 -0.01260225 0.028710335 0.020658541 0.0011664246 -0.023618858 -0.03411206 -0.04685722
-0.00072217523 -0.055794258 -0.055578552 0.0037441468 0.040300217 -0.041134555 -0.0238369 -0.017424922
-0.013688904 -0.025724389 0.032100588 -0.03256982 -0.0473878 0.009933242 0.02845157 0.025573352
0.008463523 -0.052524537 -0.051198874 0.0022704862 0.00719246 0.014816826 0.017891802 0.03685769
-0.020000389 0.00322519 0.0044530276 0.02240394 -0.03960895 -0.0018815135 -0.043841694 -0.04370934
-0.033692118 0.02756864 -0.04040166 -0.012590023 -0.03542993 -0.044609968 0.029226484 0.0019996855
0.026896935 0.016641116 0.014483865 0.0038882769 -0.028154936 -0.055743102 0.006840563 -0.019867385
0.0038687428 0.047964226 0.018941708 0.036459487 0.016443264 -0.01812234 -0.021964183 -0.03976748
-0.014538258 0.044562723 0.016455859 0.007256204 0.038648583 -0.03572438 0.015322722 -0.034391582
-0.04475594 0.025698058 0.005732833 -0.04765929 -0.021048902 0.017113613 0.03291687 -0.04646819
-0.03382165 0.010054286 -0.0015236737 -0.012743745 -0.01666021 0.004613861 -0.026356874 -0.022753416
-0.033058684 -0.0017318602 0.0062579126 0.008873757 0.00020540948 0.018615501 -0.014386174 0.028686002
-0.038456157 -0.04829883 -0.020879233 -0.028026752 0.043242704 -0.034655135 -0.032099314 -0.04111041
-0.016899006 -0.015084512 -0.048176616 -0.034735512 -0.009211014 -0.000999138 -0.024177613 0.0029630195
0.022790842 -0.031181615 -0.012308533 0.028096767 0.028912278 0.017259981 0.004065586 -0.027346043
-0.0037315837 -0.022053456 0.022739936 -0.04392399 0.015952775 -0.006412019 -0.01645912 0.004691511
0.0039416617 -0.057841994 0.026392164 0.028824598 0.0034181029 0.001744322 -0.051011436 -0.0032496764
1.7239825e-06 0.019218152 -0.0011510787 -0.0128769195 -0.058027003 -0.018029349 9.813135e-05 -0.0008119494
-0.0545707 -0.010755868 -0.048422594 0.025821568 -0.022332702 0.03679491 -0.042096104 -0.05419528
-0.014649456 -0.00587313 -0.04044179 -0.051623818 0.0005848486 0.039515465 0.00054815516 -0.050766125
-0.0068441294 -0.031544354 -0.007584799 -0.0035489926 0.022423541 -0.0286905 -0.025366927 -0.03445312
-0.009571035 -0.039969128 0.007914878 -0.02376742 0.007272849 -0.019064192 -0.006477584 -0.006075425
-0.05575554 -0.042910095 0.014240021 -0.0077106794 -0.018638346 -0.042239126 0.041087188 0.0014844489
0.036080196 -0.041499224 -0.011098277 -0.044883214 0.021882907 0.0060664895 -0.032465946 -0.0327501
-0.05578426 0.02338334 -0.001546706 0.0039027398 0.023913948 -0.048533525 -0.046186186 -0.018452544
-0.0015957159 -0.006026804 -0.012824644 0.030345187 -0.011146133 0.029696362 0.021692196 0.03811833

dense1.bias f4 [120]
00000000: b223 42bd 5c5a 853e a766 2f3d 40f9 f7bb
00000010: 6493 a53c 258c 05bc d975 93bc 93c5 b8bc
00000020: cd49 53ba 1641 b8bc 2eb0 30bc d5b3 c8bd
00000030: 3f29 8cbd 9db8 543e 380d df3c aa8b c53d
00000040: 8930 17bc 6645 c8bd 3275 203d 2f76 3a3d
00000050: d386 8abe 7eaf fabc 9aa7 5b3c a16c 8c3e
00000060: 50ac 13bd e6e0 19bd 6e76 94bd da68 3cbd
00000070: db3b 74bc e10c 2d3b c3e5 dbbc d611 1ebd
00000080: 9a41 a1bd 7123 f4bc b22e a0bc 3773 0c3e
00000090: ec32 a5bd 7daf 603e d02c 8bbd 9ddd 363e
000000a0: 4fa9 3fbd 569f a53d 14fc 85bd 137f 6d3d
000000b0: 1c15 59bc 59ab 4fbd a8dd 653b 9144 2a3e
000000c0: 66a0 2dbc c340 63bd 916b debd 5444 753d
000000d0: 1025 66bd 50ed c7bd 7015 803e 8815 80bd
000000e0: 03e8 993d 34ee 253c 30c4 a73e 579f 96bc
000000f0: 5727 363d c182 24bd 7015 8cbd 19ff 65bd
00000100: d8a4 a3bc 2c53 ecbc 39bd 903b 8df0 bf3e
00000110: 3f07 eabc 2095 183c a260 85bc 53a5 8ebd
00000120: 10b8 8b3e 50a8 b1bc 55fd ffbc ed16 e5bc
00000130: d01d f6bc febe e13a 9ef8 c9be 1dfa fd3d
00000140: f277 19bd 8364 9a3e 6ebf 1e3e a47b 2fbd
00000150: 14bb 03bd 71a2 4a3d 7c63 b7bb 66b6 14bd
00000160: 8f90 d33c 9acf 1e3e 101a 133d da1a b9bc
00000170: 9db8 013e 3889 0a3e 4613 80bd 7144 0a3c
00000180: 0f06 42bd 1d98 963d 188a 0c3e 1d3c 333e
00000190: 222c 143d 29bf a53d 153f 7dbd 7537 45bd
000001a0: 0f1d aebc b413 613e ba4c b638 924f d23d
000001b0: 2af4 5bbd 7281 9d3d 966a 713d 0bfd ea3d
000001c0: 3f3a 7b3d ff3d 0fbd 933f 543c 6dd8 fe3c
000001d0: 0811 aabd 5d03 58bd f4cd af3c 0bbc e13d
-0.047397323 0.260455 0.042822506 -0.0075675547 0.020211883 -0.008151089 -0.01800053 -0.022555148
-0.00080600084 -0.022491973 -0.010784192 -0.09799925 -0.068438046 0.2077355 0.027227983 0.096457794
-0.00922788 -0.09778862 0.039174266 0.045522865 -0.27055988 -0.03060126 0.013406659 0.27426627
-0.036053002 -0.037567995 -0.07249151 -0.04599843 -0.014906849 0.0026405382 -0.026842957 -0.03859123
-0.07873841 -0.029802056 -0.019553516 0.13715826 -0.08066353 0.21941943 -0.06795657 0.17857976
-0.046792325 0.080870315 -0.06542221 0.057982516 -0.013249662 -0.05070052 0.0035074744 0.16627719
-0.010597324 -0.055481683 -0.108603604 0.059879616 -0.05618769 -0.09762061 0.25016356 -0.06254107
0.07514956 0.010127593 0.32766867 -0.018386526 0.04447111 -0.04016376 -0.068400264 -0.056151483
-0.019976065 -0.028848253 0.0044170883 0.37488213 -0.028567908 0.009312898 -0.01628143 -0.06965127
0.27288866 -0.021686703 -0.031248728 -0.027965033 -0.030043513 0.0017223058 -0.39447492 0.12401221
-0.037467904 0.3015481 0.15502712 -0.042842522 -0.032160833 0.049471322 -0.0055965763 -0.03630676
0.025825767 0.15508881 0.035913527 -0.022595812 0.1266808 0.13528907 -0.06253676 0.008439169
-0.04736906 0.07353232 0.13724554 0.175034 0.0361749 0.080931015 -0.061827738 -0.04814859
-0.02125409 0.21980172 8.692728e-05 0.10269083 -0.05369965 0.07690705 0.05893954 0.11474045
0.061334845 -0.034971233 0.01295461 0.03110906 -0.0830403 -0.052737582 0.02146051 0.110221945

dense2.weight f4 [80, 120]
00000000: 5713 c03b a972 87bd 71fd 6a3d 1713 b13c
00000010: e414 1fbd 08e5 80bd e44d 983d b2d0 093d
00000020: a015 8d3d 8175 6dbd 786a 173c 9b08 4d3d
00000030: 1023 79bb bdec 1bbc 5a27 343d e706 2b3d
00000040: 31d1 cfbc b624 91bd 7a0b d0bc a532 683d
00000050: c046 babb 7bc8 65bb cc4e 943b 00d9 913d
00000060: d6fd 933d db72 65bd 3073 b83c 9ef9 b63c
00000070: 4dbb 4d3c f80f e5bc 2267 cdbc ec2d 2ebd
00000080: 45db ccbd 0e01 8f3d 14c1 b73d 558d fbbc
00000090: 3637 e03c 6d77 6d3d 402c aa3a b19e 53bc
000000a0: 4f62 85bd 8c3f 083c 5c32 a93c 142a a8bd
000000b0: f934 4f3c a57e 8cbd 4214 ebbc ffb1 3f3a
000000c0: 5b64 b03b 6212 f23c 5bee 87bb c2e2 0dbc
000000d0: 25dc 053d 18b1 97bd 34b2 42bd d0f5 cdbc
000000e0: 6940 3cbd 10ab 90bd 2b77 023d ea9f 9a3d
000000f0: 30ed 8dbd 0f32 8dbc 7ff6 33bd 1378 15bd
00000100: af2e 88bb 6c20 b7bd ba96 803b 8e47 8bbd
00000110: b4fd a83d 9e08 4e3d c3b5 90bd aa7c 673d
00000120: 92f2 983c db5b 613d 1259 ae3d 63ac 593d
00000130: 2a15 f3bc d8d2 713c 1df0 273d 731f f8bc
00000140: 1172 5bbd 3825 683d 8d8c b3bc fa33 7f3d
00000150: 4987 273d 5f4a 733d 09bb 56bc 702b 603d
00000160: d416 aebd 56af ed3b 4608 a8bc 717b 92bd
00000170: 4095 5bbd 0e66 413b 86a4 8f3d c91d b63c
00000180: 44e6 513d 2096 4fbd 344b 85bd f8e6 6ebd
00000190: a365 15bd 0823 5bbd 667d 5e3d bb33 b5bd
000001a0: 7124 50bd 474a 8abd de3f 3cbd 297e 85bd
000001b0: ef05 31bd 6cef dbbb d9dd 0cbc f4f9 26bd
000001c0: 8555 933d 6925 153d 6a0d ed3c fad9 7dbd
000001d0: a1b8 513d e77a 893d 3099 a7bd 0ba0 c3bb
000001e0: 6531 8d3a 007d cd3c 7bea 043d 25be 963d
000001f0: 10c2 80bd db03 903e 1aa3 17bf 01a5 4dbe
00000200: ec12 b9bc ac10 373c 99e4 92bd 9783 9dbd
00000210: 92cf 443d 0b01 79bd bcb5 bd3d 9feb 72bd
00000220: 4f89 893c 5e99 853d bf90 483d 12bc 8e3e
00000230: 2bf2 d0bd 1a02 a3bc 64a1 5abd 7897 e53c
00000240: 8f6c 8e3c 608d 8f3d 0fd4 053e e7b2 2abe
00000250: 7e0f 28be a5d3 7f3d d591 103d 534e 7dbc
00000260: 6a24 cdbd 148c 913d 90ec 983c 4b97 0a3e
00000270: fc6d b1be 0d1c 013e 41ea 6a3d f320 73bd
00000280: 5f68 3dbd 0819 d63a e9e9 debd 024d 423d
00000290: 101e b03c 81a8 233e 70d5 42bd 47e9 e43c
000002a0: 73a9 a5bd f6e9 ad3d c3a7 58bd 2596 b93c
000002b0: 8028 63bd 08e3 b6bd 7337 0a3e 7853 4abd
000002c0: 97f8 483e 1cd0 a6bc 1360 653e b675 dd3c
000002d0: 4082 b3bb 3596 a4bd 7da0 95bd 4e9f 883d
000002e0: 0014 80bd 5b28 b23d 053b 68bd 4933 8b3e
000002f0: eb18 d0bc 352b a63d 4cc2 043e 2735 a7bb
00000300: 26ca 4b3e 1a92 273d 7a01 59bd 0699 81bd
00000310: 346d 78bc 1a6a 7abd 39ce c23d 8d29 9d3d
00000320: 9ad6 62bd 0ec2 853e 26b7 d93d b003 80bd
00000330: ee5b 60bd e804 bb3d d18f 933e 0096 59bd
00000340: 2024 eebc e36e 553e 312d 283d d10d 143e
00000350: 2132 55bd 1cfa acbd 8443 93bd e362 0cbe
00000360: 8225 fe3c fdd0 09be aa0b 933d 63fe 363e
00000370: 2586 3c3e 4b4c b3bd b16f 23bd d391 6f3d
00000380: f748 5d3d 179a 9bbd 5d80 2a3e 2ecc acbd
00000390: 91b9 973c 3fa6 75bd 62c0 d23e 3c48 50be
000003a0: e19d 1fbe bd54 943d 3323 ffbc d88f be3d
000003b0: 3306 9bbe c426 f1bc 6472 8c3a 5c3a 923d
000003c0: 22f0 573c 6997 e8bc 9f34 a5bc 3ba2 86bd
000003d0: 1dc4 ad3b cdd1 c3bd 8bb6 cabc d78e 24bc
000003e0: 028c 813d ed42 6fbc eec7 24bc 5d0c 88bd
000003f0: 3ebe 923d 8cc6 1d3d 3ce8 8f3d 446d a3bd
0.0058616805 -0.066136666 0.057370607 0.021615548 -0.038838282 -0.06293684 0.074367315 0.033646293
0.0688889 -0.05797339 0.009241693 0.050057035 -0.0038015284 -0.009516892 0.04398284 0.04175463
-0.025368305 -0.0708708 -0.025396097 0.056688923 -0.0056847036 -0.0035062123 0.004525995 0.071214676
0.0722615 -0.056017738 0.022515863 0.022335824 0.012556863 -0.027961716 -0.025073592 -0.042524263
-0.1000276 0.06982623 0.089723736 -0.03070704 0.027370077 0.05797522 0.0012983158 -0.012916253
-0.065128915 0.008315932 0.020653896 -0.08211151 0.012646907 -0.06860093 -0.028696183 0.0007312595
0.005383057 0.029549781 -0.0041482872 -0.00866002 0.03268065 -0.07406825 -0.04753323 -0.025141627
-0.045959864 -0.070638776 0.03185193 0.075500324 -0.069300056 -0.017235784 -0.04393625 -0.036491465
-0.0041559557 -0.08941731 0.003924218 -0.06800757 0.08251515 0.050301187 -0.07065918 0.056515373
0.018670354 0.05501924 0.085130826 0.053142916 -0.029673178 0.014759742 0.041000474 -0.030288434
-0.05357558 0.05667612 -0.021917606 0.062305428 0.040900502 0.059397098 -0.013106116 0.054728925
-0.08500448 0.0072535677 -0.020511758 -0.07152451 -0.053609133 0.0029510292 0.07013802 0.022231
0.05124499 -0.05068028 -0.065084845 -0.058325738 -0.03647388 -0.053500205 0.054318808 -0.088477574
-0.050816003 -0.067524485 -0.045959346 -0.06518204 -0.04321855 -0.006711891 -0.0085978145 -0.040765718
0.07194046 0.03641263 0.02893706 -0.061975457 0.051201466 0.06712895 -0.08183515 -0.0059700063
0.0010772167 0.025084019 0.03245018 0.07360486 -0.062870145 0.2812794 -0.5923325 -0.20082475
-0.02259203 0.0111734085 -0.07172508 -0.076911144 0.048049517 -0.06079201 0.09263179 -0.059306737
0.016789107 0.06523393 0.048966166 0.2787786 -0.1020244 -0.019898463 -0.05337657 0.028026327
0.01738575 0.07009387 0.13069175 -0.16669808 -0.1641216 0.0624577 0.035295326 -0.0154605685
-0.10016711 0.07106796 0.01866749 0.13534276 -0.34654224 0.12608357 0.05735231 -0.059357595
-0.046242114 0.0016334364 -0.108844586 0.04743672 0.02149871 0.15982248 -0.04756683 0.027943267
-0.080889605 0.0849189 -0.052894365 0.022654602 -0.055458546 -0.089300215 0.13497715 -0.04939601
0.1962608 -0.020362906 0.2239993 0.027033668 -0.0054781735 -0.08036462 -0.07306001 0.0667101
-0.06253815 0.086991034 -0.05669691 0.27187565 -0.025402507 0.0811371 0.12964743 -0.005102772
0.19901332 0.040910818 -0.052979924 -0.06328015 -0.015162755 -0.061136343 0.0951199 0.07673941
-0.05538044 0.26124614 0.10630636 -0.06250703 -0.05477517 0.09131795 0.2882066 -0.053121567
-0.02906996 0.20843081 0.041058723 0.14458396 -0.05204976 -0.08446142 -0.07190612 -0.13709597
0.031023744 -0.13458629 0.07179959 0.17870478 0.18410547 -0.08754786 -0.03990144 0.05848868
0.054024663 -0.0759775 0.16650529 -0.08437382 0.018521102 -0.059972998 0.411624 -0.20340055
-0.1558757 0.07242725 -0.031144714 0.0930478 -0.30278167 -0.02943743 0.0010715243 0.071400374
0.013179811 -0.02839251 -0.020166693 -0.06573912 0.0053029195 -0.09561501 -0.024745246 -0.010043821
0.063255325 -0.014603359 -0.010057433 -0.06642983 0.07165192 0.038519427 0.07026717 -0.07979825

dense2.bias f4 [80]
00000000: e60c 9c3d 2e38 a03e 76e2 5b3d ad52 8b3d
00000010: e0ab 523d 179a 3bbd cd60 ea3d cc0a 5e3e
00000020: 0102 493e 5768 873c 3111 3ebe 0776 6d3d
00000030: 780d a93c 189b 86bd 2e34 a63d f6f2 0c3d
00000040: febf 543e df33 103d 33fb 393d 956a 19bd
00000050: 1a02 3c3d 9542 61bd 4d3b b23e 05c4 803d
00000060: 86ea 7bbd 28d9 733d 76ea 4e3e 940d 1b3e
00000070: 086a 323e b0be 1abe 04b8 903d 19dc 2a3e
00000080: de88 92bc 3baa 863d 3888 b13d fbe4 b8be
00000090: e980 fc3c a131 923c e30e 07bd 7d26 653e
000000a0: f798 be3a 128c 213e 2f9e 2f3e d9bf 653e
000000b0: 494f b43d 2005 533e ad81 5d3d ccc8 28be
000000c0: 64c0 9a3d 99ee 043e e93f b43d 3f02 04be
000000d0: cdd7 833d 8a91 27bd c876 ea3c 5ee8 a83c
000000e0: 90e8 cb3d 193f 113d 90ef f83c e70d 71bd
000000f0: 348e 06be fdf1 163e 2dfe 373d 37cc 153e
00000100: 66d4 403e 19b8 abbd 7e6e a9bd 11bf 43bc
00000110: eb07 bf3d 9321 ac3d b24c 81bd a06d 403e
00000120: 8faf d6bd fe2d 9d3b a2cc afbd 3300 4d3e
00000130: eb99 313e cc85 673e 01ae e43d 8db4 8abd
0.07619648 0.31292862 0.053682767 0.068028785 0.051433444 -0.04580125 0.114442445 0.21683806
0.1962967 0.016529245 -0.18561246 0.057973888 0.020636305 -0.065725505 0.08115421 0.034411393
0.20776364 0.035205718 0.045405578 -0.03745516 0.04590044 -0.05499514 0.34810868 0.06287388
-0.061502956 0.05953327 0.20206627 0.15141898 0.1742326 -0.15111804 0.07066348 0.16685523
-0.017887529 0.06575438 0.0866856 -0.36112198 0.030823188 0.01784593 -0.03297318 0.22377963
0.0014541437 0.15776089 0.17150186 0.22436465 0.08804185 0.20607424 0.054078747 -0.16482848
0.07556227 0.12981643 0.088012524 -0.12891482 0.06437645 -0.04091028 0.028621092 0.020618614
0.09956467 0.035460565 0.03038767 -0.05885115 -0.13140184 0.14740749 0.044920135 0.14628683
0.18831024 -0.08384723 -0.08273028 -0.011947409 0.09327682 0.08404841 -0.063134566 0.18791819
-0.10482704 0.0047967425 -0.085839525 0.20019607 0.17343871 0.22609633 0.11166001 -0.067727186

final.weight f4 [12, 80]
00000000: ff2b 77bc 7ad4 15bc a378 b13d b6c4 163d
00000010: b8ed 633d 7669 703e 0a6d f0bd 56fa 17bf
00000020: 59da be3d 6053 be3d 8388 783d fc65 253e
00000030: e61e 973c 87f8 a23c 18c0 233c 41bc 183a
00000040: 740a c7bd 1c14 193e 2ad4 403d 1e9f fbbd
00000050: 1e1f f5bd 146d bebd 73e8 9ebe 32ba a7bd
00000060: 703e b8bd dce7 79bd 83fb ca3e bd0f 89bd
00000070: ff7c 92bd 4dee 6c3e 1ece 9a3e a212 a6bd
00000080: e241 35bd 92a6 bcbd 4b51 b3bd 99fc 3dbe
00000090: e6b1 7c3d 02c0 0d3f a911 843d dd50 3abe
000000a0: af74 143c 4614 033e de17 abbd b99e a2ba
000000b0: d326 e0bd c02d ffbd aa53 ecbe 4a11 21bd
000000c0: 0bd9 e03b 3b97 74be f48e 01be 4ffa 7a3c
000000d0: 8c1c 0cbd e2e5 91bd 2e19 bcbd 2f92 3d3d
000000e0: 71d6 0f3b 54a9 ffbd 1e3b c53d 10fc e43c
000000f0: 63ae 9739 72d5 353e 1a47 4f3c bec1 0bbe
00000100: b3d2 01be fe35 11bb 665a a0bd 9d98 95bd
00000110: b7d7 2bbe f631 a6be e054 b73d 8c2c 12bd
00000120: ca69 d5bd cd20 c83c 672a a7bd 1728 633d
00000130: d5df 26bd 66ed bebe 09bd a83d d40d 3a3d
00000140: e2df a43d c16c c63c fba6 723d 9e69 02bd
00000150: 5d95 a23d 9f3d 613e 0e14 92bd 8ec9 1bbf
00000160: dba7 e63d b536 dd3d 64c7 ec3d 5ab9 1c3e
00000170: ad6a fcbd c8e2 e8bc 6e0b 6cbb e8d5 01bb
00000180: 0d1c 22bd e22f 2c3d 3c15 48bd 5c4d 30be
00000190: 23b3 443d 2b9a 26be c32b b4be 161d 703d
000001a0: 5f33 93bd c709 723b 1a8c d23e 3fb1 ccbd
000001b0: 0890 70bd e58e 7b3e 2f64 9b3e 69c1 bbbd
000001c0: 972a 80bd 8c74 f53c 6cac 85bd 0a63 64be
000001d0: 3d18 e5bb be87 073f 288d 7f3c cad1 38be
000001e0: 9ff7 79bd 7a8b 423e 9c1b a3bd 67e0 47bc
000001f0: 5f4c eebd 427b e2bd b2b7 d5be 7a29 bb3d
00000200: 1775 2abd f576 76be 7970 abbd 9307 23bc
00000210: 2ff0 02be 1eab e93c 6164 4f3d 9002 813d
00000220: 8bd6 973d cebe e4bd 545d edbd 54de 9b3a
00000230: a795 a63c c870 0a3e 5067 b23d 7f60 833c
00000240: 05cb e4bd d7ec 693d 792e ce3d 02cb 5bbd
00000250: b3a0 18be d2c6 abbe 9784 fd3c ed97 e1bc
00000260: 70d8 f4bd e595 34bd 4e9d ac3d 773b 283d
00000270: eb1c 15be afce debe 68c4 6b3a cb55 cf3d
00000280: 5153 87bd 5ebb 5b3e 596a a3bc 4f62 1f3d
00000290: c4dc a4be c707 9bbe f313 003e cecb b93d
000002a0: eb00 eabe 581b 40be 5b19 83be 6124 b7be
000002b0: 863e 273d 2d17 67bd 602f 22bd bdfb edbd
000002c0: 9574 1fbe ea60 48be d8a7 bc3d 26e8 71bd
000002d0: 3213 a13d 30ee 27be 005f a1be 4e35 ab3d
000002e0: 4569 c0be 39b9 3cbd c4be 30be 284f 613d
000002f0: 22e7 c8bd f177 08be ff84 13be 5183 6f3d
00000300: 4dc2 c2bd 087e e83c 6815 3c3d 3819 e4be
00000310: a38b 9abb 3360 1cbf 5420 df3d 4a08 00be
00000320: 27fa aa3d 103b 3ebe 3483 86bd 7a83 fabd
00000330: b457 8d3d 6f5b d1bd 97d0 0d3d d85f e03d
00000340: 4f58 24bd 1d13 753d e714 96bd fbe9 723d
00000350: 6c80 b43d 410b c33c 3fb1 e7bd a7a9 cebc
00000360: c4e2 e5bd 85fb 5ebd 7aa8 66bd 542e b73c
00000370: aa09 d2bd 8e89 3dbe 4465 ac3d a33e 183d
00000380: 45ad b93d c043 11bd ce05 bd3d c56d 5f3e
00000390: 1b8c 2c3e 6792 a7be 909d 9b3d c0ee e9bd
000003a0: f70b 843e ee63 1ebd 76ba afbd 5179 d0be
000003b0: db7a 1cbd a7a2 adbd b00d 043e 1695 8bbe
000003c0: a049 16bd dd8c 603e d573 b03c 5d16 f2bd
000003d0: c67a a0be 7835 8abe d85d 8c3c 82a3 da3d
000003e0: e0c3 f6be 8cc4 3ebe 831b 89be 5cb2 bebe
000003f0: fcbc 57bb b7b4 a2bd 16b7 ee3c 9f75 28be
-0.015086173 -0.009144897 0.08665588 0.036808692 0.05564663 0.2347773 -0.117395476 -0.5936636
0.0931899 0.09293246 0.060677063 0.16152185 0.01844735 0.019893898 0.009994529 0.0005826392
-0.09718791 0.14949077 0.047077335 -0.122862086 -0.11968826 -0.09298149 -0.3103672 -0.08189811
-0.08996284 -0.061012134 0.39645013 -0.06692455 -0.07152747 0.2313778 0.3023538 -0.08109023
-0.044252284 -0.09211458 -0.0875574 -0.1855339 0.061693095 0.55371106 0.06448681 -0.1819491
0.009061023 0.12800702 -0.08354162 -0.0012406922 -0.10944905 -0.12459898 -0.4615758 -0.03932313
0.006861811 -0.23885815 -0.12652189 0.015318467 -0.034206912 -0.07123925 -0.0918449 0.04628199
0.0021947885 -0.12483469 0.09630416 0.027952224 0.00028930893 0.17757204 0.012651229 -0.13648126
-0.12678032 -0.0022157426 -0.07829742 -0.07304499 -0.16781507 -0.32459992 0.089517355 -0.035687014
-0.10420568 0.024429703 -0.081623845 0.055458155 -0.040740807 -0.37290496 0.082391806 0.045423344
0.08050515 0.02422178 0.059241276 -0.031839006 0.07938645 0.21996163 -0.071327314 -0.60854423
0.11262485 0.1080145 0.11561468 0.15305081 -0.12325034 -0.02842845 -0.0036017555 -0.0019811336
-0.039577533 0.042037852 -0.048848376 -0.1721701 0.0480224 -0.16269748 -0.35189638 0.05862149
-0.07187533 0.0036932097 0.41122514 -0.099947445 -0.05873111 0.24566229 0.30349872 -0.091677494
-0.06258123 0.0299628 -0.065270275 -0.22303405 -0.006991415 0.529415 0.015597619 -0.18048778
-0.061027166 0.18998519 -0.079642504 -0.012199498 -0.116356604 -0.11058666 -0.4174171 0.091387704
-0.04161557 -0.24068816 -0.08371062 -0.009950536 -0.12786935 0.028523978 0.05063284 0.06299317
0.07413968 -0.111692056 -0.115900666 0.001189182 0.020335032 0.13519585 0.087111115 0.016037224
-0.111715354 0.057110634 0.10067458 -0.0536604 -0.14905052 -0.33550125 0.030947013 -0.027538264
-0.11955345 -0.044088263 0.08428441 0.041072335 -0.14561813 -0.43517062 0.00089938054 0.101237856
-0.06607688 0.21458194 -0.019948171 0.038912114 -0.3219968 -0.3027937 0.1250761 0.09072076
-0.45703825 -0.18760431 -0.25605282 -0.35769942 0.04083111 -0.056418587 -0.03959596 -0.11620281
-0.15571816 -0.1956822 0.09211701 -0.059059285 0.07864989 -0.16399455 -0.31517792 0.083597764
-0.37580314 -0.04607508 -0.17260271 0.05500713 -0.0980971 -0.13327004 -0.14406203 0.058474842
-0.09509716 0.028380409 0.045918852 -0.4455049 -0.004716353 -0.6108429 0.10894838 -0.12503162
0.08348494 -0.18577218 -0.06567994 -0.122321084 0.06901494 -0.10222518 0.034622755 0.10955781
-0.04012328 0.05983268 -0.073282056 0.059305172 0.08813557 0.023809077 -0.11313104 -0.02522738
-0.11224893 -0.054439086 -0.056313016 0.022360958 -0.102557495 -0.18509504 0.084177524 0.03716911
0.09066252 -0.035465002 0.09229623 0.21819218 0.16850321 -0.32728884 0.07598412 -0.11422491
0.25790378 -0.03866952 -0.085804865 -0.40717557 -0.0382031 -0.08478289 0.12895846 -0.2726218
-0.036691308 0.21928735 0.021539608 -0.11820672 -0.3134367 -0.26993918 0.017134592 0.10675718
-0.48196316 -0.18629664 -0.26778802 -0.37245452 -0.003291904 -0.07944625 0.029140037 -0.16451119

final.bias f4 [12]
00000000: 236c e2bd 3145 01be e247 0fbd aefc d9bd
00000010: af3b dbbd e7ed c53d e146 a5bc 6ecb 1b3c
00000020: 292b d4bd 07b8 a0bd 2bf3 8c3c a9e4 65bd
-0.11055782 -0.1262405 -0.034980662 -0.10643898 -0.10704743 0.09664517 -0.0201754 0.009508951
-0.10359795 -0.078476004 0.017205795 -0.05612627
