Superclass/models/constraint_only_10_eps.pth (torch, 249354 bytes, 10 tensors)

conv1.weight f4 [6, 1, 5, 5]
0.0019013623 -0.006172969 0.0008973348 0.0009208649 0.0017415361 -0.05023689 -0.09251803 -0.016445935
0.08886061 0.108260415 -0.20539278 -0.25436032 -0.0001239647 0.26381966 0.22196391 -0.3268477
-0.25664172 0.073548615 0.36247873 0.2070024 -0.1299323 -0.09391253 0.060662672 0.18462993
0.037690327 -0.018121619 0.043315336 0.06194539 0.026100844 -0.030197337 0.07019507 0.22074428
0.2901344 0.27861208 0.11310506 0.09275272 0.2490607 0.32044563 0.36537084 0.142874
0.048502427 0.21769072 0.3262628 0.29222316 0.035501868 -0.0008803479 0.08502384 0.14401336
0.08053763 -0.07274849 -0.03952573 -0.025424698 -0.037321128 -0.1003664 -0.120310165 -0.04032467
0.06929166 0.20833738 0.16413578 0.01573114 -0.031324748 0.07303609 0.32269922 0.44030514
0.2233498 -0.04365344 -0.05018111 0.08752933 0.2783715 0.18955994 -0.03027808 -0.07756753
-0.04284567 0.037402198 0.03845572 -0.012499368 0.07742463 0.18194205 0.163682 0.03419593
0.045249734 0.20340477 0.3595481 0.25406498 0.03758946 0.015798302 0.07278727 0.12631273
0.06694843 -0.021280855 -0.049413998 -0.0796827 -0.07879838 -0.081031285 -0.0549082 -0.042372283
-0.08301392 -0.084384896 -0.061911393 -0.019229207 -0.014977034 0.022657156 0.05913915 0.06416826
0.03185189 -0.05762892 -0.036595594 0.02888441 0.051811453 0.021582542 -0.035148267 -0.08543906
-0.06330879 -0.032913636 -0.016348291 0.051572233 0.00047366798 -0.059107527 -0.068129204 -0.022000384
0.06410049 0.045532238 -0.002774466 -0.022365205 -0.0065738093 -0.036138076 -0.106922366 -0.08300787
-0.018432414 0.0023193993 -0.1290068 -0.28439337 -0.17926063 -0.025042674 0.0051020775 -0.12515992
-0.22018772 -0.10581093 0.013652404 0.020492138 -0.02411665 -0.048984323 -0.009976355 0.030895777
0.020833625 0.009398503 -0.0015153666 -0.0039557954 0.00081730785 -0.008888081
00000000: 2237 f93a 9e46 cabb 1e3b 6b3a 3366 713a
00000010: 4144 e43a 32c5 4dbd 187a bdbd a0b9 86bc
00000020: 8dfc b53d a3b7 dd3d 7c52 52be 843b 82be
00000030: 85fc 01b9 5f13 873e 824a 633e 9558 a7be
00000040: 8b66 83be a8a0 963d d096 b93e 70f8 533e
00000050: f90c 05be 3655 c0bd 6c79 783d a10f 3d3e
00000060: 2c61 1a3d ca73 94bc 6c6b 313d 73ba 7d3d
00000070: 70d1 d53c 6860 f7bc 6fc2 8f3d ca0a 623e
00000080: 7f8c 943e 3ea6 8e3e a0a3 e73d 23f5 bd3d
00000090: c509 7f3e 7311 a43e e311 bb3e 904d 123e
000000a0: 7baa 463d 51ea 5e3e eb0b a73e 469e 953e
000000b0: 686a 113d 26c7 66ba fb20 ae3d 3d78 133e
000000c0: eaf0 a43d 29fd 94bd bbe5 21bd 7547 d0bc
000000d0: 0ade 18bd e68c cdbd 2d65 f6bd 7b2b 25bd
000000e0: c9e8 8d3d 6556 553e 3613 283e 97de 803c
000000f0: 614e 00bd f293 953d d538 a53e ad6f e13e
00000100: cfb5 643e f3cd 32bd b58a 4dbd 9442 b33d
00000110: b686 8e3e 001c 423e bc09 f8bc badb 9ebd
00000120: f17e 2fbd 0c33 193d bf83 1d3d 26ca 4cbc
00000130: ce90 9e3d 044f 3a3e 419c 273e 0811 0c3d
00000140: c957 393d 5749 503e b016 b83e ce14 823e
00000150: 68f7 193d 716b 813c 7e11 953d 2058 013e
00000160: 421c 893d 3055 aebc 5566 4abd af30 a3bd
00000170: 0c61 a1bd bbf3 a5bd 6ce7 60bd 8f8e 2dbd
00000180: 3403 aabd fdd1 acbd cd96 7dbd 9286 9dbc
00000190: 3c62 75bc 809b b93c e53b 723d a66a 833d
000001a0: 2177 023d 4d0c 6cbd 43e5 15bd 009f ec3c
000001b0: 3f38 543d dfcd b03c a1f7 0fbd adfa aebd
000001c0: 0aa8 81bd 73d0 06bd daec 85bc 683d 533d
000001d0: a456 f839 bc1a 72bd 5387 8bbd 263a b4bc
000001e0: 1e47 833d 0380 3a3d d1d3 35bb 3c37 b7bc
000001f0: 1c69 d7bb 8505 14bd 1dfa dabd 0800 aabd
00000200: 93ff 96bc 1001 183b 5c1a 04be 029c 91be
00000210: 1990 37be 4b26 cdbc 542f a73b ec29 00be
00000220: e478 61be 67b3 d8bd 55ae 5f3c 21df a73c
00000230: 4890 c5bc c9a3 48bd de73 23bc 2419 fd3c
00000240: 47ab aa3c 2efc 193c 449f c6ba 9e9f 81bb
00000250: 9a40 563a 509f 11bc

conv1.bias f4 [6]
-0.04971086 0.7258936 0.8621469 0.7621466 0.43703863 -0.14311175
00000000: 9d9d 4bbd 2ad4 393f a9b5 5c3f 0a1c 433f
00000010: 87c3 df3e e38b 12be

conv2.weight f4 [16, 6, 5, 5]
0.024498625 0.067454375 0.14973131 0.11691771 0.02566188 0.0060376874 0.011310938 0.12745628
0.23198827 0.13498901 0.017702622 -0.14036898 -0.26895124 -0.09301976 0.04581997 -0.005789687
-0.12650666 -0.26517475 -0.19721538 0.030277584 -0.0060042855 -0.054611802 -0.052318364 0.023189664
0.005377782 0.08013451 0.06538389 0.074564666 0.07595452 0.09279072 -0.11553898 -0.13817467
-0.20246157 -0.17593934 -0.17446789 -0.11303436 -0.064547926 -0.03795707 -0.095345154 -0.1458771
0.08797438 0.1733725 0.1547799 0.18368678 0.010381648 0.0049653808 0.03076171 0.019285196
0.044764955 -0.0044426783 0.014365231 -0.05261071 0.049544565 0.098404124 -0.0071960445 -0.07285072
-0.11336288 -0.242009 -0.1571747 -0.083694 0.05785079 0.0074873706 0.1125788 -0.05218379
-0.032160323 0.04582443 0.0302522 0.16766787 0.08174644 0.028554281 -0.10589385 -0.09199127
-0.08146014 -0.046262737 -0.010059295 -0.061047077 0.062426675 0.16760257 0.09448168 0.032708034
0.15932228 0.056040637 0.008984288 0.04850914 0.029143237 -0.03421745 -0.070521496 -0.25688186
-0.27608526 -0.058340468 0.06519667 0.15670036 0.26393694 0.13826671 0.027851257 0.032410655
0.13258886 0.058961153 0.10584261 -0.009358524 -0.0027631 0.000808955 -0.018919833 -0.04421731
-0.026136909 0.0122866025 0.11652133 0.17757647 0.16225335 0.08321584 0.038439944 -0.09315549
-0.014119311 0.10842257 0.07904917 -0.04877089 -0.175229 -0.28305927 -0.29941478 0.0180338
0.02705875 0.035513494 -0.054062355 -0.12828478 0.006103182 0.037645724 0.055734113 0.006672353
-0.002826603 0.0029398666 -0.015398667 0.10838112 0.1444729 0.071381815 0.048714153 -0.021699442
0.04320803 0.23483385 0.20084429 0.06452064 -0.0024980158 -0.12858246 -0.1739339 -0.023706298
0.026165029 -0.02518836 -0.07286925 -0.12867104 -0.07624978 0.0020837549 -0.02474694 0.06956338
0.05228596 -0.09489945 0.032727763 0.014610342 0.09731909 -0.0016051175 -0.044394873 -0.06918251
0.038852513 0.10037299 0.015280073 0.045258936 0.099188484 0.019782007 0.025415357 -0.048536543
-0.0021298868 0.026494078 -0.02539689 0.014543864 -0.04186197 -0.043267187 0.028178835 -0.046123426
0.019897683 0.06435114 0.088973954 -0.032912575 -0.082671165 0.025928594 0.048653428 0.043548673
0.00039816962 -0.087874636 -0.08501232 -0.05730118 0.09151668 0.06504235 -0.03383095 -0.0264986
0.038027704 -0.025719222 0.002935749 -0.062442444 -0.1388347 -0.078920506 0.01598322 -0.0235929
0.016611742 0.09783532 0.034217004 0.04039882 -0.0064533134 -0.08512254 0.05717888 0.24762496
0.14747208 0.06380679 -0.1386485 -0.08019923 0.019156875 0.1479939 0.1027629 -0.09544729
-0.050321177 -0.10677312 0.011894928 0.061608452 -0.10130874 -0.042842332 -0.07693669 -0.024836386
-0.017495215 -0.01497399 0.07502627 0.07165241 -0.0553594 -0.04276033 0.051153075 0.13598715
0.075865574 0.053187966 -0.057652533 -0.03132902 -0.0681678 0.08899688 0.16627726 0.020143185
-0.051651187 -0.11885629 -0.07540575 -0.003146124 -0.011250032 -0.025579883 -0.008241918 -0.045356773
-0.032874335 -0.01534222 0.0097066425 0.054834895 0.053178392 0.048828024 0.013064703 -0.0031119557
00000000: 57b1 c83c 8525 8a3d 2a53 193e 8d72 ef3d
00000010: dd38 d23c cbd7 c53b 8351 393c e683 023e
00000020: 558e 6d3e 8f3a 0a3e 1705 913c e3bc 0fbe
00000030: fab3 89be 2581 bebd b9ad 3b3d 6ab7 bdbb
00000040: f68a 01be fcc4 87be d4f2 49be b208 f83c
00000050: 99bf c4bb a0b0 5fbd c84b 56bd 40f8 bd3c
00000060: 1b38 b03b 901d a43d fde7 853d 5cb5 983d
00000070: 0b8e 9b3d 1009 be3d b39f ecbd a97d 0dbe
00000080: 1652 4fbe 7129 34be b6a7 32be 8f7e e7bd
00000090: b431 84bd df78 1bbd 5244 c3bd ce60 15be
000000a0: e92b b43d 9088 313e 9f7e 1e3e 6318 3c3e
000000b0: ca17 2a3c a2b4 a23b fbff fb3c fdfb 9d3c
000000c0: 755b 373d e393 91bb 255c 6b3c 547e 57bd
000000d0: 3eef 4a3d 1a88 c93d cccc ebbb c232 95bd
000000e0: cc2a e8bd 35d1 77be 68f2 20be c367 abbd
000000f0: f3f4 6c3d 9e58 f53b b78f e63d abbe 55bd
00000100: 8bba 03bd 66b2 3b3d 76d3 f73c 20b1 2b3e
00000110: ad6a a73d abea e93c e0de d8bd eb65 bcbd
00000120: 93d4 a6bd ff7d 3dbd becf 24bc 800c 7abd
00000130: 1db3 7f3d 02a0 2b3e 9c7f c13d dcf8 053d
00000140: 6125 233e de8a 653d d632 133c 85b1 463d
00000150: ccbd ee3c 9927 0cbd 936d 90bd 0586 83be
00000160: 0c5b 8dbe 6af6 6ebd d585 853d 0f76 203e
00000170: be22 873e ca95 0d3e 5228 e43c 09c1 043d
00000180: 60c5 073e 4081 713d 03c4 d83d 7f54 19bc
00000190: 2015 35bb 0d10 543a c4fd 9abc 361d 35bd
000001a0: 121d d6bc bf4d 493c bca2 ee3d 9bd6 353e
000001b0: be25 263e 116d aa3d 3473 1d3d 4ec8 bebd
000001c0: af54 67bc a70c de3d 88e4 a13d fcc3 47bd
000001d0: 3b6f 33be 25ed 90be e54c 99be 9fbb 933c
000001e0: 50aa dd3c 9976 113d 7d70 5dbd 165d 03be
000001f0: 34fd c73b 6732 1a3d 7449 643d c1a3 da3b
00000200: 873e 39bb c7aa 403b b14a 7cbc ecf6 dd3d
00000210: b4f0 133e a130 923d 7e88 473d 07c3 b1bc
00000220: e7fa 303d 4978 703e 20aa 4d3e 6623 843d
00000230: c0b5 23bb 1fab 03be ba1b 32be b633 c2bc
00000240: 0b58 d63c d257 cebc 793c 95bd 57c2 03be
00000250: d828 9cbd 9b8f 083b 18ba cabc 3f77 8e3d
00000260: ce29 563d a55a c2bd 8c0d 063d 3760 6f3c
00000270: 3b4f c73d ce62 d2ba 66d7 35bd 8faf 8dbd
00000280: d023 1f3d 5b90 cd3d 4559 7a3c 6f61 393d
00000290: 5523 cb3d e00d a23c de33 d03c 41ce 46bd
000002a0: 9295 0bbb 1c0a d93c 230d d0bc 6349 6e3c
000002b0: 7577 2bbd ef38 31bd 4dd7 e63c ebeb 3cbd
000002c0: 7700 a33c 88ca 833d fa37 b63d 56cf 06bd
000002d0: 804f a9bd 3468 d43c d148 473d 1860 323d
000002e0: 6cc1 d039 9ef7 b3bd f01a aebd a4b4 6abd
000002f0: 196d bb3d ec34 853d 5292 0abd 9813 d9bc
00000300: f0c2 1b3d 1eb1 d2bc b265 403b a6c3 7fbd
00000310: af2a 0ebe 13a1 a1bd 3eef 823c e645 c1bc
00000320: 5915 883c e25d c83d 2127 0c3d 3c79 253d
00000330: 5176 d3bb ba54 aebd 6734 6a3d 6691 7d3e
00000340: ec02 173e 22ad 823d dff9 0dbe 7e3f a4bd
00000350: e1ee 9c3c b78b 173e 5b75 d23d de79 c3bd
00000360: 941d 4ebd deab dabd f2e2 423c 2559 7c3d
00000370: f57a cfbd 717b 2fbd fc90 9dbd ad75 cbbc
00000380: 2052 8fbc 7755 75bc 5fa7 993d 80be 923d
00000390: 8ac0 62bd 7525 2fbd e385 513d 3740 0b3e
000003a0: 695f 9b3d a0db 593d 1025 6cbd dc52 00bd
000003b0: 8f9b 8bbd ff43 b63d 9644 2a3e 5203 a53c
000003c0: 3290 53bd ed6a f3bd 546e 9abd 342f 4ebb
000003d0: 0e52 38bc e78c d1bc 1c09 07bc 06c8 39bd
000003e0: 3da7 06bd ef5d 7bbc 9c08 1f3c 8e9a 603d
000003f0: 96d1 593d e5ff 473d 560d 563c f4f1 4bbb

conv2.bias f4 [16]
-0.27767786 0.20339933 0.06422858 0.109739825 0.11189391 -0.028986678 -0.19518596 0.12167142
0.27168792 0.36982033 0.20795047 -0.10586392 -0.07577765 0.5678293 0.07299505 0.13233244
00000000: cb2b 8ebe ea47 503e 468a 833d 46bf e03d
00000010: a228 e53d 7875 edbc d4de 47be de2e f93d
00000020: ae1a 8b3e 1759 bd3e f8f0 543e 2fcf d8bd
00000030: 5031 9bbd 435d 113f 6e7e 953d 2882 073e

dense1.weight f4 [120, 400]
-0.010153114 0.01681947 -0.057709195 -0.049641315 0.027188981 -0.017884305 0.040795825 -0.049858112
-0.050233945 -0.036899753 -0.0210917 -0.0007720562 -0.016797848 0.03285907 0.02797564 -0.02895018
-0.031676657 -0.02064971 -0.022091342 -0.008560903 0.0011851832 0.0406522 -0.019324556 0.033549756
0.0043566604 -0.0426497 -0.049311344 -0.040916022 -0.039395723 -0.029545166 0.01739904 0.006701748
0.021543583 -0.051173892 0.035754368 -0.054679602 0.0012223531 0.018871944 0.03224597 -0.020452142
-0.042482793 -0.012873409 -0.052397903 0.014677545 -0.020109424 -0.029718278 -0.05654299 0.031039132
-0.005876352 -0.01260225 0.028710335 0.020658541 0.0011664246 -0.023618858 -0.03411206 -0.04685722
-0.00072217523 -0.055794258 -0.055578552 0.0037441468 0.040300217 -0.041134555 -0.0238369 -0.017424922
-0.013688904 -0.025724389 0.032100588 -0.03256982 -0.0473878 0.009933242 0.02845157 0.025573352
0.008463523 -0.052524537 -0.051198874 0.0022704862 0.00719246 0.014816826 0.017891802 0.03685769
-0.020000389 0.00322519 0.0044530276 0.02240394 -0.03960895 -0.0018815135 -0.043841694 -0.04370934
-0.033692118 0.02756864 -0.04040166 -0.012590023 -0.03542993 -0.044609968 0.029226484 0.0019996855
0.026896935 0.016641116 0.014483865 0.0038882769 -0.028154936 -0.055743102 0.006840563 -0.019867385
0.0038687428 0.047964226 0.018941708 0.036459487 0.016443264 -0.01812234 -0.021964183 -0.03976748
-0.014538258 0.044562723 0.016455859 0.007256204 0.038648583 -0.03572438 0.015322722 -0.034391582
-0.04475594 0.025698058 0.005732833 -0.04765929 -0.021048902 0.017113613 0.03291687 -0.04646819
-0.03382165 0.010054286 -0.0015236737 -0.012743745 -0.01666021 0.004613861 -0.026356874 -0.022753416
-0.033058684 -0.0017318602 0.0062579126 0.008873757 0.00020540948 0.018615501 -0.014386174 0.028686002
-0.038456157 -0.04829883 -0.020879233 -0.028026752 0.043242704 -0.034655135 -0.032099314 -0.04111041
-0.016899006 -0.015084512 -0.048176616 -0.034735512 -0.009211014 -0.000999138 -0.024177613 0.0029630195
0.022790842 -0.031181615 -0.012308533 0.028096767 0.028912278 0.017259981 0.004065586 -0.027346043
-0.0037315837 -0.022053456 0.022739936 -0.04392399 0.015952775 -0.006412019 -0.01645912 0.004691511
0.0039416617 -0.057841994 0.026392164 0.028824598 0.0034181029 0.001744322 -0.051011436 -0.0032496764
1.7239825e-06 0.019218152 -0.0011510787 -0.0128769195 -0.058027003 -0.018029349 9.813135e-05 -0.0008119494
-0.0545707 -0.010755868 -0.048422594 0.025821568 -0.022332702 0.03679491 -0.042096104 -0.05419528
-0.014649456 -0.00587313 -0.04044179 -0.051623818 0.0005848486 0.039515465 0.00054815516 -0.050766125
-0.0068441294 -0.031544354 -0.007584799 -0.0035489926 0.022423541 -0.0286905 -0.025366927 -0.03445312
-0.009571035 -0.039969128 0.007914878 -0.02376742 0.007272849 -0.019064192 -0.006477584 -0.006075425
-0.05575554 -0.042910095 0.014240021 -0.0077106794 -0.018638346 -0.042239126 0.041087188 0.0014844489
0.036080196 -0.041499224 -0.011098277 -0.044883214 0.021882907 0.0060664895 -0.032465946 -0.0327501
-0.05578426 0.02338334 -0.001546706 0.0039027398 0.023913948 -0.048533525 -0.046186186 -0.018452544
-0.0015957159 -0.006026804 -0.012824644 0.030345187 -0.011146133 0.029696362 0.021692196 0.03811833
00000000: 3f59 26bc fcc8 893c 7a60 6cbd b154 4bbd
00000010: 6dbb de3c 1b82 92bc 8619 273d 0538 4cbd
00000020: 1cc2 4dbd 3224 17bd 80c8 acbc d163 4aba
00000030: a49b 89bc 3b97 063d 2b2d e53c ee28 edbc
00000040: 62bf 01bd 9529 a9bc e7f8 b4bc 0843 0cbc
00000050: 2658 9b3a ec82 263d 884e 9ebc 786b 093d
00000060: 51c2 8e3b 74b1 2ebd b1fa 49bd 8f97 27bd
00000070: 695d 21bd b408 f2bc 6e88 8e3c 569a db3b
00000080: 2b7c b03c b79b 51bd 2c73 123d b8f7 5fbd
00000090: 5d37 a03a 5699 9a3c 5a14 043d 408b a7bc
000000a0: 7002 2ebd feea 52bc 2f9f 56bd 167a 703c
000000b0: 85bc a4bc bf73 f3bc 9f99 67bd c745 fe3c
000000c0: 6a8e c0bb ab79 4ebc f031 eb3c 1a3c a93c
000000d0: b7e2 983a 567c c1bc 16b9 0bbd 5bed 3fbd
000000e0: 5c50 3dba 8588 64bd 56a6 63bd 5c60 753b
000000f0: d711 253d b57c 28bd 9a45 c3bc b6be 8ebc
00000100: 6d47 60bc f4bb d2bc e87b 033d ee67 05bd
00000110: b619 42bd 09bf 223c 4413 e93c 357f d13c
00000120: 97aa 0a3c f823 57bd e9b5 51bd 70cc 143b
00000130: baae eb3b 46c2 723c d491 923c 17f8 163d
00000140: dbd7 a3bc b65d 533b b4ea 913b 7888 b73c
00000150: ff3c 22bd 1e9d f6ba 5993 33bd 9108 33bd
00000160: bf00 0abd a1d7 e13c 367c 25bd 6246 4ebc
00000170: f91e 11bd f1b8 36bd 616c ef3c 280d 033b
00000180: f656 dc3c f352 883c bc4d 6d3c 76d2 7e3b
00000190: 2ea5 e6bc e152 64bd cd26 e03b edc0 a2bc
000001a0: bc8a 7d3b 2376 443d a42b 9b3c 8b56 153d
000001b0: 06b4 863c 4d75 94bc 3bee b3bc 3ae3 22bd
000001c0: e031 6ebc 6787 363d 70ce 863c 73c5 ed3b
000001d0: fa4d 1e3d ba53 12bd 270c 7b3c 30de 0cbd
000001e0: 0152 37bd bc84 d23c 7dda bb3b 6336 43bd
000001f0: bf6e acbc d931 8c3c d7d3 063d 6e55 3ebd
00000200: 9288 0abd bbba 243c 01b6 c7ba 24cb 50bc
00000210: fe7a 88bc df2f 973b 5fea d7bc 5f65 babc
00000220: 8b68 07bd 96ff e2ba 2d0f cd3b 3c63 113c
00000230: 3063 5739 897f 983c fdb3 6bbc e8fe ea3c
00000240: 3484 1dbd fed4 45bd ed0a abbc 5c98 e5bc
00000250: 431f 313d 8bf2 0dbd 927a 03bd 6463 28bd
00000260: c96f 8abc 0725 77bc d854 45bd d346 0ebd
00000270: cbe9 16bc 82f5 82ba 2110 c6bc 382f 423b
00000280: dcb3 ba3c 9670 ffbc bba9 49bc 312b e63c
00000290: 71d9 ec3c ce64 8d3c 9b38 853b cf04 e0bc
000002a0: 968d 74bb 73a9 b4bc 1a49 ba3c a4e9 33bd
000002b0: 65af 823c ea1b d2bb 47d5 86bc 3fbb 993b
000002c0: 0e29 813b baeb 6cbd 6134 d83c 9021 ec3c
000002d0: 4002 603b bca1 e43a 5ef1 50bd 86f8 54bb
000002e0: 9663 e735 636f 9d3c cbdf 96ba b7f9 52bc
000002f0: b9ad 6dbd 49b2 93bc decb cd38 00d9 54ba
00000300: 8785 5fbd 6139 30bc c556 46bd c187 d33c
00000310: 12f3 b6bc 42b6 163d f76c 2cbd dffb 5dbd
00000320: 4604 70bc 6373 c0bb 4aa6 25bd 7f73 53bd
00000330: 8650 193a f8da 213d 12b2 0f3a 24f0 4fbd
00000340: b844 e0bb a734 01bd e889 f8bb 3796 68bb
00000350: 93b1 b73c 5708 ebbc 4dce cfbc b71e 0dbd
00000360: d5cf 1cbc abb6 23bd 68ad 013c e4b3 c2bc
00000370: 1451 ee3b 822c 9cbc ea41 d4bb 5c14 c7bb
00000380: ec5f 64bd 7fc2 2fbd fa4e 693c dea9 fcbb
00000390: 72af 98bc ef02 2dbd 0a4b 283d d791 c23a
000003a0: d4c8 133d 17fb 29bd 8cd5 35bc 76d7 37bd
000003b0: c843 b33c 67c9 c63b 03fb 04bd f824 06bd
000003c0: 097e 64bd 6b8e bf3c d7ba caba 1cc5 7f3b
000003d0: 2fe7 c33c 17cb 46bd ba2d 3dbd ca29 97bc
000003e0: 5727 d1ba 7f7c c5bb 751e 52bc 7896 f83c
000003f0: 459e 36bc c945 f33c d5b3 b13c f721 1c3d

dense1.bias f4 [120]
-0.047397323 0.2596928 0.05121538 -0.0075675547 0.020211883 -0.0072459173 -0.010794407 -0.017177977
-0.00080600084 -0.0020370567 -0.010784192 -0.08587694 -0.068438046 0.22362882 0.027227983 0.104804024
-0.00922788 -0.09983194 0.024369624 0.032457262 -0.2642809 -0.03060126 0.013406659 0.261752
-0.036053002 -0.037567995 -0.070427366 -0.035109527 -0.0049480954 0.0026405382 -0.026842957 -0.03859123
-0.07442929 -0.029802056 -0.019553516 0.13611816 -0.09156913 0.22154732 -0.06795657 0.18408334
-0.040386897 0.087182276 -0.06912226 0.06617564 -0.019756775 -0.047586937 0.0035074744 0.17050932
-0.016453415 -0.055481683 -0.12661873 0.061012827 -0.05618769 -0.09240664 0.25661802 -0.06254107
0.060375646 0.010127593 0.33302078 -0.018386526 0.03948212 -0.04016376 -0.06529007 -0.056151483
-0.019976065 -0.028848253 0.0044170883 0.36887643 -0.028567908 0.009312898 -0.013572279 -0.07602413
0.27052492 -0.021686703 -0.031248728 -0.043225475 -0.015310444 0.0048632235 -0.41916335 0.13030988
-0.037467904 0.29555672 0.15963832 -0.042842522 -0.032160833 0.054031588 -0.0018422517 -0.03630676
0.025825767 0.15049726 0.035913527 -0.024233755 0.13241047 0.1350893 -0.06253676 0.020165626
-0.04736906 0.085668206 0.14748713 0.17877537 0.031304285 0.08877092 -0.061827738 -0.04814859
-0.02125409 0.2163694 0.009297739 0.11541853 -0.05369965 0.090538606 0.05370123 0.123553455
0.05593258 -0.034971233 0.00773021 0.021426529 -0.070114784 -0.052737582 0.02146051 0.109949745
00000000: b223 42bd 74f6 843e 38c7 513d 40f9 f7bb
00000010: 6493 a53c 296f edbb 06db 30bc d4b8 8cbc
00000020: cd49 53ba 2480 05bb 2eb0 30bc 40e0 afbd
00000030: 3f29 8cbd f4fe 643e 380d df3c 7ea3 d63d
00000040: 8930 17bc b074 ccbd cea2 c73c e8f1 043d
00000050: d34f 87be 7eaf fabc 9aa7 5b3c 5c04 863e
00000060: 50ac 13bd e6e0 19bd 393c 90bd 02cf 0fbd
00000070: a223 a2bb e10c 2d3b c3e5 dbbc d611 1ebd
00000080: 626e 98bd 7123 f4bc b22e a0bc 8f62 0b3e
00000090: 9988 bbbd 4ddd 623e d02c 8bbd 5880 3c3e
000000a0: bb6c 25bd 9f8c b23d f98f 8dbd 1887 873d
000000b0: f6d8 a1bc 85ea 42bd a8dd 653b ff99 2e3e
000000c0: 50c9 86bc c340 63bd 57a8 01be 96e8 793d
000000d0: 1025 66bd b13f bdbd 7063 833e 8815 80bd
000000e0: 744c 773d 34ee 253c b381 aa3e 579f 96bc
000000f0: 01b8 213d c182 24bd cdb6 85bd 19ff 65bd
00000100: d8a4 a3bc 2c53 ecbc 39bd 903b 5fdd bc3e
00000110: 3f07 eabc 2095 183c 445e 5ebc 8ab2 9bbd
00000120: 3e82 8a3e 50a8 b1bc 55fd ffbc 320d 31bd
00000130: a8d8 7abc ad5b 9f3b 949c d6be f46f 053e
00000140: f277 19bd 3653 973e 3a78 233e a47b 2fbd
00000150: 14bb 03bd 3a50 5d3d b677 f1ba 66b6 14bd
00000160: 8f90 d33c f41b 1a3e 101a 133d de85 c6bc
00000170: 9c96 073e d954 0a3e 4613 80bd 6232 a53c
00000180: 0f06 42bd d072 af3d de06 173e e410 373e
00000190: ec38 003d 87cd b53d 153f 7dbd 7537 45bd
000001a0: 0f1d aebc f18f 5d3e 8b55 183c 8d60 ec3d
000001b0: 2af4 5bbd 4e6c b93d d2f5 5b3d 9809 fd3d
000001c0: 9019 653d ff3d 0fbd b44d fd3b b086 af3c
000001d0: 5798 8fbd 5d03 58bd f4cd af3c 552d e13d

dense2.weight f4 [80, 120]
0.0058616805 -0.06752114 0.044354085 0.021615548 -0.038838282 -0.06298478 0.07395944 0.018973053
0.0688889 -0.05837251 0.009241693 0.038424164 -0.0038015284 -0.009516892 0.04398284 0.02807124
-0.025368305 -0.070867784 -0.025396097 0.05501797 -0.019288873 -0.0035062123 0.004525995 0.061112683
0.0722615 -0.056017738 0.022515863 0.010017216 -0.0013553794 -0.027961716 -0.025073592 -0.042524263
-0.10008632 0.06982623 0.089723736 -0.044541914 0.013712598 0.047509708 0.0012983158 -0.02753776
-0.07439692 -0.005153362 0.004271079 -0.08672394 0.012646907 -0.06860093 -0.028696183 -0.009692996
0.005383057 0.029549781 -0.011508997 -0.018723484 0.03268065 -0.08471973 -0.047546 -0.025141627
-0.05179113 -0.070638776 0.03190883 0.075500324 -0.07741573 -0.017235784 -0.057723835 -0.036491465
-0.0041559557 -0.08941731 0.003924218 -0.067892425 0.08251515 0.050301187 -0.070658214 0.056515373
0.018670354 0.05501924 0.085130826 0.053142916 -0.037465736 0.0019595118 0.029764349 -0.0354723
-0.05357558 0.048159566 -0.021888899 0.062305428 0.040900502 0.048300844 -0.013106116 0.054728925
-0.08500448 -0.0041474667 -0.020511758 -0.07149654 -0.053908847 0.0030799522 0.07013802 0.022231
0.05124499 -0.06462879 -0.065080814 -0.06196307 -0.04846599 -0.053500205 0.054318808 -0.088477574
-0.050816003 -0.0810723 -0.045959346 -0.07652352 -0.04321855 -0.021245576 -0.0085978145 -0.053899188
0.07150398 0.03641263 0.02893706 -0.07074384 0.036685888 0.06712895 -0.08183515 -0.020567764
0.0010772167 0.024425987 0.04153983 0.07360486 -0.062870145 0.2901928 -0.60507745 -0.23342717
-0.02259203 0.01419209 -0.07172508 -0.07663969 0.048049517 -0.04151477 0.09263179 -0.040205006
0.016789107 0.06517172 0.055222053 0.2933477 -0.10850735 -0.019898463 -0.05337657 0.025361443
0.01738575 0.07009387 0.15640423 -0.17145865 -0.15537348 0.0624577 0.035295326 -0.0154605685
-0.111900374 0.07106796 0.01866749 0.14801998 -0.3811248 0.13798101 0.05735231 -0.06396527
-0.04631165 0.00969743 -0.10527597 0.059184898 0.02149871 0.20430957 -0.04756683 0.029421803
-0.06642856 0.0849189 -0.061418246 0.04198673 -0.055458546 -0.08527087 0.14949623 -0.04939601
0.15939142 -0.020362906 0.2407381 0.027033668 -0.016063182 -0.08036462 -0.08940476 0.0667101
-0.06253815 0.086991034 -0.05669691 0.2710001 -0.025402507 0.0811371 0.12973873 -0.005102772
0.2010093 0.040910818 -0.052979924 -0.04906874 -0.01996518 -0.067878075 0.087043315 0.09224961
-0.05538044 0.26010886 0.1308133 -0.06250703 -0.05477517 0.10812823 0.29069406 -0.053121567
-0.02906996 0.2177862 0.041058723 0.16097619 -0.030199347 -0.06821945 -0.07190612 -0.12247896
0.031023744 -0.08777203 0.08517732 0.18375348 0.20878625 -0.09956066 -0.03990144 0.05848868
0.054024663 -0.09851458 0.22015104 -0.07455036 0.018521102 -0.026871758 0.42057464 -0.20660521
-0.17465651 0.07242725 -0.031144714 0.08577564 -0.3347267 -0.02943743 0.0010715243 0.0783944
0.013179811 -0.02839251 -0.020166693 -0.06573912 0.0053029195 -0.09561501 -0.024745246 -0.010043821
0.063255325 -0.014603359 -0.010057433 -0.06642983 0.07165192 0.038519427 0.07026717 -0.07979825
00000000: 5713 c03b 8648 8abd a1ac 353d 1713 b13c
00000010: e414 1fbd 2afe 80bd 0c78 973d 606d 9b3c
00000020: a015 8d3d 0318 6fbd 786a 173c a862 1d3d
00000030: 1023 79bb bdec 1bbc 5a27 343d a8f5 e53c
00000040: 31d1 cfbc 2123 91bd 7a0b d0bc 865a 613d
00000050: b303 9ebc 7bc8 65bb cc4e 943b 4b51 7a3d
00000060: d6fd 933d db72 65bd 3073 b83c 401f 243c
00000070: fca6 b1ba f80f e5bc 2267 cdbc ec2d 2ebd
00000080: 0efa ccbd 0e01 8f3d 14c1 b73d 9571 36bd
00000090: ceaa 603c 8a99 423d 402c aa3a de96 e1bc
000000a0: 6a5d 98bd 89dd a8bb 68f4 8b3b 529c b1bd
000000b0: f934 4f3c a57e 8cbd 4214 ebbc 5fcf 1ebc
000000c0: 5b64 b03b 6212 f23c 3b90 3cbc fe61 99bc
000000d0: 25dc 053d 8a81 adbd 98bf 42bd d0f5 cdbc
000000e0: f022 54bd 10ab 90bd d5b2 023d ea9f 9a3d
000000f0: 238c 9ebd 0f32 8dbc d46f 6cbd 1378 15bd
00000100: af2e 88bb 6c20 b7bd ba96 803b 2f0b 8bbd
00000110: b4fd a83d 9e08 4e3d 41b5 90bd aa7c 673d
00000120: 92f2 983c db5b 613d 1259 ae3d 63ac 593d
00000130: ac75 19bd 276b 003b 5dd4 f33c 674b 11bd
00000140: 1172 5bbd f742 453d 5950 b3bc fa33 7f3d
00000150: 4987 273d 1bd7 453d 09bb 56bc 702b 603d
00000160: d416 aebd 79e7 87bb 4608 a8bc c76c 92bd
00000170: 86cf 5cbd 06d9 493b 86a4 8f3d c91d b63c
00000180: 44e6 513d 195c 84bd 1749 85bd fdcc 7dbd
00000190: 4684 46bd 0823 5bbd 667d 5e3d bb33 b5bd
000001a0: 7124 50bd 3c09 a6bd de3f 3cbd 5db8 9cbd
000001b0: ef05 31bd 340b aebc d9dd 0cbc 65c5 5cbd
000001c0: ae70 923d 6925 153d 6a0d ed3c 25e2 90bd
000001d0: f143 163d e77a 893d 3099 a7bd ba7d a8bc
000001e0: 6531 8d3a 0219 c83c ab25 2a3d 25be 963d
000001f0: 10c2 80bd 2794 943e 5be6 1abf 8807 6fbe
00000200: ec12 b9bc f185 683c 99e4 92bd 45f5 9cbd
00000210: 92cf 443d 640b 2abd bcb5 bd3d 01ae 24bd
00000220: 4f89 893c c078 853d 8530 623d ab31 963e
00000230: 1a39 debd 1a02 a3bc 64a1 5abd cdc2 cf3c
00000240: 8f6c 8e3c 608d 8f3d 6e28 203e db92 2fbe
00000250: 3a1a 1fbe a5d3 7f3d d591 103d 534e 7dbc
00000260: 062c e5bd 148c 913d 90ec 983c 8d92 173e
00000270: ca22 c3be e54a 0d3e 41ea 6a3d 3900 83bd
00000280: 49b1 3dbd f8e1 1e3c ee9a d7bd dd6b 723d
00000290: 101e b03c 8736 513e 70d5 42bd fe05 f13c
000002a0: b20b 88bd f6e9 ad3d b391 7bbd 47fa 2b3d
000002b0: 8028 63bd 7ea2 aebd 8a15 193e 7853 4abd
000002c0: 8137 233e 1cd0 a6bc 0c84 763e b675 dd3c
000002d0: ef96 83bc 3596 a4bd d819 b7bd 4e9f 883d
000002e0: 0014 80bd 5b28 b23d 053b 68bd 86c0 8a3e
000002f0: eb18 d0bc 352b a63d 3bda 043e 2735 a7bb
00000300: 62d5 4d3e 1a92 273d 7a01 59bd 4efc 48bd
00000310: 048e a3bc a903 8bbd c443 b23d 5ded bc3d
00000320: 9ad6 62bd fd2c 853e ecf3 053e b003 80bd
00000330: ee5b 60bd 5572 dd3d dad5 943e 0096 59bd
00000340: 2024 eebc 5803 5f3e 312d 283d f1d6 243e
00000350: 9f64 f7bc a4b6 8bbd 8443 93bd 40d6 fabd
00000360: 8225 fe3c d2c1 b3bd 7271 ae3d df29 3c3e
00000370: 10cc 553e 76e6 cbbd b16f 23bd d391 6f3d
00000380: f748 5d3d 03c2 c9bd 466f 613e dcad 98bd
00000390: 91b9 973c 2922 dcbc 8f55 d73e 5190 53be
000003a0: 28d9 32be bd54 943d 3323 ffbc 24ab af3d
000003b0: 4c61 abbe c426 f1bc 6472 8c3a 3e8d a03d
000003c0: 22f0 573c 6997 e8bc 9f34 a5bc 3ba2 86bd
000003d0: 1dc4 ad3b cdd1 c3bd 8bb6 cabc d78e 24bc
000003e0: 028c 813d ed42 6fbc eec7 24bc 5d0c 88bd
000003f0: 3ebe 923d 8cc6 1d3d 3ce8 8f3d 446d a3bd

dense2.bias f4 [80]
0.070380844 0.32927895 0.053682767 0.068028785 0.047322124 -0.046145763 0.115610294 0.21677725
0.20106538 0.032045342 -0.18729797 0.10099107 0.014817347 -0.065725505 0.103244886 0.023291303
0.19667868 0.026413284 0.045405578 -0.04039896 0.04590044 -0.054815985 0.3408785 0.06287388
-0.07100901 0.054786712 0.1984111 0.14930253 0.19596997 -0.15928066 0.075425886 0.17831984
-0.017887529 0.07107943 0.09170826 -0.36122507 0.030823188 0.021500755 -0.032087885 0.21505894
0.0014541437 0.16530302 0.1849998 0.21428582 0.095663585 0.20645596 0.05892618 -0.1432365
0.07556227 0.12618312 0.096786655 -0.087121464 0.07266215 -0.04091028 0.028621092 0.020618614
0.095980905 0.058870543 0.024568066 -0.045874156 -0.105194174 0.15918191 0.044920135 0.14940022
0.20209911 -0.08933992 -0.082730435 -0.006040068 0.103682056 0.09328411 -0.063134566 0.20012262
-0.09584468 0.004703245 -0.085839525 0.20705833 0.17684956 0.21640736 0.12603077 -0.07165796
00000000: d523 903d 4097 a83e 76e2 5b3d ad52 8b3d
00000010: d8d4 413d 5703 3dbd 17c5 ec3d dbfa 5d3e
00000020: 15e4 4d3e fa41 033d 0acb 3fbe 68d4 ce3d
00000030: 75c4 723c 189b 86bd 0e72 d33d 67cd be3c
00000040: 2366 493e ac60 d83c 33fb 393d 6179 25bd
00000050: 1a02 3c3d ba86 60bd a087 ae3e 05c4 803d
00000060: 2c6d 91bd 0868 603d 482c 4b3e c3e2 183e
00000070: 5aac 483e 781a 23be e378 9a3d 7a99 363e
00000080: de88 92bc 1892 913d 8ad1 bb3d 7ef2 b8be
00000090: e980 fc3c 5a22 b03c 966e 03bd 6938 5c3e
000000a0: f798 be3a 3245 293e 9670 3d3e be6d 5b3e
000000b0: 45eb c33d 3169 533e 945c 713d 97ac 12be
000000c0: 64c0 9a3d 2636 013e 1538 c63d bd6c b2bd
000000d0: e5cf 943d 8a91 27bd c876 ea3c 5ee8 a83c
000000e0: a391 c43d 3d22 713d f842 c93c 8ae6 3bbd
000000f0: 0b70 d7bd 9500 233e 2dfe 373d 5ffc 183e
00000100: 12f3 4e3e d9f7 b6bd 936e a9bd c3eb c5bb
00000110: 4257 d43d bd0b bf3d b24c 81bd f2ec 4c3e
00000120: 374a c4bd ae1d 9a3b a2cc afbd 1907 543e
00000130: 0d18 353e e499 5d3e 360e 013e 69c1 92bd

final.weight f4 [12, 80]
-0.015086262 -0.0069895214 0.08665588 0.036808692 0.03624673 0.25877237 -0.12567994 -0.68469906
0.1089092 0.1067219 0.057272512 0.25086594 0.005773347 0.019893898 -0.008647314 -0.034938555
-0.12680307 0.1458746 0.047077335 -0.1608077 -0.11968826 -0.11510586 -0.37976664 -0.08189811
-0.10885569 -0.06826885 0.43290183 -0.07288032 -0.094204985 0.26639965 0.35110965 -0.12803723
-0.044252284 -0.1015095 -0.10365866 -0.1928691 0.061693095 0.58100784 0.015980817 -0.2088462
0.009061023 0.16381547 -0.09208974 -0.00785794 -0.1248211 -0.14524469 -0.6081373 -0.03845565
0.006861811 -0.2963431 -0.14212076 -0.0968161 -0.04292959 -0.07123925 -0.0918449 0.04628199
-0.0045757466 -0.15385266 0.10222486 0.019755544 -0.059727147 0.21706553 0.012651229 -0.1577355
-0.13745064 -0.0022157435 -0.07829742 -0.08184486 -0.1964508 -0.3558663 0.089517355 -0.044801988
-0.10682087 0.02622471 -0.081623845 0.05170049 -0.08321851 -0.44346198 0.085320204 0.046538424
0.08050504 0.023775475 0.059241276 -0.031839006 0.059325278 0.24886437 -0.0794588 -0.69511724
0.12947811 0.1181474 0.10704348 0.24094412 -0.13329336 -0.02842845 -0.022965671 -0.039504554
-0.07268088 0.041959707 -0.048848376 -0.21123756 0.0480224 -0.18301927 -0.41631034 0.05862149
-0.09103411 -0.0054361187 0.44573888 -0.10618858 -0.0834906 0.28161293 0.3528038 -0.13946171
-0.06258123 0.016870176 -0.08092025 -0.22624089 -0.006991415 0.5600986 -0.03530839 -0.20933552
-0.061027166 0.22507235 -0.08894498 -0.019038033 -0.13468358 -0.13060926 -0.56204724 0.09055085
-0.04161557 -0.2989807 -0.100085616 -0.12904333 -0.13743256 0.028523978 0.05063284 0.06299317
0.067427926 -0.14359581 -0.109973565 -0.0071001383 -0.03607815 0.1743339 0.087111115 -0.0072772163
-0.123296104 0.057110634 0.10067458 -0.06360132 -0.17674226 -0.36192706 0.030947013 -0.033945367
-0.12225637 -0.041174375 0.08428441 0.04082613 -0.18703367 -0.5073054 0.0065087127 0.09989791
-0.06334543 0.25497594 -0.019948171 0.038912114 -0.34246135 -0.2994418 0.12838808 0.108622
-0.50051016 -0.21913706 -0.2836825 -0.45085046 0.038373694 -0.056418587 -0.026297929 -0.1394141
-0.17620015 -0.23173386 0.09211701 -0.066811435 0.07864989 -0.18321179 -0.34837827 0.083597764
-0.4188296 -0.053343896 -0.20186083 0.03730017 -0.07467525 -0.09803998 -0.16507624 0.07237128
-0.09509716 0.032556195 0.038836334 -0.4843624 -0.004716353 -0.63637555 0.19419627 -0.13218896
0.08348494 -0.21040794 -0.06318414 -0.13736746 0.07815718 -0.104334414 0.036289115 0.13374159
-0.04012328 0.0533758 -0.08877136 0.15163237 0.09834971 0.023809077 -0.11313104 -0.02522738
-0.12212625 -0.030074265 -0.062256254 0.035324965 -0.15109617 -0.22292267 0.084177524 0.044498056
0.122516096 -0.04132071 0.092296064 0.24179794 0.19581312 -0.35429332 0.07598412 -0.14123602
0.2835813 -0.03852426 -0.085804865 -0.48573476 -0.022509301 -0.09584995 0.16278243 -0.30650967
-0.033945683 0.2577445 0.021539608 -0.11820672 -0.33578226 -0.26999208 0.022489224 0.12622364
-0.524122 -0.21686392 -0.2965375 -0.45599595 -0.006175728 -0.07944625 0.041812826 -0.18576974
00000000: 5e2c 77bc 5b08 e5bb a378 b13d b6c4 163d
00000010: 7377 143d d07d 843e 3eb2 00be 7048 2fbf
00000020: c90b df3d 0391 da3d 9596 6a3d 8071 803e
00000030: 582e bd3b 87f8 a23c 77ad 0dbc bb1b 0fbd
00000040: aad8 01be 2760 153e 2ad4 403d c6aa 24be
00000050: 1e1f f5bd 9fbc ebbd c670 c2be 32ba a7bd
00000060: bbef debd 8ad0 8bbd 4fa5 dd3e 4742 95bd
00000070: 8bee c0bd 8965 883e a5c4 b33e 311c 03be
00000080: e241 35bd 36e4 cfbd fe4a d4bd 7a7f 45be
00000090: e6b1 7c3d eebc 143f 34ea 823c c7db 55be
000000a0: af74 143c 3ebf 273e 8c99 bcbd 97be 00bc
000000b0: 34a2 ffbd 06bb 14be e3ae 1bbf ac83 1dbd
000000c0: 0bd9 e03b 48ba 97be 1b88 11be 8547 c6bd
000000d0: f0d6 2fbd e2e5 91bd 2e19 bcbd 2f92 3d3d
000000e0: 25f0 95bb 8d8b 1dbe 445b d13d 61d6 a13c
000000f0: 74a4 74bd 6d46 5e3e 1a47 4f3c 6a85 21be
00000100: dcbf 0cbe 0236 11bb 665a a0bd 479e a7bd
00000110: 662a 49be 1c34 b6be e054 b73d 4a82 37bd
00000120: e6c4 dabd 34d5 d63c 672a a7bd e5c3 533d
00000130: 776e aabd 730d e3be 5cbc ae3d 139f 3e3d
00000140: d4df a43d c9c4 c23c fba6 723d 9e69 02bd
00000150: 10ff 723d 4dd6 7e3e 4cbb a2bd 34f3 31bf
00000160: e995 043e 44f7 f13d 9d39 db3d 0eba 763e
00000170: 0e7e 08be c8e2 e8bc 8122 bcbc 87cf 21bd
00000180: b7d9 94bd f1dd 2b3d 3c15 48bd a94e 58be
00000190: 23b3 443d 6769 3bbe a126 d5be 161d 703d
000001a0: 1770 babd 7821 b2bb e337 e43e 6679 d9bd
000001b0: 1ffd aabd 922f 903e b3a2 b43e 0dcf 0ebe
000001c0: 972a 80bd 5333 8a3c 84b9 a5bd b1ab 67be
000001d0: 3d18 e5bb 9f62 0f3f 889f 10bd 0d5c 56be
000001e0: 9ff7 79bd 5e79 663e c928 b6bd a6f5 9bbc
000001f0: 7eea 09be 6fbe 05be 54e2 0fbf b972 b93d
00000200: 1775 2abd 0014 99be b0f9 ccbd ef23 04be
00000210: 1fbb 0cbe 1eab e93c 6164 4f3d 9002 813d
00000220: a717 8a3d c80a 13be d239 e1bd 47a8 e8bb
00000230: afc6 13bd 9684 323e 5067 b23d b775 eebb
00000240: ab82 fcbd d7ec 693d 792e ce3d 6941 82bd
00000250: ecfb 34be 814e b9be 9784 fd3c 4c0a 0bbd
00000260: 8c61 fabd 76a6 28bd 4e9d ac3d 4d39 273d
00000270: c185 3fbe c4de 01bf 0a47 d53b 4797 cc3d
00000280: 40bb 81bd 358c 823e 596a a3bc 4f62 1f3d
00000290: 1857 afbe 7050 99be 2a78 033e 3675 de3d
000002a0: 6f21 00bf 7765 60be d53e 91be dfd5 e6be
000002b0: bc2d 1d3d 2d17 67bd c16e d7bc 92c2 0ebe
000002c0: d06d 34be a44b 6dbe d8a7 bc3d 6fd4 88bd
000002d0: 3213 a13d df9b 3bbe a35e b2be 4e35 ab3d
000002e0: d570 d6be 217f 5abd 9bb4 4ebe 10c8 183d
000002f0: 56ef 98bd 2fc9 c8bd bf09 29be 6537 943d
00000300: 4dc2 c2bd a559 053d d912 1f3d 59fe f7be
00000310: a38b 9abb 82e9 22bf 63db 463e 8b5c 07be
00000320: 27fa aa3d 2e75 57be b066 81bd 0eaa 0cbe
00000330: df10 a03d 48ad d5bd e5a3 143d 8ef3 083e
00000340: 4f58 24bd 95a0 5a3d c2cd b5bd 8445 1b3e
00000350: 936b c93d 410b c33c 3fb1 e7bd a7a9 cebc
00000360: 541d fabd 4e5e f6bc 6a00 7fbd e9b0 103d
00000370: f4b8 1abe d745 64be 4465 ac3d 9843 363d
00000380: b8e9 fa3d e83f 29bd b805 bd3d e199 773e
00000390: 3c83 483e ef65 b5be 909d 9b3d 2da0 10be
000003a0: 9131 913e 9dcb 1dbd 76ba afbd 3ab2 f8be
000003b0: 6d65 b8bc fb4c c4bd 70b0 263e d6ee 9cbe
000003c0: a10a 0bbd 16f7 833e d573 b03c 5d16 f2bd
000003d0: a7eb abbe 673c 8abe 523b b83c c540 013e
000003e0: dc2c 06bf 9311 5ebe c3d3 97be 4d78 e9be
000003f0: c35d cabb b7b4 a2bd ed43 2b3d 6c3a 3ebe

final.bias f4 [12]
-0.118279934 -0.13574918 -0.032690857 -0.10260156 -0.1163268 0.08057699 -0.03085671 -0.0045795133
-0.0970842 -0.0741513 0.0026776432 -0.06668392
00000000: c03c f2bd d501 0bbe d9e6 05bd c420 d2bd
00000010: bf3c eebd 8d05 a53d 36c7 fcbc be0f 96bb
00000020: 15d4 c6bd a3dc 97bd 667b 2f3b 9491 88bd
