Superclass/models/hybrid_10_eps.pth (torch, 249164 bytes, 10 tensors)

conv1.weight f4 [6, 1, 5, 5]
000000 36 be d7 bb bc 04 e4 bd 92 9c 4e 3c 84 00 38 3e
       -0.006583954 -0.111337155 0.012610571 0.17968947
000010 5b b3 3a 3e f4 32 fe bd 0b 2b 5b be 0a ba fa bc
       0.18232481 -0.12412062 -0.21403138 -0.030606288
000020 c2 ae d0 3e eb bf cc 3e e6 f1 fb bd f6 89 96 be
       0.4075833 0.39990172 -0.12301998 -0.2940213
000030 5e af 5d bd 81 9a d0 3e a5 70 ba 3e 3c 05 ce bd
       -0.05412232 0.40742877 0.36414066 -0.10059592
000040 de 49 2c be e9 5b 95 bd ff d0 02 3e 39 2c 82 3d
       -0.16825053 -0.07292921 0.12775038 0.06356091
000050 6e 5d d7 bc bc f6 89 bc f0 ff 30 bd 77 b0 ca bc
       -0.026289668 -0.016841285 -0.04321283 -0.024742348
000060 f8 5b 5f bd f8 57 b3 3c b9 2e 2a bd f9 a7 93 bc
       -0.054531068 0.021892533 -0.041548464 -0.018024432
000070 e5 d0 ea bb 06 fa b1 bc f0 e9 ac bd f6 6f 5e be
       -0.0071660154 -0.021725666 -0.084430575 -0.21722397
000080 9d 3d 41 be fb 5e 68 bd 07 99 78 bc 31 b3 66 be
       -0.1887116 -0.056731205 -0.015173203 -0.22529294
000090 e6 37 dc be 6e 09 bf bd 31 2d 5d 3d bb 9a 71 3d
       -0.43011397 -0.093279704 0.053998176 0.058985453
0000a0 fa 89 70 be 29 31 8b be 28 95 7d 3d b7 f5 81 3e
       -0.23490134 -0.27185944 0.061909825 0.25382778
0000b0 bd b2 19 3e b2 bb 30 bd c0 e2 18 bc 6f ea 0d 3e
       0.1500959 -0.04314775 -0.009331405 0.1385896
0000c0 19 7d 46 3e 62 81 76 3d 65 8d 6b bc 3c 4b 83 3e
       0.19383658 0.060181983 -0.014376973 0.25643337
0000d0 6f 59 17 3f dc 23 b6 3e bb 2d b3 3d e1 3f e1 3d
       0.5912084 0.35574234 0.08748957 0.10998512
0000e0 a0 2c 50 3e 89 47 bc 3e be 4e c5 3e 88 7b 2d 3e
       0.20329523 0.36773327 0.38536638 0.16941655
0000f0 a5 78 9d bd fd 84 45 be 14 cf 65 be 28 74 5f be
       -0.07689027 -0.19289012 -0.22442275 -0.21821654
000100 7f 15 10 be cc 66 a3 bd 21 37 8d be c2 3b 01 bf
       -0.140707 -0.07978591 -0.27581123 -0.5048181
000110 0d 16 ed be 74 57 3a be 00 14 88 bc 8a aa 29 bd
       -0.46305886 -0.18197423 -0.0166111 -0.041422404
000120 de bf a9 bd ab d0 ab bd 88 56 8e 3d 39 17 2c bc
       -0.08288549 -0.0838941 0.06950098 -0.010503584
000130 8c 8d 49 3d a0 21 f0 3d 25 10 d1 3d 84 fe a3 bb
       0.049207255 0.117251635 0.102081574 -0.005004706
000140 02 79 c0 bc fc aa 7a 3e f6 ab 2c 3f 14 89 0a 3f
       -0.023495201 0.24479288 0.6744989 0.54115415
000150 a7 56 d8 ba cd 4f 31 bd 63 07 4f 3e a9 1e 18 3f
       -0.0016505317 -0.043288995 0.20217662 0.59421784
000160 34 f8 13 3f f4 0a 83 3d 21 bf 97 bd 3f 2a cc bd
       0.578006 0.063985735 -0.07409502 -0.09968995
000170 63 fb 19 3d 82 a9 45 3e 05 95 92 bc 00 aa ea bc
       0.037593257 0.19302943 -0.017893324 -0.028645515
000180 35 dc 1a be 20 f1 02 be b2 d0 d7 bd 1d 56 fa bd
       -0.15123065 -0.12787294 -0.10537852 -0.12223456
000190 ae 70 2a be da 6e 12 be ba 98 1c be ad 60 af bd
       -0.16644546 -0.14300099 -0.15292636 -0.08563361
0001a0 7f 1a af bd 6c 04 ad 3d d7 48 87 3e b5 71 8c 3e
       -0.085499756 0.08448109 0.2642276 0.27430502
0001b0 ae 09 55 3e ef 97 16 3d bd a4 5f 3e 94 ef 50 3e
       0.20804474 0.03676599 0.21840186 0.20403892
0001c0 ce e1 fd 3e c1 d4 d4 3e 0e 61 8e 3d 4f 56 5e 3e
       0.49586338 0.41568568 0.069521055 0.21712612
0001d0 32 6c 00 3f 0d 40 06 3f d8 c4 5f 3e 61 fb c5 bd
       0.5016509 0.52441484 0.21852434 -0.09667087
0001e0 ef f2 23 3e 31 7d 8a 3e 90 07 be 3e 76 b2 af 3d
       0.1601064 0.27048638 0.37115145 0.085789606
0001f0 45 ff eb bd 11 e1 ac 3c fe 11 93 3d 61 a1 08 bc
       -0.11523298 0.021103414 0.07181166 -0.008339257
000200 f8 a2 25 3b ea cb 5d 3c 98 6f bc 3d 46 dd e2 3a
       0.002527414 0.013537386 0.09200972 0.0017308376
000210 7c b3 c0 bd 75 99 29 bd 5f e2 46 3d 34 1e fc 3b
       -0.09409234 -0.041406114 0.048555728 0.00769403
000220 5b d9 48 be df 55 5f be ab fc 79 bd 54 9e d0 3c
       -0.19614165 -0.21810101 -0.06103198 0.025466122
000230 64 63 02 be fd 8b a8 be 1a ee 77 be 3a 35 13 bd
       -0.12733227 -0.32919303 -0.24211922 -0.035939433
000240 93 9b 22 bb d5 bd ec bd 9f 26 21 be 31 ec ac bd
       -0.0024811968 -0.11559645 -0.15737389 -0.084434874
000250 19 cb cb 3c 32 49 69 bc
       0.024877118 -0.0142386425

conv1.bias f4 [6]
000000 06 1a 45 3f 63 ac b4 be d3 63 fb ba 05 8a 96 3f
       0.76992834 -0.3528777 -0.001917953 1.176087
000010 d3 3e 8b be ad a6 a4 3d
       -0.2719637 0.080396034

conv2.weight f4 [16, 6, 5, 5]
000000 fa af f8 bc 4e d9 57 bd 90 60 ce 3d 8e fe 72 3d
       -0.03035735 -0.052697472 0.100770116 0.059324794
000010 c6 5b fa 3b ce af c2 bc 62 60 12 3f 88 51 32 be
       0.007640335 -0.02376547 0.5717832 -0.17413914
000020 30 57 e3 3d f5 f2 88 bc 89 8f e8 3e 73 5a a5 bd
       0.11100614 -0.016717413 0.4542201 -0.080738924
000030 53 b7 de be 09 3e 9f 3e b5 19 bf bd 2d 8d aa 3e
       -0.4349924 0.31102017 -0.09331075 0.33310834
000040 35 44 1d bf bc e6 df 3d 41 a7 2b 3e dd 1f 48 3d
       -0.614322 0.10932681 0.16763021 0.048858512
000050 26 4f c3 bc 9d e2 ea bd 01 dc 7a 3e af a9 86 bb
       -0.023841452 -0.11469004 0.24497987 -0.0041095833
000060 35 f6 6a 3d a4 6c fc 3c 38 22 74 3d d8 ff 70 3c
       0.057363708 0.030813523 0.059602946 0.014709435
000070 3f a9 3d 3d 8f ec 3d bb a8 81 20 3d 88 2d 11 3e
       0.046303984 -0.0028980111 0.03918615 0.14177525
000080 fc 6b db bd d3 bf 15 3e c4 6f e7 3a 7e 34 85 3d
       -0.10713956 0.14623956 0.001765721 0.06504153
000090 6c 29 05 be 09 00 37 3e 9e d2 9b 3e e6 71 58 bc
       -0.13004082 0.17871107 0.30434126 -0.013210749
0000a0 98 08 fa bd 14 87 67 3c 1b 6a eb 3d 16 62 39 3e
       -0.122086704 0.014131326 0.114948474 0.18103823
0000b0 fe 99 3a 3d 78 a5 3f bd 2f 90 9c bd 3d d2 c8 bd
       0.045557015 -0.046788663 -0.07644688 -0.09805725
0000c0 5d 41 81 3d b2 46 52 bd fb 8d 38 bd 22 16 d5 bd
       0.06311295 -0.05133695 -0.045057278 -0.10404612
0000d0 69 4b e2 bc 71 7b 61 bd 05 bf 4c bd f1 c1 89 bd
       -0.027623849 -0.055049364 -0.049986858 -0.067264445
0000e0 cd c7 43 be 78 1c bb 3c 6a c3 87 be 27 dc 0a bd
       -0.19119187 0.022840723 -0.26516277 -0.03390136
0000f0 7f 33 9a 3d 7f 40 06 3f 2c ff 3b 3d c7 c9 a1 3b
       0.07529353 0.52442163 0.045897648 0.004937384
000100 23 cb 19 3e a6 d9 4a 3e 51 68 98 3e 74 4c 82 be
       0.15018897 0.19809589 0.29767087 -0.25448954
000110 52 f7 c1 3e 6c df a2 3b 92 9e 9d 3d 6a 01 3e bd
       0.37884003 0.0049704816 0.076962605 -0.046388067
000120 fe df 81 3d be c3 9b 3d 1a 2e d0 bd 4d ed 82 bd
       0.06341551 0.07605694 -0.10165043 -0.06392918
000130 d2 f5 f9 bd 00 0b 23 be 2a 6a 19 3d 84 34 39 3d
       -0.1220509 -0.15922165 0.03745476 0.0452161
000140 bc 06 a1 bd ce fe 11 3e 68 1c 3d be 3d 78 d1 bd
       -0.078626126 0.14257357 -0.18467867 -0.10228012
000150 f0 6f b0 bd aa c9 a6 3d e0 b3 90 3e d4 e2 f9 be
       -0.086151004 0.08143933 0.28262234 -0.4880587
000160 5a 47 24 3e 28 7d 13 3e f1 e2 88 3d 5e dc b7 bd
       0.16042843 0.14403212 0.06683911 -0.089775786
000170 61 73 f4 be 8f d0 5e 3e eb 40 ba 3d b7 1a 14 3d
       -0.47744277 0.21759246 0.09094413 0.03615829
000180 a1 e0 d3 bd 63 19 11 3b 9f 41 49 3d 76 07 9b 3d
       -0.10345579 0.0022140376 0.049134847 0.075697824
000190 61 2c 1f 3d 68 74 d4 bd e7 0e e3 bd 9e 82 b6 bd
       0.038860682 -0.10373765 -0.11086827 -0.08911632
0001a0 e7 7d 9a 3d b8 ba 4b bc 5a dd 59 3e dc fd 45 3c
       0.07543545 -0.012434654 0.21275845 0.012084451
0001b0 97 b1 82 be 09 03 0f bd a9 61 90 3d b8 39 a5 3e
       -0.25526115 -0.034915004 0.07049877 0.32270598
0001c0 f9 06 4c be 68 f9 e0 3b 17 03 20 3e 1a ec a8 3d
       -0.19924535 0.006865669 0.15626179 0.08248158
0001d0 c8 31 ac bc 57 78 a1 be 7f 85 9a 3d ca 46 10 3e
       -0.021019831 -0.31537125 0.075449936 0.14089504
0001e0 73 76 10 bc 00 1f 1a bc e8 1a 9a bc a6 c8 6a 3c
       -0.008817303 -0.009406805 -0.018811658 0.014330065
0001f0 f9 ac 16 bd 85 2d a5 bd 96 18 15 be 02 5d 9b bd
       -0.036786053 -0.08065323 -0.1456016 -0.07586099
000200 23 f1 e2 bc 4e 80 a3 3d 1a a4 ac bb 77 78 13 be
       -0.027702874 0.079834566 -0.005268586 -0.14401422
000210 92 e7 97 bd f3 7d 61 3d b5 d0 df 3d 9d fb 28 bd
       -0.074172154 0.055051755 0.109284796 -0.041255582
000220 6d 5a 99 bd f4 8e 67 3e cf e7 d9 3d b9 b2 9d 3d
       -0.074879505 0.22613126 0.10639917 0.07700104
000230 de 43 3c bd 82 81 d4 bd 8e 64 ae 3b d5 98 e9 3b
       -0.04596316 -0.10376264 0.0053220456 0.0071288147
000240 66 27 8c 3c 98 6d 23 bd c4 08 e3 bd 50 82 6f 3d
       0.01710863 -0.03989944 -0.11085656 0.058473885
000250 f3 a5 88 3c 55 94 99 3d 15 c0 49 be d3 a0 fc 3c
       0.016680693 0.07498995 -0.1970218 0.030838406
000260 ce 89 22 3e 1f 5e 9a 3d ef ba dd 3d 63 5d b5 bc
       0.15872881 0.075374834 0.108266704 -0.022139257
000270 b5 5c c2 be 91 f8 33 3f e2 8d ca ba 6f 79 7e 3d
       -0.37961355 0.7030116 -0.0015453661 0.062127527
000280 df 45 c8 3e 27 7a 73 be 26 0e 9f 3e 9a 90 b6 3e
       0.39115807 -0.23777066 0.31065482 0.35657197
000290 f6 70 38 3d 44 e7 46 3e e1 1c e8 3c a8 a0 2a be
       0.045029603 0.19424158 0.028334083 -0.16662848
0002a0 3e 00 80 3e a6 e2 4c bc fb 29 d6 bd 51 40 94 3c
       0.25000185 -0.012505209 -0.10457226 0.018097075
0002b0 b0 62 c8 3c 6a c4 15 be 2d 57 f2 bd ef 89 87 bc
       0.02446112 -0.14625707 -0.11833034 -0.016545264
0002c0 56 ab 6d 3c 97 d7 0e 3d 93 f7 3f be f4 d5 e0 3b
       0.014506182 0.03487357 -0.18746786 0.0068614427
0002d0 8a 22 95 bd ae 36 14 bb cb e8 cd 3d f4 ab a2 3c
       -0.072819784 -0.00226156 0.10054167 0.019857384
0002e0 34 a5 0b bd 2b d5 5f be 75 df b6 bb 2f b6 02 3e
       -0.034093097 -0.21858661 -0.0055808374 0.1276481
0002f0 b4 76 22 3e a5 d2 86 3d 6c 58 8b bd b8 7e a8 bd
       0.15865594 0.06583146 -0.068039745 -0.08227295
000300 18 ee 6c bd bd e2 c8 3d 07 d8 83 3d 1d 06 b0 3c
       -0.05784425 0.09808872 0.06437688 0.02148729
000310 b6 32 a5 bd 0a 5d be bc 69 18 aa bb 9b 4a 8b bd
       -0.08066313 -0.023237724 -0.005190898 -0.06801339
000320 0f a0 f8 bd b7 6b 11 bd 23 19 bc 3d 26 1d 9b bd
       -0.12139904 -0.035503116 0.09184482 -0.07573919
000330 80 9a f7 3c bf fd f6 bc 7f ae 8e be 02 7a 31 3f
       0.030225039 -0.030150292 -0.27867505 0.69326794
000340 71 ef 14 3e a0 99 21 3d 7c f8 c3 3d 16 89 29 bf
       0.14544465 0.03945315 0.09568879 -0.662248
000350 57 95 ba bd 6b 2f 6e 3e c5 26 60 bb 69 b3 48 bd
       -0.091105156 0.23260276 -0.0034202796 -0.048999224
000360 39 03 69 3c e3 cf fe be 1c 3d d0 3c e6 06 b8 bd
       0.01422196 -0.4976798 0.025419764 -0.08985691
000370 7d 2f 78 3b aa f4 a5 3d ab da 55 3b 8c 83 72 3a
       0.0037870102 0.081033066 0.0032631557 0.00092511694
000380 c1 9c 6d bd 63 fa 9f 3d c2 ad bd be 90 dc 16 3e
       -0.05801082 0.07811429 -0.3704663 0.14732575
000390 aa 66 87 bd 94 e1 0a be c6 5f 5f 3e 78 ab be be
       -0.066113785 -0.13562614 0.21813878 -0.37240195
0003a0 dc 4e 53 bd ba b2 7d 3e 45 3f 00 be 6f e6 20 3e
       -0.051588878 0.2477521 -0.12524135 0.15712903
0003b0 a8 a2 24 3e 22 93 03 bf 21 65 fe 3d 0b 37 84 bd
       0.16077673 -0.5139638 0.124216326 -0.06455811
0003c0 3b e5 2e bd 54 45 8b 3e 99 01 8e be 51 c6 41 be
       -0.04269908 0.2720133 -0.27735594 -0.18923308
0003d0 32 b7 38 bd af 49 e8 bc 61 25 72 3d d9 28 8c 3c
       -0.045096584 -0.028355448 0.05911768 0.017109321
0003e0 fa 12 8d bd 5f 5f bf bd 61 54 1f 3e ab 64 ca bd
       -0.06888385 -0.093443625 0.15559532 -0.09882482
0003f0 3d c2 8c bc e3 fd f8 3d de b4 4f bc 08 20 ba bc
       -0.017182464 0.121578 -0.012677399 -0.022720352

conv2.bias f4 [16]
000000 a1 df c6 be b3 d5 46 3e 01 86 2c 3f c5 b5 04 bf
       -0.3884249 0.19417457 0.67391974 -0.5183986
000010 a6 c3 da 3d 46 2c 37 be 1f ab bf 3e 63 6b b5 be
       0.10681848 -0.17887983 0.37435243 -0.35433492
000020 bd 05 a8 be ff 6b 53 3f a2 e2 32 3e f3 62 ac be
       -0.32816878 0.82586664 0.17469266 -0.33669242
000030 f2 e0 0e bd d4 1a 34 be 2f 51 69 be 55 f1 01 3e
       -0.034882493 -0.17588359 -0.22784875 0.12689717

dense1.weight f4 [120, 400]
000000 a8 c6 93 bd db 4f 03 3d 58 a8 17 be 56 cf af bd
       -0.07215625 0.032058578 -0.14810312 -0.08584468
000010 28 22 b1 bd 45 b3 4f bd fb 2c 9e 3d 00 9b 8f 3d
       -0.08649093 -0.050708074 0.07723423 0.07011986
000020 60 3c 3b 3e 84 f3 d2 bd 31 b0 26 be ae 44 8f be
       0.1828475 -0.10300353 -0.16278149 -0.27982086
000030 ab 1f 38 bc ad 80 60 3d 91 fe d3 bd 84 52 93 bd
       -0.011238019 0.054810215 -0.10351289 -0.07193473
000040 6c ad ec bd 3a aa b4 bd c8 38 6a bd 16 e9 b2 bd
       -0.11556515 -0.08821531 -0.057183057 -0.08735864
000050 5b 18 e2 bc 4a fa e7 bd 5a f4 8c bd 7d 00 b7 bd
       -0.027599504 -0.11327036 -0.06882544 -0.0893564
000060 b1 92 2b be eb dc ba bc 7b 7e ff 3c 61 b8 d8 bc
       -0.16755177 -0.02281042 0.03118824 -0.026455106
000070 bf de 89 3d ff 01 e8 bc 53 63 9b bd 56 a5 3c 3d
       0.067319386 -0.028321264 -0.07587304 0.046056114
000080 1e a0 d0 bd 38 50 d8 3c 3a ac cc bc dc e4 b0 ba
       -0.1018679 0.026405439 -0.024984468 -0.001349594
000090 19 52 e3 bd 97 6a 25 3e c2 2c 16 3e 52 04 37 be
       -0.11099643 0.16153942 0.14665511 -0.17872742
0000a0 a6 fd 04 bd 58 10 cf be 74 77 fb 3d 77 79 01 3c
       -0.03246846 -0.40442157 0.12278643 0.007902495
0000b0 08 ef db bd ce 51 db bb dd ea ba bd 4e 34 05 be
       -0.10738951 -0.0066931015 -0.09126828 -0.13008234
0000c0 84 0b 13 be e4 13 92 bd cf cc 4c bd 0f 7f 16 bd
       -0.14359862 -0.071327 -0.05000001 -0.036742266
0000d0 36 d7 48 be 34 26 3f be 26 6e 31 be a0 8a 72 bd
       -0.19613346 -0.18666917 -0.17327175 -0.059214234
0000e0 36 ae 15 3f 4d f6 8e 3e 3c 30 bf 3c 08 80 b0 bc
       0.5846895 0.27922288 0.02333843 -0.021545425
0000f0 bf de 6e 3d 60 b7 03 3f 95 b8 79 3d 22 f4 7b be
       0.058317896 0.51451683 0.060967047 -0.24604848
000100 76 60 fc bb 6b 8c dd bc 8a f4 f6 3d 99 1f c8 be
       -0.0077019287 -0.027044496 0.12058361 -0.39086607
000110 16 b0 cc 3d 3b 40 90 3d e9 08 43 bd e7 fa 0f 3d
       0.09994523 0.07043501 -0.04761592 0.03515139
000120 9f f3 b2 3d 53 7e 48 3d c0 a5 de 3d 1b da c3 bc
       0.08737873 0.048948597 0.10871458 -0.023907712
000130 f9 68 ec bd ba 1c 89 3d 02 fe bf bd dd 22 5f be
       -0.115434594 0.06694932 -0.0937462 -0.21790643
000140 f4 3e c2 3d 67 03 9c bd 38 39 1a be c1 7a a1 bb
       0.094846636 -0.076178364 -0.1506089 -0.0049279635
000150 19 97 d6 bd c4 fb 7d 3d e2 fb 10 bd 21 c1 ea 3d
       -0.10478038 0.06200768 -0.035396464 0.11462618
000160 0a ca 91 3e 36 94 9b be 97 1c 86 bd d1 8b ff 3d
       0.28474456 -0.30386513 -0.06548422 0.1247784
000170 99 4c 1f 3e 37 34 e4 3c 82 13 00 be 37 10 da 3c
       0.15556563 0.02785693 -0.12507442 0.02661906
000180 71 84 0b 3d 42 7e 92 bd 14 54 a1 bd b2 8d ce bd
       0.034061853 -0.07152988 -0.07877365 -0.1008562
000190 e0 9f b0 bd 07 a7 44 bd 9c 36 4f bd 37 1a 05 be
       -0.08624244 -0.048010852 -0.05058919 -0.12998281
0001a0 2b 90 20 3d 15 96 64 bc e5 22 ae bc 0f 17 2f 3d
       0.03919999 -0.013951798 -0.021256873 0.0427466
0001b0 eb c9 93 3d e2 b2 07 bd d5 fa 30 3d 0e 3c 6b 3d
       0.07216247 -0.03312958 0.043207962 0.05743032
0001c0 25 eb 21 3e 84 a6 da ba 9c fa 1c 3e d8 17 b7 3c
       0.15812357 -0.0016681706 0.15329975 0.022350237
0001d0 1b e1 8a 3d 7a c4 f3 3c 2e db a9 3d ed b1 3a 3e
       0.06781217 0.029756773 0.08293758 0.18231936
0001e0 aa d2 b2 3c a8 3b 77 3d e3 e9 21 bc 8f 62 bc 3d
       0.021828968 0.060359627 -0.009882423 0.09198486
0001f0 f7 c5 4b 3e 78 76 00 bd 56 55 2e bd 5d 61 0b be
       0.19899736 -0.03136298 -0.04256185 -0.1361136
000200 55 84 5b 3d 0d b4 4f 3d 17 2e 28 bc 09 c1 7a bc
       0.053593 0.05070882 -0.010264895 -0.015304812
000210 f0 ea 71 3d 99 5f 41 bd 6f ad a3 be 4a a8 83 ba
       0.059061944 -0.04721031 -0.31968257 -0.0010044661
000220 6c 15 08 be 91 63 6e bd 83 fb a8 3c db 5e 8d be
       -0.13289422 -0.058200423 0.020627743 -0.2761143
000230 aa 01 2e 3d ed 9f 06 be 3b b0 9b bd 72 2b 29 be
       0.042482056 -0.13146944 -0.07601973 -0.1652048
000240 a6 9d 9f be 81 53 9f bc 23 af 86 3c 66 25 ea bd
       -0.31174964 -0.019448997 0.016440934 -0.114329144
000250 c8 e3 68 bd 5d 59 02 bc 28 90 85 3d bb cc 6a 3e
       -0.056857854 -0.007955876 0.06521636 0.22929661
000260 6a 00 85 3e e7 21 58 3e 4a 80 00 3c 06 5f 2a 3e
       0.25976878 0.21106683 0.0078430865 0.16637811
000270 4d 1d 9b 3e f4 f2 0c 3e 0e 06 04 3e 8d df 96 3d
       0.30295792 0.13764554 0.12892935 0.07366858
000280 3f fe 13 3e 2c 9f 58 3e fb fc ab 3d 72 59 50 3d
       0.14452456 0.21154469 0.083978616 0.05086655
000290 e8 9d c5 3d 4f 67 91 3e 16 d0 73 3e a9 d5 4c 3e
       0.09649259 0.2839913 0.23809847 0.2000338
0002a0 d1 39 48 3d 95 40 0b 3e 74 4d 49 3d 34 08 5c 3e
       0.048883263 0.13598855 0.04914613 0.21487504
0002b0 c1 56 89 3e 20 64 66 3e 76 6e a3 3d fd 7c 36 bc
       0.26824 0.22499132 0.07980053 -0.011138198
0002c0 a9 b6 7a bd d4 2d 62 3d dc 3d 15 3e 56 54 a3 3d
       -0.061209355 0.055219486 0.14574379 0.0797507
0002d0 e3 5a 2a bd 0e 3e 40 be fc 25 39 be 87 da 22 be
       -0.041590583 -0.18773672 -0.18080896 -0.15903674
0002e0 1f 6d 89 bd e3 79 d3 bd 94 fc 06 bf 9c 7e c3 be
       -0.06710266 -0.103259824 -0.52729154 -0.38182533
0002f0 aa 2d e2 3d 32 5e 37 be 3f 6e 32 3d 4f f7 85 be
       0.11043866 -0.17907026 0.04356217 -0.26165244
000300 34 88 a4 be 0c 63 74 bd 92 7d 68 be 49 59 88 3c
       -0.32135165 -0.05966477 -0.22704151 0.016644137
000310 b9 b4 13 bc 7c ba 94 bc ee 9d bd bd 90 c3 09 3e
       -0.009015256 -0.018155329 -0.09258638 0.13453507
000320 06 e7 67 bb bd 17 44 bd f0 dd 78 bd ab e1 d9 bc
       -0.0035385503 -0.0478742 -0.06075853 -0.026596865
000330 e3 6b 65 bd fd 1e 78 bd 6d f7 8c 3c 2b 56 9c be
       -0.056011092 -0.060576428 0.017207826 -0.3053449
000340 3e 12 25 be 8f 8b 29 bd e7 cf 69 bd 98 50 aa 3e
       -0.1612024 -0.04139286 -0.057083037 0.33264613
000350 15 08 c4 3c 45 6e bc bd 1a 64 63 3d 53 a1 0d bc
       0.023929635 -0.0920072 0.055515386 -0.00864442
000360 1d f4 8b b9 0d 3c d7 3d 00 7e cc 3d d1 24 84 3d
       -0.00026694025 0.10509501 0.0998497 0.06452335
000370 39 52 41 bc 1c c1 75 3d bb 1e b1 3d a9 97 ab 3c
       -0.011799389 0.059998617 0.086484395 0.02094634
000380 cd 42 54 3c 1b 68 30 bb f2 8e 78 3d 49 49 eb 3d
       0.01295538 -0.002691752 0.0606832 0.114885874
000390 12 54 00 bd 88 7d 41 3a 3b ff 03 bd 71 e8 17 3e
       -0.031330176 0.00073810713 -0.03222583 0.14834763
0003a0 a3 07 cd 3d 63 95 d6 3d cf 86 08 be 18 9e 46 bd
       0.10011222 0.10477712 -0.13332675 -0.048490614
0003b0 69 35 c9 bd 0d aa 41 3d 6b 57 be 3d 20 c4 26 be
       -0.0982464 0.047281314 0.092940174 -0.16285753
0003c0 64 da 7c bc 8c 18 3f bd 02 87 7f 3e 71 e4 10 bd
       -0.015432928 -0.04665427 0.24953845 -0.03537411
0003d0 6c b5 d2 bd 0e fd bd bd 43 03 ad bb f9 5f c9 bc
       -0.1028851 -0.09276782 -0.00527993 -0.024581896
0003e0 61 61 cd bd a3 d0 b5 3d df 3c a4 3b 73 af 3a 3d
       -0.10028339 0.08877685 0.005012139 0.045577478
0003f0 8d 20 c8 3d f2 6a a3 3d 42 7a 7f 3d d8 2b b2 bd
       0.097718336 0.079793826 0.062372454 -0.08699769

dense1.bias f4 [120]
000000 3d 95 31 3f cd b6 fd 3e 59 9a 82 be 87 76 70 bd
       0.69368345 0.49553528 -0.25508383 -0.058706786
000010 89 93 4e be d8 38 0a bd fb 16 e1 3e c0 68 e8 be
       -0.20173468 -0.033745617 0.43962845 -0.45392418
000020 4d a2 5a b7 e1 0f 3b bd 55 c3 b1 be 73 34 96 bd
       -1.3031601e-05 -0.04566944 -0.3471934 -0.07334223
000030 9e f7 a1 3e 90 15 1c 3d 28 6d df 3d 76 6b 6c 3d
       0.3163423 0.0381065 0.10909492 0.05771967
000040 26 ef 37 be 84 11 17 be 24 b3 ed 3e 01 23 6e 3b
       -0.17962322 -0.14752775 0.46425736 0.0036336782
000050 43 e0 66 b9 9e 75 5d be 8f c0 9e be 45 02 0e be
       -0.00022018053 -0.21626899 -0.31006286 -0.13868053
000060 89 ab b9 bd da 5c 99 bd 3b 38 2a bd 62 12 c1 be
       -0.09065921 -0.07488413 -0.04155753 -0.37709337
000070 10 f5 ac be 64 88 95 be 75 26 c0 bc aa 0d 98 be
       -0.33780718 -0.2920562 -0.023455838 -0.29697925
000080 9d d1 79 3d 02 db eb 3c 5e 11 79 3e 1c c1 ea bb
       0.06099092 0.028790955 0.24323031 -0.0071641337
000090 ff 3d c2 3d 6e 79 23 3e fb 77 a3 bd 0e a4 8a bc
       0.09484481 0.1596429 -0.07981869 -0.01692393
0000a0 3d 95 d6 bc 4f c1 be 3e ba fc ac bc 03 b4 09 3d
       -0.02619421 0.37256858 -0.021116603 0.03361894
0000b0 1b 2a 28 3b 50 2d 4e 3c 23 b2 73 bd f6 f6 f4 3b
       0.0025659862 0.0125840455 -0.059496056 0.007475729
0000c0 c0 a0 aa bc df 63 70 3e 55 70 ae bc 80 72 a9 3c
       -0.020828605 0.23475598 -0.021293798 0.02068448
0000d0 4f 04 08 3e 5d 50 dc 3e 2d 14 ae 3e 02 73 48 be
       0.13282894 0.43030062 0.33999768 -0.19575122
0000e0 7d ff 9b bc ed be 4f bc 00 67 9c bc ea 36 13 3f
       -0.019042725 -0.012679798 -0.019092083 0.5750567
0000f0 1a 60 d6 3c b5 45 5c 3d ff 7d 4f bc 90 10 a9 3c
       0.026168872 0.053777415 -0.012664317 0.02063778
000100 87 98 a5 bd 85 a4 46 3c 66 eb cd 3c 44 8b 40 3c
       -0.08085733 0.012124185 0.02513666 0.0117519535
000110 bf f6 eb 3e be 48 da 3d 81 a7 47 3e 4e 51 90 3e
       0.4608669 0.10658406 0.19497491 0.2818703
000120 e0 e3 73 3d 46 3f 35 ba 6c fc 05 3f 82 ff 0f 3e
       0.05954349 -0.00069140305 0.5233829 0.14062312
000130 51 6d da bd ce 15 cf 3e 14 98 5a bd 85 6e fa bd
       -0.10665382 0.40446323 -0.05336769 -0.12228111
000140 a4 e2 fd 3e ca f9 1c bd 8f be cf 3e 0d 40 56 3d
       0.49586976 -0.038324155 0.40575072 0.052307177
000150 bf 9a f4 bc b0 06 de 3d 63 6d 21 bc 80 23 c4 bd
       -0.029858945 0.10841119 -0.00985274 -0.095770836
000160 4e 93 80 bd 3a de f5 bc 8f fe 89 3e 07 3e 1a be
       -0.06278096 -0.030013192 0.26952025 -0.15062724
000170 4b 66 83 bc 59 70 d0 bd 12 64 fe 3e 68 1e a3 3d
       -0.016039988 -0.101776786 0.49685723 0.07964784
000180 45 7a 18 3e 96 2c d6 bc fd b6 94 3c 92 83 bd be
       0.14890392 -0.026144307 0.018153662 -0.37014443
000190 a5 df 56 bd 01 a7 00 3f a3 71 54 be 23 2c 7e 3b
       -0.052459378 0.5025483 -0.20746474 0.0038783632
0001a0 f2 de af 3e 6c 2d b5 be b4 25 bf 3c 5c 80 de be
       0.3434978 -0.35386217 0.023333408 -0.43457305
0001b0 50 2c e6 bd 9d 0c b3 3b bd 93 09 3f de 11 33 3f
       -0.11238921 0.00546415 0.53741056 0.6994914
0001c0 b2 5c 1a 3b 52 93 d1 3c 99 11 7f be 9a 71 51 3e
       0.0023553786 0.025582943 -0.24909057 0.20453492
0001d0 7f ef 75 3e 45 20 df bd 76 ea c6 bd cb 7b 42 3c
       0.24017142 -0.10894827 -0.097126886 0.011870335

dense2.weight f4 [80, 120]
000000 52 41 87 3d 89 9e 79 bd 30 ad 68 bd a4 26 95 3d
       0.06604256 -0.060942207 -0.05680579 0.07282761
000010 f4 ec 8f bc 2f e8 2b be 34 b7 e8 3d a0 ca c4 bd
       -0.017569043 -0.1678779 0.11363068 -0.0960896
000020 e8 fc 5f 3e d4 6b a0 3d 2a 36 90 bd 9e 69 0c 3c
       0.2187382 0.078330666 -0.07041581 0.008570103
000030 75 1b 6b be bc c9 a9 3d 4e 5a 85 3e 79 90 43 be
       -0.22959693 0.08290431 0.2604546 -0.1909808
000040 50 71 14 3e b3 e8 2c be 3f 34 7b 3d e9 31 94 3c
       0.1449635 -0.16885643 0.061329123 0.018090205
000050 c1 8e 12 3d f0 4e 73 3c 3e b2 33 3e 1e 5b 60 3e
       0.035780672 0.014850363 0.17548463 0.21909758
000060 dc 99 f0 3d 2d f5 8d 3d 85 c1 55 be 46 d7 e1 bd
       0.11748096 0.06931529 -0.20874603 -0.11027388
000070 04 77 a0 bd 35 74 56 3d 52 5e 31 bd f3 9b 14 3e
       -0.078352004 0.052356917 -0.04330284 0.14512615
000080 52 ea 4f 3d a4 87 29 bc 2f 6b 4f 3e 53 b5 a0 bd
       0.050760575 -0.010347281 0.20255731 -0.07847085
000090 5b 20 b6 be 8e 58 27 be a9 65 b0 3d 95 92 73 3c
       -0.3557156 -0.16342375 0.0861314 0.014866491
0000a0 94 cb 2c bc 14 cb 95 3c ba 6f 77 3c 8e 21 82 be
       -0.010546584 0.018285312 0.015102321 -0.25416225
0000b0 71 e3 ff bd 89 a6 0b 3d ca 4d 89 bc b3 e9 86 3d
       -0.12494553 0.034094367 -0.016760726 0.06587543
0000c0 01 fe 77 3d 45 bb 74 3d 26 a5 93 bd 0d 02 84 bd
       0.06054497 0.059748907 -0.07209234 -0.06445704
0000d0 08 e1 59 3c de 8e 94 bd 67 27 27 3e bf e0 a9 bd
       0.013298281 -0.07253812 0.16323625 -0.0829482
0000e0 65 9a 4f bd cd 65 f1 be 65 f8 99 3d 49 7d 77 be
       -0.05068435 -0.4714798 0.075180806 -0.24168886
0000f0 01 82 84 3d 52 85 11 be 6f 0e 8b 3d 33 26 4c bb
       0.06470109 -0.14211014 0.06789862 -0.0031150698
000100 63 41 28 bf eb 22 4a be 9a fe 34 3b 60 a4 be bd
       -0.6572477 -0.19739883 0.0027617575 -0.09308696
000110 83 87 4c 3d 3e 4e 34 be ec e3 60 bd 04 bb cd 3d
       0.04993392 -0.17607972 -0.054904863 0.10045436
000120 d5 e7 ed 3d 3b aa 27 bc d8 82 86 3d c8 1a 52 be
       0.11616484 -0.010233457 0.06567925 -0.20518029
000130 49 f2 8f bd 4d 21 02 be 0d 8b 87 bd ea 69 92 3e
       -0.07028634 -0.12708016 -0.06618319 0.2859643
000140 89 9c c9 bd aa 5b 28 3d 6f 2d 2e be af 2d c2 bc
       -0.0984431 0.041103043 -0.17009519 -0.023703424
000150 50 52 84 38 77 e4 72 be 2b 6d 87 3d 70 2c 09 3e
       6.3095824e-05 -0.23719965 0.06612619 0.13395858
000160 0c 31 fc be 32 5c 36 3d 9b eb 87 3e 61 86 e9 3d
       -0.4925617 0.044521518 0.2654694 0.11402584
000170 e1 ba b1 be b1 ea 04 3d f9 4b d3 bc 31 b5 40 3d
       -0.3471289 0.03245038 -0.025793063 0.047047798
000180 58 6c a7 be 12 0f a6 3d 6e 45 89 3d 94 75 d7 be
       -0.32699847 0.08108343 0.06702696 -0.42081892
000190 2c 70 e0 3d 40 7c 61 be 34 b6 3f 3e 38 0e 64 bc
       0.10958895 -0.22020054 0.18721849 -0.013919406
0001a0 92 0b 1c bd 9c 69 0f 3d fe 77 01 bd 07 e6 37 3d
       -0.03809697 0.035012826 -0.031608574 0.044897106
0001b0 52 8e 23 bd 05 75 9b 3e 00 f9 7b bd 61 d5 eb bd
       -0.03993065 0.30362716 -0.06151676 -0.11515308
0001c0 21 27 a8 bd 53 92 c5 3d 85 c0 60 be c8 17 99 bb
       -0.08210588 0.0964705 -0.2194844 -0.0046720244
0001d0 31 51 43 bd 15 38 bc 3e f7 27 17 be 34 b6 4a bd
       -0.047684852 0.36761537 -0.14761339 -0.04949017
0001e0 16 c5 bc 3d 2c 42 25 bd fd e8 3d bd 6f 90 9c bd
       0.09217279 -0.04034631 -0.046364773 -0.07644736
0001f0 16 85 eb bd f2 62 14 3e 39 87 34 3e e7 7c 0d 3e
       -0.114999935 0.1449087 0.17629708 0.13817178
000200 84 7a 72 3d ce a2 bc bc 00 cd 1d be db d2 02 3d
       0.05919887 -0.02302685 -0.15410233 0.03193937
000210 7a 7e 66 3e 18 80 a7 3d 24 8b 29 3d 41 17 b2 be
       0.22509184 0.08178729 0.04139246 -0.34783366
000220 42 9c 91 3d a7 93 75 3e 6f cb 3c 3d dc 44 c7 3d
       0.07109882 0.23982106 0.046092447 0.09729931
000230 79 ae b0 3d 13 85 d6 bd 99 86 c5 3c b1 65 fe bd
       0.08627028 -0.10474601 0.024112033 -0.1242174
000240 22 60 86 bd 1a cf a9 bd c8 6c a9 3c b6 7a 16 3e
       -0.06561305 -0.082914546 0.020681754 0.14695248
000250 12 48 38 be b6 5a 08 3e b7 eb 49 3c d7 38 54 3d
       -0.17996243 0.13315853 0.012324265 0.05181202
000260 e4 db 65 3e c0 c2 0c 3e 7a 41 21 3d 35 60 52 bd
       0.22447163 0.13746166 0.039369084 -0.05136128
000270 8c 26 0c 3e 6c 36 08 3d 32 06 b8 bd 97 72 6b be
       0.1368658 0.033255026 -0.08985557 -0.22992931
000280 bc 93 a5 bb b4 31 41 be 5c 09 83 3d 8d 6a d2 be
       -0.0050530117 -0.18866616 0.063982695 -0.41096917
000290 de 23 31 be 7b 27 57 bc ea 6f 8d bd 68 0d 87 3d
       -0.17298838 -0.0131319715 -0.069061115 0.06594354
0002a0 22 4e cd 3c 56 75 1a be 30 db 88 bd 32 3f bb bc
       0.02506167 -0.15083823 -0.06682432 -0.022857282
0002b0 b2 aa 7b 3e b2 d3 da 3d 66 46 a0 3d e4 03 fe 3c
       0.24576834 0.10684909 0.078259274 0.031007715
0002c0 50 13 97 bc e0 0d 2a be 07 c7 40 bd 40 10 81 3d
       -0.018441826 -0.16606855 -0.047064807 0.063019276
0002d0 ec 38 4f bd d2 84 1e 3d 7d 58 ab bb fb 6c b8 3c
       -0.050591394 0.038700886 -0.0052290545 0.022512903
0002e0 98 1e ac bb 89 aa 04 3e 66 0b 7c 3d b4 5b 3d bd
       -0.0052526705 0.12955679 0.061534308 -0.046230033
0002f0 f9 a3 14 be 1d 9a 83 3e 72 7d 98 3d 78 76 00 3c
       -0.14515676 0.25703517 0.07445802 0.007840745
000300 4b 04 a2 3d 16 33 3a bd 73 1c b1 bd 56 9d a5 3d
       0.07910975 -0.045458876 -0.086480044 0.0808665
000310 65 67 b4 bc 4f 90 9a 3d 64 62 26 3d ff cd e2 bc
       -0.022021959 0.07547056 0.040621176 -0.027686117
000320 17 6c dd 3b 57 ec f5 3c 28 0e 0f bd 8f a0 45 be
       0.00675727 0.030019922 -0.03492561 -0.1929953
000330 89 d4 87 bd 6f 8b de 3d 0d 55 15 bd 63 b5 9f 3c
       -0.06632335 0.108664386 -0.036458064 0.019495672
000340 3e 72 5f 3c 91 75 14 bd f8 df f7 bc 7b e7 9d bd
       0.013638077 -0.036244933 -0.030258164 -0.07710167
000350 50 e5 a0 bd f9 a4 d6 bd 0b 1c f1 bd c1 51 c3 3d
       -0.07856238 -0.10480685 -0.11772927 0.09537078
000360 8d d5 f7 3e 15 40 a1 bd 02 d6 53 3c 2e 6e 4e bd
       0.48405114 -0.07873551 0.012929441 -0.050398044
000370 a9 f5 ec bc 54 56 11 3c 7a ff 10 be 7c d7 9a 3d
       -0.028925734 0.00887068 -0.14159957 0.07560632
000380 36 cf ac 3d 1e 42 c8 ba ca e3 a8 3c 07 16 8b be
       0.0843796 -0.0015278494 0.02061643 -0.27165243
000390 64 ca f5 3d 16 da 5e 3c 48 cd 30 3d 22 8c 44 3e
       0.120014936 0.0136018 0.04316452 0.19194081
0003a0 71 fa 10 be c1 1c 22 bd 47 ef 9e bd d7 e7 ab 3d
       -0.14158036 -0.039578203 -0.07760482 0.08393829
0003b0 52 4f 3a bd 07 1d c6 bd ca 9f f9 3d ec 3c 45 bd
       -0.045485802 -0.09673505 0.121886805 -0.048153803
0003c0 b4 c2 68 3d 5b 4c 2e 3c 3c 8d 9e bd 5b e0 01 3d
       0.05682631 0.010638322 -0.07741782 0.031708103
0003d0 5d ad 0e be 85 17 78 be 9b fc a7 3d 35 e2 56 3d
       -0.1393332 -0.24227722 0.082024775 0.05246182
0003e0 4e ba 87 be 08 91 9d bd 2b 4b 7d bc 99 2e 81 3d
       -0.26509327 -0.07693678 -0.015459816 0.06307716
0003f0 2f 72 e7 3d 86 3b 85 3b 49 4c 8b 3e c3 d5 bc bd
       0.11301076 0.0040659336 0.27206638 -0.09220459

dense2.bias f4 [80]
000000 fe 1a ca bd 30 b3 6e 3e 6d a8 dc bd 6d 86 c6 be
       -0.098684296 0.23310542 -0.10774312 -0.38774434
000010 69 b0 ee 3e bf fb 07 bd 86 df f3 bd e0 35 3b bd
       0.46618965 -0.03319907 -0.11907868 -0.045705676
000020 85 66 70 3e c5 45 2e bd 9c 96 f3 3d 4d 86 41 bd
       0.23476608 -0.042547006 0.11893961 -0.04724722
000030 35 7e 32 3d 06 55 32 bd 29 9c 86 bc 8d c7 41 be
       0.04357739 -0.043538116 -0.016431885 -0.18923779
000040 1b aa 61 3e c1 45 76 bd df 14 62 3e 0f b8 ae 3e
       0.22037546 -0.060125116 0.22078274 0.341248
000050 24 d1 e1 3c ff 15 68 3d fc 00 7d 3e 6f 74 15 3f
       0.027565546 0.056661602 0.24707407 0.5838079
000060 27 44 00 3c bf 7b d1 3e 78 86 9f 3e 07 49 da 3d
       0.007828749 0.40914723 0.3115728 0.1065846
000070 b4 96 ef 3e 72 86 af be 1c 95 85 bb d0 3c e3 3e
       0.46794665 -0.3428226 -0.004076613 0.44382334
000080 ef 1d db 3e 5b 9f b9 3e f1 0a a2 3d 60 8d 1a bd
       0.42796275 0.3625439 0.07912243 -0.037732482
000090 31 08 a4 bd 49 46 a6 3e 56 f8 22 bd eb 62 94 bd
       -0.08009375 0.32475498 -0.039787613 -0.072454296
0000a0 fa 1c af be fd 03 b2 bd 84 b7 81 bd 36 23 8e 3e
       -0.34201795 -0.08692167 -0.06333831 0.2776124
0000b0 28 49 f2 3c e7 77 69 3e d8 66 15 be 27 9e 54 bd
       0.0295759 0.22799645 -0.14590013 -0.05190864
0000c0 e3 f0 bb 3e 88 25 2f 3d 33 de 3d 3e 78 8e 19 3d
       0.3670722 0.042760402 0.18541794 0.037489384
0000d0 48 f6 43 bc 2a 6d f6 bd 0a c0 aa 3e a0 88 bc 3e
       -0.0119605735 -0.1203254 0.3334964 0.36822987
0000e0 5a 36 a3 3d f6 67 7b be 83 ce 73 bd 19 b1 88 3d
       0.07969351 -0.24551377 -0.059523117 0.06674404
0000f0 c5 ef 9f 3c 6a e6 84 3e 72 a8 82 3e 7d 86 c9 3e
       0.01952351 0.25957042 0.2551914 0.3936042
000100 2b 99 cb bd b5 4f c6 3e 8d d4 f4 3c ef 64 86 bc
       -0.09941324 0.38732687 0.029886508 -0.01640555
000110 b1 d6 d6 bd bf 6b 12 bd ce 3a 97 3e 5e 82 c6 3e
       -0.10490168 -0.035747286 0.29537052 0.38771337
000120 fd 34 b4 bd 8b 95 6a 3e e7 32 40 3c 15 bd d4 bd
       -0.08799169 0.22908609 0.011730886 -0.10387627
000130 5e 84 34 3d c6 3f 85 3e 02 06 91 3e 21 30 b5 be
       0.044071548 0.26025218 0.28324896 -0.35388282

final.weight f4 [12, 80]
000000 70 29 86 3d 8d 4d 7d bd 32 1f 12 be 00 5f 5a be
       0.06550872 -0.061841536 -0.14269713 -0.21325302
000010 4d 96 c0 be 7f 44 79 bd 89 76 4d be 82 38 6d 3e
       -0.3761467 -0.06085634 -0.20064749 0.23166087
000020 f5 88 8f 3d 7d c6 c5 bd ae 0e e1 3e 90 c2 c1 3c
       0.07008544 -0.09656999 0.43956512 0.023652345
000030 91 02 0f 3d a2 ef 0b 3e 4f 49 de bd c4 82 83 3d
       0.034914557 0.13665631 -0.10853826 0.06421426
000040 af 61 c9 bd 09 6e 4e 3e f8 3b a3 be f3 d9 69 be
       -0.09833085 0.20159163 -0.3188169 -0.22837047
000050 f1 dd 82 be 53 5a 21 3d 6d 6d 11 3e 4c 71 75 3d
       -0.25559953 0.03939278 0.14201899 0.0599225
000060 62 62 66 be d8 73 e0 be d8 ae a0 3a 71 d9 21 bd
       -0.22498468 -0.43838382 0.0012259139 -0.03951401
000070 4e df 72 bd 1f 4d 92 be 17 94 a0 3d 5e 89 17 be
       -0.05929499 -0.28574464 0.07840746 -0.14798495
000080 d0 40 0d 3e be dd 22 bd dd e6 2e bb a0 17 7a bd
       0.13794255 -0.03976225 -0.0026687898 -0.061057687
000090 a8 c1 b6 bd cf a4 12 bd 9c 9a de bc 3b 22 a2 bd
       -0.08923656 -0.035801705 -0.027173333 -0.07916685
0000a0 e9 77 d3 3e 20 53 a4 bd 53 90 b1 be 54 25 8a 3d
       0.41302422 -0.08023667 -0.34680423 0.06745401
0000b0 c2 3b 52 bd 3d cc c3 bc c2 74 0b be e7 b8 cc bd
       -0.05132652 -0.0239011 -0.13618758 -0.09996205
0000c0 0c af 41 be 2b 1d 3b 3e 84 e6 f0 bd b4 17 99 3d
       -0.18914431 0.18272845 -0.11762717 0.07475224
0000d0 bc 54 8c be 5d f0 a4 3d 2c 7c 04 3e 71 51 e9 bc
       -0.27408397 0.08053658 0.12937993 -0.028481217
0000e0 4c 89 f0 3c b2 56 31 bd 75 59 80 be fd 88 2a bc
       0.029362343 -0.04329557 -0.2506825 -0.010408637
0000f0 91 6d 1a 3d 5b 5f 13 be 98 bb 2f 3d 8f 0f e4 3e
       0.037702147 -0.14391844 0.042903513 0.4454312
000100 24 dd da 3c 1a 9e fa be cd e1 18 3e 41 53 06 3b
       0.026716776 -0.48948747 0.14929886 0.00204964
000110 04 71 15 be 4f 5e 88 be 1f b7 1d 3e 71 74 b7 3d
       -0.14593893 -0.26634452 0.15401886 0.08957756
000120 68 d7 3d bc 54 83 45 be 61 f2 10 bf cf 9d 70 bd
       -0.011587001 -0.19288379 -0.5661984 -0.058744248
000130 90 78 81 bd ad 1a e4 3c 8b c5 ba be a3 2c 32 3e
       -0.063218236 0.027844751 -0.36478838 0.1739984
000140 94 0f 23 3d 42 0d 29 3e 6b 1d 9d be 8f aa b8 bb
       0.03980978 0.16508964 -0.30686507 -0.0056355665
000150 23 80 3e 3e d6 6d 04 bd f4 15 3e be 74 8f 9b 3e
       0.18603568 -0.03233131 -0.18563062 0.30382884
000160 4f a4 b4 3d 0b c9 26 bd 70 02 fc be f6 0b bc 3c
       0.08820402 -0.040719073 -0.4922061 0.022954922
000170 e2 0b 78 bd dc 09 08 bf 13 3a 93 3c 24 1d 4d be
       -0.060558207 -0.53140044 0.017972028 -0.20030648
000180 37 4e 04 bf d6 f7 2b bd 1c 35 93 be 83 ff 4c 3d
       -0.51681846 -0.0419844 -0.28751457 0.050048362
000190 45 f7 27 3e af c0 6b be f1 88 6a 3c 93 87 64 3d
       0.1640292 -0.23022722 0.014314876 0.055793356
0001a0 4d af 33 be d4 23 96 3e 52 21 66 be 39 f4 2b be
       -0.1754734 0.2932421 -0.22473648 -0.16792382
0001b0 e2 ee 2a 3e 30 41 89 bc 60 ec 21 3f f1 1f 1e bd
       0.16692689 -0.016754717 0.63251305 -0.03860468
0001c0 15 65 f2 3d 31 40 03 3d 29 44 16 bf 77 e8 a7 bd
       0.11835686 0.03204364 -0.58697754 -0.08198636
0001d0 0a 5f dd be 1d dc 13 3f 3f c3 33 3c f7 3e 9f 3c
       -0.43236572 0.5775774 0.010971843 0.019439204
0001e0 57 29 9e 3e 14 91 86 bd 7f b6 8f 3d 3c a9 b6 be
       0.30890915 -0.0657064 0.0701723 -0.3567599
0001f0 af a2 78 3d b3 15 4b 3e 8d bd 76 3e 04 07 05 3e
       0.060702022 0.19832496 0.24095745 0.12990957
000200 df 4a 69 3e 50 0c 38 be 22 b7 11 3b 8d aa 27 be
       0.22782467 -0.17973447 0.00222344 -0.16373654
000210 e0 8c 36 be a6 5c d5 3d 20 e1 11 bf fe 0f 35 bc
       -0.17827177 0.10418062 -0.5698414 -0.011051176
000220 8c 5f ba bd 47 2b e5 bd 76 04 1e 3e 4c 34 e6 3b
       -0.09100255 -0.11189895 0.15431389 0.0070252772
000230 11 11 8a bc 7a 14 7f 3e 80 06 7c be 91 54 8f 3e
       -0.016853841 0.24910155 -0.24611855 0.27994207
000240 d3 d8 24 be 31 8b 81 3e 93 ac 65 3e bb 50 94 bd
       -0.16098337 0.25301507 0.22429113 -0.072419606
000250 81 d9 37 be 6a 9f 7f be 61 46 04 bf 54 65 2a 3e
       -0.17954065 -0.24963155 -0.5166989 0.16640216
000260 40 ef 5b bd ad 2c 3a 3d 40 8a 8d 3e 00 ba 35 3d
       -0.053694963 0.045452762 0.2764454 0.044366837
000270 e5 d5 07 bd df e5 6a 3d a8 34 e7 3e 8b 34 4a 3e
       -0.03316297 0.05734813 0.4515736 0.19746606
000280 b5 81 4c be cd 8b 0b bd 1a 8a e0 be 9f 9f 7c bd
       -0.19971354 -0.03406887 -0.43855363 -0.061675664
000290 0f 16 2d 3c a7 08 cc bc 9d b3 b3 3c 01 59 bc 3d
       0.010564341 -0.02490647 0.021936232 0.09196664
0002a0 b1 84 fa bd 62 b2 1f bd 5e 87 24 3e a7 ff d1 bd
       -0.1223234 -0.03898848 0.16067263 -0.1025384
0002b0 24 c2 f3 b9 a0 70 9e bc d2 8c a1 bc 83 f7 91 3d
       -0.00046493218 -0.019340813 -0.019720469 0.07127287
0002c0 a1 80 25 bd 7b b2 2c 3e f2 a5 63 be 52 fd 1d be
       -0.040405873 0.1686496 -0.22231272 -0.15428665
0002d0 29 d2 91 bd e4 8a f5 3c f7 a8 16 be 45 cd 38 be
       -0.07120163 0.029973455 -0.14712892 -0.18047054
0002e0 ca 73 3f 3e 2f 57 9f bd bf b6 97 3e 63 27 30 bd
       0.18696514 -0.07780301 0.29631612 -0.043006312
0002f0 c9 93 2e be 46 4f 9d be 5c cc 61 bc 00 58 26 be
       -0.17048563 -0.30724543 -0.013781633 -0.16244507
000300 bd d9 bc be 9b ba 01 3d 7b 61 4a 3e fe b6 00 bd
       -0.3688487 0.0316721 0.19763748 -0.031424515
000310 21 0c 1a be 78 b7 d6 3d a3 2c 34 3d 8a ff 12 bd
       -0.1504369 0.10484213 0.04398788 -0.035888232
000320 2d af 90 be 42 dd 1c 3b 71 2e 93 3d 62 e4 97 bd
       -0.2825865 0.002393559 0.07186592 -0.074166074
000330 77 68 b2 bd ce 4e e9 bd 89 2d 54 be 4c 28 44 bd
       -0.08711331 -0.11391984 -0.20720495 -0.047889993
000340 bf d4 06 3f 29 67 2b 3e db 9b eb 3c da 4c 63 bd
       0.52668375 0.16738571 0.028760841 -0.055493213
000350 fc 2a cf be 99 b7 86 3c 3d 96 9c 3e 51 ab 18 be
       -0.40462482 0.016444968 0.30583373 -0.14909102
000360 22 b9 17 3d 99 6e ad 3d 7e 73 cd 3e e4 a2 d2 be
       0.03704179 0.084683605 0.40127176 -0.411399
000370 3f ed 7e 3d 54 b7 d8 bd 6c 37 41 be 41 2b d9 bb
       0.062237974 -0.10581842 -0.18868798 -0.0066274707
000380 96 69 2b 3d 62 b7 d5 3d c4 c8 0c 3e 2c fb 5a 3e
       0.04184874 0.10435368 0.13748461 0.21384877
000390 6b fe 4d 3e 0f 9e 08 3e 36 88 b1 3d bc 8e 52 be
       0.20116584 0.13341545 0.08668558 -0.20562261
0003a0 84 90 0e 3d 08 6a be 3e 8b 02 56 be 4f 5a d9 bd
       0.03480579 0.3719027 -0.20899408 -0.10612928
0003b0 fc 09 89 bd 66 68 af be 06 6a 80 be 2b b3 bb be
       -0.066913575 -0.34259337 -0.2508089 -0.36660132
0003c0 49 94 8e be 85 f9 c2 3d f1 2b 00 bf 84 1b 89 bd
       -0.27847508 0.09520248 -0.5006705 -0.06694701
0003d0 12 c7 53 3e e1 f4 36 3d c5 20 04 3e 6c 3d 13 3d
       0.20681408 0.04466713 0.12903126 0.03594725
0003e0 e8 6e 47 be 32 be 9e 3d a5 ca e2 be 50 f8 bd 3d
       -0.19475901 0.077511206 -0.4429523 0.092758775
0003f0 f2 73 50 3c d4 fd 23 3d 20 13 85 bd 77 84 c9 3d
       0.012722956 0.04003699 -0.064977884 0.09839719

final.bias f4 [12]
000000 4d f5 f1 bd f5 b3 e7 bc e7 fe c6 bd 4f 7c 8b bd
       -0.118143655 -0.028284052 -0.097165875 -0.06810819
000010 81 e8 72 be 55 bf 80 3e ca 34 3c bd 82 ca 17 be
       -0.23721506 0.25145975 -0.04594878 -0.14823344
000020 68 e0 05 3e 0d 5d 03 bf 6f 1d 80 bd a7 ba 0d be
       0.13073885 -0.5131386 -0.06255614 -0.13840733
