Superclass/models/hybrid_10_eps.pth (torch, 249164 bytes, 10 tensors)

conv1.weight f4 [6, 1, 5, 5]
00000000: a88a 8abd 93bf 8bbd c64e a43d 40b5 6e3e
00000010: 7277 873e 56b5 59be 463b 38be 2125 97bc
00000020: 99a6 8e3e 41f0 9e3e f3ea 46be 9bbb 8bbe
00000030: bd22 43bd 8e91 813e 2d16 873e c735 fdbd
00000040: aa34 23be 9a1b e2bc 35c0 023e b7c9 ef3d
00000050: e56b dfbc e918 efbc 821f e2bb 01c6 f73c
00000060: e23f a63c cc76 81bc 2fde 53bd 325d b8bc
00000070: d98e 133c 41aa fc3b ea83 edbd 6495 36be
00000080: d9eb 17be e004 8cbc 5775 0b3d 2c65 4dbe
00000090: 828f b9be f19c 91bd 36de 293d 112f a03d
000000a0: e45c 64be 7a66 8ebe 6a85 24bd 779b 213e
000000b0: 19ca 133e 04f2 6fbd 7710 5bbd c1a6 d73c
000000c0: c492 f63d 7d7c a13d 2a37 083e c573 a23e
000000d0: 9e5e 063f 2bd6 a93e 35b7 893e 0f28 cb3d
000000e0: c7b4 d33d fc0d 333e 1153 613e dc5a 263e
000000f0: 1769 91bd 284d 10be cbd1 09be f1b5 e6bd
00000100: 4562 64bd c3dd d9bd bea5 81be ca1c dabe
00000110: 2dc8 c3be 6413 37be 428b 1dbd cfc9 b9bd
00000120: 1e1a 25be b754 38be 6b3f 5dbd 6bc2 7e3d
00000130: bb88 093e 70df 573e e6a0 4f3e be45 193e
00000140: 395b b33d 0241 373e 66d1 8d3e 3a11 673e
00000150: f7b9 1e3e dd59 8dbd a924 263e f3a2 a13e
00000160: c134 a03e 23ce 603e d0d3 5cbe a2e9 e8bd
00000170: b8e4 4f3d 2412 6d3e 00d3 0d3e 472f 8ebe
00000180: 1e9f 7cbe 5619 aebd 11fb 8bbb a2ab 09bc
00000190: c370 febc 0168 b53d 0c30 cc3d d143 ed3d
000001a0: 7760 9a3d b412 2a3e 5d59 973e 6b88 7f3e
000001b0: 42c9 383e 4cc9 043e a827 783e 6888 913d
000001c0: db69 9f3e d776 aa3e fbaf 5e3e b834 633e
000001d0: 4682 ac3e 669c 9f3e 1fa8 123e 27fb e63c
000001e0: e364 4b3e 0a45 4f3e 3519 a63e 1946 1a3e
000001f0: b801 a03a 3a4c 363c 97ac 04bd 621c ffbc
00000200: 9261 95bc da64 8d39 5bbf 89bc eb81 17be
00000210: 26e2 21be 653b ecbd ad04 2abc 5b46 c0bd
00000220: 686d 87be 193e 76be 614b 10be 206a 19bd
00000230: 97dd efbd 9793 9abe 6294 7bbe 6e3c efbd
00000240: cf42 d4bc b1bb 68bd e7fd e6bd 8dc7 95bd
00000250: 014f e8bc d791 1cbc
-0.06764728 -0.06823649 0.08022837 0.23311329 0.26458317 -0.2126058 -0.17991361 -0.018450322
0.2786148 0.31042674 -0.19425564 -0.2729157 -0.04764055 0.25306362 0.26384106 -0.12363773
-0.15938058 -0.027601052 0.12768634 0.11708396 -0.027273128 -0.029186683 -0.0069007287 0.030245783
0.020294134 -0.015803717 -0.051725563 -0.022505376 0.0090062255 0.0077107255 -0.11597426 -0.17830426
-0.14836062 -0.017092168 0.03404745 -0.20058125 -0.362423 -0.07110012 0.041471682 0.07821477
-0.2230106 -0.27812558 -0.040166296 0.15781961 0.14432563 -0.058580413 -0.0534825 0.026324632
0.12039712 0.078850724 0.13302293 0.3172895 0.52488124 0.3317121 0.26897588 0.0991975
0.10337215 0.17485803 0.22004344 0.16245598 -0.071001224 -0.14091933 -0.13458936 -0.11265171
-0.05575778 -0.10638001 -0.25321764 -0.4260009 -0.3823866 -0.1787849 -0.038462885 -0.09071695
-0.16123244 -0.18001066 -0.05401556 0.06219713 0.13431065 0.21081328 0.20276222 0.14968011
0.08757634 0.17895892 0.2769882 0.22565165 0.15500627 -0.06901906 0.16224922 0.31569633
0.31290248 0.21953635 -0.21565175 -0.11372687 0.050755233 0.23151451 0.13850021 -0.27770445
-0.24670073 -0.08500926 -0.004271873 -0.008402737 -0.031059628 0.08857728 0.09970102 0.115852006
0.075379305 0.16608697 0.29560366 0.24954383 0.18045524 0.12967414 0.24233878 0.071060956
0.3113545 0.33293793 0.21746819 0.2218808 0.3369314 0.3117401 0.14321946 0.02819593
0.19862704 0.2024118 0.32441106 0.15065803 0.0012207543 0.011126572 -0.032391157 -0.031141464
-0.018235002 0.00026968756 -0.016814878 -0.14795654 -0.15808925 -0.11534766 -0.010377091 -0.09388419
-0.26450658 -0.24047126 -0.14091255 -0.037454724 -0.11712187 -0.30190727 -0.24568322 -0.11681448
-0.025910763 -0.05681962 -0.11278897 -0.07313452 -0.028357984 -0.009556255

conv1.bias f4 [6]
00000000: 39cb 243f c9b6 d9be 1e54 3dbd 90fd 343f
00000010: c73a e8bd c96e 1bbd
0.64372593 -0.42522267 -0.0462228 0.70699406 -0.11339336 -0.03794745

conv2.weight f4 [16, 6, 5, 5]
00000000: ee9e 6abc 61cd a33a bd62 413d e451 8e3d
00000010: 818c b1bc acfe a53d f8d8 a93d 14c8 aabd
00000020: d3c3 2e3e 1137 b4bd d559 7c3e da70 ecbd
00000030: be5b 76be 0c58 993e 5912 32bd c20d 2c3e
00000040: e6e5 56be 2c26 c5bb 99f5 6c3e e3db 2e3d
00000050: 90f8 673d 382e 14be 00a7 0d3d 0cec 403c
00000060: 562b a93c 52cf 493d e887 a73d 100f 103d
00000070: ebe2 033d b34d b83c 36bb 02bc e925 583d
00000080: 114d 30bd 4676 ce3d 97d7 43bd b878 1f3d
00000090: 10d3 31bb 2393 0e3e a3f0 3e3e 327c 13bd
000000a0: 2f7c 6fbd a43d cd3d 92a4 8a3d ef97 983d
000000b0: ee0c a13d 4e66 e8bc 2e7b 83bb 7171 1bbd
000000c0: d411 923d e79d 673d 9fcd 0cbd 6b9c dfbd
000000d0: 7067 c7bd 8471 9dbd c45f 5e3d 1cb3 8cbc
000000e0: 1160 18be b83e 96bd c889 35be 0123 fabb
000000f0: 9b08 0b3e 0910 8b3e a871 b73d d69b 95bc
00000100: dca5 653d 8560 1a3e 9895 9d3e 40b4 3e3b
00000110: 7b7b d33b 2c43 d03d 702c 303d c116 4a3d
00000120: 23ff 333d ae0b 1a3c c5f8 5fbc 404c f23c
00000130: cb25 93bd fc6e d0bd fbbf acbc 7c42 0fbd
00000140: 5562 8b3d bcfd 49bd 0c73 a5bd 69ae 983c
00000150: 976d 03bb c364 113e 133a 53bb 6d71 34be
00000160: c854 aa3d 8cea 153e da4a ea3c 1fbf acbd
00000170: 1a0a 46be d502 a23d 9028 803d ff8a e53d
00000180: a9cf 97ba c935 80bc 8cd5 7abb bb44 a43d
00000190: 0ad6 363d 0fea 7abd 06fc 12be 4998 17be
000001a0: 1d8b 013d 3eb0 873d 82b7 f13c c8fb 32bd
000001b0: abec 06be e1f6 a0bc df52 6f3c 3ea7 9b3d
000001c0: 5399 bcbd 5fd4 39bd ae37 a43d 8485 f1bc
000001d0: cfdc 6b39 988d 3cbe b559 02bd 0c81 ec3d
000001e0: cc10 36bd a76e 41bc b6a8 2fbc 695f 8ebd
000001f0: 61d6 553c 8104 34bd 631a bfbd c244 86bc
00000200: df13 69bd ca01 06bd 3914 113c ca92 b0bd
00000210: af4e 5bbd 4f74 dd3b bbf5 2c3c 0668 9a3c
00000220: ec05 053d de74 0b3e 96a7 943d 69bc 68bc
00000230: 22a2 0e3c 77a3 13bd 92f4 51bc 433c 993b
00000240: 95fd 0bbd edf5 0dbd 40e2 c7bd af90 3e3d
00000250: c1d3 203c 3ad2 863d 57b4 30be dec4 c6ba
00000260: b58f 773e 05b8 043e c244 cf3d 6d14 bfbd
00000270: 17f2 93be aca9 c03e 04c8 2c3e 6611 d63c
00000280: e98a 363e 2cd9 57be f7eb 023e f6a4 783e
00000290: 0f4d 063e 22a3 2b3e a35a 29bd d1cd 2abe
000002a0: 5658 573e b440 913d db9b 5ebd 057a fb3d
000002b0: cd41 063c 739a 6abc 3c44 81bc 3cef eabd
000002c0: db38 6d3c 6674 cebc c5b4 c9bd cde6 59bc
000002d0: 40e1 f8bd 4dd8 70bd a076 bb3c f88a 923c
000002e0: 01fd 92bc a075 d5bd 7e8d 7abd 535c 843d
000002f0: 8301 853d 5baa 6d3c 5fdb 59bc 9b6e bbbc
00000300: a04b a9bd 6d83 323d 35ab a53c 3faf 463c
00000310: 2a91 54bd da26 623c 8780 efbc 4105 b73b
00000320: 3caa 77bd f3fc de3d 33c4 353e e84e 103c
00000330: a64d 4b3d 449a 4bbe 93d5 81bd 32f6 b03e
00000340: 3993 103e 2742 03bc 497e fbbd 66a6 ccbe
00000350: a31d ec3d 2070 ee3d d798 1c3d 2a2b a23d
00000360: 84d0 62bd 91e3 6bbe 1625 f33c 7082 383d
00000370: bbb4 89bc 8bd7 fa3c c0dc fbbb f675 af3c
00000380: 5d05 863c 877c b0bc 49a6 4dbe b852 cd38
00000390: 4bf8 a5bb 9d34 28be b6cb b03c 60b8 f9bd
000003a0: b4a3 a1bd 1bd7 c03d 5712 07be 2e84 033d
000003b0: 9a94 c53d e0a7 68be a3c9 adbc a7ac 8abd
000003c0: d927 bd3c 0f47 e03d d175 d2bd 5496 2ebe
000003d0: 21ac d8bc 5239 743d 3271 ab3d 27b3 29bd
000003e0: 0924 e7bd 7d22 02be 3ff3 303c 7bbc 14bd
000003f0: 1c9c 523c e600 b73c 7bfc bfbd 876d bcbc
-0.014320118 0.0012497121 0.047213305 0.06949213 -0.021673443 0.081052154 0.08293337 -0.08338943
0.17066889 -0.087995656 0.24643643 -0.11544962 -0.24058434 0.29949987 -0.04347453 0.16802123
-0.20986137 -0.0060165133 0.23140563 0.04269017 0.056633532 -0.14470756 0.03458309 0.011775028
0.020650547 0.04926998 0.08180219 0.035170615 0.032198828 0.022497987 -0.007979205 0.05277053
-0.043042246 0.100811526 -0.047813024 0.038933486 -0.002713386 0.13923316 0.18646483 -0.036007114
-0.05846804 0.10021523 0.067696705 0.07450854 0.07863794 -0.028369095 -0.004012487 -0.037949983
0.07132307 0.05654707 -0.034375783 -0.10918506 -0.09736526 -0.07687667 0.054290548 -0.01717525
-0.14880396 -0.073361814 -0.1772834 -0.0076335673 0.13577501 0.2716067 0.08957225 -0.018262785
0.05606638 0.15075882 0.30778193 0.0029099137 0.006453929 0.10169062 0.04301113 0.049338106
0.04394449 0.009402199 -0.013670151 0.029577374 -0.07184943 -0.101774186 -0.021087637 -0.034975514
0.06805865 -0.049314246 -0.08078584 0.018637853 -0.0020054334 0.14198594 -0.003223066 -0.17621394
0.08316952 0.14640254 0.028600145 -0.08434891 -0.19339791 0.079106964 0.06257737 0.11208152
-0.0011582273 -0.015650647 -0.0038274257 0.08020922 0.044637717 -0.061258372 -0.14353952 -0.14804186
0.03162681 0.066254124 0.029506449 -0.04369715 -0.13176219 -0.019648971 0.01460716 0.07600258
-0.09208932 -0.04536855 0.080184326 -0.02948261 0.00022493604 -0.18413389 -0.031823833 0.11548051
-0.044449612 -0.011806167 -0.010721376 -0.06951792 0.0130516 -0.043949608 -0.09331205 -0.016390208
-0.056903716 -0.03271655 0.008854919 -0.08621748 -0.053541835 0.00675825 0.010556634 0.01884843
0.03247635 0.136188 0.07258527 -0.014205077 0.008705648 -0.036044564 -0.012814658 0.004676373
-0.03417738 -0.03465836 -0.09759951 0.0465247 0.009816111 0.06583066 -0.17256294 -0.0015164872
0.24175914 0.12960823 0.101205364 -0.09330068 -0.28895637 0.3762945 0.16873175 0.026131343
0.17826428 -0.21078938 0.12785326 0.24281678 0.13115333 0.16761449 -0.041346204 -0.16680075
0.21029791 0.07092419 -0.054347854 0.12279133 0.008194399 -0.01431905 -0.015779607 -0.114714116
0.014478887 -0.025201987 -0.09848932 -0.013299656 -0.12152338 -0.05880003 0.022883713 0.017888531
-0.017942907 -0.10422826 -0.061170094 0.06462922 0.06494429 0.014505948 -0.013296931 -0.02287989
-0.082663774 0.04358237 0.02022324 0.012126743 -0.05189625 0.013803208 -0.029236091 0.005585343
-0.060465083 0.1088809 0.17750625 0.008807875 0.0496346 -0.19883066 -0.06339564 0.34562832
0.14118661 -0.008011377 -0.12279946 -0.39970702 0.1152909 0.1164248 0.038231697 0.07918389
-0.055374637 -0.23036028 0.02968077 0.04504627 -0.016809812 0.030620357 -0.0076862276 0.021418553
0.01635998 -0.021543754 -0.20082964 9.790569e-05 -0.005064999 -0.1642632 0.021581512 -0.1219337
-0.07892552 0.09416028 -0.1319059 0.03210848 0.09647484 -0.22720289 -0.021214312 -0.06771212
0.02309029 0.10951053 -0.10276378 -0.17049533 -0.026449265 0.059624977 0.083712 -0.04143062
-0.1128617 -0.12708469 0.010800182 -0.03631256 0.012854602 0.022339296 -0.09374329 -0.023001445

conv2.bias f4 [16]
00000000: 256b 56be 77df 983e 1820 113f edba d0be
00000010: 9a09 b53d 3ef8 1abd 058d 9a3e dd52 86be
00000020: 1dcc 9bbe b102 2f3f 0825 763e 67d5 52be
00000030: 4818 6bbc b8f9 68be 7117 77be 6d8d aa3d
-0.2093931 0.2985799 0.56689596 -0.40767613 0.08839722 -0.0378344 0.30185714 -0.26235095
-0.30429164 0.6836348 0.24037564 -0.20589219 -0.014349051 -0.2275151 -0.24130036 0.08327756

dense1.weight f4 [120, 400]
00000000: 2305 a43b 731e 86bc b7bd 26bc 6265 86bd
00000010: 01f5 7eba 86ef 40bd 30d4 8c3d 3d81 c4bc
00000020: 58fe 5e3d 5dab 363d 1728 05bd d469 ddbc
00000030: 3065 cc3c 5657 afbd 2d8a 4f3d 9ab6 633c
00000040: 171c 71bc 805a f7bc 0aaa 9ebd c6cb d33c
00000050: 11bd ef3c 35e3 56bd ba88 85bd 9d31 1fbd
00000060: 85d4 1ebd 8599 3abc 5181 ae3c c535 a03d
00000070: 5150 243d 94d5 dc3c 5511 79ba 853b 543d
00000080: 09f9 b13d f6b4 e43d 3991 fd3b df33 ccbc
00000090: a28c 21bd 9244 503d 85b3 96bc 8ef5 4bbc
000000a0: 192d 023d c90c 5fbd d615 5e3d 8a1f 543d
000000b0: e05e 023d 8e1e 8d3c 3360 08bd d9fb 08bd
000000c0: 2d82 273d 6035 8c3d ce58 883b 82bd 233d
000000d0: 1099 493d 19c9 953d fdaa 683d 3d07 5cbd
000000e0: 4511 3d3e 42c9 523e 3925 0a3d cca1 7d3b
000000f0: e822 993d 8ef0 713e f6e4 3b3e 2cf3 82bd
00000100: 92b9 1eb9 4e59 1abd ae52 d73d 9e5f 0eb9
00000110: a5e8 0bbd 554e cf3a 8b26 063d bddc c93d
00000120: c94d b8bc d5d1 5c3d 9958 583d 9038 11bd
00000130: 6c9c 2b3d ac4a 083d 9a82 cc3c 0276 bbbd
00000140: 24d7 513d 8b4c d6bc 4a10 19bc c2f4 94bc
00000150: d268 9abb 7827 70bd ece8 563d f911 11bd
00000160: 9a84 df3c fd0a 52bd e946 8dbd 3d6c ef3c
00000170: 06eb 2339 5a25 40bc 95b3 10bd f366 fdbc
00000180: 548f f5bc a1bb b8bc 39f4 793c 8e68 353d
00000190: 2690 42bd f010 263b b73f 35bd 08e9 153d
000001a0: 5649 a73c e22b e13c 0339 033a dead a6bb
000001b0: 723a 113c 50a4 98bc f746 ab3c 61c0 34bd
000001c0: cab8 743c 3ea0 35bd 2d6e 4d3d ec3b a93c
000001d0: 1edf 363d 6064 0f3d 1cf7 183d e742 d43d
000001e0: d3d3 cc3d 13a9 a43d 2ab8 a5bc 5483 903d
000001f0: bd92 9a3d 7f01 99bb 8052 9fbb 1daf 66bd
00000200: 8bcc 0b3d 36a9 30bc 354c 3f3b 2c95 c73c
00000210: 9b1a f1b9 82bd 4e3d eff3 583c cade a9bc
00000220: d388 46be 1678 6cbd c305 963d 0399 ee3c
00000230: 7c87 93ba cf58 95bd 7b37 b0bd 41be 923c
00000240: a552 b7bd 38bb 943c 1bf7 19bc b074 66bd
00000250: ec22 28bd 0718 d4bc c473 953d ab1e dc3d
00000260: a942 8b3d 0581 1f3e c353 c23b 07c2 a13d
00000270: 9655 033e 4ed4 a13b f760 34bc ec4f 883d
00000280: ae72 793d 98ca 6a3d 02dc 083d 2707 853c
00000290: 1c61 193d fd00 143e fbce 0f3e 1b49 803c
000002a0: 802e 0ebd 5211 c23d 986c 793d 4d5b 36bd
000002b0: ea8c 8e3d 1f77 2a3d a5e0 f73d 92e4 c6bd
000002c0: 4d4e 7ebc c882 953d 6a81 27bd f9da aebc
000002d0: a4d0 a9bb 7b15 b8bd 050d e9bd aa3e 623c
000002e0: 6b31 6b3d 2ccf 3a3d 9ab3 79bd eaf4 cbbc
000002f0: db71 fdbc 2158 c93c 66b7 233d c36d 33bd
00000300: 91b8 17be c42e d0bd dd51 17bd 095f 903d
00000310: da16 76bd 7dab 5bbd 9e0d 36bd 9af4 9fbc
00000320: 88a4 17bd 39e9 8abd d9ba febd 85fa bfbd
00000330: f157 4abd 89c1 863d 08ae 413d 1dc9 9cbd
00000340: fc06 26bd b08b d5bb 1604 903b fb3e 573d
00000350: 28e1 933d 3e2e 903c 7b6d 613d eeee c63c
00000360: 3335 b9bd a33e eebb 4ece be3b 1404 443d
00000370: b770 d53a feea 573b 580c 99bd e75c ebbc
00000380: 078f aa3c 7a62 9d3d 4f05 d4bb cbc1 3cbc
00000390: c7f2 d93b 63fe 813d f1a3 b83c dd06 b13d
000003a0: 4bfd 533d 2568 3b3e f197 f73c 4aa5 d8bc
000003b0: 4902 423c 2234 853d 6993 c13d d98b debc
000003c0: 7dab c13d 32ac d43d 689f e53d 45b9 60bc
000003d0: 4b5b 183b ab8d 0cbc a354 05bd 6b64 eb3b
000003e0: 622f 2e3d d03b c23c b978 4c3d 4370 b23c
000003f0: 529b 163d 20e2 713d 6d2f 1b3d ec18 36bd
0.005005495 -0.016371941 -0.0101770675 -0.06562306 -0.00097258395 -0.047103427 0.06876409 -0.023987407
0.05444178 0.04459702 -0.032508936 -0.027028002 0.024950594 -0.0856158 0.050668884 0.013898516
-0.01471617 -0.030194521 -0.07747276 0.025854003 0.029264959 -0.052462775 -0.06520219 -0.038865674
-0.038776893 -0.011389141 0.021301897 0.07822756 0.04011566 0.02695731 -0.0009501179 0.051814575
0.08690078 0.11167328 0.007738259 -0.024927078 -0.03944076 0.050846644 -0.018396148 -0.0124486815
0.03178129 -0.054455552 0.054220043 0.05178789 0.03182876 0.017226484 -0.033294868 -0.033443306
0.04089563 0.06846118 0.004160977 0.03997565 0.049218237 0.07313747 0.056803692 -0.05371784
0.18463619 0.20584586 0.033726905 0.0038701175 0.07477361 0.2362692 0.1834906 -0.063940376
-0.00015137185 -0.037682824 0.10513817 -0.00013577795 -0.034157414 0.0015816191 0.0327516 0.098565556
-0.022498028 0.05391105 0.05281887 -0.035454333 0.041897222 0.033274338 0.02496462 -0.091533676
0.051230565 -0.026159545 -0.0093422625 -0.018183116 -0.0047122026 -0.05863139 0.052468225 -0.03541753
0.027284909 -0.05128001 -0.06898291 0.029226417 0.00015632444 -0.011727655 -0.035327513 -0.03093288
-0.02997557 -0.022550406 0.015255981 0.044289164 -0.047500752 0.0025339685 -0.044250216 0.03659919
0.020420711 0.027486745 0.0005005749 -0.0050866446 0.008864032 -0.018633038 0.020907862 -0.04412878
0.014936635 -0.044342272 0.0501539 0.020658456 0.044646375 0.035007834 0.037345037 0.10364323
0.1000134 0.08040061 -0.020229418 0.07056299 0.07547519 -0.004669368 -0.0048621297 -0.056319345
0.034130614 -0.0107825305 0.002918971 0.024363123 -0.00045986925 0.050473697 0.013241752 -0.020736117
-0.19388132 -0.05773171 0.07325318 0.029125696 -0.0011255587 -0.072923295 -0.08604332 0.017912986
-0.0895131 0.01815568 -0.009397293 -0.056263626 -0.04104893 -0.025890363 0.07297471 0.10748037
0.06799824 0.15576561 0.0059303953 0.07898336 0.12825617 0.004938639 -0.011009446 0.06655869
0.060900383 0.057322115 0.03341294 0.016238762 0.037446126 0.14453502 0.140438 0.01565986
-0.034712315 0.0947596 0.06089458 -0.044520665 0.06960471 0.04161751 0.121033944 -0.09711565
-0.015521598 0.07300335 -0.040894903 -0.021344649 -0.0051823426 -0.08988472 -0.113794364 0.013808886
0.057420176 0.04560773 -0.060962297 -0.024897058 -0.03093808 0.024578156 0.039969824 -0.04380585
-0.148165 -0.1016517 -0.036943305 0.070493765 -0.060080387 -0.05363034 -0.04444658 -0.019525815
-0.037022144 -0.06782765 -0.12437982 -0.09373955 -0.049400274 0.06579883 0.04728511 -0.07655547
-0.040534005 -0.006516896 0.0043950183 0.052550297 0.072206795 0.017600175 0.05503605 0.024283852
-0.0904335 -0.0072706505 0.0058229333 0.04785545 0.0016284202 0.0032946463 -0.074730575 -0.028730823
0.020820154 0.076847985 -0.0064703594 -0.011520813 0.006651256 0.063473485 0.02253911 0.08643887
0.05175523 0.18301447 0.030223818 -0.026446003 0.011841365 0.06504084 0.094519444 -0.027166294
0.09456537 0.10384406 0.11212045 -0.013716047 0.0023247774 -0.008578698 -0.03255142 0.0071836016
0.042525657 0.023710161 0.049919818 0.021782046 0.03676922 0.05905354 0.037887026 -0.04445736

dense1.bias f4 [120]
00000000: 4596 de3e c97b b33e 2490 22be 8776 70bd
00000010: aba8 4abe 8928 53bd 9db7 bc3e ada2 9ebe
00000020: ae18 f63c 08db a7bc 61cf aabe 4674 d3bc
00000030: 92bf ba3e 9015 1c3d 4e55 a53c 9364 163b
00000040: 1587 d0bd cfde 1cbd d0e9 9c3e 0123 6e3b
00000050: 43e0 66b9 bfaa b3bd e96d 9fbe feed 11bd
00000060: 746f 0d3d 5354 58bd ba3f fdbd 84ae 65be
00000070: 2f32 b8be 4f5c aebe 7526 c0bc 1bd6 1bbe
00000080: 97d4 c8bc bf42 9c3d 1ad3 6f3e 1cc1 eabb
00000090: 342f 003e c24b 77bc fb77 a3bd 0c87 48bd
000000a0: 3d95 d6bc b06d b13e bafc acbc ea16 bd3d
000000b0: 0a84 14bd 502d 4e3c 23b2 73bd f6f6 f43b
000000c0: c0a0 aabc 5b0e 813e 5570 aebc 8072 a93c
000000d0: 74af 5e3d acf1 cc3e 8f86 b13e d273 59be
000000e0: 7dff 9bbc f975 0dbd 0067 9cbc 40e7 ca3e
000000f0: 1a60 d63c 9d61 9a3d 97c9 70bb 9010 a93c
00000100: 7ec0 a73d d0b7 4a3d 4e94 5dbd 448b 403c
00000110: d43d ab3e e014 30bc 4cd6 5f3e 9d13 8d3e
00000120: a2fa 15bb 463f 35ba ed67 da3e 6156 f03d
00000130: f5d2 a2bd f660 a83e 1498 5abd 8233 f3bd
00000140: b6a0 e33e caf9 1cbd 42c7 a73e e2e6 343c
00000150: bf9a f4bc f219 a13d 636d 21bc fd77 4abd
00000160: fc47 78bd 3ade f5bc 0173 863e 147b 0cbe
00000170: b015 56bc 6de4 c1bc 290c d03e 33a4 c33d
00000180: 5a50 d73d 2f3e a93b fdb6 943c 4559 3ebe
00000190: 5527 1ebc 2992 bf3e 72b0 60be e62c 81bb
000001a0: dd7c 803e 4c14 33be b425 bf3c e9b1 b9be
000001b0: 11a1 13bd d016 c4ba 4e91 c43e fe0b 043f
000001c0: b25c 1a3b 5293 d13c 9f9e eebd 0ea1 1e3e
000001d0: a4d4 4d3e 7d2f 2abd 08ac 08be d54c 173d
0.43474022 0.35055378 -0.15875298 -0.058706786 -0.19790904 -0.05155233 0.36858836 -0.30983487
0.030041065 -0.020490184 -0.33361343 -0.02581228 0.36474282 0.0381065 0.020182278 0.002294813
-0.10182015 -0.038298424 0.30647135 0.0036336782 -0.00022018053 -0.087728016 -0.31138542 -0.035627358
0.034530118 -0.052814793 -0.123656705 -0.22429854 -0.35975787 -0.340548 -0.023455838 -0.15218394
-0.024515433 0.07629918 0.23420373 -0.0071641337 0.12518007 -0.015093746 -0.07981869 -0.048956916
-0.02619421 0.34653997 -0.021116603 0.09232886 -0.036258735 0.0125840455 -0.059496056 0.007475729
-0.020828605 0.25206265 -0.021293798 0.02068448 0.054366544 0.4002813 0.34672973 -0.21235588
-0.019042725 -0.034536336 -0.019092083 0.39629555 0.026168872 0.075381495 -0.003674125 0.02063778
0.08191012 0.049491704 -0.054096512 0.0117519535 0.3344561 -0.0107471645 0.21859092 0.27554026
-0.0022884985 -0.00069140305 0.42657414 0.117352255 -0.07950393 0.32886475 -0.05336769 -0.11875059
0.4445855 -0.038324155 0.3276921 0.011041375 -0.029858945 0.07866277 -0.00985274 -0.049430836
-0.060615525 -0.030013192 0.26259616 -0.13718826 -0.013066694 -0.023668492 0.40634277 0.09552803
0.10513373 0.0051648836 0.018153662 -0.18588741 -0.009652932 0.374162 -0.21942309 -0.00394212
0.25095263 -0.17488211 0.023333408 -0.36268547 -0.036042277 -0.0014960412 0.3839211 0.515808
0.0023553786 0.025582943 -0.11651348 0.15491125 0.20100647 -0.041549195 -0.13346875 0.036938507

dense2.weight f4 [80, 120]
00000000: 2b7c 153d da2d 7b3d 3ef7 04bc a426 953d
00000010: 76cd 22bd 60b4 97bd df3d 063d bd1d 89bd
00000020: 3772 f63c d46b a03d 0ca0 87bd 9e69 0c3c
00000030: 6b16 9dbd bcc9 a93d d081 bb3c 3e67 29bd
00000040: 5e3b 98bd 970c 8c3b c497 5cbd e931 943c
00000050: c18e 123d 4667 5ebd 29ed 963d cd04 57bd
00000060: f87e 15bd 2df5 8d3d 7853 1cbd f21f 6c3d
00000070: b9bb abbd 72d0 68bc 525e 31bd 1fbd 79bc
00000080: c16e f6bd 35d4 58bd 4758 82bd 53b5 a0bd
00000090: 61f4 6b3d 2701 9abd a965 b03d a8b3 7bbd
000000a0: 94cb 2cbc ff14 afbd ba6f 773c e3d2 db3c
000000b0: d3c8 96bd 89a6 0b3d ca4d 89bc b3e9 863d
000000c0: 01fe 773d 6067 df3c 26a5 93bd 0d02 84bd
000000d0: a7d3 153d 5fe1 ecbc 419e 913d 2ade 283d
000000e0: 659a 4fbd 25aa b0bd 65f8 993d c9cb 733c
000000f0: 0182 843d 2dcc e5bd 6f0e 8b3d 3326 4cbb
00000100: 466f 08bd e12e 8bbd 5289 aabd 60a4 bebd
00000110: 53af 9c3c 6868 b0bd 5d99 d4bb 9d5c 203d
00000120: b9d5 57bc 3baa 27bc 36d3 703d a80f c3bd
00000130: 5342 82bd ac7b b3bd 0d8b 87bd 3e4b ab3c
00000140: 1db1 44bd aa5b 283d 42d1 a6bc 9d86 683d
00000150: 5052 8438 ab46 32bb 2b6d 873d 06c0 433d
00000160: 1f9f ba3c 325c 363d 5407 75bd b2f6 873d
00000170: 4dd5 35bc a3e0 88bd 34e8 c9bd 0969 55bb
00000180: f1b2 7f3c 120f a63d 6e45 893d 9643 c9bc
00000190: 08f3 243d 24f0 f5ba 9036 f2bc 229b 92bd
000001a0: 23aa 9fbd 7e01 36bd fe77 01bd 3e7c 363d
000001b0: 9175 c0bd 974d 23bd 028a 6fbd 5012 59bd
000001c0: 2127 a8bd 5392 c53d 258d 7dbd 4c22 0fbd
000001d0: 34a6 a5bd b120 a8bd 4f1d b4bd 34b6 4abd
000001e0: efcd 8d3d f909 d8bd eb91 72bc 6f90 9cbd
000001f0: bbd1 7dbd 6d3d baba de79 013e f799 a03d
00000200: 6b04 453d b80f 013c 904d 05be 7a6f b9bc
00000210: 73aa d93d 1880 a73d cdb8 8ebd d45e 76bd
00000220: 5133 973d 1999 b33d a260 333d dc44 c73d
00000230: 79ae b03d 57fa a7bd 8eac 393d 6fab 3a3b
00000240: 8f3b e23d 4be6 a6bd 7518 3c3d 9d52 82bd
00000250: 04f2 a6bd 7ece b13d b7eb 493c b000 923d
00000260: 2d50 fd3d 5d75 6f3d ec8b 903c 3560 52bd
00000270: dacf b93e 4d74 173b 3206 b8bd 386d 6cbd
00000280: bc93 a5bb bf5e 62bd 5c09 833d 595c edbd
00000290: 1bcf 06be 7b27 57bc ea6f 8dbd 680d 873d
000002a0: 224e cd3c 573d b9bd 30db 88bd 323f bbbc
000002b0: 3697 153e d0a6 f23d 0daf eb3d 93ab 2fbd
000002c0: 5013 97bc c2ba e5bd 07c7 40bd 5ac8 e43d
000002d0: ec38 4fbd 2430 47bd eab6 443d fb6c b83c
000002e0: b9d4 0ebc a30e 1f3d 94cf 163c b45b 3dbd
000002f0: 64c2 c4bc a3c6 673d 2544 ac3c 232a 4b3c
00000300: 8b25 5e3d 1633 3abd fef7 f63c e7dd d43d
00000310: 7d07 0f3b 4f0a 013e 6462 263d b041 6a3c
00000320: a47c dcbc 57ec f53c 95c0 b2bd c708 a9bd
00000330: 89d4 87bd d01e 723d 0d55 15bd b4e7 5e3d
00000340: 2cbb 3ebc 9175 14bd 0350 55bd 9720 b23c
00000350: e68d 07be 584d 1bbd 6741 173b c3b8 493e
00000360: 1c24 963e 132f 99bd 02d6 533c c760 16bd
00000370: d036 fcbd 5a54 40bd 3b19 07be 8dd1 91bc
00000380: 4bbd 3e3d f855 7a3d cae3 a83c ae22 c1bd
00000390: 88b2 1e3e 2df3 bbbd 5221 0f3d 94c4 1c3e
000003a0: 71fa 10be c11c 22bd 5b5f b53c f71f e53d
000003b0: dace 823d 87da 60bc 4aea f23c d670 4ebd
000003c0: 5288 443c a72d d33d ba24 57bd 5be0 013d
000003d0: 6aae 5fbd 5096 71be 12d6 24bd caac ecbc
000003e0: ebaf f1bd 0891 9dbd bd90 0ebe 165f 9ebc
000003f0: db95 e23c 863b 853b 87a4 91bd 5f56 20be
0.03649537 0.061323024 -0.008115588 0.07282761 -0.039746724 -0.07407451 0.03277385 -0.06695125
0.030083759 0.078330666 -0.066223234 0.008570103 -0.076702915 0.08290431 0.022889048 -0.041358225
-0.074331984 0.0042739618 -0.053855672 0.018090205 0.035780672 -0.054297708 0.073694535 -0.052494813
-0.03649804 0.06931529 -0.03816554 0.057647653 -0.08385415 -0.0142098535 -0.04330284 -0.015242844
-0.120328434 -0.05293675 -0.06364494 -0.07847085 0.057606105 -0.07519751 0.0861314 -0.06145063
-0.010546584 -0.085489266 0.015102321 0.026833957 -0.07362523 0.034094367 -0.016760726 0.06587543
0.06054497 0.027270973 -0.07209234 -0.06445704 0.0365788 -0.028916059 0.07110263 0.041227497
-0.05068435 -0.086262025 0.075180806 0.014880129 0.06470109 -0.11220584 0.06789862 -0.0031150698
-0.033309244 -0.06796051 -0.08326973 -0.09308696 0.01912657 -0.08613664 -0.006488009 0.039150823
-0.013173514 -0.010233457 0.058795176 -0.095244706 -0.063603066 -0.08763823 -0.06618319 0.020909902
-0.04802047 0.041103043 -0.020363454 0.056769002 6.3095824e-05 -0.0027202766 0.06612619 0.04779055
0.022780953 0.044521518 -0.05982144 0.0663885 -0.011098218 -0.06683471 -0.09858742 -0.0032563827
0.015606628 0.08108343 0.06702696 -0.02456836 0.040270835 -0.0018763584 -0.029567033 -0.071584955
-0.07796123 -0.044435017 -0.031608574 0.04455208 -0.09397424 -0.039868917 -0.058481224 -0.05299598
-0.08210588 0.0964705 -0.061902184 -0.034944817 -0.08088341 -0.082093604 -0.08794653 -0.04949017
0.06924044 -0.10548777 -0.014805297 -0.07644736 -0.061967593 -0.001420898 0.12644145 0.078418665
0.048099916 0.007877283 -0.13017869 -0.022636164 0.10628214 0.08178729 -0.06968842 -0.06014903
0.07382835 0.087694354 0.043793328 0.09729931 0.08627028 -0.082020454 0.045330577 0.002848353
0.11046516 -0.08149394 0.04592176 -0.063634135 -0.081516296 0.086819634 0.012324265 0.071290374
0.12368808 0.058461536 0.017644845 -0.05136128 0.3629139 0.0023110092 -0.08985557 -0.057721347
-0.0050530117 -0.05526614 0.063982695 -0.115898795 -0.13164942 -0.0131319715 -0.069061115 0.06594354
0.02506167 -0.09044903 -0.06682432 -0.022857282 0.14608464 0.11848223 0.11507998 -0.042888235
-0.018441826 -0.11217262 -0.047064807 0.111710265 -0.050591394 -0.048629895 0.048026003 0.022512903
-0.008717709 0.038832318 0.009204764 -0.046230033 -0.024018474 0.05658592 0.021028588 0.012400183
0.054235023 -0.045458876 0.030147549 0.10393887 0.0021824532 0.12601589 0.040621176 0.014297888
-0.026914902 0.030019922 -0.08728138 -0.08253627 -0.06632335 0.059111416 -0.036458064 0.054420188
-0.011641305 -0.036244933 -0.05207826 0.021744056 -0.13237724 -0.037915558 0.0023079754 0.19699387
0.29324424 -0.07479682 0.012929441 -0.036713388 -0.12315142 -0.046955444 -0.13193218 -0.017800117
0.046567243 0.061117142 0.02061643 -0.09430443 0.15497792 -0.091772415 0.034943886 0.15309364
-0.14158036 -0.039578203 0.022140196 0.111877374 0.0638711 -0.013723976 0.029652733 -0.050400577
0.011995392 0.10311442 -0.05252526 0.031708103 -0.054609694 -0.23592496 -0.040243216 -0.028890986
-0.11801132 -0.07693678 -0.13922401 -0.01933245 0.027659347 0.0040659336 -0.07111459 -0.15657948

dense2.bias f4 [80]
00000000: 0f58 a03d cb9d 633d dd90 0cbe 060a c8be
00000010: 15e3 823e 9533 8bbc c10f 24be 39da c1bb
00000020: 422e 4a3e c545 2ebd 1d09 5f3e cd17 39bd
00000030: 357e 323d 19c7 84bd cb73 83bc ecac 36be
00000040: 5f3c 613e c368 66be 69a3 4b3e 6b13 a63e
00000050: 1391 2dbb cb15 e23c 2b2d 133e c92b 0e3f
00000060: a5ca 67bd 2672 e83e aee2 9b3e 2bf3 9e3d
00000070: 8f0b dc3e 522a b1be 88b0 4a3d a496 d43e
00000080: 414b bf3e 222f 713e 8915 7bbc c44a 16be
00000090: 7017 ac3c 8891 933e 56f8 22bd f551 41bd
000000a0: 75ba 8abe 3d44 b1bd e933 dcbc 4050 613e
000000b0: 66ce 6dbd 0308 993e d323 913d 0bc8 dabc
000000c0: 0b34 9a3e 2bf8 cdbd 8777 c33d 262e 8b3d
000000d0: 0621 9cbd 15ed 13be 205a a83e ba54 ba3e
000000e0: b421 55bd 1d5f aebe 90e2 76bd 86a5 5b3d
000000f0: 37cc 473d 8343 783e cb05 713e 2ea1 8c3e
00000100: 2b99 cbbd 9c7f c73e fd77 343d a23f 81bc
00000110: 4241 1ebe e7fa edbd a82d c83e b186 d53e
00000120: 8386 aebd 9e04 453e 2fd6 203e 15bd d4bd
00000130: ce76 353d d5fe 1f3e 9a95 933e b0fc 90be
0.07829296 0.055570405 -0.13727136 -0.39070147 0.25563875 -0.01699237 -0.16021635 -0.0059159067
0.19744208 -0.042547006 0.2178082 -0.045188714 0.04357739 -0.06483287 -0.016046425 -0.17839402
0.21995686 -0.22500901 0.19886555 0.3243669 -0.0026484176 0.027598282 0.14372699 0.5553556
-0.05658974 0.45399588 0.3044638 0.07761224 0.42977569 -0.346026 0.04948476 0.4152118
0.37362102 0.23553136 -0.015324959 -0.14676958 0.02100727 0.2882197 -0.039787613 -0.0471973
-0.2709538 -0.086555935 -0.026880221 0.22003269 -0.058058165 0.29888925 0.07086911 -0.026706716
0.3011783 -0.100571 0.095442824 0.067959115 -0.07623486 -0.14445908 0.3288126 0.36392766
-0.052034095 -0.3405694 -0.06027466 0.053624652 0.04877874 0.24244504 0.23537366 0.2746672
-0.09941324 0.38964546 0.044059742 -0.015777413 -0.15454581 -0.116201214 0.39097333 0.41704324
-0.0852175 0.19240043 0.15706705 -0.10387627 0.044302754 0.15624554 0.28825074 -0.28317785

final.weight f4 [12, 80]
00000000: 2741 8a3d 2a78 cdbd 4185 12bd 640d 2dbe
00000010: 3ab0 9ebe a7ef 85bd 928d 37be 1cd4 673e
00000020: d35b 653e 7dc6 c5bd 0831 733e 90c2 c13c
00000030: 9102 0f3d c6d7 ce3e 172c debd d5b3 1f3e
00000040: c008 b2bc 04e9 f63d 5374 f3bd 47c1 36be
00000050: e4df fcbe 72d4 363d 21d6 153e 98b2 ab3d
00000060: 32ad 59bd 4665 57be 6f62 dfbc f6bb fcbd
00000070: 0c05 7fbd 1169 0ebe 71c8 983b f0a0 24be
00000080: 81d2 a23d c82a a4bb 84b3 57be 7dc3 e43b
00000090: db67 9c3d 5c23 9abe 9c9a debc 01fc a1bd
000000a0: 0d87 633e e7aa a3bd eeed 6dbe 1833 15be
000000b0: ace8 32bd 0371 5d3b 7da8 93bd 46d0 8abd
000000c0: f5b8 95bc 5d2c 133e 5b54 48be 259d 843c
000000d0: 2b5d b8be b9a6 aa3d 55ed 64be 784f 05bd
000000e0: 604c 083d 0b3c abbd 5474 80bd fb05 bbbd
000000f0: 73e2 1a3d 89d4 f3bd 1257 553e f596 863c
00000100: 24dd da3c c8d8 f0be 6f66 9f3c 3c08 ef3b
00000110: b849 b9bd 5971 2dbe 405e e03d f209 9c3d
00000120: 68d7 3dbc 98c8 16be 8f0b aebe cf9d 70bd
00000130: ca6c 81bd c559 0d3d 1343 e8bd 99d4 633e
00000140: f60b c0bd 2fa9 cdb9 e0eb c63c 34fc 683c
00000150: 057c de3c 096c 17bd aca4 01bd 4fd0 8a3e
00000160: 5c8c 563e 0bc9 26bd ade9 9dbe f60b bc3c
00000170: e20b 78bd 7b92 043e 707c 933c fdbd b0bd
00000180: e04e a9be 78eb c9bc bd29 89be 7422 21bd
00000190: b6f8 1e3d 4abb fdbd 27f5 bbbe 6a45 0bbd
000001a0: e04a 50bd a621 8f3e b729 8cbe e594 96be
000001b0: f028 a23b 0720 153d 490e 203d 4b9a 3bbd
000001c0: 9dc6 113e 5321 c53d f077 91be f8f6 973c
000001d0: 93ca 9cbc 914b 233e 3fc3 333c ada5 a93c
000001e0: 36ad c13e c3df 87bd 28fd d93c 6108 f6bd
000001f0: 8429 c4bd 609c 133e 791a e4bc dfc8 653d
00000200: 3658 e8bc c05d 61bd cbca 2dbd a5a1 2cbe
00000210: fb41 bbbe ad21 1e3e fda5 46be 5f57 f33c
00000220: f46b 5ebd 8293 60bc be32 fc3c 4ad7 a9bd
00000230: 8c33 86bc 3fcb 803e 3f8a e8be 5204 4f3e
00000240: d3d8 24be 314f 1a3e b0c4 d93d 49f4 30be
00000250: 6e9c d3bd c00e 4cbe 6a3b 0dbe 4e20 1a3e
00000260: 1def 5bbd 751f d9bc 4b1f 563e 00ba 353d
00000270: 58ca 07bd 5497 89bd 797b 3b3e f70c 3d3e
00000280: aaab 803b 5688 afbc fdc2 c5bc dc90 e7bc
00000290: 6650 aabd 1ee1 c9bc a7d5 8a3d f630 0e3d
000002a0: 7697 f9bd 62b2 1fbd 3ff6 b93d a7ff d1bd
000002b0: 24c2 f3b9 5adb c0be efc1 97bc 2749 603d
000002c0: d285 38bd 775e 863e 0156 67be becf c8bd
000002d0: e11c 273e fe91 653d 5435 dbbd d01c 07be
000002e0: 8b62 d03d c72f 81bd f13a 643e e162 e9bd
000002f0: 44d9 c8bc f1f5 cbbd aefa 6cbd 0ca1 7ebe
00000300: b0e3 29be 24d5 39bd c3ca 5a3e af4a 1bbd
00000310: 02ad c03d 1667 943d a32c 343d 64da 19bc
00000320: e39c a6be b2dd 1c3b b4f8 2d3d 833b 00be
00000330: f841 c03b fc32 09bd dd75 a7bd 596e 97bd
00000340: d8f2 433e fe35 ae3d 66a5 8c3b 790e 223d
00000350: d36f 76be ed5b 993c 7647 4b3e f813 82bd
00000360: 638a 3dbe ac2e e53c 3cda 573e e7c6 f2bd
00000370: adcf c43d b46e adbd ac80 db3a bbad 583b
00000380: 9669 2b3d a3ad 173d 1c6b 433e 2bc7 6b3e
00000390: 07af df3d 27de 6bbd 936f da3d cb14 8dbe
000003a0: 4414 0f3d 2a63 543e b7e1 85be 4f5a d9bd
000003b0: 7002 89bd 947c 95be 207b 71be 0bc4 d5be
000003c0: 9b40 c0bd 9f19 703c f379 97be cd96 76bc
000003d0: 705d c13d c691 403d 0553 323e d93a 9d3d
000003e0: a8d8 323d 32be 9e3d 2268 71be 50f8 bd3d
000003f0: f273 503c 87c5 47bc c5fb 84bd cfc9 4f3d
0.06750708 -0.10032685 -0.035771612 -0.1689964 -0.30993825 -0.06539851 -0.17925099 0.22639507
0.2239831 -0.09656999 0.23749173 0.023652345 0.034914557 0.40398997 -0.10848253 0.15595944
-0.021732688 0.12056163 -0.118874215 -0.17847167 -0.49389565 0.044636197 0.14632465 0.083836734
-0.053143688 -0.21034727 -0.027268616 -0.12340538 -0.062260672 -0.13907267 0.0046625664 -0.16077018
0.07950307 -0.0050099827 -0.21064574 0.006981312 0.07636996 -0.30105102 -0.027173333 -0.07909394
0.22219487 -0.079915814 -0.23235294 -0.14570272 -0.043678924 0.0033789284 -0.07209871 -0.06778006
-0.018276671 0.14372392 -0.19563429 0.016188214 -0.36008582 0.08332581 -0.2235616 -0.03254649
0.033275962 -0.08361062 -0.06272188 -0.09132 0.037813615 -0.11905772 0.20833996 0.016429404
0.026716776 -0.4704039 0.019458024 0.007294683 -0.09047264 -0.1693777 0.10955477 0.076190844
-0.011587001 -0.14724958 -0.33993194 -0.058744248 -0.06319578 0.03450944 -0.113409184 0.22249068
-0.09377281 -0.000392267 0.024282396 0.014220286 0.027158746 -0.036968265 -0.031651184 0.27112052
0.2095198 -0.040719073 -0.30842343 0.022954922 -0.060558207 0.12946503 0.018003672 -0.086299874
-0.3306799 -0.024648413 -0.26789656 -0.039339498 0.038811408 -0.12389238 -0.36710474 -0.034001745
-0.050852656 0.2795536 -0.27375576 -0.29410473 0.004948728 0.036407497 0.039076123 -0.045801442
0.14235921 0.09625497 -0.28411818 0.018550381 -0.019139564 0.15946795 0.010971843 0.020708883
0.37827462 -0.06634476 0.026609972 -0.12013317 -0.09578231 0.14415121 -0.027844654 0.05609977
-0.028362375 -0.055021048 -0.042429727 -0.16858537 -0.36573777 0.15442534 -0.19399257 0.029704748
-0.05430217 -0.013707044 0.030785915 -0.08293016 -0.016382001 0.25155064 -0.45417973 0.20216492
-0.16098337 0.15069272 0.10633218 -0.17280687 -0.10332571 -0.19927502 -0.13792196 0.15051386
-0.053694833 -0.026504258 0.20910375 0.044366837 -0.033151954 -0.06718317 0.1830882 0.18461977
0.003926714 -0.021427315 -0.02414083 -0.028267317 -0.08316116 -0.024643477 0.06779032 0.03471466
-0.12187092 -0.03898848 0.09080171 -0.1025384 -0.00046493218 -0.37667352 -0.018525092 0.054757264
-0.045049496 0.26243946 -0.22591402 -0.09805249 0.1631961 0.056047432 -0.10703531 -0.13194585
0.101750456 -0.06307941 0.2228811 -0.11395813 -0.024517663 -0.09959019 -0.057856254 -0.24866122
-0.16590762 -0.045369282 0.2136641 -0.03791302 0.094079986 0.072462246 0.04398788 -0.009390447
-0.3254157 0.0023935852 0.04247351 -0.12522702 0.005867239 -0.033495888 -0.081767775 -0.07394094
0.19135606 0.08506392 0.004292178 0.039564583 -0.24066095 0.018720591 0.19851479 -0.06351465
-0.18509822 0.027976356 0.21079344 -0.11854344 0.096099235 -0.084683806 0.0016746721 0.0033062536
0.04184874 0.037030827 0.19083828 0.23025195 0.10922056 -0.057584908 0.10665812 -0.27554926
0.034931436 0.20740953 -0.2614877 -0.10612928 -0.06689918 -0.29196608 -0.23582125 -0.4175113
-0.093873225 0.014654546 -0.29585227 -0.015050602 0.0944165 0.04701402 0.17414482 0.0767724
0.04366365 0.077511206 -0.2357488 0.092758775 0.012722956 -0.01219309 -0.06493334 0.05072957

final.bias f4 [12]
00000000: c44a 6a3d 32de 6d3c 13bb afbd 5b34 66be
00000010: 3da5 42be 3696 923e 2f34 f63d 35d9 5abd
00000020: 6db4 5d3d af7b d0be 26a6 f0bd 5d16 fdbd
0.05720021 0.0145183075 -0.085806035 -0.2248091 -0.19008346 0.28630227 0.12021672 -0.0534298
0.054127146 -0.40719363 -0.1175044 -0.12357781
