Superclass/models/model.onnx (onnx, 253517 bytes, 10 tensors)

conv1.weight f4 [6, 1, 5, 5]
-0.08590621 -0.07432543 0.10638184 -0.0025672126 -0.08836859 -0.035468366 0.18067785 -0.078731164
-0.13522792 0.17560828 -0.07140602 0.13223289 0.17545424 0.16093586 0.121553265 0.15460713
-0.12062054 0.02584815 0.21816994 0.17089225 -0.14691167 0.23554711 0.21866189 0.16073176
0.20766741 -0.30640194 -0.031647332 -0.01579696 -0.2869552 -0.20842059 -0.34118924 -0.18324322
-0.3797964 -0.23792072 0.08251468 -0.33712244 -0.3047953 -0.22951736 -0.19326724 -0.0785162
0.03655476 0.19016056 0.14897653 0.19286944 0.31491274 0.27596042 0.05953922 0.2926906
0.38667378 0.43550435 0.0066244053 0.03469683 0.026730351 0.13356185 0.11353546 -0.09177463
0.15908536 0.21067832 0.15477903 -0.12029839 0.060447443 -0.09514915 0.09300915 0.08684891
0.17903855 -0.0075512156 0.22527434 0.21918848 0.08747632 0.052228924 0.20492333 0.23245424
-0.043841965 0.07371369 0.17441829 -0.33020198 0.02839929 -0.3343049 -0.22837682 -0.16399015
-0.07628248 0.11398733 -0.14481701 0.08155641 -0.01129752 0.020365432 0.032537732 0.29666758
0.28485495 0.25245985 0.05012545 0.041898027 0.22401167 0.07005617 0.18283129 -0.35773727
-0.23036478 0.17045134 0.19308336 -0.051216178 0.019705845 0.15387043 0.25867978 0.30951297
0.09933839 0.064994544 0.12995957 0.056443192 0.38141447 0.29180688 -0.073217824 0.14886542
0.052396297 0.08351888 0.29848906 -0.266304 0.037860654 -0.13233441 -0.21361229 -0.11135286
-0.41790926 -0.27481547 -0.15967168 -0.39847186 -0.20610008 0.024951166 -0.1768629 -0.067498334
-0.31674644 -0.22974636 0.039199132 -0.24348482 -0.31400746 -0.39955178 -0.1509833 0.14665382
-0.033997126 -0.39645803 -0.19353871 -0.1083066 -0.118929364 -0.22021337 -0.33262038 -0.19653852
-0.26608238 0.14318569 -0.12619996 -0.24302503 0.04130233 -0.13795258
00000000: 98ef afbd ee37 98bd b9de d93d ae3e 28bb
00000010: 97fa b4bd 4747 11bd 9d03 393e ce3d a1bd
00000020: 3079 0abe a8d2 333e 523d 92bd 0f68 073e
00000030: 47aa 333e 5fcc 243e ebf0 f83d 5551 1e3e
00000040: e707 f7bd 80bf d33c f167 5f3e 61fe 2e3e
00000050: 0370 16be 4333 713e e7e8 5f3e de96 243e
00000060: c4a6 543e b7e0 9cbe a2a0 01bd a068 81bc
00000070: cbeb 92be 356c 55be 5bb0 aebe 1ca4 3bbe
00000080: ac74 c2be 7da1 73be 75fd a83d 509b acbe
00000090: 210e 9cbe 9906 6bbe d9e7 45be 1acd a0bd
000000a0: 72ba 153d 73b9 423e 4e8d 183e 917f 453e
000000b0: 3e3c a13e af4a 8d3e 66df 733d 8bdb 953e
000000c0: 1bfa c53e 6dfa de3e 8a11 d93b 431e 0e3d
000000d0: 9cf9 da3c 70c4 083e 4785 e83d 56f4 bbbd
000000e0: 46e7 223e 0fbc 573e 657e 1e3e 015f f6bd
000000f0: bd97 773d 8fdd c2bd 957b be3d d7dd b13d
00000100: e255 373e 3070 f7bb 51ae 663e f272 603e
00000110: c926 b33d ffed 553d 6cd7 513e 7c08 6e3e
00000120: a293 33bd 34f7 963d b59a 323e 3c10 a9be
00000130: a1a5 e83c 032a abbe 9ddb 69be 09ed 27be
00000140: fd39 9cbd 3072 e93d e94a 14be 0c07 a73d
00000150: 3c19 39bc 68d5 a63c 4946 053d d0e4 973e
00000160: 82d8 913e 6b42 813e 5850 4d3d 449d 2b3d
00000170: 5163 653e 9c79 8f3d 2038 3b3e 5729 b7be
00000180: bfe4 6bbe cc8a 2e3e a5b7 453e 0ec8 51bd
00000190: 276e a13c 3690 1d3e ad71 843e 7c78 9e3e
000001a0: ed71 cb3d dc1b 853d 1f14 053e fa30 673d
000001b0: c248 c33e b667 953e 3af3 95bd 2d70 183e
000001c0: 809d 563d f20b ab3d 8fd3 983e ff58 88be
000001d0: c613 1b3d ac82 07be 2ebd 5abe f80c e4bd
000001e0: 34f8 d5be 9db4 8cbe f980 23be 8104 ccbe
000001f0: e60b 53be 6366 cc3c 8c1b 35be 913c 8abd
00000200: 972c a2be a142 6bbe 458f 203d 1654 79be
00000210: 96c5 a0be 0d92 ccbe 5e9b 1abe 6b2c 163e
00000220: 9240 0bbd 8cfc cabe 032f 46be dacf ddbd
00000230: 3d91 f3bd 9d7f 61be 384d aabe 6541 49be
00000240: f33b 88be 459f 123e 903a 01be 8edb 78be
00000250: a22c 293d 7143 0dbe

conv1.bias f4 [6]
0.37335506 0.008812131 -0.09114229 0.35964748 0.4448391 0.12108623
00000000: 6528 bf3e c260 103c cfa8 babd b723 b83e
00000010: f3c1 e33e 0ffc f73d

conv2.weight f4 [16, 6, 5, 5]
0.025926104 0.08784539 0.02473706 -0.04499258 0.0395456 -0.0078251995 -0.039083973 -0.02404546
-0.07067273 -0.051455107 0.0020488598 -0.085420534 0.04089286 0.09423187 0.031873964 -0.030278217
0.008916952 0.05704644 0.028261082 -0.08129347 0.023891097 -0.019660398 0.025820062 0.10917911
-0.02195165 -0.015486128 -0.0947122 -0.31414878 -0.31079474 -0.12751397 -0.3216517 -0.3563032
-0.3050236 -0.05154308 0.03280278 -0.09337474 -0.06267597 0.2513794 0.26409945 0.18303566
-0.015805375 0.20026834 0.2990972 0.36210123 0.22576924 -0.034082044 0.20277008 0.096291624
-0.14441317 -0.16459589 -0.04476893 0.09280688 0.0061708414 -0.04101904 -0.08648423 0.0076533905
-0.07394553 0.0176148 -0.09254591 -0.013959704 0.01394838 -0.013201832 -0.039167996 0.12659368
0.015078669 -0.060237862 -0.011336049 0.09777577 0.12100492 0.018373413 0.04201354 -0.0061977217
0.07669876 0.11212838 -0.018383414 0.10170252 0.010799146 -0.07957903 -0.054843303 0.089057736
-0.043699265 -0.06652601 -0.2228396 -0.08605538 0.07504977 -0.08159628 -0.14517035 -0.035157498
-0.076694146 -0.006276419 -0.038170356 0.025338778 0.21626328 0.17770429 -0.013109054 0.04687323
0.15486214 0.16665688 0.1517902 0.027047569 -0.19553575 -0.052384373 0.07855099 0.13394128
-0.0022880065 -0.055897385 0.10571514 0.013957332 0.016065774 0.053860586 -0.023857947 -0.045224514
-0.16722353 -0.12108876 -0.15841399 -0.09490537 -0.12157319 -0.2684998 -0.21164975 -0.20292662
-0.05535735 0.080916464 0.15203735 0.1569529 0.03777194 -0.14406762 -0.15829112 -0.12882757
0.055226617 -0.014796527 -0.01666066 -0.020259436 0.065739244 0.10993777 0.13429697 0.027133027
0.11572451 0.15435176 0.13728653 0.011898834 0.047206335 0.036917716 0.07946314 -0.028882992
-0.016344665 0.11304369 0.094216235 -0.020550603 -0.06247897 -0.12982748 -0.019370759 0.006038244
0.09184694 0.007392139 -0.070678495 -0.060559437 0.002641707 0.07782587 0.10174076 0.068112746
0.039063435 -0.08046539 0.027996834 0.019760491 -0.013064596 0.05421336 -0.07013032 -0.0045752414
-0.049617365 0.10139444 0.0015165464 -0.07325042 0.06888065 0.06134913 -0.044115975 0.009875149
-0.081854716 -0.009879837 0.06714303 -0.036187537 -0.08003415 -0.14098391 -0.24172686 -0.18197514
-0.17791331 0.120906085 0.14031051 -0.12554179 -0.14827919 -0.18905292 0.07212486 0.17629376
0.04473188 -0.15594473 -0.13902944 0.07270215 -0.06225368 0.0360084 -0.05611325 -0.009000958
-0.03193247 0.038806897 0.04082569 0.0527016 -0.07161502 -0.11904936 -0.016785517 -0.11041824
-0.017815249 0.028595103 -0.029950503 -0.11578979 -0.037136942 -0.00858823 -0.04226079 -0.016333623
-0.034671318 -0.11317584 -0.080060735 -0.0023364993 -0.012623897 0.023487844 -0.078768484 -0.06825682
-0.0678779 0.12912935 0.14741567 0.15430665 0.030850654 0.05830578 -0.13967322 0.0870183
0.10059673 0.10372033 -0.029394051 -0.13396905 -0.11075806 0.107377164 -0.045920543 0.018773135
0.14994764 0.11003487 0.003504214 -0.06646204 -0.05635999 0.124123834 0.09925364 0.0017253772
0.013075833 -0.0027966355 0.19345345 0.22923724 0.1222161 0.010988401 -0.039590478 0.23978466
00000000: fb62 d43c 49e8 b33d 60a5 ca3c 244a 38bd
00000010: 91fa 213d 4435 00bc 8416 20bd fcfa c4bc
00000020: ddbc 90bd 97c2 52bd 2a46 063b f6f0 aebd
00000030: 467f 273d a3fc c03d 468e 023d 060a f8bc
00000040: 6818 123c 87a9 693d c983 e73c 317d a6bd
00000050: 43b7 c33c d80e a1bc 9884 d33c 4c99 df3d
00000060: f2d3 b3bc 87b9 7dbc 78f8 c1bd 1cd8 a0be
00000070: 7d20 9fbe 0693 02be 88af a4be 5f6d b6be
00000080: 0e2c 9cbe d61e 53bd 355c 063d 413b bfbd
00000090: 425c 80bd cdb4 803e 0b38 873e b36d 3b3e
000000a0: 467a 81bc 2513 4d3e 4523 993e 5565 b93e
000000b0: 0d30 673e 9d99 0bbd f6a2 4f3e 8b34 c53d
000000c0: 0ce1 13be d38b 28be a05f 37bd 8911 be3d
000000d0: c534 ca3b 9503 28bd a51e b1bd 4bc9 fa3b
000000e0: c170 97bd ea4c 903c b688 bdbd 3eb7 64bc
000000f0: bf87 643c 7f4c 58bc 9f6e 20bd c6a1 013e
00000100: 860c 773c fabb 76bd d6ba 39bc aa3e c83d
00000110: 6dd1 f73d d783 963c 6416 2c3d 4216 cbbb
00000120: 3d14 9d3d 90a3 e53d d098 96bc 6949 d03d
00000130: e7ee 303c 55fa a2bd 5fa3 60bd e763 b63d
00000140: 00fe 32bd ca3e 88bd 1030 64be ce3d b0bd
00000150: b2b3 993d f31b a7bd 89a7 14be 4f01 10bd
00000160: d211 9dbd 6baa cdbb 8558 1cbd 4593 cf3c
00000170: 1f74 5d3e 1df8 353e 5cc7 56bc 25fe 3f3d
00000180: 2e94 1e3e 1aa8 2a3e e46e 1b3e dd92 dd3c
00000190: 863a 48be ff90 56bd 57df a03d e727 093e
000001a0: 61f2 15bb a8f4 64bd 2e81 d83d 4bad 643c
000001b0: 5f9c 833c eb9c 5c3d be71 c3bc 573d 39bd
000001c0: a53c 2bbe 62fd f7bd 4737 22be bf5d c2bd
000001d0: 5dfb f8bd ce78 89be b6ba 58be ffcb 4fbe
000001e0: 63be 62bd 88b7 a53d aeaf 1b3e 43b8 203e
000001f0: c0b6 1a3d 7686 13be 1117 22be 60eb 03be
00000200: 4e35 623d 226d 72bc f07b 88bc 1ef7 a5bc
00000210: 4ca2 863d 0e27 e13d 2585 093e 1546 de3c
00000220: f900 ed3d 630e 1e3e d794 0c3e 54f3 423c
00000230: 6e5b 413d 0837 173d 92bd a23d 069c ecbc
00000240: 3fe5 85bc 7383 e73d 71f4 c03d bd59 a8bc
00000250: f3e9 7fbd 7ff1 04be 6daf 9ebc 76dc c53b
00000260: 401a bc3d c239 f23b e3bf 90bd 2c0d 78bd
00000270: 7d20 2d3b 2b63 9f3d 765d d03d b27e 8b3d
00000280: fb00 203d 0acb a4bd 9e59 e53c c1e0 a13c
00000290: e30c 56bc d40e 5e3d 7ca0 8fbd e8eb 95bb
000002a0: 943b 4bbd e3a7 cf3d dac6 c63a 5104 96bd
000002b0: 4c11 8d3d 3a49 7b3d f4b2 34bd 60cb 213c
000002c0: 72a3 a7bd 0adf 21bc 4982 893d 6239 14bd
000002d0: f2e8 a3bd 165e 10be 3f87 77be b157 3abe
000002e0: e82e 36be 9c9d f73d 8fad 0f3e 078e 00be
000002f0: 80d6 17be 1797 41be 33b6 933d 5a86 343e
00000300: c738 373d faaf 1fbe bc5d 0ebe dde4 943d
00000310: b7fd 7ebd 8b7d 133d 02d7 65bd c178 13bc
00000320: 9fcb 02bd fbf3 1e3d d738 273d a2dd 573d
00000330: e5aa 92bd 27d0 f3bd c881 89bc f522 e2bd
00000340: 49f1 91bc 4740 ea3c c25a f5bc 3323 edbd
00000350: e81c 18bd a6b5 0cbc a619 2dbd 17ce 85bc
00000360: 8303 0ebd bcc8 e7bd e2f6 a3bd f41f 19bb
00000370: 76d4 4ebc 9469 c03c 5f51 a1bd 3bca 8bbd
00000380: 9203 8bbd 7c3a 043e 22f4 163e 9002 1e3e
00000390: 83ba fc3c 0bd2 6e3d 7f06 0fbe a736 b23d
000003a0: a905 ce3d 536b d43d cbcb f0bc 2f2f 09be
000003b0: 1fd5 e2bd 8fe8 db3d 2e17 3cbd 1eca 993c
000003c0: e08b 193e f659 e13d f5a6 653b 401d 88bd
000003d0: bcd9 66bd a334 fe3d 7e45 cb3d 0d26 e23a
000003e0: 053c 563c c247 37bb a918 463e 2bbd 6a3e
000003f0: 6f4c fa3d b208 343c a029 22bd 1c8a 753e

conv2.bias f4 [16]
0.020990489 0.06220724 0.10662818 0.14600918 0.019132616 0.070359364 0.04454125 0.10633424
-0.14055759 0.076843 0.08709582 0.053904828 0.037504427 0.10999188 0.041756153 0.07752711
00000000: 3ff4 ab3c 05cd 7e3d e05f da3d 6e83 153e
00000010: 01bc 9c3c 9218 903d e370 363d c4c5 d93d
00000020: 54ee 0fbe dd5f 9d3d 4b5f b23d 4fcb 5c3d
00000030: 3e9e 193d 6c43 e13d 8008 2b3d 89c6 9e3d

dense1.weight f4 [128, 400]
-0.003100723 -0.02610067 0.01438936 -0.0006615341 -0.022653861 0.003850019 -0.036679823 0.026656985
0.049077746 0.026635379 -0.0028222145 0.0025613904 0.023839284 0.030502427 -0.019099902 -0.026420996
0.04799083 -0.03282493 -0.020157611 -0.031391066 0.013483363 0.006325787 0.031734176 0.013709462
0.010344851 -0.032346096 -0.039066486 -0.033077333 -0.00929335 0.021181384 0.010095319 -0.0028621724
-0.046053134 0.026203802 0.011653247 0.0056041917 -0.023605939 0.04185664 -0.050157107 -0.04141836
-0.01773494 0.028253067 0.038500566 -0.030945176 0.015325307 0.0007999572 -0.028341802 0.028210532
0.025386078 0.023251016 0.027338063 0.03585932 0.00050641154 -0.007962348 0.02202571 -0.02082399
-0.0012931377 0.01599801 -0.004873952 -0.02378659 -0.028906776 -0.028000861 -0.0006181869 -0.016668098
0.022848282 0.01776023 -0.03203527 -0.008538133 -0.0068626213 0.013980749 -0.02681045 0.032083254
0.012060637 -0.05399532 -0.0064783297 0.006697509 -0.046525735 0.048944723 -0.022931993 -0.027959425
-0.049958516 -0.041807696 0.033879388 -0.0105476 0.016606765 0.021241425 -0.03847665 0.020949507
-0.053231113 -0.049654566 -0.019857429 -0.04761721 -0.042983826 0.039132867 -0.022265617 -0.02924156
0.00050033996 -0.049363527 -0.004437424 0.0056769084 -0.053183198 -0.022806719 0.025269914 -0.017337061
0.008370793 -0.0004206188 -0.017767316 -0.054039877 0.023931416 0.03640307 0.026040763 -0.0044122143
-0.032286994 -0.016005928 -0.05507722 -0.037327748 0.0034171154 -0.035264827 0.015965594 0.009127492
-0.05220873 0.021028545 -0.043290444 -0.035649307 -0.0494796 0.017660541 0.048019763 0.012657714
-0.005197638 -0.04988366 0.009710652 0.041948725 -0.039566774 -0.015293193 0.020315606 0.010921759
0.007809335 -0.025271023 0.025710737 0.0018823565 0.014054197 -0.031058276 -0.011151999 -0.014008713
-0.0066621066 0.01919399 0.026903082 -0.031828016 0.011622774 0.009746629 -0.030048221 -0.029647984
-0.03223632 -0.052926414 -0.031999376 -0.015428764 -0.0059689665 0.01287052 -0.04477087 0.022539005
0.0132137 0.00061171973 0.039541997 -0.055726953 0.0063655325 0.0010165334 -0.04936701 0.037059803
0.0026333474 0.012038618 0.009950101 -0.0067169787 0.0081106685 -0.048354384 -0.014201558 -0.037880067
0.0043945755 0.0077558937 0.043952342 0.040418454 -0.051919553 0.005375088 0.016828423 0.015564489
0.034591354 0.017928097 -0.048383452 0.012331504 -0.036099464 -0.02949101 -0.015406573 0.021740818
-0.018413315 0.007980228 -0.052868888 0.013110626 -0.01730036 -0.05314154 -0.0024570702 0.043161154
0.03272409 0.044757843 -0.006139791 0.032362457 -0.026949627 -0.05350523 0.026341634 -0.039728947
-0.03445262 0.00066740107 0.031081313 -0.022227382 -0.007708615 0.010763073 -0.04251038 -0.044790514
-0.018856704 0.02872579 -0.0006749303 -0.040556632 -0.031185424 -0.017634027 0.017060403 0.021896267
-0.012052313 -0.0009753883 -0.018538121 0.010259275 -0.04941078 0.0070962966 -0.01520391 -0.055908844
-0.054083087 -0.04436836 -0.038645867 -0.0014720313 -0.03450296 0.0052972897 0.026883692 -0.008511038
-0.004654574 0.010323688 0.009708592 0.021844614 0.027735827 -0.012699589 -0.008661377 0.038347714
-0.011440318 -0.006229555 0.0074255173 0.007971488 0.039554954 -0.009848454 -0.00767543 -0.004617905
00000000: 8035 4bbb 13d1 d5bc 5ac1 6b3c cd6a 2dba
00000010: 9794 b9bc 9a50 7c3b 953d 16bd c05f da3c
00000020: bf05 493d 7032 da3c e7f4 38bb 00dd 273b
00000030: 9a4a c33c 3ae0 f93c 6677 9cbc d870 d8bc
00000040: 0892 443d 6f73 06bd 9321 a5bc eb93 00bd
00000050: 53e9 5c3c 8c48 cf3b b2fb 013d a79d 603c
00000060: 737d 293c 577d 04bd 2e04 20bd 197c 07bd
00000070: 2343 18bc 9584 ad3c d666 253c 4993 3bbb
00000080: 36a2 3cbd 5ba9 d63c 43ed 3e3c 5ea3 b73b
00000090: 3e61 c1bc de71 2b3d 8a71 4dbd 4ca6 29bd
000000a0: dd48 91bc fa72 e73c c5b2 1d3d bd80 fdbc
000000b0: ff16 7b3c 38b4 513a 112d e8bc c619 e73c
000000c0: 77f6 cf3c ea78 be3c 13f4 df3c 39e1 123d
000000d0: b4c0 043a 8274 02bc 436f b43c 1397 aabc
000000e0: 807e a9ba 420e 833c acb5 9fbb 18dc c2bc
000000f0: e7cd ecbc 1062 e5bc d20d 22ba 898b 88bc
00000100: 522c bb3c e77d 913c 6a37 03bd 87e3 0bbc
00000110: d7df e0bb 830f 653c 97a1 dbbc bb69 033d
00000120: fa99 453c 322a 5dbd 2b48 d4bb c776 db3b
00000130: c591 3ebd 437a 483d e0db bbbc 2a0b e5bc
00000140: 4da1 4cbd 8c3e 2bbd 1dc5 0a3d d7cf 2cbc
00000150: e90a 883c 7f02 ae3c b199 1dbd 4d9e ab3c
00000160: de08 5abd 9662 4bbd 0cac a2bc 430a 43bd
00000170: cf0f 30bd c949 203d 6266 b6bc ff8b efbc
00000180: 3f29 033a 6931 4abd cf67 91bb 5c05 ba3b
00000190: a0d6 59bd 28d5 babc da02 cf3c 7406 8ebc
000001a0: a725 093c 8086 dcb9 c38c 91bc eb58 5dbd
000001b0: d10b c43c 631b 153d 7053 d53c 5694 90bb
000001c0: 5e3f 04bd dd1e 83bc a798 61bd fbe4 18bd
000001d0: aff1 5f3b da71 10bd 47ca 823c 7a8b 153c
000001e0: d2d8 55bd 0e44 ac3c 5251 31bd 0205 12bd
000001f0: 1fab 4abd d7ac 903c 5fb0 443d 4d62 4f3c
00000200: f350 aabb cf52 4cbd 6d19 1f3c 6dd2 2b3d
00000210: c510 22bd 4d90 7abc ea6c a63c 2df1 323c
00000220: 73e5 ff3b 2d05 cfbc 539f d23c 67b9 f63a
00000230: 9343 663c ed6d febc e0b6 36bc cd84 65bc
00000240: cd4d dabb b73c 9d3c da63 dc3c 185e 02bd
00000250: 736d 3e3c 53b0 1f3c b027 f6bc 54e0 f2bc
00000260: 3b0a 04bd 5ec9 58bd c711 03bd edc8 7cbc
00000270: 5297 c3bb e0de 523c a961 37bd b8a3 b83c
00000280: 467e 583c d15b 203a caf6 213d f241 64bd
00000290: f595 d03b 333d 853a 1035 4abd 05cc 173d
000002a0: 3d94 2c3b a03d 453c c005 233c 1a1a dcbb
000002b0: 9ce2 043c 3f0f 46bd a7ad 68bc 2128 1bbd
000002c0: 5f00 903b 2725 fe3b 5f07 343d d28d 253d
000002d0: 99a9 54bd 8221 b03b c3db 893c 3302 7f3c
000002e0: aaaf 0d3d f2dd 923c ba2d 46bd 140a 4a3c
000002f0: 08dd 13bd 2197 f1bc da6b 7cbc cd19 b23c
00000300: 85d7 96bc 81bf 023c 0c8d 58bd f3cd 563c
00000310: 7cb9 8dbc f2aa 59bd cc06 21bb c0c9 303d
00000320: b209 063d 0054 373d 4d30 c9bb 7f8e 043d
00000330: 77c5 dcbc 4d28 5bbd 69ca d73c d2ba 22bd
00000340: 311e 0dbd 87f4 2e3a 3d9e fe3c 3316 b6bc
00000350: 8d98 fcbb 9a57 303c 5d1f 2ebd 4276 37bd
00000360: 6079 9abc 5952 eb3c ceed 30ba b61e 26bd
00000370: 9378 ffbc 3c75 90bc 42c2 8b3c cd5f b33c
00000380: 1177 45bc 33b1 7fba 42dd 97bc 8516 283c
00000390: f562 4abd 0d88 e83b d219 79bc ac00 65bd
000003a0: 3a86 5dbd 99bb 35bd 214b 1ebd 2df1 c0ba
000003b0: fa52 0dbd e394 ad3b 303b dc3c e171 0bbc
000003c0: 6685 98bb b024 293c c910 1f3c 7af3 b23c
000003d0: 3f36 e33c f011 50bc 73e8 0dbc 7e12 1d3d
000003e0: 2c70 3bbc 4b21 ccbb c151 f33b d89a 023c
000003f0: 6004 223d 695b 21bc 2c82 fbbb cb51 97bb

dense1.bias f4 [128]
-0.037604157 0.019743579 -0.052824207 -0.04509674 0.0702221 0.07251617 0.14570804 0.024625847
-0.003800136 -0.021482375 0.034496713 -0.011669466 0.03341524 -0.017634628 0.09420367 -0.056772783
-0.019153366 0.035457242 -0.06516114 0.10827617 0.07068138 0.0016922578 0.13763906 -0.0463496
0.016950289 0.003145619 -0.017848747 0.09128926 0.0035819544 -0.07351262 -0.0050311647 -0.014328433
0.08672647 0.043852188 -0.021234166 -0.018684063 -0.12326148 0.0094489595 0.06701361 -0.023807917
0.010206092 0.08767633 0.016909664 0.0060774414 -0.020758841 0.031018639 -0.031063383 -0.049746323
-0.026335083 0.07917737 0.04599535 -0.04095551 -0.058390632 -0.040457565 0.12508583 -0.03213
0.021968625 0.14204964 -0.0795229 -0.030506292 -0.017596893 0.045779705 0.10517727 0.076849066
-0.0011639352 -0.006108129 0.12318207 0.01728828 -0.029940257 0.03294639 0.083696544 0.05695622
-0.04695757 0.0071649463 -0.010492956 -0.022216305 -0.012253826 -0.0419628 0.038826156 -0.022195505
0.12584655 -0.035004634 -0.05275601 0.022924032 0.0395926 0.045766156 0.020077115 0.13218957
0.020371694 -0.061736736 0.025684912 0.094649084 0.17960161 0.01309023 -0.034895502 0.030746114
0.029347539 0.07493792 -0.021015061 0.015961371 -0.08332423 0.028720802 0.040262405 0.041296266
-0.048407443 0.015333608 0.013694831 0.04482523 -0.043466654 -0.025722755 0.06415151 0.061895084
0.044570137 0.05602586 0.054539815 0.0924395 0.040974334 -0.045986425 -0.020734014 0.028650766
-0.033160787 0.026974184 0.08712863 0.072214715 0.08196922 -0.0044104266 0.025170326 -0.04956431
00000000: d106 1abd 49bd a13c 325e 58bd 5cb7 38bd
00000010: 9bd0 8f3d 5c83 943d 7d34 153e 25bc c93c
00000020: b40b 79bb cefb afbc 6d4c 0d3d 4a31 3fbc
00000030: 6bde 083d 7f76 90bc dbed c03d 948a 68bd
00000040: 85e7 9cbc 9d3b 113d 3473 85bd e6bf dd3d
00000050: 66c1 903d c0ce dd3a 41f1 0c3e 14d9 3dbd
00000060: 55db 8a3c bb26 4e3b 8937 92bc ddf5 ba3d
00000070: 39bf 6a3b c98d 96bd 78dc a4bb cec1 6abc
00000080: a69d b13d 5a9e 333d 46f3 adbc 520f 99bc
00000090: 8470 fcbd cfcf 1a3c 6e3e 893d d208 c3bc
000000a0: 7437 273c a68f b33d 2386 8a3c 4625 c73b
000000b0: 720e aabc cd1a fe3c a378 febc cdc2 4bbd
000000c0: acbc d7bc bf27 a23d 9f65 3c3d f7c0 27bd
000000d0: 042b 6fbd d5b6 25bd 8016 003e bf9a 03bd
000000e0: 8cf7 b33c 7675 113e e7dc a2bd 55e8 f9bc
000000f0: 5c27 90bc 8083 3b3d 2e67 d73d 0b63 9d3d
00000100: 2f8f 98ba b326 c8bb e246 fc3d 27a0 8d3c
00000110: 4545 f5bc cbf2 063d 1869 ab3d ed4a 693d
00000120: 9556 40bd edc7 ea3b a6ea 2bbc f8fe b5bc
00000130: 45c4 48bc 2fe1 2bbd 2d08 1f3d 59d3 b5bc
00000140: ebdd 003e 0561 0fbd b016 58bd 2ecb bb3c
00000150: da2b 223d 4b75 3b3d c378 a43c b45c 073e
00000160: 8ae2 a63c a9df 7cbd 2a69 d23c 61d7 c13d
00000170: 7ce9 373e 6778 563c 96ee 0ebd 46df fb3c
00000180: 406a f03c 0d79 993d c727 acbc 6cc1 823c
00000190: e5a5 aabd e347 eb3c 31ea 243d 4626 293d
000001a0: e246 46bd d039 7b3c 4960 603c a99a 373d
000001b0: 170a 32bd 87b8 d2bc de61 833d b385 7d3d
000001c0: 2d8f 363d 5f7b 653d 2465 5f3d ec50 bd3d
000001d0: b4d4 273d 435c 3cbd 61da a9bc 03b5 ea3c
000001e0: 9bd3 07bd f7f8 dc3c 7f70 b23d 4fe5 933d
000001f0: 7adf a73d 5785 90bb 0032 ce3c f203 4bbd

dense2.weight f4 [64, 128]
0.085726775 -0.07843827 0.07844445 0.05819022 0.021998664 0.04548451 -0.08860506 0.012297154
-0.01373708 0.045663927 -0.07293343 -0.024685135 -0.065541394 0.029153196 -0.070858665 -0.07101301
0.051254656 -0.044808798 -0.033809222 0.02857613 -0.04270901 0.03952153 -0.013473179 -0.097773574
-0.11520024 0.013120187 0.0564217 -0.002501483 -0.051847756 0.006432105 0.06973005 0.034116827
-0.063088514 -0.068626195 0.016573437 0.06794499 0.018285392 -0.072849676 -0.012225134 0.0798501
0.024468897 -0.054304 0.031865977 0.005331227 -0.002410905 -0.0641772 0.05358619 -0.039627936
-0.062536374 -0.026587425 -0.08423433 -0.08432571 0.08525416 0.0005614803 -0.021834211 0.038619757
0.077623755 -0.099283025 -0.0009786392 0.07107943 -0.08287893 -0.080778226 -0.008191985 -0.052153364
0.06701499 -0.11170952 -0.07307575 -0.07163497 -0.034439653 0.04637564 0.016231725 0.085606135
-0.04199301 -0.011488312 0.085164994 -0.112927124 -0.0613356 -0.032070357 0.059491605 -0.06831468
-0.08425487 -0.021178074 -0.06980596 -0.00059791794 -0.05380259 0.059045408 0.066211894 0.012915546
0.03269759 -0.07339299 0.033973496 -0.028851084 -0.052096337 -0.06787745 0.03240732 -0.10194151
-0.049793668 0.037783 -0.0735151 -0.097940065 -0.08740987 0.03404185 -0.037220925 0.019534202
-0.020204788 -0.036557954 -0.067846775 -0.075201154 -0.08934932 0.060893197 0.05737042 -0.07817351
0.022219034 -0.06289474 -0.02896159 -0.0400914 -0.05330044 0.015713466 0.048910815 -0.008890329
-0.0720938 -0.024442105 -0.0063548316 -0.017023835 -0.0070560323 0.07523079 0.07295623 0.044314314
-0.014088002 -0.016002504 -0.031236924 0.05097791 -0.0047815247 -0.05878467 -0.007987073 0.06674305
-0.056703 -0.015078178 -0.08905064 0.09389617 -0.07896084 -0.051579386 -0.079808965 -0.05439988
-0.037532773 0.05686689 0.058246575 -0.06313528 -0.03675374 0.017081069 -0.015348967 0.097728975
0.08256325 0.1667782 0.0026286368 0.031277504 0.05794707 0.06471387 -0.03907499 0.062239952
-0.13029991 0.06840272 0.050285358 -0.01485501 0.18835628 0.12814777 -0.104068026 0.06660584
0.006809317 -0.10801402 0.014677799 -0.101285055 -0.07168754 -0.059773844 -0.047497455 0.058509875
0.17505744 -0.19534755 -0.09160002 -0.049212493 -0.048867144 0.03586672 -0.1074134 0.03991899
0.0011632012 -0.1672044 0.03364389 0.0035001647 -0.07679325 0.16145895 -0.2011721 0.09189573
0.035602193 0.01849357 -0.0046183933 -0.023668082 0.06972533 0.16089886 -0.12095285 0.10532252
0.02917391 -0.03809325 0.03906769 0.03233291 -0.09955805 0.05369568 0.04796828 0.07647858
-0.01476726 0.04283087 0.15497419 -0.073983304 0.09270863 -0.15796757 0.07117557 -0.14772622
0.06807244 0.1468169 0.08329368 -0.119355075 0.093708456 0.17059675 0.14428966 0.018073367
0.015210974 0.027992211 -0.014106057 0.013909547 0.027483849 -0.063289165 -0.048466243 -0.008933207
-0.07092631 0.16238949 0.043459345 0.01452915 0.055694364 0.022127548 -0.015653413 -0.015317069
0.022473067 0.02860424 0.044509105 -0.1011349 -0.042893715 -0.06038972 -0.03724477 -0.19685704
-0.024293058 -0.06906668 -0.0761648 -0.027531637 0.078104116 0.043090314 -0.07688048 -0.054345157
00000000: 8591 af3d 3ea4 a0bd 7ca7 a03d de58 6e3d
00000010: 8b36 b43c f74d 3a3d 9276 b5bd 017a 493c
00000020: 7d11 61bc 190a 3b3d 1f5e 95bd 7b38 cabc
00000030: 913a 86bd afd2 ee3c 591e 91bd 456f 91bd
00000040: 67f0 513d 6e89 37bd 8a7b 0abd 7d18 ea3c
00000050: a5ef 2ebd 54e1 213d 9cbe 5cbc 833d c8bd
00000060: 1aee ebbd 0ef6 563c 711a 673d ecef 23bb
00000070: 505e 54bd 68c4 d23b a1ce 8e3d 16be 0b3d
00000080: 8d34 81bd e48b 8cbd 04c5 873c be26 8b3d
00000090: 3fcb 953c 3632 95bd ee4b 48bc 7388 a33d
000000a0: ff72 c83c df6d 5ebd e685 023d 93b1 ae3b
000000b0: 4600 1ebb 566f 83bd 317d 5b3d e750 22bd
000000c0: 1213 80bd dfcd d9bc 0c83 acbd f5b2 acbd
000000d0: bc99 ae3d 4e30 133a a9dd b2bc c02f 1e3d
000000e0: 34f9 9e3d e654 cbbd af45 80ba 1892 913d
000000f0: 6ebc a9bd 0e6f a5bd ad37 06bc c49e 55bd
00000100: 283f 893d f6c7 e4bd bda8 95bd 5bb5 92bd
00000110: 9810 0dbd 62f4 3d3d 65f8 843c 4552 af3d
00000120: dd00 2cbd 7939 3cbc fc6a ae3d 5646 e7bd
00000130: 0a3b 7bbd 355c 03bd 78ad 733d 91e8 8bbd
00000140: d18d acbd a47d adbc 6df6 8ebd 98bd 1cba
00000150: 1b60 5cbd 99d9 713d 1a9a 873d ba9b 533c
00000160: e8ed 053d 104f 96bd cb27 0b3d 1c59 ecbc
00000170: f862 55bd 5503 8bbd 8abd 043d b6c6 d0bd
00000180: 72f4 4bbd 59c2 1a3d 168f 96bd cd94 c8bd
00000190: f203 b3bd 786f 0b3d f874 18bd 3106 a03c
000001a0: 8384 a5bc cbbd 15bd 40f3 8abd 1003 9abd
000001b0: c7fc b6bd 256b 793d 3ffd 6a3d 6f19 a0bd
000001c0: b104 b63c f5ce 80bd db40 edbc e136 24bd
000001d0: 9051 5abd 87b9 803c b556 483d bea8 11bc
000001e0: eaa5 93bd cf3a c8bc 313c d0bb 9275 8bbc
000001f0: 4a36 e7bb 9a12 9a3d 136a 953d ed82 353d
00000200: 5dd1 66bc af17 83bc 94e4 ffbc 37ce 503d
00000210: 56ae 9cbb 32c8 70bd 36dc 02bc 95b0 883d
00000220: 6841 68bd 760a 77bc 2f60 b6bd a34c c03d
00000230: 39b6 a1bd e844 53bd e272 a3bd 69d2 5ebd
00000240: f7bb 19bd 42ed 683d f693 6e3d 124d 81bd
00000250: 178b 16bd 99ed 8b3c 3c7a 7bbc 2126 c83d
00000260: ec16 a93d e8c7 2a3e 3545 2c3b d71c 003d
00000270: e859 6d3d b588 843d 190d 20bd 52ef 7e3d
00000280: 576d 05be ba16 8c3d 05f8 4d3d 6e62 73bc
00000290: 78e0 403e 2b39 033e 9e21 d5bd a568 883d
000002a0: b120 df3b 7436 ddbd 277b 703c 8a6e cfbd
000002b0: ebd0 92bd 6bd5 74bd b18c 42bd 0da8 6f3d
000002c0: 4242 333e 3009 48be cb98 bbbd 0a93 49bd
000002d0: ea28 48bd fbe8 123d 8ffb dbbd 1882 233d
000002e0: 8e76 983a a137 2bbe 2dce 093d 0563 653b
000002f0: c845 9dbd 7f55 253e 0f00 4ebe d433 bc3d
00000300: 9bd3 113d d47f 973c e455 97bb 91e3 c1bc
00000310: 27cc 8e3d acc2 243e 21b6 f7bd 55b3 d73d
00000320: 20fe ee3c ab07 1cbd 7105 203d 836f 043d
00000330: 17e5 cbbd 00f0 5b3d 637a 443d cda0 9c3d
00000340: 61f2 71bc 6c6f 2f3d 8eb1 1e3e 8f84 97bd
00000350: 06de bd3d 40c2 21be 7fc4 913d 8b45 17be
00000360: 9069 8b3d 2b57 163e e095 aa3d 6f70 f4bd
00000370: 38ea bf3d eab0 2e3e abc0 133e 990e 943c
00000380: 7337 793c ec4f e53c 171d 67bc dee4 633c
00000390: cf25 e13c c09d 81bd 8a84 46bd 965c 12bc
000003a0: d041 91bd 6e49 263e 6d02 323d ac0b 6e3c
000003b0: c61f 643d d544 b53c 963b 80bc 72f4 7abc
000003c0: 7019 b83c 7053 ea3c 2e4f 363d d01f cfbd
000003d0: 52b1 2fbd 365b 77bd f98d 18bd e494 49be
000003e0: 3c02 c7bc d572 8dbd 4afc 9bbd 078a e1bc
000003f0: 0df5 9f3d 787f 303d 8373 9dbd 0799 5ebd

dense2.bias f4 [64]
-0.05203805 0.08597274 0.03653966 -0.08877279 -0.042588 0.06401952 0.03640537 0.046028603
0.062572636 -0.06667714 -0.07992602 -0.0624936 0.0632541 -0.052206777 -0.03855886 0.13118753
-0.0817089 0.0049927603 0.07699125 -0.01618055 0.1113691 0.05493093 0.06554844 0.049652398
0.014253115 0.02418368 0.054001402 -0.05974831 0.09536543 0.07476015 0.0021840222 0.094733104
0.09052571 -0.046653174 0.031326987 -0.04023511 0.08612275 0.01979179 -0.07534602 -0.010796591
0.10315374 -0.05374987 0.05220531 -0.12922584 0.0034925484 0.014716977 0.07558919 -0.085121505
0.009140916 0.0524937 0.13611212 -0.075769536 -0.023779104 0.016854187 0.0651548 -0.037730202
-0.03002011 0.070287295 -0.0696041 -0.02801854 0.19287461 0.122247905 0.011698133 -0.034880687
00000000: da25 55bd 7a12 b03d 9caa 153d 82ce b5bd
00000010: c170 2ebd ab1c 833d cc1d 153d 7d88 3c3d
00000020: 1526 803d 068e 88bd 41b0 a3bd 4af9 7fbd
00000030: 5e8b 813d c6d6 55bd e5ef 1dbd 0656 063e
00000040: ff56 a7bd 4f9a a33b 97ad 9d3d 138d 84bc
00000050: 7c15 e43d 41ff 603d 433e 863d 5060 4b3d
00000060: e685 693c da1c c63c 9330 5d3d a5ba 74bd
00000070: f34e c33d d91b 993d d021 0f3b 6e03 c23d
00000080: 8b65 b93d 6617 3fbd ba50 003d 92cd 24bd
00000090: 2061 b03d 6422 a23c 044f 9abd 2fe4 30bc
000000a0: 4542 d33d d328 5cbd 3cd5 553d c753 04be
000000b0: 3de3 643b 7a1f 713c 81ce 9a3d 2f54 aebd
000000c0: c8c3 153c a203 573d fa60 0b3e 0f2d 9bbd
000000d0: 65cc c2bc cb11 8a3c e16f 853d fc8a 1abd
000000e0: bcec f5bc c9f2 8f3d 988c 8ebd 2387 e5bc
000000f0: ec80 453e 1c5d fa3d 87a9 3f3c 0ddf 0ebd

final.weight f4 [12, 64]
0.110485226 -0.15032066 0.11672345 -0.0017118516 -0.10771727 -0.014482091 0.054480474 -0.08525246
0.14265986 -0.10388053 0.065018654 -0.12930837 0.09630343 -0.15237005 -0.1125689 -0.16169728
0.11371238 -0.034865983 -0.32883868 0.047111563 0.1431084 -0.034940787 0.1381905 0.07859739
0.055072047 -0.003514141 -0.039103232 0.08386935 -0.1111768 0.0152765615 0.15340619 0.12538044
-0.30624723 0.027650477 -0.0049618105 -0.015255079 -0.2038123 0.14134738 0.033176754 0.13784772
-0.2613723 0.044563577 -0.0021583799 0.14823765 -0.1178982 -0.30530047 0.18897447 -0.06329399
-0.017558573 -0.14899375 0.10429379 -0.020301944 0.11247334 0.07940758 -0.0022164383 0.10986363
-0.0782324 -0.25730327 -0.10204682 -0.005384817 -0.07198711 0.02614287 -0.07530807 0.0036215687
0.10598832 0.16760914 -0.06581504 -0.031744774 -0.039769735 0.011270096 0.10646249 0.014975953
-0.0691777 -0.2733508 -0.021003265 0.029502185 0.10771696 -0.16368069 -0.0072147246 0.12337981
0.057482094 0.05568813 -0.09936333 -0.17119543 -0.10323393 -0.10345721 -0.004906975 -0.18687385
0.17724769 0.09385633 -0.16790363 0.04840253 0.050007787 -0.14727709 0.06600565 0.11321857
0.011280804 -0.13630208 -0.20007105 -0.11603369 0.05540202 -0.04101213 0.22820376 -0.053440567
-0.18846393 0.05289276 0.101046205 0.062238447 0.03143499 0.018322473 0.010195772 0.09824978
-0.040140476 -0.2502461 0.20008636 0.10267174 -0.07141323 -0.26086846 0.18765332 -0.009283176
-0.002065542 -0.17892778 -0.0010410503 -0.032660574 0.0819631 -0.09045644 -0.087848864 -0.058158953
-0.045321558 -0.029145842 -0.11470921 -0.03356067 0.089097425 -0.076357216 0.045226935 0.008789368
0.055289365 0.13814463 0.044408634 -0.110507 0.08792038 -0.14075716 -0.029706685 -0.0137511
0.0063837664 0.061831065 0.027720224 0.06872561 0.14798003 0.033212066 0.04334294 -0.020186085
-0.16364391 0.13808505 -0.033000793 -0.02790107 0.11054322 0.014104268 0.14526111 -0.012959399
-0.19670144 -0.008277461 0.15057078 0.1789695 -0.052902125 0.004061194 -0.1054742 -0.06824278
0.06065899 0.043809455 0.09548484 0.15153325 -0.10666275 0.040579986 0.101730466 0.09444445
-0.068258636 -0.14324543 -0.091245726 -0.061286762 -0.028425878 -0.10971823 -0.17386481 -0.07347662
-0.09966407 -0.1302418 -0.035456337 -0.011297488 0.013803274 -0.13843407 0.06976317 0.0039190175
-0.101762325 -0.14136468 -0.064363845 -0.07353489 -0.011625649 0.04514225 -0.047162574 -0.058125507
-0.15238217 0.097724475 -0.029623935 -0.02630818 0.004964687 -0.12540828 -0.020689305 -0.088057086
0.11508128 0.020410683 0.15391801 -0.10219666 0.030488737 0.08214718 -0.22167768 -0.044131402
0.13834327 0.14895073 -0.2117134 0.07773939 0.10160119 0.06491282 -0.08237731 0.03038242
-0.22731256 -0.07901475 0.14335601 -0.11883628 0.10621978 -0.18465419 -0.06771034 -0.20334639
0.09148152 0.06716309 -0.040007036 0.102447 -0.11347333 0.10903762 -0.06367973 0.11566645
0.050183702 0.13088973 -0.23436858 0.02795607 0.079456955 0.09284428 0.13237563 -0.0035327948
0.18235484 0.24015565 -0.014777499 0.033292208 -0.047909364 -0.23125938 -0.11574554 -0.12233982
00000000: 1446 e23d a9ed 19be b40c ef3d 3560 e0ba
00000010: df9a dcbd 4b46 6dbc eb26 5f3d d798 aebd
00000020: 6d15 123e 51bf d4bd 8028 853d 6a69 04be
00000030: bc3a c53d e506 1cbe 868a e6bd f993 25be
00000040: 09e2 e83d a2cf 0ebd 8b5d a8be 0ef8 403d
00000050: 028b 123e 121e 0fbd cf81 0d3e abf7 a03d
00000060: 3a93 613d 814d 66bb b62a 20bd b2c3 ab3d
00000070: aab0 e3bd 8b4a 7a3c 8316 1d3e bb63 003e
00000080: 70cc 9cbe 4183 e23c af96 a2bb 70f0 79bc
00000090: 2cb4 50be 5ebd 103e 59e4 073d f427 0d3e
000000a0: 97d2 85be 4c88 363d 9b73 0dbb 9ccb 173e
000000b0: 9d74 f1bd 5850 9cbe 8682 413e 48a0 81bd
000000c0: ffd6 8fbc d191 18be fc97 d53d 4350 a6bc
000000d0: 6c58 e63d 71a0 a23d aa41 11bb 2f00 e13d
000000e0: 4f38 a0bd 41bd 83be ecfd d0bd 1e73 b0bb
000000f0: fa6d 93bd 9229 d63c 1e3b 9abd d757 6d3b
00000100: 6810 d93d bba1 2b3e 09ca 86bd cf06 02bd
00000110: 97e5 22bd 35a6 383c 0209 da3d b35d 753c
00000120: 0aad 8dbd a3f4 8bbe 0a0f acbc 91ae f13c
00000130: b69a dc3d e99b 27be 7f69 ecbb 8eae fc3d
00000140: 5872 6b3d 3d19 643d 007f cbbd db4d 2fbe
00000150: 506c d3bd 60e1 d3bd b1ca a0bb dc5b 3fbe
00000160: 6b80 353e bf37 c03d eeee 2bbe bb41 463d
00000170: f7d4 4c3d cecf 16be f82d 873d 23df e73d
00000180: 1fd3 383c c692 0bbe 6ddf 4cbe 12a3 edbd
00000190: 3bed 623d 56fc 27bd 3fae 693e 7fe4 5abd
000001a0: b0fc 40be 14a6 583d 50f1 ce3d beed 7e3d
000001b0: fac1 003d 0319 963c 2b0c 273c 2e37 c93d
000001c0: 576a 24bd 4220 80be 70e3 4c3e 9045 d23d
000001d0: 1941 92bd 8d90 85be 3128 403e 7618 18bc
000001e0: 0b5e 07bb d838 37be da73 88ba 18c7 05bd
000001f0: 45dc a73d 3a41 b9bd 1bea b3bd 1538 6ebd
00000200: 19a3 39bd 43c3 eebc aaec eabd ea76 09bd
00000210: b678 b63d 2c61 9cbd e13f 393d 4801 103c
00000220: 1a77 623d c975 0d3e d4e5 353d 7e51 e2bd
00000230: 9a0f b43d a522 10be 6f5b f3bc 4b4c 61bc
00000240: ea2e d13b 9242 7d3d 8615 e33c 03c0 8c3d
00000250: 1488 173e 6009 083d 5e88 313d 4a5d a5bc
00000260: 4592 27be 2b66 0d3e d72b 07bd c990 e4bc
00000270: 7c64 e23d 9615 673c 54bf 143e a953 54bc
00000280: 1a6c 49be 309e 07bc 3a2f 1a3e c843 373e
00000290: e6af 58bd c413 853b db02 d8bd dfc2 8bbd
000002a0: 9075 783d 8b71 333d 8e8d c33d 882b 1b3e
000002b0: 0072 dabd 3337 263d 1058 d03d 186c c13d
000002c0: 2fcb 8bbd eeae 12be 0adf babd d407 7bbd
000002d0: 63dd e8bc f4b3 e0bd 9e09 32be e97a 96bd
000002e0: ad1c ccbd 1b5e 05be aa3a 11bd 1919 39bc
000002f0: 2127 623c a9c1 0dbe fedf 8e3d 1a6b 803b
00000300: c468 d0bd e7c1 10be 31d1 83bd 7699 96bd
00000310: 8279 3ebc 14e7 383d 8b2d 41bd 0315 6ebd
00000320: 120a 1cbe c523 c83d e5ad f2bc 4184 d7bc
00000330: d0ae a23b 076b 00be 9e7c a9bc 4657 b4bd
00000340: bcaf eb3d 4e34 a73c af9c 1d3e 7c4c d1bd
00000350: 84c3 f93c c83c a83d 79ff 62be 21c3 34bd
00000360: dca9 0d3e 8a86 183e 66cb 58be d435 9f3d
00000370: 4914 d03d 03f1 843d 6fb5 a8bd 8ee4 f83c
00000380: a0c4 68be 7cd2 a1bd ebcb 123e 7060 f3bd
00000390: c289 d93d fd15 3dbe b8ab 8abd 093a 50be
000003a0: aa5a bb3d cd8c 893d 6bde 23bd bccf d13d
000003b0: b564 e8bd 1e4f df3d 856a 82bd 88e2 ec3d
000003c0: 6d8d 4d3d f507 063e 51fe 6fbe 2104 e53c
000003d0: 54ba a23d 2425 be3d 7a8d 073e 7686 67bb
000003e0: 3abb 3a3e 5deb 753e 531d 72bc 695d 083d
000003f0: 9c3c 44bd 42cf 6cbe ff0b edbd 4d8d fabd

final.bias f4 [12]
0.11534693 -0.06989598 0.072525404 -0.13526967 -0.037506256 -0.05809371 -0.067599095 -0.12242904
0.021599492 -0.10816274 0.038494367 -0.072676085
00000000: 033b ec3d a025 8fbd 3388 943d 2284 0abe
00000010: 29a0 19bd acf3 6dbd 6571 8abd 14bc fabd
00000020: 6bf1 b03c 6d84 ddbd 45ac 1d3d 33d7 94bd
