Superclass/models/model.onnx (onnx, 255597 bytes, 10 tensors)

conv1.weight f4 [6, 1, 5, 5]
0	0xbda961bb	-0.08270594
1	0xbf0c0a5f	-0.54703325
2	0xbe9fa4c0	-0.31180382
3	0xbe6944e3	-0.22780184
4	0x3da15f59	0.07879514
5	0xbcf5223e	-0.029923555
6	0xbc189ff3	-0.009315479
7	0xbebb2263	-0.36549672
8	0xbef9fc4c	-0.488253
9	0xbd919389	-0.07108218
10	0x3e42ec1b	0.1903538
11	0x3ea497a2	0.32146937
12	0xbca12e99	-0.01967554
13	0xbe0f5e49	-0.1400081
14	0xbedede13	-0.43528804
15	0x3f0c2e33	0.54757994
16	0x3f07fd57	0.5312094
17	0x3e77a46e	0.24183819
18	0xbe4d859e	-0.20070502
19	0xbea63e8c	-0.32469594
20	0x3ef73496	0.48282307
21	0x3f03cd3f	0.51485056
22	0x3f064d61	0.5246182
23	0x3e5b9be3	0.21446185
24	0xbe87dcc3	-0.26535615
25	0xbe8a3e3f	-0.27000615
26	0xbe80b527	-0.25138208
27	0xbc0848af	-0.00831811
28	0x3c4b6cf6	0.012416115
29	0x3eac8235	0.3369309
30	0xbe9f117e	-0.31068033
31	0xbec3af8d	-0.38219872
32	0xbf09dc57	-0.53851837
33	0xbeb68be9	-0.35653618
34	0xbe5be37d	-0.21473499
35	0x3e6161fd	0.22010036
36	0xbe1489dd	-0.14505716
37	0xbebe4a53	-0.3716608
38	0xbf0184c7	-0.5059323
39	0xbe84c4b1	-0.25931314
40	0x3c8885eb	0.01666542
41	0x3c960310	0.018312007
42	0x3e312e30	0.17302775
43	0x3ce23442	0.02761281
44	0xbe861328	-0.2618649
45	0x3ec002fa	0.3750227
46	0x3e5b5035	0.21417315
47	0x3e258b9a	0.16166535
48	0x3dc87d66	0.09789543
49	0xbe7ced1b	-0.24699824
50	0x3e6d8225	0.23194177
51	0x3eb03d96	0.34421986
52	0xbd492302	-0.04910565
53	0xbdeed93d	-0.11662529
54	0x3bad76ab	0.0052936873
55	0x3f0f9a1f	0.56094545
56	0x3ea15e59	0.31517294
57	0xbe10a730	-0.14126277
58	0xbea967c0	-0.33086967
59	0xbe9081dd	-0.28224078
60	0x3efef7fb	0.4979857
61	0x3f0524eb	0.5200946
62	0xbec3eb65	-0.3826553
63	0xbf06c2a9	-0.5264078
64	0xbdd8c792	-0.1058494
65	0x3f03737e	0.513481
66	0x3e72de3b	0.23717587
67	0xbeaa1351	-0.33217862
68	0xbf30746a	-0.68927634
69	0xbdd8f31b	-0.10593244
70	0x3e8b1444	0.271639
71	0x3d1894fa	0.03725145
72	0x3c6b60e5	0.014366363
73	0xbe6a05db	-0.22853796
74	0xbe507c60	-0.20359945
75	0x3e975cca	0.2956298
76	0x3e430d9f	0.19048165
77	0x3db072c0	0.08615637
78	0xbb37a415	-0.0028021384
79	0xbe066020	-0.13122606
80	0x3e896de1	0.26841643
81	0x3e8f7c6e	0.2802462
82	0x3e97b6a3	0.29631528
83	0x3cc90839	0.024540054
84	0x3e4c6b70	0.19962859
85	0x3d3ba07f	0.045807358
86	0x3ddaa084	0.10675147
87	0xbcdb3d82	-0.026762728
88	0x3e5b4114	0.21411544
89	0x3e016368	0.12635577
90	0xbea68cf5	-0.32529417
91	0xbe61c442	-0.22047523
92	0xbdfdecda	-0.123986915
93	0x3e490c8b	0.19633691
94	0xbc095c6d	-0.008383852
95	0xbe88ec73	-0.26742896
96	0xbe15c9d2	-0.1462777
97	0xbde99443	-0.11405232
98	0x3e81fe7f	0.25389478
99	0x3dd1469f	0.10218548
100	0x3da423d8	0.08014649
101	0x3e3f3332	0.18671873
102	0x3e009a0f	0.12558769
103	0x3dcdbe67	0.10046082
104	0xbe248548	-0.16066468
105	0x3e10a256	0.14124426
106	0x3e5a095e	0.21292636
107	0x3e6c290f	0.23062538
108	0x3d466308	0.048434287
109	0xbc100e1e	-0.008792428
110	0xbda2e999	-0.079547115
111	0x3e857a97	0.2607009
112	0x3ecb3380	0.3968773
113	0x3e5a3b6f	0.21311735
114	0x3dd1a4e7	0.10236531
115	0xbe070312	-0.13184765
116	0x3c96daee	0.01841494
117	0x3e9873b2	0.2977577
118	0x3e866d17	0.26255104
119	0x3d7b1ddc	0.061307773
120	0xbdd6a465	-0.104805745
121	0xbe43e8d1	-0.19131781
122	0xbdc14cde	-0.094384894
123	0x3e28b4ee	0.16475269
124	0xbe4a1a06	-0.1973649
125	0xbe39e10a	-0.18152252
126	0xbea3af41	-0.31969646
127	0xbe879154	-0.26478064
128	0xbe693c90	-0.22777009
129	0x3d7b6d05	0.061383266
130	0xbed74608	-0.42045617
131	0xbec06a68	-0.37581182
132	0x3c818f6d	0.015815461
133	0xbe077bbe	-0.13230798
134	0x3e3df311	0.18549754
135	0xbe52e59c	-0.20595402
136	0xbe73b851	-0.2380078
137	0x3dfbc54d	0.122934915
138	0xbdfde9be	-0.123980984
139	0x3e8c6f29	0.27428558
140	0xbb2305f8	-0.0024875384
141	0xbec7c91e	-0.39020628
142	0xbeb2eedc	-0.3494786
143	0xbe82161d	-0.25407496
144	0x3b237e55	0.0024947126
145	0xbdeaf4cf	-0.11472475
146	0x3d3587c9	0.044318948
147	0xbd222894	-0.03958948
148	0xbea12546	-0.3147375
149	0x3d9baf62	0.07601811

conv1.bias f4 [6]
0	0x3ee408ea	0.4453805
1	0xbe9d1a55	-0.30684152
2	0x3e876ab8	0.26448607
3	0xbd813024	-0.0630801
4	0x3dce21ad	0.10065017
5	0xbdacb296	-0.084325

conv2.weight f4 [16, 6, 5, 5]
0	0xbcf198b0	-0.029491752
1	0xbe97a139	-0.2961519
2	0x3e14def9	0.14538182
3	0x3e041e29	0.1290213
4	0x3d99165d	0.074749686
5	0xbec98f30	-0.39367056
6	0xbf255c87	-0.6459431
7	0xbdf05e80	-0.117367744
8	0xbde536d0	-0.11192095
9	0x3e47925e	0.19489428
10	0xbe056bb0	-0.13029361
11	0xbef61dcf	-0.48069617
12	0xbf03b34a	-0.5144545
13	0xbe93c970	-0.28864622
14	0xbd00c4e0	-0.031437755
15	0x3e1e93f1	0.15486123
16	0x3e6f1ec7	0.23351584
17	0xbdd47f3c	-0.103758305
18	0xbdfd2f5b	-0.12362548
19	0x3ddb9023	0.10720851
20	0x3d92f9e1	0.07176567
21	0x3b994291	0.004677125
22	0x3d8c6f72	0.06857194
23	0x3e54304b	0.20721547
24	0x3e1cd38a	0.15315071
25	0xbda21210	-0.079136014
26	0xbe0af198	-0.13568723
27	0xbe0300db	-0.12793295
28	0xbdbba083	-0.091614746
29	0x3db97a44	0.090565234
30	0xbe0c3c26	-0.1369482
31	0xbd9cf7be	-0.076644406
32	0xbe017f67	-0.12646256
33	0xbe51dd7a	-0.20494643
34	0xbdc402bd	-0.09570835
35	0x3df7afde	0.12094091
36	0x3cf898e9	0.03034635
37	0xbe3890e0	-0.18024015
38	0xbe5d85af	-0.21633027
39	0xbda74f1a	-0.08169384
40	0x3e55818f	0.20850204
41	0x3e0b015e	0.1357474
42	0x3d00b801	0.03142548
43	0x3dfd4a63	0.12367704
44	0x3c48a8e1	0.012247295
45	0x3e0259b9	0.12729539
46	0x3dbbf1ca	0.09176977
47	0x3e0f0e71	0.13970353
48	0xbb61c54a	-0.0034449869
49	0x3dd37a14	0.10326019
50	0xbcb247e7	-0.021762801
51	0xbe888a59	-0.2666805
52	0xbe913848	-0.28363252
53	0x3e0a23e5	0.13490255
54	0x3e7ec8cf	0.2488129
55	0x3e7d0fb9	0.24713029
56	0xbea8f7ff	-0.33001706
57	0x3e085a43	0.13315682
58	0x3e8bbd9b	0.27293095
59	0x3dee53cc	0.11637077
60	0x3e82e171	0.25562623
61	0xbe8daf13	-0.27672634
62	0x3e424045	0.1896983
63	0x3eb549e1	0.35407928
64	0x3e31e12e	0.17371055
65	0xbea22ff5	-0.31677213
66	0xbe64eebd	-0.22356696
67	0x3ce23ea9	0.02761777
68	0x3dbfe8bd	0.09370563
69	0x3cc9989c	0.024608903
70	0xbe2efe6d	-0.17089243
71	0xbdf8dbc8	-0.12151295
72	0xbe7517c8	-0.23934853
73	0x3cd77b12	0.026303802
74	0xbc230557	-0.009950004
75	0xbd959db3	-0.07305469
76	0xbcb4cc58	-0.022070095
77	0x3dcbdf53	0.09954705
78	0x3d1e3a4d	0.03862982
79	0x3df8d04b	0.12149104
80	0xbde0c47c	-0.109749764
81	0x3d2b1bc1	0.041774515
82	0x3d8ee07f	0.06976413
83	0x3e0d9c09	0.13829054
84	0x3e224a83	0.15848736
85	0x3a8427ee	0.0010082701
86	0x3d948453	0.07251801
87	0x3c0c282f	0.008554502
88	0x3dfa7a68	0.122303784
89	0x3d39f1bf	0.045396563
90	0xbe24bf6f	-0.16088651
91	0xbe3d651b	-0.184956
92	0x3c4810e7	0.012211061
93	0xbdb458c8	-0.08805996
94	0xbdcb970f	-0.099409215
95	0xbdc4e586	-0.096140906
96	0x3c658345	0.014008348
97	0xbd39c439	-0.045353148
98	0xbc5d1cbc	-0.01349562
99	0xbd3527e0	-0.04422748
100	0xbd64b42a	-0.05583588
101	0x3d0c345e	0.03422963
102	0x3e1eda66	0.15513
103	0x3dfedcd2	0.12444462
104	0x3e1a8641	0.15090276
105	0xbdaf6497	-0.08564108
106	0x3d9148fc	0.07093999
107	0x3e1020f9	0.14075078
108	0x3d67e9e9	0.05661956
109	0x3dbab91e	0.091173396
110	0xbdebb380	-0.11508846
111	0x3d7e669e	0.062109582
112	0x3d14bfed	0.036315847
113	0x3db4a2e1	0.08820129
114	0xbd67c6e2	-0.056586154
115	0xbe147bfc	-0.14500421
116	0xbda1bdc6	-0.078975245
117	0xbcd224fa	-0.025652397
118	0xbd0b1624	-0.03395666
119	0xbc7b656f	-0.015344008
120	0xbd5f1151	-0.054459874
121	0xbe028aed	-0.12748308
122	0xbda15c90	-0.07878983
123	0xbc8bc612	-0.01706222
124	0x3dbcee1b	0.092251025
125	0x3c32d8fc	0.010915991
126	0xbd26d591	-0.040731017
127	0xbd4fea63	-0.050760638
128	0xbc80ad86	-0.015707742
129	0x395873bb	0.00020642478
130	0xbb57eda5	-0.0032948044
131	0x3b24b486	0.0025132014
132	0xbe3a9f2a	-0.18224779
133	0xbda1e212	-0.079044476
134	0xbdb63a00	-0.08897781
135	0x3e008668	0.12551272
136	0x3dc21a3f	0.09477662
137	0xb9857633	-0.00025455802
138	0xbdc4d4de	-0.09610914
139	0x3bd932a3	0.006628351
140	0x3e1e1c02	0.15440372
141	0x3d7649e3	0.060129058
142	0x3ddd1041	0.10794116
143	0x3df9f3ed	0.12204728
144	0x3db688fb	0.08912846
145	0x3d87b289	0.0662585
146	0x3d615122	0.055009015
147	0x3d200775	0.03906961
148	0x3d831efd	0.06402395
149	0x3d814dc3	0.0631366
150	0x3c44ce20	0.012012035
151	0x3df2803c	0.11840865
152	0x3e861562	0.2618819
153	0x3e4db2cc	0.20087737
154	0x3e2f662d	0.1712882
155	0xbe9af13a	-0.30262166
156	0xbd581562	-0.052754767
157	0x3e59cbfd	0.21269222
158	0xbb00301e	-0.001955993
159	0x3e0540e5	0.13013037
160	0x3e5e21ff	0.21692656
161	0x3e22e5bf	0.15907954
162	0x3ed9f386	0.42568606
163	0xbd5f442e	-0.05450838
164	0x3d0f85db	0.035039764
165	0x399e9b2a	0.00030251715
166	0xbde0ab4f	-0.109701745
167	0x3ea28fee	0.31750435
168	0x3c1f53a9	0.009724536
169	0xbe810810	-0.25201464
170	0xbe6d88aa	-0.23196664
171	0xbeca3be6	-0.39498824
172	0xbcf99cd5	-0.030470291
173	0x3e5cf121	0.21576358
174	0xbe9aff5d	-0.30272952
175	0x3dd83532	0.10557021
176	0x3df5ac4f	0.11995756
177	0x3d82bcda	0.06383677
178	0x3ca6c5ca	0.020357985
179	0x3d70389b	0.058647733
180	0x3daff94d	0.08592472
181	0x3de399f4	0.111133486
182	0x3b0234c5	0.001986788
183	0xbdfce36e	-0.12348066
184	0x3c220eda	0.009891236
185	0x3d2d8975	0.042367417
186	0xbc2852de	-0.010273663
187	0x3e202a90	0.15641236
188	0xbd3e8ccb	-0.04652099
189	0xbd2243d4	-0.039615467
190	0xbddc68c0	-0.10762167
191	0xbdc12eb6	-0.094327375
192	0x3c14caa6	0.009081518
193	0xbcfd8346	-0.030946385
194	0xbdcd3028	-0.10018951
195	0x3c6a587d	0.014303324
196	0xbe2d6d19	-0.16936149
197	0x3cd35b37	0.02580033
198	0x3d0ac16c	0.033875868
199	0x3dcd8cc2	0.10036613
200	0xbe02c0b8	-0.12768829
201	0xbe958275	-0.29201093
202	0xbe9e4196	-0.30909413
203	0xbe380d34	-0.17973787
204	0x3cdf5ea0	0.0272668
205	0xbe413859	-0.18869151
206	0xbeaee37c	-0.34157932
207	0xbe40b797	-0.18820034
208	0xbbdad1f4	-0.0066778604
209	0x3e6e3730	0.2326324
210	0xbd3fa7c4	-0.046790853
211	0xbe87dfe9	-0.26538017
212	0x3e2c894a	0.16849247
213	0x3d748575	0.059697587
214	0xbdb705f4	-0.08936682
215	0x3c4a5a58	0.012350641
216	0xbe070acc	-0.13187712
217	0x3ec88bd3	0.39169177
218	0x3dbf7a02	0.09349443
219	0xbe9f5726	-0.31121176
220	0x3d86af2b	0.065763794
221	0xbe7b66ed	-0.24550982
222	0x3daa165a	0.083050445
223	0x3e853723	0.26018628
224	0xbe2274fe	-0.15864941
225	0x3c80e47e	0.015733954
226	0xbcc79623	-0.024363583
227	0x3ca24a52	0.01981083
228	0xbd8341d6	-0.064090416
229	0xbdd16983	-0.10225203
230	0xbdc3cae5	-0.095601834
231	0xbb0f4706	-0.0021862402
232	0xb97a9273	-0.00023896414
233	0xbd52e080	-0.05148363
234	0xbcaa0397	-0.020753665
235	0xbe14e1c7	-0.14539252
236	0xbdbdfa4f	-0.09276258
237	0x3c769457	0.015050015
238	0xbd2a1134	-0.041520312
239	0x3d85d06a	0.065338925
240	0x3cd50f03	0.026008135
241	0x3d06ab14	0.032877997
242	0x3d8eba85	0.069691695
243	0xbdf5e38a	-0.1200629
244	0xbd36af3d	-0.044600714
245	0x3daac192	0.08337702
246	0x3d5b9cf4	0.05361648
247	0x3c393f34	0.011306573
248	0x3c7c9c1b	0.015418078
249	0xbca1e63d	-0.019763106
250	0xbdbc2539	-0.09186787
251	0xbe0aa977	-0.13541208
252	0xbd94beab	-0.072629295
253	0x3c9e2ad7	0.019307537
254	0xbd998748	-0.07496506
255	0xbdcb009e	-0.09912227

conv2.bias f4 [16]
0	0x3e3d7e64	0.18505245
1	0x3d06bbea	0.032894053
2	0xbcbce9d4	-0.023060717
3	0x3e19deee	0.15026447
4	0x3dc10a84	0.09425834
5	0x3de4e170	0.11175811
6	0x3db79460	0.08963847
7	0x3e4ca34f	0.19984172
8	0x3df0739e	0.11740802
9	0x3d0c55c8	0.034261495
10	0x3bf64950	0.0075160637
11	0x3df8d31b	0.1214964
12	0x3e3f39db	0.18674414
13	0x3d83b2f9	0.06430621
14	0x3e407e1e	0.1879811
15	0x3d46dd53	0.048550915

dense1.weight f4 [128, 400]
0	0x3d738242	0.059450395
1	0xbdabf91d	-0.08397124
2	0xbe0b3869	-0.13595738
3	0xbd3668b6	-0.044533454
4	0x3d337c94	0.04381998
5	0xbc23c906	-0.009996658
6	0xbdb3879c	-0.087661
7	0x3b3e4e16	0.0029038242
8	0xbe01ef55	-0.12688954
9	0xbd13b53b	-0.036061507
10	0x3b41a220	0.0029546097
11	0xbd84ed94	-0.06490627
12	0xbd2dd8b1	-0.04244298
13	0xbdfd54d1	-0.12369693
14	0xbdd78f53	-0.10525384
15	0x3cf822b5	0.030289987
16	0x3dc7619a	0.09735413
17	0x3aeaf966	0.001792711
18	0x3da962ff	0.08270835
19	0x3db75b8a	0.089530066
20	0xbd6e80cf	-0.05822831
21	0x3d9a15aa	0.07523663
22	0x3deb66eb	0.114942394
23	0xbd1b82d6	-0.03796657
24	0x3d6e8343	0.05823065
25	0x3db52de3	0.08846643
26	0xbb25292f	-0.002520155
27	0x3d8844ed	0.066537715
28	0x3c5a4868	0.013322927
29	0x3d5823dc	0.052768573
30	0x3de3e49e	0.1112759
31	0x3da9f154	0.08297983
32	0x3d9c21a1	0.07623602
33	0xbd30249a	-0.043003656
34	0xbcd91cf3	-0.026503062
35	0xbdb9b52b	-0.09067758
36	0xbd24bb9f	-0.040217992
37	0x3d2ed225	0.04268088
38	0xbdce5884	-0.10075477
39	0x3daf065a	0.08546133
40	0xbd652787	-0.0559459
41	0xbd78329f	-0.06059515
42	0x3d547272	0.051866956
43	0x3c9fad8b	0.019491931
44	0xbc8087eb	-0.01568981
45	0xbcad07d9	-0.021121906
46	0xbd088845	-0.03333308
47	0x3d350dc0	0.044202566
48	0xbc8b092f	-0.016972153
49	0x3db7aaa3	0.08968093
50	0x3dc5154c	0.09623203
51	0xbc4c5fc2	-0.012474002
52	0x3de23ad4	0.11046377
53	0xbc6c1a16	-0.014410516
54	0xbcd00eb7	-0.025397642
55	0xbc577394	-0.013150115
56	0x3dd1e2aa	0.10248311
57	0xbda0f21b	-0.07858678
58	0xbdcac071	-0.098999865
59	0xbb2e34b0	-0.0026581697
60	0x3d591cf3	0.053006124
61	0x3d7eb606	0.06218531
62	0xbe59b507	-0.21260463
63	0xbe2d223c	-0.1690759
64	0x3cc51b23	0.024060791
65	0x3d7671b7	0.06016704
66	0xbd74f431	-0.05980319
67	0x3d35111c	0.04420577
68	0xbe0f3700	-0.13985825
69	0xbdbdbcd1	-0.092645295
70	0x3d1289fd	0.035776127
71	0x3d239428	0.039936215
72	0xbd0899e4	-0.033349887
73	0xbd9c7f2e	-0.07641445
74	0x3d03c97b	0.03217457
75	0xbd9e8677	-0.07740491
76	0xbdc9c201	-0.098514564
77	0x3ce48b82	0.027898554
78	0xbd69c3b3	-0.0570714
79	0xbcb57195	-0.022148887
80	0x3ce80cef	0.02832648
81	0x3e008523	0.12550788
82	0x3da4efca	0.08053549
83	0xbdf8d3d6	-0.121497795
84	0xbd66eb06	-0.05637648
85	0xbc4cacb2	-0.012492346
86	0x3d753821	0.05986798
87	0x3dc6ffea	0.097167805
88	0xbda43f92	-0.080199376
89	0xbd42a8de	-0.047524326
90	0x3cd632e7	0.026147319
91	0xbd5e376c	-0.054252073
92	0xbde5489f	-0.11195492
93	0xbdb743e9	-0.089485
94	0xbdb889cd	-0.090106584
95	0x3b18c490	0.002331052
96	0x3c23b9ca	0.009993026
97	0xbc96c9c0	-0.018406749
98	0x3d1d57f0	0.03841394
99	0x39ce4cb4	0.0003934853
100	0x3cb59e93	0.02217034
101	0x3cee4e94	0.029090203
102	0x3cc7fd38	0.024412736
103	0x3d98ba5c	0.0745742
104	0x3d069e35	0.03286572
105	0xbd47c509	-0.04877189
106	0x3d4c0dc8	0.04981783
107	0xbd6f1e8d	-0.058378745
108	0x3cbf755a	0.023371387
109	0x3baed943	0.005335958
110	0xbd9add0b	-0.07561692
111	0xbd37685b	-0.044777256
112	0xbe9ad278	-0.302387
113	0xbde498b2	-0.11161937
114	0x3c61c69f	0.013780265
115	0x3d6b6ccd	0.057476807
116	0x3e3e7ee6	0.18603095
117	0x3d389dd6	0.0450724
118	0xbddd4f50	-0.10806143
119	0xbc807428	-0.015680388
120	0x3c17670a	0.009240875
121	0x3c30fcfe	0.010802506
122	0xbd32eb61	-0.043681506
123	0xbda33098	-0.07968253
124	0x3ce8f9ab	0.028439363
125	0xbdbde6ac	-0.09272513
126	0xbd7aae07	-0.06120112
127	0xbd87e9b2	-0.06636371
128	0x3bd78e99	0.0065782783
129	0x3d8c1da8	0.06841594
130	0x3d1e3e4e	0.038633637
131	0x3d3236bd	0.043509234
132	0xb9fcba58	-0.00048204022
133	0xbd87c96e	-0.066302165
134	0xbd3751d8	-0.044755787
135	0x3d507eee	0.0509023
136	0x3d6813b0	0.0566594
137	0x3e3f64e9	0.18690838
138	0xbe305ef5	-0.17223723
139	0xbe11399a	-0.1418213
140	0xbb854a8c	-0.0040677246
141	0x3c9b1f21	0.018935742
142	0xbdb7eafc	-0.089803666
143	0xbd25afab	-0.040450733
144	0xbe184e96	-0.14873728
145	0x3ccf3f2a	0.025298674
146	0xbdaafc24	-0.08348873
147	0x3c40d6c1	0.011769951
148	0xbe0571e5	-0.13031729
149	0x3dbad4b1	0.09122599
150	0x3c8a1e1d	0.016860062
151	0xbd5ac04b	-0.05340604
152	0xbc17ef15	-0.00927331
153	0xbb52285d	-0.0032067515
154	0xbce7f158	-0.028313324
155	0xbd052211	-0.03250319
156	0x3d6ed819	0.058311556
157	0x3ddf19ba	0.10893579
158	0xbdbcec9b	-0.092248164
159	0xbd2482cb	-0.040163796
160	0xbd6c9b37	-0.057765212
161	0x3c551176	0.013004651
162	0x3d564b61	0.05231798
163	0xbda84166	-0.08215599
164	0xbdf31094	-0.118683964
165	0x3d006e93	0.03135545
166	0x3dec2cec	0.11532006
167	0xbd2ada3d	-0.041712034
168	0x3dfc6467	0.12323838
169	0x3caa5dae	0.020796623
170	0x3d6cdbcd	0.057826806
171	0xbd178b74	-0.036998227
172	0x3d082cbc	0.033245787
173	0x3cf6b102	0.0301137
174	0x3dd383e3	0.1032789
175	0x3e286725	0.16445597
176	0xbc7a64b8	-0.015282802
177	0x3dc67a44	0.09691289
178	0x3acf90db	0.0015836017
179	0x3b9db87a	0.004813251
180	0xbbd01e8c	-0.0063512977
181	0x3db42385	0.08795837
182	0x3d0be6d1	0.03415567
183	0x3de8a911	0.11360372
184	0x3d984fef	0.07437121
185	0xbd00d4aa	-0.031452812
186	0xbd2f461a	-0.042791463
187	0xbe02aaac	-0.12760419
188	0xbda20ae0	-0.079122305
189	0xbc0223ef	-0.007943138
190	0xbcfc4aaf	-0.03079733
191	0x3daa97b4	0.08329716
192	0x3c51f779	0.01281535
193	0x3d68421d	0.056703676
194	0x3d8c49f0	0.0685004
195	0xbcd7c685	-0.026339779
196	0xbcf63c0f	-0.030057935
197	0xbdd5b445	-0.10434774
198	0x3d2a5165	0.04158153
199	0x3cfae751	0.030627878
200	0x3c3dd8f0	0.011587366
201	0xbd43a1a8	-0.04776159
202	0x3b9990cb	0.00468645
203	0x3d51afc6	0.05119302
204	0x3cab3dc6	0.02090348
205	0xbd48c8ad	-0.049019504
206	0x3c541e71	0.012946711
207	0x3ca1f8a5	0.019771883
208	0xbcab84e0	-0.020937383
209	0xbda4a064	-0.080384046
210	0x3bff853e	0.007797866
211	0x3deee3b6	0.11664526
212	0x3d69bf39	0.05706713
213	0xbe1b8d6f	-0.15190671
214	0x3dbea0aa	0.09307988
215	0xbc697efd	-0.014251468
216	0x3cd956f7	0.026530726
217	0x3d8426cd	0.06452713
218	0x3b2e1d98	0.0026567932
219	0xbd07840d	-0.033084918
220	0x3c49f965	0.012327527
221	0xbc8704ea	-0.016481835
222	0xbd927c74	-0.07152644
223	0xbc5521f2	-0.0130085815
224	0x3c7aa730	0.01529865
225	0xbc71ee55	-0.014766295
226	0xbd2bc2fb	-0.041933995
227	0x3c5dceb8	0.013538055
228	0x3d4f42fd	0.050600994
229	0x3d3176b2	0.043326087
230	0x3d5d3ad8	0.054011196
231	0x3d2bac52	0.041912384
232	0x3d462380	0.0483737
233	0x3d378672	0.04480595
234	0xbc8264a9	-0.01591714
235	0xbcd1ea45	-0.025624404
236	0x3d1ce6e1	0.03830612
237	0x3c1dbc2d	0.009627384
238	0xbbf42256	-0.007450382
239	0x3c8a5e7b	0.016890755
240	0x3b59bec3	0.0033225275
241	0x3dbbd621	0.09171701
242	0x3d0a10e0	0.0337075
243	0xbd43de93	-0.047819685
244	0xbd4f008d	-0.050537635
245	0xba53c59e	-0.00080784585
246	0xbd2ab3e6	-0.04167547
247	0x3d25d96f	0.040490564
248	0xbca1f1e7	-0.019768668
249	0xbcaba0a3	-0.020950621
250	0xbcc24b77	-0.023717625
251	0xbce5a4f2	-0.028032754
252	0x3d6fe4e0	0.05856788
253	0xbd05e3f2	-0.03268809
254	0xbd233cd3	-0.03985293
255	0x3d928df5	0.071559824

dense1.bias f4 [128]
0	0x3dc2fbcf	0.09520685
1	0xbd056ec9	-0.032576356
2	0xbd0348d2	-0.03205187
3	0x3d9503c4	0.07276109
4	0x3d9c5aba	0.07634492
5	0x3d85c129	0.06530983
6	0x3d676370	0.056491315
7	0x3c86b194	0.016442098
8	0xbce74fd2	-0.028236303
9	0x3da81895	0.08207814
10	0xbccc6909	-0.024952428
11	0xbc9317af	-0.01795563
12	0xbd63e077	-0.05563399
13	0x3e0b4bce	0.13603136
14	0xbd54202b	-0.05178849
15	0xbd8139cd	-0.06309853
16	0xbd25e92b	-0.04050557
17	0x3dd7fa2d	0.10545764
18	0xbd45f549	-0.048329625
19	0x3ce09c51	0.027418287
20	0x3d70d349	0.058795247
21	0x3d81826f	0.06323706
22	0xbcc5e688	-0.024157777
23	0xbd1b0146	-0.03784301
24	0xba84ffcb	-0.0010147033
25	0x3df15668	0.11784059
26	0x3a76e845	0.0009418766
27	0x3e043fdd	0.12914987
28	0x3d886669	0.06660158
29	0x3d0d227d	0.03445672
30	0xbd67e940	-0.05661893
31	0x3e2e4e1b	0.17021982
32	0xbc828aaf	-0.01593527
33	0x3db0683d	0.08613632
34	0x3d0d5b24	0.034510747
35	0x3dee53d7	0.11637085
36	0xbc19d43f	-0.009388982
37	0xbd24bd47	-0.04021957
38	0xbd00c70e	-0.031439833
39	0xbb2b81b3	-0.0026169836
40	0xbca1463d	-0.019686813
41	0x3ce211b4	0.027596332
42	0xbc54bf93	-0.012985128
43	0x3cf2263b	0.029559245
44	0x3d44a744	0.04801108
45	0x3d3665e6	0.04453077
46	0x3d2673b0	0.040637672
47	0xbd15746a	-0.036487974
48	0x3b942c34	0.004521871
49	0xbd7312fd	-0.05934428
50	0x3d9c1927	0.07621985
51	0x3c2a6934	0.010401059
52	0xbd281195	-0.041032393
53	0x3cb9e4c0	0.022692084
54	0xbd00986e	-0.03139537
55	0x3cec2bcd	0.02882948
56	0xbc66838a	-0.014069447
57	0x3d2ab21f	0.041673776
58	0x3d11ec22	0.035625584
59	0x3d08f38e	0.033435397
60	0x3deac657	0.114636116
61	0x3d218669	0.039434824
62	0x3b5d2bf0	0.0033748113
63	0xbcb3a57b	-0.021929493
64	0xbc507c6b	-0.012724976
65	0x3d831978	0.06401342
66	0x3e10fb8e	0.1415846
67	0xbdb57f5b	-0.08862182
68	0x3cc95604	0.024577148
69	0x3da772ce	0.08176194
70	0x3d4d4144	0.05011107
71	0x3c952e1c	0.018210463
72	0x3de5efb1	0.11227358
73	0x3c8a04f7	0.01684807
74	0xbc6348ea	-0.013872365
75	0x3d28fd85	0.0412574
76	0x3e07e82b	0.13272159
77	0xbce042ec	-0.02737566
78	0x3bf84b00	0.0075773
79	0x3ccf40e2	0.025299493
80	0x3e187489	0.14888205
81	0x3c84304d	0.016136313
82	0x3d509010	0.05091864
83	0x3d8fa0cf	0.07013094
84	0xbd4d3ae0	-0.050104976
85	0x3e28872e	0.16457817
86	0x3913b205	0.0001408533
87	0xbd641636	-0.055685245
88	0xbde1c5ab	-0.1102403
89	0x3c7c9469	0.015416243
90	0x3dc442c4	0.09583047
91	0x3da119a3	0.07866218
92	0x3ddb8c1c	0.10720083
93	0x3da317ac	0.079634994
94	0xbd8db580	-0.06919384
95	0x3bb84f41	0.005624682
96	0x3cb01b43	0.021497374
97	0x3ac304e3	0.0014878776
98	0x3cbe35d3	0.023219025
99	0x3d3e621a	0.046480276
100	0xbd2a551c	-0.041585073
101	0x3cb066b4	0.021533348
102	0x3c9f3efd	0.019439215
103	0xbd6517dc	-0.055930957
104	0x3db920f6	0.0903949
105	0x3d047969	0.03234235
106	0xbdb807b4	-0.08985844
107	0xbc7c2ec6	-0.015392011
108	0x3d04324d	0.032274533
109	0x3d91fb78	0.07128042
110	0xbb9cdb48	-0.0047868825
111	0x3d8e63ff	0.069526665
112	0x3c7a9fa4	0.01529685
113	0xbd1495d8	-0.036275715
114	0x3cc2eb86	0.023793947
115	0x3c6fbe99	0.014632844
116	0xbd865cd1	-0.06560672
117	0x3ba6d1f0	0.0050909445
118	0x3e015738	0.12630928
119	0x3cc00d00	0.023443699
120	0x3d75990f	0.05996042
121	0x3cc05013	0.023475682
122	0x3daa72f4	0.08322707
123	0xbd865426	-0.06559019
124	0x3e74fd65	0.23924787
125	0xbd280714	-0.041022375
126	0x3d19dca3	0.03756393
127	0x3d0a392b	0.033745926

dense2.weight f4 [64, 128]
0	0xbe0430f9	-0.12909307
1	0x3d9816dd	0.07426236
2	0xbda996f0	-0.08280742
3	0x3d37da2f	0.04488581
4	0x3cbbb4bb	0.022913327
5	0xbdf2c427	-0.11853819
6	0xbdc3a95b	-0.09553786
7	0x3d624c8b	0.05524878
8	0x3d8128d8	0.063066185
9	0x3c47072d	0.012147707
10	0xbe8df833	-0.27728423
11	0xbd10a71f	-0.03531563
12	0x3b0a0b70	0.0021063946
13	0x3dac0bfd	0.08400724
14	0x3c9f5840	0.01945126
15	0x3cd30aa1	0.025761904
16	0xbd99b853	-0.0750586
17	0xbe9a8918	-0.3018272
18	0x3c85aff1	0.016319247
19	0xbe0314ff	-0.12800978
20	0x3df12c0d	0.1177598
21	0x3dcf67c8	0.101272166
22	0x3e59840e	0.21241781
23	0x3d8a8ac1	0.067647465
24	0x3d7fcd17	0.06245145
25	0xbdaeef8e	-0.08541785
26	0xbd863ab9	-0.06554169
27	0x3ddb752c	0.10715708
28	0x3da0b290	0.07846558
29	0x3cfe838a	0.031068582
30	0xbc93a25e	-0.018021759
31	0xbe783085	-0.24237259
32	0xbd2b2d35	-0.04179116
33	0xbcaf6fea	-0.02141567
34	0xbdebb297	-0.11508673
35	0x3d47dad6	0.048792683
36	0x3c5eb2af	0.013592406
37	0xbc8379bb	-0.016049257
38	0x3d8f3598	0.06992644
39	0xbe1e6571	-0.15468384
40	0xbd795dd2	-0.06088049
41	0xbe0d48c3	-0.13797288
42	0xbd14f2fb	-0.036364537
43	0x3de1cca8	0.11025363
44	0x3d8a5b05	0.06755642
45	0x3d023955	0.031792957
46	0xbdc4e7d7	-0.096145324
47	0xbca9063a	-0.020632852
48	0x3d85824c	0.06518993
49	0x3d934e3e	0.07192658
50	0xbc8c0766	-0.017093372
51	0xbd1d71a6	-0.03843846
52	0xbcb34a50	-0.02188602
53	0x3abfe3cb	0.0014640031
54	0xbd99d184	-0.07510665
55	0xbd34ee7e	-0.044172756
56	0xbd89e70d	-0.067335226
57	0x3d130074	0.035889104
58	0x3d4756e4	0.04866685
59	0xbc4789af	-0.012178822
60	0x3d8a8255	0.0676314
61	0xbde4059c	-0.111338824
62	0x3d06beb2	0.032896705
63	0xbc9b1a30	-0.018933386
64	0xbd5956d3	-0.053061318
65	0x3dec7708	0.11546141
66	0x3c9762e7	0.018479778
67	0xbcdd307e	-0.027000662
68	0x3e4cbbf2	0.1999357
69	0xbdbcc89f	-0.09217953
70	0x3e8b26a5	0.2717792
71	0xbd92f2b1	-0.07175196
72	0xbd3fed7b	-0.04685734
73	0x3ce7f3b0	0.028314441
74	0xbca61dfa	-0.020277966
75	0xbd0d583c	-0.034507975
76	0xbbf622ce	-0.0075114733
77	0x3d10520e	0.035234503
78	0x3ddb06de	0.10694669
79	0xbdec424b	-0.11536082
80	0x3d8f17c3	0.06986954
81	0xbdbf0168	-0.0932644
82	0x3e2ee02b	0.17077701
83	0xbda6a29d	-0.08136485
84	0x3d04d3ee	0.032428674
85	0x3ea238d4	0.3168398
86	0x3e196dac	0.14983243
87	0x3d42d447	0.047565725
88	0xbe200487	-0.15626727
89	0xbd8fd430	-0.070228934
90	0x3c93f09c	0.018059067
91	0x3e394aea	0.18094984
92	0x3cb81665	0.022471616
93	0xbd61e6a6	-0.055151604
94	0xbe0a8f2c	-0.13531178
95	0xbd8a2db1	-0.06746996
96	0xbd1ed971	-0.038781587
97	0x3d33b8a6	0.043877266
98	0xbe05ecae	-0.13078567
99	0x3c9a2f99	0.018821524
100	0xbc980e53	-0.018561518
101	0xbd00f9e3	-0.03148831
102	0xbc26ee67	-0.0101886755
103	0xbd3ad113	-0.045609545
104	0x3e186926	0.14883861
105	0x3bef4fdb	0.0073032207
106	0x3c9a1a3c	0.018811338
107	0x3cc95436	0.024576288
108	0xbd5a2a9b	-0.053263288
109	0xbdeecc43	-0.116600536
110	0xbd23c2f0	-0.03998083
111	0xbe0c8e78	-0.13726223
112	0xbd5e0657	-0.054205265
113	0x3d53d7bb	0.05171941
114	0x3e1f14a6	0.1553522
115	0x3bde0be2	0.006776319
116	0xbdbdf10c	-0.09274492
117	0xbd300c4c	-0.042980477
118	0x3df094e4	0.11747149
119	0xbe307b08	-0.17234433
120	0x3e246ee7	0.16057931
121	0x3d910a86	0.07082085
122	0x3e2a52b8	0.16633117
123	0x3c6b4210	0.014359012
124	0xbc83031a	-0.01599269
125	0x3d3a5fc9	0.045501504
126	0x3e97806c	0.29590166
127	0xbd0e2538	-0.034703463
128	0x3e507277	0.20356165
129	0xbd001f37	-0.03127977
130	0x3d3edf39	0.0465996
131	0xbe0f9f85	-0.14025696
132	0xbdadb25b	-0.08481284
133	0x3de033e7	0.109473996
134	0xbc8ebec7	-0.017424954
135	0xbbdc376a	-0.006720473
136	0xbb4c6203	-0.003118635
137	0x3db1286d	0.08650289
138	0xbc920819	-0.017826127
139	0x3c7afd33	0.015319156
140	0xbcaaebca	-0.020864386
141	0xbd5f178a	-0.054465808
142	0x3d683341	0.056689505
143	0xbd2b31a9	-0.041795406
144	0xbbf806f3	-0.007569188
145	0x3dcdb77c	0.100447625
146	0x3da83a06	0.08214192
147	0x3ea3c913	0.31989345
148	0x3db066be	0.086133465
149	0x3d94455c	0.07239792
150	0x3d9d7618	0.0768854
151	0xbcdf698c	-0.027272008
152	0xbc0e4263	-0.00868282
153	0x3da13ed4	0.07873312
154	0xbd19c001	-0.037536625
155	0xbd2e5fe2	-0.04257191
156	0xbc7c2e2b	-0.015391867
157	0xbd7554fe	-0.059895508
158	0x3dd82134	0.10553208
159	0xbd900792	-0.07032694
160	0x3b01c56b	0.0019801508
161	0x3d003e0b	0.03130917
162	0x3de5b11f	0.11215424
163	0xbcd92b05	-0.026509771
164	0xbcafaff6	-0.02144621
165	0x3b71eab5	0.0036913578
166	0x3b23e14b	0.0025006111
167	0xbdcbbac3	-0.09947731
168	0x3c23374b	0.009961913
169	0xbb4bb856	-0.0031085215
170	0x3d2b8be5	0.04188146
171	0x3d3ce2ee	0.046114855
172	0xbd896842	-0.06709339
173	0xbd95c58b	-0.07313069
174	0x3d893318	0.066991985
175	0xbb8490e0	-0.0040455908
176	0x3d4010f4	0.046891168
177	0x3d85adcb	0.06527289
178	0x3e138861	0.14407493
179	0x3cffd369	0.031228738
180	0xb6db8e81	-6.5432982e-06
181	0xbc01067f	-0.007875084
182	0xbd27797c	-0.04088734
183	0xbd1ab5a3	-0.03777088
184	0x3d2aa4e3	0.041661154
185	0xbd841f64	-0.064513
186	0xbc5422c6	-0.012947744
187	0xbd22729b	-0.039660078
188	0x39977698	0.00028889324
189	0x3e0762d6	0.13221297
190	0xb93f8f0f	-0.00018268473
191	0x3d057d3a	0.03259013
192	0x3dadb4c7	0.08481746
193	0xbd25fe2e	-0.040525608
194	0xbe05ee19	-0.13079108
195	0xbd9670a8	-0.07345706
196	0x3dee9fb7	0.11651557
197	0xbc36a553	-0.011147815
198	0xbd80ca9d	-0.062886454
199	0xbd6babd4	-0.057536915
200	0xbd570e77	-0.05250403
201	0xbc4b3715	-0.012403269
202	0xbd2d25a7	-0.042272236
203	0xbdf6471b	-0.12025281
204	0xbd6b5de3	-0.057462584
205	0x3d9853f3	0.07437887
206	0x3c9f0b41	0.019414546
207	0xbd7b5b1b	-0.06136618
208	0x3bcb7b33	0.006209755
209	0x3d834ed4	0.0641152
210	0xbd0299de	-0.03188502
211	0xbd515083	-0.051102173
212	0xbe0d2001	-0.1378174
213	0x3ccb4cb3	0.024816846
214	0xbd2f5fd0	-0.042815983
215	0x3d57b486	0.052662395
216	0xbe049812	-0.12948635
217	0xbe00653f	-0.12538622
218	0xbdfd15b1	-0.12357653
219	0x3d950cb4	0.072778136
220	0xbddabb60	-0.1068027
221	0x3c4ae4e5	0.012383674
222	0xbdb1d20d	-0.08682642
223	0x3d86aee0	0.065763235
224	0xbe0baf5f	-0.13641118
225	0xbe78c35f	-0.24293278
226	0xbcad154c	-0.02112832
227	0x3d9d9a8b	0.07695492
228	0x3d93dedf	0.07220244
229	0xbdc70423	-0.09717586
230	0xbd32b769	-0.043631945
231	0x3e198c15	0.14994843
232	0xbd4361ae	-0.047700576
233	0xbc814a45	-0.015782485
234	0xbd13be91	-0.03607041
235	0x3e48742e	0.19575569
236	0xbd688b41	-0.056773428
237	0x3db442aa	0.08801778
238	0x3d32bd25	0.043637414
239	0xbd81a4ff	-0.06330299
240	0x3da118a8	0.07866031
241	0x3c9632c4	0.018334754
242	0xbddb5c6c	-0.107109874
243	0x3cdf1ce1	0.02723545
244	0xbdaaf7c0	-0.08348036
245	0xbcbe24a0	-0.023210824
246	0x3c581a6e	0.013189895
247	0x3e0101a5	0.12598284
248	0xbe111fca	-0.14172283
249	0x3bf49c7e	0.0074649444
250	0xbc0a3739	-0.008436018
251	0xbe75fb1f	-0.24021576
252	0x3de6d0a7	0.11270266
253	0xbb5417e6	-0.0032362877
254	0xbda46c19	-0.080284305
255	0xbb9a9b10	-0.004718192

dense2.bias f4 [64]
0	0x3ddf2d65	0.1089733
1	0xbd0b7db5	-0.03405543
2	0xbd85f52a	-0.06540902
3	0x3dbc6417	0.09198778
4	0xbb728489	-0.0037005267
5	0x3cc73bec	0.024320565
6	0x3d9985bb	0.0749621
7	0x3d8c9d00	0.06865883
8	0xbd2d3361	-0.042285327
9	0x3d908ca9	0.07058079
10	0xbcad638c	-0.021165632
11	0x3d9b4659	0.07581777
12	0xbdcde14d	-0.10052738
13	0xbcd9f8c1	-0.026607873
14	0x3e1fdf7f	0.156126
15	0xbd5302a3	-0.051516186
16	0xbdabe464	-0.083931714
17	0x3e22f539	0.15913858
18	0xbc3616a9	-0.011113801
19	0x3e1877b7	0.14889418
20	0x3d5f192b	0.05446736
21	0x3e1edbb7	0.15513502
22	0x3db34c13	0.087547444
23	0x3c8adcc9	0.016950982
24	0x3d4d3535	0.05009957
25	0xbde5d72e	-0.11222683
26	0x3c2a9fa3	0.010414037
27	0xbdc3ef75	-0.09567157
28	0xbda6b2c1	-0.08139563
29	0x3d1dc6cb	0.038519662
30	0xbb5cf47c	-0.003371506
31	0xbd9df4cb	-0.07712706
32	0x3bd4d68a	0.0064953016
33	0x3d919cb0	0.07109964
34	0x3d5599c7	0.052148607
35	0x3cd997fc	0.02656173
36	0xbc86c3f3	-0.016450858
37	0xbb6a59f8	-0.0035759192
38	0x3d02dd0a	0.03194908
39	0x3c31cb6d	0.010851723
40	0xbc1b278a	-0.009469876
41	0x3dc36667	0.09541016
42	0xbd643c95	-0.055721838
43	0x3aef24cf	0.0018245223
44	0x3dfca16c	0.12335476
45	0x3dc85355	0.09781519
46	0x3d0ec38d	0.03485446
47	0x3e11acfc	0.14226145
48	0x3c9bdb7e	0.01902556
49	0x3d81ca6f	0.06337439
50	0xbd494173	-0.049134683
51	0x3d0f42b3	0.03497572
52	0xbd93dd4f	-0.07219946
53	0xbdb9801e	-0.090576395
54	0xbabbd781	-0.0014331193
55	0xbdbad4cf	-0.09122621
56	0x3c93eda2	0.018057648
57	0xbcd9d628	-0.026591375
58	0xbd2727e7	-0.04080954
59	0xbcfd497e	-0.030918833
60	0xbcec7525	-0.028864453
61	0xbd714c5d	-0.058910716
62	0x3d76542d	0.06013887
63	0x3d135bd9	0.035976265

final.weight f4 [20, 64]
0	0xbe6803f0	-0.22657752
1	0xbe4c55ee	-0.19954655
2	0xbca351b6	-0.019936424
3	0x3d9457b1	0.07243288
4	0x3b98b862	0.004660652
5	0xbddc865f	-0.10767817
6	0xbd7b4dcf	-0.0613535
7	0x3d318558	0.043340057
8	0xbde688d6	-0.11256568
9	0xbe9143cb	-0.28372034
10	0xbe156ac8	-0.14591515
11	0xbe932efd	-0.28746787
12	0x3dba5db7	0.09099906
13	0x3dd2b329	0.10288078
14	0x3d2eb7c7	0.042655732
15	0xbe2faeaa	-0.17156473
16	0xbdbe6586	-0.09296708
17	0x3d0e219a	0.034700014
18	0xbde65507	-0.112466864
19	0xbc576ab6	-0.013148
20	0xbe06da20	-0.13169146
21	0xbec84ac0	-0.3911953
22	0xbbafc0a6	-0.0053635417
23	0xbe0f84bf	-0.14015482
24	0xbd75e925	-0.060036797
25	0x3ddf5e42	0.1090665
26	0x3dc8ac42	0.097984806
27	0xbf0b3740	-0.5438118
28	0xbdf5cb53	-0.12001672
29	0xb9850a4a	-0.00025375403
30	0xbcf0ab25	-0.029378483
31	0xbda592b1	-0.0808462
32	0x3d9fcfb8	0.07803291
33	0xbdf6a6e9	-0.12043554
34	0xbe8bff29	-0.2734311
35	0xbd32c85d	-0.043648113
36	0x3e26af60	0.16277838
37	0xbd32aa07	-0.043619182
38	0xbcc5ad53	-0.024130499
39	0xbd90dff2	-0.07073964
40	0x3d9785e2	0.07398583
41	0xbe1b3b66	-0.15159377
42	0xbdb4d391	-0.088294156
43	0x3e7c26ac	0.24624127
44	0x3e24335a	0.16035214
45	0x3d1fb31e	0.03898918
46	0xbe37d056	-0.17950568
47	0x3b7dfd80	0.0038755834
48	0x3da36c79	0.07979674
49	0x3e469626	0.19393215
50	0x3e07aa29	0.13248505
51	0xbcafac29	-0.021444397
52	0x3de68e96	0.11257665
53	0x3da186d2	0.07887043
54	0x3e0f1f57	0.13976799
55	0x3e62c7c7	0.22146522
56	0x3dcaba68	0.098988354
57	0x3e06d97a	0.13168898
58	0x3df67d4f	0.120356195
59	0x3dad147e	0.08451174
60	0xbe1cad0c	-0.15300387
61	0x3dd05dc4	0.101741344
62	0xbdf4b951	-0.11949409
63	0x3e05d624	0.1306997
64	0xbf0b33cc	-0.5437591
65	0xbe30d6bc	-0.17269415
66	0xbdddd50c	-0.10831651
67	0x3e0914ee	0.1338689
68	0x3e0b7409	0.13618483
69	0xbd8663ac	-0.0656198
70	0x3da68dab	0.0813249
71	0x3d30f62d	0.04320352
72	0xbe21ccb2	-0.15800741
73	0xbdd04f41	-0.101713665
74	0xbe60e35d	-0.21961732
75	0xbe67ae84	-0.22625166
76	0xbad9858f	-0.001659559
77	0xbd90fe04	-0.070797
78	0x3b95870f	0.0045632194
79	0x3c7b2878	0.015329473
80	0xbe3392a4	-0.17536408
81	0xbd096ada	-0.033549167
82	0xbd422bee	-0.047405176
83	0x3d3c44d4	0.045964077
84	0x3d6642ef	0.056216177
85	0x3d1ecb1a	0.03876791
86	0x3de60ad7	0.11232536
87	0xbe54db4f	-0.20786785
88	0xbd74b38b	-0.059741538
89	0x3dc567ff	0.09638976
90	0x3dc23477	0.09482663
91	0xbd77c0c1	-0.06048656
92	0xbd1fbb5e	-0.038997047
93	0xbc9aa1e6	-0.018876027
94	0xbd61c5c4	-0.055120245
95	0xbe1ac368	-0.15113604
96	0xbc13afc1	-0.009014071
97	0x3e1bec97	0.1522697
98	0x3e176677	0.14785181
99	0xbde87116	-0.113496944
100	0x3d89a612	0.067211285
101	0xbcc66b0b	-0.024220964
102	0xbdeb227c	-0.11481187
103	0xbca5c25f	-0.020234285
104	0x3e2153f7	0.15754686
105	0x3def615c	0.11688492
106	0xbdb8d690	-0.090252995
107	0x3dba4f2c	0.09097132
108	0xbd3741dd	-0.044740546
109	0xbd80d046	-0.06289725
110	0xbd07ddf9	-0.033170674
111	0x3db15f25	0.086607255
112	0xbd222fff	-0.039596554
113	0xbb637bc0	-0.0034711212
114	0xbe0bdf8f	-0.136595
115	0x3cf5a169	0.029984193
116	0xbdf9f3a6	-0.122046754
117	0x3e32b96b	0.17453544
118	0x3b67b717	0.0035356933
119	0x3c48ca0a	0.012255201
120	0xbdd009c3	-0.10158112
121	0xbe0853ba	-0.13313189
122	0x3dd86b51	0.10567344
123	0xbcb92c20	-0.022604048
124	0xbdd27fc3	-0.10278275
125	0x3d87ef97	0.06637495
126	0xbe8b9153	-0.2725931
127	0x3d018851	0.031624142
128	0xbe51f652	-0.2050412
129	0xbe147059	-0.14495982
130	0x3d9a6989	0.075396605
131	0x3e001abe	0.12510201
132	0x3c91b172	0.017784808
133	0xbcf0c62e	-0.029391374
134	0x3d549f4f	0.05190974
135	0x3db23dc4	0.08703187
136	0xbddb3430	-0.10703313
137	0x3d2fa93c	0.042886004
138	0x3d6f229a	0.058382608
139	0xbdfb22f5	-0.12262527
140	0xbd5a205b	-0.053253513
141	0x3db75aa7	0.089528374
142	0xbe6a7642	-0.22896674
143	0xbe103725	-0.14083536
144	0xbdf94f6e	-0.12173353
145	0x3c688c5e	0.014193622
146	0x3c454cfb	0.012042279
147	0x37716909	1.4389175e-05
148	0x3e374a6c	0.17899483
149	0x3d3d56c2	0.046225317
150	0xbd84bf07	-0.06481748
151	0xbd409cc9	-0.047024522
152	0x3d2feb54	0.042949036
153	0xbdceee39	-0.10104031
154	0x3d891d96	0.06695096
155	0x3e1ca09f	0.15295647
156	0x3cf90714	0.030398883
157	0xbcf7ca81	-0.030247929
158	0xbe8a2876	-0.26983994
159	0xbe16df7b	-0.14733689
160	0xbdcca66e	-0.099926814
161	0x3cac82c8	0.021058455
162	0xbe07e78a	-0.13271919
163	0xbd612fb2	-0.054977126
164	0xbe0129f6	-0.12613663
165	0x3d955e2c	0.072933525
166	0xbcf01abe	-0.029309627
167	0xbd97981a	-0.07402058
168	0x3d91e6d3	0.07124104
169	0x3cee6d85	0.029104957
170	0xbd9dfd2c	-0.07714304
171	0x3d3dff52	0.04638607
172	0xbe063c04	-0.13108832
173	0xbc99d71b	-0.018779328
174	0xbdf70542	-0.1206155
175	0x3d43053a	0.047612406
176	0xbd2c8dda	-0.042127468
177	0x3df1c177	0.118044786
178	0xbe775cae	-0.24156448
179	0x3d79e39d	0.061008085
180	0xbdffe5c2	-0.12494995
181	0x3d596a5e	0.053079955
182	0xbd89c630	-0.067272544
183	0xbe22b254	-0.1588834
184	0x3dadb5c1	0.084819324
185	0xbdb45113	-0.08804526
186	0x3e27c4dd	0.16383691
187	0xbdba573a	-0.090986684
188	0x3e4b3c8c	0.19847316
189	0xbd42a593	-0.047521185
190	0x3e696b79	0.22794904
191	0xbc5e2e16	-0.013560792
192	0x3b917dd6	0.0044400496
193	0xbdf7867f	-0.120862
194	0xbd9bc0e0	-0.07605147
195	0x3db88be2	0.090110555
196	0xbdee239e	-0.11627887
197	0xbda6879a	-0.08131333
198	0x3de6f065	0.1127632
199	0x3deb8cc9	0.11501462
200	0x3d93906c	0.07205281
201	0xbdb228fa	-0.08699222
202	0x3d7f2507	0.06229117
203	0xbd9bbb3b	-0.07604071
204	0x3c4df47d	0.012570498
205	0xbc9c7f60	-0.019103706
206	0x3e079abd	0.13242622
207	0x3c802519	0.01564269
208	0x3c971de6	0.018446874
209	0x3dd74271	0.105107196
210	0xbdf8c6ed	-0.12147317
211	0xbe13898e	-0.14407942
212	0xbcee98a8	-0.029125527
213	0x3e0046a5	0.12526949
214	0xbde27e38	-0.110592306
215	0x3e1b6be2	0.15177873
216	0x3d3d8020	0.046264768
217	0xbe0b5036	-0.13604817
218	0xbea014ae	-0.31265777
219	0xbb9efd85	-0.004851999
220	0xbce35c52	-0.027753983
221	0xbce79729	-0.028270321
222	0xbe5d7803	-0.21627812
223	0xbdb8bea3	-0.09020736
224	0x3db85faa	0.090026215
225	0x3e1f4b31	0.15556027
226	0x3e110dfc	0.14165491
227	0x3bd5569d	0.0065105692
228	0xbe81137e	-0.25210184
229	0xbeaafa8d	-0.3339428
230	0xbdd344bf	-0.10315847
231	0xbd7933b8	-0.06084034
232	0x3d492b12	0.04911334
233	0x3dd4023f	0.10351991
234	0x3dea972d	0.11454616
235	0x37f30175	2.8968536e-05
236	0x3d2e047c	0.042484745
237	0xbe8cefdd	-0.2752675
238	0xbd8b5132	-0.06802596
239	0x3da059fd	0.07829664
240	0x3d2a22ab	0.04153697
241	0xbc02407e	-0.007949946
242	0x3dd91f75	0.10601703
243	0xbe2ca8da	-0.16861287
244	0x3dc19df2	0.09453954
245	0xbd253563	-0.040334117
246	0x3d0e1b88	0.034694225
247	0xbddcd40b	-0.107826315
248	0xbd7556ac	-0.05989711
249	0xbe03182a	-0.12802187
250	0xbe0a2bc7	-0.13493262
251	0xbd47258c	-0.048619792
252	0xbdca6484	-0.09882453
253	0xbdc4c212	-0.096073285
254	0x3e3a104a	0.18170276
255	0x3d7d1d43	0.061795484

final.bias f4 [20]
0	0x3bbadb99	0.0057024476
1	0x3dffbd94	0.12487331
2	0x3e1bf07d	0.15228458
3	0xbd0fa143	-0.0350659
4	0xbd4cce6b	-0.050001543
5	0x3d87e2ba	0.066350415
6	0xbd07e2da	-0.033175327
7	0x3ba5526e	0.005045227
8	0x3c0b3c6b	0.0084982915
9	0x3e137a38	0.14402092
10	0xbd648bfa	-0.055797555
11	0xbd53071f	-0.051520463
12	0xbdbfba8f	-0.09361755
13	0x3ce99933	0.028515434
14	0xbde702e1	-0.11279846
15	0xbd640f75	-0.055678803
16	0xbe3b199a	-0.18271485
17	0xbcc4eeb4	-0.024039604
18	0xbda33158	-0.07968396
19	0xbe3cdac2	-0.18442824
