Superclass/models/model.onnx (onnx, 255597 bytes, 10 tensors)

conv1.weight f4 [6, 1, 5, 5]
00000000: 4a61 67bd 5bf1 d43e a5ea fe3d 0a77 5dbe
00000010: a19c 8abe 147e 943e 244a 1b3f 7393 d03e
00000020: 7f81 26bd d282 9dbe eea5 d33e a0cf 213f
00000030: c191 043f 8a36 abbe f4bb dcbe e41c d03d
00000040: 8019 c43e 5149 8a3e 7b18 8fbe ca32 b4be
00000050: 93d5 70be 60e0 acbe 2f64 b3be 5111 9abe
00000060: 1bcb dabe ec3b 7e3d 5e04 193c c6e4 7a3e
00000070: 1415 4c3e 2103 623e 88f4 35be 46c7 253e
00000080: 7c23 9e3e ccdd a63e 4e5b 3dbe b25e 6bbd
00000090: b79f 8b3e 1735 5a3e ab36 5b3e f82a 1fbe
000000a0: c9cc 083e af28 8b3e bb78 bc3e c9c2 913e
000000b0: af8c 99bd 19a7 c7bc 2ec0 873e 8265 9f3d
000000c0: 6f99 203d 38fc 8bbd dae9 9abd 05e1 703e
000000d0: 473b 2c3e a72f a8bd 97d0 58be bf99 8a3e
000000e0: a8c4 863e fc48 833d 7eb7 8dbe 8ee3 f8be
000000f0: 3c1b be3e de50 a73e 7f3d 5e3e f9b3 efbe
00000100: 32b5 d7be 347d b63e 00e3 a93e 1167 633d
00000110: d594 bdbe cbe4 9ebd 0b3e f43d 58e6 6f3e
00000120: ca5b 013d 1276 a6be 7477 12be d0f8 07be
00000130: 9ff8 613e cef3 5b3c 935a e63e 0029 893e
00000140: b12b 13be 4685 673d 749b 8fbe cd09 97be
00000150: d304 05be 87ea afbe 7dc7 95be 90f0 08bf
00000160: 9a23 a4be 0fa3 54be acac c2be 222b 40be
00000170: 2564 57bd 2c03 68bd 5b0a af3d 9c4b a3bc
00000180: 2444 ee3c 2c5a 5f3c 0a1b db3e a685 423e
00000190: 1aaf d6be 7e19 cbbe 0c1e d0be 1b45 09be
000001a0: 1850 06be 3849 4bbe 9610 dbbd 441e 133e
000001b0: 15ab 273e dbb6 513d 3fbc afbd 4491 a93e
000001c0: b893 dc3e b313 893a 33ae 93bd f3b8 7fbe
000001d0: 8f4e ad3e f19e d13e 0a43 453e c189 ccbd
000001e0: 1e03 1abe 2f34 ed3d 20fa a33e bae3 843e
000001f0: b5d1 01be 6860 b2bc eda5 d6bd 2e2e 0abe
00000200: 7158 f8bd da5b 263e 2bc7 e1be 7a04 e1be
00000210: 733f a5bc 866e 1b3d 6109 873e c5dc d0be
00000220: 8643 d7be 61a6 8bbe 7f9a 82be 04df a03d
00000230: 9fa0 b63d f0d8 a7be 9804 fcbe 88c7 06bf
00000240: dae7 71be 21ae 973e a033 6bbe 33d0 62be
00000250: b6ac 39be 71cb d43d
-0.056489266 0.4159039 0.12447099 -0.21627441 -0.27072623 0.2900244 0.60660005 0.40737495
-0.04065084 -0.3076387 0.41337532 0.63207436 0.517849 -0.33440048 -0.43112147 0.101617604
0.38300705 0.2700906 -0.27948365 -0.35195 -0.23518972 -0.33764935 -0.35037372 -0.30091336
-0.42733082 0.062068865 0.00933942 0.24501333 0.19929916 0.22071506 -0.17769063 0.16189298
0.30886447 0.32591093 -0.18491861 -0.057463355 0.2727029 0.21309315 0.21407573 -0.15543735
0.1335937 0.27179477 0.3681086 0.28468922 -0.074975364 -0.02437167 0.2651381 0.07783033
0.039208826 -0.06835216 -0.07564135 0.23523338 0.16819488 -0.08212214 -0.2117332 0.27070424
0.26321912 0.06410405 -0.27679056 -0.4861111 0.37130153 0.32678884 0.21703146 -0.46816996
-0.4213043 0.35642397 0.33181 0.055518214 -0.37027612 -0.077584825 0.11925896 0.23427713
0.031581677 -0.32511955 -0.1430338 -0.13278508 0.22067498 0.013424827 0.44990978 0.26789093
-0.14372136 0.056523584 -0.2804829 -0.29499665 -0.12990122 -0.34358618 -0.2925376 -0.5349207
-0.32058412 -0.20765327 -0.38022363 -0.18766454 -0.05258574 -0.05664365 0.08546897 -0.019933514
0.029085226 0.0136323385 0.42794067 0.18996295 -0.41930467 -0.39667886 -0.40647924 -0.13405268
-0.13116491 -0.1985215 -0.10696523 0.14367014 0.16373856 0.051199775 -0.08580827 0.3311864
0.4308145 0.0010458141 -0.0721096 -0.24972896 0.33848998 0.40941575 0.19263855 -0.09987212
-0.15040252 0.11582219 0.32026768 0.25954992 -0.12677653 -0.021774486 -0.104808666 -0.13494179
-0.12126244 0.16245976 -0.44097266 -0.43948728 -0.020171857 0.0379472 0.26374343 -0.40793434
-0.42043704 -0.27275375 -0.25508496 0.07855037 0.08917355 -0.32782698 -0.49222255 -0.5264821
-0.236236 0.29625037 -0.22968912 -0.22149734 -0.1813229 0.10390366

conv1.bias f4 [6]
00000000: 3ce9 e63e d3d4 75bc 1b5d 903e e7cc d33c
00000010: fdf7 c73e 33ed 68be
0.4509982 -0.0150043545 0.28196034 0.025854541 0.39056388 -0.22746734

conv2.weight f4 [16, 6, 5, 5]
00000000: c4ae 233d a111 27bd 0483 43be 52ff 2dbe
00000010: 2a4f e4bc c8de 3f3e 3ac8 5b3d 4970 58bd
00000020: fa64 3f3e 0c57 3e3d 1cdc d13d b1e1 823d
00000030: 1ad5 c93d 89d4 923e 6f92 5b3d 4e7f cebd
00000040: 6cb1 6abe 80d2 c53d cb2b 943d b6e9 053e
00000050: 143a adbd 8c13 a5be 2e3c 04be 5bc8 a6bd
00000060: 4a47 a7be 36ef c03c bcf1 553d be9c 6c3d
00000070: 3e07 a6bb d7f8 b6bd 8ca9 893d e8bd c33d
00000080: 7e75 a33d 1710 113e a61c fbbb bd36 853d
00000090: 4549 b0bd 3e25 073e 5cdc ed3d 2d11 663d
000000a0: 5b61 27bd 6529 bebd cf13 d43d 3da3 443d
000000b0: 5586 77bd 12d7 45be f29c 0bbe 2f69 44bd
000000c0: 6fde c7bd bdea 95bd 25ab 3a3d e259 033d
000000d0: 3fb1 82bd 8084 06bd f0af 03be f279 b3bc
000000e0: f885 fb3b 02b0 e4bd 1a84 6d3e 716f 503e
000000f0: 4836 1ebd 1c31 38be fc31 5bbe 0582 8c3e
00000100: 9892 4f3d 0060 983c 9088 5dbe 1ce7 323c
00000110: 3017 2b3d 81fc a6be ace2 c7bd 100e dbbd
00000120: 786c 533c 8565 503d fcd9 87be d059 18be
00000130: 5c0e 87bd 53b8 33bd 69ec 273c a7dc bc3a
00000140: 28fb e2bd 319f 10be cf6f 08be 1b15 06be
00000150: 8cb9 e63c aa14 083d 2587 82bd 9da8 f9bd
00000160: 169a 68bd 25c2 f0bc 9367 b3bb 7b26 123e
00000170: e139 cf3d e07f adbb 94a9 7f3d 4c61 193d
00000180: 657e 803d 92b1 883c 300a 123e df1f 2d3e
00000190: 056b a13e 9b08 fd3d 3ab3 f63d 4658 56bd
000001a0: a510 a4bd 84a3 e53d 06d3 a23d e09f 533e
000001b0: 9bfc 303e 0e55 bebd c84e 8d3b 9491 473d
000001c0: 8710 483d 69fd 00be da49 9e3d 0147 39be
000001d0: 2e86 5ebd c54a 96be 43fb 2abf 76f1 c1bd
000001e0: ac37 f13d 692f 0d3e bbbf 02bb b2b8 0fbd
000001f0: ed3d 20be c441 ccbd be6d 78bd 16bf 993d
00000200: 3860 d83d 4ce5 7b3d 99a8 e7bd 3b5c 09be
00000210: d9df 9bbd aeaf 05bd b28b 623d 33bd 09bd
00000220: 281c 12bd 2833 75bd 199b 4bbd 91a8 9b3d
00000230: ae3a 853c ecee bc3d dca6 813c 1bc8 e53c
00000240: 9a52 e53d 7185 5b3d 2e3e c33d 3879 2e3d
00000250: 73e4 0cbd 947a 1e3e 1900 48be 64f5 a73d
00000260: ec2b 25b9 6a66 603c 1796 ef3c d3a2 693d
00000270: 6964 e63d a9fc 43be 0c6c 423d eeef ed3d
00000280: 5558 693e c092 b03e 2ef2 c6bd 6c02 633e
00000290: 1efa 183d 48ba fabd a468 61be 8878 a2be
000002a0: baef 64bd b7fa 11be 092a 30bd 2995 83be
000002b0: ed05 a8bd 8422 21bc 2066 d63d 7795 d6bc
000002c0: fb7e 06bd 9179 52bd 1e82 7abd b48a e63c
000002d0: 1fc3 633d 2a96 813d ab70 e7bd 32dc 3bbd
000002e0: e657 643d 0512 193c 3631 7abc 1368 eabd
000002f0: 10b4 68bd 2df9 76bd 08d2 4ebd fc59 493c
00000300: c498 3bbd b93f 433d 2fd2 f7bb 9fd7 d6bd
00000310: 234c 6fbd 8d02 563d b79e bf3d 5d0d 923d
00000320: a30e 79be 2f6c 643e 2338 c63d 36b4 fe3d
00000330: ecdb 823d 1598 2a3e 314a d03e 123f 70be
00000340: 97ac 653e 50c8 283e 4730 f5bc 111f 933e
00000350: 3bb9 24be 734d 823e f487 a7bd 8692 62bd
00000360: cb7b 7dbe dcbe 0dbe 721a e0bd 5c16 42bd
00000370: 0a62 8fbd 471c 1bbe e644 94bc f601 16be
00000380: 33e0 8a3d c68b 0dbe 13c9 1ebd 57c4 dabd
00000390: 45b2 9ebc 0e58 163d 2b16 b9bd a2bd 8bbd
000003a0: f7e2 983a 96d5 3cbd 26bd 4b3d c866 4bbd
000003b0: 7d50 9bbd 2825 ae3c 2fa5 ff3d 43d1 fa3d
000003c0: 6a12 0d3e 7504 163e 9be6 e43d 4b71 333e
000003d0: c49c cc3d 993b cc3b e5e6 1abd 89a2 033c
000003e0: 6088 803d 96cd 523d b0cb 603e 5d82 4d3e
000003f0: 94b2 3fbc deea 5b3d ab93 243d 7b8c 943e
0.03996159 -0.040788297 -0.19092947 -0.16991928 -0.02786978 0.18737328 0.053657748 -0.05284146
0.18690863 0.046469733 0.10247061 0.063907035 0.09855099 0.28677776 0.053606447 -0.10082875
-0.22919244 0.0965929 0.07234915 0.13077435 -0.08458343 -0.32241476 -0.12913582 -0.081436835
-0.32671577 0.023551565 0.05223249 0.05776667 -0.0050667813 -0.08934181 0.067217916 0.09557706
0.07981394 0.14166294 -0.0076633273 0.06504581 -0.08607725 0.131978 0.11614296 0.056168724
-0.04086433 -0.09285239 0.10355341 0.04800724 -0.060430843 -0.19320324 -0.13634089 -0.047951873
-0.09759223 -0.073201634 0.045573372 0.03206814 -0.06381463 -0.032841206 -0.12860084 -0.021908734
0.0076758824 -0.11166383 0.23194924 0.20355012 -0.038625985 -0.17987484 -0.21405786 0.27442947
0.050676912 0.018600464 -0.21634126 0.010919359 0.04177016 -0.3261452 -0.09760031 -0.106960416
0.012904279 0.050878067 -0.26533496 -0.14878011 -0.06594536 -0.043876957 0.010249236 0.0014409021
-0.110830605 -0.14123227 -0.13323902 -0.13093989 0.028164648 0.03322283 -0.06373433 -0.121903636
-0.056787573 -0.02938945 -0.0054749935 0.14272492 0.101184614 -0.005294785 0.06241758 0.037446305
0.06274108 0.016686235 0.14261699 0.16906689 0.31526962 0.12355157 0.120459035 -0.052330278
-0.08010987 0.11212829 0.07950406 0.20666456 0.17283861 -0.09293567 0.00431237 0.04872282
0.048843887 -0.12596668 0.0772893 -0.18093492 -0.054327182 -0.2935392 -0.66789645 -0.09469883
0.11778197 0.13787617 -0.0019950706 -0.03508825 -0.15648623 -0.09973481 -0.060651533 0.0750715
0.10565227 0.06149797 -0.11311454 -0.1341409 -0.07611055 -0.032638244 0.055309005 -0.0336277
-0.035671383 -0.05986324 -0.04970846 0.07600511 0.016263332 0.09225258 0.015826635 0.02804952
0.111973956 0.053594057 0.09533344 0.042596072 -0.034397554 0.15476447 -0.19531287 0.082011014
-0.00015751988 0.013696292 0.029246373 0.057040047 0.112496205 -0.19139351 0.047466323 0.116180286
0.22787602 0.3448696 -0.09714161 0.22168893 0.037347905 -0.122425616 -0.22012573 -0.31732583
-0.055892684 -0.14255796 -0.043008838 -0.25699738 -0.08204255 -0.009834889 0.104686975 -0.026194317
-0.03283594 -0.051385466 -0.061159246 0.02814231 0.055606004 0.0632747 -0.113007866 -0.04586429
0.05574789 0.009342675 -0.015270522 -0.11445632 -0.056812346 -0.060296226 -0.05049327 0.01228952
-0.045799986 0.047668193 -0.0075628976 -0.10490345 -0.05842222 0.052248526 0.09356444 0.07131455
-0.2432199 0.22306894 0.09678676 0.12436716 0.06389603 0.16659577 0.40681604 -0.2346156
0.22429119 0.16482663 -0.029930247 0.2873464 -0.16086285 0.25449714 -0.08180228 -0.055315517
-0.24754255 -0.13842338 -0.10942544 -0.047384605 -0.07001121 -0.15147506 -0.01809926 -0.14649186
0.06781044 -0.1382285 -0.038765978 -0.1068198 -0.019372115 0.03670507 -0.09037431 -0.06823279
0.001166432 -0.04610213 0.049740933 -0.049658567 -0.07583711 0.021257952 0.12482678 0.12246945
0.13776556 0.14650138 0.11176797 0.17523687 0.09990838 0.0062326905 -0.037817854 0.008034357
0.062760115 0.051465593 0.219527 0.20069261 -0.011700291 0.053690784 0.04017989 0.29013428

conv2.bias f4 [16]
00000000: 3563 383e 1574 5fba 6c5f 093e 3cdc fe3d
00000010: 2e36 0c3e 2d84 9bbd f5f7 743e 6f16 e6bc
00000020: 369a 0dbc a0c8 213e eef0 093e 00d2 8e3d
00000030: d853 e93d b700 183e cd81 f43d 4efe 873d
0.18006594 -0.00085240725 0.13415307 0.1244435 0.13692543 -0.0759357 0.23922713 -0.028086869
-0.008642724 0.15799189 0.13470814 0.06973648 0.11392945 0.14844023 0.1193882 0.06640302

dense1.weight f4 [128, 400]
00000000: 65d3 4f3d a371 cb3d 130d b33c ed23 ccbc
00000010: 9977 5bbd 46da 0c3d 3b92 15bb d907 cbbc
00000020: 4240 273c e7a2 003b 218c 71bd 0abb e33d
00000030: 3ea7 8bbd dd6f 29be c604 16be 4147 f53c
00000040: 601c e0bd b721 083e 6cbd 233c 3e9e 7f3b
00000050: a6e3 123c 733c ccbd 35e2 2bba 9bfe fa3c
00000060: c052 c93d f6a4 ab3d d7d4 873c 66ad 5a3d
00000070: d336 133d bad2 c73d 4052 be3d a9bd c83d
00000080: f895 1ebd d566 143e feec 023d f8c4 783d
00000090: 05f0 6ebc ad11 c9bd a2f8 7bbe 8075 0abe
000000a0: 92ea 87bc 78bb fbbb c064 95bd 5d08 fdbc
000000b0: 17ec 463d 9245 92bc 7e6a b8bd f915 70bd
000000c0: e4e7 7b3c 5d9d 56bd 9470 45bb 67f0 da3b
000000d0: 7aed 7e3c 0b34 833c c6db bb3b 8281 353d
000000e0: 4f99 3abc 5a9f 8bbd cc01 8cbd 6a81 b0bd
000000f0: 27cb 233c 431b 543d f53f 36be 3eac 34bd
00000100: c2e9 273c d262 0ebd 9a05 42bb 42fd b0bd
00000110: 0abe a33d 04e7 ffbb ced7 e13c 74ff 9dbc
00000120: 43cc 9a3d 61c5 4a3d 0e06 813d 6175 b43d
00000130: 8a3a 30bd 55f8 b7bd ee59 42bb 9567 793d
00000140: 2dc8 dcbb ea6a 3bbd 3c62 963d d96e dabd
00000150: 0ee3 4b3d ebed 01be c50e 1dbd 3ce2 88bc
00000160: 9657 743d 14ae c43d a374 79bd 371b 4e3d
00000170: bc8e 7a3d 7ee3 45bd 43f6 36be b4fd 60bd
00000180: 5eb5 8abc 1a69 0b3e bbba 0ebe b59b 0dbb
00000190: 3b73 b43c ed41 a93d b60a 503c a96f a33c
000001a0: 14c0 f23c 0c39 893a 4a97 ec3c 7bf7 343e
000001b0: 6cfa b6bd 470a e33c 32ba ab3c c8f0 e9bb
000001c0: 9eae 82bd aac1 42be 5319 123e bf55 0c3d
000001d0: db20 a93d 93c9 8abe 8fff 84be 71c1 47bd
000001e0: 6a2f 993c ecfb f93d 4450 153d 6a0e 4cbe
000001f0: 0807 24be 2a6b 92bc f7a3 153d 286c 883c
00000200: cb04 79bc 3f19 1b3d 017b a03b d762 b73c
00000210: 8f94 df3d 80b8 273e 491d 553d e094 763c
00000220: 1dc4 d83d ffca a03d 1497 f43c 4d9e 33bd
00000230: 6570 43ba 3ba3 ca3d 0b68 8fbc bbf0 1cbd
00000240: 181c afbd 725a 1fbd d2db 443d 3944 c63d
00000250: 00fc 57bd 6fa1 833c 1ea6 9dbb 3731 b3bc
00000260: 1d84 c2bc 4d5e 983d 0860 5db9 f19f 5e3d
00000270: 7b0b 92bc 36c8 e0bd 227d b43d 8c00 3b3d
00000280: 96f5 dfbd 6f22 8b3d 4a23 96bd 522d bebd
00000290: 56a0 60be 4cc4 903c 7d76 90bb 4e86 993d
000002a0: 3865 813c 4e13 013d 0803 d13c 0d0d 53be
000002b0: f74d 963d cbea 54bc 2e6e b93d 1cf9 75bc
000002c0: 47bd 413d 213e 75bd 0804 243d 7ba7 e33b
000002d0: 4cf9 0ebc 23af 67bd 36de 3bbd 8000 5bbc
000002e0: f862 c03d a3f8 8ebd f84b b2bc e7f5 893d
000002f0: dda3 353e dd5f 1a3e fadc 653d 0cfc 81bd
00000300: df0f 3d3d 5a1b 693e d396 ac3d 9d19 993b
00000310: c67b 0e3d ea9d 2bbe 9a25 85bd a779 8ebd
00000320: 7408 b53d 4c00 c53c 06ec c7bb efc4 2d3a
00000330: d2e3 4e3d cbbf 1b3c b097 0ebe 3e40 f9bc
00000340: c32a 663d c20f d43d 7698 2dbd 27f4 973d
00000350: 5742 663d 9173 f33d 57a6 b23c c653 3abc
00000360: c412 853d 496d 2b3d 225a f4bd 848c 19be
00000370: 664d 9dbd 137a 81bc fff5 8fbb 4a04 07be
00000380: 58cb b9bc ac21 a93d c062 a83c cb94 603d
00000390: 2ab0 3b3d 7c96 cebc f3d3 9e3c fc5b babd
000003a0: 8d47 66bc ecbf ebbc 9332 4a3d 3f16 9d3d
000003b0: 26d7 063e 7d85 bcbc 4d67 30bd 4d5f da3d
000003c0: 266a 983d 7b84 b73c fc36 283d c608 b2bb
000003d0: 0085 7b3d 9b3d 3b3a cdcd c5bd c4b4 fa3d
000003e0: 9c64 053e e6fb c23d 91a6 bcbc 3597 a9bd
000003f0: 4635 623d d1ab 9a3d 85dc bfb9 eb53 653d
0.05073871 0.09933784 0.02185682 -0.024919474 -0.053580854 0.03438785 -0.0022822756 -0.024784015
0.010208191 0.0019628347 -0.058971528 0.11119659 -0.06819008 -0.16546579 -0.14650258 0.029941203
-0.10942912 0.13294111 0.009993892 0.0039004232 0.008965408 -0.09972467 -0.000655684 0.030638983
0.098302364 0.08381073 0.016580982 0.053388022 0.035940956 0.0975699 0.09293032 0.098018
-0.03871724 0.14492352 0.031964295 0.06073472 -0.014583592 -0.098178245 -0.24606565 -0.13521385
-0.016591344 -0.00768226 -0.07294607 -0.030887777 0.048564997 -0.01785544 -0.09004687 -0.058614705
0.015375111 -0.052396167 -0.0030126916 0.00668149 0.0155595485 0.016016027 0.005732986 0.04431296
-0.011389091 -0.06817503 -0.0683628 -0.08618434 0.009997166 0.05178381 -0.17797835 -0.044109575
0.010248603 -0.03476221 -0.002960539 -0.08642055 0.079952314 -0.0078095216 0.027568724 -0.019286849
0.07558491 0.04950464 0.06299983 0.08811451 -0.043024577 -0.089829125 -0.0029655653 0.0608898
-0.00673773 -0.045756258 0.073429555 -0.10665674 0.049777083 -0.12688415 -0.038344163 -0.01670944
0.05965384 0.09603515 -0.06090225 0.050318923 0.06117128 -0.048312657 -0.17867379 -0.05492945
-0.016932186 0.13614312 -0.1393842 -0.0021607701 0.022027602 0.082645275 0.012697866 0.019950705
0.029632606 0.0010469272 0.028880734 0.17672531 -0.08934483 0.027714862 0.020962808 -0.007139299
-0.06380962 -0.1901919 0.14267473 0.03426146 0.0825822 -0.27106914 -0.25976226 -0.048768464
0.018699367 0.122062534 0.0364535 -0.19927374 -0.16018307 -0.017873365 0.036533322 0.016653135
-0.015198897 0.037865873 0.0048974757 0.022385998 0.10917007 0.16378975 0.05202988 0.015050143
0.10584281 0.078512184 0.029857196 -0.04385214 -0.0007455408 0.09894415 -0.017505666 -0.038315516
-0.0855028 -0.038904615 0.0480612 0.09680981 -0.05273056 0.016068188 -0.0048110625 -0.021874053
-0.023744637 0.074398614 -0.00021111977 0.05435175 -0.01782774 -0.10975687 0.0881293 0.04565482
-0.10935514 0.06793677 -0.073309496 -0.09285988 -0.21936163 0.017671727 -0.004408656 0.0749632
0.015795335 0.03151255 0.02551414 -0.20610447 0.07339089 -0.012995432 0.09054218 -0.015013006
0.04729965 -0.059873704 0.040042907 0.0069474555 -0.008726429 -0.056563508 -0.045866214 -0.013366818
0.09393877 -0.069810174 -0.02176474 0.06736355 0.1773829 0.15075631 0.056118943 -0.06346902
0.046157714 0.2276434 0.08427205 0.004672243 0.03478601 -0.16759458 -0.065013126 -0.06956797
0.08839503 0.024047993 -0.0061011342 0.00066287717 0.050510235 0.009506176 -0.13925052 -0.03042614
0.056193125 0.10354568 -0.042381726 0.07419615 0.05621561 0.11887277 0.021807833 -0.011372512
0.0649772 0.04185227 -0.11931254 -0.14995009 -0.07680778 -0.01580528 -0.0043933387 -0.1318523
-0.02267997 0.082583755 0.0205549 0.0548294 0.0458223 -0.02521824 0.019388175 -0.09099576
-0.014055145 -0.028778039 0.049364638 0.07670259 0.1316801 -0.02301287 -0.043067265 0.106627084
0.07442121 0.022402039 0.041068062 -0.005433175 0.061406136 0.0007142664 -0.09658394 0.122415096
0.1302666 0.09520702 -0.023028644 -0.082807936 0.055226587 0.07552303 -0.0003659466 0.055988234

dense1.bias f4 [128]
00000000: 11b1 723d 5c70 9ebd f72b 3dbd 4fcf 283c
00000010: de46 953d 9b72 e2b7 b736 f33c da55 b8bc
00000020: 7147 10bb 957b 97bd d017 113d 24c5 89bc
00000030: 6741 2cbc be43 8f3c e24b 56bb 1a23 79bd
00000040: f81a 1b3d 21cf 853d 3c85 cc3b 7375 043d
00000050: a47e 013d 9c3e 493e f8f8 45bd 74d9 3c3d
00000060: da62 103e fbe7 803d e601 e73c 32b1 e3bc
00000070: 9f79 7f3d ff30 da3c b390 943c 368c b43d
00000080: db8e 3d3d 4c4b 113d b804 8fbc 56b3 973d
00000090: 9647 cbbc 0e70 a63c bab9 a13c ea0d 173d
000000a0: 4d5a 79bd 2f16 193d 6cca 833c 5602 ba3c
000000b0: b3ce 10bd 6182 02bd 3b90 ecbc e752 0a3e
000000c0: 9511 993d 129a 70bd 454b af3b 9c61 0f3e
000000d0: 79c2 8a3d b57d 1b3d 08ab 213b 9dd7 8b3d
000000e0: ba67 62bd 9892 b1bb a497 0ebd d571 e6bc
000000f0: c91e 44bd 4c2c f03d bff8 8a3d 4251 2ebc
00000100: f28e 1e3e 34e8 3ebd b016 d53c 48d4 62bb
00000110: 687d b33b b700 06bd 9993 55bd f1ed eebc
00000120: ac6f 14bd 9c6a 063d f2fa 75bc 72bb 8cbd
00000130: 21d4 47bc c944 bf3d b368 a5bc bc03 1e3e
00000140: 3cc8 b53d aa7e 0a3c ed77 763c 3513 3bbd
00000150: 7797 983d 1bd7 483d 04cf 3fbd 10ee 0b3d
00000160: 1639 3ebb 3afa 28bd 9297 783b a724 c13d
00000170: eb90 03bd 6d29 f23c e82c ca3d 1670 5a3d
00000180: f16a d2bc 9be1 eb3d b293 9abc c071 d23c
00000190: 6850 9f3d 0b57 753d 36e5 fe3b 8a91 923c
000001a0: 7a32 bc3d c306 da3d 9ae6 43bd 38b6 1fbd
000001b0: 2c30 723c 3cd5 6ebd 7dd2 b3bc 3015 a83d
000001c0: 76d9 863d 1287 a83c e9bf 0ebd 8471 073d
000001d0: 5f48 99bc 11a1 6cbc 4248 e03d 6134 853c
000001e0: 906f c2bc 2296 d43b a6ff 13bd 786e b3bd
000001f0: 942b 293d 92f6 9a3c dd42 39bd dcef 5bbc
0.059250895 -0.077362746 -0.046184506 0.0103033325 0.072889075 -2.6994667e-05 0.029689176 -0.022501875
-0.0022015239 -0.07396618 0.0354231 -0.016817637 -0.01051364 0.017488357 -0.0032699038 -0.06082449
0.037867516 0.06533647 0.0062414687 0.03233857 0.031614915 0.1965279 -0.04833314 0.046105817
0.14100209 0.06294247 0.028199147 -0.027794454 0.062371846 0.026634691 0.018135404 0.088158056
0.046278816 0.0354722 -0.017458305 0.074072525 -0.024814408 0.020317104 0.019741882 0.036878504
-0.060877133 0.03737467 0.016087733 0.022706192 -0.035353374 -0.03186262 -0.028877368 0.13508187
0.07474057 -0.058740683 0.005349549 0.14002079 0.06775374 0.03796168 0.0024668593 0.06828234
-0.055274703 -0.0054190867 -0.034812585 -0.028130451 -0.04788092 0.11727199 0.06785726 -0.010639491
0.15484217 -0.046608165 0.026011795 -0.0034611393 0.005477596 -0.032715525 -0.052142713 -0.029166194
-0.03623931 0.032816514 -0.015013443 -0.0687169 -0.012196572 0.093392916 -0.020191526 0.15431112
0.08876082 0.008453051 0.015043241 -0.045672614 0.074507646 0.049033266 -0.046828285 0.03416258
-0.0029025725 -0.04125426 0.003793214 0.09430819 -0.032120626 0.029560769 0.098718464 0.05332955
-0.02568576 0.1151764 -0.018869255 0.025689006 0.07779008 0.059897464 0.007778789 0.017891664
0.09189315 0.10645821 -0.04782734 -0.038992137 0.014781993 -0.058308825 -0.021950955 0.08207166
0.06584446 0.020572219 -0.03485099 0.03306724 -0.018711267 -0.014442698 0.10951282 0.016260328
-0.023734838 0.006487624 -0.036132477 -0.087613046 0.041301325 0.018916402 -0.04522978 -0.013423886

dense2.weight f4 [64, 128]
00000000: 2b87 e53d 64bd 0dbe 3b4f 5dbd 58c7 033e
00000010: f162 6fbd 2c19 04bd c5dd d13d 8d85 973d
00000020: e906 a9bd 7a97 86bd 6e84 853d e8ee d53c
00000030: 9076 90bd 1980 3b3d 8de0 0f3d fa90 4cbc
00000040: 75ba bebc 6ecd e33d 5498 babd 794a 873c
00000050: beb6 523c 7996 313e d1df 05be 0f95 003d
00000060: 6a27 893e 3a87 9cbd 259c febb c736 2abd
00000070: 67a1 e2bd 2d94 dabd 3e61 cdbd 8ff2 003e
00000080: f880 b23d c3d1 ea3b d526 c4bc aa3b 9d3d
00000090: 40e8 4abd 7d23 063c 095f 543c a86c 1cbe
000000a0: b439 933d 5b43 f13d 7ad9 803d db57 4a3d
000000b0: a55f 393d 484b 8e3c df65 433d 359e 163e
000000c0: d60c 823d f163 babb 2cf1 3dbd edbe babd
000000d0: 3d43 e13c 566b cdbc a059 773c 14ff 383c
000000e0: ea46 d2bc 0348 803d 572f 59bd ccc3 85bd
000000f0: 6e18 4dbd 8216 8dbd 3f92 993d 8832 08bd
00000100: 734c f03c ad64 4cbe 6624 083b 704d 143c
00000110: 047b d33d 21a8 86bd 7c10 9f3d 69ab 82bc
00000120: 5598 1d3e 9778 dcbd e6e4 9bbb 046a 94bb
00000130: 9e09 b93d caab a93d 5fac 17be 99cd aabb
00000140: ce9e 593d 3f52 fd3b 051c a03c 6d4b 93b8
00000150: e583 fb3d 8994 ea3c 1f21 1ebe 611e 243e
00000160: 8ad0 05be 4af1 5ebd e239 263d 263e e23b
00000170: d02a ab3d 974f 483a 07b5 f23d 90d9 adbc
00000180: aa05 84bd 3eae edbc 4e65 4dbd cef6 b7bd
00000190: c054 653d 27ee dbbc 9a94 64bd 707a 413e
000001a0: 29c1 a2bd 4321 fe3d 1c1f 173d 4190 c538
000001b0: bbce 9dbd 2698 d63c 3ed9 e9bb 0e56 873d
000001c0: 1ade 843d 20a9 b9bd 8e44 3dbd 4b35 033e
000001d0: fca6 e8bd d94c 04be cb1d 9e3d 2178 18bd
000001e0: a54d 773d 59e5 49bd c447 9bbc afc0 d73d
000001f0: 85a5 ae3d fd0d 8f3d 23f7 2dbe a1ae 6bbd
00000200: 754b 673d 55e3 803d 693f 84bd f044 1cbd
00000210: b4c8 4bbd a46f 8e3c 8149 1abd b1a8 95bc
00000220: 77e1 7b3b d1ee bd3c e25a a5bc 1792 f7bc
00000230: 0995 40bd 4f7c 473d 93a0 07bd 6a82 5f3d
00000240: 5784 e63c 0abe 203d 5df1 42bc 3512 a73d
00000250: 3678 f23c e608 c0bd 4b26 003d 91f1 833d
00000260: 1008 cfbb 9b27 8abd aea1 06bd a021 a33d
00000270: e48c 2a3d ae69 a73c 74ca fd3c a701 503d
00000280: d08e c9bc b513 9bbd 9be4 00bd 04fd 343d
00000290: 2620 f4bc 8065 b7bd b7b9 0dbb ed6a a6bd
000002a0: 52f7 10bc 40dd f13b ab57 413d 080a 053d
000002b0: 8a26 a5bd 595a 42bd 8046 283c 6d60 7cbd
000002c0: 5d6b 733b 9964 b73b 2321 4cbd 2777 0b3d
000002d0: 12d3 b53c 9e1b aebc ed48 463d 7fd0 d63b
000002e0: 772f 8a3d 6e83 afbd 32d2 69bc c254 82bd
000002f0: 8a9d 9ebd 719f 153c 5983 bbbd 6ce6 423c
00000300: b03f c5bd 9ad3 7c3a 82d1 863d 21c1 8b3d
00000310: 3919 8f3d d222 a2bd 750b 893a c7c0 abbd
00000320: b6f4 d63c f026 41bd 34c1 4bbd b380 88bc
00000330: 4cee b0bd 0ea6 52bc ca8f 4b3b 6d6d b2bd
00000340: e77f a4bd e48f bb3c 1dac f53c 7bd5 28bd
00000350: f2b0 753d 4361 88bd b0b2 9dbd a78b 2fbd
00000360: 36f6 833d 0662 8abd 6ce2 9d3d 5c54 093d
00000370: 4756 8dbd ea9c 0a3d 9278 e1bd 58c1 92bd
00000380: 1892 f7bc 5c67 26bd 5cde 6ebd 0c99 90bd
00000390: 77a7 e23c f62b d2bd c98e 0ebd 97b1 703c
000003a0: 9011 c7bc ddce d3bd afcb 1fbd 3d81 023d
000003b0: 5257 a0bd a58a b83c 3f77 84bd 744c 39bd
000003c0: 3d9e 8a3d 518d 0e3d 9bf8 223d a123 1b3d
000003d0: 8ce8 11bd 1958 90bd 3a84 c4bb 6fbe 73bb
000003e0: e24d e13c 2df2 263c 0176 1abd 1676 c0bd
000003f0: 2602 3dbd eb87 96bd 37c3 5e3d 13f5 79bd
0.11207422 -0.13841778 -0.05403064 0.12869012 -0.058443967 -0.03225057 0.10247377 0.0739852
-0.08253271 -0.065718606 0.065193996 0.026114896 -0.07053864 0.04577646 0.035126258 -0.012485737
-0.023282269 0.11123167 -0.091110855 0.016515004 0.012860952 0.17342557 -0.1307366 0.031392153
0.26787883 -0.0764298 -0.0077700787 -0.041556146 -0.11065941 -0.106727935 -0.10028313 0.12592529
0.08716005 0.007166119 -0.023944298 0.07677396 -0.049537897 0.008187172 0.012962111 -0.15275824
0.071887404 0.11780425 0.0629148 0.04940019 0.04525723 0.017369881 0.047704574 0.14708789
0.063501045 -0.0056881835 -0.046372578 -0.091184475 0.027497882 -0.025075596 0.015097052 0.011291284
-0.02566858 0.06263735 -0.053023662 -0.06531486 -0.050072126 -0.06889059 0.07498597 -0.033251315
0.029333329 -0.1996028 0.0020773648 0.009051666 0.10326198 -0.06575037 0.07766816 -0.015950875
0.15390141 -0.10765188 -0.0047575114 -0.0045292396 0.090350375 0.08284719 -0.14811848 -0.0052124974
0.053129964 0.0077307518 0.01954461 -7.0235554e-05 0.12281016 0.02863528 -0.15442322 0.16027214
-0.13067833 -0.05442933 0.040582545 0.0069043813 0.08357775 0.00076412543 0.118509345 -0.021221906
-0.06446393 -0.02901375 -0.05014544 -0.08982621 0.055989027 -0.026846958 -0.05580578 0.18894362
-0.079469986 0.12408688 0.036894903 9.4205614e-05 -0.07705446 0.026195597 -0.007136493 0.066082105
0.06487675 -0.09065461 -0.046207957 0.12813298 -0.11359975 -0.1291994 0.07720526 -0.03722394
0.060376782 -0.04929099 -0.018955119 0.10534798 0.08527664 0.0698509 -0.16988806 -0.057539586
0.056468446 0.0629336 -0.06457407 -0.03815168 -0.049751952 0.017387219 -0.037667755 -0.018268915
0.0038433948 0.023185166 -0.020184938 -0.030221028 -0.04701713 0.048702534 -0.03311212 0.054567732
0.028139276 0.039243735 -0.011898366 0.081577696 0.029598337 -0.09376697 0.03128652 0.064425595
-0.0063181 -0.067458354 -0.032869034 0.07965398 0.04163827 0.020436134 0.030980326 0.050782826
-0.024604231 -0.07572118 -0.031468015 0.044186607 -0.029800486 -0.089549065 -0.0021625587 -0.08125863
-0.008848028 0.0073811114 0.047202747 0.03248027 -0.08063991 -0.047449443 0.010270715 -0.061615396
0.003714285 0.005596709 -0.04983629 0.03404918 0.022195373 -0.021253403 0.04840939 0.0065556164
0.067473345 -0.0856999 -0.014271306 -0.063638225 -0.07744892 0.009132252 -0.09155912 0.011895757
-0.09631288 0.0009644568 0.06582929 0.06823946 0.06987233 -0.07916798 0.0010455685 -0.08386379
0.026239734 -0.047156274 -0.0497448 -0.016662931 -0.086392015 -0.012856973 0.0031061047 -0.087122776
-0.08032208 0.02289576 0.029989297 -0.041219216 0.0599832 -0.06659176 -0.077000976 -0.042857792
0.064434454 -0.06756978 0.07709202 0.033527717 -0.06901222 0.03384105 -0.11009325 -0.07165784
-0.03022103 -0.040625915 -0.058317527 -0.070604414 0.027667744 -0.10262291 -0.03480414 0.014690778
-0.024300367 -0.103421904 -0.039012607 0.031861532 -0.07829155 0.022527048 -0.06468057 -0.045238927
0.06768463 0.03480274 0.03978787 0.037875775 -0.035622165 -0.07048053 -0.005997208 -0.0037192365
0.027502958 0.010189575 -0.037710194 -0.09397523 -0.046144627 -0.07350143 0.05438539 -0.061024737

dense2.bias f4 [64]
00000000: 80a5 d33d 47d4 7f3d 3d6e ed3d 5600 9ebd
00000010: e6d7 7bbd dcac 4d3d ec4d 5dbd 2459 533c
00000020: 691f 063b 8acc e93c c9ea 99bc b95d 5f3d
00000030: 87ab ae3d 7b25 6b3d c128 4ebd c41c 8e3d
00000040: 57ec e4bc 0b05 89bc 8904 36bd 22a2 dfbc
00000050: 665a 423d 1452 56bd afe2 b13d 7394 703c
00000060: 2a7f bb3d 0f2f a43c 3ef4 813d aa8a 163e
00000070: 0eda 803c fb46 983d ed07 2b3c fd2f 473e
00000080: 311f 3fbc fe27 8d3d dec4 f33c ae74 933d
00000090: b2aa 943d 2ba5 d03d 2646 8cbd 70c2 a73c
000000a0: 34f8 f33d b3d4 92bd dce7 31bd 8af4 d8bb
000000b0: 2a1d 603d 7d58 f6bd 1d9b b93b e983 093e
000000c0: ec0e c1bc c9f9 233a 1e7e 78bd ef68 eb3c
000000d0: bf1c 1abd 9c3a 8c3c f89b 053e 0506 113d
000000e0: 04f7 883d 4a17 52bd 5c35 10bc 2c7b 563b
000000f0: 25a7 9dbd f1ea d0bc 04cf 82bd 76b2 1d3e
0.10334301 0.062458303 0.11593292 -0.07714908 -0.061485194 0.05021368 -0.05402939 0.012899671
0.00204655 0.028539915 -0.018788712 0.05453274 0.0852881 0.05740879 -0.050331835 0.0693908
-0.027944727 -0.016726037 -0.04443792 -0.02729899 0.047449492 -0.05232437 0.086858146 0.014683831
0.09155114 0.02004197 0.063454136 0.14701334 0.015728977 0.074354135 0.010438901 0.194519
-0.011665151 0.068923935 0.02975696 0.07199989 0.0725912 0.10187753 -0.06849317 0.020478457
0.11912575 -0.071694754 -0.04343401 -0.006620948 0.054715313 -0.120285966 0.005664243 0.13429226
-0.023566686 0.00062551774 -0.06066715 0.02873656 -0.03762507 0.01711779 0.13047779 0.03540613
0.066877395 -0.05129174 -0.008801784 0.0032727225 -0.07697896 -0.025502654 -0.06387141 0.15400109

final.weight f4 [20, 64]
00000000: 5025 a7be e734 60bc 11ff 4dbc e926 5ebd
00000010: 13f2 bbbb 3132 3abe cc0a 32be ef14 42be
00000020: f206 3abc 8ca8 053e 3491 39be 4b95 a23d
00000030: 7072 e7bd 143d 10be c3e1 eabb bead 693c
00000040: 467a b53c cd64 bcbd a500 c93c fb05 f33d
00000050: e3b1 a73d 3d89 01bd 5f58 2c3e 05de 2abe
00000060: ebd6 3ebd 927c 6abe c025 313d 1d9f 92bd
00000070: cfcf 213e eb11 f93d f78e cbbd 6e2c ecbe
00000080: c7c0 8fbe 60c1 4d3d 326f e13d 1fd4 ad3d
00000090: 4ac6 1fbe 0e42 b23d c2ed 903d 9813 83bd
000000a0: 27da 6d3d 5473 233d 47a3 4bbe fb37 023e
000000b0: 2d6d 90bd c4b6 e3bd d7ad 4d3d 5621 073e
000000c0: 57ae b93d c512 693e eedb 103d 0e51 0e3c
000000d0: cbb8 403e d952 b63d 90e2 3abe fc0a 0dbe
000000e0: f8b8 48be a81d ddbd 99d4 103d 5831 4bbd
000000f0: 19b1 87bd 3056 863d a877 d4bd 3cc7 643e
00000100: 1116 81bd ae65 0b3d 45e6 bc3d 3dab 9ebd
00000110: 1dc8 653c 6486 e5bd a06f 313d 464b 073e
00000120: 8e93 babd ae70 2cbe f0d3 16be d01c 3e3d
00000130: 85c2 393c 1c82 0c3c d709 c13d f23e 8dbc
00000140: fb52 3e3c 147d 143e a37a f0bd 633c 0b3d
00000150: 875b 573d 8dfd e1bd 0e5b 9f3d a3d2 243e
00000160: 80d4 bd3c 250d 493d 5d61 02be dde1 8b3c
00000170: 5549 e43d 250e d7bd 8d66 d93d 5df0 cfbb
00000180: cab9 debd 9e63 a33d 8977 53bd b9af b63d
00000190: bbd6 84bd 38aa b03b d20d eebd 4a56 d33d
000001a0: 8663 ef3c 90c9 abbd 9680 c4be ec92 0cbd
000001b0: b47e 9cbc 0ee3 583c a1ca 18bd 6260 a03d
000001c0: 80a1 a93b c76b 8abd cc2e a63d 16c6 f9bd
000001d0: 6f2e e43d affe b23c 2b76 f0bd 4d4d 593e
000001e0: 16dd 7abd 1335 053d 1057 fabd 0a54 fe3d
000001f0: 06d4 9a3d 9369 24bd ff4a 82bd 6c22 e13d
00000200: 500e fd3d 06c2 83bc 5e47 913d 13a2 7abd
00000210: 2a28 90bd 4da2 693d d879 28bd 0eb2 f63d
00000220: a0cb a0bd 8121 843d c4cb 863d 6538 6a3c
00000230: 463d 15be 5d3b d6bb 5ed3 f0bd ade0 88be
00000240: a388 f0bd 90c5 40bd 5425 30bc 37cc 39bd
00000250: 2184 4b3c e5bc 01be 9e70 8b3d bab0 0a3e
00000260: a7cb fa3d 739a 58be f30b 973d 187b de3d
00000270: d83e 07be c356 86bd 680c fbbc 0263 e53d
00000280: 17e9 9a3d b39d fd3d 76a9 23be 7ddd fc3d
00000290: 4660 803d 8893 953d 7c07 e73c e753 19be
000002a0: 4998 08be 868f 6dbd f396 d73c 6091 a0ba
000002b0: 40da a23d 2b3f 2dbe 8c3c 5f3e 8e6b bbbc
000002c0: b16d 9f3d 46dc 92be 261f 8c3c dd8d 113e
000002d0: ba3f 88bd 2992 173e 3fb4 d33c 49c0 cebd
000002e0: 613a a1be fea8 f4bd 6189 b7bd 6a65 4cbd
000002f0: 6df3 aebd c82f 62bd e795 65bd 969a 583c
00000300: 123d ba3b 2c0d 7ebd 3111 613c 31e7 d5bd
00000310: edfa 60bd 2c9c 193e b057 93bc 33cc 69bc
00000320: a669 ad3d 14fd 5bbe 44ab 83bd 70cb eabd
00000330: a2d9 b53c 05d3 90bd 504c 4fbd 4159 26bd
00000340: cc92 ddbd bf2b 30bd 7016 b03d 9f68 84be
00000350: dcc6 46bd ff51 0d3c 7220 44be 4ff1 3a3e
00000360: 7ca4 95bc f3e4 033e 7665 e93d 9c62 d53d
00000370: 5197 cfbd 4338 9a3d 0bff c13d 8cfc 7cbd
00000380: 6d63 a6be 9de9 4abe 3c72 4dbd 8cc4 7e3d
00000390: 43a5 503e 9c8a 113e 22d8 373e 2d5a 7c3d
000003a0: eddb bcbd bae5 613d 7441 0b3e c8c4 6abd
000003b0: 23f9 033d 9415 0bbe 7432 febe ebb1 623e
000003c0: 44f9 4dbe fe32 5ebd 1c7e f03d 3b88 a1bc
000003d0: b101 913d 0f94 4a3e 5348 0dbe 1108 debc
000003e0: e481 cdbc 7c0c eabd 9e60 b43d 5f64 08be
000003f0: fe06 04bd e97b 12bd 890a 38bb 6be8 093e
-0.32645655 -0.013684488 -0.01257302 -0.054236326 -0.0057356446 -0.18183209 -0.17386931 -0.18953298
-0.011354195 0.13052577 -0.18121797 0.079386316 -0.11301124 -0.140858 -0.007168026 0.014262615
0.022153031 -0.09198914 0.02453644 0.11866375 0.08188226 -0.03162502 0.16830586 -0.16686256
-0.04659168 -0.22899082 0.04324889 -0.07159255 0.15801929 0.12161621 -0.09939378 -0.46127647
-0.28076765 0.050233245 0.11007537 0.084877245 -0.15602985 0.08704005 0.07076599 -0.064002216
0.058069374 0.039904907 -0.19886504 0.12716667 -0.07052074 -0.11118844 0.050214615 0.1319631
0.09066456 0.22761066 0.03536599 0.008686317 0.18820493 0.08902521 -0.18250489 -0.13773721
-0.1960181 -0.10796672 0.035359 -0.049607605 -0.066255756 0.06559408 -0.10374385 0.22341627
-0.06303037 0.034032516 0.09223608 -0.07747505 0.0140247615 -0.112072736 0.043319345 0.13212308
-0.09110175 -0.16839859 -0.14729285 0.046414196 0.011337881 0.008575942 0.09425705 -0.017241929
0.011616464 0.14500839 -0.11742141 0.033993136 0.05257752 -0.11034689 0.07781039 0.16095977
0.023172617 0.0490848 -0.12732454 0.017075473 0.111467995 -0.10500745 0.10615263 -0.006345792
-0.1087528 0.07977985 -0.05162767 0.08920235 -0.06486269 0.0053913854 -0.1162373 0.10319193
0.029222261 -0.08388054 -0.38379353 -0.034319803 -0.019103386 0.013237728 -0.037302617 0.078308836
0.005176723 -0.06758838 0.081143945 -0.12195985 0.11141669 0.021849958 -0.11741289 0.21220894
-0.061246 0.03252132 -0.12223637 0.12418373 0.075599715 -0.040139746 -0.063619606 0.109928936
0.123562455 -0.016083729 0.0709369 -0.061189722 -0.07038911 0.057039548 -0.041131824 0.1204568
-0.078513384 0.06451703 0.06581834 0.014295672 -0.14574155 -0.0065378384 -0.11759065 -0.26733914
-0.117448114 -0.04706341 -0.010751087 -0.04536077 0.012421639 -0.12669714 0.068085894 0.13543978
0.12245875 -0.21152668 0.07375326 0.10863322 -0.13207567 -0.06559517 -0.030645564 0.11200525
0.075639896 0.12383594 -0.15982613 0.12346933 0.06268363 0.0730353 0.028201811 -0.14973412
-0.13339342 -0.057998203 0.026317095 -0.0012250356 0.07951784 -0.16918628 0.2180044 -0.022878435
0.07784594 -0.2868368 0.017104696 0.14214273 -0.0665278 0.1480185 0.025842784 -0.10095269
-0.31489852 -0.11946295 -0.0896175 -0.049901403 -0.085425235 -0.05522135 -0.05605116 0.01322045
0.0056835497 -0.06202428 0.013737009 -0.10444487 -0.0549268 0.15000981 -0.017986149 -0.014269876
0.084674165 -0.2148326 -0.06429151 -0.11464584 0.022198502 -0.07071499 -0.050609887 -0.040612463
-0.10819015 -0.04301047 0.085980296 -0.2586107 -0.04852949 0.008625506 -0.19153002 0.18256114
-0.018266909 0.12880306 0.11396305 0.10419199 -0.10136283 0.07530262 0.09472474 -0.061764285
-0.3249773 -0.19815679 -0.05015777 0.06219916 0.20375542 0.14213032 0.17953542 0.061609436
-0.09221635 0.055150725 0.13599187 -0.05731657 0.032220017 -0.1358245 -0.49647868 0.22138183
-0.20114619 -0.05424785 0.117428035 -0.01971828 0.07080401 0.19783042 -0.13797121 -0.027103456
-0.02508635 -0.114281625 0.08807491 -0.13319539 -0.03223323 -0.0357627 -0.0028082451 0.13467567

final.bias f4 [20]
00000000: 13f3 36ba 5753 b83d 8337 b03d 8475 d83d
00000010: a5a8 5a3d 27af 8bbc 11bc a2bb b931 a8bd
00000020: f373 19bc 9364 1b3c dd1b 373d 7600 17bd
00000030: 6b44 1f3d ab47 3dbd 69e3 23be 5b61 03bd
00000040: 41aa 1c3d b2e8 4e3d 6684 9bbd 3318 2cbe
-0.000697897 0.09000271 0.08604338 0.10569289 0.05338349 -0.017051293 -0.004966267 -0.08212609
-0.009366023 0.009484428 0.044704307 -0.036865674 0.038883608 -0.046210926 -0.16004719 -0.032075267
0.038248304 0.050514884 -0.075936124 -0.16806106
