Superclass/models/model.onnx (onnx, 255597 bytes, 10 tensors)

conv1.weight f4 [6, 1, 5, 5]
-0.15878746 -0.20951729 -0.17488302 0.0955559 0.2506146 0.10099054 -0.26714632 -0.19737081
0.18271463 0.49429324 -0.15343048 -0.2995948 -0.29821673 0.35201496 0.5821686 0.07748235
-0.2739715 -0.2915651 0.16611953 0.52059084 -0.110014856 -0.31264186 -0.2803322 0.17577207
0.12738444 -0.1992384 -0.13464685 -0.3148778 -0.3088236 -0.2940317 0.16788962 0.021317882
0.10957985 -0.19269267 -0.020429472 0.12485265 0.29547173 0.14285988 0.21372627 0.19597805
0.022722412 0.10130678 0.16043028 0.23994859 0.3366902 0.10454747 -0.044998255 0.00021419034
0.21462642 0.19672047 -0.15268598 -0.04058143 -0.00057400216 -0.22288582 0.017517377 0.08680587
-0.18706436 -0.28100124 -0.07065985 -0.32778823 -0.17108896 -0.32129917 0.023071121 -0.10452125
-0.17682557 0.124869 -0.069043756 -0.21818927 0.10558881 -0.25851402 0.24589024 -0.03519457
0.10770499 -0.13197036 -0.11166033 -0.2679318 -0.16342613 0.012286602 0.2182347 0.050953038
-0.061793465 -0.40767747 0.00443776 0.30429542 0.32107025 -0.1485766 -0.43767202 -0.020876897
0.10964389 0.2960482 -0.38838622 -0.3108239 0.13985182 0.42032284 0.16699645 -0.33252454
-0.24501386 0.25808883 0.40593395 0.17021711 -0.08645653 -0.32829797 -0.04964084 -0.28969836
-0.118676715 -0.2761444 -0.35325977 -0.4894347 -0.26705393 -0.23218237 0.16950966 -0.18426755
-0.018905729 -0.051541917 -0.18889555 -0.013008196 0.2940045 0.4680219 0.4534876 0.039074995
0.2822656 0.19435002 0.37236747 0.45131382 0.20063113 0.21179974 -0.05816847 -0.07851294
-0.34921694 -0.3439122 0.35663593 -0.10598397 -0.27106145 -0.10966486 -0.16717571 0.28874472
0.13743275 0.1936849 -0.19035642 -0.05729158 0.045493003 0.399217 0.1960631 -0.15645503
-0.21029274 0.0010396182 0.14430663 0.1398692 0.14665788 -0.3875472
00000000: 2e99 22be b38b 56be 8914 33be d0b2 c33d
00000010: 8f50 803e 21d4 ce3d 67c7 88be 931b 4abe
00000020: 8b19 3b3e 0114 fd3e e11c 1dbe 7d64 99be
00000030: ddaf 98be 4e3b b43e 0009 153f 11af 9e3d
00000040: fe45 8cbe 0548 95be 3d1b 2a3e 7145 053f
00000050: 784f e1bd 9812 a0be b487 8fbe 98fd 333e
00000060: 1171 023e 2705 4cbe dde0 09be aa37 a1be
00000070: 201e 9ebe 538b 96be 42eb 2b3e d7a2 ae3c
00000080: 676b e03d 3a51 45be b55b a7bc bfb2 ff3d
00000090: 1248 973e dc49 123e 0fdb 5a3e 78ae 483e
000000a0: 5a24 ba3c ee79 cf3d d647 243e 15b5 753e
000000b0: a862 ac3e fc1c d63d 1750 38bd 4898 6039
000000c0: 07c7 5b3e 1771 493e b759 1cbe b738 26bd
000000d0: a278 16ba 2e3c 64be 9a80 8f3c 47c7 b13d
000000e0: cd8d 3fbe 65df 8fbe 1db6 90bd dcd3 a7be
000000f0: f231 2fbe 5381 a4be a6ff bc3c 3d0f d6bd
00000100: c311 35be 51bb ff3d d066 8dbd 026d 5fbe
00000110: f23e d83d f35b 84be a7ca 7b3e 2e28 10bd
00000120: 6f94 dc3d 3d23 07be 2cae e4bd 5b2e 89be
00000130: 2e59 27be be4d 493c eb78 5f3e 22b4 503d
00000140: 251b 7dbd 1abb d0be a16a 913b 9ccc 9b3e
00000150: 5263 a43e 7724 18be 8c16 e0be 0706 abbc
00000160: fa8c e03d a193 973e 8fda c6be 4f24 9fbe
00000170: 5135 0f3e 8e34 d73e 1e01 2b3e a840 aabe
00000180: eae4 7abe 3824 843e 93d6 cf3e 654d 2e3e
00000190: 1f10 b1bd ac16 a8be 3254 4bbd 5853 94be
000001a0: c70c f3bd cc62 8dbe 77de b4be 2f97 fabe
000001b0: 4bbb 88be 37c1 6dbe f193 2d3e a2b0 3cbe
000001c0: 30e0 9abc 9e1d 53bd d66d 41be 5420 55bc
000001d0: c287 963e 91a0 ef3e 872f e83e 1a0d 203d
000001e0: 1e85 903e b103 473e f3a6 be3e 9b12 e73e
000001f0: 3f72 4d3e 08e2 583e 1042 6ebd 64cb a0bd
00000200: 90cc b2be 4315 b0be fc98 b63e 200e d9bd
00000210: 91c8 8abe f897 e0bd 1c30 2bbe 59d6 933e
00000220: 2cbb 0c3e 5655 463e cbec 42be 93aa 6abd
00000230: df56 3a3d 2c66 cc3e c4c4 483e bf35 20be
00000240: fb56 57be cc43 883a 1ec5 133e df39 0f3e
00000250: 7c2d 163e 966c c6be

conv1.bias f4 [6]
0.24937928 0.27013233 -0.28548464 0.31663233 0.24000172 0.27714616
00000000: 485d 7f3e c94e 8a3e 0b2b 92be a21d a23e
00000010: 03c3 753e 1ae6 8d3e

conv2.weight f4 [16, 6, 5, 5]
0.12512894 -0.0050833905 -0.18353222 -0.054351766 0.0987714 0.04478132 0.047787603 0.035550196
-0.13975959 0.051457074 -0.09295948 0.021352882 -0.008483794 -0.1737633 -0.26481017 0.054444306
0.2701385 0.060099393 0.019967685 -0.46564236 0.017859789 0.15265791 0.09034343 -0.009719
-0.09385747 -0.07643829 0.045782413 0.052532602 -0.040199015 -0.0009152676 -0.08762723 -0.16536956
-0.2084779 -0.1303631 -0.006020998 -0.10848434 -0.09716337 -0.23979482 -0.089213766 -0.027369423
-0.07348881 -0.021704476 0.08566726 0.12509406 0.012447218 -0.10522431 -0.069820285 -0.006557228
-0.096716896 -0.13967982 0.035885673 -0.0128438575 0.0723491 -0.04604282 -0.045858447 0.1019203
0.07761894 0.032177925 -0.008889575 -0.022203695 0.12202287 0.07325541 -0.03853299 0.069198534
0.18323454 -0.05130925 -0.0049742437 -0.035882626 -0.08733963 0.0751371 -0.0073778667 -0.10639359
-0.10098739 -0.19320413 -0.04921936 0.14071012 0.042514868 0.016540341 -0.20536935 -0.030972509
-0.05942768 -0.08780229 0.14013472 -0.08259193 -0.043177534 -0.08233923 0.13317531 0.13021651
-0.03630808 -0.2398984 -0.08516425 0.28571698 0.17146005 -0.11085231 -0.44357714 -0.013229493
0.15857434 0.12459 0.0020780656 -0.13832143 0.06211575 0.004216873 0.0780454 0.21248697
0.23554747 -0.08173143 -0.27302253 -0.31841123 -0.25632936 -0.08512793 -0.02525984 -0.011187615
0.23294237 0.27462444 0.38826343 -0.028455794 0.09837581 0.11546383 0.18862309 -0.039897848
0.017637065 -0.18229902 -0.40207776 -0.5071871 -0.42030656 -0.0009912826 0.07587697 0.13701166
0.053223442 -0.12807119 0.035649512 0.032405905 -0.00045241366 0.008018405 -0.12094481 0.20213741
0.12304766 -0.07225307 0.02628164 0.17766315 0.016873814 0.015833886 -0.13003515 -0.114818774
0.116247445 0.11783219 -0.0038036797 -0.1833222 -0.32303438 -0.06721915 0.033992726 0.015735129
-0.26987776 -0.21808718 0.04601852 0.26908848 -0.122670755 -0.3430557 -0.11929447 0.027511625
0.35412526 -0.17958848 -0.14378196 0.0044831606 0.096721835 0.1802911 -0.13782473 0.1477042
0.12989578 0.029877007 -0.020242851 0.014572129 0.12801924 0.11025809 -0.10526532 -0.087914295
-0.022196768 0.032451462 -0.07422385 -0.08792137 0.06377699 -0.12472964 -0.06877334 -0.00040334082
0.0087286 0.0018483364 -0.028762966 0.009483968 -0.05692575 0.0016121705 0.0025461852 0.032588214
-0.00036128718 0.144432 0.09045417 0.035182342 -0.016045941 0.023999393 0.1257083 0.048306357
-0.08319695 -0.0023514265 0.013565971 -0.06974601 -0.054099217 -0.11669921 -0.039391067 0.09194028
-0.012949891 0.063937135 -0.049245335 0.0033927427 0.14574255 0.080035515 -0.008439591 -0.08826139
-0.018399388 0.025326202 -0.08202514 -0.113198765 -0.026908776 0.02242414 0.085773766 -0.0028583123
-0.07070546 0.16928482 0.14996591 -0.28514367 -0.33135834 -0.020791426 0.398223 0.0094735455
-0.19105531 -0.21425731 0.031511206 0.2609178 -0.26700675 0.029014306 -0.11138313 0.16653699
0.20884115 -0.3143815 0.0639492 -0.008149296 0.10731857 -0.031235864 -0.096068166 0.24534771
0.22251764 0.050363142 0.081316255 0.042300466 0.0027666832 -0.1396267 -0.21245667 0.028611174
00000000: cd21 003e 9292 a6bb dfef 3bbe f59f 5ebd
00000010: a948 ca3d 9e6c 373d efbc 433d 159d 113d
00000020: 231d 0fbe a7c4 523d 8a61 bebd 3dec ae3c
00000030: 9cff 0abc 02ef 31be 3395 87be fe00 5f3d
00000040: 984f 8a3e c82a 763d 4593 a33c ad68 eebe
00000050: b14e 923c 5b52 1c3e fa05 b93d 713c 1fbc
00000060: 5838 c0bd ae8b 9cbd 5786 3b3d 6d2c 573d
00000070: b9a7 24bd 92ee 6fba e875 b3bd a356 29be
00000080: 3b7b 55be e87d 05be cb4b c5bb 0a2d debd
00000090: 97fd c6bd c68c 75be b5b5 b6bd d735 e0bc
000000a0: 4d81 96bd 96cd b1bc 5172 af3d a818 003e
000000b0: 6bef 4b3c d87f d7bd f0fd 8ebd 04de d6bb
000000c0: 8213 c6bd 3a08 0fbe dbfc 123d 0b6f 52bc
000000d0: c42b 943d 6597 3cbd 11d6 3bbd 97bb d03d
000000e0: aef6 9e3d 00cd 033d 94a5 11bc 86e4 b5bc
000000f0: 20e7 f93d ef06 963d c5d4 1dbd f6b7 8d3d
00000100: d6a1 3b3e a629 52bd fbfe a2bb a9f9 12bd
00000110: 1fdf b2bd 7be1 993d 08c2 f1bb e2e4 d9bd
00000120: 7ad2 cebd 4ed7 45be 3d9a 49bd 5016 103e
00000130: 1224 2e3d 9c7f 873c 584c 52be 0fba fdbc
00000140: 706a 73bd b0d1 b3bd 7a7f 0f3e f525 a9bd
00000150: edda 30bd 78a1 a8bd 1c5f 083e 7a57 053e
00000160: c8b7 14bd eda7 75be 986a aebd 7f49 923e
00000170: 3993 2f3e 8906 e3bd 8b1c e3be 84c0 58bc
00000180: 5061 223e 0b29 ff3d 2830 083b 22a4 0dbe
00000190: 166d 7e3d b22d 8a3b 44d6 9f3d 2f96 593e
000001a0: 5b33 713e cf62 a7bd 9cc9 8bbe cc06 a3be
000001b0: 9a3d 83be 8d57 aebd b9ed cebc 424c 37bc
000001c0: 7288 6e3e 939b 8c3e 77ca c63e 201c e9bc
000001d0: 4279 c93d 4d78 ec3d 6926 413e ed6b 23bd
000001e0: 9b7b 903c 98ac 3abe 23dd cdbe 04d7 01bf
000001f0: 6c32 d7be eded 81ba 6365 9b3d c94c 0c3e
00000200: d300 5a3d 1825 03be 3905 123d 0ebc 043d
00000210: ef31 edb9 a15f 033c eab1 f7bd 1cfd 4e3e
00000220: 6900 fc3d 6bf9 93bd 984c d73c 54ed 353e
00000230: f43a 8a3c 11b6 813c ef27 05be 1b26 ebbd
00000240: 2413 ee3d 0152 f13d 2847 79bb d1b8 3bbe
00000250: c364 a5be 32aa 89bd f53b 0b3d f5e6 803c
00000260: 6b2d 8abe 3f52 5fbe ea7d 3c3d f7c5 893e
00000270: ce3a fbbd ffa4 afbe a950 f4bd 0f60 e13c
00000280: e84f b53e 0be6 37be 943b 13be 7ae7 923b
00000290: 1916 c63d 3b9e 383e ed21 0dbe c53f 173e
000002a0: 6603 053e a0c0 f43c 56d4 a5bc f0bf 6e3c
000002b0: 7a17 033e fece e13d 5895 d7bd 690c b4bd
000002c0: ffd5 b5bc d3eb 043d ad02 98bd 1f10 b4bd
000002d0: 839d 823d 4172 ffbd 09d9 8cbd 7d77 d3b9
000002e0: 6702 0f3c e143 f23a 50a0 ebbc a562 1b3c
000002f0: fa2a 69bd 774f d33a e6dd 263b 387b 053d
00000300: 256b bdb9 fbe5 133e 0940 b93d 5c1b 103d
00000310: c772 83bc 609a c43c adb9 003e e3dc 453d
00000320: 2a63 aabd 641a 1abb ce43 5e3c ffd6 8ebd
00000330: 2497 5dbd ffff eebd 8758 21bd 2f4b bc3d
00000340: c82b 54bc 79f1 823d 7ab5 49bd c758 5e3b
00000350: 893d 153e a9e9 a33d 3646 0abc 63c2 b4bd
00000360: 50ba 96bc e578 cf3c ccfc a7bd c1d4 e7bd
00000370: cb6f dcbc d4b2 b73c 28aa af3d 8652 3bbb
00000380: 06ce 90bd 0059 2d3e aa90 193e 5afe 91be
00000390: cda7 a9be c852 aabc e3e3 cb3e ee36 1b3c
000003a0: 01a4 43be 4566 5bbe e511 013d 0597 853e
000003b0: 1cb5 88be 69af ed3c d71c e4bd ac88 2a3e
000003c0: 74da 553e 9df6 a0be ccf7 823d a084 05bc
000003d0: d7c9 db3d 5be2 ffbc 63bf c4bd 6e3c 7b3e
000003e0: aadb 633e 9549 4e3d 2389 a63d 4143 2d3d
000003f0: 3e51 353b 4dfa 0ebe 3e8e 59be fb61 ea3c

conv2.bias f4 [16]
0.099811405 0.04358238 0.12136893 0.1024189 0.07187606 -0.09422158 0.1689935 0.1554135
0.06653812 0.08726619 0.14726973 0.084068984 0.11021776 0.16727816 0.086454414 0.1253731
00000000: ec69 cc3d 7083 323d 4690 f83d 00c1 d13d
00000010: c133 933d 3ef7 c0bd a20c 2d3e b724 1f3e
00000020: 2345 883d 9eb8 b23d e0cd 163e 5c2c ac3d
00000030: d9b9 e13d f74a 2b3e 030f b13d ce61 003e

dense1.weight f4 [128, 400]
-0.03874702 0.0014844832 -0.026036492 -0.027475206 -0.048598763 0.005470022 -0.012981798 -0.0148868635
-0.016774483 0.033899784 -0.011809226 -0.0006027177 0.047220945 -0.054046363 -0.018127883 -0.044698697
0.030036218 -0.038536984 0.021281881 -0.053617727 -0.048242368 -0.0104738455 -0.025024105 -0.0064845816
0.04289655 -0.009216488 0.024876084 -0.053956248 -0.0005116824 0.0079251025 0.028844839 -0.022550475
-0.0066777295 -0.015312723 -0.011187098 0.041040152 -0.045865413 -0.031603653 -0.008103923 -0.0606095
-0.034185436 0.0014456473 -0.018563591 -0.039977 0.0033963316 -0.022634666 0.012914429 -0.033889644
0.022400789 -0.048715763 -0.036007684 0.008194783 0.027835455 -0.0069682226 0.023706865 -0.024490891
-0.03529273 -0.054687567 -0.020579921 -0.032733373 -0.047393605 -0.011811172 0.030342238 -0.040383358
-0.010453844 -0.035702262 -0.048339237 0.003751583 -0.018387066 0.027242638 0.017725624 -0.049571965
-0.021961048 -0.041967437 -0.02814119 -0.049187694 0.018707436 -0.06284732 -0.055372015 0.005687116
-0.043546833 0.011895 -0.015374483 -0.010993668 0.00072131935 -0.0360613 -0.0659558 0.02533383
-0.039689172 -0.029032568 -0.019369967 -0.0480616 -0.01833147 -0.021388074 0.022904523 -0.026416674
-0.024247268 0.00023023071 0.028576672 -0.059645165 0.030404108 -0.060470924 -0.04962462 0.015122975
-0.02176001 0.022486672 -0.05169464 0.017303737 -0.05152291 0.029765258 0.008444268 0.019994933
-0.01733875 -0.0034644157 -0.04448552 0.0005303028 0.036754146 -0.016037837 -0.017805476 0.013900078
-0.031338993 -0.0014774996 -0.05898263 0.0030678934 -0.012828793 0.03998534 0.009800184 -0.055091098
0.01702939 -0.011705109 0.016419116 -0.010250734 0.007734764 -0.039813336 -0.022354584 0.04114738
-0.051556233 0.040249076 0.024721557 -0.028134426 0.0025094305 -0.007935173 -0.008259165 -0.006678668
-0.0342676 0.021774285 0.0004473599 -0.008163995 -0.06824268 -0.03830229 -0.029885583 -0.04055312
0.051582202 -0.033276174 -0.060624365 -0.03249031 -0.009247562 0.0064086835 -0.045061298 -0.034140114
-0.04284189 -0.024533538 0.004271827 -0.012732093 -0.004912392 -0.03962554 -0.019127177 0.035561997
0.022934414 -0.022135343 -0.055525504 -0.027299242 -0.05014596 -0.0543348 0.039117493 -0.009779789
0.030169802 -0.041273773 -0.026242703 -0.029779483 0.036031444 -0.025230141 -0.050003257 -0.028816523
0.032589186 0.013431032 -0.007335843 0.018521536 -0.056631222 -0.009514536 0.0024574134 0.022779927
-0.047115464 -0.008370715 -0.035843227 -0.05096194 0.01130298 0.020267459 0.012695502 0.03971756
-0.006326361 0.03537439 -0.033178907 -0.02399631 0.03585366 -0.05326928 -0.04200788 -0.050036184
0.04265339 -0.0416432 0.00684138 0.010553691 -0.030094087 0.028055133 -0.012670176 6.6677785e-05
-0.047859564 0.0071282904 0.013019727 0.012989478 -0.05983291 0.02389813 -0.04298336 -0.009131442
-0.0042141923 0.030174507 -0.016939525 -0.027626323 -0.01666867 -0.042418655 -0.06078259 -0.020908395
0.005531196 0.016547618 -0.057507068 0.0039662854 -0.054574158 -0.013887029 -0.04633518 -0.004845436
-0.037888896 0.0010093333 0.010953264 -0.021043263 0.036839154 0.024879139 -0.030835865 0.015845539
0.009292948 -0.013145884 -0.015096158 0.0053409277 -0.050497226 -0.01077151 -0.0013227861 0.035796866
00000000: 32b5 1ebd fe92 c23a 7b4a d5bc af13 e1bc
00000010: 7f0f 47bd df3d b33b 9bb1 54bc 08e8 73bc
00000020: a46a 89bc 80da 0a3d 7c7b 41bc b3ff 1dba
00000030: c06a 413d b85f 5dbd ed80 94bc fb15 37bd
00000040: 840e f63c f5d8 1dbd 5757 ae3c 439e 5bbd
00000050: ca99 45bd 7e9a 2bbc 5aff ccbc 9d7c d4bb
00000060: 4bb4 2f3d c100 17bc eec8 cb3c 3a01 5dbd
00000070: 6d22 06ba 4ad8 013c 034c ec3c c6bb b8bc
00000080: dbd0 dabb 37e2 7abc 174a 37bc b819 283d
00000090: 5fdd 3bbd d572 01bd 51c6 04bc ab41 78bd
000000a0: 0706 0cbd e07b bd3a ac12 98bc ecbe 23bd
000000b0: fd94 5e3b 566c b9bc 0b97 533c decf 0abd
000000c0: dc81 b73c 2e8a 47bd cb7c 13bd 6943 063c
000000d0: 2e07 e43c b055 e4bb e634 c23c 1fa1 c8bc
000000e0: 1c8f 10bd 1200 60bd 3997 a8bc 6e13 06bd
000000f0: cc1f 42bd a583 41bc 4990 f83c 0569 25bd
00000100: 9a46 2bbc 893c 12bd 5dff 45bd 1edd 753b
00000110: 79a0 96bc f42b df3c 5435 913c f90b 4bbd
00000120: a8e7 b3bc 0ce6 2bbd 5a88 e6bc 0979 49bd
00000130: 5640 993c 19b6 80bd c4cd 62bd fd5a ba3b
00000140: 2a5e 32bd 3fe3 423c 41e5 7bbc c91e 34bc
00000150: ec16 3d3a 04b5 13bd d613 87bd e488 cf3c
00000160: 1d91 22bd b5d5 edbc c4ad 9ebc 3edc 44bd
00000170: e12b 96bc 0b36 afbc 44a2 bb3c c867 d8bc
00000180: 35a2 c6bc 166a 7139 a019 ea3c 7d4e 74bd
00000190: 0912 f93c 5cb0 77bd 2f43 4bbd 5bc6 773c
000001a0: 0c42 b2bc f835 b83c c2bd 53bd 91c0 8d3c
000001b0: b009 53bd 45d6 f33c d459 0a3c 6acc a33c
000001c0: ff09 8ebc 400b 63bb 7336 36bd 0504 0b3a
000001d0: 848b 163d c861 83bc cadc 91bc 27bd 633c
000001e0: 515d 00bd a9a8 c1ba c597 71bd b60e 493b
000001f0: dc2f 52bc abc7 233d f390 203c 34a7 61bd
00000200: 3881 8b3c c9c6 3fbc 6281 863c b2f2 27bc
00000210: e773 fd3b 4f13 23bd f620 b7bc 288a 283d
00000220: a12c 53bd 37dc 243d dd84 ca3c 2b7a e6bc
00000230: 4275 243b 8702 02bc 7351 07bc bad8 dabb
00000240: 2f5c 0cbd fc5f b23c a18b ea39 47c2 05bc
00000250: d1c2 8bbd dde2 1cbd 9cd2 f4bc 071b 26bd
00000260: dc47 533d 994c 08bd 4151 78bd 8f14 05bd
00000270: 1683 17bc efff d13b 3292 38bd 81d6 0bbd
00000280: fa7a 2fbd 8ffa c8bc affa 8b3b 459a 50bc
00000290: 21f8 a0bb 644e 22bd 99b0 9cbc 75a9 113d
000002a0: f4e0 bb3c 2e55 b5bc b66e 63bd a9a2 dfbc
000002b0: da65 4dbd 2b8e 5ebd aa39 203d 683b 20bc
000002c0: a926 f73c b00e 29bd f0fa d6bc 1af4 f3bc
000002d0: b595 133d 71af cebc 37d0 4cbd a110 ecbc
000002e0: 3d7c 053d d50d 5c3c 8361 f0bb 7aba 973c
000002f0: 24f6 67bd dbe2 1bbc 8e0c 213b f89c ba3c
00000300: 25fc 40bd 5325 09bc 59d0 12bd 78bd 50bd
00000310: 2230 393c f107 a63c cb00 503c e1ae 223d
00000320: 5d4d cfbb bde4 103d 9be6 07bd e993 c4bc
00000330: 4adb 123d e330 5abd 7410 2cbd bef2 4cbd
00000340: 52b5 2e3d 0f92 2abd a82d e03b 63e9 2c3c
00000350: e087 f6bc e1d3 e53c 9296 4fbc 5dd5 8b38
00000360: 6408 44bd 6f94 e93b b150 553c d2d1 543c
00000370: 5a13 75bd 03c6 c33c 520f 30bd 0b9c 15bc
00000380: 3517 8abb 8730 f73c c2c4 8abc 9950 e2bc
00000390: bc8c 88bc 2fbf 2dbd 2af7 78bd 1548 abbc
000003a0: 093f b53b df8e 873c 888c 6bbd 9df7 813b
000003b0: 2789 5fbd 6c86 63bc f5c9 3dbd 77c6 9ebb
000003c0: 6331 1bbd 9b4b 843a 5275 333c ec62 acbc
000003d0: a7e4 163d 56cf cb3c 7f9b fcbc 81ce 813c
000003e0: 7341 183c d561 57bc e055 77bc f302 af3b
000003f0: 2ed6 4ebd fd7a 30bc 5661 adba bc9f 123d

dense1.bias f4 [128]
0.042802174 0.075395316 0.034986414 0.02286711 0.0064816647 0.03174226 0.0230336 -0.03940834
0.022028899 -0.10016911 0.08046312 0.017402291 0.11128066 0.10412485 0.04919562 0.1043472
0.10943695 -0.0051527303 -0.04541355 -0.03333888 0.019453814 -0.004674369 -0.052156314 0.15337898
-0.012420174 0.10736406 0.059532907 0.1409958 -0.0077269855 -0.025769219 0.08776579 -0.087002635
0.00617323 0.050332755 -0.11632888 -0.016277699 -0.058136355 0.058138933 -0.014673184 0.015876785
0.029684035 -0.037283003 -0.018003717 0.06363451 0.021675251 -0.07285611 -0.037329275 0.049075074
0.11471141 0.068042696 0.07754265 0.04221521 -0.033881683 -0.026513776 -0.014272057 0.045094218
-0.026084287 0.07874903 0.07301459 0.02829906 0.009189764 0.02523789 0.08270688 -0.024204334
0.0063399673 0.07792389 0.0711403 -0.019491954 0.14346428 0.09093827 0.010657943 0.040551778
0.017233899 0.02143443 -0.051081683 -0.01621364 0.04703936 -0.1018768 -0.05602331 0.09760669
-0.05320543 0.012013294 0.074325666 -0.024023198 -0.023131447 0.021676403 0.013912324 0.0970915
0.025948655 0.010897969 -0.07411411 -0.019982068 0.20333469 0.069362596 0.05337917 -0.051289592
-0.05389109 0.10489759 0.024969608 0.013912092 0.08620406 -0.03594236 0.010857486 0.08589278
-0.00339524 0.0014163723 0.053681713 0.068469055 0.078436546 0.08711373 0.042328946 0.012047094
0.12471708 0.021407522 -0.04628232 -0.007917292 0.038085546 0.0014213469 0.032911032 -0.0147729
0.09179545 0.15705594 0.031189622 0.087429345 -0.048184663 0.006662884 0.07987894 0.023736533
00000000: 5551 2f3d dc68 9a3d ea4d 0f3d ce53 bb3c
00000010: 2564 d43b 2c04 023d f6b0 bc3c a46a 21bd
00000020: f375 b43c 7625 cdbd d9c9 a43d 408f 8e3c
00000030: 1de7 e33d 693f d53d 5981 493d fcb3 d53d
00000040: 7b20 e03d 3cd8 a8bb 8f03 3abd 598e 08bd
00000050: 9b5d 9f3c 732b 99bb dca1 55bd 610f 1d3e
00000060: fc7d 4bbc b0e1 db3d c7d8 733d 3461 103e
00000070: a732 fdbb f819 d3bc 8dbe b33d 702e b2bd
00000080: ce48 ca3b b829 4e3d d63d eebd cf58 85bc
00000090: 6320 6ebd 1723 6e3d cb67 70bc 0810 823c
000000a0: ef2b f33c 10b6 18bd 887c 93bc cf52 823d
000000b0: 4c90 b13c 9635 95bd 95e6 18bd f202 493d
000000c0: d1ed ea3d f859 8b3d aece 9e3d dbe9 2c3d
000000d0: 85c7 0abd 6b33 d9bc 59d5 69bc b7b4 383d
000000e0: b7ae d5bc 2c47 a13d ac88 953d 6ed3 e73c
000000f0: aa90 163c b1bf ce3c 3a62 a93d 2b48 c6bc
00000100: 80bf cf3b 8f96 9f3d 01b2 913d 97ad 9fbc
00000110: 4de8 123e d83d ba3d a79e 2e3c 9f19 263d
00000120: 1b2e 8d3c 4297 af3c 073b 51bd 78d2 84bc
00000130: 58ac 403d c9a4 d0bd b378 65bd 04e6 c73d
00000140: f0ed 59bd 68d3 443c 0e38 983d 4ccc c4bc
00000150: 297e bdbc b692 b13c 84f0 633c e9d7 c63d
00000160: 4692 d43c 658d 323c 23c9 97bd 6fb1 a3bc
00000170: f836 503e fa0d 8e3d 1ea4 5a3d 0915 52bd
00000180: e7bc 5cbd 8cd4 d63d 108d cc3c 8bef 633c
00000190: c18b b03d 4c38 13bd 99e3 313c 8ee8 af3d
000001a0: ad82 5ebb 91a5 b93a 5be1 5b3d 8139 8c3d
000001b0: 57a3 a03d af68 b23d 1e61 2d3d 2d61 453c
000001c0: ab6b ff3d d45e af3c 8892 3dbd 88b7 01bc
000001d0: 97ff 1b3d 7d4c ba3a b8cd 063d 090a 72bc
000001e0: 41ff bb3d 46d3 203e 6181 ff3c 280e b33d
000001f0: 485d 45bd 5254 da3b 9297 a33d 1e73 c23c

dense2.weight f4 [64, 128]
0.021841425 -0.07129798 -0.06359787 -0.030743634 0.09451542 0.063804805 0.0032191374 -0.03718721
-0.034627534 0.044909835 -0.06782523 0.0036959508 0.05095482 0.015548898 0.009914337 0.0023164498
0.059434976 -0.07968134 -0.039246924 0.008007656 -0.05195049 0.05347681 -0.072737835 0.0086189555
0.014205423 -0.0007615755 -0.041902665 0.02453528 -0.044988953 0.03650984 0.02366215 0.028670985
-0.018264174 -0.011678564 -0.04328104 -0.07982748 -0.07918411 -0.051198788 -0.049276743 -0.013996021
0.021289334 -0.055647 -0.026556201 0.03520816 -0.05845265 0.0435494 0.07396901 0.068193495
0.038409945 0.004009769 -0.0973565 -0.062043354 -0.047783002 0.013949609 -0.03596767 -0.055565562
-0.07032348 -0.021254258 0.031161213 -0.047723867 0.046336386 -0.04665144 -0.029738598 -0.025001483
0.03547554 0.058154073 -0.034869403 -0.06691607 0.026694244 0.06925436 -0.031626128 0.038494263
0.0698618 0.015646994 -0.018007107 -0.09193606 0.053818148 -0.009015805 0.08920663 -0.02605442
-0.039619382 0.0029424669 -0.028270498 -0.027220076 0.053002287 0.047969688 -0.083259 -0.052035104
-0.07206067 -0.06536679 -0.026072135 -0.067197375 -0.0047224117 -0.09854997 -0.023590835 0.020383235
-0.068169184 -0.059839763 -0.032312874 -0.024683565 -0.08270244 0.04890418 0.08378899 0.051175464
0.0025723092 0.04678474 0.07692799 0.010148736 -0.09351955 0.043271888 0.08072685 -0.012733968
-0.124731 0.008831252 -0.00014140525 -0.020742588 0.020780679 -0.05649091 0.04156899 0.036630433
-0.105948396 -0.0098087005 -0.015713742 -0.07125811 0.08939231 -0.041342862 0.014043037 -0.06472285
-0.043238018 -0.06887859 0.12859449 0.018177113 0.08080092 0.06119855 -0.07397522 -0.057811
-0.051456705 0.008779937 0.21046963 -0.0011495973 -0.054575697 0.055147648 -0.026988635 0.17611502
0.14421943 0.059436392 -0.00361701 0.0021058645 0.059750505 -0.029843858 -0.048727497 -0.029998524
0.054534473 -0.008907347 -0.072513774 -0.013916364 0.119163476 0.039292507 -0.16105379 0.051611155
0.043414876 0.0875832 0.035300296 0.045351367 0.02981031 0.028435435 -0.039615404 0.044497665
0.019936651 0.054736633 0.06919936 0.091244176 -0.116523445 0.03849021 -0.008094449 -0.080580086
0.086039275 -0.03547175 0.008442097 -0.10932709 0.06718935 -0.07551502 -0.09490129 -0.05242389
-0.005249332 -0.13693377 0.047692478 -0.08590948 0.06500323 0.06334353 0.09694761 -0.047261838
0.17236112 -0.31161684 0.11005756 0.11393489 0.20146342 0.06596823 -0.0004942543 0.1150166
-0.014241121 0.12222795 -0.025190696 -0.0113438 -0.04888821 -0.08635191 -0.0026881394 0.16500412
0.054218795 -0.07949359 0.03466324 -0.12708297 0.08228159 0.075160176 0.3167799 -0.013895086
-0.038010154 0.035796676 -0.0699861 -0.09987669 0.11887589 0.12557551 0.0787845 0.049526967
-0.01284342 0.009283743 -0.030533709 0.23666666 -0.04257354 -0.045557182 -0.03475921 0.11752377
-0.011390038 -0.04761459 0.09039812 -0.033499915 0.003042978 0.06861581 0.044844814 0.083446674
-0.022542052 0.06879467 -0.024823396 -0.15634844 -0.09770474 0.052039225 0.06858951 0.038835686
0.016910778 0.079076916 -0.051395863 -0.01270416 0.012436125 0.027202582 0.0925906 -0.006940353
00000000: caec b23c ad04 92bd 9a3f 82bd 13da fbbc
00000010: 4d91 c13d 18ac 823d 2af8 523b 9e51 18bd
00000020: 9ad5 0dbd 60f3 373d f4e7 8abd c437 723b
00000030: 00b6 503d cec0 7e3c be6f 223c 94cf 173b
00000040: 1772 733d f82f a3bd 62c1 20bd 8b32 033c
00000050: 09ca 54bd 800a 5b3d 93f7 94bd 8536 0d3c
00000060: ddbd 683c 77a4 47ba 21a2 2bbd 36fe c83c
00000070: 5646 38bd 588b 153d 20d7 c13c 6adf ea3c
00000080: c09e 95bc 7357 3fbc 7647 31bd 977c a3bd
00000090: 472b a2bd d2b5 51bd 69d6 49bd 914f 65bc
000000a0: f866 ae3c 1cee 63bd 648c d9bc 6e36 103d
000000b0: 0c6c 6fbd db60 323d 107d 973d 08a9 8b3d
000000c0: bf53 1d3d 6164 833b d862 c7bd 2c21 7ebd
000000d0: 1cb8 43bd e78c 643c d652 13bd b798 63bd
000000e0: c205 90bd 691d aebc cd45 ff3c 1a7a 43bd
000000f0: 39cb 3d3d 9515 3fbd 5c9e f3bc e9cf ccbc
00000100: cd4e 113d f732 6e3d 38d3 0ebd 4b0b 89bd
00000110: e3ad da3c 3bd5 8d3d 668a 01bd 29ac 1d3d
00000120: b413 8f3d 202e 803c a483 93bc f948 bcbd
00000130: 6b70 5c3d 07b7 13bc f7b1 b63d 1470 d5bc
00000140: ef47 22bd 67d6 403b 8897 e7bc a3fc debc
00000150: ed18 593d dd7b 443d b283 aabd c322 55bd
00000160: 8b94 93bd 06df 85bd 3b95 d5bc c79e 89bd
00000170: 76be 9abb 91d4 c9bd 9141 c1bc befa a63c
00000180: 499c 8bbd 8a1a 75bd 815a 04bd 3035 cabc
00000190: e65f a9bd c04f 483d 9099 ab3d 5d9d 513d
000001a0: 3094 283b 5ba1 3f3d 6c8c 9d3d e246 263c
000001b0: 2e87 bfbd dd3d 313d 1e54 a53d 22a2 50bc
000001c0: f772 ffbd f5b0 103c 2f46 14b9 5cec a9bc
000001d0: 3e3c aa3c 0363 67bd 3f44 2a3d cb09 163d
000001e0: 79fb d8bd acb4 20bc 1bba 80bc c6ef 91bd
000001f0: 5113 b73d 2257 29bd c414 663c 6a8d 84bd
00000200: 591a 31bd 3810 8dbd 46ae 033e 2be8 943c
00000210: f47a a53d 55ab 7a3d 5280 97bd 3acb 6cbd
00000220: 44c4 52bd bad9 0f3c 5a85 573e 16ae 96ba
00000230: c48a 5fbd 80e2 613d 4517 ddbc 7f57 343e
00000240: 42ae 133e 9373 733d 5c0b 6dbb 8b02 0a3b
00000250: f2bc 743d 1b7b f4bc 7c96 47bd 77bf f5bc
00000260: 8a5f 5f3d 1ff0 11bc 1a82 94bd 7601 64bc
00000270: fb0b f43d 2ef1 203d 49eb 24be 3866 533d
00000280: ccd3 313d d25e b33d 0b97 103d 5bc2 393d
00000290: c034 f43c 6ef1 e83c c343 22bd 2f43 363d
000002a0: 3052 a33c 8533 603d 65b8 8d3d 3ade ba3d
000002b0: d8a3 eebd e9a7 1d3d 949e 04bc 2c07 a5bd
000002c0: 5c35 b03d d34a 11bd b950 0a3c e2e6 dfbd
000002d0: 929a 893d 9ea7 9abd 9c5b c2bd 6fba 56bd
000002e0: 9702 acbb 5e38 0cbe 3059 433d 4ff1 afbd
000002f0: 6a20 853d 41ba 813d 788c c63d a195 41bd
00000300: 6f7f 303e 3e8c 9fbe dc65 e13d b256 e93d
00000310: 6d4c 4e3e 5a1a 873d d890 01ba d38d eb3d
00000320: 9753 69bc a652 fa3d b85c cebc 59db 39bc
00000330: 013f 48bd 45d9 b0bd 7f2b 30bb d7f6 283e
00000340: 8714 5e3d 89cd a2bd 0bfb 0d3d 0a22 02be
00000350: 4083 a83d 94ed 993d fa30 a23e 37a8 63bc
00000360: 89b0 1bbd 899f 123d df54 8fbd 268c ccbd
00000370: 3475 f33d de96 003e c559 a13d cadc 4a3d
00000380: 356d 52bc d71a 183c d421 fabc bf58 723e
00000390: 9861 2ebd 2b9a 3abd ac5f 0ebd 4db0 f03d
000003a0: 489d 3abc 8407 43bd a622 b93d 3537 09bd
000003b0: b36c 473b 7286 8c3d 32af 373d 17e6 aa3d
000003c0: 1caa b8bc 38e4 8c3d 6f5a cbbc ce19 20be
000003d0: 6c19 c8bd 1527 553d a878 8c3d 2b12 1f3d
000003e0: 7988 8a3c 14f3 a13d 7884 52bd 1c25 50bc
000003f0: e4c0 4b3c f3d7 de3c 24a0 bd3d e76b e3bb

dense2.bias f4 [64]
0.007725051 0.13322566 0.0703366 -0.063086726 0.036122624 -0.052704494 -0.030688073 -0.051134337
-0.017457053 0.041166957 -0.055446938 0.07302424 0.10956532 -0.07926216 0.103541076 -0.10709269
-0.06267637 -0.027861137 0.08758974 0.10450928 -0.012040786 -0.023517696 0.030508185 -0.057471205
-0.069210656 -0.07344966 0.079835474 0.13285159 0.039954744 0.1264433 0.08922272 0.14639796
0.0058857733 -0.036242668 -0.038142487 -0.015669787 -0.012791284 0.0511936 0.04034045 -0.010887677
-0.04672269 -0.0024611724 0.025709745 -0.04225918 0.07411484 0.027807176 0.15813184 0.06994681
0.14432752 -0.023229955 -0.070783794 0.033731647 0.16651835 0.014535226 0.02961432 0.2506441
0.064334385 0.10155433 -0.047135603 0.071878955 0.015559986 -0.14329849 -0.07674622 0.023584545
00000000: 6d22 fd3b 4f6c 083e a30c 903d 9d33 81bd
00000010: 51f5 133d abe0 57bd 8e65 fbbc 3d72 51bd
00000020: 1802 8fbc af9e 283d 541c 63bd bc8d 953d
00000030: c863 e03d 3354 a2bd 580d d43d 6a53 dbbd
00000040: 785c 80bd 0a3d e4bc 4062 b33d f608 d63d
00000050: b846 45bc 2fa8 c0bc 4dec f93c ed66 6bbd
00000060: 51be 8dbd c66c 96bd c880 a33d 3f0a 083e
00000070: 96a7 233d 5a7a 013e 67ba b63d 59e9 153e
00000080: 72dd c03b 3173 14bd 4c3b 1cbd ed5d 80bc
00000090: 8992 51bc 61b0 513d 073c 253d 3a62 32bc
000000a0: 4b60 3fbd 9f4b 21bb 3e9d d23c f617 2dbd
000000b0: 85c9 973d e0cb e33c 50ed 213e 4640 8f3d
000000c0: 98ca 133e bf4c bebc 18f7 90bd 322a 0a3d
000000d0: c983 2a3e 2825 6e3c bb99 f23c 6c54 803e
000000e0: bfc1 833d b7fb cf3d 4311 41bd 4635 933d
000000f0: 50ef 7e3c d7bc 12be 1f2d 9dbd 6034 c13c

final.weight f4 [20, 64]
0.069034904 -0.15895866 0.19213638 -0.007261949 0.04646981 -0.032182846 0.13249284 0.072435826
-0.08804961 -0.13198653 -0.07767239 -0.15480785 -0.26270857 -0.079649396 -0.33809546 -0.0707927
-0.0077558756 -0.097541705 -0.5385255 0.1466769 -0.19354568 -0.1536678 0.087222606 0.120308444
0.07225192 -0.097853 0.08160426 -0.0029439095 0.031347807 0.06361559 0.12545004 -0.3414488
-0.05932425 0.09179699 -0.13298872 0.16636683 -0.21538676 -0.21491314 0.19431126 -0.086629085
0.11485018 0.23916213 0.05219403 -0.0785329 -0.161997 -0.0161873 0.08365636 -0.0721479
-0.044602785 -0.17293248 -0.15373045 -0.3053287 0.0003308414 0.023456251 0.038181145 0.027338779
-0.02544041 -0.043239422 0.0147973215 -0.11922944 0.06187789 0.061811507 0.026726115 0.08592195
0.10143274 0.012348694 0.06521617 -0.09804872 -0.17685404 -0.13607217 -0.0021293808 -0.049466822
0.12342802 -0.09894403 -0.082981326 0.013945042 0.12540808 -0.01246092 -0.29826134 0.039324433
-0.043799024 0.03223316 -0.09090412 0.124191985 0.08307307 0.087843485 0.06468439 0.119049616
-0.016490486 0.098897 -0.08092304 0.08748312 0.105808884 0.17752697 0.103930674 -0.09529215
0.10910339 -0.085823335 -0.094520755 0.13309194 -0.09412408 -0.15059781 0.16898598 0.03331878
0.05698806 -0.11628125 0.12230074 -0.06224827 -0.1620991 -0.0834899 0.115353644 -0.13611604
-0.003098456 0.009008586 -0.0032865636 -0.22893712 0.07486342 0.0928966 0.004905352 0.18860471
0.030381644 0.1936854 -0.005573345 -0.20036998 0.11825687 -0.0318319 0.02305851 0.116867304
0.07892264 -0.2996258 -0.12105853 -0.046712622 -0.14533229 0.007318044 0.07364197 -0.10726348
0.12661535 0.13311484 0.06673205 -0.10636315 0.0794388 -0.08727209 -0.05104262 -0.008836385
-0.089046724 -0.06886704 -0.068957224 0.087766774 0.048834454 -0.07631455 -0.18726803 -0.06401018
-0.09192887 0.0022501159 0.17861822 -0.18958364 -0.21079089 -0.028242381 0.08820004 0.08436381
-0.05647195 0.0039736796 -0.058140278 -0.17290416 0.07161106 0.007207257 -0.064716205 0.025442617
-0.11474749 -0.3522072 0.12681381 0.1267289 0.01239424 -0.084026255 0.07726759 -0.067635916
0.100397326 0.067169644 -0.13081953 0.05173182 -0.04792872 0.16123524 -0.09094723 -0.026485078
-0.043466885 0.09984989 -0.077237956 -0.105148144 -0.034128193 -0.087596364 -0.117747046 0.10672254
0.08938703 0.075829566 0.2512155 -0.052385766 -0.16804886 -0.18125312 -0.15048109 0.02852756
-0.3046104 -0.10449399 -0.116890416 -0.041226827 0.1393812 -0.047413673 0.10038955 0.022087105
-0.11948647 -0.042360973 0.14618717 -0.017908264 0.116583176 0.025396885 0.15388042 -0.091752835
0.028183876 0.05296502 -0.1797832 0.11178365 -0.09625994 -0.0774371 0.12122301 -0.15247983
0.06051722 0.14880984 0.01036511 0.0878003 0.0062616155 0.100471765 0.019202316 -0.083925106
-0.015000848 0.017144693 0.027003061 0.034220062 0.22351661 -0.024942819 -0.1631524 -0.4165143
0.17061517 0.04469508 0.15620111 -0.07095983 -0.18182409 0.13629472 0.017610675 0.044268083
0.10848275 -0.073092945 0.042586178 0.12586606 -0.10996148 -0.08032959 -0.10562144 -0.13760793
00000000: 2c62 8d3d 0fc6 22be 66bf 443e a5f5 edbb
00000010: 2157 3e3d 29d2 03bd 34ac 073e 3c59 943d
00000020: 5b53 b4bd 7a27 07be b412 9fbd f385 1ebe
00000030: bd81 86be 391f a3bd d91a adbe c3fb 90bd
00000040: 0025 febb f2c3 c7bd cfdc 09bf 7832 163e
00000050: d730 46be 175b 1dbe c4a1 b23d 4664 f63d
00000060: d1f8 933d 2767 c8bd 2220 a73d 9bee 40bb
00000070: 8f66 003d e448 823d fa75 003e 61d2 aebe
00000080: fcfd 72bd 0f00 bc3d 322e 08be 115c 2a3e
00000090: 598e 5cbe 3112 5cbe 88f9 463e 976a b1bd
000000a0: 9236 eb3d ebe6 743e 68c9 553d dbd5 a0bd
000000b0: 8be2 25be 3b9b 84bc 0754 ab3d 47c2 93bd
000000c0: 69b1 36bd 3615 31be 846b 1dbe 0b54 9cbe
000000d0: c874 ad39 5327 c03c d563 1c3d 93f5 df3c
000000e0: 6868 d0bc d21b 31bd 7770 723c 912e f4bd
000000f0: ac73 7d3d 102e 7d3d baf0 da3c d9f7 af3d
00000100: f8bb cf3d 2d52 4a3c 0e90 853d c4cd c8bd
00000110: 3a19 35be 8156 0bbe 158d 0bbb b99d 4abd
00000120: d4c7 fc3d 2ba3 cabd 1df2 a9bd bf79 643c
00000130: fa6a 003e e328 4cbc b6b5 98be a812 213d
00000140: 9b66 33bd eb06 043d f02b babd 5e58 fe3d
00000150: 3722 aa3d 49e7 b33d 4079 843d 49d0 f33d
00000160: 0e17 87bc 838a ca3d fbba a5bd 5a2a b33d
00000170: 54b2 d83d a1c9 353e 9bd9 d43d 8828 c3bd
00000180: 9971 df3d 25c4 afbd 1994 c1bd 4149 083e
00000190: 20c4 c0bd 5036 1abe a90a 2d3e 4679 083d
000001a0: 506c 693d dd24 eebd cf78 fa3d 0bf8 7ebd
000001b0: 4efd 25be c1fc aabd 883e ec3d 0162 0bbe
000001c0: 770f 4bbb c098 133c 6363 57bb 7e6e 6abe
000001d0: fe51 993d 9340 be3d 13bd a03b 9821 413e
000001e0: ede2 f83c 7755 463e 9ba0 b6bb ca2d 4dbe
000001f0: a830 f23d 2b62 02bd 33e5 bc3c 2058 ef3d
00000200: 31a2 a13d 8e68 99be 89ed f7bd bc55 3fbd
00000210: fdd1 14be 34cc ef3b 9ad1 963d f5ac dbbd
00000220: 74a7 013e 424f 083e d0aa 883d ecd4 d9bd
00000230: cfb0 a23d b6bb b2bd 1112 51bd 7cc6 10bc
00000240: 215e b6bd 2a0a 8dbd 7239 8dbd 11bf b33d
00000250: a306 483d ce4a 9cbd 31c3 3fbe c517 83bd
00000260: 3445 bcbd ae76 133b b2e7 363e 3722 42be
00000270: 91d9 57be 915c e7bc 39a2 b43d efc6 ac3d
00000280: 224f 67bd a435 823b 8024 6ebd ca0d 31be
00000290: d2a8 923d db2a ec3b ee89 84bd 096d d03c
000002a0: bb00 ebbd 8154 b4be 7bdb 013e 39c5 013e
000002b0: 3611 4b3c f515 acbd 783e 9e3d b384 8abd
000002c0: 1d9d cd3d 3d90 893d 8ef5 05be bfe4 533d
000002d0: e850 44bd da1a 253e 8b42 babd 3cf7 d8bc
000002e0: 550a 32bd 197e cc3d ef2e 9ebd e957 d7bd
000002f0: 01ca 0bbd b965 b3bd 5d25 f1bd 5991 da3d
00000300: 8c10 b73d 884c 9b3d 519f 803e 7592 56bd
00000310: 0015 2cbe 6b9a 39be b717 1abe a1b2 e93c
00000320: e5f5 9bbe f200 d6bd 3e64 efbd 76dd 28bd
00000330: f2b9 0e3e d734 42bd 0999 cd3d 04f0 b43c
00000340: 53b5 f4bd b382 2dbd 17b2 153e 5ab4 92bc
00000350: 29c3 ee3d 210d d03c d492 1d3e e9e8 bbbd
00000360: dfe1 e63c d9f1 583d 1619 38be d4ee e43d
00000370: ee23 c5bd 5897 9ebd c543 f83d ac23 1cbe
00000380: e8e0 773d 9b61 183e 6cd2 293c a5d0 b33d
00000390: 3d2e cd3b 24c4 cd3d 2d4e 9d3c ede0 abbd
000003a0: 1ec6 75bc 0773 8c3c 8635 dd3c 562a 0c3d
000003b0: 8ae1 643e e254 ccbc 6c11 27be 5d41 d5be
000003c0: beb5 2e3e 3012 373d 2ff3 1f3e 6353 91bd
000003d0: 1830 3abe d890 0b3e 4344 903c 7352 353d
000003e0: 342c de3d c1b1 95bd d86e 2e3d 08e3 003e
000003f0: 7c33 e1bd d783 a4bd 0e50 d8bd 18e9 0cbe

final.bias f4 [20]
-0.11046543 0.15958326 -0.014262376 0.04748633 0.06888032 0.01615231 0.07028022 -0.023172706
-0.06943931 0.102778666 0.044540524 -0.02637666 0.09835176 -0.028930826 0.04913702 -0.009413273
-0.11658108 -0.046499494 -0.14247055 -0.029962605
00000000: b33b e2bd cb69 233e beac 69bc 0781 423d
00000010: 2011 8d3d d951 843c 13ef 8f3d b0d4 bdbc
00000020: 3236 8ebd 9f7d d23d 2070 363d de13 d8bc
00000030: a66c c93d 5700 edbc e643 493d 213a 1abc
00000040: 10c2 eebd 4176 3ebd cde3 11be 2374 f5bc
