Superclass/models/superclass_base.pth (torch, 249192 bytes, 10 tensors)

conv1.weight f4 [6, 1, 5, 5]
000000 27 ac 89 3e b8 be 6a 3e e9 58 23 3e 6b 7b 13 be
       0.26889154 0.22924316 0.15951885 -0.14402549
000010 d1 9d 8f be 96 9d 76 3d 91 12 58 3e 16 68 39 3d
       -0.28050092 0.06020888 0.21100833 0.04526528
000020 83 a9 51 be 26 a2 93 be 5b a0 8c 3e ae 70 f6 3d
       -0.2047482 -0.28834647 0.27466092 0.12033211
000030 8d 54 e7 3d 0f ef 8a be 3a c2 63 bd 8b 1f 92 3e
       0.11295424 -0.27135512 -0.05560515 0.2853969
000040 48 1a 1f be a3 86 78 be 9d 05 83 be cf e1 0c be
       -0.15537369 -0.2427011 -0.2559022 -0.13758014
000050 7a 79 c6 3c f9 0a 89 3d 64 bf 15 be 9c 17 e0 3d
       0.024227846 0.06691546 -0.14623791 0.10942003
000060 0b 0f 19 3e 30 9f 08 3d 28 c0 83 be c7 ac bb 3d
       0.14947145 0.033354938 -0.2573254 0.09163814
000070 76 20 74 3e de a6 a0 3e eb 31 c4 be 31 a0 77 be
       0.23840508 0.3137731 -0.38319334 -0.24182202
000080 f8 d6 4c be 2c 70 1e bc cd 11 68 3e 5d 62 64 be
       -0.20003879 -0.009670299 0.2266304 -0.22303148
000090 d4 40 b9 bd 36 2b 6b be ef 85 8f bc 47 70 6b 3e
       -0.09045568 -0.22965702 -0.01751992 0.22992049
0000a0 18 32 61 be de 9e 25 bd 5e 3b d6 bd ff 9e 89 3e
       -0.21991765 -0.04043471 -0.10460542 0.26879117
0000b0 91 4f f3 3d a2 6c a8 3c 73 31 09 3d ea 11 b2 3d
       0.118804105 0.020559613 0.033494424 0.08694823
0000c0 00 9d 89 3e be f0 04 bd 3c 93 f3 3d c3 e8 3a be
       0.26877594 -0.032456152 0.11893317 -0.18252854
0000d0 ac d8 af bd eb fa 0d be da 18 a8 3d 03 86 83 be
       -0.08586249 -0.13865249 0.08207865 -0.2568818
0000e0 0a f1 67 bc b5 94 df bd 95 62 70 3e 8d e6 87 3e
       -0.014156589 -0.109170355 0.23475106 0.26543084
0000f0 3f 62 8e 3d 55 67 55 be 5f 39 19 3e 88 0c 6e bd
       0.06952333 -0.208402 0.14963292 -0.05811742
000100 ef 52 c1 3d 64 7f 3d be 35 ba 03 3e d3 fb 8a 3c
       0.094396465 -0.18505627 0.12864001 0.016965782
000110 9e f1 d6 3d 84 ab c2 3d 67 f6 b0 3d b8 c0 0d 3e
       0.104953036 0.0950537 0.086407475 0.13843048
000120 36 eb a4 bb 4a f7 33 be 2d 52 1a 3d de 64 ba bd
       -0.005032922 -0.17574802 0.037676025 -0.0910127
000130 93 d8 1d bc d2 ff c0 3d ab 48 a3 3e 45 9f 95 3e
       -0.009634155 0.09423794 0.3189138 0.29223076
000140 21 83 e3 bd e7 5e 32 be c8 ae 18 3e 46 bb 02 3e
       -0.11108995 -0.17419015 0.14910424 0.12766752
000150 92 79 08 be 3e b5 fa bd 6e 19 95 be be 01 44 be
       -0.13327625 -0.122416005 -0.29120964 -0.1914129
000160 0c 5e 90 be 22 a4 6d be d5 48 71 be 80 bc 3d be
       -0.28196752 -0.23207143 -0.2356294 -0.18528938
000170 f1 a6 ba bd f3 d6 a4 be a9 ee 2a be 6c 36 ec bc
       -0.09113873 -0.32195243 -0.16692604 -0.028834544
000180 85 3d 50 bd de 65 f4 bd 6e f0 81 be fd d4 8d bd
       -0.05083992 -0.11933492 -0.25378746 -0.0692539
000190 dc 7b 7d bc 9c 7f 9a be 57 60 8b be 5d 7b d9 bd
       -0.015471425 -0.30175483 -0.2722194 -0.10619233
0001a0 44 b2 0b be d2 b2 c7 3d 1e b7 4e bc 9a 26 e3 3b
       -0.13642222 0.09750904 -0.012616901 0.006932092
0001b0 99 d1 89 be ac d4 2d be ad 28 ce bc 2d 5e ec bc
       -0.26917723 -0.16975659 -0.02516588 -0.0288535
0001c0 99 ec 7c bc c7 3c af 3d d4 b2 2f be 15 95 9f 3b
       -0.015437269 0.08556514 -0.17158061 0.004870067
0001d0 5f 13 ef 3c 4d a3 15 3e fd e3 08 3e ab ae 4f 3d
       0.029184042 0.14613076 0.1336822 0.050703686
0001e0 5c c4 4a 3e 72 81 06 bd aa dc 90 3e c4 a7 49 3e
       0.19801468 -0.032838292 0.28293353 0.19692904
0001f0 47 ee 8a 3e e6 59 3b be d6 c9 3e 3e ec e5 61 3e
       0.27134916 -0.18296012 0.18631682 0.22060364
000200 e4 3e 90 3e 81 50 8e 3e 2f b6 2c be 53 73 0b be
       0.28172982 0.27795795 -0.16866373 -0.13618211
000210 68 1f 2f bd 86 d2 6c 3d 34 11 0d be 62 6b e1 bd
       -0.04275456 0.05781796 -0.13776094 -0.1100681
000220 8f 1f 9b be ae a9 89 be 5f 7e 39 be de a3 01 be
       -0.30297515 -0.26887268 -0.18114613 -0.12660167
000230 a4 a4 a5 3d 58 09 15 3e 41 97 e3 bd 61 02 bc bd
       0.08088043 0.14554346 -0.11112834 -0.09180141
000240 bb 74 da 3c 73 a6 26 3e 15 92 99 3e 07 39 e0 3d
       0.02666699 0.16274433 0.29994264 0.10948377
000250 fb b5 88 3d c2 f4 f1 bd
       0.06675335 -0.11814262

conv1.bias f4 [6]
000000 69 2b 3b 3e 11 59 97 3e b9 f9 8a 3e f0 d0 49 bd
       0.18278278 0.2956014 0.27143648 -0.049271524
000010 96 0c f9 3d 08 0b 9e 3d
       0.12160604 0.07716948

conv2.weight f4 [16, 6, 5, 5]
000000 4a 9a ca 3c 97 19 92 3c 1b 22 21 be 64 99 7e bd
       0.024731774 0.017834468 -0.15735666 -0.062158003
000010 a5 dd 44 bb b6 4d 36 3d c7 60 0f 3d ba e3 de bd
       -0.0030039337 0.044507705 0.035004403 -0.10883279
000020 a7 4a 99 bd 67 f0 bc 3d 2c 63 16 3e 5f dd 3f bc
       -0.07484942 0.092255406 0.14686269 -0.011710494
000030 c8 28 58 be e1 9c a6 3d eb 76 5e 3e f8 d2 2e 3e
       -0.21109307 0.08135391 0.21725051 0.17072666
000040 fe 5f 0b 3e b2 03 ec bd 37 f1 51 bc 4a 48 a0 3b
       0.13610837 -0.11524142 -0.012813858 0.00489143
000050 db f8 75 3d 7a 24 3e 3e af 10 62 bd d4 66 45 be
       0.06005178 0.18568602 -0.055191692 -0.19277507
000060 a3 ad 01 be aa 39 2c bc 83 8b 0c 3c 6b 0d 13 3e
       -0.12663893 -0.010511795 0.008578184 0.14360587
000070 68 2e 65 3d 63 4a 01 be bd d1 1e ba 2f 76 00 bd
       0.05595246 -0.12626033 -0.0006058475 -0.03136271
000080 d9 22 00 3d 6d 77 9a bd f1 27 84 be 74 58 9e 3d
       0.031283233 -0.0754231 -0.25811723 0.07731715
000090 da ed f4 3d 7f 95 90 3d 31 51 24 be 19 4b 06 be
       0.11959429 0.07059764 -0.16046597 -0.13114585
0000a0 ed 9f 7e bc 82 f9 d6 3d 9e 28 f5 3d 73 1d a0 3d
       -0.015541059 0.104968086 0.11970638 0.07818117
0000b0 de d8 f6 bc 17 32 17 3d 83 2d 25 be ba 5c a4 bb
       -0.030132707 0.036913004 -0.16130643 -0.0050159367
0000c0 10 87 e3 3d 50 ab ae 3c ef b7 52 bd e6 c2 81 3d
       0.111097455 0.021321923 -0.051444944 0.06336002
0000d0 ce 3b c5 3d 55 30 03 3e 98 7d 9b 3c fd f5 01 bd
       0.096305475 0.12811406 0.018980786 -0.031728733
0000e0 4e 84 87 3c 1f bf 0a 3e 24 96 8e 3d d3 e2 7a 3d
       0.01654258 0.1354947 0.06962231 0.061251473
0000f0 9b 55 10 3d b6 27 14 bd 7d 15 2a bc 55 76 92 bd
       0.03523789 -0.036170684 -0.0103811 -0.07151476
000100 f2 48 1e be 02 c8 9b bd b7 28 c8 bc eb 2f db bc
       -0.15457514 -0.07606508 -0.024433477 -0.026756248
000110 01 42 30 3c ec c4 ee bd 0f 84 8d 3d 80 aa a5 bd
       0.010757924 -0.116586536 0.06909954 -0.08089161
000120 34 a7 84 bd 8a e5 b3 3d f9 10 8a 3b 4e 70 43 3d
       -0.06477204 0.087840155 0.004213449 0.047714524
000130 c0 e9 02 be 5a ad db bd 10 7c 1b be 27 b9 ef bb
       -0.12784481 -0.107264236 -0.15184045 -0.007315773
000140 18 ab a1 3d 00 82 c2 3c 7c 1a 3b 3d 17 83 e5 bd
       0.07893962 0.02374363 0.045679554 -0.11206644
000150 6a 7e d5 bd eb 87 1f 3e d6 b4 a7 3d c9 5c 20 3e
       -0.10424502 0.15579192 0.081887886 0.15660395
000160 b0 bd be 3d fc 57 91 3c 65 a6 54 bd b6 0f 92 3c
       0.09313524 0.01774215 -0.0519165 0.017829757
000170 77 6e 1f 3e 8b cc ee 3d 21 da 56 3b 82 21 4a bd
       0.15569483 0.11660107 0.0032783824 -0.04934836
000180 e2 26 a8 bd b7 18 e9 bc 53 94 b0 3c 5e 35 34 3d
       -0.08210541 -0.028454168 0.021555101 0.043996207
000190 25 7e f3 3d 78 3c 49 3e a1 85 f4 3d 0f 84 dc 3d
       0.118892945 0.19651973 0.1193955 0.10767376
0001a0 51 65 11 3c 05 c3 c6 bd 3b 44 8a 3c e4 00 99 3d
       0.008874253 -0.09705166 0.016878238 0.07470873
0001b0 b7 6e 23 3e 09 1a a2 bd 7f bc 30 be c8 d0 6c be
       0.15960203 -0.07915122 -0.17259406 -0.23126519
0001c0 66 b4 87 be 1a d2 7e be 42 43 91 bd b6 da 1b 3e
       -0.2650482 -0.24884835 -0.070929065 0.1522015
0001d0 50 3a f0 3d ba bf a4 3a 73 38 25 be 19 de 29 bb
       0.11729872 0.0012569346 -0.16134815 -0.0025919734
0001e0 0f ec c1 3d 4f 81 22 3e d2 84 4c 3e ff 57 a7 3d
       0.09468853 0.1586964 0.19972542 0.08171081
0001f0 c1 5d cd 3d d8 09 d4 bd dc ae 69 bd 95 ce 39 3d
       0.10027648 -0.1035344 -0.057051525 0.045363028
000200 a7 c4 64 3c 80 59 b8 bd e2 8f af 3d 5f d4 f4 bd
       0.013962901 -0.09001446 0.08572365 -0.11954569
000210 51 09 4c be 9e bf 38 bd 96 07 d3 bd a9 7b 19 3e
       -0.19925429 -0.045104615 -0.10304181 0.14988579
000220 e1 ce 81 3e 71 d0 75 3e be 3a 0f bd 86 f4 de bc
       0.2535315 0.24005295 -0.03496813 -0.027216207
000230 e6 c3 08 3e d0 fb 31 3e ea f3 8f 3e 2f 23 59 3e
       0.1335598 0.17381215 0.2811578 0.21204828
000240 8d 6d 09 3d 7a aa cc bd a8 4f b6 bb 52 33 9f 3d
       0.03355174 -0.09993453 -0.005563695 0.077734604
000250 ec ca 47 3e f2 04 2a bc 26 9a a8 39 9f 97 c5 bc
       0.19511002 -0.010377156 0.00032158307 -0.02412015
000260 76 b2 44 3d 40 d6 29 bd 4b 1b 8f bd ae 9d 80 bc
       0.048021756 -0.04146409 -0.069876276 -0.015700188
000270 90 e4 74 3d 0a 05 30 bd fe 4e aa bd 6c b6 9f bd
       0.059788287 -0.042973556 -0.08315848 -0.07798466
000280 70 11 12 bc f4 93 1f be db 4b 18 be 63 af c9 bd
       -0.00891529 -0.15583783 -0.14872687 -0.098479055
000290 72 98 94 bb 67 1a 1c be 54 44 f4 bd ed 4d 83 3b
       -0.0045347745 -0.15244447 -0.11927095 0.004007092
0002a0 0f 70 e7 3c b3 a0 98 3d 47 ea 83 3b 31 d6 1a be
       0.028251676 0.07452526 0.004025731 -0.1512077
0002b0 f3 f4 d3 bc 07 95 34 3d 45 7d c6 3c 15 54 e8 bc
       -0.025873637 0.044087436 0.024229655 -0.028360406
0002c0 ce 93 80 bd 6c ca a3 bc 96 19 08 3e 4a c3 25 3b
       -0.062781915 -0.019993983 0.1329101 0.0025293403
0002d0 6c 72 6d bc ef b2 30 bd 8b ac 60 bd 0e a4 ad 3b
       -0.014492612 -0.043139394 -0.05485205 0.005299098
0002e0 ff 40 f0 3b 84 a6 a3 3c ac 25 bb bd c3 18 fb bd
       0.007331967 0.019976862 -0.09138045 -0.12260582
0002f0 ac 2e ef bd eb 90 89 bd bd ec a6 bc 99 c2 77 bd
       -0.11678824 -0.06717094 -0.020376557 -0.060488317
000300 e3 e2 e0 bc a8 ef e9 bd ab e7 f3 bd ab 2c c3 3d
       -0.027451938 -0.11422664 -0.119094215 0.09530004
000310 e4 88 87 3d ad df 60 3d 3d 13 e4 3d af d2 b4 3b
       0.06617907 0.054900814 0.11136482 0.0055182795
000320 f0 e1 71 3d 96 f2 87 bd 16 b7 1b bd 7f 5d 20 3d
       0.05905336 -0.066380665 -0.0380164 0.039151665
000330 70 aa d3 bc b1 7b fa 3c 62 75 db bd 67 a5 16 bd
       -0.025838107 0.030576559 -0.10715748 -0.036778834
000340 3c 0d b7 3d b8 db e3 3b 75 87 4a 3d c1 b8 9c 3d
       0.08938071 0.0069536828 0.04944559 0.076524265
000350 a0 c7 8b bc e1 bb 6f bc fc 8b 11 ba cc 96 08 bd
       -0.017062962 -0.014632196 -0.00055521703 -0.033346936
000360 ca 0c 84 39 7b 54 1a 3d fc 20 81 3d 2f 4d 93 3d
       0.0002518653 0.037678223 0.063051194 0.07192456
000370 57 4b a6 3d 59 ad 2e bd b6 7a 47 bd 08 bc 64 bd
       0.08119839 -0.042645786 -0.04870101 -0.055843383
000380 05 2b cf 3d ea 0f 78 3d ac 3d ab 3c 6f 12 ed 3d
       0.10115627 0.06056205 0.02090343 0.115757816
000390 09 23 2d bc 37 b9 a6 3c 8d 8d 81 3b ee d6 f9 3c
       -0.010567435 0.02035199 0.0039536417 0.030497994
0003a0 a8 54 98 3d 79 bf bd bc 5d de dc 3d ae 00 a6 3d
       0.07438022 -0.02316259 0.107846 0.081055984
0003b0 42 46 09 bc 85 85 d2 bd 12 5b 36 bc 3f 43 83 b9
       -0.008378567 -0.10279373 -0.011130111 -0.0002503637
0003c0 89 fb 9a 3c 87 62 e2 3d 09 fb 6f bd e1 27 32 bd
       0.01891877 0.11053949 -0.058589015 -0.043495063
0003d0 8e 3a 2f bd 95 be 09 3d db 62 e3 3d 92 0b 09 3d
       -0.04278045 0.03362902 0.111028396 0.0334583
0003e0 0a c0 a2 3c 8c 50 b3 bd 8b 42 f2 bc 23 bc 87 3d
       0.019866962 -0.087555975 -0.029572746 0.06627681
0003f0 d7 64 00 bd 7f a3 49 bc 7a 21 07 be e3 00 30 ba
       -0.03134617 -0.012307047 -0.13196364 -0.00067139993

conv2.bias f4 [16]
000000 b8 60 d1 bd b6 41 42 bd 9b 39 81 3d ab 6b 12 3c
       -0.10223526 -0.047425948 0.063098155 0.008936803
000010 c0 c8 57 3d 78 db 43 39 3a 3a 0c 3e 14 67 08 be
       0.052681684 0.00018678408 0.13694087 -0.13320571
000020 34 06 0a 3c 57 4a 1a 3b c2 2e 19 3e 93 45 73 3d
       0.0084243305 0.0023542845 0.14959243 0.059392523
000030 10 39 f2 bc 7c 56 6a 3d 3f fc cc 3d c3 e3 a5 b8
       -0.029568225 0.057211384 0.100090496 -7.910237e-05

dense1.weight f4 [120, 400]
000000 b4 2d 01 bb a2 81 d9 bc 27 35 a2 bc 6a 78 eb 3b
       -0.001971108 -0.026551072 -0.019800736 0.0071859853
000010 30 32 c1 3d 61 c4 41 3d 67 a5 0f 3c 0a 0b ce 3b
       0.09433401 0.047306422 0.008767462 0.006287937
000020 cc aa 68 3d 2b ef de 3d 19 95 2d 3d 4a a5 19 3d
       0.05680351 0.108854614 0.04237852 0.037511148
000030 1b 79 c7 bc 7d 67 0c 3c c8 9e 35 3d f6 8c 11 3d
       -0.02434974 0.008569595 0.04434088 0.03553482
000040 4a f3 bd 3b 07 76 6f bd 6f 14 04 be 0a d4 a0 bd
       0.0057968246 -0.05846217 -0.1289842 -0.07852943
000050 cf bd 94 bc 6e 43 66 bd 88 d3 1f 3d e3 4b 3f b9
       -0.018156914 -0.05621665 0.03902009 -0.0001824345
000060 9f b7 c9 3c 33 44 42 3d fd f2 f1 bc 70 03 d5 3c
       0.02462369 0.04742832 -0.029534811 0.026002616
000070 6c 7f 4a bd cf 4d 5f bb 85 51 93 bc 72 23 b5 bc
       -0.049437925 -0.0034073477 -0.017983207 -0.022111628
000080 f7 66 8f bc d1 c1 5c 3d 02 9e 75 bc 94 20 e2 3c
       -0.017505152 0.053895775 -0.014991285 0.027603425
000090 73 27 f5 39 f9 ba 93 bc b6 2a 4c bd 03 b6 9f 3d
       0.00046759433 -0.018033491 -0.04984542 0.07798388
0000a0 8a 62 80 3d 77 ad 38 bd 7b d6 5d 3d 3d 90 65 3c
       0.06268795 -0.045087304 0.054159623 0.01401144
0000b0 c5 9c e9 3a 87 24 a3 3c 1e c6 3e bd 1d 10 03 bc
       0.001782321 0.019914879 -0.046575658 -0.007999447
0000c0 98 6a 64 bd d1 80 45 3d d7 91 40 bb 61 99 22 ba
       -0.05576572 0.048218552 -0.0029383802 -0.0006202665
0000d0 99 3d 09 3d 10 f8 ab bd f4 b1 ea bc 57 38 45 3d
       0.03350601 -0.083969235 -0.028649308 0.048149433
0000e0 47 2d 74 3c 6b f8 f4 3c 5f a7 03 bc f2 d9 65 bd
       0.014903373 0.029903611 -0.00803551 -0.056116052
0000f0 ce 2c 7f 3d 72 cd 8a bb 39 b7 17 bd 11 75 ca bd
       0.06229859 -0.004235917 -0.03703997 -0.0988561
000100 7c c5 e8 bb 3f 54 07 3c 54 88 91 3c 13 8e 34 bc
       -0.00710362 0.008259832 0.017765202 -0.011020201
000110 03 89 08 3d c8 80 5e 3d fd 1b f2 3c 6b 3b ae bc
       0.03333379 0.054322034 0.029554361 -0.021268567
000120 c3 47 20 bd 1c e9 73 3c 1d f9 14 3c a1 d5 9a 3c
       -0.039130937 0.014887121 0.009092596 0.018900694
000130 6b f7 22 3d 9f fa 45 3d 84 d0 91 bd 74 af a3 3c
       0.039786737 0.048334714 -0.07119849 0.019981124
000140 ad 62 32 bc dd 1e 5c bd 0c ea 15 bd 74 c5 01 be
       -0.010887784 -0.05374037 -0.036600158 -0.12672979
000150 d9 7e f9 3c d3 eb 62 3d cb ab c6 ba a7 19 4c bc
       0.030455993 0.05540068 -0.00151574 -0.012457288
000160 9c 28 9f bd 8e 3a 6a 3b 83 2d 96 3d 12 cb f5 3b
       -0.077714175 0.0035740468 0.073328994 0.0075010145
000170 03 e4 82 3d aa 33 c5 3d cd f0 cb 3b 9e 86 e4 bd
       0.06391146 0.09628995 0.006223774 -0.11158489
000180 ba 22 61 bd bb 93 95 bd 30 f3 6f 3c b2 0e 52 3d
       -0.05496476 -0.07303568 0.014645383 0.051283546
000190 58 a0 4c bd 58 1c da 3a ea 96 82 bb dd de 6a 3d
       -0.049957603 0.0016640527 -0.0039852755 0.057341445
0001a0 17 06 63 bc dd b3 b6 3c a0 65 61 bd 54 e4 d8 bd
       -0.013856432 0.022302562 -0.055028558 -0.10590425
0001b0 8c da 5c bd 45 01 43 3d 2b 7e ba 3d 3d 5e 8b 3d
       -0.05391936 0.047608633 0.09106096 0.06805084
0001c0 c1 a2 fe 3d 52 01 0b bd 35 45 be bd 8c 44 5b 3c
       0.124333866 -0.033936806 -0.09290544 0.013383042
0001d0 39 0a dc bb 58 06 f4 3c 77 f8 f0 3c 89 ae 4c 3d
       -0.006715086 0.029788181 0.029415352 0.049971137
0001e0 4a 3b a5 bd 62 33 d9 bd ab 2c 50 bd f4 91 13 bd
       -0.08067949 -0.106055036 -0.05082385 -0.036027864
0001f0 d6 c0 57 bd 7f 75 a3 3d 9a 3d 21 3c 33 60 78 3c
       -0.052674137 0.07981395 0.009841347 0.015159654
000200 13 7d 79 3b 84 10 b9 3c 39 d2 64 3d 15 2c 91 3d
       0.0038068935 0.022590883 0.055864546 0.07088486
000210 af 73 c4 3c 0c e4 58 bd 56 33 ba 3c 7d e2 b5 3c
       0.023980943 -0.052951857 0.022729557 0.022202725
000220 fa 3d 24 bd 03 41 c1 bd 60 88 f2 3c 77 da 9c 3d
       -0.040098168 -0.09436228 0.029606044 0.07658856
000230 4c c6 9a 3c 10 1a 58 be 67 38 4a be de 54 97 bc
       0.018893383 -0.21103692 -0.19748078 -0.018473085
000240 5c 81 79 bd dc 56 92 3b 08 32 a0 bd ff 6d 10 3d
       -0.060914382 0.004465921 -0.07822043 0.03526115
000250 19 a0 df 3c ba 73 c7 bc 6f 41 2d 3d 79 9f 26 3d
       0.02729802 -0.024347175 0.04229873 0.04067943
000260 27 51 ae 3c 50 e3 4c 3d ac 09 29 3d 9f fe 30 bd
       0.02127893 0.05002147 0.04126899 -0.043211576
000270 d3 13 26 3d bb 57 7a bc 5c a1 f3 3c 43 9b 93 3d
       0.04054625 -0.015279706 0.029740028 0.07207348
000280 aa 30 d2 bc 2e 52 bd bd b2 5b 6c bd 47 31 1f 3b
       -0.02565797 -0.0924419 -0.057704635 0.0024290846
000290 de 2c b0 3d d4 b6 b9 bd 42 89 a6 3d 2b 76 bb bc
       0.08602308 -0.09068075 0.081316486 -0.022883495
0002a0 85 f1 fb bd 6c 59 9c 3c 01 e4 62 3c 5e d5 0e bd
       -0.123019256 0.019085608 0.013848306 -0.03487145
0002b0 dc 9f cb 3c 37 41 02 3c fd 68 8a bd d1 e0 3c bc
       0.0248565 0.007950119 -0.06758306 -0.01152821
0002c0 60 27 ae bc 2e 33 8c bc bb 89 92 bc 34 ce 5c 3c
       -0.02125901 -0.017114248 -0.01788794 0.013476897
0002d0 84 81 30 bc b3 ec 61 3d 30 07 c6 bc b8 9f 38 bd
       -0.010773066 0.055157375 -0.02417335 -0.045074195
0002e0 cc 21 ce 3c 53 04 a7 3d 46 40 11 be 10 18 93 bd
       0.0251626 0.08155122 -0.14184675 -0.07182324
0002f0 bf 50 6c bd 0a a7 78 bd 76 6c a8 3c b2 0d 47 bd
       -0.057694193 -0.060706176 0.02055953 -0.048597045
000300 be 02 58 bd 2e 26 bd bc 22 24 88 3d 59 96 ff bb
       -0.05273699 -0.023089495 0.06647517 -0.0077999053
000310 b0 84 bc 3c 83 e0 7f bb 44 87 54 bc c6 76 b6 3d
       0.02301249 -0.0039043732 -0.012971703 0.08909373
000320 92 b2 e7 3c 69 b2 69 bd a0 9f 1a bd 92 a0 8b 3d
       0.028283391 -0.05705491 -0.037749887 0.06817736
000330 e5 06 43 3d 12 00 bb bc 36 50 0f bd 8d 5d f9 bd
       0.047613997 -0.022827182 -0.034988604 -0.121760465
000340 ec 44 43 bd 50 7b 0f 3d b5 fd ae 3d 21 3b 87 bc
       -0.04767315 0.03502971 0.085444845 -0.016507687
000350 ab ec 09 bd 48 c8 ab bd dd 07 a9 bd 69 26 ed 3c
       -0.03367297 -0.0838781 -0.08253453 0.02894898
000360 38 cc 6c bd 47 b0 a2 bd 94 50 08 3b 3d 51 ba bb
       -0.057811946 -0.079437785 0.0020799981 -0.005685954
000370 11 b7 e0 3c 60 7f 3d bd 3d c5 9a bc ee 8a fd 3d
       0.027431043 -0.046264052 -0.018892879 0.12380014
000380 6e 67 e5 3d 3b fe b7 3d 81 4e 90 3c 31 d0 33 3d
       0.11201368 0.089840375 0.017615559 0.04389972
000390 74 8c 3a 37 69 b5 b9 3d 4f 7e 67 3d 19 99 27 3e
       1.1119166e-05 0.09067804 0.05651694 0.16366996
0003a0 3b b1 a4 3d e1 d2 a7 3d 9f ff fb bc 9d 41 51 bb
       0.080416165 0.08194519 -0.030761538 -0.0031929978
0003b0 b1 14 e2 3d 35 b8 d0 bd 46 fa 69 3d fa 11 1f 3d
       0.11039103 -0.10191385 0.057123445 0.038835503
0003c0 96 99 d2 bc 02 e3 9a bc 95 0f 1a bd 08 70 b5 bc
       -0.025708001 -0.018907074 -0.037612516 -0.022148147
0003d0 86 2e fe bc ea 91 bc 3d 1f 15 ce bc 36 7a b3 3c
       -0.031028043 0.092075184 -0.025156556 0.02190886
0003e0 df 0a be 3d 68 f9 75 3b ce 3d 5b bc d2 a6 8a 3d
       0.09279417 0.003753269 -0.013381435 0.067701
0003f0 63 3b 28 bd 7e 6c c2 bc a4 79 1f 3d de 93 db 3c
       -0.04107226 -0.023733374 0.038934365 0.026803907

dense1.bias f4 [120]
000000 f3 c7 1e 3d 8e f0 cf bc 43 8d af 3c 15 eb 62 bd
       0.038764905 -0.02538326 0.021429664 -0.055399973
000010 79 af bd 3b 22 13 3d 3d 6d 12 1e 3d 09 c5 47 bd
       0.0057887402 0.046160825 0.03859179 -0.04877189
000020 33 bf 3c bd 5e ec 90 3c 7f fc 8e bc 3b c6 0a bd
       -0.04608078 0.017690834 -0.017454384 -0.033880454
000030 02 a9 f8 3c f0 89 9f bd 10 fa 36 3c 62 fa d7 3c
       0.030354027 -0.07789981 0.011168018 0.026364509
000040 1d 32 7b 3d f5 13 88 3d 75 72 a5 3b cd ca d3 bb
       0.06132709 0.066444315 0.0050490447 -0.0064633847
000050 70 bf 86 3d 1c 2c 45 bd 35 01 56 bd 18 1e 1d 3d
       0.065794826 -0.04813777 -0.052247245 0.038358778
000060 f9 48 9d ba 44 e0 7b 3d 75 1c 22 bc 6e 06 69 3d
       -0.0011999897 0.061493173 -0.00989448 0.056890897
000070 3d f6 0b bd 61 1d 0d bd 56 01 43 3c 9c 8c 75 3c
       -0.034170378 -0.034451846 0.011902174 0.014987137
000080 f2 68 ce 3c a4 bc ee 3d 0d d8 a5 bc 36 af 1f bb
       0.025196526 0.11657074 -0.020244623 -0.0024365908
000090 38 1b d5 3d 27 60 9a 3c ea 01 18 3d dc a1 c6 3d
       0.10405582 0.018844677 0.0371112 0.09698841
0000a0 36 88 86 bb 0c 55 57 bd 92 11 45 bd 52 37 86 3c
       -0.004105593 -0.05257134 -0.04811246 0.0163838
0000b0 99 74 b6 3d 8a 3a 94 3c c1 4f 84 3c 3f 8e 2f 3d
       0.08908958 0.01809432 0.01615131 0.042860266
0000c0 63 66 41 3d 11 c0 5b 3b 06 99 54 bc ae 1f 14 ba
       0.047216784 0.0033531229 -0.012975937 -0.00056504726
0000d0 34 3e 4e bd 1b 7e 0b bd 61 1b 17 bd e7 ba b5 3c
       -0.05035229 -0.03405581 -0.036891345 0.022183849
0000e0 14 04 ee 3d 0c 59 7d 3d 7f 64 12 3d 38 74 04 bd
       0.116218716 0.0618525 0.03574037 -0.032337397
0000f0 91 44 12 bc 55 38 f9 3c f6 27 3a 3d e0 ba 0e bd
       -0.00892748 0.030422369 0.045448266 -0.034846187
000100 59 56 11 bb 7c d9 ab 3d ba 76 9a 3d 58 6a 00 bd
       -0.0022176711 0.08391091 0.075421765 -0.031351417
000110 ee 17 59 3d df 2b 36 bd e8 ea b5 3c f1 6e cc 3b
       0.053001337 -0.044475432 0.022206739 0.006238811
000120 d3 ef 9a 3c 6e bd 7e ba 84 09 17 3c b4 31 4d bc
       0.018913185 -0.0009717558 0.009218577 -0.012524057
000130 01 c6 75 3d f9 a3 0e 3d 18 77 1d bc 1e 6b c3 3d
       0.060003284 0.034824345 -0.009610914 0.09541915
000140 10 f2 e3 3d a3 f4 cf 3d a5 bd 5e 3b b5 58 7b 3c
       0.11130154 0.101540826 0.0033987549 0.015340974
000150 bc 7b ef bc a2 e8 82 3d 84 a0 12 3d 0c 22 d9 3c
       -0.029233806 0.063920274 0.03579761 0.026505493
000160 65 ca 30 3d bc a6 86 3c 37 28 9d bc 4f 7a 44 bc
       0.04316177 0.016436927 -0.019184215 -0.011992051
000170 b1 ad 5b bd f4 14 e8 3d 2d 15 4d bd 6a f3 95 3c
       -0.053632442 0.113321215 -0.050069023 0.018304545
000180 4b 24 44 bd a6 bc 03 bd fb cc 97 3d 88 ec 69 3d
       -0.047886174 -0.03216233 0.07412144 0.05711034
000190 c8 80 42 bd 2f 93 96 bc c8 88 3e bb a2 7d 5d bd
       -0.047486097 -0.01838073 -0.0029073227 -0.05407489
0001a0 d5 da 17 bc 19 36 d3 3c 30 bc 06 bd 39 11 4e bd
       -0.009268482 0.025782632 -0.032894313 -0.050309394
0001b0 21 1f 25 bd b6 95 5f bb e5 f8 df bb 93 65 c4 bb
       -0.04031289 -0.0034116334 -0.0068350905 -0.005993554
0001c0 b3 24 46 ba 72 db 04 3d c9 e0 4d bd b5 f7 2e 3d
       -0.0007558569 0.03243584 -0.0502632 0.0427167
0001d0 aa 6b 07 3d da 64 70 3d 59 7d 9f 3d e7 a6 8e 3b
       0.03306166 0.05868993 0.0778758 0.0043533924

dense2.weight f4 [80, 120]
000000 97 7b 9a bc b1 e1 7b bd 2a b2 f0 3c f3 ba 35 bc
       -0.01885776 -0.061494533 0.02938183 -0.011091935
000010 98 3b d1 3d 0e d9 0b be 2e 51 97 bd 3c 23 a3 3b
       0.10216445 -0.13657019 -0.07388531 0.0049785655
000020 c1 45 95 bc 0d 8e 3a bd b5 f7 21 3c ea dc 0d bd
       -0.018221738 -0.045545626 0.009885718 -0.03463451
000030 4e 6c d9 3d 54 02 58 3d 80 5e 15 3e 7d 87 0a 3e
       0.106163606 0.052736595 0.1458683 0.13528247
000040 0d cf e5 bc 3b 21 c6 3d 2e 04 83 bd 0b 56 a8 bd
       -0.028052831 0.09674307 -0.063972816 -0.082195364
000050 5a 56 d8 bd 94 1e 6e bc 81 c4 a7 bd b7 b3 c9 3d
       -0.10563345 -0.014533658 -0.08191777 0.09848731
000060 9f fc 9b bc 26 ff 8c bd 58 0f 28 3d 5d 9a ec 3d
       -0.019041358 -0.06884603 0.041030258 0.1155288
000070 52 31 a0 bc d8 b9 69 bd b8 19 3c 3d 76 25 b1 3d
       -0.019554768 -0.057062 0.045922965 0.08649723
000080 7c c2 29 3e 58 6f 7a 3c 48 0e 2b bd 1c c0 8d 3d
       0.16578096 0.0152853355 -0.041761667 0.069214076
000090 8f cd bf bd 54 7e 80 3c ae bb 0e 3e c0 57 8e 3c
       -0.09365379 0.015685238 0.13938782 0.017375827
0000a0 9a 77 bf 3d 13 ff 4c 3b f1 e6 16 bd 85 6e c3 3d
       0.09348984 0.0031279966 -0.036841337 0.09542564
0000b0 5c 18 ea 3d 3e 88 dc 3d 93 5b de 3c d3 29 96 3d
       0.114304274 0.10768174 0.027143275 0.07332196
0000c0 1a a4 68 3d c3 b2 a1 3c 1f ee 0d 3d 14 8c d4 3d
       0.056797124 0.01973856 0.034650918 0.1037828
0000d0 e8 8d 6f 3d 89 3c 8b bc 2a ac 53 3d 23 79 05 3e
       0.05848494 -0.016996639 0.05167786 0.13034491
0000e0 42 58 60 3d a9 7f 00 be 5a cb 4b 3d dd 0b 60 bd
       0.05477167 -0.12548698 0.049754478 -0.054698814
0000f0 f6 dd 6a bd 4c a2 1f 3d f4 29 8b bd 28 3b 14 3d
       -0.057340585 0.038973138 -0.06795111 0.03618923
000100 6c aa 5f bd 77 d0 28 3e 79 c2 2e 3e 6c 9c 9f bd
       -0.054605886 0.16485773 0.17066373 -0.07793507
000110 3c 0f 62 3c ce 2a 3b 3b 49 33 02 3d 4f 40 77 3d
       0.0137975775 0.002855945 0.03178719 0.060364064
000120 fb 3f a0 3a ba 95 bf bb ce 9a 59 bd 26 c2 28 bc
       0.0012226099 -0.005846706 -0.05312615 -0.010300195
000130 ac ff 53 3c 29 f0 11 bc 15 ab b0 bc 33 37 00 3e
       0.012939375 -0.008907356 -0.021565953 0.12521057
000140 2b 38 51 bd 73 ee 8c bd 39 17 0a 3d ac 28 15 3d
       -0.051078957 -0.06881418 0.033713553 0.03641574
000150 51 ee 89 3d 20 a0 a8 bc 8d d3 1c 3e 77 4b f6 3d
       0.06734908 -0.020584166 0.15315075 0.120261125
000160 74 d6 e7 3c ed 34 ac 3a c0 2e 62 bd 7e 41 6f 3d
       0.028300501 0.0013138332 -0.055220366 0.058412068
000170 f8 7a ae bb 68 1b ad bd 7d e8 93 3d 92 0a a2 bd
       -0.0053247176 -0.08452493 0.07222078 -0.079121724
000180 b2 72 2e 3d 12 cc e7 bc 15 74 0d bd d5 0c d1 bd
       0.04258985 -0.02829555 -0.034534533 -0.10207526
000190 fa 99 17 bd ed 6b ca bb 43 80 19 bd ca 88 39 bd
       -0.037012078 -0.0061774165 -0.037475836 -0.045296468
0001a0 63 a2 0e 3e d2 a1 21 b8 f9 fe f2 3d 36 ee 93 bc
       0.13929133 -3.8536098e-05 0.118650384 -0.018057924
0001b0 14 bf 76 bd 40 00 27 bd e5 99 56 bd e2 f0 68 bd
       -0.06024082 -0.040771723 -0.05239286 -0.05687035
0001c0 5f 3c f9 bd c4 93 ef 3d 37 2b a0 bd a9 64 dd bc
       -0.12169718 0.11698106 -0.078207426 -0.027025538
0001d0 f3 db 3e 3d d0 ae 05 3e 93 dc 2d b9 69 c6 c5 3d
       0.04659648 0.13054967 -0.00016580736 0.09656984
0001e0 f1 c8 e4 bc cc 5e b7 3a 4b ea 7a 3e f1 56 37 bd
       -0.027927848 0.0013990044 0.24503438 -0.04476065
0001f0 cf a2 fc 3d cb a9 11 bd 7c 47 15 bd ec 90 93 bc
       0.12335741 -0.035562318 -0.036445126 -0.01801344
000200 70 6e 0c bd ef bc 0d 3d a4 29 bb 3d 23 dc e8 bc
       -0.03428501 0.03460401 0.09138802 -0.028425282
000210 f6 34 7c 3c f5 35 9e 3d 01 eb 81 3d 4f 18 d2 3d
       0.015393486 0.07725135 0.063436516 0.10258543
000220 be 33 d0 bd b5 5a 42 bd df cf 98 3d 1e e3 81 3d
       -0.10166119 -0.047449786 0.07461523 0.06342147
000230 e8 04 81 3b 69 84 ea bc b9 a5 e3 b9 ea 62 40 3e
       0.0039373524 -0.028627591 -0.00043420287 0.18787733
000240 70 90 18 bd 76 02 ea bc 56 fb 1b bd ce 24 03 3e
       -0.03724712 -0.028565627 -0.03808149 0.12807009
000250 ad bc e2 3c 62 d3 19 bd 44 ed 81 3d df ce 0c 3c
       0.027677858 -0.037555106 0.06344083 0.008594244
000260 ce 7c 8f 3d bb 64 25 3d 6e c5 37 bd 89 27 38 3d
       0.070062265 0.040379267 -0.044866018 0.04495958
000270 de bb 9d bd 08 ab a3 3d 0c ce 17 3e d9 9b 32 3c
       -0.077018484 0.07991606 0.14824694 0.010901415
000280 53 c1 89 3c 94 ae 49 bd 1b 9e 73 bd 53 16 86 bd
       0.016815817 -0.049238756 -0.059476953 -0.06547227
000290 23 cd 6b bd f1 cc 6e 3d ff 87 88 bd 79 4a 4e 3e
       -0.05756868 0.058300916 -0.06666564 0.20145597
0002a0 8d 5b 64 3e 44 01 87 bc 06 39 09 3d 52 b6 34 3d
       0.22300549 -0.016480096 0.033501647 0.044119187
0002b0 91 46 46 3d d6 42 72 3d 26 74 3e bd 66 74 5e 3d
       0.04840714 0.05914577 -0.046497487 0.054310225
0002c0 9f 26 2c 3d 79 40 19 3d 4e b3 2c 3e 72 29 39 be
       0.04202902 0.037415 0.16865274 -0.18082216
0002d0 54 bd 60 bd 2c c9 57 3d 7f 05 5d 3d e2 f5 f3 bc
       -0.054868057 0.052682087 0.05396032 -0.029780332
0002e0 8e d9 5f bd 70 fe 0a 3e 10 1f 0f 3d 87 77 42 bc
       -0.054650836 0.13573623 0.034941733 -0.011869318
0002f0 95 99 52 3c 73 69 63 bc 42 06 d8 3c da 3f a6 3c
       0.012854 -0.0138801215 0.026370171 0.020294119
000300 b8 a7 96 bd 31 e6 36 3d 6c be 21 bd a3 84 a4 bd
       -0.073562086 0.04465312 -0.03948824 -0.08033111
000310 1e ef a1 bc 67 27 8c 3d 90 e4 e1 3c 7a ad f0 3d
       -0.01976734 0.06843453 0.027574807 0.11751838
000320 b8 88 b2 bd 05 10 0f 3d 01 aa 39 bd ef f9 83 3c
       -0.08717483 0.034927387 -0.045328144 0.016110389
000330 e5 ef 9d 3d a5 80 cb 3d 76 49 35 3e 86 a4 32 3e
       0.07711772 0.09936646 0.17703804 0.17445573
000340 5f 48 16 3e c0 aa 88 3d 46 83 b7 3d 4e 02 3e 3d
       0.14676045 0.06673193 0.08960585 0.046388917
000350 a4 c7 9d 3c 03 06 52 3d 16 1f 8a bb 7a 17 cc 3c
       0.019260235 0.051275264 -0.0042151315 0.024913538
000360 f3 9d 6c bd 1e 15 06 3d 1a e0 eb 3d 2f f3 e9 3d
       -0.05776782 0.032734983 0.11517353 0.11423337
000370 fd f6 4d 3d ae d0 d0 bd 46 e6 a8 3c 6c a1 65 bc
       0.050284375 -0.101960525 0.020617615 -0.014015537
000380 29 3e e7 3d de e2 a3 3d 84 a8 c8 bc d4 ad 9f 3d
       0.11291153 0.08002256 -0.024494417 0.07796827
000390 79 26 be bd 8b dd bc bc 5c c9 c3 bc 38 4f 27 3c
       -0.09284682 -0.023054859 -0.023899727 0.010211758
0003a0 70 e9 c7 bd e6 6b f8 bd df f0 20 3d 39 54 6b 3d
       -0.097613215 -0.12129955 0.039292213 0.057453368
0003b0 ee 62 88 3d b4 bf b9 3c 64 e9 6d 3d 00 56 3c 3d
       0.06659494 0.022674419 0.058083907 0.045980453
0003c0 e8 0b cb 3d b5 e5 d9 bc 69 d5 97 3d 46 c5 9c bb
       0.0991438 -0.02659879 0.07413752 -0.004784259
0003d0 bc c1 ee bc 23 af cb bd 61 ab ef bc 32 eb 14 3e
       -0.029145114 -0.09945514 -0.029256525 0.14542845
0003e0 f2 45 63 bd 94 83 b2 3d 00 77 96 3c 13 d9 4a bd
       -0.055486627 0.08716503 0.01836729 -0.049523424
0003f0 5a fd ac bc cf 2f f0 3d b5 66 ba 3d 54 a7 a2 bd
       -0.021116901 0.11727869 0.09101621 -0.079420716

dense2.bias f4 [80]
000000 95 82 ea 3d e6 58 f1 bc 63 ba 54 bd a7 d5 aa bb
       0.11450688 -0.029461335 -0.051935565 -0.0052134576
000010 cd 55 5f 3d 7c f6 33 3d 11 bd c7 bd a8 b8 46 bc
       0.054525185 0.043936238 -0.097528584 -0.012128986
000020 42 70 b9 3b f8 e7 72 3d d3 e4 78 3c 34 f5 b7 3c
       0.005659134 0.059303254 0.015191275 0.02245579
000030 59 33 bb bc a8 31 ed 3d de 32 78 3d e9 8c 57 3d
       -0.022851633 0.11581737 0.060595386 0.052624617
000040 c6 e9 75 3a 23 81 35 bc eb 5c 91 bd 74 88 1e bd
       0.0009380843 -0.011078152 -0.07097801 -0.03870435
000050 ce b2 a4 3d 69 b1 e4 3d ce 5a 08 3e 13 e5 2f 3d
       0.08041917 0.11166651 0.13315889 0.04294307
000060 45 f7 85 bc 94 84 a1 bd 36 9c 68 bd 10 03 5e 3d
       -0.016353259 -0.078866154 -0.0567896 0.05420214
000070 17 44 99 3c c3 7c ee bb 6b ca 63 bd b1 40 6f bd
       0.018709226 -0.0072780563 -0.055612963 -0.058411304
000080 fa c0 35 bd 9d 2e 72 bd d1 17 b6 3d c5 67 0c 3e
       -0.04437349 -0.059126485 0.08891261 0.1371146
000090 39 d4 35 3d cf d8 52 3d 34 f3 9c bd 63 a8 4e 3d
       0.044391844 0.051476296 -0.07663575 0.050453555
0000a0 b8 c3 17 bd 73 db 6e 3d 28 ab 30 3d 48 15 eb 3c
       -0.037051886 0.05831475 0.043131977 0.028696671
0000b0 25 5c 69 3d b1 5d d7 3c 72 67 ad 3d 23 c0 99 3d
       0.05697264 0.026289793 0.08466996 0.0750735
0000c0 4e 1e 07 ba d8 e4 aa 3d 52 39 81 bc 22 14 d5 3d
       -0.0005154357 0.0834443 -0.015774403 0.10404231
0000d0 20 9d 85 bd ec ce e1 bd d3 91 16 3c 57 f2 3e 3d
       -0.0652411 -0.11025795 0.009190041 0.046617832
0000e0 12 0e a8 bd 36 38 1b bd 96 63 da 3c 20 52 74 bd
       -0.08205809 -0.037895404 0.026658814 -0.059648633
0000f0 d2 1d 58 3d c0 32 0c 3e 05 10 4d bd c6 ff a8 bd
       0.052762814 0.13691235 -0.050064106 -0.0825191
000100 7c 1a 8a 3d e1 e9 3d 3d 3b d9 b6 bd 07 a1 63 3c
       0.06743333 0.046365622 -0.08928152 0.013893372
000110 58 ba c5 3d c9 40 b3 bd 16 ec d7 3d 76 44 a6 3d
       0.09654683 -0.08752591 0.10543077 0.08118527
000120 88 8b 86 bd 94 32 ea 3d b2 17 54 3c 3a b9 4f 3c
       -0.06569582 0.11435428 0.0129451025 0.012678439
000130 b8 55 33 bc d9 b1 55 3d 1d 62 a5 bd 98 bd 90 3c
       -0.01094573 0.052171562 -0.08075354 0.01766853

final.weight f4 [12, 80]
000000 a7 1d 8c 3d ed bb 3b 3e 21 cd 3b bd b7 39 d6 3d
       0.06841593 0.18333407 -0.045849923 0.10460227
000010 a5 37 a2 bd b8 76 2b bd c8 13 78 be e9 70 d1 bd
       -0.079207696 -0.041861266 -0.24226296 -0.10226614
000020 56 b0 89 be 43 96 98 3d ee 14 b7 3b 59 13 9d 3c
       -0.26892346 0.07450535 0.005587212 0.019174265
000030 fb ad be 3d 7b 64 0e bd c5 0f e6 3b 2b 09 64 bc
       0.09310528 -0.034763794 0.007020923 -0.013918201
000040 a8 dd 3e 3d cb 60 f2 bd 19 0a 54 3c 14 7f cb bd
       0.046598107 -0.11834868 0.012941861 -0.099363476
000050 f2 d1 8d bd 76 e7 4b 3c 0f ec d0 3d a4 5c b1 bd
       -0.069248095 0.012445321 0.102012746 -0.08660248
000060 6b a9 50 be 14 a8 c8 bc cf 78 5a 3d 29 97 ac 3d
       -0.20377128 -0.024494208 0.05333787 0.08427269
000070 35 77 0e 3d 28 ba 24 3e ee 9e ca bd 04 62 cc bc
       0.034781653 0.16086638 -0.09893595 -0.024949081
000080 7d 5a 9f ba 64 bd f6 bd 74 ef 56 3e ee 45 ea 3d
       -0.0012157705 -0.12047842 0.20989782 0.11439119
000090 27 05 23 bd f4 01 24 be a0 78 0c 3e 4b 46 5d 3c
       -0.039799836 -0.1601637 0.1371789 0.013505529
0000a0 97 ed bf bd 86 0f 18 3d 20 84 f1 bd d1 bf 18 be
       -0.093714885 0.03712418 -0.11792779 -0.14916922
0000b0 1b ba bc bc 80 a0 8c 3c c4 8c 85 bb e4 17 49 3e
       -0.02303796 0.017166376 -0.0040756185 0.1963802
0000c0 b2 98 37 bb fd db dc bc e2 7d a1 bd b6 40 3d be
       -0.0028014597 -0.026960367 -0.07885338 -0.18481717
0000d0 9f 3f 9f 3d e5 57 93 bd 28 cf 46 bd a8 1a 20 be
       0.07775807 -0.07194499 -0.048537403 -0.15635169
0000e0 9b da b1 3d 50 5f 6c 3c e9 75 35 be 2d 3b b6 bc
       0.08684274 0.014427021 -0.1772076 -0.022245014
0000f0 b2 84 4a be 19 7f 9a 3d 59 e0 c2 bd 24 83 76 bc
       -0.19777182 0.07543773 -0.09515447 -0.015045915
000100 e5 31 14 be 41 01 6d 3d 44 b0 d6 3d ed 1d ae be
       -0.14472158 0.057862524 0.10482839 -0.34007207
000110 b3 87 3b be fa fb 7d bd b2 bf a4 3d c9 ca 70 3d
       -0.18313484 -0.06200788 0.080443755 0.05878714
000120 f8 ed 98 3d 1b 27 76 3d f5 da 5f 3d af 9a ef bd
       0.07467264 0.060095888 0.054652173 -0.116994254
000130 70 42 a7 bd d5 70 04 bc ee 68 5f 3b 9a 91 c7 3d
       -0.08166969 -0.008083542 0.0034089643 0.09744568
000140 bf fd 51 3c c8 b1 8e bd 0a 33 b3 bd 39 d3 82 3d
       0.012816845 -0.06967503 -0.08749969 0.06387944
000150 ec ff a3 3d 4c 04 a7 3d f0 ce 95 bd 28 65 1e 3d
       0.080077976 0.081551164 -0.07314861 0.03867069
000160 61 2f 9a be 19 a4 5a 3d 3f e5 0d 3d 3e da cd bd
       -0.30114272 0.053379152 0.034642454 -0.10051392
000170 0d 33 ae 3d 5c 90 ac 3d 05 c6 20 3e 07 30 8f bd
       0.08505831 0.08425972 0.15700538 -0.06991582
000180 95 f3 83 3d 3a b0 03 3e 3d 51 cc bd 9f 5b ae bd
       0.06442944 0.12860194 -0.099764325 -0.08513569
000190 16 c1 09 be 53 bf 52 bd 5c 6e 91 be d4 d3 cf bd
       -0.13452563 -0.051451992 -0.2840451 -0.10147825
0001a0 32 b2 12 3e 44 f3 0d bd 25 6b c9 3d b3 bd 88 3c
       0.14325789 -0.034655824 0.09834889 0.016692018
0001b0 30 22 66 be ae 20 b3 bd 6f b0 07 3d d4 0f 02 bc
       -0.22473979 -0.087464675 0.033127245 -0.007938344
0001c0 61 a2 b8 bd fe bb 5b be 8a fb d5 3d 57 07 44 be
       -0.09015346 -0.21458432 0.10448368 -0.19143425
0001d0 df 08 68 3d c5 de f9 3d bf af cf 3d cc d5 44 be
       0.056649085 0.12200693 0.10140943 -0.19222182
0001e0 8d 25 6c 3c 0f c5 01 be 92 fd 89 3d 4f 3f 1f bd
       0.01441325 -0.12672828 0.06737818 -0.038878735
0001f0 cb 43 ab 3b 4d 3a d3 3d b8 e8 44 be 16 cc 16 bd
       0.0052265874 0.10313854 -0.192294 -0.036815725
000200 e7 d0 80 be 6e b4 84 be ac d4 c4 3d de 49 0a be
       -0.2515938 -0.25918907 0.096108764 -0.1350474
000210 a8 7d 34 3e ef a1 f3 3d f2 fb 43 be 9b 81 db bc
       0.17626059 0.11896121 -0.19139078 -0.0267952
000220 9d bb bd 3c 38 66 4d be e9 ac 62 bc 4e 03 dd 3d
       0.02316075 -0.20058525 -0.01383517 0.10791646
000230 90 66 dc 3c bd ba 1b 3e 45 7c 13 3d b9 81 0e bc
       0.026904374 0.15207954 0.036007185 -0.0086979205
000240 d9 76 fd bd 98 ad d4 bc 37 a4 38 bc 15 bc 03 3e
       -0.12376184 -0.025961682 -0.011269621 0.12864716
000250 93 ff 9d bd db 08 76 3e ab 00 b6 bd ac c1 c9 bd
       -0.077147625 0.24026816 -0.08886846 -0.09851393
000260 fd 23 81 bd 45 bf 82 3d 80 80 8b 3d c0 36 73 3e
       -0.06305692 0.06384138 0.06811619 0.23751354
000270 0e 8a 4b 3d 0e 0e b8 bd 89 d6 df bd 74 29 ea bc
       0.049692206 -0.08987056 -0.10929591 -0.02858422
000280 d7 c7 c7 3d 12 f9 66 bc 45 dc 3e 3e 1b 16 af 3c
       0.09754913 -0.014097469 0.18638714 0.021372845
000290 90 73 88 bd a8 82 76 3d e3 5c a8 bc 46 fc ba bd
       -0.06662667 0.060183197 -0.020552104 -0.091301486
0002a0 28 0c 28 3e 1b b5 85 bd da fd d0 bd fe b3 04 3e
       0.16410887 -0.06528684 -0.10204668 0.12959287
0002b0 4e 24 95 bd 11 c2 f1 3d 8d ab 20 bd 1d b9 d2 3d
       -0.07282315 0.11804593 -0.039226104 0.10289214
0002c0 a1 f4 23 bd 06 3c e4 bd 6a f0 17 3e cd 67 02 3e
       -0.04002822 -0.11144261 0.14837804 0.1273491
0002d0 fe cc 19 3e 07 d8 e4 3d 01 c2 62 bc e5 5e 34 bc
       0.15019605 0.111740164 -0.013840199 -0.011008953
0002e0 5f c7 fc bc 95 01 0c 3e 44 cc ff bc 7b 67 04 3d
       -0.030856786 0.13672478 -0.031225331 0.03232525
0002f0 bd 22 80 bd 2e b2 82 3c 60 1f 26 bc bc 52 47 bd
       -0.06256626 0.015954103 -0.010139316 -0.048662886
000300 10 40 83 3d 1a 19 0f 3e 2b c2 4b be 05 a0 d8 3d
       0.06408703 0.13974419 -0.19898288 0.10577396
000310 e2 45 d2 bc 6a e6 5e bc 04 1d ca bd 46 7b 97 3d
       -0.025668088 -0.01360474 -0.098688155 0.073965594
000320 82 75 93 bd 39 47 eb bd 2d 46 b8 bd 7e 27 c6 bd
       -0.07200147 -0.11488194 -0.0899776 -0.09675501
000330 86 44 c9 3c bc 21 f1 3d 23 b1 9a bd fe 52 b3 bd
       0.024568807 0.117740124 -0.075533174 -0.08756064
000340 6e 30 93 3d 61 5e 1e bc 28 0b 99 bd c7 51 2a bc
       0.071869716 -0.009666056 -0.07472831 -0.010395474
000350 74 5d 36 b9 36 ba e2 bc 60 38 5d 3d 9d 68 4a bd
       -0.00017391687 -0.027676683 0.05400884 -0.049416173
000360 d3 84 99 3d 32 af fb 3c d9 e1 4e 3d 95 1a c6 3d
       0.07496037 0.030723188 0.050508354 0.09673039
000370 25 b6 5f bd 24 c5 32 bd a0 1e 56 3d 1b 75 da bd
       -0.054617066 -0.04364504 0.0522753 -0.10666867
000380 d5 e5 a3 bd 6e 46 1f bd d5 de a4 bc 7f 7d 3c be
       -0.08002821 -0.038885526 -0.020125786 -0.18407248
000390 92 6a 2a be 19 ce cc 3d 13 7a bc bd a3 90 6a bd
       -0.16642216 0.100002475 -0.09202971 -0.057266843
0003a0 ad d8 a3 bd cd 6b a6 3d 32 4c 56 3d de 49 86 bd
       -0.08000312 0.0812603 0.05231876 -0.06557058
0003b0 c3 f0 f8 bc 63 fe 08 bd 28 c9 fb 3a 85 d9 9d 3d
       -0.030388242 -0.033445727 0.001920973 0.07707504
0003c0 89 42 1e bd 2b 2d 00 be e3 67 5a bb df a9 d8 bd
       -0.03863767 -0.1251723 -0.0033326081 -0.10579275
0003d0 62 88 c1 bd d6 f7 2c 3d b1 f2 20 3e db 9d 48 3d
       -0.09449841 0.042228542 0.1571758 0.048978668
0003e0 b2 d1 16 bc 0a 5f 55 3d 6c 3c d0 3d 43 34 fe 3d
       -0.009205269 0.05209259 0.101677746 0.12412312
0003f0 28 b8 21 3d 6d c0 fb bd 20 4e 70 be 79 ce a1 3c
       0.039482266 -0.12292562 -0.23467302 0.019751774

final.bias f4 [12]
000000 ab fb bc 3c c5 6c c6 3d 32 90 dc bd 26 e5 c3 3c
       0.023069223 0.09688715 -0.107696906 0.023912977
000010 4a af b4 bd 9c 96 c2 bb dc df 78 bd 17 89 b5 bd
       -0.08822496 -0.005938364 -0.060760364 -0.088640384
000020 a4 e4 d6 3b 79 16 ad bc 73 77 28 3d f4 ff 29 3d
       0.006558018 -0.02112888 0.04112954 0.04150386
