Superclass/models/superclass_base.pth (torch, 249192 bytes, 10 tensors)

conv1.weight f4 [6, 1, 5, 5]
00000000: 71b4 883e 43b7 673e 6eb9 1f3e 4576 12be
00000010: 2354 8dbe 80c6 613d c366 533e 19fa 2d3d
00000020: 39cf 4ebe 3593 91be a036 893e b9a5 ed3d
00000030: f761 e53d 5ac8 89be 7e47 5ebd 886d 8e3e
00000040: 37db 22be 3f0c 79be 4d2d 83be 1fbb 0ebe
00000050: d13b 9c3c a659 863d ae2d 15be a8f4 dc3d
00000060: 58bf 163e f108 083d 41e5 82be 12ac b73d
00000070: 2faa 6f3e 7d75 9e3e b243 c1be 7e87 70be
00000080: 122d 4abe 8de4 5cbc 34f5 5f3e f565 5ebe
00000090: 4d24 b1bd e8c4 6bbe 9c3e aebc 4f71 613e
000000a0: 386f 5cbe 0b7c 33bd 187c e3bd d7d3 853e
000000b0: 6d23 e13d 8c8d 9d3c 9d95 d13c 2ce7 9f3d
000000c0: afba 853e 6203 13bd eb87 f83d e57c 33be
000000d0: 8241 a1bd 83b9 09be a2b1 aa3d 0f6e 82be
000000e0: 2c18 10bc a780 d7bd facd 713e 0be5 873e
000000f0: c83a 923d ae4e 54be e128 173e fbd4 7bbd
00000100: 2d35 bc3d e6c9 3abe d961 033e 9391 733c
00000110: 7912 d53d a233 c53d 4ccc b23d 8b39 0c3e
00000120: 6205 abbb b663 31be 375f 303d eacf bdbd
00000130: 2cb2 65bc 1980 b13d b68b 9e3e 478c 923e
00000140: 1d81 dfbd eb6b 31be 2799 153e 84a5 fd3d
00000150: eae0 0abe 1ad4 efbd 28df 90be 5f7c 3cbe
00000160: 7b99 8dbe 4c9c 6bbe 74e8 6fbe a972 37be
00000170: 1e19 aabd 72ad a1be 86d0 29be ec25 fbbc
00000180: c7a3 4bbd 0a1d f2bd bcd3 81be 5a10 96bd
00000190: 4748 47bc 548f 97be d04a 88be 4da8 cdbd
000001a0: 7ec3 05be 02e4 d03d 4771 e1bb 3bef 4b3c
000001b0: 3d23 87be 8225 28be 77dd b1bc e06f d6bc
000001c0: 4236 6abc fc25 b03d a5b7 2dbe b751 b53b
000001d0: 2e97 e63c 9bab 123e 65de 053e f970 453d
000001e0: eddb 4a3e fd2b 0cbd f70b 8f3e d265 453e
000001f0: 9e3b 893e f708 37be 2aca 3f3e 40d8 5e3e
00000200: 8214 8e3e cbbb 8b3e a828 27be 8fe6 03be
00000210: 54e5 1abd a264 723d af39 10be e7c5 dabd
00000220: fe86 97be 6a4e 85be 823e 33be 351a 01be
00000230: d5f9 a33d a514 163e b799 dcbd ad99 b4bd
00000240: b27d e33c 0b00 263e 64fd 983e 35f5 dc3d
00000250: 7da3 873d b0f9 f2bd
0.26700166 0.22628503 0.1559808 -0.14302929 -0.27603254 0.055120945 0.20644669 0.04247484
-0.20196237 -0.28432623 0.26799488 0.11603875 0.11200326 -0.2691067 -0.0542674 0.2781794
-0.15903936 -0.24321078 -0.256205 -0.13938569 0.019071491 0.06560068 -0.14568207 0.10788852
0.1472143 0.033211652 -0.25565532 0.08968367 0.23404764 0.3094901 -0.3774696 -0.23489186
-0.19743755 -0.013482225 0.21870881 -0.21718581 -0.08649502 -0.23024333 -0.021270089 0.2201588
-0.21526802 -0.04381947 -0.111076534 0.26138183 0.10993085 0.019232534 0.025584036 0.078077644
0.2611899 -0.035891898 0.12135299 -0.17528112 -0.07873823 -0.13449673 0.08334662 -0.25474593
-0.0087948255 -0.10522585 0.2361373 0.26541933 0.07140118 -0.20733139 0.14761688 -0.06148241
0.0918983 -0.1824108 0.12830295 0.014866251 0.10403914 0.09628989 0.08730373 0.13693826
-0.0052191475 -0.17323193 0.043059554 -0.09268172 -0.01401953 0.08667011 0.30965966 0.28622648
-0.10913298 -0.17326324 0.14609204 0.12385085 -0.1356236 -0.11710377 -0.28295255 -0.18406819
-0.2765616 -0.23008841 -0.23428518 -0.17914833 -0.08305572 -0.3157764 -0.16583452 -0.030657731
-0.049716737 -0.11821945 -0.25356853 -0.073273376 -0.012163228 -0.29601538 -0.26619577 -0.100418665
-0.13062856 0.10199739 -0.006879959 0.012447174 -0.26394072 -0.16420558 -0.021712048 -0.026176393
-0.014295163 0.08600995 -0.16964586 0.005533423 0.02814826 0.14323275 0.13073118 0.048203442
0.19810458 -0.034221638 0.27938816 0.19277123 0.26803297 -0.17874514 0.18729463 0.2176218
0.2775002 0.27291712 -0.16324103 -0.1288092 -0.03781636 0.059178002 -0.14084505 -0.10682278
-0.29595178 -0.26036388 -0.17504314 -0.12607653 0.08006636 0.14656313 -0.10771506 -0.08818374
0.027769897 0.16210954 0.29880822 0.10788957 0.0662298 -0.1186403

conv1.bias f4 [6]
00000000: bb61 353e dc05 933e 1079 8b3e cbec 1cbd
00000010: c3bb f43d 9292 a13d
0.17713062 0.28715408 0.272408 -0.03831176 0.11949875 0.07889284

conv2.weight f4 [16, 6, 5, 5]
00000000: 75b5 5d3c 8d7d c13b 41c6 20be 4f45 5bbd
00000010: 882f 09bb 16bc 2a3d 1b74 033d c40c d3bd
00000020: 7423 8dbd 6825 b93d a877 143e 9334 54bc
00000030: 6af3 50be 7276 a33d a5c4 573e 08c5 2e3e
00000040: 3695 083e 1687 e8bd 4b09 3dbc d6a4 8938
00000050: a03d 8c3d f17b 323e 8693 6abd b09a 3ebe
00000060: 5132 01be 945f 73bb e575 643c ecb4 093e
00000070: 7558 3d3d 9930 01be dddf 8f3b c98f cebc
00000080: ebd8 f73c 9172 a1bd 5e96 80be 03bb 943d
00000090: 26ce f63d 070a 8c3d 9737 20be 7183 f6bd
000000a0: aeea dfbc d5f2 e03d 3656 f63d 7259 9d3d
000000b0: a138 9dbc 0cc1 e43c 1c5a 1abe b866 fdba
000000c0: 2b05 e23d 367b e63c dee1 26bd 3291 953d
000000d0: d2c4 c93d ee8e 033e a628 883c 94b9 0fbd
000000e0: c7d2 8f3c d135 073e 9f6b 843d 999f 803d
000000f0: 13a8 1b3d 7b1c 16bd 1bc9 87bc b76e 8abd
00000100: a545 13be c98e a3bd ea09 a2bc 02b0 d7bc
00000110: 41b5 723c e6c1 d3bd d0e5 853d e6d0 90bd
00000120: bcd7 6fbd 816c b93d d1e0 3e3c 1cfe 433d
00000130: 1e15 02be 56bc dbbd 5bed 1bbe 04fd 85bb
00000140: 1b4c 9f3d 109b ae3c 9c5f 333d 69f6 eabd
00000150: 9d2e dfbd 128c 1b3e 2a8b 993d 88ad 183e
00000160: 1238 b63d aa43 7b3c 2a8a 57bd ace6 833c
00000170: 03d9 1b3e 7f99 e33d f8fe 3a3a d40a 41bd
00000180: 1475 a4bd 9635 dbbc 45bc af3c 34e5 343d
00000190: f1cc fc3d 489d 3f3e ebb1 e33d 0383 d23d
000001a0: 03aa f53a c9fa bdbd f801 d83b e8fb 563d
000001b0: 45be 133e 1f30 a3bd a38a 29be 1c6e 64be
000001c0: 9dfe 81be cd7a 7bbe d285 84bd 900b 1c3e
000001d0: 8cd1 e03d 1a0b 3d36 f64f 1fbe 352f e639
000001e0: de4d c63d e29c 213e 0f92 463e 40de a43d
000001f0: f5b0 d33d d5b5 ddbd 6af6 85bd 1327 e43c
00000200: e521 d03b 6f39 b4bd df6a d43d 139f dfbd
00000210: 9cdd 3fbe ac71 33bd 5fa5 dfbd 53c7 1d3e
00000220: 9621 753e c2ac 643e f4ba 0abd 7d9b b3bc
00000230: 7f60 0f3e 4d8d 2f3e 8de5 8b3e 76cb 503e
00000240: 1ad8 1a3d 0f0d a9bd 638a 9bba 8412 a73d
00000250: 266d 403e ec1a 23bc ee65 ddbb 84b1 d7bc
00000260: 281f 493d 9e8d 13bd d0f3 93bd b81c 99bc
00000270: 24f6 6f3d b219 1fbd 76c7 93bd 95f9 9abd
00000280: 3f7e c8bb dadb 1abe da32 10be 4781 c2bd
00000290: aebc d1bb 2adb 14be 78a1 dfbd c810 503b
000002a0: 3c62 cf3c 3fb4 903d 379a 043c 9185 19be
000002b0: 38ff febc c8a1 233d aee6 ae3c df84 dbbc
000002c0: e64f 6dbd cd35 96bc 4cc1 033e 6bbc a6ba
000002d0: d4cc 0bbc 77b4 15bd 35e1 53bd bff5 143b
000002e0: 9927 8c3b 55f3 9e3c fdb2 b8bd 0500 f7bd
000002f0: 918d e3bd f6c3 7fbd 9cb9 a9bc 5dee 71bd
00000300: 61f7 bfbc 7e82 debd a306 ebbd 288d b63d
00000310: 6ee8 843d c931 673d d59f df3d 7c66 c43b
00000320: 47f9 7c3d dd66 7dbd 1f96 13bd 2474 193d
00000330: 2083 ddbc 3cf7 013d a2d2 d5bd 4815 10bd
00000340: 4796 b33d fcb8 9d3b e952 4f3d 5eaf a13d
00000350: f3af 94bc d8eb 86bc 8170 01bb 0833 13bd
00000360: 5235 fcba b8a9 1b3d f562 873d 9f5e 983d
00000370: f735 9f3d 328a 2ebd 4c54 3abd 3f73 61bd
00000380: 6e54 d13d a540 6f3d 20a4 923c 7069 e53d
00000390: a74e 66bc a7f5 943c 0073 893b 44db f73c
000003a0: 774a 963d 747a cebc df01 db3d dc4a a43d
000003b0: 1a9d f6bb e069 cfbd 66e0 2bbc a8fd 6fba
000003c0: a9f7 863c 83e4 dc3d 2fa0 76bd d12b 37bd
000003d0: dbfd 34bd b0b1 ff3c f1a8 dd3d 955b fb3c
000003e0: 676c 943c 62a6 b5bd 3fa2 02bd 6b1a 823d
000003f0: ba27 06bd 1774 63bc 1da8 0dbe d0ae 40bb
0.013532032 0.0059048594 -0.15700628 -0.053532895 -0.0020932872 0.04168328 0.03209315 -0.10305169
-0.06891528 0.09040338 0.1449877 -0.012951988 -0.20405355 0.07981576 0.21071108 0.17067349
0.1333817 -0.113538906 -0.01153786 6.563372e-05 0.068476915 0.17430092 -0.057269596 -0.18613696
-0.1261685 -0.0037135826 0.013944124 0.13447922 0.046226937 -0.12616195 0.0043907003 -0.025215046
0.030254802 -0.0788318 -0.2511472 0.07262232 0.120510384 0.0683785 -0.15646206 -0.12036789
-0.027333584 0.109838165 0.12028162 0.07683076 -0.019192042 0.027924083 -0.15073436 -0.0019332981
0.11036142 0.028134923 -0.040742747 0.073030844 0.098519936 0.12847492 0.016620945 -0.03508909
0.017556561 0.13204123 0.064658396 0.06280441 0.038002085 -0.036648255 -0.016575387 -0.067593984
-0.14382036 -0.079862185 -0.019780118 -0.026329044 0.014813722 -0.103397176 0.06537974 -0.07071094
-0.05855535 0.090538986 0.01165028 0.04784976 -0.12703368 -0.107292816 -0.15227263 -0.0040889997
0.07778188 0.021314174 0.043792352 -0.1147278 -0.10897563 0.15190151 0.074972466 0.14909947
0.08897413 0.015335957 -0.052621998 0.016101204 0.15219502 0.111132614 0.000713333 -0.047129467
-0.080301434 -0.02675895 0.021452079 0.044163898 0.12343777 0.18712342 0.111179195 0.10278895
0.0018742684 -0.09276349 0.0065920316 0.05248633 0.14428051 -0.07968163 -0.16556792 -0.22307628
-0.25389567 -0.24558564 -0.06470837 0.15238786 0.10977468 2.8169657e-06 -0.15557846 0.0004390419
0.09682821 0.15782502 0.19391654 0.08050203 0.10336486 -0.10825697 -0.065411404 0.027850663
0.006351697 -0.08800017 0.103719465 -0.10919013 -0.18736881 -0.043809578 -0.10920214 0.15408067
0.23938593 0.22331527 -0.0338697 -0.021924729 0.14001654 0.17143746 0.2732357 0.20390114
0.037803747 -0.08254444 -0.0011866804 0.081578285 0.18791637 -0.009955149 -0.0067565357 -0.026329763
0.04910198 -0.03602373 -0.07224238 -0.018690452 0.058584347 -0.038842864 -0.072157785 -0.07567135
-0.0061185653 -0.15122929 -0.14081898 -0.09497314 -0.006400666 -0.1453673 -0.109194696 0.0031748284
0.025315396 0.07065629 0.008093408 -0.14992358 -0.031127557 0.03994921 0.021350231 -0.026796756
-0.057937525 -0.018336201 0.12866706 -0.0012720948 -0.008532722 -0.036549058 -0.051728446 0.0022729484
0.0042771813 0.01940314 -0.09018514 -0.120605506 -0.11110986 -0.062442742 -0.020718388 -0.05906521
-0.02343339 -0.10864733 -0.11475875 0.08913642 0.06489645 0.056443963 0.109191574 0.0059936624
0.061761167 -0.061865676 -0.03603184 0.037464276 -0.027040064 0.03172992 -0.10440566 -0.035176545
0.087688975 0.0048133116 0.05061618 0.07894777 -0.018150305 -0.016469881 -0.0019750895 -0.03593734
-0.0019241965 0.038003653 0.066106714 0.074399225 0.07773965 -0.042612262 -0.045490548 -0.055041548
0.10221182 0.05841126 0.017900527 0.11201751 -0.014056838 0.018183542 0.0041946173 0.030255921
0.07338422 -0.025204875 0.10693716 0.08022091 -0.007526052 -0.10127616 -0.0104905125 -0.0009154924
0.016475515 0.10785773 -0.060211357 -0.04471952 -0.044187408 0.031212658 0.10823239 0.030683318
0.018118097 -0.08869626 -0.03189301 0.06352695 -0.03275273 -0.013882658 -0.13833661 -0.0029401071

conv2.bias f4 [16]
00000000: ae5a c8bd 0801 3fbd 5823 843d 97e5 263c
00000010: 9eb4 593d 15a3 d339 48bf 0a3e d893 03be
00000020: 85e6 cd3b 7e23 8d3a 5470 163e 4c32 773d
00000030: 970e cebc 553f 673d f62d ca3d 9425 b03a
-0.09782921 -0.046631843 0.06452054 0.010186574 0.053150766 0.00040366562 0.1354953 -0.12849367
0.0062835836 0.0010768024 0.14691287 0.0603507 -0.025153441 0.056456883 0.098720476 0.0013438934

dense1.weight f4 [120, 400]
00000000: a752 09bc b57b c4bc 3b4f 88bc e757 303c
00000010: fd53 b63d 8769 093d ba0e ff3b f32b 883b
00000020: 7275 543d 554c cb3d d6c9 1b3d e799 193d
00000030: 231d 99bc 956c 8a3b 17e7 0d3d 6e4f 173d
00000040: b3d0 e8ba b2e1 71bd aa39 fbbd 347b 99bd
00000050: d6a4 37bc 0580 4dbd c5a8 133d 6553 94bb
00000060: 9f17 623c 83ab 1d3d b426 febc dd65 bd3c
00000070: 69f7 5dbd b643 01bc 00e5 b8bc 3ec8 93bc
00000080: a949 7fbc c681 493d 5524 bcbc b693 9a3c
00000090: 07cd 02bb 11f1 60bc 5f27 40bd 43e7 953d
000000a0: aa1f 633d 0229 49bd 6314 483d 99d0 953b
000000b0: 0f23 56bb 8e85 2a3c a303 5bbd 6625 2fbc
000000c0: 116c 7bbd 8a0c 303d 5462 efbb e82d e5bb
000000d0: b2ac e43c 0ad8 a2bd ad72 f9bc d762 333d
000000e0: 8c8f 5c3c dc15 df3c f817 c7bb ce6c 77bd
000000f0: a67d 5c3d f691 37bc 97c6 2fbd dea9 d2bd
00000100: 60e9 18bc c2cf 393b 569a 0b3c 2dc9 96bc
00000110: 42d6 ba3c 3d01 443d d4bf e03c 807b f6bc
00000120: fa32 3bbd ed1c ed3b f2cf 2e3b 631d 7f3c
00000130: 7241 0b3d 8502 403d efe8 80bd e4fc 9f3c
00000140: 5a10 9cbc 94ae 67bd 8a67 08bd 3e27 f7bd
00000150: 6f69 bf3c e839 5a3d 9144 19bc a4d9 a7bc
00000160: 280f a7bd c63f f0ba d20f 953d 6fcb 93ba
00000170: f19f 643d f18f ad3d 0175 5a3b 7cf5 dfbd
00000180: a4b2 6abd 80f2 9ebd 9a66 d13b 2de2 453d
00000190: edd1 3bbd 2282 233c 0d99 19bb 6fb6 713d
000001a0: ea93 4abc f2d8 543c b725 4cbd a0c1 c8bd
000001b0: 36d6 59bd 3476 2b3d 13b2 c63d cc15 873d
000001c0: dc46 e93d e43c 2cbd 364a ccbd 5cdb 8e3c
000001d0: d0ef 46bc a7e8 083d 05af d43c da90 353d
000001e0: 6640 8abd d1b4 d1bd 59ce 62bd 3b68 3bbd
000001f0: f8dd 48bd cac9 8d3d 1b3a 033c 9a99 b43c
00000200: cbb5 233b 28f3 b83c 039e 653d 9a2e 903d
00000210: 8d92 c93c 9dfa 55bd 69a5 af3c 2ab4 b13c
00000220: 7f37 f0bc c057 afbd 7aff eb3c 78de a33d
00000230: 4ceb 5a3c 1f7e 50be 35af 44be 66d2 91bc
00000240: 3714 5ebd c1dc 053c 4413 87bd 4225 0a3d
00000250: 2968 983c b22b c3bc 74eb 2f3d 4be5 3c3d
00000260: 9ad1 ca3c a9e5 523d c4e4 1c3d 7b93 24bd
00000270: f46a 2b3d 44d3 82bc 4270 fb3c 3bfb 8b3d
00000280: e109 5cbc 66b0 b0bd 0611 4fbd b944 7c3b
00000290: b5c6 a23d 3053 97bd b6e5 a43d 00b0 c2bc
000002a0: 457c dfbd d1c1 c83c 5160 b03c b234 b1bc
000002b0: a6be b43c e776 c83b bde5 91bd 620e e2bc
000002c0: b2b7 eabc e3c6 a6bc e7bd b0bc c2ac 293c
000002d0: 76c2 87bc 9be5 3a3d a73a debc 2381 33bd
000002e0: 8503 5d3c e442 803d 546e 12be 402e 87bd
000002f0: 16be 72bd 0954 74bd 00f6 543c d352 6dbd
00000300: 640b 61bd 1183 d0bc a893 7a3d 489c 54bc
00000310: e0a8 4a3c 6b12 44bc b11e 96bc e702 a63d
00000320: 0e07 833c 47f1 62bd 7582 18bd 8860 823d
00000330: 68b9 193d 50f2 debc 7035 22bd 1747 05be
00000340: a93f 60bd b812 0e3d b350 9e3d 14c8 c7bc
00000350: 209b 1ebd 6d24 a4bd 3835 9bbd b83a a43c
00000360: 1747 83bd cd95 a1bd 460a 9d3b 8ba1 1cbc
00000370: 62c3 c53c 88ee 38bd 3172 f2bc cba3 f43d
00000380: 6b1e d93d b588 973d 3ba8 633c be84 353d
00000390: ddb0 4abb 3f85 c23d fdc1 583d ff9d 1d3e
000003a0: f190 9d3d 9a45 9d3d c9f6 e0bc becb 18b8
000003b0: 8087 cb3d 2922 e0bd a185 693d 9619 2d3d
000003c0: ca45 f2bc a19b 8abc 38e9 32bd 8fe9 9cbc
000003d0: 85c5 06bd 9b17 a33d b741 88bc f1af 913c
000003e0: 719a be3d 65c6 113b d3ca b9bc 384d 683d
000003f0: d4b5 2abd edd7 adbc f964 043d 062f a53c
-0.008381522 -0.02398477 -0.016639343 0.010763145 0.08902738 0.033547904 0.007783738 0.00415563
0.051869817 0.099266686 0.038034283 0.03750029 -0.018690651 0.00422437 0.034644213 0.036940984
-0.0017762393 -0.05905313 -0.12266858 -0.07494202 -0.011208734 -0.050170917 0.036049623 -0.004526543
0.013799577 0.038493644 -0.031024314 0.023119861 -0.054191027 -0.007889679 -0.022570133 -0.018039819
-0.015581527 0.049196027 -0.022966543 0.018869262 -0.0019958632 -0.01372935 -0.046912547 0.073195
0.05545012 -0.049111374 0.048847567 0.004571986 -0.0032674705 0.0104078185 -0.053470265 -0.010690069
-0.061382357 0.04298071 -0.007305423 -0.006993998 0.027914379 -0.079513624 -0.03045019 0.043795433
0.013461959 0.027232103 -0.0060758553 -0.0604065 0.053830765 -0.011204233 -0.042914 -0.10286306
-0.009332985 0.0028352593 0.008520683 -0.018406475 0.022807244 0.047852743 0.02743522 -0.030088186
-0.045702912 0.0072361142 0.0026674238 0.015570971 0.03399796 0.046877403 -0.062944286 0.019529767
-0.019050766 -0.056562975 -0.033301868 -0.12068032 0.023365704 0.05327788 -0.009354726 -0.020489521
-0.08157188 -0.0018329553 0.07278408 -0.0011275838 0.055816595 0.0847472 0.00333339 -0.10935494
-0.05729927 -0.07761097 0.006390405 0.0483114 -0.045854498 0.009979757 -0.0023437173 0.059011873
-0.012364367 0.012991177 -0.049840655 -0.09802556 -0.053182803 0.041860774 0.09701934 0.06595954
0.113904685 -0.042050257 -0.09975092 0.017438583 -0.012142137 0.033425 0.025962362 0.044327594
-0.06750564 -0.10239566 -0.05537257 -0.0457537 -0.04903981 0.06923254 0.008009459 0.0220459
0.0024980183 0.022576883 0.056058895 0.070401385 0.024606014 -0.052240957 0.021441178 0.021692354
-0.029323338 -0.08561659 0.028808344 0.08001417 0.013361763 -0.20360611 -0.19207461 -0.017800521
-0.054218497 0.008170308 -0.065954715 0.033726938 0.018604355 -0.023824546 0.042949155 0.04611711
0.024758149 0.051488552 0.038304105 -0.04017971 0.041850045 -0.01596988 0.030693177 0.06835028
-0.01343009 -0.08627395 -0.050553344 0.003849311 0.079480566 -0.07388914 0.080516264 -0.023765564
-0.109123744 0.024506481 0.021530302 -0.021631572 0.022063565 0.00611769 -0.07123897 -0.027594749
-0.028652046 -0.020358508 -0.021574927 0.01035613 -0.016572218 0.045629125 -0.027127577 -0.043824326
0.013489609 0.062627584 -0.142999 -0.06600618 -0.05926331 -0.059650455 0.012998104 -0.057940315
-0.054942504 -0.025453122 0.061175972 -0.0129767135 0.0123693645 -0.011967282 -0.018325182 0.08106022
0.015994575 -0.05540588 -0.03723379 0.06366068 0.037530333 -0.027215153 -0.039601743 -0.130154
-0.05474821 0.03468582 0.07730236 -0.024387397 -0.038722157 -0.0801476 -0.0757851 0.02004753
-0.06410044 -0.078899 0.0047924845 -0.009559999 0.024141017 -0.045149356 -0.029595466 0.119453035
0.10601505 0.07399122 0.01389509 0.044316046 -0.0030928173 0.09498071 0.052919377 0.15392302
0.07693661 0.07679291 -0.027461426 -3.6429374e-05 0.09937954 -0.109440155 0.057012204 0.04226073
-0.029574294 -0.016919913 -0.043679446 -0.019154338 -0.032903213 0.07963487 -0.016632898 0.01778409
0.09306801 0.0022243496 -0.022679722 0.056714267 -0.04167731 -0.021221125 0.032322858 0.020164024

dense1.bias f4 [120]
00000000: 366c 0d3d 7dca cfbc cbeb 6c3c 15eb 62bd
00000010: f604 133b b74b 2b3d 90d7 013d 2f56 50bd
00000020: c1c1 3cbd 5eec 903c 7efc 8ebc 3bc6 0abd
00000030: c0ee f93c 82ed a4bd 2a04 453c a849 023d
00000040: 98b9 6e3d 626d 853d 4c28 0938 feca d3bb
00000050: 0c8c 8c3d 1c2c 45bd 4329 50bd acde 153d
00000060: 9833 96b7 5cee 733d 9188 3abc d5a1 603d
00000070: d01a febc 611d 0dbd 836a 1d3c 23e6 413c
00000080: bf70 fa3c 0076 e53d 0dd8 a5bc 81f2 23bb
00000090: 9651 d33d 1ba4 1d3d ec02 003d a3ee b73d
000000a0: 065f 123a 0c55 57bd 9211 45bd 5237 863c
000000b0: 214a b03d 5d45 8e3c c14f 843c 90dd 243d
000000c0: 79f1 2f3d 11c0 5b3b 2171 40bc 692b b63a
000000d0: d769 4fbd 1b7e 0bbd 4830 17bd 0319 8b3c
000000e0: ec3e ea3d c527 813d e5d4 1c3d ce04 06bd
000000f0: b3ff ccbb 5538 f93c 2ad4 393d 11e8 0dbd
00000100: 5956 11bb 6368 9f3d 233b 953d 596a 00bd
00000110: 146a 5b3d df2b 36bd ab7a c63c 4a5e f23b
00000120: 55bd b53c 61bd 7eba 8409 173c b431 4dbc
00000130: d894 7d3d c8ce e13c 1877 1dbc 3d76 b73d
00000140: 96c9 d93d b46a c43d a5bd 5e3b b558 7b3c
00000150: bc7b efbc f163 713d a346 0f3d 2dbf b23c
00000160: 8f19 213d bca6 863c 3728 9dbc 4f7a 44bc
00000170: b1ad 5bbd 3b7c e13d 2d15 4dbd 6af3 953c
00000180: 4b24 44bd a6bc 03bd 9827 8f3d 8485 603d
00000190: c780 42bd fbb4 97bc 1ec3 fbbb a27d 5dbd
000001a0: 338c e9bb 29c5 bb3c b708 06bd 3911 4ebd
000001b0: ae03 1ebd bb95 5fbb b00d 34bc 2447 4bbb
000001c0: 428e ef3a 98dc 073d c9e0 4dbd 6714 2d3d
000001d0: 02f6 f43c ceb7 6d3d 3e49 9d3d 9a78 3f3b
0.034527026 -0.025365109 0.014460514 -0.055399973 0.0022433377 0.041820254 0.031699717 -0.05086344
-0.046083216 0.017690834 -0.017454382 -0.033880454 0.030509353 -0.080531135 0.012024919 0.031808525
0.058282465 0.06515004 3.2700875e-05 -0.0064634075 0.06862649 -0.04813777 -0.0508206 0.03658931
-1.7905419e-05 0.05955349 -0.011385099 0.054841835 -0.031018645 -0.034451846 0.009607914 0.011834654
0.03057134 0.11204147 -0.020244623 -0.002501637 0.10318296 0.03848658 0.031252787 0.08981063
0.00055836176 -0.05257134 -0.04811246 0.0163838 0.08607889 0.01736706 0.01615131 0.04025036
0.042954896 0.0033531229 -0.011745722 0.0013898435 -0.050638046 -0.03405581 -0.03691128 0.0169797
0.11437783 0.063064136 0.03828897 -0.032719426 -0.0062560677 0.030422369 0.04536835 -0.034645144
-0.0022176711 0.07783582 0.0728667 -0.03135142 0.05356796 -0.044475432 0.024228415 0.007396494
0.022185007 -0.0009717551 0.009218577 -0.012524057 0.061909527 0.027564421 -0.009610914 0.08958099
0.106341526 0.095906645 0.0033987549 0.015340974 -0.029233806 0.058933202 0.034979474 0.021819675
0.039331015 0.016436927 -0.019184215 -0.011992051 -0.053632442 0.11010023 -0.050069023 0.018304545
-0.047886174 -0.03216233 0.06989974 0.05481483 -0.047486093 -0.018518915 -0.007683172 -0.05407489
-0.0071273088 0.022921162 -0.032723155 -0.050309394 -0.038577728 -0.0034116346 -0.0109895915 -0.0031017745
0.0018276649 0.03316936 -0.0502632 0.042255785 0.029902462 0.058036618 0.076799855 0.0029216171

dense2.weight f4 [80, 120]
00000000: ca82 95bc 00e2 7bbd bef0 073d ecba 35bc
00000010: 986a d23d f661 05be c81a 95bd 6805 fe3b
00000020: 6a15 97bc 348e 3abd b5f7 213c eadc 0dbd
00000030: 00bd d83d 79de 4d3d 5f17 123e 256e 073e
00000040: 04cd e6bc 465b c43d e3df 75bd 0b56 a8bd
00000050: f4f0 d4bd 941e 6ebc b1de a4bc 4029 bc3d
00000060: 247e 99bc 7062 80bd 75c3 363d 9224 e63d
00000070: 1d0c 99bc d8b9 69bd 5692 3d3d 908d b13d
00000080: 5ea1 2a3e 8f87 8e3c 480e 2bbd f6c5 8d3d
00000090: 1201 bebd 8ac9 2bbb 387b 0b3e 1cc5 b73c
000000a0: 7134 bd3d 13ff 4c3b f1e6 16bd 816e c33d
000000b0: 28f6 eb3d 4429 d93d 935b de3c fc05 9d3d
000000c0: 19ed 673d c3b2 a13c a402 123d ae2b d73d
000000d0: b467 6f3d 893c 8bbc a69c 533d 7a1a 013e
000000e0: 92d4 573d 3b6d febd d4d4 463d adfb 4dbd
000000f0: 5288 52bd 48a2 1f3d f088 7abd 3f8b 1e3d
00000100: 6caa 5fbd a6f4 273e 5ced 273e 779c 9fbd
00000110: e1c2 523c 1329 3b3b a7f2 0c3d c51f 653d
00000120: ab46 253a ba95 bfbb ce9a 59bd 26c2 28bc
00000130: bb57 4f3c 1435 873c 2cab b0bc 940f fb3d
00000140: a7ad 44bd 2dca 8abd 3917 0a3d ac28 153d
00000150: 51ee 893d 8633 acbc 0a60 1a3e 510f f23d
00000160: 3a56 133d 5436 ac3a c02e 62bd 7e41 6f3d
00000170: f87a aebb f225 acbd 7de8 933d 9a0a a2bd
00000180: b272 2e3d 12cc e7bc 34f4 04bd 3fc2 c8bd
00000190: fb99 17bd 3664 93bb 67ec 9fbc ca88 39bd
000001a0: 852a 0d3e e486 733a 20f0 f23d 36ee 93bc
000001b0: 3ad6 64bd 5000 27bd 93c4 48bd 0c16 56bd
000001c0: d732 f6bd f408 ee3d 372b a0bd b444 f7bc
000001d0: 4fa4 463d 1097 013e 1f10 753b d35b ca3d
000001e0: e960 e1bc 6b8b b73a d282 6f3e f156 37bd
000001f0: 7e39 f53d 5c9d 0dbd d0f6 0fbd 31ee 83bc
00000200: 775a 0cbd f5bc 0d3d a429 bb3d 23dc e8bc
00000210: 2153 593c f732 943d ee45 813d d4f6 d33d
00000220: 6945 cdbd 645f 43bd f629 923d 1ee3 813d
00000230: 962d f13b 6984 eabc b9cd d03c cd43 3c3e
00000240: 1662 0abd 725b ebbc 15aa 13bd 26ff fd3d
00000250: 0922 f03c 62d3 19bd 0b97 833d 8bda fa3b
00000260: a853 943d 213a 043d 6ec5 37bd 383d 383d
00000270: 511a 9abd e423 ba3d 3d31 113e da5c 203c
00000280: daac 8a3c 94ae 49bd 1b9e 73bd 5516 86bd
00000290: c176 60bd cba9 6c3d ff87 88bd d6e1 493e
000002a0: e882 5d3e 4401 87bc 6af6 113d 6795 383d
000002b0: 9613 453d d642 723d ace6 3ebd 8743 3d3d
000002c0: 4305 213d 6052 243d b22c 2b3e 9cbd 30be
000002d0: 0545 5cbd 29c9 573d e225 4e3d ed41 dcbc
000002e0: 8ed9 5fbd 95dc 093e 4ce2 163d 8c77 42bc
000002f0: f418 533c 3f69 63bc b3ad e83c b9bd b13c
00000300: fc3d 95bd 31e6 363d 6cbe 21bd a384 a4bd
00000310: d1e6 8fbc 0e67 fe3d 8be4 e13c 24d0 eb3d
00000320: 425e b1bd db14 163d 01aa 39bd eff9 833c
00000330: e5ef 9d3d 8b07 c43d d883 343e 0412 303e
00000340: 653b 0c3e bfaa 883d 4683 b73d 4d02 3e3d
00000350: a4c7 9d3c ef5b 553d 161f 8abb 7017 cc3c
00000360: f39d 6cbd 1e15 063d 6858 e63d 90c3 e83d
00000370: 05f7 4d3d 61b3 d0bd 0d1f 193d 6ca1 65bc
00000380: 9ac0 e03d 9931 a13d ec92 cdbc d4ad 9f3d
00000390: 1fbd b9bd 8ddd bcbc aaed aebc 1e64 233c
000003a0: 624f c3bd 113a f4bd dff0 203d a016 733d
000003b0: d6b2 8d3d a727 a03c 75da 663d 6d2e 413d
000003c0: 6d48 103d b5e5 d9bc 52be 8f3d 46c5 9cbb
000003d0: ef8e bfbd 7cab b1bc 35e1 31bd a7aa 3b3d
000003e0: 3be8 79bd 9483 b23d 0077 963c 13d9 4abd
000003f0: ab32 8cbd fbe4 003d 1154 223d b610 a6bd
-0.018250842 -0.061494827 0.033188574 -0.011091929 0.102742374 -0.1302565 -0.07280499 0.0077521093
-0.018442828 -0.04554577 0.009885718 -0.03463451 0.10582924 0.050260995 0.14266728 0.1322561
-0.028173931 0.095877215 -0.06002797 -0.082195364 -0.10397521 -0.014533658 -0.020125719 0.09187555
-0.018736906 -0.062687755 0.044619996 0.11237444 -0.018682534 -0.057062 0.046282135 0.08669579
0.16663119 0.017398624 -0.041761667 0.06922524 -0.09277548 -0.0026212656 0.13621223 0.022432856
0.09238518 0.0031279966 -0.036841337 0.09542561 0.1152156 0.10603574 0.027143275 0.07667157
0.0566226 0.01973856 0.03564705 0.10506378 0.05844851 -0.016996639 0.051663063 0.12607756
0.052692957 -0.12423178 0.048542812 -0.050288845 -0.051399536 0.038973123 -0.06116575 0.038707014
-0.054605886 0.1640192 0.16399139 -0.07793515 0.012863846 0.0028558418 0.0344111 0.0559385
0.0006304781 -0.005846706 -0.05312615 -0.010300195 0.012655194 0.016504802 -0.021565996 0.12258831
-0.04801717 -0.06776843 0.033713553 0.03641574 0.06734908 -0.021020662 0.15075698 0.118193276
0.035970904 0.001313875 -0.055220366 0.058412068 -0.0053247176 -0.08405675 0.07222078 -0.07912178
0.04258985 -0.02829555 -0.032459453 -0.098026745 -0.03701208 -0.00449803 -0.019521905 -0.045296468
0.13785751 0.00092898146 0.118622065 -0.018057924 -0.055868365 -0.040771782 -0.049015593 -0.05226712
-0.12021416 0.116228014 -0.078207426 -0.030184127 0.04849654 0.12655282 0.0037393642 0.09880795
-0.02751203 0.0014003342 0.23389748 -0.04476065 0.119738564 -0.034573898 -0.035147488 -0.01610479
-0.03426596 0.03460403 0.09138802 -0.028425282 0.013264448 0.07236283 0.06312166 0.10349813
-0.100230046 -0.047698393 0.0713691 0.06342147 0.0073601706 -0.028627591 0.025488721 0.18385239
-0.03378495 -0.028730128 -0.036050875 0.12402181 0.029313104 -0.037555106 0.064252935 0.007655447
0.07242519 0.032282 -0.044866018 0.044980258 -0.07524551 0.09088877 0.14178939 0.009787763
0.016928125 -0.049238756 -0.059476953 -0.06547228 -0.054800753 0.057779115 -0.06666564 0.19715056
0.21631968 -0.016480096 0.03563539 0.045064356 0.04811438 0.05914577 -0.046606705 0.046206977
0.03931166 0.04011762 0.16716269 -0.1725983 -0.05377676 0.052682076 0.050329097 -0.026886905
-0.054650836 0.13463052 0.036836907 -0.0118693225 0.012884367 -0.013880073 0.028403139 0.021696912
-0.07287213 0.04465312 -0.03948824 -0.08033111 -0.017566117 0.12422 0.027574798 0.11514309
-0.086605564 0.036640983 -0.045328144 0.016110389 0.07711772 0.09571751 0.1762842 0.17194372
0.13694532 0.06673192 0.08960585 0.046388913 0.019260235 0.052089628 -0.0042151315 0.02491352
-0.05776782 0.032734983 0.11247331 0.113654256 0.050284404 -0.10190464 0.037383128 -0.014015537
0.10974236 0.07870788 -0.025094472 0.07796827 -0.09069275 -0.023054862 -0.021353561 0.0099726
-0.095366254 -0.11925138 0.039292213 0.05934775 0.06918876 0.019550158 0.05636068 0.047163416
0.03522532 -0.02659879 0.070187226 -0.004784259 -0.09353434 -0.021688215 -0.043427665 0.045817044
-0.061012488 0.08716503 0.01836729 -0.049523424 -0.06845602 0.031468373 0.039630953 -0.08108656

dense2.bias f4 [80]
00000000: ddb1 ed3d fe08 f4bc 16c7 8abd e0d5 aabb
00000010: 1319 613d d863 343d 6790 c7bd 0bb8 46bc
00000020: e815 8f3b f8e7 723d 5043 853c b19a b53c
00000030: 6ab9 babc c4cd e73d de52 713d 1781 503d
00000040: 5986 79bb 9ebb 12bc 8f6a 94bd 2e16 17bd
00000050: b921 a43d 9053 e13d 8839 043e a04b 2d3d
00000060: a843 97bc c398 a4bd 4ba6 6cbd 1003 5e3d
00000070: 24b6 9cbc ade0 0bbc ec93 6dbd b030 6fbd
00000080: 6244 40bd 9675 81bd 8227 b73d faf9 093e
00000090: deba 2a3d 9112 523d f71c 97bd ca54 4b3d
000000a0: b8c3 17bd 3bd2 713d bf56 2e3d 1735 f13c
000000b0: 9a5b 693d fb8e bb3c 5553 a83d a7c4 8c3d
000000c0: eb03 cb39 e33c a73d 202f 9fbc cdb6 d53d
000000d0: 6704 8abd b810 e6bd 8a5e c43b c326 4d3d
000000e0: e93f a7bd a789 22bd c68c e33c 3b2f 7abd
000000f0: 8b3c 563d dbfa 073e be3b f3bc cb62 a5bd
00000100: 6062 893d d757 413d 3bd9 b6bd dcf3 853c
00000110: e7eb c63d d13e b0bd 50e3 d93d b5de ac3d
00000120: 4393 86bd 9a7d e93d b217 543c 6e21 6c3c
00000130: 7082 4abc d9b1 553d 1a62 a5bd e718 4f3b
0.1160619 -0.029789444 -0.06776254 -0.005213484 0.054955553 0.04404053 -0.097443394 -0.01212884
0.004366625 0.059303254 0.016267449 0.02216849 -0.02279349 0.113185436 0.05891692 0.05090436
-0.0038074462 -0.008955864 -0.07246887 -0.036886387 0.080142446 0.110022664 0.12912571 0.04230845
-0.018464878 -0.080369495 -0.057775777 0.05420214 -0.01912982 -0.008537454 -0.058002397 -0.05839604
-0.046940215 -0.06321256 0.089430824 0.13474265 0.041682117 0.051287238 -0.073785715 0.049641408
-0.037051886 0.059038382 0.042563196 0.02944426 0.056972124 0.022895327 0.08219019 0.06873446
0.00038722096 0.0816591 -0.01943165 0.10435257 -0.06739121 -0.112336576 0.0059927152 0.050085794
-0.08166487 -0.039682057 0.027777087 -0.0610802 0.052303832 0.13279288 -0.029691573 -0.08075484
0.06708217 0.04720291 -0.08928152 0.016351633 0.097129636 -0.08605731 0.106390595 0.084409155
-0.06571057 0.1140091 0.0129451025 0.014412267 -0.0123602 0.052171562 -0.08075352 0.0031600536

final.weight f4 [12, 80]
00000000: 589a 8f3d 6ff2 393e 6a2b 6e3d b739 d63d
00000010: 2e50 a0bd 0691 28bd 003f 73be 08fb d2bd
00000020: 81f4 81be 4396 983d 2253 cd3b 7da0 8e3c
00000030: 87cf be3d 3670 06bd dbf9 f13b bbd2 55bc
00000040: 94ec 243d df35 efbd 4c81 9b3b 9646 bbbd
00000050: 36a0 81bd 1f01 583c 3a84 b73d ce47 a5bd
00000060: 44fe 4bbe c0b3 91bc 7878 5e3d 2997 ac3d
00000070: af89 41be 8fd2 1b3e cd31 c5bd 74db ccbc
00000080: 60e0 103a 7079 f2bd d1d8 523e 7e29 e33d
00000090: 5495 56bd 2c38 1cbe 8fec 0a3e 3913 d23b
000000a0: 97ed bfbd feeb fa3c f817 eebd 9f63 20be
000000b0: 18e8 bcbc cb7d 9e3c 930e babb 30e4 413e
000000c0: 4341 06bc babd e1bc c812 acbd 213c 3bbe
000000d0: 8d57 913d c579 88bd 3e44 40bd ecea 15be
000000e0: 8ad5 b53d 537d dc3b 28e7 36be 489a d7bc
000000f0: c175 46be 7632 923d 2b73 dabd 142d a2bb
00000100: a2d9 10be 6d0a 7b3d 44b0 d63d 85a0 acbe
00000110: c5dc 34be b1eb 91bd 7775 a03d 9097 713d
00000120: a026 993d a083 7d3d f4da 5f3d 670f edbd
00000130: 31bc acbd d270 04bc 046b 5f3b b5c6 c73d
00000140: ab2b 473c d8e3 8fbd 59db 14bc 39d3 823d
00000150: dae1 a63d 360d a73d 321b 9abd 4c26 1d3d
00000160: a125 96be 19a4 5a3d 3a11 093d 16df cabd
00000170: 313f ae3d df06 ac3d 1a40 1d3e 28a2 89bd
00000180: 3d8e 6d3d dd64 023e 09ff adbd 9f59 9fbd
00000190: f436 04be 357e 56bd 7acd 8abe f264 c8bd
000001a0: 215f 0a3e c578 03bd ea59 c83d b3bd 883c
000001b0: 9807 14be b0e6 b1bd 7038 073d bd5c 03bc
000001c0: d7f5 b2bd 250e 54be 55a5 d03d 6a01 3bbe
000001d0: 3458 683d ace6 ed3d 04c7 c63d 4da4 3ebe
000001e0: 8d25 6c3c 0373 fbbd 73a2 833d ac08 2fbd
000001f0: f4c3 aa3b 7cd2 cf3d 7160 3ebe f425 1fbd
00000200: eadb 75be eef0 7dbe 5102 bc3d 9c72 04be
00000210: b7b4 2d3e f410 f03d d46a 3ebe 0ad3 fabc
00000220: cc8e b33c 0dcb 4abe 5b8e 4abc 8eb1 d63d
00000230: 910b b33c ca1c 1a3e 47a0 fe39 1a2c 40bc
00000240: 0b01 f5bd e0c4 d1bc 37a4 38bc 74ae f33d
00000250: 1748 a0bd fe39 6e3e 0557 b5bd 3769 c7bd
00000260: c937 81bd 7eb2 813d 7f80 8b3d b476 6e3e
00000270: 747e 333d 0c0e b8bd 38d7 dfbd 76a3 71bd
00000280: 3f8e c73d 84d6 61bc 5853 da3d 1b16 af3c
00000290: fcb8 53bd 9687 763d 7079 9abc 3db2 babd
000002a0: a1eb 283e 1bb5 85bd 0c39 cfbd df83 053e
000002b0: 3fa1 94bd 9270 f03d b930 18bd 37e4 d53d
000002c0: 2734 1abd 1d45 d6bd 5827 1a3e d240 043e
000002d0: 092d 183e a4a6 e13d 73d0 54bc 54ce 4fbc
000002e0: 7c70 f2bc 39e9 0d3e c3fa f7bc 7b67 043d
000002f0: 92e4 313d bce7 953c acfe f8bb 8376 47bd
00000300: 060d 883d 2374 0f3e b2ba 3ebe 8682 dc3d
00000310: 2111 c5bc 6d42 11bc 0a6b c9bd 2e14 9b3d
00000320: 8275 93bd e19f e2bd d361 b9bd 6d20 c0bd
00000330: acd4 c63c 47ba f03d 5af8 95bd 481d aebd
00000340: 6800 983d a47c d9bb 236a 95bd 30dc 0abc
00000350: df97 0a3c 1096 c2bc da3b 613d 1c09 4abd
00000360: 86af 993d 83a2 133d cb59 603d 7007 d23d
00000370: 58f9 49bd 8ec7 2cbd 6925 5f3d e34b bfbd
00000380: a9da a3bd 1e1a 21bd d5de a4bc edd4 2ebe
00000390: 097f 26be dd86 d23d 5d8b bbbd 5ffe 61bd
000003a0: f817 a4bd af5e a33d 324c 563d 56ad 75bd
000003b0: e17c ffbc 64fe 08bd 7877 fb3a 6bad f83b
000003c0: 2617 10bd 091e f1bd b349 9fbb dfa9 d8bd
000003d0: 88f2 cabd 8779 2d3d 9251 1c3e 1182 493d
000003e0: 01ff 0dbc 0a5f 553d 85f3 d03d 3c99 fe3d
000003f0: 8c9b 303d a96a f1bd dcbd 67be c780 9e3c
0.070118606 0.18158887 0.05814687 0.10460227 -0.07827793 -0.04115393 -0.23754501 -0.10301787
-0.25381854 0.07450535 0.0062660137 0.017410511 0.093169264 -0.032821856 0.0073845214 -0.01305073
0.04026468 -0.11680197 0.004745638 -0.091443226 -0.06329386 0.013183861 0.08960767 -0.08070336
-0.19921213 -0.017785907 0.054314107 0.08427269 -0.18900178 0.1521704 -0.09628639 -0.025006987
0.00055265985 -0.118395686 0.20590521 0.110918984 -0.052388504 -0.15255803 0.13566802 0.006410983
-0.093714885 0.030630108 -0.116256654 -0.15663002 -0.02305989 0.019347092 -0.005678007 0.18934703
-0.008194271 -0.027556289 -0.0840202 -0.18284656 0.07096777 -0.06663851 -0.04694008 -0.14640397
0.0887862 0.006728807 -0.17861617 -0.026318684 -0.19380857 0.07138531 -0.10666498 -0.0049492214
-0.1414552 0.06128924 0.10482839 -0.33716217 -0.17662342 -0.07125033 0.07834905 0.058982432
0.0747807 0.061893106 0.05465217 -0.115752034 -0.08434332 -0.008083539 0.0034090886 0.09754697
0.012156407 -0.070258796 -0.0090855 0.06387944 0.081485465 0.08156817 -0.07524718 0.0383666
-0.29325584 0.053379152 0.033463694 -0.099058315 0.085081466 0.08399748 0.15356484 -0.06720382
0.057996977 0.12733789 -0.0849591 -0.07780766 -0.12911588 -0.052366454 -0.2710989 -0.09784879
0.13512851 -0.032097597 0.09782775 0.016692018 -0.14456022 -0.08686578 0.033012807 -0.008017716
-0.087382965 -0.2070852 0.101877846 -0.18262258 0.056724742 0.11616263 0.09705928 -0.18617363
0.01441325 -0.12277796 0.06427469 -0.04273288 0.0052113477 0.101475686 -0.18591477 -0.038854554
-0.24009672 -0.24798939 0.09180129 -0.12934345 0.16963468 0.117219836 -0.18595439 -0.03061821
0.021918677 -0.1980402 -0.012363042 0.104830846 0.021856101 0.15050045 0.0004856607 -0.011729265
-0.119630896 -0.025606573 -0.011269621 0.11898509 -0.0782625 0.2326431 -0.08854488 -0.09736865
-0.06309468 0.06332873 0.06811618 0.23287469 0.043821767 -0.08987054 -0.109297216 -0.05899378
0.09743928 -0.013784055 0.10660428 0.021372845 -0.051690087 0.0601879 -0.018856734 -0.091160275
0.16496135 -0.06528684 -0.10118303 0.13038586 -0.07257318 0.11740221 -0.03715584 0.10443919
-0.037647393 -0.10462401 0.15054071 0.12915352 0.1486093 0.11018112 -0.012989151 -0.01268347
-0.029594652 0.13858499 -0.03027094 0.03232525 0.043430872 0.018298976 -0.0075987186 -0.048697006
0.06643109 0.14009146 -0.18625906 0.10767083 -0.02405602 -0.008865935 -0.09834869 0.07572208
-0.07200147 -0.11065651 -0.090518616 -0.09381185 0.024271332 0.117542796 -0.0732276 -0.08501679
0.074219525 -0.006637173 -0.072956346 -0.008475348 0.00845906 -0.023753196 0.05498872 -0.049325094
0.075041816 0.036043655 0.054773133 0.10255325 -0.04931006 -0.042182498 0.054479036 -0.09340646
-0.080006905 -0.039331548 -0.020125786 -0.17073412 -0.16259398 0.102796294 -0.09157441 -0.055174228
-0.08012384 0.07977044 0.05231876 -0.05997976 -0.031187477 -0.03344573 0.0019185385 0.0075890324
-0.035178326 -0.11773307 -0.0048610806 -0.10579275 -0.099095404 0.042352226 0.15265492 0.049196307
-0.008666755 0.05209259 0.10202698 0.12431571 0.04311709 -0.11787922 -0.2263102 0.019348515

final.bias f4 [12]
00000000: c36e b93c a441 c63d 1196 debd abc6 d93c
00000010: 7a32 b2bd 836d d7bb 845e 71bd c4a5 b8bd
00000020: 2069 503b fc6e aabc 859a 263d 12bd 253d
0.022635823 0.09680489 -0.10868467 0.02658399 -0.08701034 -0.006574334 -0.058928028 -0.09015992
0.003180094 -0.020804875 0.040674705 0.040463515
