Superclass/models/superclass_base.pth (torch, 249192 bytes, 10 tensors)

conv1.weight f4 [6, 1, 5, 5]
00000000: a9ba 883e c802 683e 70f2 1f3e b8c1 12be
00000010: 1e95 8dbe e62f 633d f7c5 533e e297 2e3d
00000020: 2223 4fbe 19db 91be 2d67 893e 49f8 ed3d
00000030: cc19 e53d 08f7 89be 9ad7 60bd 337a 8e3e
00000040: 16fd 22be 8843 79be 0761 83be 5e66 0fbe
00000050: 0f01 9b3c e0a2 853d d268 15be 2211 dc3d
00000060: 06ed 153e ea01 093d 7ca7 82be 4ff3 b63d
00000070: 5ec9 6e3e 64f5 9d3e af7a c0be aeb6 6fbe
00000080: da8c 4abe 7cf9 72bc 8ca9 5e3e 32f1 5bbe
00000090: 6573 aebd 003b 6cbe 86ce babc 4779 5f3e
000000a0: a919 5abe 5141 2ebd 07dc e3bd 4d4b 853e
000000b0: fd60 de3d 4d7c aa3c b764 d93c 4796 a03d
000000c0: e18e 853e 933a 17bd 63e4 f73d 5a98 33be
000000d0: 9659 a1bd 8d1b 0abe d498 a93d fc6b 82be
000000e0: 3ffb 0cbc baf6 d6bd 6da7 713e bcc2 873e
000000f0: 1cc0 923d 9229 54be 012e 173e e1aa 7cbd
00000100: 77fd bb3d fc58 3abe cf4d 033e 3409 733c
00000110: fefd d43d 0977 c43d 82e2 b23d 95a9 0b3e
00000120: 13c8 bbbb 54eb 31be 43af 2c3d 420d bbbd
00000130: c225 51bc 68c8 b23d 6867 9e3e a87c 923e
00000140: 7e2d dfbd eb0c 31be 061a 163e d5c2 fc3d
00000150: f9dd 0abe 88d3 f0bd fdf0 90be 853c 3cbe
00000160: 61b8 8dbe a588 6bbe e868 70be 811c 37be
00000170: 5a9e a8bd bc5d a1be e85c 29be 3847 febc
00000180: 77e5 49bd d324 f0bd a965 81be 301f 95bd
00000190: 740a 52bc bb9b 97be c924 88be 5318 ccbd
000001a0: 6210 05be dadd cf3d 71ea ecbb b260 4b3c
000001b0: 62df 86be 9985 27be 4b82 b6bc 9ce9 d9bc
000001c0: 86c8 6dbc b7b3 b03d 9525 2dbe 6b31 a63b
000001d0: 3fdd e23c a677 123e 9906 063e e07d 473d
000001e0: 9789 4a3e ede3 0cbd 6b1c 8f3e a3aa 453e
000001f0: e47e 893e 2e56 37be 14ab 3f3e e7a5 5e3e
00000200: a7cf 8d3e de7d 8b3e 7fc7 27be bfe5 03be
00000210: 3177 1abd 9c4a 713d 2147 10be 2a9a dcbd
00000220: 6da8 97be d428 85be d2ef 32be 016d 00be
00000230: 13fb a03d ea27 153e 3abe dcbd e939 b4bd
00000240: 3a87 e83c e351 243e a189 983e 825d dc3d
00000250: 0106 873d 6c94 f2bd
0.2670491 0.22657311 0.15619826 -0.1433171 -0.2765283 0.0554656 0.20680986 0.042625315
-0.20228246 -0.2848747 0.2683653 0.11619622 0.11186561 -0.26946282 -0.054893114 0.27827606
-0.15916857 -0.24342167 -0.25659963 -0.14003894 0.018921403 0.065252066 -0.14590767 0.10745455
0.14641199 0.03344909 -0.25518405 0.08933126 0.23319003 0.3085128 -0.375936 -0.2340953
-0.19780293 -0.0148299895 0.21744365 -0.21478727 -0.085181035 -0.23069382 -0.022803556 0.21823607
-0.21298851 -0.04254276 -0.11125951 0.26034012 0.10858343 0.020811224 0.026537282 0.07841163
0.2608557 -0.036921095 0.12104108 -0.17538586 -0.07878415 -0.13487072 0.08281103 -0.2547301
-0.008604824 -0.10496278 0.23599024 0.26515758 0.07165548 -0.20718983 0.14763643 -0.0616864
0.09179204 -0.18198007 0.1282265 0.014833737 0.10400008 0.09593017 0.08734609 0.13638909
-0.005730638 -0.17374927 0.04215933 -0.09133388 -0.01276535 0.08729631 0.30938268 0.2861073
-0.10897349 -0.17290084 0.14658365 0.12341849 -0.13561238 -0.117590964 -0.2830886 -0.18382461
-0.27679732 -0.23001345 -0.23477519 -0.17881967 -0.08233328 -0.31516826 -0.16539347 -0.03103982
-0.0492911 -0.11725774 -0.25272873 -0.07281339 -0.012819875 -0.29611 -0.26590565 -0.09965577
-0.12994531 0.10149737 -0.007230096 0.012413191 -0.26342303 -0.16359557 -0.022278925 -0.026600651
-0.014513141 0.08628028 -0.16908868 0.005071809 0.027693389 0.14303455 0.13088454 0.048704028
0.19779049 -0.034397054 0.2795137 0.19303374 0.26854622 -0.17903969 0.18717605 0.21742974
0.2769749 0.27244467 -0.16384695 -0.1288061 -0.037711326 0.058909044 -0.14089634 -0.10771592
-0.29620686 -0.26007712 -0.17474297 -0.12541582 0.078603886 0.14566007 -0.1077847 -0.08800108
0.028384794 0.16046862 0.29792503 0.10760023 0.06592942 -0.118447155

conv1.bias f4 [6]
00000000: 9425 353e 05b6 923e 0a2f 8b3e 807f 1cbd
00000010: a693 f23d 83ec 9e3d
0.17690116 0.28654495 0.27184325 -0.03820753 0.11844568 0.07759955

conv2.weight f4 [16, 6, 5, 5]
00000000: 7e9e 353c 7da7 0e3b 613c 1fbe 7c16 52bd
00000010: bff0 023b f8d1 203d 42d0 f83c 3fae cdbd
00000020: 35ec 8dbd aa5c ba3d d9f6 113e c4bb 54bc
00000030: 8b8e 50be d5fd 9e3d 9491 563e 4632 2d3e
00000040: 0d5c 073e 3bc3 e9bd e08c 64bc 8a8b 68ba
00000050: f2ce 893d ad48 2f3e f28b 71bd 490d 41be
00000060: 0910 02be 667f 04bb e5c8 653c 6b36 083e
00000070: 3b59 423d 1487 00be 92f2 b63b f254 c9bc
00000080: e292 ea3c 9ff5 9fbd 7e66 7fbe 2088 963d
00000090: 9711 f93d 4f72 8b3d 21ad 21be 5029 fbbd
000000a0: 5b47 d0bc fbee e53d 1ef2 fb3d 54bc 9e3d
000000b0: 2825 adbc bd01 f53c 4f30 17be ddbb 18b9
000000c0: 9a9c e63d 316f e93c 5d13 1cbd 660e 9a3d
000000d0: 45c0 ca3d 1966 043e 8f93 8c3c 0d67 08bd
000000e0: df08 993c 1770 073e 394c 873d 4032 853d
000000f0: 168f 253d 5686 10bd 73fd 74bc d329 86bd
00000100: 615b 12be a7c4 a0bd a207 9bbc bce7 bcbc
00000110: fcd9 833c 5d25 d2bd 4908 893d 7b03 8cbd
00000120: 584d 6bbd f6e9 bc3d 39cc 5d3c 7810 3d3d
00000130: a970 03be af4d ddbd 5b28 1cbe 7a43 94bb
00000140: a393 9c3d 1874 a43c f067 303d 3272 ebbd
00000150: 6d87 dfbd 4c2d 1b3e 0481 983d 5fc4 173e
00000160: aab3 b43d ba00 6f3c d18c 57bd b0db 7f3c
00000170: 8690 1b3e c233 e23d e124 4bb9 8ab6 41bd
00000180: 6452 a5bd 8aaa debc 19e7 ac3c 5aef 323d
00000190: 8151 fc3d 6f02 3f3e 3e9e de3d 4c83 cd3d
000001a0: ec46 f63a db0d bdbd a8f2 dc3b 7fbb 543d
000001b0: 0630 133e c291 a3bd 7efc 2dbe 84d2 65be
000001c0: 24ad 81be 22c9 7bbe 54fb 86bd 0ab8 1b3e
000001d0: 8df1 e23d eeb8 693a 0783 1fbe 0445 ba39
000001e0: 72bf c73d 16d1 233e 9504 483e b6c5 a63d
000001f0: 0d8d d63d 43d2 dfbd 217e 84bd 2aff e13c
00000200: 6205 a73b 2c12 b4bd bce4 cc3d 3595 e1bd
00000210: dac6 41be d641 32bd e883 dcbd 1201 1f3e
00000220: 725d 753e da1a 633e ffb0 0fbd e0bf bcbc
00000230: cdae 113e 4d95 313e aec9 8c3e 9548 513e
00000240: 12d0 1a3d 9b61 a8bd d386 3d3a d00f ae3d
00000250: 2513 433e cda3 1bbc 1a53 b6bb 1e61 dcbc
00000260: 8976 463d a3f0 12bd b9bd 91bd 49f2 91bc
00000270: 0937 6c3d ac4c 22bd 9781 95bd 3b6d 9ebd
00000280: f202 f0bb da14 1cbe 4ba0 10be 4e45 c4bd
00000290: d719 e5bb 5d79 16be 9d9f e0bd f0c7 443b
000002a0: a20c ce3c c9d5 8f3d 8234 043c f52b 19be
000002b0: c53b 00bd f45f 273d 69f6 b63c 4b3e dfbc
000002c0: e057 69bd a612 97bc dd38 033e f11d 32bb
000002d0: 0346 0fbc 97d6 15bd 6d2f 56bd 767d 933a
000002e0: 589e 923b 46be a53c fcc1 b8bd 2778 f9bd
000002f0: d70e e9bd 799a 80bd cf64 a1bc 638e 73bd
00000300: 1e7c c5bc 0046 e1bd 3adf e9bd de72 b63d
00000310: 9980 833d 46da 653d 9be0 db3d 65c1 d23b
00000320: c978 7a3d d5de 7bbd 9554 15bd 8ba2 153d
00000330: 087c e3bc 89ca 033d a58d d4bd e5ee 0cbd
00000340: ff29 b43d 77d3 9f3b cc9d 543d 4732 a43d
00000350: ab30 92bc 48d2 81bc 33c1 44ba 1051 0dbd
00000360: dd71 21ba 9c68 1e3d 5b20 883d dedb 9a3d
00000370: e004 a13d d5a1 2dbd 7c84 3abd cc76 61bd
00000380: 2c2b d23d 78d7 6e3d a407 923c a878 e53d
00000390: ee6b 66bc a45c 973c 1aff 6d3b 861c f63c
000003a0: 003b 953d 09dc cebc 34d3 da3d 19f7 a33d
000003b0: ec09 f3bb cb8a cfbd a95a 2abc 96a7 5dba
000003c0: c01e 873c 9da1 dd3d 2fbe 74bd ca27 35bd
000003d0: bff8 33bd 7fec fd3c c52a dd3d 678d fd3c
000003e0: 45cf 993c 0a6e b3bd 4fd2 fbbc 57d2 823d
000003f0: 39a0 08bd 5f72 6bbc 3e6e 0cbe 4fca b3ba
0.011085151 0.0021767311 -0.15550376 -0.051290974 0.0019979922 0.03926274 0.030372743 -0.100430004
-0.069298185 0.090997055 0.14254321 -0.01298422 -0.20366876 0.07763258 0.20953971 0.16913709
0.13218708 -0.114141904 -0.013949603 -0.00088708906 0.06728925 0.17117567 -0.058971353 -0.18852724
-0.1270143 -0.0020217537 0.014024948 0.13302009 0.047448378 -0.12551528 0.005583116 -0.024576638
0.028634492 -0.078105204 -0.24941441 0.073501825 0.12161558 0.06808912 -0.157887 -0.12263739
-0.02542465 0.112272225 0.123020396 0.077507645 -0.021135882 0.029908055 -0.14764522 -0.00014565834
0.11260338 0.028495403 -0.038104404 0.075222775 0.09899954 0.12929572 0.017160205 -0.033301402
0.018680988 0.13226353 0.06606335 0.06503725 0.04041966 -0.035284363 -0.014953005 -0.06550946
-0.14292671 -0.078500085 -0.018924538 -0.023059718 0.016095154 -0.10261033 0.066910334 -0.06836601
-0.057446808 0.09224312 0.01353746 0.046158284 -0.12835945 -0.108058326 -0.1524977 -0.0045246454
0.07645347 0.020074889 0.043067873 -0.114963904 -0.10914502 0.15153998 0.07446483 0.14821003
0.08823331 0.014587576 -0.052624527 0.015616342 0.1519185 0.11045028 -0.00019373327 -0.047293223
-0.080723554 -0.027180929 0.02110629 0.043685295 0.12320233 0.18653272 0.10870026 0.100348085
0.0018789447 -0.09231158 0.006742794 0.051936623 0.14373788 -0.079867855 -0.1699085 -0.22443587
-0.25327408 -0.24588445 -0.06590906 0.15206924 0.110812284 0.00089158013 -0.15577327 0.00035528105
0.09753312 0.15997729 0.19532998 0.08143179 0.10476122 -0.10928776 -0.0646937 0.027587492
0.005097077 -0.087925285 0.10004565 -0.11014787 -0.18923512 -0.043519817 -0.107673466 0.15527752
0.23961428 0.22178212 -0.035080906 -0.023040712 0.14226837 0.1734211 0.2749762 0.20437844
0.037796088 -0.08221742 0.0007229868 0.0849911 0.19050272 -0.009499502 -0.0055641057 -0.026901778
0.048452888 -0.03587402 -0.07116265 -0.017815726 0.057669673 -0.0396239 -0.07300108 -0.07735678
-0.00732457 -0.15242329 -0.14123647 -0.09583531 -0.0069916057 -0.14694734 -0.10967944 0.0030026399
0.025152508 0.07023198 0.008069159 -0.14958175 -0.031307 0.040862992 0.022334294 -0.027251383
-0.05696857 -0.01844151 0.1281466 -0.002717849 -0.008744719 -0.036581602 -0.052291322 0.00112526
0.0044744425 0.020232331 -0.090213746 -0.1218112 -0.113797836 -0.06279463 -0.01970139 -0.059461962
-0.024107035 -0.109996796 -0.1141953 0.08908628 0.064210124 0.056116365 0.107361995 0.006431746
0.061150346 -0.061491806 -0.036457617 0.036531966 -0.027769104 0.032175574 -0.10378579 -0.034407515
0.087970726 0.0048775035 0.0519083 0.08017402 -0.017845472 -0.01584734 -0.00075055956 -0.034501135
-0.00061586295 0.038673982 0.06646796 0.075614676 0.07862258 -0.042390663 -0.045536503 -0.055044934
0.10262141 0.058310956 0.017825909 0.11204654 -0.014063818 0.018476792 0.0036315382 0.030042898
0.07286644 -0.025251405 0.10684815 0.080061145 -0.0074169543 -0.101338945 -0.010397592 -0.0008455453
0.016494155 0.10821841 -0.059751686 -0.0442274 -0.043938395 0.03099656 0.10799173 0.030951215
0.018775592 -0.08761223 -0.030739931 0.063877754 -0.033355925 -0.01437053 -0.13713929 -0.0013716909

conv2.bias f4 [16]
00000000: d1d1 c8bd 5200 3ebd 2382 843d 2670 133c
00000010: c2f6 573d bdc8 19ba e77e 093e d6d0 05be
00000020: 219c d23b 8584 ac3a f76d 163e 930c 753d
00000030: 6028 dabc 0b9b 653d f180 c93d 1602 073a
-0.09805644 -0.046387024 0.06470134 0.008998906 0.05272556 -0.0005866399 0.13427316 -0.13067946
0.0064273034 0.0013162052 0.14690386 0.059826445 -0.02663058 0.056056064 0.09839047 0.0005150152

dense1.weight f4 [120, 400]
00000000: 8ff0 25bc ce95 c9bc dd30 84bc bda7 313c
00000010: 654a b73d 4c05 0c3d 45b1 b93b c61e 6f3b
00000020: ec82 5d3d dd3d cd3d 320e 1a3d fe63 143d
00000030: 9f13 b3bc d36a e23a 11b9 003d 4fa0 133d
00000040: 2f98 b0ba b1c6 6abd c156 f9bd 7d64 9abd
00000050: a252 44bc e81e 43bd 993d 1d3d ab5c 68bb
00000060: d774 543c 0c33 213d 05ee fdbc 360e c03c
00000070: 84f6 52bd 5582 f9bb 029a c7bc 0d40 adbc
00000080: e1a5 8abc 9b4e 4d3d 6c3c c6bc 9b10 8b3c
00000090: 2491 3bbb db0a 49bc a29a 41bd 5551 903d
000000a0: b119 633d 3cd3 45bd 7844 423d d36c da3a
000000b0: 284b 67bb 0325 1f3c c433 57bd 2c63 2bbc
000000c0: f998 7dbd 3500 2a3d bcad e3bb ac71 dcbb
000000d0: ba67 eb3c ce10 a0bd b92d 03bd 4bff 2f3d
000000e0: d68c 4f3c d060 e53c 57ba ddbb 9b59 7dbd
000000f0: f405 5c3d 29b5 31bc 9076 2ebd 6a47 cebd
00000100: f64c f2bb 0ddf 6d3b af33 2e3c a68d 92bc
00000110: da93 ba3c fc60 443d 64c5 e73c 7ee5 dcbc
00000120: 0135 37bd aef5 f53b 162d c83a e8c9 8b3c
00000130: 1f81 0d3d 7b38 443d a95f 81bd 3e0b 763c
00000140: 36a9 a5bc b3eb 64bd 65e0 f9bc 24f0 f3bd
00000150: f41b bf3c fa2b 643d 65b8 bebb dd41 98bc
00000160: 40cb 9fbd 03fa 553b cac1 953d b80e 1c3b
00000170: b51f 673d 00a1 aa3d 92ad ae3b 4f15 debd
00000180: 3735 56bd cf5b 9dbd 770c fb3b b54f 443d
00000190: 82e6 3bbd 5d90 023c 50f4 0abb 73ad 7a3d
000001a0: cf3f 50bc cdca 213c 8c54 4cbd c295 c5bd
000001b0: d14a 50bd 4370 2b3d 0df2 c73d 89d4 893d
000001c0: c883 ea3d 5ea1 2cbd e892 c2bd ca72 893c
000001d0: 4c2e 19bc 6331 083d dbdf b73c f792 383d
000001e0: 85fa 8abd b607 cebd e895 5ebd 040f 33bd
000001f0: 8e1c 4bbd e238 8b3d 24fc de3b 110b a93c
00000200: 7c98 a23b 4a74 cc3c 93d9 643d 53f2 913d
00000210: b9ce ca3c 498c 54bd ef7c b63c c85b b13c
00000220: 60de e1bc 4a90 b0bd 7548 de3c d5e4 a33d
00000230: 8d36 553c 4ac2 4ebe af27 42be bc3f 84bc
00000240: b988 56bd b090 283c 4919 84bd a201 1a3d
00000250: fc04 ae3c 2c2c b0bc 2aee 2e3d c003 403d
00000260: 0bf9 d13c 7330 4f3d 33d9 1f3d fc57 2cbd
00000270: 757e 1e3d 44ef 88bc 828a 0b3d 6f90 893d
00000280: 1b55 80bc 9785 b3bd 2f06 56bd a2f2 593b
00000290: da12 993d bb91 9cbd a6b0 a03d c9a2 adbc
000002a0: 1d52 d5bd cb1f cf3c a2cd b33c f7c7 a5bc
000002b0: 5bcd be3c c934 093c 51d8 8bbd fe81 d8bc
000002c0: 66a5 cbbc bf5e 98bc c369 a9bc 18da 583c
000002d0: b9b8 89bc fd54 303d a9a5 ecbc e63e 36bd
000002e0: a07f 773c 377c 773d 32dc 10be 809b 85bd
000002f0: 4cda 77bd b08a 77bd 44aa 6c3c d0e7 6cbd
00000300: 0374 60bd ce06 d1bc a583 773d 3cfc 4dbc
00000310: 2fa9 553c 3671 3dbc c8df 8ebc 7a79 a83d
00000320: 0298 8c3c ac23 61bd d73d 15bd 5ceb 833d
00000330: ea82 213d f82c bfbc 86c8 12bd ec13 04be
00000340: 53a2 53bd bfcc 223d 4d4d a73d 9b88 b0bc
00000350: 99d7 18bd 7482 9dbd a36a 9dbd f390 b83c
00000360: aa44 7cbd 9290 a1bd a8fc c73b fab2 17bc
00000370: 6f24 d63c d6c3 39bd 5a36 debc 7e42 fa3d
00000380: e033 da3d d819 9c3d f976 6e3c 2441 253d
00000390: 6dde cbbb 1b26 c63d 6137 5e3d ac43 223e
000003a0: 12d5 983d c832 963d a08b ccbc 0f06 3d3b
000003b0: 4569 cd3d a93d debd 14b5 723d 4b6c 243d
000003c0: bf67 dcbc 54d8 97bc 2737 32bd 1977 8bbc
000003d0: 6567 02bd 4106 a73d 1f2c a8bc 3598 8e3c
000003e0: 35b4 c23d c755 9f3b 6379 91bc 9c2e 7a3d
000003f0: a92f 25bd 9f91 b0bc 8cf6 083d 1f7f bc3c
-0.010128154 -0.024607565 -0.016136581 0.010843215 0.089497365 0.03418474 0.005666884 0.0036486848
0.054079935 0.10021565 0.037611194 0.036228172 -0.021859942 0.0017274268 0.031426493 0.036041554
-0.0013473089 -0.057318393 -0.1217475 -0.07538698 -0.011982592 -0.047636896 0.038388822 -0.0035455625
0.01296731 0.039355323 -0.030997286 0.023444276 -0.051504627 -0.0076144137 -0.024365429 -0.021148706
-0.0169248 0.050123792 -0.024198733 0.016975692 -0.0028620446 -0.012270655 -0.04726661 0.07046763
0.055444423 -0.048297152 0.04742858 0.0016664512 -0.00352926 0.009713414 -0.052539602 -0.010460656
-0.061913464 0.041504104 -0.006948201 -0.006727418 0.028735984 -0.07815705 -0.032026026 0.042968076
0.012667855 0.028000265 -0.006766598 -0.061853033 0.053716615 -0.010846415 -0.04259354 -0.10072215
-0.0073944284 0.0036296279 0.0106324395 -0.017889809 0.02277558 0.047944054 0.028292365 -0.0269649
-0.044728283 0.007506094 0.0015272226 0.01706405 0.034546968 0.047905426 -0.06317074 0.015017329
-0.020222288 -0.055888843 -0.030502507 -0.119110376 0.023328759 0.055706 -0.0058203214 -0.018586094
-0.07802439 0.003265024 0.07312353 0.0023812484 0.056426723 0.083314896 0.00533075 -0.10843908
-0.052296843 -0.07683527 0.007661398 0.047927577 -0.045874126 0.007968989 -0.002120275 0.06120057
-0.012710526 0.009875012 -0.049885318 -0.09647705 -0.0508526 0.041855108 0.097629644 0.06729991
0.114509165 -0.04214608 -0.095006764 0.016778369 -0.009349417 0.033250224 0.02244561 0.04506203
-0.06786064 -0.100600645 -0.05434218 -0.043715492 -0.04958778 0.06797959 0.00680496 0.02063516
0.004962025 0.024957795 0.055871557 0.07126298 0.024756776 -0.0518916 0.02227637 0.02165021
-0.027571857 -0.08621271 0.02713416 0.080026306 0.013013494 -0.20191303 -0.1896045 -0.016143672
-0.052376483 0.010288402 -0.06450135 0.037599213 0.021242611 -0.021505438 0.0427076 0.046878576
0.025631448 0.050583314 0.039025497 -0.042076096 0.038694818 -0.016715653 0.03406764 0.06717002
-0.015665581 -0.087657146 -0.05225199 0.0033256193 0.07474299 -0.076449834 0.07846193 -0.021195786
-0.104160525 0.025283715 0.02194864 -0.020236952 0.02329128 0.008374401 -0.068283685 -0.026429173
-0.024859142 -0.018599866 -0.020680314 0.013235591 -0.016811715 0.0430498 -0.028887587 -0.04449358
0.015106112 0.060421195 -0.14146498 -0.065238 -0.06051092 -0.060434997 0.014444891 -0.05783826
-0.054798137 -0.02551594 0.06042828 -0.012572344 0.013040825 -0.011562636 -0.017440692 0.08226295
0.017162327 -0.05496566 -0.03643593 0.064413756 0.03943149 -0.023336872 -0.035835765 -0.12898225
-0.051668476 0.039746042 0.08169041 -0.021549514 -0.037314985 -0.076908976 -0.07686355 0.022530055
-0.06158892 -0.07888903 0.006103117 -0.00925898 0.02614042 -0.04535278 -0.027125526 0.12219714
0.106544256 0.07622117 0.0145547325 0.040345326 -0.0062215836 0.09675237 0.054252032 0.15846127
0.07462515 0.073339045 -0.024968922 0.0028842723 0.10029844 -0.108516045 0.05925472 0.04014234
-0.026904939 -0.01853577 -0.04350963 -0.017024564 -0.031836886 0.0815549 -0.020528851 0.017406562
0.09507028 0.0048625204 -0.017758077 0.061079606 -0.040328655 -0.021553813 0.03343825 0.023009835

dense1.bias f4 [120]
00000000: bcb4 143d 93e6 cfbc f529 6e3c 15eb 62bd
00000010: a3d9 b93a 0678 313d f606 063d 3568 52bd
00000020: 2ec1 3cbd 5eec 903c 7efc 8ebc 3bc6 0abd
00000030: b7ca f03c c12b a3bd abac 393c 1325 063d
00000040: 2ae9 6a3d ffa4 843d 888e 06ba feca d3bb
00000050: 7b1d 8e3d 1c2c 45bd e9d0 4fbd 624c 143d
00000060: 0f17 edb9 d16f 713d d847 31bc 7c83 5f3d
00000070: 37f7 febc 611d 0dbd 790c 1f3c 2107 4e3c
00000080: eec0 df3c bbac e13d 0dd8 a5bc e24b 25bb
00000090: 8a9f d13d 06a4 1d3d c34c 013d 9071 b93d
000000a0: 777f 9a3a 0c55 57bd 9211 45bd 5237 863c
000000b0: dc64 b13d 8a63 8f3c c14f 843c 97fe 223d
000000c0: 6224 343d 11c0 5b3b 297e 46bc 2e13 203a
000000d0: d769 4fbd 1b7e 0bbd 0113 17bd 3cb3 893c
000000e0: c83f ee3d 26f1 7f3d 7c4d 153d 3edb 03bd
000000f0: a0bf fbbb 5538 f93c 6697 303d d229 10bd
00000100: 5956 11bb 5489 9f3d 9bb7 933d 596a 00bd
00000110: 0a91 573d df2b 36bd 27e7 c13c 2e77 eb3b
00000120: 8525 b53c 6fbd 7eba 8409 173c b431 4dbc
00000130: 943e 793d e912 f23c 1c77 1dbc ea21 b53d
00000140: 12f2 dc3d 423b c43d a5bd 5e3b b558 7b3c
00000150: bc7b efbc 22af 6f3d 7e44 0d3d 4e97 b83c
00000160: 1b97 1e3d bca6 863c 3728 9dbc 4f7a 44bc
00000170: b1ad 5bbd 7451 e03d 2d15 4dbd 6af3 953c
00000180: 4b24 44bd a6bc 03bd 298a 8d3d fd44 613d
00000190: c780 42bd fef2 98bc 1cad 3cbc a27d 5dbd
000001a0: 2cde adbb 4958 bd3c a388 07bd 3911 4ebd
000001b0: de49 1dbd bd95 5fbb 0669 3cbc 0180 29bb
000001c0: bc84 283b 9923 053d c9e0 4dbd 9bda 2b3d
000001d0: f5dd e73c a88d 6e3d 1372 9d3d 34c7 f83a
0.036305174 -0.025378501 0.0145363705 -0.055399973 0.0014179241 0.043327354 0.032721482 -0.05136891
-0.046082668 0.017690834 -0.017454382 -0.033880454 0.029393537 -0.0796733 0.011332671 0.0327502
0.05735127 0.06476783 -0.0005132933 -0.0064634075 0.06939217 -0.04813777 -0.05073634 0.036205657
-0.00045221343 0.058944527 -0.010820352 0.054568753 -0.03112374 -0.034451846 0.009707564 0.012574942
0.027313676 0.11019274 -0.020244623 -0.0025222232 0.10235508 0.038486503 0.031567346 0.090548635
0.0011787255 -0.05257134 -0.04811246 0.0163838 0.086618155 0.017503519 0.01615131 0.039793577
0.04398001 0.0033531229 -0.01211504 0.00061063736 -0.050638046 -0.03405581 -0.036883358 0.016809098
0.11633259 0.062485836 0.036450848 -0.032191508 -0.0076827556 0.030422369 0.043113135 -0.035196133
-0.0022176711 0.07789865 0.07212754 -0.03135142 0.052628554 -0.044475432 0.023669792 0.007185838
0.022112617 -0.0009717559 0.009218577 -0.012524057 0.060850695 0.029550033 -0.009610917 0.08844359
0.10788359 0.09581615 0.0033987549 0.015340974 -0.029233806 0.05851663 0.034489147 0.022533085
0.038718324 0.016436927 -0.019184215 -0.011992051 -0.053632442 0.10953036 -0.050069023 0.018304545
-0.047886174 -0.03216233 0.069111176 0.054997433 -0.047486093 -0.018670555 -0.011515882 -0.05407489
-0.005306026 0.023113387 -0.03308929 -0.050309394 -0.038400523 -0.003411635 -0.011499649 -0.002586365
0.0025713881 0.03250465 -0.0502632 0.041956525 0.02830408 0.058240563 0.076877736 0.0018980266

dense2.weight f4 [80, 120]
00000000: a579 99bc 51de 7bbd 0eed 033d e7ba 35bc
00000010: 1027 d53d d80d 06be 709d 97bd c09e fe3b
00000020: 2413 97bc 248e 3abd b5f7 213c eadc 0dbd
00000030: b898 d83d ed75 4f3d df15 123e ff67 073e
00000040: 3ba8 e2bc 65ac c43d ec95 77bd 0b56 a8bd
00000050: 553a d3bd 941e 6ebc c77f c2bc c1a9 bb3d
00000060: d629 96bc 4e6e 7cbd 3a12 383d 6e1f e53d
00000070: e3b6 94bc d8b9 69bd 3086 3f3d 8229 af3d
00000080: 7d20 2c3e 26b0 963c 480e 2bbd a9ce 8d3d
00000090: c951 bbbd a7ca 2bbb d6ba 0a3e 4568 bc3c
000000a0: f48f bd3d 13ff 4c3b f1e6 16bd 816e c33d
000000b0: 832f eb3d e206 d93d 935b de3c 7db1 9a3d
000000c0: 308b 663d c3b2 a13c 3824 123d 9fb2 d63d
000000d0: b467 6f3d 893c 8bbc 6a86 533d d0d1 003e
000000e0: 39c1 563d b674 fdbd 7ddb 473d 9536 4bbd
000000f0: 9c35 51bd 48a2 1f3d 7db6 78bd d227 1e3d
00000100: 6caa 5fbd 41cf 263e 4146 293e 709c 9fbd
00000110: ccf0 5b3c 3029 3b3b 71e2 0b3d 05e8 673d
00000120: 2245 c23a bc95 bfbb ce9a 59bd 19c2 28bc
00000130: b9cc 623c 134e 65bc 20ab b0bc 596c fb3d
00000140: fab9 42bd 9e27 8abd 3917 0a3d ac28 153d
00000150: 51ee 893d a123 b0bc ca04 1a3e 4fcb f03d
00000160: 1864 083d 5636 ac3a c02e 62bd 7b41 6f3d
00000170: c37a aebb 50ff a9bd 7de8 933d 9a0a a2bd
00000180: b272 2e3d 12cc e7bc be29 07bd 03d4 c9bd
00000190: ce99 17bd d912 90bb 7671 3ebd c988 39bd
000001a0: 71f8 0c3e 8714 b739 4c61 f33d 36ee 93bc
000001b0: a5ec 63bd 4f00 27bd 9f7b 46bd 9dab 54bd
000001c0: b15a f4bd efa7 ee3d 372b a0bd 86df eebc
000001d0: b802 473d 4798 013e 1724 e53b 33bd cb3d
000001e0: 871e f3bc 000b b63a 25f3 6d3e f156 37bd
000001f0: c030 f53d 6aab 10bd a8c2 14bd 7ec5 77bc
00000200: f259 0cbd f7bc 0d3d a429 bb3d 23dc e8bc
00000210: ae04 4f3c e803 963d 6a13 7c3d 8abc cf3d
00000220: 8bf2 ccbd b19d 3ebd 6c2a 903d 1ee3 813d
00000230: aac1 223c 6984 eabc 84a5 cd3c 0ba0 383e
00000240: d130 07bd aa04 cdbc ab6d 13bd 4034 f63d
00000250: d853 f33c 62d3 19bd 6b9b 853d c632 a03b
00000260: e31d 8e3d 7db9 0b3d 6ec5 37bd c849 383d
00000270: 1be7 94bd e623 ba3d e87c 0e3e ace2 133c
00000280: af48 7f3c 94ae 49bd 1b9e 73bd 5816 86bd
00000290: e97e 65bd ae83 6c3d ff87 88bd 734d 433e
000002a0: 6c0d 5b3e 4401 87bc 10cd 113d 9503 313d
000002b0: 9513 453d d642 723d bd30 3fbd ff35 333d
000002c0: c9e0 1b3d dfa0 203d 38f2 283e cf01 2fbe
000002d0: 8f3d 5abd 28c9 573d 1a80 643d a129 debc
000002e0: 8ed9 5fbd 11a9 063e 5bd8 223d d677 42bc
000002f0: 2dd6 493c c868 63bc eba7 d93c 7071 bd3c
00000300: 671f 96bd 31e6 363d 6cbe 21bd a384 a4bd
00000310: ea04 76bc 7d20 153d 88e4 e13c d2e1 e53d
00000320: f8da adbd 981b 1b3d 01aa 39bd eff9 833c
00000330: e5ef 9d3d a0dd be3d 5d7d 313e f83e 2d3e
00000340: 92b8 133e bfaa 883d 4683 b73d 4002 3e3d
00000350: a5c7 9d3c aa1c 5c3d 161f 8abb 6d17 cc3c
00000360: f39d 6cbd 1e15 063d afb3 e63d a5c2 e33d
00000370: 18f7 4d3d fcaa d2bd 9356 d33b 67a1 65bc
00000380: 5c86 dc3d d06f 9f3d d20c d6bc d4ad 9f3d
00000390: e7f6 b6bd 8edd bcbc 1a2b 99bc 1b75 1b3c
000003a0: 1fd7 c1bd 8f63 f5bd dff0 203d dc40 713d
000003b0: f904 8d3d 8d09 a43c ae5a 663d 814f 453d
000003c0: ef60 ff3c b5e5 d9bc 8ac2 593d 46c5 9cbb
000003d0: 5f39 cfbd 8c55 1bbd 0a6a 4abd 7718 603d
000003e0: 3be8 79bd 9483 b23d 0077 963c 13d9 4abd
000003f0: a1ed a4bd 7be5 033d 6ff0 043d a772 babd
-0.018734762 -0.061491314 0.032208495 -0.011091924 0.10407841 -0.13091218 -0.07403076 0.0077703893
-0.018441744 -0.045545712 0.009885718 -0.03463451 0.10576004 0.050649572 0.14266156 0.13223265
-0.02766811 0.09603194 -0.06044571 -0.082195364 -0.1031386 -0.014533658 -0.02374257 0.09163237
-0.018330496 -0.061628632 0.044939257 0.11187635 -0.018153613 -0.057062 0.04675883 0.08552839
0.16809268 0.018394541 -0.041761667 0.06924183 -0.09146459 -0.002621332 0.13547835 0.022998938
0.092559725 0.0031279966 -0.036841337 0.09542561 0.114836715 0.10597016 0.027143275 0.075533845
0.056285083 0.01973856 0.035679072 0.10483288 0.05844851 -0.016996639 0.05164186 0.12580037
0.052430365 -0.123757765 0.048793305 -0.0496126 -0.051076517 0.038973123 -0.06072091 0.038612194
-0.054605886 0.16289999 0.16530706 -0.0779351 0.01342411 0.0028558485 0.0341515 0.056617755
0.0014821629 -0.005846707 -0.05312615 -0.010300183 0.013842755 -0.013995665 -0.021565974 0.12276525
-0.047540642 -0.06745838 0.033713553 0.03641574 0.06734908 -0.021501364 0.1504089 0.11757528
0.03329858 0.0013138752 -0.055220366 0.058412056 -0.005324693 -0.0830065 0.07222078 -0.07912178
0.04258985 -0.02829555 -0.032998793 -0.09854891 -0.037011914 -0.004396778 -0.046494924 -0.045296464
0.13766648 0.00034919774 0.11883792 -0.018057924 -0.055645604 -0.04077178 -0.048457738 -0.051921476
-0.119313605 0.116531245 -0.078207426 -0.029159319 0.048586577 0.12655745 0.0069928276 0.09948196
-0.029677643 0.0013888776 0.23237284 -0.04476065 0.11972189 -0.035319723 -0.03631845 -0.015122769
-0.034265466 0.03460404 0.09138802 -0.028425282 0.012635393 0.07324964 0.061541952 0.10143383
-0.10007199 -0.046537105 0.07039341 0.06342147 0.009933868 -0.028627591 0.025103338 0.18029802
-0.03300554 -0.025026638 -0.03599326 0.12021685 0.029703066 -0.037555106 0.06523784 0.004888865
0.06939294 0.034112442 -0.044866018 0.04499224 -0.07270642 0.09088878 0.13914835 0.009026211
0.015581294 -0.049238756 -0.059476953 -0.065472305 -0.056029234 0.057742767 -0.06666564 0.19072513
0.21391839 -0.016480096 0.035595953 0.043216307 0.048114378 0.05914577 -0.04667734 0.043752667
0.03805617 0.03921592 0.16498649 -0.17090534 -0.053281363 0.052682072 0.05578623 -0.02711946
-0.054650836 0.13150431 0.039757114 -0.011869391 0.01231913 -0.013879962 0.026569327 0.02312538
-0.07330208 0.04465312 -0.03948824 -0.08033111 -0.01501582 0.036407936 0.027574793 0.112247124
-0.084890306 0.037868112 -0.045328144 0.016110389 0.07711772 0.09319615 0.17332979 0.16918552
0.14425877 0.06673192 0.08960585 0.046388865 0.019260237 0.053738274 -0.0042151315 0.024913514
-0.05776782 0.032734983 0.11264741 0.1112111 0.050284475 -0.10286519 0.0064495294 -0.014015532
0.107678145 0.077849984 -0.02612916 0.07796827 -0.08933812 -0.023054864 -0.01869731 0.009488369
-0.09464859 -0.1198188 0.039292213 0.058899745 0.06885714 0.020024085 0.056238823 0.048171524
0.031174151 -0.02659879 0.053164043 -0.004784259 -0.101183645 -0.03792338 -0.049417533 0.05471083
-0.061012488 0.08716503 0.01836729 -0.049523424 -0.080531366 0.03220127 0.032455858 -0.091038994

dense2.bias f4 [80]
00000000: 7837 ed3d acb7 fbbc a8c8 94bd 0cd5 aabb
00000010: 1319 613d f375 343d 0638 c7bd 53bb 46bc
00000020: 4932 843b f8e7 723d 719c 8a3c 102d ba3c
00000030: 19fc babc 2dc8 e73d aec2 6e3d fb14 503d
00000040: eaba 4ebb e52a 1bbc d897 92bd dc7a 13bd
00000050: bea5 a53d db0e e13d 9743 043e aa72 2d3d
00000060: 254c 9bbc 00e3 a4bd 43aa 6cbd 1003 5e3d
00000070: 0879 933c 17b6 d7bb 509f 6ebd bc2d 6fbd
00000080: 2250 43bd 4558 82bd a609 b43d d24c 0a3e
00000090: cb45 323d eb9d 523d 5f85 98bd 58ed 4f3d
000000a0: b8c3 17bd 4891 753d 613b 2f3d 06d6 fa3c
000000b0: d75b 693d 219a b73c 8eb4 a83d a691 8d3d
000000c0: 4716 e039 556a a83d 0e82 9cbc 47cf d43d
000000d0: c533 8abd ea6b e7bd e1f2 ef3b 3905 513d
000000e0: e79e a8bd cb23 21bd 388b de3c b737 79bd
000000f0: cf7d 543d 5b5b 093e c13b f3bc ca90 a5bd
00000100: e3c7 883d 8622 413d 3bd9 b6bd 7fdb 8a3c
00000110: 49aa c63d 3320 aebd c115 da3d eaa8 ac3d
00000120: 4993 86bd b1ce e83d b217 543c 054c 733c
00000130: ba2c 38bc d9b1 553d 1a62 a5bd 5742 913c
0.115828454 -0.03072723 -0.07264835 -0.0052133854 0.054955553 0.044057798 -0.097274825 -0.0121296225
0.004034315 0.059303254 0.0169203 0.022726566 -0.022825288 0.113174774 0.05829113 0.05080126
-0.0031544515 -0.009470676 -0.07157868 -0.03600584 0.080882534 0.109891616 0.12916408 0.04234568
-0.018957207 -0.08051109 -0.05777956 0.05420214 0.018002048 -0.006582986 -0.0582574 -0.058393225
-0.047683842 -0.06364492 0.08790903 0.13505867 0.04352359 0.051420134 -0.074473135 0.050763458
-0.037051886 0.059953004 0.042781238 0.030619632 0.05697235 0.022412362 0.08237563 0.06912546
0.00042741207 0.08223406 -0.019104984 0.103910975 -0.067481555 -0.1129988 0.0073226546 0.05103037
-0.08233433 -0.039340775 0.027165994 -0.06084415 0.051877793 0.13413756 -0.029691579 -0.08084257
0.0667875 0.047152065 -0.08928152 0.016950367 0.09700448 -0.08502235 0.106486805 0.08430655
-0.06571061 0.11367548 0.0129451025 0.014849667 -0.011241132 0.052171562 -0.08075352 0.017731829

final.weight f4 [12, 80]
00000000: 98c1 853d 3267 343e 3faf 973d b739 d63d
00000010: 2e50 a0bd 9961 28bd fa5a 6fbe b6a9 d2bd
00000020: 35da 7dbe 4396 983d 15e0 6c3b f4f1 973c
00000030: 8fc6 be3d 7b56 15bd 1d09 333b 4f26 1ebc
00000040: 2e0b 303d 1a57 e2bd 3aa9 2d3c 41bd b2bd
00000050: b17f 86bd 9df4 4c3c bf79 b93d 1ee4 a6bd
00000060: 0f6d 44be a9d5 9ebc 25d5 4e3d 2997 ac3d
00000070: 0883 003e 4309 1e3e b312 c1bd 35ca ccbc
00000080: 9158 27bb 8afe e6bd 0fd0 4c3e 748d e73d
00000090: 39cb 25bd 2a87 15be 66a8 033e a669 403c
000000a0: 97ed bfbd a625 013d 7b49 e1bd 8e55 11be
000000b0: 0fec bcbc 5618 8d3c 26f1 7d3a e6b0 3f3e
000000c0: eb25 b2ba 646d babc 4d2e a4bd 56dd 36be
000000d0: 1f9f 9f3d e306 8fbd b970 45bd bf10 12be
000000e0: b706 aa3d bc31 a03b b146 33be 2377 67bc
000000f0: 812f 40be ed38 913d 5473 dabd a9b5 30bc
00000100: 059a 0cbe da59 693d 44b0 d63d 9f9e a7be
00000110: 5902 31be 5d5b 94bd d2fd 983d 0e73 5d3d
00000120: 6826 993d 514d 763d f1da 5f3d 570d eebd
00000130: abce 9abd d270 04bc 4e69 5f3b c9ae ca3d
00000140: 1a72 5a3c f293 8cbd 67f2 22bd 39d3 823d
00000150: dae1 a63d f304 a73d cf80 9abd 2ba4 1d3d
00000160: df98 96be 1aa4 5a3d 18a3 093d e4b8 cbbd
00000170: a941 ae3d fda3 ae3d 031e 1e3e 4092 8abd
00000180: 725b 6d3d b106 013e 63e1 b7bd 0877 a6bd
00000190: 2faf 04be 3e6f 51bd f2d6 89be 3276 c7bd
000001a0: 5a16 073e 88ec 04bd e8f3 ca3d b3bd 883c
000001b0: 41a2 1ebe 5f2c a7bd bfd5 083d ee43 03bc
000001c0: aebf b1bd 3d6d 56be ebb8 d23d db8e 3abe
000001d0: 1075 623d 3204 eb3d 932b ca3d 9a24 3fbe
000001e0: 8d25 6c3c ab6a fcbd 1648 833d 9916 2cbd
000001f0: 1eb8 aa3b 204b d13d eae3 3fbe ccb4 15bd
00000200: ef86 75be a39b 7fbe 2fe1 ba3d b89b 03be
00000210: c6af 2b3e 8d3d f03d 29c5 3ebe 8311 fcbc
00000220: 214b be3c 9ea1 46be 0bfd 22bc a364 cb3d
00000230: 51ee aa3c 42f4 1b3e 085b fe39 85af 44bc
00000240: 5d44 f9bd 5836 c5bc 37a4 38bc f9e5 ee3d
00000250: 31cb a0bd 8f32 6e3e 0809 b2bd 0c2f c6bd
00000260: 7736 81bd 5714 823d 7c80 8b3d 56c4 6d3e
00000270: 7e9e 323d 0c0e b8bd aed6 dfbd dd75 fbbc
00000280: 3c88 c73d 2e48 5fbc 4d25 d43d 1c16 af3c
00000290: fcb8 53bd 8586 763d 59c3 9bbc 43ca babd
000002a0: 869e 283e 1bb5 85bd 1f0d d0bd 4732 053e
000002b0: 71e6 98bd ea08 f03d 773e 15bd e2c8 d53d
000002c0: ed2c 18bd 1e23 d1bd 6d6c 1a3e fa8a 033e
000002d0: fa9b 173e fb51 e13d 261b 46bc 30b1 52bc
000002e0: c248 f9bc 92f9 0d3e 03d0 f8bc 7b67 043d
000002f0: bb85 dfbd ab5e 883c fa04 09bc 0578 47bd
00000300: fabe 883d b713 103e 3f79 42be c140 dc3d
00000310: 00eb c9bc fadf 2fbc e058 c7bd 0c78 9b3d
00000320: 8275 93bd 791c e2bd b598 babd 1ce2 c0bd
00000330: 21a9 c63c bd0f f13d 169d 96bd 7f7a abbd
00000340: ee63 973d 8e7b c2bb a84f 94bd adc7 10bc
00000350: c386 d93b e5aa c5bc 9fda 613d 2d44 4cbd
00000360: 110e 993d a9bc 163d f66e 5c3d 6b44 d13d
00000370: d7a2 4dbd 4737 34bd 0226 5f3d 8e6c c4bd
00000380: 9479 a4bd 8cf4 24bd d5de a4bc 2e48 31be
00000390: a475 27be 6de1 ce3d 4939 bcbd 3788 64bd
000003a0: 1518 a4bd 87bd a13d 2f4c 563d 94af 7bbd
000003b0: 0f18 03bd 64fe 08bd e6ba fb3a 9cdc 9d3d
000003c0: 5e1d 10bd 11ae f1bd 756d a3bb e0a9 d8bd
000003d0: 88f2 cabd c16a 2d3d 042f 1c3e 3641 493d
000003e0: ac16 f1bb 0d5f 553d 2e73 ce3d 6529 ff3d
000003f0: 2db3 283d 544b f2bd 6d5b 68be ee8a 9f3c
0.06531066 0.17617491 0.074064724 0.10460227 -0.07827793 -0.0411087 -0.23374549 -0.10286276
-0.2479027 0.07450535 0.0036144305 0.01854799 0.09315216 -0.036459427 0.0027318664 -0.009652688
0.04297941 -0.110517696 0.010599429 -0.087275036 -0.06567324 0.012509492 0.09056424 -0.08148979
-0.19182228 -0.01938899 0.05049624 0.08427269 0.12549984 0.1543322 -0.09427395 -0.024998764
-0.0025534967 -0.11279018 0.20001243 0.11306277 -0.04047701 -0.14602342 0.12857208 0.011743939
-0.093714885 0.031530045 -0.110003434 -0.14192793 -0.02306178 0.017223518 0.0009687118 0.18719825
-0.0013591623 -0.02275724 -0.08016644 -0.1785787 0.07794022 -0.069837354 -0.048203204 -0.142642
0.08302062 0.0048887413 -0.17507435 -0.0141275255 -0.18768121 0.07090936 -0.10666528 -0.010785499
-0.13730629 0.056970455 0.10482839 -0.32738206 -0.17286052 -0.07243989 0.074702874 0.054064803
0.074780285 0.06013233 0.05465216 -0.11623638 -0.0755895 -0.008083539 0.0034089866 0.09896619
0.013332868 -0.06864156 -0.039781954 0.06387944 0.081485465 0.08155241 -0.075440995 0.03848664
-0.29413506 0.053379156 0.033602804 -0.099473745 0.085086174 0.08527372 0.15441136 -0.06766176
0.057948537 0.12600209 -0.08978536 -0.08128172 -0.12957452 -0.05113148 -0.26921803 -0.09739341
0.1319212 -0.032452136 0.09909803 0.016692018 -0.15491582 -0.0816276 0.03340697 -0.008011801
-0.08679138 -0.20940109 0.102891766 -0.18218558 0.05528742 0.114754096 0.098715924 -0.18666306
0.01441325 -0.12325033 0.06410234 -0.04201374 0.0052099368 0.10219407 -0.18739286 -0.036549374
-0.23977254 -0.24961714 0.091249816 -0.1285237 0.16766271 0.1173049 -0.18629898 -0.030770069
0.023229184 -0.1939759 -0.009948025 0.09931304 0.020865591 0.15229896 0.0004851448 -0.012004738
-0.121712424 -0.024073765 -0.011269621 0.116649576 -0.07851256 0.23261474 -0.08693129 -0.09676942
-0.063092165 0.06351536 0.06811616 0.23219427 0.04360818 -0.08987054 -0.10929619 -0.03069585
0.097427815 -0.013628049 0.10358677 0.021372847 -0.051690087 0.06018688 -0.019014047 -0.091206096
0.16466722 -0.06528684 -0.10158753 0.1300746 -0.07465828 0.1172045 -0.036436524 0.10438706
-0.03715222 -0.10211776 0.15080424 0.12845984 0.14805594 0.11001965 -0.012091434 -0.012859628
-0.030430201 0.13864735 -0.030372625 0.03232525 -0.10914179 0.016646704 -0.008363003 -0.048698444
0.06677051 0.1407002 -0.18991564 0.10754538 -0.02464819 -0.0107345525 -0.097337484 0.075912565
-0.07200147 -0.11040587 -0.09111158 -0.09418127 0.024250569 0.1177058 -0.073541805 -0.08372974
0.07392107 -0.005935139 -0.07241756 -0.008836669 0.0066383793 -0.02412934 0.055140134 -0.049869705
0.07473386 0.036801014 0.053816758 0.10218128 -0.050204124 -0.04399803 0.054479606 -0.09591018
-0.08031002 -0.04027228 -0.020125786 -0.1731269 -0.1635347 0.1010159 -0.09190614 -0.055793967
-0.08012406 0.078974776 0.052318748 -0.06144674 -0.032005366 -0.03344573 0.001920548 0.077080935
-0.035184257 -0.11800779 -0.0049874135 -0.10579276 -0.099095404 0.042338137 0.1525231 0.049134456
-0.007357439 0.0520926 0.100805625 0.12459067 0.0411865 -0.11830774 -0.22691126 0.019475427

final.bias f4 [12]
00000000: d43d b23c f1f6 c63d fcdd debd c41c dd3c
00000010: 8ce5 b2bd b72e cabb b621 71bd 7080 b9bd
00000020: e05b 513b 89d9 a7bc e8e1 253d 0a0a 243d
0.021757998 0.09715069 -0.10882184 0.026991256 -0.08735189 -0.0061701196 -0.05887004 -0.09057701
0.003194563 -0.020489471 0.040498644 0.040048636
