Superclass/models/superclass_base.pth (torch, 249192 bytes, 10 tensors)

conv1.weight f4 [6, 1, 5, 5]
0.3279972 0.26087794 0.14839199 -0.14361475 -0.27163294 0.10813108 0.22891207 0.04042014
-0.19409065 -0.30218503 0.29568613 0.11566089 0.11807342 -0.27880064 -0.099845536 0.27721784
-0.1618512 -0.22831222 -0.27854577 -0.2034079 0.01719272 0.08922271 -0.122349225 0.08108494
0.09060382 0.02346946 -0.23961802 0.07440435 0.18512522 0.256508 -0.32061335 -0.14889659
-0.121349186 -0.00048674725 0.18259671 -0.15554823 -0.01981895 -0.16736086 0.010851108 0.20463505
-0.19196163 -0.053136647 -0.13704966 0.2415006 0.0978125 0.00024094252 -0.028066821 0.030036762
0.24481837 -0.013447629 0.16898511 -0.105344296 -0.039741613 -0.16993879 -0.0017564062 -0.1732853
0.08232414 -0.06966503 0.20112328 0.20139948 0.19246802 -0.09663084 0.20001116 -0.040388085
0.102772005 -0.044105284 0.24388574 0.119941525 0.21280856 0.19486846 0.17059195 0.20708369
0.098175645 -0.03191654 0.17046729 -0.05589331 -0.009979943 0.06052009 0.27990484 0.29851472
-0.07638068 -0.16390477 0.13096935 0.10059009 -0.12440845 -0.11785623 -0.29672295 -0.20234257
-0.29361925 -0.23576717 -0.26560828 -0.2144664 -0.11274947 -0.34519836 -0.19483747 -0.050468132
-0.08167008 -0.1561573 -0.29783845 -0.11517118 -0.1028947 -0.368472 -0.34230503 -0.18860212
-0.21887106 0.06421276 -0.0347362 -0.018963048 -0.31422165 -0.22754888 0.023056448 0.021951903
0.02218085 0.11334575 -0.15199557 0.053807322 0.08409188 0.19762163 0.18396112 0.08713817
0.22288334 0.020805892 0.3492664 0.26339358 0.3287847 -0.23642315 0.060558897 0.041915935
0.117058605 0.163904 -0.21929592 -0.24980187 -0.2118617 -0.12815592 -0.28797165 -0.18473265
-0.43195507 -0.41695195 -0.3319506 -0.24558763 -0.029019924 -0.042449508 -0.30925417 -0.28057793
-0.118821025 0.09964416 0.15806933 -0.08330274 -0.1315558 -0.26943618
00000000: 40ef a73e cb91 853e 12f4 173e bf0f 13be
00000010: 7913 8bbe d473 dd3d ed67 6a3e 978f 253d
00000020: b3bf 46be ffb7 9abe 2c64 973e 9edf ec3d
00000030: 7ad0 f13d f5be 8ebe d17b ccbd 7fef 8d3e
00000040: 52bc 25be aeca 69be 8d9d 8ebe 294a 50be
00000050: bfd7 8c3c 65ba b63d 3b92 fabd dc0f a63d
00000060: 7f8e b93d 0643 c03c 6d5e 75be 4f61 983d
00000070: 7791 3d3e 0455 833e 6f27 a4be 5978 18be
00000080: ec85 f8bd 1c32 ffb9 a2fa 3a3e 0948 1fbe
00000090: 5a5b a2bc a560 2bbe d8c8 313c da8b 513e
000000a0: 9791 44be d0a5 59bd bf56 0cbe ef4b 773e
000000b0: ec51 c83d 84a5 7c39 64ec e5bc a80f f63c
000000c0: abb1 7a3e 7253 5cbc 6f0a 2d3e c0be d7bd
000000d0: 1ac8 22bd 6f04 2ebe 3637 e6ba b471 31be
000000e0: 8f99 a83d 8aac 8ebd 43f3 4d3e aa3b 4e3e
000000f0: 5616 453e 64e6 c5bd bacf 4c3e fa6d 25bd
00000100: 217a d23d bea7 34bd 2fbd 793e e7a3 f53d
00000110: 7dea 593e 998b 473e a8af 2e3e bf0d 543e
00000120: 5010 c93d ebba 02bd fa8e 2e3e 62f0 64bd
00000130: ea82 23bc eae3 773d b04f 8f3e ecd6 983e
00000140: 796d 9cbd a7d6 27be d41c 063e 2d02 ce3d
00000150: dcc9 febd 9b5e f1bd 12ec 97be e432 4fbe
00000160: 4355 96be f36c 71be cffd 87be 149d 5bbe
00000170: 32e9 e6bd d7bd b0be 7983 47be acb7 4ebd
00000180: a542 a7bd b3e7 1fbe 487e 98be dede ebbd
00000190: 75ba d2bd 5da8 bcbe 9b42 afbe ea20 41be
000001a0: bc1f 60be fb81 833d 8c47 0ebd 6558 9bbc
000001b0: a9e1 a0be 9302 69be e0e0 bc3c 7ad4 b33c
000001c0: 9db4 b53c d121 e83d baa4 1bbe 1165 5c3d
000001d0: 5d38 ac3d 535d 4a3e 4e60 3c3e 7f75 b23d
000001e0: 883b 643e 1e71 aa3c 0cd3 b23e 86db 863e
000001f0: 7856 a83e e918 72be 9b0c 783d 0bb0 2b3d
00000200: 6cbc ef3d 73d6 273e 1c8f 60be 10cc 7fbe
00000210: 46f2 58be 4e3b 03be 0571 93be 8e2a 3dbe
00000220: 3729 ddbe ba7a d5be 6ef5 a9be 537b 7bbe
00000230: 31bb edbc 89df 2dbd 9056 9ebe e9a7 8fbe
00000240: 7058 f3bd 3d12 cc3d eddc 213e a09a aabd
00000250: 90b6 06be 8af3 89be

conv1.bias f4 [6]
0.26085716 0.30618837 0.076861076 -0.07249933 0.2757809 -0.027869081
00000000: 128f 853e b9c4 9c3e 5769 9d3d 877a 94bd
00000010: 2733 8d3e b34d e4bc

conv2.weight f4 [16, 6, 5, 5]
0.09873909 -0.11022284 -0.27343866 -0.044283915 -0.007601527 0.13169283 -0.08767917 -0.1871945
-0.026314776 0.10368716 0.2204396 -0.042173613 -0.18830566 0.15899773 0.24523875 0.26243028
0.17063428 -0.090237044 -0.0032728643 -0.117672466 0.17497927 0.21007219 -0.042722736 -0.24388258
-0.22471693 -0.061489627 0.06340184 0.16489382 0.02281705 -0.08292209 -0.006102412 0.06222223
0.119804226 -0.044782765 -0.19269693 0.03388661 0.09860684 0.09948544 -0.095868416 -0.014016551
-0.084177144 0.05465864 0.12921259 0.13353403 0.1428104 -0.015895637 -0.119504035 0.0037635795
0.17894517 0.102845855 -0.052871056 0.07896287 0.10171141 0.13590056 0.04837619 -0.107318714
-0.0181431 0.098764665 0.082876906 0.1269199 -0.042725123 -0.14487553 -0.13889147 -0.08079686
-0.1134002 -0.1369475 -0.064324096 -0.10215492 -0.03503451 -0.11287912 0.024300598 -0.034260068
-0.026345095 0.08420598 0.017224865 0.06690331 -0.09929142 -0.105891995 -0.15567566 0.00051375246
0.0773325 0.039434638 0.05007014 -0.12664215 -0.12485919 0.14338665 0.099923894 0.1702824
0.09281134 0.018495075 -0.038644727 0.04528945 0.17684086 0.076036565 -0.058782168 -0.0054880683
-0.045149334 -0.0058093853 -0.0128424 -0.012010624 0.003680005 0.12315368 0.12783323 0.15452111
0.042852204 -0.1928849 -0.1309583 -0.0725659 0.13146031 0.023838999 -0.2134652 -0.2887056
-0.36091977 -0.33665693 -0.007983828 0.115378335 0.010073061 -0.07431738 -0.14027517 0.11091713
0.08364695 0.19955799 0.21874674 0.12256631 0.14342439 -0.07920952 -0.045682814 -0.0140454
-0.053787474 -0.10424425 0.10762372 -0.048627704 -0.12568775 -0.065701246 -0.1322305 0.0779367
0.13829844 0.09991863 -0.073318325 0.028742656 0.098923884 0.08150911 0.13093753 0.028758096
-0.057057235 0.032354716 0.0585494 0.057315703 0.06456444 -0.1553833 0.00918531 0.02443869
0.07132026 -0.09561388 -0.18634021 0.032340493 0.0761286 -0.058235034 -0.17196949 -0.22929622
0.074983016 -0.15261063 -0.16361943 -0.18261041 -0.113071725 -0.0631743 -0.11332702 -0.061839383
-0.011824721 0.06631819 0.041032515 -0.21486236 -0.15385309 -0.022474164 0.040480394 -0.06055711
-0.1003569 -0.054957803 0.14112091 0.018774295 -0.05416284 -0.042108104 -0.024047246 0.04644236
0.030005077 -0.03740841 -0.058393434 -0.039750464 -0.0008267928 0.027885193 -0.054647457 -0.013210544
0.073758654 0.019725578 -0.050293095 0.027024444 0.07185975 0.114375904 0.1676995 -0.0040811826
-0.022140505 -0.10294106 -0.0757432 0.023269553 -0.01413726 -0.043884348 -0.14298148 -0.06261893
0.08067129 0.013374139 -0.008718335 0.0338879 -0.037356474 -0.008052764 0.024288729 -0.06338001
-0.021282528 0.040019937 0.103767574 0.12351791 0.078950495 -0.043548726 -0.040072255 -0.023935309
0.13533758 0.06820617 0.028847354 0.1251469 -0.015400101 -0.0018799232 0.026402028 0.06529629
0.10555166 -0.012810688 0.097139575 0.098450616 0.02502754 -0.06785568 0.010928659 0.013640507
0.00945767 0.10322535 -0.07385632 -0.056265377 -0.04721791 0.0063357945 0.0820627 -0.009702673
-0.021292696 -0.11027871 -0.1888119 -0.062492326 -0.113170005 -0.03430658 -0.08112166 -0.110692345
00000000: b837 ca3d 83bc e1bd 2700 8cbe 0d63 35bd
00000010: 3b16 f9bb 7cda 063e 2391 b3bd eaaf 3fbe
00000020: 1692 d7bc ef59 d43d ebba 613e 3dbe 2cbd
00000030: 33d3 40be 4dd0 223e de1f 7b3e 435d 863e
00000040: c1ba 2e3e 33ce b8bd 8d7d 56bb 43fe f0bd
00000050: c42d 333e 2a1d 573e 09fe 2ebd 5bbc 79be
00000060: 321c 66be 8cdc 7bbd d3d8 813d edd9 283e
00000070: d2ea ba3c 0fd3 a9bd bef6 c7bb bddc 7e3d
00000080: eb5b f53d 226e 37bd 5852 45be b0cc 0a3d
00000090: 62f2 c93d 06bf cb3d a956 c4bd ada5 65bc
000000a0: 1165 acbd bde1 5f3d 4e50 043e 25bd 083e
000000b0: e43c 123e 9137 82bc 88be f4bd 63a6 763b
000000c0: 673d 373e d9a0 d23d 528f 58bd 49b7 a13d
000000d0: 124e d03d 8429 0b3e 1d26 463d eac9 dbbd
000000e0: d7a0 94bc 2145 ca3d 5ebb a93d 4af7 013e
000000f0: 8a00 2fbd 405a 14be 9139 0ebe d378 a5bd
00000100: 5d3e e8bd f73b 0cbe 5abc 83bd 9936 d1bd
00000110: 5980 0fbd 2b2d e7bd 0c12 c73c 4954 0cbd
00000120: abd1 d7bc 2f74 ac3d 291b 8d3c 9a04 893d
00000130: 4d59 cbbd e7dd d8bd 7169 1fbe 58ad 063a
00000140: 8060 9e3d 3786 213d 5916 4d3d 7bae 01be
00000150: 2db6 ffbd f3d3 123e e6a4 cc3d 825e 2e3e
00000160: df13 be3d fc82 973c ef49 1ebd 6e81 393d
00000170: c515 353e 0fb9 9b3d 92c5 70bd 41d5 b3bb
00000180: 82ee 38bd a85c bebb ee68 52bc 35c8 44bc
00000190: 3d2c 713b ff37 fc3d b7e6 023e c83a 1e3e
000001a0: cb85 2f3d 9f83 45be ef19 06be 6e9d 94bd
000001b0: 889d 063e 014a c33c 9f96 5abe 38d1 93be
000001c0: 7aca b8be 4c5e acbe 9ace 02bc 7a4b ec3d
000001d0: 7b09 253c b633 98bd 4ba4 0fbe 8528 e33d
000001e0: 184f ab3d ee58 4c3e 25ff 5f3e 0c04 fb3d
000001f0: d8dd 123e 9a38 a2bd e71d 3bbd ad1e 66bc
00000200: 4150 5cbd 027e d5bd d369 dc3d d82d 47bd
00000210: 4ab4 00be 608e 86bd 6f67 07be 479d 9f3d
00000220: 1b9e 0d3e 24a2 cc3d eb27 96bd b875 eb3c
00000230: 9b98 ca3d 40ee a63d 7d14 063e 1996 eb3c
00000240: d9b4 69bd 6186 043d 7fd1 6f3d dfc3 6a3d
00000250: 5c3a 843d cd1c 1fbe fc7d 163c a633 c83c
00000260: 5b10 923d 36d1 c3bd f8cf 3ebe 7777 043d
00000270: 50e9 9b3d dc87 6ebd c518 30be a1cc 6abe
00000280: b290 993d f645 1cbe da8b 27be 39fe 3abe
00000290: 2692 e7bd 8761 81bd ff17 e8bd 4b4b 7dbd
000002a0: 79bc 41bc d5d1 873d b611 283d e104 5cbe
000002b0: aa8b 1dbe bd1b b8bc c5ce 253d bb0a 78bd
000002c0: eb87 cdbd 6f1b 61bd 0082 103e 8dcc 993c
000002d0: dbd9 5dbd 8c79 2cbd bbfe c4bc 583a 3e3d
000002e0: 35cd f53c 9039 19bd f42d 6fbd 62d1 22bd
000002f0: 20bd 58ba 7d6f e43c 03d6 5fbd 0a71 58bc
00000300: c70e 973d 8997 a13c 2200 4ebd 5e62 dd3c
00000310: 342b 933d ea3d ea3d 6bb9 2b3e 71bb 85bb
00000320: 0160 b5bc c3d2 d2bd 401f 9bbd ca9f be3c
00000330: f79f 67bc 13c0 33bd bd69 12be 5b3e 80bd
00000340: fd36 a53d 341f 5b3c 59d7 0ebc 0ace 0a3d
00000350: 1a03 19bd beef 03bc 28f9 c63c 61cd 81bd
00000360: b258 aebc f2eb 233d 1884 d43d f5f6 fc3d
00000370: ccb0 a13d 2660 32bd ce22 24bd fb13 c4bc
00000380: ef95 0a3e adaf 8b3d 4951 ec3c 8226 003e
00000390: b550 7cbc c167 f6ba 1149 d83c 10ba 853d
000003a0: 782b d83d ebe3 51bc 1df1 c63d 7aa0 c93d
000003b0: 8e06 cd3c ebf7 8abd 1e0e 333c 6f7c 5f3c
000003c0: 58f4 1a3c d067 d33d fb41 97bd 8676 66bd
000003d0: 9167 41bd 7f9c cf3b 7d10 a83d f6f7 1ebc
000003e0: 056e aebc ced9 e1bd e857 41be f4f7 7fbd
000003f0: adc5 e7bd 0e85 0cbd 1d23 a6bd abb2 e2bd

conv2.bias f4 [16]
-0.093988374 -0.06933412 0.042375326 0.07600072 0.100118436 0.06196002 0.20347562 -0.03801137
0.023853432 0.04671719 0.17664813 0.012315217 0.051107854 0.08780587 0.09415334 0.03713808
00000000: fa7c c0bd 0cff 8dbd c091 2d3d 44a6 9b3d
00000010: e50a cd3d cac9 7d3d ea5b 503e cfb1 1bbd
00000020: 4668 c33c 865a 3f3d 3fe3 343e c4c5 493c
00000030: 7856 513d 90d3 b33d 77d3 c03d 191e 183d

dense1.weight f4 [120, 400]
-0.031937424 0.037676573 0.0030706038 -0.01877538 0.061638735 0.034257878 0.044600025 0.04240559
0.07828416 0.12556064 0.010322126 0.017824205 0.032637753 -0.008947078 -0.043034755 0.065675244
0.018982911 -0.06944842 -0.05105242 0.0009298525 0.027146997 -0.030624488 0.04447268 0.012556039
0.0073167053 0.06633065 -0.01831606 0.02809287 -0.07998053 -0.063028246 -0.00084805576 -0.027691077
-0.0020631703 -0.0054995837 -0.09619506 0.0073261987 0.037019327 -0.059135776 -0.025701039 0.061113548
0.017644776 -0.06544289 0.063087896 0.0074222763 -0.010763422 -0.02624403 -0.054917328 0.020556869
-0.06915834 0.05686039 -0.0032781013 -0.016629953 0.013741702 -0.08553623 -0.036400963 0.040727083
0.013055467 0.0035524243 -0.03934235 -0.061377857 0.049537133 0.0014981993 -0.008209138 -0.04786781
0.024843534 -0.0040336666 0.05230441 0.012846966 0.030543266 0.025373172 0.028955039 -0.00052990456
-0.019234857 -0.010068797 0.01836357 -0.025638336 0.0085380655 0.039598312 -0.023426894 -0.05037564
-0.07477265 -0.007730586 -0.033018306 -0.101420976 0.015215949 0.075620055 -0.02128101 0.0008579476
0.013813806 0.13420713 0.08796997 0.006130422 0.0213014 0.05335997 0.009430453 -0.06658114
-0.0033905243 -0.09545416 0.046317313 0.11897468 -0.09961134 -0.039115626 -0.01208218 0.0004854281
-0.07935727 -0.022960238 0.010081958 -0.036734916 0.020936145 0.098810256 0.02973618 0.02707161
0.05746923 -0.0046708407 -0.04825789 0.050773293 -0.00050192524 0.12220516 0.05407585 0.024352027
0.018908411 0.0168267 0.06423174 0.06457808 0.053874064 0.020006193 -0.012161164 0.033734754
0.01879488 -0.033875305 0.08537061 0.06537253 -0.023619805 0.08517286 0.07565264 -0.019342197
-0.0014888062 0.010929068 -0.017179135 0.02876312 0.06989252 -0.12033346 -0.12288254 0.033985548
0.00015135511 -0.011672495 -0.035461646 0.02776872 0.018984422 0.008978435 -0.013323521 0.08155474
0.0092290295 -0.04961472 -0.014754927 -0.04577299 0.04204164 0.013012942 -0.069506824 0.04022684
-0.0034311675 0.009246618 0.0044274 -0.06765936 0.0019374983 -0.06711373 0.13419418 -0.04055954
-0.032623325 0.08711743 0.030393047 0.02771515 0.023901599 -0.059501123 -0.028474491 -0.038234234
0.011513471 -0.073804796 0.011144758 0.08011833 -0.06112123 0.040647287 -0.029532671 0.044526823
0.030310083 0.11771493 -0.10138051 0.08263293 -0.07394606 -0.024037503 0.013432242 -0.031889874
-0.10536674 0.012813333 0.013108028 -0.008598678 0.02832358 -0.048501093 -0.05065428 0.0135218585
-0.06526242 -0.022474438 0.039652746 0.06690432 -0.040481243 -0.0054796636 0.049932893 -0.06954592
0.14634867 0.08171347 0.07232161 0.021365754 0.13055903 -0.028082257 -0.04955162 0.057635177
-0.03025134 -0.11602465 0.01989859 -0.027687104 0.026604725 -0.09546767 -0.103597336 0.08195748
0.047599554 0.029342078 0.025969539 0.059772484 -0.026221517 0.0794293 0.016155187 0.062054444
0.034986272 0.032928374 -0.030601207 -0.04846281 -0.019676527 -0.112328194 0.054287035 0.035703793
-0.019803207 0.051740047 -0.07137487 -0.08365613 -0.035969716 0.05186705 -0.010614485 -0.03909937
0.008376438 -0.07052368 -0.08200786 0.015866786 -0.021216879 -0.021257248 0.01829715 0.044511214
00000000: d1d0 02bd c052 1a3d 2f3c 493b d3ce 99bc
00000010: e678 7c3d fd51 0c3d 84ae 363d 7cb1 2d3d
00000020: 7253 a03d f892 003e 221e 293c 1104 923c
00000030: 2aaf 053d c496 12bc 3645 30bd be80 863d
00000040: 0d82 9b3c f93a 8ebd 581c 51bd 58c1 733a
00000050: 6163 de3c 35e0 fabc fc28 363d d8b7 4d3c
00000060: f9c0 ef3b 5dd8 873d 900b 96bc 0523 e63c
00000070: d5cc a3bd f414 81bd 0f50 5eba 66d8 e2bc
00000080: 4136 07bb da35 b4bb ea01 c5bd 9c10 f03b
00000090: 94a1 173d 5b38 72bd fc8a d2bc 3352 7a3d
000000a0: c78b 903c ec06 86bd 3a34 813d 9136 f33b
000000b0: 1059 30bc b8fd d6bc fef0 60bd e166 a83c
000000c0: e3a2 8dbd 71e6 683d 6ad5 56bb 8a3b 88bc
000000d0: e024 613c 9e2d afbd 2d19 15bd 71d1 263d
000000e0: 99e6 553c cacf 683b 7225 21bd 5967 7bbd
000000f0: 73e7 4a3d 3a5f c43a 9f7f 06bc 0911 44bd
00000100: ab84 cb3c d92c 84bb 263d 563d 157c 523c
00000110: df35 fa3c 66db cf3c 1e33 ed3c 4be9 0aba
00000120: 6b92 9dbc 98f7 24bc 336f 963c 7d07 d2bc
00000130: 3ee3 0b3c d731 223d c2e9 bfbc b056 4ebd
00000140: 6722 99bd db50 fdbb 343e 07bd cdb5 cfbd
00000150: 514c 793c b0de 9a3d 8355 aebc e4e7 603a
00000160: 4d53 623c 986d 093e 9a29 b43d b5e1 c83b
00000170: 4680 ae3c fc8f 5a3d 3082 1a3c b15b 88bd
00000180: 8f33 5ebb 787d c3bd 39b7 3d3d ffa8 f33d
00000190: 0801 ccbd b537 20bd 56f4 45bc 0f81 fe39
000001a0: 1086 a2bd 1c17 bcbc cc2e 253c 5a77 16bd
000001b0: 4782 ab3c 085d ca3d 4a99 f33c 48c5 dd3c
000001c0: db64 6b3d da0d 99bb 11aa 45bd a8f7 4f3d
000001d0: a293 03ba b346 fa3d a37e 5d3d e77d c73c
000001e0: d0e5 9a3c 26d8 893c ee8b 833d 8341 843d
000001f0: 0dab 5c3d 07e4 a33c 9e3f 47bc 742d 0a3d
00000200: b8f7 993c d5c0 0abd c9d6 ae3d 08e2 853d
00000210: 527e c1bc 1c6f ae3d c5ef 9a3d 8773 9ebc
00000220: 0c24 c3ba d50f 333c 42bb 8cbc a2a0 eb3c
00000230: cf23 8f3d 6471 f6bd d7a9 fbbd 6e34 0b3d
00000240: 14b5 1e39 fe3d 3fbc 3b40 11bd 3a7b e33c
00000250: 3885 9b3c 491a 133c e64a 5abc 2c06 a73d
00000260: 5b35 173c ce38 4bbd a6be 71bc 757c 3bbd
00000270: db33 2c3d 3c34 553c 9859 8ebd e6c4 243d
00000280: 70dd 60bb 207f 173c b913 913b fe90 8abd
00000290: a8f3 fd3a ec72 89bd 336a 093e c321 26bd
000002a0: 09a0 05bd a06a b23d d7fa f83c e20a e33c
000002b0: 49cd c33c 73b7 73bd 5643 e9bc 809b 1cbd
000002c0: ffa2 3c3c f826 97bd 8198 363c 1415 a43d
000002d0: 415a 7abd c57d 263d 80ee f1bc c261 363d
000002e0: da4c f83c 8614 f13d 96a0 cfbd 743b a93d
000002f0: 0871 97bd 4cea c4bc e812 5c3c f59e 02bd
00000300: 84ca d7bd 04ef 513c 0ec3 563c 78e1 0cbc
00000310: da06 e83c 15a9 46bd dd7a 4fbd c98a 5d3c
00000320: 4ea8 85bd 501c b8bc eb6a 223d 2205 893d
00000330: a9cf 25bd c08e b3bb 6f86 4c3d 176e 8ebd
00000340: 6ddc 153e 6459 a73d 5a1d 943d 3c07 af3c
00000350: 44b1 053e c30c e6bc a4f6 4abd dd12 6c3d
00000360: a8d1 f7bc 559e edbd 5e02 a33c 11d0 e2bc
00000370: 27f2 d93c 8e84 c3bd d72a d4bd 53d9 a73d
00000380: c0f7 423d cc5e f03c 12be d43c fed3 743d
00000390: 82ce d6bc d4ab a23d e257 843c cd2c 7e3d
000003a0: c44d 0f3d e7df 063d 62af fabc f180 46bd
000003b0: ab30 a1bc 530c e6bd 155c 5e3d 243e 123d
000003c0: 563a a2bc 5fed 533d fd2c 92bd e853 abbd
000003d0: fb54 13bd 8b72 543d 60e8 2dbc a926 20bd
000003e0: 543d 093c b86e 90bd bdf3 a7bd 10fb 813c
000003f0: 05cf adbc ae23 aebc e8e3 953c 6451 363d

dense1.bias f4 [120]
0.014668636 -0.04692595 -0.04012856 -0.054653786 -0.05661409 0.06910767 0.036054626 -0.041128673
-0.060091965 0.10075351 -0.017492011 -0.029467644 0.096727125 -0.102869734 -0.0150858 -0.0027412698
0.065065235 0.06692653 0.05768692 0.0015184596 0.0862119 -0.06345902 -0.030162979 -0.015881164
0.003465199 0.12903132 -0.005022152 0.07345681 -0.0039655603 -0.03438403 0.012331384 -0.042637683
0.01442973 0.16363513 -0.06428361 -0.0038825537 0.12468569 0.102562785 0.015141819 0.046568166
0.0059449696 -0.056855273 -0.04774157 -0.008202864 0.10252119 -0.011690068 0.012827076 0.012505715
0.03526457 0.0029890873 -0.009898632 0.084318765 -0.0742291 -0.025153814 0.023980383 0.01571632
0.12438694 0.036842555 0.08043069 -0.017431982 0.12201081 0.034282837 0.12639233 -0.05160901
-0.003923021 0.10437315 0.03275725 -0.08466297 0.098810084 -0.043951813 0.034033373 0.02987586
-0.0016530015 -0.0017514126 0.0086187 -0.013408596 0.08514941 0.056348823 -0.057231072 0.08674997
0.106584065 0.09763816 0.0030824752 0.014041534 -0.027705098 0.14526634 0.0513271 0.020755377
0.027618647 0.013861056 -0.021576758 0.03249334 -0.05470733 0.08677568 -0.053886186 0.018389383
-0.04427873 -0.032092478 0.078952946 0.06623479 -0.049013417 0.0020154724 -0.003076278 -0.054115586
0.015426214 -0.06987231 -0.05383619 -0.051188394 -0.022919644 -0.0004939086 0.026217053 0.07107687
0.011019453 0.014777833 -0.050262667 0.023425564 0.09825373 0.076160684 0.05854095 0.06499509
00000000: b854 703c 6d35 40bd d85d 24bd a6dc 5fbd
00000010: 2de4 67bd 5288 8d3d 04ae 133d 8a76 28bd
00000020: fe22 76bd db57 ce3d 684b 8fbc 2166 f1bc
00000030: df18 c63d 5ead d2bd 6e2a 77bc e0a6 33bb
00000040: ec40 853d c710 893d 1f49 6c3d 0d07 c73a
00000050: dd8f b03d cdf6 81bd 5a18 f7bc 3719 82bc
00000060: 6418 633b c920 043e dd90 a4bb 8670 963d
00000070: 88f1 81bb 45d6 0cbd 9309 4a3c daa4 2ebd
00000080: ad6a 6c3c f88f 273e 20a7 83bd 7172 7ebb
00000090: 365b ff3d 700c d23d 6415 783c 43be 3e3d
000000a0: 05ce c23b 13e1 68bd aa8c 43bd 4e65 06bc
000000b0: a1f6 d13d b387 3fbc a828 523c c5e4 4c3c
000000c0: 9571 103d 90e4 433b df2d 22bc 51af ac3d
000000d0: 6d05 98bd 5f0f cebc 8272 c43c 83bf 803c
000000e0: 94be fe3d 38e8 163d d8b8 a43d 84cd 8ebc
000000f0: cee0 f93d 296c 0c3d fe6c 013e f863 53bd
00000100: af8c 80bb 97c1 d53d 772c 063d c763 adbd
00000110: f15c ca3d d106 34bd 9466 0b3d 38be f43c
00000120: 87a9 d8ba a88f e5ba 7335 0d3c baaf 5bbc
00000130: d062 ae3d 06ce 663d 216b 6abd f8a9 b13d
00000140: bf48 da3d 84f6 c73d 5a03 4a3b 760e 663c
00000150: cdf5 e2bc b3c0 143e 5d3c 523d 2e07 aa3c
00000160: 8040 e23c 7c19 633c bec1 b0bc bd17 053d
00000170: cb14 60bd 73b7 b13d c3b7 5cbd 55a5 963c
00000180: 9d5d 35bd 6773 03bd 15b2 a13d 1ba6 873d
00000190: 4bc2 48bd 0416 043b 619b 49bb 4ea8 5dbd
000001a0: 3bbe 7c3c 3719 8fbd 5683 5cbd ecaa 51bd
000001b0: fac1 bbbc a579 01ba 25c5 d63c c090 913d
000001c0: f08a 343c b91e 723c 3ae0 4dbd f8e6 bf3c
000001d0: 4039 c93d 22fa 9b3d a3c8 6f3d 251c 853d

dense2.weight f4 [80, 120]
-0.022996442 -0.081935294 0.050309934 -0.0087897675 0.11556767 -0.12980124 -0.08781081 0.020273041
-0.034528676 -0.059752412 0.009727604 -0.02770596 0.103758916 0.03655214 0.1070606 0.13258277
-0.029972889 0.10318301 -0.033143938 -0.07732161 -0.08223332 -0.06364273 -0.049059257 0.07110168
-0.037034128 -0.029193508 0.09353961 0.06324835 -0.037048366 -0.058623206 0.05321375 0.08198909
0.15441264 0.03454605 0.038306482 0.10636949 -0.062512256 0.025400674 0.05886699 0.019314041
0.07235246 -0.006717317 -0.03603698 0.1414425 0.117154 0.089789346 0.02910128 0.10065842
0.06338645 0.021750048 0.039234787 0.12992936 0.062349286 0.043536775 0.06810191 0.17058866
0.051660217 -0.14227955 0.097680114 -0.029968407 -0.063650735 0.039134856 0.026912536 0.03985482
-0.052663513 0.13653186 0.1957048 -0.06823234 0.0125929 0.07470848 0.047581803 0.050369415
0.004586565 -0.0051272265 -0.052912094 -0.009122385 0.038086645 -0.044676274 0.0119258305 0.13440521
-0.016003001 -0.04868691 0.03508474 0.026827335 0.06866179 -0.025044745 0.16506892 0.1406082
0.05444067 0.0025837445 -0.05726183 0.061333034 -0.014523524 -0.10940424 0.07188406 -0.0861819
0.04181486 -0.028123733 -0.040481657 -0.04626789 -0.03668758 -0.037677325 -0.050579276 -0.04296163
0.10683281 0.0011610118 0.09865707 -0.017827623 -0.04465893 -0.055099756 -0.05543519 -0.14606684
-0.1344214 0.10886929 -0.078243285 -0.020937108 0.08574841 0.12729062 0.01854702 0.082744226
-0.08373906 -0.032317854 0.254998 -0.04594538 0.04745853 -0.037424225 -0.087468214 0.030860854
-0.09935904 0.10028768 0.09054407 -0.03125954 0.050879832 0.04922743 0.041960727 0.107349336
-0.13220295 -0.016048444 0.053824533 0.009643531 -0.0054319133 -0.14419766 -0.017553523 0.14646304
-0.059083972 -0.0011254878 0.012012352 0.1569029 -0.051492017 -0.038234584 0.06815467 -0.026163276
0.07188031 0.044851366 0.03706254 0.08802577 -0.09525438 0.085805066 0.12885964 -0.015441341
0.014219523 -0.058300585 -0.06052973 -0.05029102 -0.05946827 0.04946229 -0.07795916 0.13230121
0.22352041 -0.022993512 0.012817173 0.10394914 0.055709478 0.07383549 -0.037532892 0.122791804
0.022025563 0.07812043 0.15870129 -0.19076592 0.06678107 0.052677765 0.11774538 -0.002641355
-0.053626705 0.10036485 -0.00016788972 -0.08334329 -0.009078686 0.052803475 0.02784969 0.0564271
-0.101086855 0.033541717 -0.03880481 -0.08214917 0.013616106 -0.054877378 0.10263177 0.11340752
-0.12926875 0.054874703 -0.052674975 0.014931039 0.077757694 0.108801514 0.19467868 0.15068655
0.17377037 0.06719944 0.08070938 0.12528099 0.01889363 -0.0027492857 -0.004345109 0.026467241
-0.060296167 0.03263678 0.09678831 0.120355 0.05225478 -0.06786877 0.041082803 -0.011665726
0.15761223 0.08424007 -0.019776478 0.07997314 3.980343e-05 -0.025522305 -0.06942621 -0.011435289
-0.16319759 -0.11080288 0.033298578 0.0034067705 0.109276414 0.028711721 0.15111956 0.062146697
0.012868359 -0.03948273 0.07405583 -0.004784259 -0.08670831 -0.014416167 -0.063875474 0.035470475
-0.088315345 0.06248742 0.01836729 -0.049523424 -0.078694016 0.009459987 0.019265372 -0.09937811
00000000: 0963 bcbc b1cd a7bd ca11 4e3d f502 10bc
00000010: beae ec3d 9eea 04be 27d6 b3bd a613 a63c
00000020: f16d 0dbd f2be 74bd 8760 1f3c 9cf7 e2bc
00000030: 8e7f d43d b2b7 153d 9642 db3d c7c3 073e
00000040: b489 f5bc 9d51 d33d f0c1 07bd cb5a 9ebd
00000050: f169 a8bd 1f57 82bd 5cf2 48bd c29d 913d
00000060: 19b1 17bd 3927 efbc b291 bf3d 5a88 813d
00000070: 07c0 17bd e31e 70bd a9f6 593d e5e9 a73d
00000080: 591e 1e3e 2980 0d3d 42e7 1c3d 3fd8 d93d
00000090: 6d06 80bd 1315 d03c 831e 713d 7b38 9e3c
000000a0: 872d 943d f01c dcbb 839b 13bd 4dd6 103e
000000b0: 70ee ef3d 7ae3 b73d cf65 ee3c 0026 ce3d
000000c0: c1d0 813d 282d b23c a8b4 203d 340c 053e
000000d0: f761 7f3d 9e53 323d 0479 8b3d cbae 2e3e
000000e0: aa99 533d bbb1 11be 830c c83d 4e80 f5bc
000000f0: 515b 82bd df4b 203d ae77 dc3c cf3e 233d
00000100: b2b5 57bd 02cf 0b3e d766 483e 66bd 8bbd
00000110: 7352 4e3c c200 993d 23e5 423d 2950 4e3d
00000120: e54a 963b 4b02 a8bb 5aba 58bd 0e76 15bc
00000130: be00 1c3d 78fe 36bd 8f64 433c 85a1 093e
00000140: ba18 83bc ed6b 47bd 04b5 0f3d 00c5 db3c
00000150: 8d9e 8c3d a32a cdbc d407 293e 99fb 0f3e
00000160: 2efd 5e3d 0a54 293b 618b 6abd 5938 7b3d
00000170: 13f4 6dbc 550f e0bd f337 933d 2380 b0bd
00000180: 0f46 2b3d be63 e6bc 18d0 25bd 6683 3dbd
00000190: b745 16bd 8a53 1abd 372c 4fbd 89f8 2fbd
000001a0: 29cb da3d 172d 983a b80c ca3d 3c0b 92bc
000001b0: 48ec 36bd 48b0 61bd 0310 63bd 8c92 15be
000001c0: c3a5 09be ddf6 de3d 043e a0bd 4c84 abbc
000001d0: dd9c af3d 7958 023e ecef 973c ce75 a93d
000001e0: 627f abbd ba5f 04bd 198f 823e 3931 3cbd
000001f0: e063 423d 254a 19bd 8922 b3bd e7cf fc3c
00000200: c17c cbbd a163 cd3d 2b6f b93d 010a 00bd
00000210: 5f67 503d b4a2 493d 03df 2b3d f8d9 db3d
00000220: 3660 07be 0778 83bc 1d77 5c3d e7ff 1d3c
00000230: 31fe b1bb 8da8 13be 68cc 8fbc 68fa 153e
00000240: 0902 72bd 1b85 93ba 75cf 443c 27ab 203e
00000250: 4be9 52bd de9b 1cbd ad94 8b3d 5e54 d6bc
00000260: fc35 933d 11b6 373d e4ce 173d db46 b43d
00000270: ba14 c3bd 91ba af3d c8f3 033e aefd 7cbc
00000280: 01f9 683c 98cc 6ebd 06ee 77bd f5fd 4dbd
00000290: 0095 73bd f898 4a3d 0da9 9fbd f879 073e
000002a0: 89e2 643e e45c bcbc 1fff 513c 49e3 d43d
000002b0: 9f2f 643d 1037 973d 17bc 19bd 457a fb3d
000002c0: f46e b43c 9bfd 9f3d 9782 223e 2458 43be
000002d0: 83c4 883d a4c4 573d 7d24 f13d 951a 2dbb
000002e0: ada7 5bbd 168c cd3d 8e0b 30b9 e3af aabd
000002f0: c5be 14bc 7548 583d 0825 e43c 1a20 673d
00000300: a006 cfbd 0a63 093d cbf1 1ebd d33d a8bd
00000310: 1616 5f3c 1ac7 60bd 9b30 d23d 3442 e83d
00000320: 075f 04be 4cc4 603d b7c1 57bd 51a1 743c
00000330: 6d3f 9f3d 54d3 de3d d959 473e 934d 1a3e
00000340: dcf0 313e dc9f 893d f64a a53d a949 003e
00000350: d0c6 9a3c 5c2d 34bb 6b61 8ebb d4d1 d83c
00000360: 1df9 76bd 25ae 053d f338 c63d af7c f63d
00000370: 1c09 563d c8fe 8abd 7146 283d 9a21 3fbc
00000380: 1a65 213e 0f86 ac3d 4802 a2bc f5c8 a33d
00000390: 9cf2 2638 2714 d1bc 542f 8ebd 145b 3bbc
000003a0: 451d 27be 9fec e2bd 1764 083d 2044 5f3b
000003b0: 50cc df3d d834 eb3c 16bf 1a3e 898d 7e3d
000003c0: cfd5 523c a5b8 21bd 95aa 973d 46c5 9cbb
000003d0: 2094 b1bd c931 6cbc 25d1 82bd 7d49 113d
000003e0: adde b4bd cff2 7f3d 0077 963c 13d9 4abd
000003f0: 542a a1bd 10fe 1a3c 6ad2 9d3c c086 cbbd

dense2.bias f4 [80]
0.11648457 -0.032187127 -0.082399845 -0.009845702 0.05333463 0.041458428 -0.094473734 -0.044996116
-0.009325058 0.056277003 0.0030727487 0.02428999 -0.04251639 0.11954177 0.0710503 0.05258854
0.017698847 0.007021698 -0.09724889 -0.03338908 0.053991392 0.100870095 0.13481791 0.038100265
0.009941023 -0.07485116 -0.066422746 0.053080376 -0.04741961 0.09341645 -0.060553115 -0.009261194
-0.044495326 -0.038547315 0.0625865 0.14926402 0.101359524 0.044373114 -0.09842133 0.03928756
-0.037051745 0.04823057 0.0623416 0.0066560046 0.09143353 0.06322542 0.10871024 0.08825419
0.005773242 0.07537828 -0.013939591 0.11442283 -0.11977301 -0.11093027 -0.0039951825 0.025150297
-0.09411464 -0.10545154 0.032855738 -0.016983354 0.058663607 0.13183898 -0.045611866 -0.07426664
0.09293282 0.04525591 -0.08182117 -0.03247855 0.1258427 -0.09299454 0.11390716 0.072613336
0.011483621 0.12265015 0.017968783 0.03233514 -0.00012964035 0.051635727 -0.08344771 0.016429067
00000000: 768f ee3d a6d6 03bd 40c1 a8bd de4f 21bc
00000010: 6a75 5a3d 50d0 293d 727b c1bd d94d 38bd
00000020: 21c8 18bc b782 663d 2b60 493b cdfb c63c
00000030: ab25 2ebd 51d2 f43d d282 913d 1567 573d
00000040: 2cfd 903c 4616 e63b 6d2a c7bd fdc2 08bd
00000050: 1426 5d3d fb94 ce3d b50d 0a3e 060f 1c3d
00000060: acdf 223c 914b 99bd a608 88bd cf6a 593d
00000070: 113b 42bd 2051 bf3d 8b06 78bd 43bc 17bc
00000080: bb40 36bd cae3 1dbd 5a2d 803d abd8 183e
00000090: 9595 cf3d 95c0 353d 1f91 c9bd feeb 203d
000000a0: 92c3 17bd 6b8d 453d e859 7f3d 9d1a da3b
000000b0: 8141 bb3d 547c 813d 79a3 de3d 9dbe b43d
000000c0: 772d bd3b ed5f 9a3d e262 64bc 8456 ea3d
000000d0: 8d4b f5bd 692f e3bd 05ea 82bb ff07 ce3c
000000e0: 2dbf c0bd faf6 d7bd bd93 063d ad20 8bbc
000000f0: 4049 703d cc00 073e 82d3 3abd 1c19 98bd
00000100: 9053 be3d 435e 393d dc91 a7bd 3a08 05bd
00000110: e9dc 003e ec73 bebd 2848 e93d 4db6 943d
00000120: cc25 3c3c 0030 fb3d 4533 933c da71 043d
00000130: 11f0 07b9 fc7f 533d a2e6 aabd 4096 863c

final.weight f4 [12, 80]
0.06818397 0.17452472 0.101130635 0.10277846 -0.07970454 -0.032305177 -0.037322886 0.07930796
-0.19298619 0.073056184 -0.010635514 0.03970886 0.15809824 -0.026149066 -0.15505038 0.009436043
0.09991565 0.017484695 -0.10939487 -0.13259451 -0.06853759 -0.0030545897 0.06695937 -0.16961785
-0.16297852 0.004690267 0.068305686 0.08335237 -0.24808195 0.17786159 -0.05302787 0.010569567
-0.012864663 -0.14663407 0.09873005 0.08882545 -0.0049975114 0.029370513 0.13246189 0.058286075
-0.093714885 -0.012615584 -0.19447805 -0.088564016 0.058982387 0.027821302 -0.035883807 0.19381744
-0.0734093 -0.047716703 -0.17282815 -0.23061381 0.23350877 -0.07525295 0.06226666 -0.4188662
0.010801943 -0.076842114 -0.19570479 -0.12407541 -0.2622213 0.08171909 -0.09988695 0.10913243
-0.18449906 0.026754592 0.09572395 -0.23864098 -0.24988136 -0.03483654 0.10582424 -0.00883851
0.13216452 0.10720109 0.0559959 -0.08478251 -0.064354144 -0.009330258 0.045660708 0.10028445
-0.021161152 -0.1360374 0.02824973 0.066464305 0.07986235 0.08108804 -0.06015827 0.15219046
-0.2988822 0.05182711 0.046612103 -0.17930557 0.1305842 0.096321404 0.14109397 -0.070366815
0.10829646 0.048002966 -0.12774198 -0.17162205 -0.08235893 -0.098649785 -0.25548443 -0.1950135
0.12250343 -0.20542127 0.12447184 0.015801767 0.11288552 -0.073604636 0.08882039 0.09716079
-0.07098054 -0.2942443 0.0030473869 -0.18373062 -0.0012556851 0.15369388 0.07594069 -0.18933447
0.01441325 -0.12602285 0.07377574 -0.13754494 0.06344396 0.1083934 -0.24671179 -0.1045382
-0.28668934 -0.18932857 0.00228154 -0.14758767 -0.09976154 0.013169618 -0.119142056 -0.12136102
0.008316619 -0.033973027 -0.013268497 -0.06785123 0.03009103 0.1940884 0.008902893 0.06862102
-0.14089563 0.0036266416 0.049752228 0.14342448 -0.10310773 0.056477945 -0.08725743 -0.1878531
0.008930636 0.08396779 0.06695438 0.22081253 0.07318414 -0.08905599 -0.0922117 -0.034539044
0.1002525 -0.0074279923 0.051762342 0.0032633739 -0.051087767 0.060292736 -0.07824553 -0.3338216
0.13823137 -0.06407976 -0.08092089 0.12779097 -0.09613092 0.12435871 -0.0044045695 0.11361279
-0.0045864554 -0.05084746 0.11850645 0.16019677 0.119241476 0.096605994 -0.016631106 -0.026437273
-0.019615978 0.1834692 -0.003955272 0.032122344 -0.036831032 -0.0149524985 0.0015407483 -0.08221518
0.07469067 0.12880477 -0.08314935 0.12216865 -0.026157454 0.077224575 -0.14673889 0.066717245
-0.07200164 -0.10704263 -0.07186304 -0.1107186 0.03174047 0.10905467 -0.06838834 -0.052522425
0.08166589 -0.01351932 -0.07840592 0.0011059226 0.12046509 -0.076173626 0.049340896 -0.03286759
0.07454163 -0.053043853 0.038399637 0.17585252 -0.035141323 -0.011571693 0.04430698 -0.116025575
-0.100344606 -0.020992853 -0.06103608 -0.1306756 -0.16600792 0.09118708 -0.19549976 -0.042938035
-0.21545035 0.08090168 0.054230567 0.1567975 -0.0470637 -0.030728765 -0.032849148 0.06263675
-0.030203559 -0.14634793 -0.020712603 -0.08482835 -0.091273695 0.045296643 0.10375051 -0.19558278
0.006684553 0.05527579 0.086448215 0.12613986 0.025045224 -0.13327077 -0.20143564 0.032190442
00000000: 0aa4 8b3d 9cb6 323e 941d cf3d 837d d23d
00000010: 223c a3bd 6f52 04bd e2df 18bd 366c a23d
00000020: 2c9e 45be 7b9e 953d 9440 2ebc c2a5 223d
00000030: 81e4 213e 9136 d6bc 87c5 1ebe a299 1a3c
00000040: 94a0 cc3d 103c 8f3c 6b0a e0bd dbc6 07be
00000050: 705d 8cbd 832f 48bb ff21 893d 4db0 2dbe
00000060: d7e3 26be d0b0 993b dae3 8b3d a6b4 aa3d
00000070: 3209 7ebe 5921 363e c033 59bd fa2b 2d3c
00000080: 4fc6 52bc 3e27 16be fb32 ca3d 1eea b53d
00000090: 2ac2 a3bb 6e9a f03c 17a4 073e 61bd 6e3d
000000a0: 97ed bfbd 98b1 4ebc 4125 47be 0d61 b5bd
000000b0: 8497 713d 80e9 e33c e6fa 12bd 1478 463e
000000c0: 9d57 96bd 9772 43bd ddf9 30be 0726 6cbe
000000d0: ec1c 6f3e 381e 9abd 530b 7f3d a175 d6be
000000e0: a2fa 303c 665f 9dbd d666 48be 401b febd
000000f0: df41 86be 575c a73d 8791 ccbd d380 df3d
00000100: 52ed 3cbe 722c db3c eb0a c43d 4d5e 74be
00000110: e6e0 7fbe c3b0 0ebd 61ba d83d 66cf 10bc
00000120: 2356 073e 3f8c db3d f55b 653d 74a2 adbd
00000130: 1bcc 83bd f0dd 18bc b906 3b3d ef61 cd3d
00000140: 275a adbc 634d 0bbe fa6b e73c 701e 883d
00000150: df8e a33d 7c11 a63d 8568 76bd d1d7 1b3e
00000160: 1607 99be aa48 543d 55ec 3e3d e19b 37be
00000170: ddb7 053e 2844 c53d f07a 103e 7a1c 90bd
00000180: 89ca dd3d c29e 443d cbce 02be b1bd 2fbe
00000190: ccab a8bd e608 cabd dbce 82be 9eb1 47be
000001a0: 14e3 fa3d f459 52be 18eb fe3d b572 813c
000001b0: 8630 e73d 07be 96bd 77e7 b53d 3cfc c63d
000001c0: 3f5e 91bd 30a7 96be abb6 473b e123 3cbe
000001d0: cd95 a4ba ee61 1d3e cb86 9b3d e5e0 41be
000001e0: 8d25 6c3c 220c 01be bc17 973d 95d8 0cbe
000001f0: e8ee 813d 5cfd dd3d 04a2 7cbe 2018 d6bd
00000200: f2c8 92be 59df 41be e485 153b 3921 17be
00000210: c74f ccbd 62c5 573c c000 f4bd 208c f8bd
00000220: 6e42 083c 4d27 0bbd 1c64 59bc 96f5 8abd
00000230: 7781 f63c 1cbf 463e 71dd 113c 2d89 8c3d
00000240: f246 10be f3ac 6d3b fec8 4b3d dedd 123e
00000250: 252a d3bd 6b55 673d 06b4 b2bd 905c 40be
00000260: cd51 123c 4ef7 ab3d 611f 893d ae1c 623e
00000270: 91e1 953d fd62 b6bd 7dd9 bcbd d078 0dbd
00000280: 2f51 cd3d 8466 f3bb c004 543d 54de 553b
00000290: 6841 51bd 84f5 763d 313f a0bd aaea aabe
000002a0: 868c 0d3e 403c 83bd dab9 a5bd a3db 023e
000002b0: 4ae0 c4bd c8af fe3d 3554 90bb d3ad e83d
000002c0: fa49 96bb 6d45 50bd 82b3 f23d 9f0a 243e
000002d0: e034 f43d 5dd9 c53d f53d 88bc fb92 d8bc
000002e0: b0b1 a0bc 5adf 3b3e 3a9b 81bb b892 033d
000002f0: 23dc 16bd 53fb 74bc eff2 c93a 6f60 a8bd
00000300: 6cf7 983d 66e5 033e 354a aabd 8f33 fa3d
00000310: 2848 d6bc eb27 9e3d b842 16be 0da3 883d
00000320: 9975 93bd 2b39 dbbd ee2c 93bd 6fc0 e2bd
00000330: 4c02 023d 0e58 df3d 300f 8cbd c121 57bd
00000340: 7240 a73d 2380 5dbc 4893 a0bd 9bf4 903a
00000350: 67b6 f63d eb00 9cbd ae19 4a3d 2ba0 06bd
00000360: 48a9 983d 8344 59bd f048 1d3d af12 343e
00000370: 59f0 0fbd 3397 3dbc 3c7b 353d d19e edbd
00000380: 7981 cdbd 34f9 abbc f800 7abd d3cf 05be
00000390: fbfd 29be 4bc0 ba3d 1731 48be cbdf 2fbd
000003a0: 049f 5cbe c8af a53d df20 5e3d 868f 203e
000003b0: dec5 40bd e4ba fbbc d48c 06bd b247 803d
000003c0: 746d f7bc 3bdc 15be 7aad a9bc 7cba adbd
000003d0: b4ed babd f988 393d 267b d43d da46 48be
000003e0: 180a db3b de68 623d c30b b13d cf2a 013e
000003f0: a42b cd3c 2278 08be 2545 4ebe 20da 033d

final.bias f4 [12]
0.015592548 0.107098915 -0.105509214 0.009956878 -0.09691474 0.010389107 -0.06108245 -0.049955565
0.01300319 -0.020820558 0.022829965 0.026079165
00000000: e377 7f3c ad56 db3d 3715 d8bd 2c22 233c
00000010: 3c7b c6bd 1337 2a3c 9731 7abd 359e 4cbd
00000020: 550b 553c e08f aabc e805 bb3c f9a3 d53c
