Robustness/models/adamw_model.pth (torch, 263600 bytes, 10 tensors)

conv1.weight f4 [6, 1, 5, 5]
000000 4b dd ed bc 3e 9d 07 bd 31 a0 8c 3e f7 3d 35 3f
       -0.029036185 -0.033108942 0.27465966 0.70797676
000010 39 aa 29 3e 33 03 cd 3c 40 51 b7 bd 16 05 23 3e
       0.16568841 0.02502594 -0.08951044 0.15919909
000020 0b ed e7 3e 07 71 32 3e 88 21 38 bd 4b aa dd bb
       0.45298037 0.17425929 -0.044953853 -0.0067646853
000030 4d 4c 01 be 85 65 6b be 78 a9 c8 bd 69 0f 8d bc
       -0.12626763 -0.22987945 -0.097979486 -0.017219262
000040 27 c9 f9 3c bd d1 94 bd ca 56 32 be c1 a1 2f be
       0.030491425 -0.07266567 -0.1741592 -0.17151548
000050 41 87 6c bd ff 2a e7 bc 40 0d 78 bc 38 27 72 bd
       -0.057746176 -0.028218744 -0.015139878 -0.059119433
000060 9e 21 a7 bd 3b 7a 82 bc a6 06 1d bc bf 59 4b bc
       -0.08160709 -0.015927425 -0.009584105 -0.012411534
000070 5d 4d 56 3d f3 75 55 bd f9 ba 7f bc 07 0b 06 3c
       0.052319873 -0.05211444 -0.015608543 0.00818134
000080 00 ff 15 be f3 28 2a 3d b1 4b ca bd 1b d8 e7 bd
       -0.14648056 0.04154296 -0.09877718 -0.11320516
000090 12 9f a5 be 23 48 0c be 64 74 4a bd 32 f2 a4 bc
       -0.32347924 -0.13699393 -0.049427405 -0.020135019
0000a0 c5 a9 de bc 1d 4e 41 be 5c 2b 60 be 67 27 08 bd
       -0.027180562 -0.18877454 -0.2189154 -0.033240702
0000b0 bb 20 83 3d db 88 5c bd 6c 7a 2e bd 53 48 02 be
       0.06402727 -0.053841453 -0.04259722 -0.12722902
0000c0 da d9 ab ba 81 21 fa ba be 0e 9e bd e6 07 35 bd
       -0.001311119 -0.0019083471 -0.077176556 -0.044196986
0000d0 38 fa f3 bd 78 76 1e be 49 62 16 be ee 41 b2 bc
       -0.1191296 -0.1547488 -0.1468593 -0.021759953
0000e0 8a 80 c8 bd 3c 2f 7e 3e 4a 29 5d 3f d8 8b d4 3d
       -0.09790142 0.24822706 0.8639113 0.103782356
0000f0 9d 41 25 bc 55 df 03 be d8 9e 79 3e e5 e2 85 3f
       -0.010086444 -0.12878163 0.24377 1.0459868
000100 d7 62 39 3e 99 12 07 3d db 77 a9 bd 08 a5 eb bd
       0.1810411 0.03297672 -0.08274814 -0.115060866
000110 e9 b2 3d 3d 2b 21 32 bd d7 df 80 3c f0 38 b0 bc
       0.0463132 -0.043488663 0.015731735 -0.021511525
000120 26 0e 8a bc 9d a0 57 39 ce 88 f2 3b be 6d 73 3d
       -0.01685245 0.00020563831 0.0074015623 0.05943083
000130 d7 52 db 3c 96 4f 43 bd 0b 6c e5 bd 24 6d f7 3d
       0.0267729 -0.04768332 -0.11202248 0.12081364
000140 ff fc 44 bd df da 84 3e aa b3 cb 3e 79 3c 2d 3e
       -0.04809284 0.25948235 0.3978551 0.169176
000150 ae d9 ad 3c bf 0c 02 3c 40 fa d4 3e e4 8d 4c 3f
       0.021221962 0.007937609 0.41597176 0.7990401
000160 68 7a b0 3e 00 16 ae bd ed d2 5b 3d 9d 45 a6 3e
       0.3446839 -0.0850029 0.05366795 0.32474986
000170 b1 61 e7 3e 0c 35 33 3e a3 7a c0 bd 78 a8 7d 3d
       0.4519172 0.17500705 -0.09398391 0.061928242
000180 69 7d 93 bd c4 79 ad 3d cb c6 00 bd 45 f9 11 3c
       -0.072016545 0.084704906 -0.031439584 0.008909528
000190 33 40 c7 bb 21 b2 f2 bd 80 3b 7e be 14 9c 58 be
       -0.006080651 -0.11850382 -0.24827385 -0.21153289
0001a0 05 77 ca bd 9d 9b 80 bc 70 08 fb bd d8 95 c1 3d
       -0.098859824 -0.015699202 -0.12257469 0.094524086
0001b0 74 69 1e 3e ef 88 32 3e b8 b3 0b bc f8 d1 da 3d
       0.15469915 0.17435049 -0.008526735 0.106845796
0001c0 d6 70 6b 3e bf 3d 88 3e 3f 88 eb 3d 83 e1 83 bc
       0.22992262 0.2660961 0.11500596 -0.016098743
0001d0 4b 77 94 3d d7 7f 07 bd 25 10 b6 ba 94 85 6d be
       0.07249316 -0.033080902 -0.001389031 -0.23195487
0001e0 a6 c7 2a 3d f1 ce f7 bb f6 ef 15 3d e1 7d 20 be
       0.041694306 -0.007562511 0.036605798 -0.15673019
0001f0 09 5a d9 bd 72 4a 9c bd b3 7b 6d bd 9c b3 bc bd
       -0.10612876 -0.07631387 -0.057979297 -0.09213945
000200 40 55 62 bd ae ed ac bd 6a ab 4a bd 23 45 e7 bd
       -0.055257082 -0.08443771 -0.04947988 -0.11292484
000210 50 91 04 bd a4 b8 6f bc c6 a6 c1 bd de 44 10 be
       -0.032365143 -0.014631424 -0.09455638 -0.14088771
000220 4f e6 b6 bc 49 d7 0d 3f 01 1b fa 3c 24 9d 1f be
       -0.022326617 0.55406624 0.030530455 -0.15587288
000230 d0 b3 0e be 81 c5 8d 3e 3f 39 8c 3f 00 30 bf 3a
       -0.1393578 0.27689746 1.095497 0.0014586449
000240 54 03 43 be 12 d3 ad bd e7 6c f8 3d f1 b8 b7 3e
       -0.19044238 -0.08487524 0.121301465 0.35883287
000250 f3 09 24 be b5 40 0a be
       -0.1601942 -0.13501246

conv1.bias f4 [6]
000000 4e 7c 1c 3f 4c 84 bb bd b8 5b b7 3f cd fb d4 3c
       0.61127174 -0.09156093 1.4324865 0.025998974
000010 5d 4c b7 3e d2 9e 18 3f
       0.35800448 0.5961734

conv2.weight f4 [16, 6, 5, 5]
000000 53 c8 9b bd 97 87 ef bc 17 21 df 3d c2 ba 45 bd
       -0.07606568 -0.029239459 0.10894983 -0.04827381
000010 9d 66 0a 3d 60 5b ec bc 56 db 2f 3c 79 00 e5 bd
       0.033789266 -0.028852165 0.010733446 -0.11181731
000020 ca 75 9a bc f3 34 25 bd 0a b7 27 3e 32 2d 83 3e
       -0.018854994 -0.0403337 0.16378418 0.2562042
000030 00 50 e9 3c 3c a0 b2 bc 33 f0 44 bc fe 6b 2f 3e
       0.02848053 -0.021804921 -0.012020159 0.1713104
000040 19 52 dc be ad 1d 96 be 29 b5 eb bc f3 e1 ba bc
       -0.43031386 -0.29319516 -0.028772907 -0.02281282
000050 ce 06 7e 3d 68 09 12 bf fa 89 85 3d be 18 c9 bd
       0.06201821 -0.570456 0.065204576 -0.09819172
000060 fd de bc bc 0c 11 b6 bd 90 46 43 be ba 38 1a be
       -0.023055548 -0.0888997 -0.19069886 -0.15060702
000070 e0 10 03 bd 2c fb 2d bd 47 b5 58 be 06 9b 83 be
       -0.031998515 -0.042475864 -0.21162902 -0.2570421
000080 2a ac 5d 3d cc 07 21 3d 0f d9 3c bd d0 0d 7e bd
       0.054119267 0.039314076 -0.04610544 -0.06202489
000090 67 b6 6d bd bd b8 4d 3e 69 b6 28 3d 14 2c 0c bd
       -0.05803528 0.20090003 0.041189585 -0.034221724
0000a0 a2 1b 40 bd ae 13 18 3d 76 53 56 3e 4e 56 a7 3d
       -0.046901353 0.037128143 0.20930275 0.08170758
0000b0 d9 5d b9 3c 20 e9 ef 3c cb 77 e0 3d c6 60 62 3e
       0.022627758 0.029285967 0.10960349 0.22107229
0000c0 03 93 91 3d 11 e6 d0 bc 02 7c a3 3d 9e 8e 01 3e
       0.071081184 -0.02550033 0.07982637 0.1265206
0000d0 9b 00 ae bc 79 68 5e 3d 05 8f b7 3c 94 6d e5 3d
       -0.021240523 0.05429885 0.022407064 0.11202541
0000e0 52 f9 02 3d 1e e6 12 be a1 cc 8a 3d 20 62 80 bc
       0.03197605 -0.14345595 0.06777311 -0.01567179
0000f0 a9 48 64 3e a9 1e 86 3b 74 79 19 be 24 0f 85 3d
       0.22293343 0.0040930104 -0.14987737 0.064970285
000100 b3 de 6b 3b 85 bd 88 3d 5a 89 2e bf af f4 81 3d
       0.0035990893 0.06676773 -0.6817833 0.06345498
000110 02 c0 e1 bc c5 4f 42 bd 1d 74 54 bc 2b e4 59 be
       -0.027557377 -0.047439355 -0.012967137 -0.21278445
000120 fe ac c9 3d 48 e6 35 bd bf c8 be bc 9c 1b 90 bd
       0.09847449 -0.044409066 -0.023289083 -0.07036516
000130 66 37 16 3e 4c 76 40 bc c0 e0 ba bb 36 71 8d 3c
       0.1466957 -0.011746954 -0.005703062 0.017265897
000140 af e0 47 3b 9c 9b aa 3d 19 2d 01 be a7 9a 3b bc
       0.0030498912 0.083304614 -0.1261486 -0.011450446
000150 ef 08 0d bb ef ef 1e 3e ca fb 4f 3e 5a be 8e be
       -0.0021520217 0.15521215 0.20310894 -0.27879602
000160 d1 61 0d bd ad 58 4d 3d 55 22 c5 3d 8f 27 e6 bd
       -0.034517113 0.050133396 0.09625689 -0.11238014
000170 97 ea 87 be c1 11 46 3e c0 87 96 bc 5d 59 17 3b
       -0.26546165 0.1934271 -0.018375278 0.0023094036
000180 17 12 61 be be 49 b7 bd 47 21 00 3e db ce 05 3e
       -0.21979557 -0.08949612 0.12512694 0.1306719
000190 69 f9 cf bd b0 ec 6a bc 4b 3f 54 bd 28 72 11 bd
       -0.10154993 -0.014338657 -0.051818173 -0.03550926
0001a0 af 08 ad 3b ec 52 e0 bd e7 45 2d bc cf 72 ea 3a
       0.005280576 -0.10953316 -0.010575748 0.0017886999
0001b0 5b 95 a6 3c bc fd 3f 3b aa 1d 69 bd 67 7c 11 3e
       0.02033489 0.0029295525 -0.056913055 0.14207612
0001c0 1f c9 a1 3b cb d2 1e 3b 70 0b 26 3d c2 51 5a bb
       0.0049373056 0.002423453 0.04053825 -0.0033312892
0001d0 42 a3 1d be 1d 43 9e 3e ba dc 81 bc 93 02 69 3d
       -0.15394309 0.30910578 -0.015852321 0.05688722
0001e0 b3 3e bd 3c aa 79 03 3e 3c 09 b8 3d 74 a3 5c 3d
       0.023101186 0.1283938 0.08986136 0.05386682
0001f0 56 24 46 3c 41 1a d7 3d 54 fc 85 3e 34 6e 84 3d
       0.012093624 0.105030544 0.26169074 0.06466332
000200 73 2e ca 3d 22 1f 73 3c 90 eb f3 3d 9f 44 38 3f
       0.09872141 0.014838966 0.11910164 0.7197971
000210 31 5c e3 bc 05 58 1e 3e 38 51 62 3a c4 f6 76 bb
       -0.027753921 0.15463264 0.00086333184 -0.0037683705
000220 39 94 43 3f 99 2d 19 bf ef 84 a8 3e 75 dd 96 bc
       0.76398045 -0.598352 0.3291392 -0.018416146
000230 56 37 9d 3d 32 c7 50 be 99 b0 27 3e 22 0c ef 3c
       0.0767657 -0.20388487 0.1637596 0.02918059
000240 3d 7c e6 bc 69 cd 9f bd 6b d8 39 be be f4 23 be
       -0.028135413 -0.07802851 -0.18148963 -0.1601133
000250 83 2b 5d bd 7a a4 8b 3b 1b b2 c4 bb ac 2b ee 3c
       -0.053996574 0.0042615505 -0.006002677 0.029073559
000260 22 bc 6d 3d b1 d9 4b bd c4 72 ee bb b1 4c 0c bd
       0.058040746 -0.049768154 -0.0072768647 -0.034252826
000270 11 0c b5 3d b8 41 0d 3d b3 d9 c7 bc b4 76 a0 bc
       0.08840192 0.034486502 -0.0243958 -0.019587852
000280 84 d9 4b bc 51 8e 46 3e c7 3b a1 3e 9a d2 35 be
       -0.0124419965 0.19390227 0.3149092 -0.1775612
000290 16 3a 83 bd c2 06 93 3d db 63 32 3e 13 d0 33 be
       -0.064075634 0.07179023 0.17420904 -0.17559843
0002a0 da a7 88 be 85 a6 a0 3d 89 a9 1b 3d 03 53 f4 3d
       -0.2669056 0.07844261 0.03800348 0.11929896
0002b0 f3 ae 6f be ff 84 83 3d 1a d6 7b 3d e4 47 c8 bc
       -0.23406582 0.06421851 0.06148348 -0.024448343
0002c0 8c a8 10 be 4f 1e 31 be c9 9d d6 bb 07 94 04 3d
       -0.14126796 -0.17296718 -0.006549571 0.032367732
0002d0 af 91 c3 bc b8 0a 37 be af 38 49 be 9a 1c 10 3a
       -0.023873178 -0.17875183 -0.1965053 0.0005497426
0002e0 e7 f1 d4 3d 5b 16 2c bd 24 bf a0 bd c2 21 c2 bd
       0.10397702 -0.042013507 -0.07848957 -0.09479095
0002f0 ee d7 9e 3d 86 56 3b 3e 00 c0 89 3c 35 17 12 bc
       0.07756029 0.18294725 0.016815186 -0.008916666
000300 47 ee 5d bd 0d 97 0e 3e fa d4 28 3d a5 e9 6f bb
       -0.054182317 0.13924809 0.041218735 -0.003660777
000310 eb 0d 69 bd 9d 83 fa bc bc c1 1f bc 0d 25 1b be
       -0.05689804 -0.030580336 -0.00975078 -0.15150853
000320 b0 19 be ba d1 ea ce 3d 41 a9 ae 3b 59 a6 1c bc
       -0.0014503505 0.101033814 0.005330235 -0.009561145
000330 a9 e3 da bc ce d7 98 3d 99 e0 25 3e 8e 18 d7 3d
       -0.026719885 0.074630365 0.16198958 0.1050273
000340 fc 18 ce bd ff 17 8f bd c5 45 09 3d bd d5 90 3e
       -0.10063359 -0.06986999 0.033513803 0.2828807
000350 03 dc 9f 3c a9 44 d6 be 70 b4 95 bd 4e 20 29 3d
       0.01951409 -0.4184926 -0.07309806 0.041290574
000360 69 a6 18 3e a8 ba d6 be 81 d9 c0 bc 02 35 b1 3d
       0.1490723 -0.41939282 -0.023541214 0.086526886
000370 46 c0 88 3c cb d9 ba 3c 7e 72 27 be 14 97 fe 3d
       0.016693246 0.02280893 -0.16352269 0.124311596
000380 53 4e 24 bd a8 88 70 bd 18 9c 57 3d e1 08 ef 3d
       -0.04011376 -0.058724076 0.052639097 0.116716154
000390 9c 54 12 bc b2 83 cd bb 3e fe 82 3c 29 ac c4 3d
       -0.008931305 -0.006271803 0.015990373 0.096031494
0003a0 74 62 75 3e 26 a5 54 3d 61 6e 1b be 88 57 23 3b
       0.23963338 0.05191531 -0.15178825 0.0024924
0003b0 b6 87 c8 3d ef f6 5a 3e 13 94 83 be 80 50 0d be
       0.0979151 0.2138326 -0.2569891 -0.1380024
0003c0 1e d8 0f 3b f3 05 4d 3e 96 df f0 bd f2 a9 4d be
       0.0021948884 0.200218 -0.11761396 -0.2008436
0003d0 d1 3a 6a 3d c3 65 b3 3b 4a dc 49 3c f7 b2 d1 bd
       0.057184998 0.0054747774 0.012320587 -0.10239213
0003e0 1e 71 0a be 54 ee d5 3c 7c d7 1f bd f4 f9 5b 3d
       -0.13519713 0.02611462 -0.03902386 0.05370517
0003f0 e0 1b a2 bc 62 dc f0 bd 0c a1 54 3d 83 4f 9f 3c
       -0.019788682 -0.11760785 0.0519114 0.019447094

conv2.bias f4 [16]
000000 3e 03 eb 3c 77 13 e3 3e 10 b5 19 be 03 b3 06 3e
       0.02868807 0.44350788 -0.15010476 0.13154225
000010 4c 2b 38 3d 68 56 73 3e 14 f3 fe 3d 66 9e c5 3e
       0.044963166 0.2376343 0.12448707 0.3859741
000020 24 62 37 be b9 79 81 3e 08 f6 d6 3e 0b e8 e0 bd
       -0.17908531 0.2528818 0.41984582 -0.10981759
000030 9a 11 fc 3e a9 ba 04 bd af 8b 22 3d 17 43 9b 3e
       0.4923218 -0.032404575 0.039683994 0.30324623

dense1.weight f4 [128, 400]
000000 3b 85 44 bc e0 38 21 3d 8d f2 22 bd 9e 74 3c 3b
       -0.011994655 0.03936088 -0.039782096 0.0028756033
000010 aa 80 cc bc 7b a5 f0 3c 0f 4b 20 bd af a5 47 3c
       -0.024963696 0.029375782 -0.03913408 0.012185498
000020 ba 6b 14 bd 2e ea 22 3d d9 03 1a bc f0 ee 6c bc
       -0.03623555 0.039774112 -0.009400331 -0.014461264
000030 4a 9f 03 bd ff a9 2b 3d a9 b1 dc 3b 32 aa b4 3c
       -0.03213433 0.041910168 0.006735046 0.022053812
000040 de d1 1a bc 1e f4 e0 3b 6e 12 8b bc 32 22 ec 3c
       -0.00944945 0.0068650385 -0.016976561 0.0288249
000050 d0 86 e6 3c 1b 88 f9 bc 38 b0 26 bb 0c a9 9f 3c
       0.028140455 -0.030460408 -0.0025434624 0.019489788
000060 8e 0d 19 3d 1b a6 01 bd 70 21 52 bd 1c ac c7 3b
       0.037366442 -0.03165255 -0.05130142 0.006093515
000070 cb 62 86 3b 56 1c 13 bc 60 58 20 3d 2a 4f 30 3c
       0.0041011325 -0.008978924 0.03914678 0.010761062
000080 6a 0a 2e bb f9 8a 00 bb b8 7c 22 bb c4 17 8d 3c
       -0.00265565 -0.0019614084 -0.0024793576 0.017223246
000090 ee 97 0a bc e9 d8 6c bc b0 f6 be bc 1d 75 4b bd
       -0.008459074 -0.014456012 -0.02331099 -0.049672235
0000a0 b5 ab a4 3c 44 c1 f0 3c a5 a0 99 3c 14 66 c5 ba
       0.020101408 0.029389031 0.01875336 -0.0015060329
0000b0 ce 04 84 3c 53 7f 20 bd 1e 26 a9 3c 18 3e 5b 3c
       0.016115572 -0.039183926 0.020648059 0.0133815035
0000c0 22 f9 e4 bc 20 20 a9 bc 06 69 1f bd ed 05 40 bd
       -0.027950827 -0.020645201 -0.038918518 -0.04688065
0000d0 f8 02 ff 3c 03 c0 37 bd 08 0a 3d bd e0 ba 10 bd
       0.031129345 -0.04486085 -0.046152145 -0.035334468
0000e0 0a 27 c3 3a 03 8f c5 bc 4c 2d 44 bc b3 82 d1 ba
       0.0014888954 -0.024116045 -0.01197369 -0.0015984386
0000f0 2d 55 b9 3c 21 3f ed 3b c8 78 c1 bc 5e 68 53 bd
       0.022623623 0.0072401916 -0.023617163 -0.051613204
000100 ab 34 e8 ba b1 8b 12 bd 75 30 2f bd 12 94 95 3c
       -0.0017715892 -0.03577775 -0.04277082 0.018259082
000110 32 c7 cd bc dc c3 94 3c a3 5c eb 3b 3d 0f 26 bc
       -0.025119398 0.0181598 0.007182674 -0.010135469
000120 fb f6 82 3c fd 13 b1 bc 4e c7 ff bc 9d 7f 8a bc
       0.01598691 -0.021615976 -0.031222966 -0.016906554
000130 6c fa e8 bc 9b c6 20 bd a3 a0 94 bc 4a 85 9d 3c
       -0.028439723 -0.039251905 -0.018143004 0.019228596
000140 ac 3c 02 bb 19 40 bd 3c a2 89 f9 3c 38 76 8a 3b
       -0.001987259 0.023101853 0.030461136 0.0042255186
000150 54 cc 2a 3d 02 a8 1c 3d 5e 61 05 bd 05 ed 0f bd
       0.04169877 0.038246162 -0.03256356 -0.03513815
000160 a1 0d 7b bc cc 0c 0d bc da d8 35 bc 38 c7 92 3c
       -0.015323074 -0.008609008 -0.011099065 0.01791726
000170 bb 0b 3c 3c f2 a0 1a 3c fe bd 82 bc 8f 42 97 bc
       0.011477406 0.009437786 -0.015959736 -0.018464355
000180 8e b7 31 bc f9 14 39 3b ff a6 ce bb e5 04 e6 ba
       -0.0108469855 0.002824126 -0.0063065286 -0.0017549066
000190 d9 72 a8 bc 37 88 ab 3b 89 2c b6 3c a8 52 4e bd
       -0.020562576 0.005234744 0.022238033 -0.050371796
0001a0 e4 ea ff 3c c1 47 f6 3a 4c df a1 bc 96 23 c7 bc
       0.031239934 0.0018789695 -0.019759797 -0.02430896
0001b0 7f 7a 10 bc be ac 46 bd 98 a4 38 bd 1e 20 a1 3c
       -0.008818268 -0.048504584 -0.045078844 0.019668635
0001c0 dc 4a 28 bd 05 86 ae 3b cf eb bc 3b 63 b4 4f bd
       -0.041087016 0.005326035 0.0057654153 -0.05070914
0001d0 35 0e ab 3a 10 93 e9 3c 13 2d 88 3c dc 89 f7 bc
       0.0013050499 0.028512508 0.016623056 -0.030217104
0001e0 2c 94 9a bc 07 e1 14 3c ca 1b e0 bb 6e 15 aa 3c
       -0.018869482 0.009086854 -0.00683925 0.020762172
0001f0 47 d2 da bc a5 e9 29 3a b4 21 de 3c e0 4c d3 bc
       -0.026711596 0.0006481654 0.02711568 -0.025793493
000200 59 ea b7 bb 20 27 fd bc a3 dc bf 3a 13 17 b2 3c
       -0.005612653 -0.030902445 0.0014637898 0.021739518
000210 a2 11 ab 3c 7d 06 19 3d 53 23 e3 3c c8 2a ef 3c
       0.020882431 0.037359703 0.027726805 0.029195204
000220 08 3c 7c bc cd ae 40 bd b7 17 70 bc 6b c1 9f 3c
       -0.015395172 -0.047041703 -0.014654092 0.019501409
000230 0d 44 36 bd e1 50 d5 bc d6 0d 77 3a 70 1d 81 3b
       -0.044498492 -0.026039543 0.0009424364 0.003940277
000240 2f 67 37 3c c3 20 b4 ba 21 08 cf bb 61 c5 02 bb
       0.0111940345 -0.0013742674 -0.0063181077 -0.0019954073
000250 c0 3c 50 bc b1 37 60 bc 2a f5 fc 3b 14 79 ad 3c
       -0.012709796 -0.013685153 0.0077196555 0.021175899
000260 d1 f5 ab 3c 9a 2a 10 bd 76 bb 50 3b 79 d7 b4 bc
       0.020991238 -0.035196878 0.0031850017 -0.022075402
000270 ef 22 1a bd 2b 52 f8 bb 37 11 81 bc f1 08 38 bd
       -0.03763097 -0.0075781546 -0.015755279 -0.044930402
000280 ff 24 38 bc d4 5b 4a 3a 99 46 09 bd a3 00 7a 3c
       -0.011239289 0.0007719372 -0.033514593 0.015258941
000290 6b 88 22 bb 39 7a be 3b 42 3d 32 bd 74 9d fe 3c
       -0.002480055 0.00581291 -0.04351545 0.031080939
0002a0 f7 51 ca 3c e2 65 cf bb 0c 4c d1 bc 8f fb 3e bd
       0.024697287 -0.006329284 -0.025548957 -0.046626624
0002b0 08 c3 f8 3c 74 dc 1d 3d b0 fb 95 bc b6 5e 01 3c
       0.030366436 0.03854032 -0.01830849 0.007896116
0002c0 19 7a c3 3c 37 7d 1b 3d 4f 62 fe bc 2e f7 d6 bc
       0.023861932 0.03796121 -0.031052737 -0.026240911
0002d0 53 df 11 bd e8 98 dc bc 48 50 92 bc 3f 22 15 bd
       -0.03561337 -0.02692838 -0.017860547 -0.036409613
0002e0 0d bb c5 bc b1 33 0e 3d 27 90 5c 3c 93 20 ae bc
       -0.024137044 0.034717266 0.013462103 -0.021255767
0002f0 50 fc 1a bd 72 a0 24 3b c2 5a 87 bc 3b 09 96 bc
       -0.03783828 0.0025120047 -0.016522769 -0.018314948
000300 ff 6b 8e 3b a0 37 07 bc ca 94 3b 3c 94 29 2e bb
       0.00434637 -0.008253008 0.011449048 -0.0026575075
000310 d8 07 e0 bc 6d c7 8e bb 62 ca 23 bd f6 ac 1a 3d
       -0.02734749 -0.0043572695 -0.03998793 0.037762605
000320 da 18 b7 bc c5 e7 1e 3d 0c df bd 3c 63 93 14 bd
       -0.022350717 0.03879525 0.023177646 -0.03627337
000330 7f d6 3d 3c ce a1 7f bc 03 aa b5 b9 5f da b1 3b
       0.011586784 -0.015602542 -0.0003464968 0.005427643
000340 34 f2 c4 3c 53 2c cf bb 91 27 c5 bb ad 57 e5 3c
       0.024041273 -0.0063224225 -0.0060166796 0.027995909
000350 f1 00 95 bc aa 6f 13 3d d6 35 09 bd fc af 81 bc
       -0.018188925 0.035995163 -0.033498608 -0.015830986
000360 06 cd 06 bd b7 2e 9d ba 22 3f 04 3d 82 10 9c 3c
       -0.03291037 -0.0011992072 0.03228677 0.01905084
000370 ff 34 a9 bb 46 12 d8 3b 21 1d 85 3c 25 99 ad bb
       -0.0051637883 0.0065939752 0.016249241 -0.0052977973
000380 0a 24 a0 bc a0 a1 f7 3b 02 55 2a bd d9 12 3a bc
       -0.019548435 0.007557109 -0.041584976 -0.011357033
000390 e5 e2 0b bc 97 5d 5c 3b 12 21 4d bb 18 aa 0f bd
       -0.008537983 0.003362512 -0.003130023 -0.035074323
0003a0 24 46 0e bd 92 e3 66 bc 85 ca 19 bd 26 2e 1b bd
       -0.03473486 -0.014092343 -0.037546653 -0.037885807
0003b0 fe 89 2e bd 84 28 1d bd e4 67 4b bd 75 9e 84 3b
       -0.04261207 -0.038368717 -0.049659625 0.00404721
0003c0 20 35 35 bd 76 2d 7d bc 0c 62 d6 3c 6b a8 b8 bc
       -0.044240117 -0.015452733 0.0261698 -0.022541245
0003d0 88 25 b0 3c 9d dc f9 bc f4 4e 18 bd 01 9b a0 3b
       0.021502271 -0.030500704 -0.03718467 0.0049012904
0003e0 43 d0 fb 3c 96 c1 e9 bc dc 42 b8 3c 23 f3 0a 3d
       0.030738955 -0.028534692 0.022492819 0.03392328
0003f0 87 21 46 bd fb 1c a5 bc b1 3b b7 bc 8e fb 54 bc
       -0.048371818 -0.02015542 -0.02236733 -0.012999428

dense1.bias f4 [128]
000000 23 e1 51 bd 51 3e 05 3d 79 78 9b bc 2b 57 40 bd
       -0.051240098 0.032530133 -0.018978344 -0.04695813
000010 61 62 d6 3e 09 d3 93 be 69 ef 69 bc a4 43 bf bc
       0.41871932 -0.28871945 -0.014278271 -0.023347683
000020 42 9c b0 3d 54 5e 33 be d9 ce 67 3e d8 db c5 bc
       0.08623554 -0.17516452 0.226375 -0.024152681
000030 d1 d9 bd 3e 0a 50 4f bd 83 9b 87 3d 2e d1 36 bd
       0.37080243 -0.05061344 0.066214584 -0.044633083
000040 c5 08 ef 3d c2 07 b0 bc b1 c5 30 3e 5b 26 15 3d
       0.116715945 -0.021488074 0.17262913 0.03641353
000050 c5 c6 3c 3d 94 14 0c bd 6e 6d ed 3c 11 1b 7a 3e
       0.046088 -0.034199312 0.028982844 0.24424388
000060 06 80 0c 3d d0 bc 34 bd cb 3d 19 bc 66 0e a5 bb
       0.03430178 -0.044125378 -0.0093531115 -0.005037117
000070 65 df 2d bc 77 0c c3 3e 01 2b 51 3e 42 0b f3 3d
       -0.010612343 0.38095447 0.20426561 0.11867382
000080 4d 9c c2 3d 65 f2 9f 3d a4 77 f6 bb e5 13 14 bd
       0.09502468 0.07809905 -0.0075215865 -0.036151785
000090 87 f6 57 bc 25 fd 05 3d 99 e5 a0 3b cc ea 4d bc
       -0.013181335 0.03271212 0.0049101827 -0.012568187
0000a0 82 51 48 3e 13 96 d6 3d 41 63 35 3e f0 e8 a4 ba
       0.19562343 0.10477843 0.17713644 -0.0012581628
0000b0 0d 57 01 3d 1a b1 25 bd f3 84 5d be 4b a0 4b bd
       0.03157716 -0.0404521 -0.21632747 -0.049713414
0000c0 6f b2 e2 3c 84 4b 28 bd f2 ec 38 bd 52 4c 9f 3e
       0.027672974 -0.041087642 -0.045147844 0.31112915
0000d0 66 26 d1 3e c5 fe c9 bd 4f dd ef bc e3 ac 50 bb
       0.40849608 -0.098630466 -0.029280333 -0.003184133
0000e0 9d 00 17 bd 1d f0 38 3e 0d 4c 78 3e 36 02 0a be
       -0.03686582 0.18060346 0.24247761 -0.13477406
0000f0 8b ae 09 bc 16 cf c6 3e 7e 2d 1a be 95 5e b1 3e
       -0.008403431 0.3882987 -0.15056416 0.34642473
000100 5d 1d 57 bd 3d f8 71 3e 3e 0a 0d 3e c0 84 54 3d
       -0.052518237 0.23629852 0.13773438 0.051884413
000110 97 06 e6 3c 20 71 1c bc 63 6b e6 bc 5f 59 05 be
       0.028079314 -0.0095484555 -0.028127378 -0.13022374
000120 71 39 1f be 99 78 bc bc 57 37 c5 bc 4c d5 ae 3d
       -0.15549256 -0.023006724 -0.02407424 0.08536777
000130 40 90 42 bd 25 61 54 bd c5 4a a5 bd af 9c d8 bc
       -0.04750085 -0.051850457 -0.08070902 -0.0264419
000140 17 eb 39 3e 0e 75 3b ba d5 ca ac 3d 54 f4 f6 3c
       0.18156086 -0.00071509264 0.08437125 0.030145802
000150 17 09 11 3d 9d 9c df bc fb 77 e3 3d 08 8c 3a 3d
       0.03540906 -0.027296359 0.11106869 0.0455437
000160 55 f8 81 3c 9b cf ef bc a9 37 8a 3b c6 19 46 3c
       0.015865484 -0.029273799 0.004218061 0.012091106
000170 b8 40 bf 3d d9 13 bf bd 61 80 8d bd 3f 3b 54 bd
       0.09338516 -0.093299575 -0.06909252 -0.051814314
000180 6c 3e 8a 3d 82 1f a6 bc 88 f6 ef bc 63 77 b7 3d
       0.06750187 -0.020278696 -0.02929236 0.08958318
000190 e1 59 08 bc 03 c2 9f bc 7c f7 77 bd 43 5c fa bb
       -0.00832221 -0.019501692 -0.060538754 -0.007640393
0001a0 bc b9 81 3d b1 d3 06 be 40 16 5a bd 9d 27 11 bd
       0.06334254 -0.13166691 -0.053243876 -0.03543817
0001b0 e3 0b 05 3d 1e fe 39 3b 34 d5 21 bd 1a b6 73 be
       0.03248204 0.0028380225 -0.039509967 -0.23799935
0001c0 d0 63 1e 3e 71 60 63 be b2 c8 09 bd dd 0e bb 3d
       0.15467763 -0.22204758 -0.033638664 0.09133694
0001d0 0d 8b 5b 3c 71 b9 59 bd 54 69 51 3e 56 89 07 3d
       0.0133998515 -0.053155366 0.20450336 0.033089958
0001e0 96 10 0e 3e 6b ac cc bc 4a a0 9d 3d c1 ae 87 bd
       0.13873515 -0.024984559 0.07696588 -0.066251285
0001f0 9f 33 df 3d 22 18 56 3e a4 f3 f2 3d 14 c7 0b bc
       0.10898518 0.20907643 0.11862877 -0.008531351

dense2.weight f4 [64, 128]
000000 e3 6e aa bd dd 07 a4 bd ec 63 f1 b8 ef 2a 09 bd
       -0.08321931 -0.08009312 -0.000115103874 -0.03348821
000010 e3 52 07 3e 48 b9 e7 bd 63 05 88 3b 48 3c 2d bc
       0.13215213 -0.113146365 0.004151033 -0.010573454
000020 16 72 65 3d f7 47 7b bd 90 d1 2d 3e 7e b0 0f 3d
       0.056017004 -0.061347928 0.16974473 0.035080425
000030 01 4e eb 3d c8 e3 e9 3c af d6 d9 bd 0c 95 9d bc
       0.114894874 0.028550997 -0.10636651 -0.01923611
000040 26 91 09 be 3e 92 98 bd 8c 1a 3a bc c8 dd 1b 3d
       -0.13434276 -0.074497685 -0.011358868 0.038053304
000050 1b fe 46 3e 85 4d 16 3e bc 05 83 bc 57 f8 6a bd
       0.19432871 0.14678009 -0.015993945 -0.05736574
000060 0d bf 9d bd 5f 3a ea 3c be ff 48 bd 56 cb 12 bc
       -0.07702456 0.028592287 -0.04907202 -0.008959612
000070 c8 73 7e bc b2 30 73 bd 40 c6 aa bd d4 30 de bc
       -0.015530534 -0.05937261 -0.083385944 -0.027122892
000080 c3 51 5d bb 0d 44 b4 bd ea 6c f9 3b cf c4 06 3d
       -0.0033770658 -0.08802042 0.0076118605 0.032902535
000090 5a 23 86 bd 65 38 1c 3d d6 0c 1c bd 20 31 c9 3d
       -0.065497115 0.03813972 -0.03809818 0.09823823
0000a0 48 5a 8b 3d d8 0d 22 3e 7e 84 2b be 6e cf 37 3e
       0.06804329 0.15825593 -0.1674976 0.17950222
0000b0 fb 3b 2b bc e0 34 57 3b af 3a 74 be 36 85 bc 3d
       -0.010451312 0.0032837912 -0.23850511 0.092050955
0000c0 05 7f 46 bd 63 54 0a 3c fb 91 ae 3c 0f 07 6b 3e
       -0.04846098 0.008442971 0.021309843 0.22951911
0000d0 62 a1 3a 3d 49 c7 af bd ea 0d 9f bd ca ff 91 3c
       0.045564063 -0.085829325 -0.07766326 0.017822165
0000e0 ee 56 97 bb 79 1b f4 3d 24 7f 4b 3d dd 4f 29 3e
       -0.004618517 0.119193025 0.049681798 0.16534372
0000f0 38 9f 78 bd 2e 87 34 3e 38 59 07 3e b8 f7 8a 3d
       -0.060698718 0.17629692 0.13217628 0.0678553
000100 f7 1e 59 bd 47 21 71 be 7d 8f 3a bd 16 15 9f 3c
       -0.053008046 -0.2354785 -0.045546997 0.019419234
000110 ec 29 f7 bc 38 35 71 3c 82 8f 87 bd 9d fc 3b 3e
       -0.030171357 0.014722161 -0.06619169 0.18358083
000120 67 5d ba bd f7 75 0b bc b9 a0 96 3c 08 e5 11 bb
       -0.09099846 -0.008512012 0.018387185 -0.0022261757
000130 e5 59 85 3e 0b 87 6a 3d ed 65 f7 bd 18 d4 b5 bd
       0.26045147 0.057257693 -0.12079988 -0.08878344
000140 86 c3 fa 3d c1 21 b3 3d 0f 62 f4 3b 63 13 d0 3b
       0.122443244 0.087466724 0.0074579786 0.0063499673
000150 ee b0 e8 bc 3b 8d ec bc df 60 2a 3e 18 b2 20 be
       -0.02840468 -0.028875938 0.16638516 -0.15692937
000160 9c 39 98 bd 2d 4f 0e bc e3 5c 09 3e fd 7e 9e bd
       -0.07432863 -0.008685869 0.1341434 -0.07739065
000170 96 76 fb 3d 21 ab 67 3c 2b 65 9f bd 93 ea 82 3d
       0.12278478 0.014139921 -0.07782968 0.06392398
000180 45 ab c9 bd 00 8d f8 3c 38 3f 57 bd 0b 65 7c 3d
       -0.0984712 0.030340672 -0.052550524 0.0616198
000190 2e 7b 48 3d 72 84 36 3d 8d ba 8d 3c 03 75 06 3d
       0.0489456 0.044559903 0.017300868 0.032826435
0001a0 52 07 cd 3d 53 89 99 3d 6b 84 ec 3b 35 34 bb bd
       0.10011162 0.07496896 0.007217934 -0.09140817
0001b0 f8 ef 34 3c e9 ec 50 bd b6 47 8e bd 7f 88 6e bd
       0.011043541 -0.051007185 -0.069472715 -0.05823564
0001c0 85 26 0a 3d c6 f8 0a 3e a6 63 43 3d 3f 48 95 3d
       0.03372814 0.13571462 0.047702454 0.072891705
0001d0 2e 07 18 be 77 27 90 bd c5 dc b7 3c b9 55 25 3c
       -0.14846489 -0.07038777 0.022444138 0.010091239
0001e0 1f da ab 3d 2d db 81 bd be e6 55 bc 28 ca 51 3c
       0.08391213 -0.063406326 -0.0130555015 0.012804545
0001f0 29 89 0a be a5 cf 89 3e d8 d0 8b 3d 79 03 2b bd
       -0.13528885 0.26916233 0.06826943 -0.04175136
000200 6a c6 2f 3d 5e 73 2f bd db ad 08 3d 2c 39 a3 bd
       0.04291383 -0.042834632 0.033368926 -0.07969889
000210 51 5e 9d bd 23 17 bc 3b dc 59 5e bc 95 d6 55 bd
       -0.07684005 0.005740063 -0.013571229 -0.052206594
000220 42 85 17 3d 2a 85 15 3d fd cd 97 bd 82 bf c2 bc
       0.03699232 0.03650395 -0.07412336 -0.023772959
000230 44 bf 09 bd 53 25 47 3d 49 32 25 3d 71 a0 de bc
       -0.03362967 0.04861958 0.04033116 -0.027176114
000240 a4 bd 76 3d 5a 0b 83 bd d3 3d 14 3d db 83 e6 3a
       0.06023945 -0.063986495 0.036191773 0.0017586903
000250 8e 3f 6a 3d 66 af f3 3b 90 7d 89 bd ca 3a a6 bd
       0.057189517 0.0074366806 -0.06713402 -0.08116682
000260 14 03 80 bd 62 e6 ba bd 4c 05 3c bc b9 27 8b bc
       -0.06250587 -0.09125973 -0.011475872 -0.016986715
000270 8b 3b a1 3d c2 5a 5b bd 57 ea 1c 3d 51 e2 30 3d
       0.07872685 -0.05355335 0.03830942 0.043184582
000280 c0 ee 3b 3d 91 24 88 bd 12 78 27 bd d8 46 c9 bc
       0.045881987 -0.066475995 -0.040885992 -0.024569914
000290 76 f8 29 bd 22 1d 89 bd 3d 71 55 3c 77 1c 85 bd
       -0.041496716 -0.0669501 0.013027486 -0.0649957
0002a0 14 d8 1e bd bd a9 e7 3c 67 f6 45 bd 5f 4c 87 bc
       -0.038780287 0.02827918 -0.04833069 -0.016515909
0002b0 aa 8b 5e 3d bb 76 c9 3b e9 32 c6 b9 51 24 46 bd
       0.054332413 0.006148187 -0.00037803434 -0.048374478
0002c0 6a 7c 1f 3c 0f ff 04 3d 16 36 49 bd 4e ad 85 3d
       0.0097342525 0.032469805 -0.049123846 0.06527196
0002d0 56 c4 42 bd 44 aa 8e bd cd 5c a4 bd 95 6d 9a bd
       -0.04755052 -0.06966069 -0.08025513 -0.07540432
0002e0 42 da 25 bd 59 60 06 3b 1c a3 89 bd eb 1b c7 bd
       -0.04049135 0.0020504205 -0.06720564 -0.09722122
0002f0 b8 35 90 bd 7c 83 b0 bd ab 0c 74 bd 65 91 23 3c
       -0.07041496 -0.08618829 -0.059582394 0.009983395
000300 70 3b 33 bc 6d a7 a5 bd e0 ba 9a 3d 6e b2 f5 bc
       -0.010939464 -0.080885746 0.07555175 -0.029992308
000310 00 b7 93 bb b5 f0 72 3d 09 17 2b bc 1a 89 46 3d
       -0.0045078993 0.059311587 -0.010442504 0.048470594
000320 16 b4 ba bb 31 c7 45 bd 7d 3e 6d 3d 41 a7 9d bd
       -0.0056977374 -0.048285667 0.05792092 -0.07697917
000330 27 e0 5b 3d 4e b2 21 bd 7a 9b 91 bd 22 36 a4 bd
       0.053680565 -0.039476685 -0.07109733 -0.080181375
000340 ce b7 89 3b a3 1c 6c 3d 8d f9 70 bd ef f7 0b bd
       0.0042028194 0.057644498 -0.05883174 -0.034171995
000350 02 ce 7a 3d d6 17 09 bd 23 56 b2 bd a9 89 34 3c
       0.06123162 -0.033469997 -0.087078355 0.011019149
000360 c5 71 9c bd 3f f3 98 bd fa f5 a0 3c 5a a4 82 bd
       -0.07638887 -0.074682705 0.01964854 -0.06379004
000370 16 ec af bd 6a 6e 11 bd 02 d3 27 bd 11 5d 69 3c
       -0.08589952 -0.03550569 -0.040972717 0.01424338
000380 4c 50 64 3d 73 85 d6 bc fc 4a 87 3b ba c9 8c bd
       0.05574064 -0.02618668 0.004128812 -0.06874414
000390 83 23 57 bd 73 99 8c 3c 9b 7c 13 bd d2 22 a2 bd
       -0.0525241 0.017163014 -0.036007505 -0.07916798
0003a0 22 a6 ab bc ab 46 41 bd 9e 39 86 3c 35 1c 48 bd
       -0.020953242 -0.047186535 0.016384896 -0.048855025
0003b0 3d 3c ed b9 0d 95 02 bd 70 86 55 3d 10 86 6a bd
       -0.00045249044 -0.031880427 0.052130163 -0.05725676
0003c0 e1 ae ac bd de 03 9b bd 03 c3 99 3d 28 45 57 3d
       -0.08431793 -0.07569097 0.07507899 0.052556187
0003d0 7e 6a 60 3c ab a7 6c 3d e7 06 21 3d fa ed 39 3d
       0.013697265 0.057777088 0.039313223 0.045392968
0003e0 b5 47 b4 bc e8 e1 29 bd d8 58 fc bb 53 6e 16 3d
       -0.022006849 -0.041475207 -0.0077010207 0.036726307
0003f0 a3 ce 85 bc 9e 33 be bc 35 7c 97 3c 13 16 18 3d
       -0.016333884 -0.023217972 0.018491844 0.037130427

dense2.bias f4 [64]
000000 79 d8 53 3d 38 24 8c bd 02 23 06 be a8 7c 86 3d
       0.051720116 -0.06842846 -0.13099292 0.06566745
000010 3f f8 e5 3d b4 23 07 be 71 3c a9 3d 49 26 38 3e
       0.1122899 -0.13197213 0.082634814 0.17983355
000020 fe 7b 49 3e 37 08 3e be ff fc 95 bd 27 e1 13 3e
       0.19676206 -0.18557821 -0.07323646 0.14441358
000030 68 8b 6f 3e dd 65 58 bd 0d 8a 8a 3e 61 d8 69 bd
       0.23393023 -0.05283152 0.2705845 -0.05709112
000040 35 b5 55 be 00 a2 7b bd 3b d7 9c bc 80 65 89 bd
       -0.20869906 -0.061433792 -0.019145599 -0.06708813
000050 27 ca 2c 3e 9b 00 07 3e 14 00 77 be 4b 1d db 3d
       0.1687399 0.13183825 -0.24121124 0.106989466
000060 29 8a 10 bf c4 90 90 bd 98 5d bf 3d be 9a be 3e
       -0.56460816 -0.07058862 0.093440235 0.37227434
000070 9b 57 58 bd 5e 2c c0 bd 96 a6 a9 bd e8 87 13 bd
       -0.052817922 -0.09383462 -0.08283727 -0.036018282
000080 82 71 3d bd 3c a4 75 3e cb 8e 44 bb 92 4a e4 3d
       -0.046250828 0.23988432 -0.0029992338 0.11147036
000090 ea 5c 58 3d 89 16 86 bc 88 eb 7a be 0b 3d 2f 3d
       0.052822985 -0.016368167 -0.2450391 0.042782824
0000a0 f2 ab 84 3e 4a db 0b bd 4e 90 c9 3d 10 11 a5 bd
       0.25912434 -0.034144677 0.09841977 -0.08059895
0000b0 47 73 59 3e 2f ba 91 3e 17 0f 72 bd c1 1a c1 bd
       0.21235381 0.2846236 -0.059096422 -0.09428931
0000c0 be cd 25 be b7 f0 8b bd 67 08 84 3e 52 86 a8 3c
       -0.16191766 -0.06833022 0.2578766 0.020571861
0000d0 57 7d 17 3e 0b cc 71 3d 4a c2 4c 3c c3 45 b1 bd
       0.14793907 0.05903248 0.012497494 -0.08655884
0000e0 09 7b bc 39 81 c0 94 bc b0 6d b5 3d af 67 43 bd
       0.00035949823 -0.0181582 0.08858812 -0.047706302
0000f0 72 5f 43 3e 40 a7 2c 3e 65 6b e8 3d 12 10 9c 3e
       0.19079378 0.16860676 0.11348609 0.3048101

final.weight f4 [43, 64]
000000 96 09 2a 3e 3d b3 d1 bd 76 f8 51 3e ce d6 4c be
       0.16605219 -0.10239265 0.20504937 -0.20003816
000010 7e 66 85 3d 9a 77 bf bd be 12 7f bd bb a8 03 3e
       0.065136895 -0.09348984 -0.062273733 0.12857334
000020 a9 3c 9f bd 91 28 12 bd 2f f4 23 bd c9 95 2a 3d
       -0.07775242 -0.03568322 -0.040027793 0.041646753
000030 fc 67 40 be b5 9b ad 3b eb e9 9d 3d 76 6a 84 3e
       -0.18789667 0.0052981027 0.07710632 0.25862473
000040 5c fd 07 3d 7a ad b0 3c cd 49 08 3d 34 48 a7 bd
       0.033200607 0.021567095 0.033273507 -0.081680685
000050 88 a8 bf 3c 4e f6 5d 3d 42 e7 7a c0 28 17 66 be
       0.023395792 0.054189973 -3.9203649 -0.22469771
000060 b5 c4 3a 3b 01 fd 30 3d 5d 41 1c be 31 db 81 be
       0.0028498594 0.043210033 -0.15259309 -0.25362542
000070 0c 24 c5 bd 26 45 60 bd d8 d0 30 bd 88 8b 2d bd
       -0.09626016 -0.054753445 -0.04316792 -0.042369395
000080 8d 75 b3 3d 3c a2 b7 bd a2 18 a4 bd b2 f1 a0 be
       0.087626554 -0.089664906 -0.08012511 -0.314344
000090 47 be cc bd 8d 2a 85 ba 72 90 79 be bb b9 ad 3d
       -0.0999723 -0.0010159776 -0.24371508 0.08482691
0000a0 d7 86 df 3c 2b 7a ce bd f9 f1 56 3d 2f 24 27 bd
       0.027285976 -0.100818954 0.052476857 -0.04080599
0000b0 8e 2d 87 3e 13 ff fb bd 7f ac e6 bd 7e 9d 2c 3e
       0.26401943 -0.12304511 -0.1126337 0.16856954
0000c0 9f a5 02 be 4b fd 39 ba 7d b1 b7 3b 42 e6 31 3e
       -0.12758492 -0.00070949335 0.005605875 0.17372993
0000d0 73 49 32 be e7 70 ed bd bb eb 80 bd ef c5 0f be
       -0.17410831 -0.115938 -0.06294962 -0.1404035
0000e0 97 95 23 be ca 09 c7 3d 68 eb a2 3b 02 3d 9a bf
       -0.15975033 0.09718664 0.0049719103 -1.2049868
0000f0 eb 9c 1f bc 0c 71 30 bc 9e 0b c0 bd 66 4a 47 be
       -0.009742002 -0.01076914 -0.09377216 -0.19461975
000100 d6 83 87 3c 66 07 9a 3d 9d 84 38 3d 97 d1 c5 bd
       0.016542356 0.075209424 0.045048345 -0.09659117
000110 8a e3 2d bd 09 ab 33 bc f7 99 04 be aa 87 e1 3d
       -0.042453326 -0.010966071 -0.12949358 0.11012204
000120 9a 63 ff 3d f4 15 8e be d2 f2 1b bd c7 94 2e bd
       0.12470169 -0.27751124 -0.03807337 -0.042622354
000130 7c 68 86 bd ba d6 e5 bd 0d ab 51 bd 56 83 ed bd
       -0.065628976 -0.112225965 -0.051188517 -0.11597316
000140 62 a2 e3 bc 5d b6 13 be 8c bd df bd 9a 06 d6 3b
       -0.027787391 -0.14425035 -0.10924825 0.0065315487
000150 f9 a7 09 3d 31 35 77 3d 91 7c 80 be aa 75 8b 3d
       0.033607457 0.06035346 -0.25095037 0.06809552
000160 79 28 c6 bc da 25 79 3c ea fd cc bc 3c e6 9b bd
       -0.02418922 0.015206778 -0.02502342 -0.07612273
000170 a2 14 ad 3d 5b 8f f5 3c 61 d2 fc ba f0 ce 59 3d
       0.08451201 0.029975584 -0.0019288772 0.053175867
000180 bc 83 c4 bc e0 e6 33 bd ae 9f 94 bc 34 3a 1c bd
       -0.023988597 -0.04392135 -0.018142547 -0.038141444
000190 34 c0 bc 3c 41 e1 54 3c 9e 68 dc bd 49 fb 0b 3e
       0.023040868 0.012993158 -0.10762142 0.13670076
0001a0 3a 84 a8 3d 06 2e fa bd 6a 7c cb 3c 6d ca 18 3a
       0.08228345 -0.122158095 0.024839599 0.00058285036
0001b0 df c5 ae 3d d1 3f f9 bc b5 cd ca bd 5f 2b c6 3d
       0.08533835 -0.030425938 -0.09902517 0.09676241
0001c0 a4 ac a0 bd 07 97 14 3c 1f 0b eb 3d a2 7e ee 3d
       -0.078454286 0.009069211 0.114767306 0.11645247
0001d0 98 a8 12 3e 17 13 5a bd 00 d9 24 bd e9 ee 0b be
       0.14322126 -0.05324086 -0.04024601 -0.13665356
0001e0 75 bd ac bd 3a 3b af 3d 09 55 4f bd 68 fe 03 bf
       -0.084345736 0.085562184 -0.050618205 -0.5156007
0001f0 5a 20 f3 3d da 4b 6f 3d b8 8f 49 3c 0c 04 0a bc
       0.11871405 0.058421947 0.012302332 -0.008423816
000200 18 88 cc 3d e4 61 24 3c ab ff 26 be 9b 42 e5 bb
       0.09986895 0.010033105 -0.16308467 -0.0069964654
000210 f5 ca a1 bc 5a b5 2b bd c0 ab e1 bd 17 4e 41 3d
       -0.019750098 -0.041920997 -0.11019087 0.047193613
000220 5f b6 06 3c 3b 01 b6 be 3a 35 eb bc 13 74 b5 bc
       0.008222192 -0.35547814 -0.028711904 -0.022150075
000230 78 4d 5b 3c d7 ed 15 3d 9a c4 fe bc e1 82 21 be
       0.013385169 0.036603775 -0.031099606 -0.15772583
000240 d3 42 89 3d 4b 7d bd 3d ee d9 56 bd ee a3 de bc
       0.06702199 0.09252413 -0.052453928 -0.027177777
000250 9e 2e ef bc 50 60 b6 3d 04 0e 1d be 13 8b b1 3d
       -0.029197033 0.08905089 -0.15337378 0.086691044
000260 c8 2a 8e 3d 08 6a 1b bb be 32 8b 3a 8e 35 a9 3a
       0.069417536 -0.0023714323 0.0010619981 0.0012909637
000270 d5 27 cb bc f3 03 63 bd f1 a8 40 3d 64 71 d2 bd
       -0.024799267 -0.05542369 0.047036115 -0.10275534
000280 78 84 a7 3c f6 98 26 bd 1c 6f db 3d 23 2e bd bd
       0.020448908 -0.04067322 0.10714552 -0.092373155
000290 b1 93 81 3d 90 0f 00 be bc 1d 11 be df 61 f2 3d
       0.06326998 -0.12505937 -0.14171499 0.11835074
0002a0 76 cb 11 3e 95 3e 09 3e c0 77 92 bc 97 46 92 bd
       0.1423777 0.1340278 -0.017879367 -0.0714237
0002b0 95 75 89 bd b9 72 5c bd 6a f5 55 bd 21 1c 26 3e
       -0.0671188 -0.053820346 -0.052236 0.16221668
0002c0 e4 0e b2 bd 0d 47 70 bd 44 73 7c bc 82 ad 16 bd
       -0.086942464 -0.05866151 -0.015408341 -0.036786564
0002d0 b8 48 7c bc 4d 07 72 bd e4 e4 88 bd 27 fd 37 3c
       -0.015398197 -0.059088994 -0.066842824 0.01122979
0002e0 fa 6f 85 bd c7 85 8b 3c b6 ab 11 be b6 d4 66 be
       -0.065154985 0.017031563 -0.14225659 -0.2254208
0002f0 3d 53 8e 3d 96 cb dc bc 9a b0 cf 3d 2e 6e a1 3d
       0.0694947 -0.026952546 0.10141106 0.07882343
000300 bf b0 bd 3d 7b f5 9f bd d3 1c 8b bd c3 ac 2f bb
       0.09262227 -0.078104936 -0.06792607 -0.0026805855
000310 8c f0 ed 3d 22 4c b7 3c 29 88 9f bd aa 44 17 be
       0.11618146 0.02237517 -0.07789642 -0.14772287
000320 88 aa 50 3d 08 09 af be 4f 55 79 bd cc 59 14 bd
       0.05094388 -0.34186578 -0.060872372 -0.03621845
000330 e0 6a e6 3d 02 d1 03 bd a1 e5 8a bd 92 e7 d3 bc
       0.112508535 -0.032181747 -0.067820795 -0.025867257
000340 83 32 19 3d 0a 0f 44 3d ef 44 93 bd 3b 35 4e bd
       0.037401687 0.047865905 -0.071908824 -0.050343733
000350 7b 2c 67 be b7 ea 5a 3d 23 57 2c 3e 56 ba a7 bd
       -0.22575562 0.053446498 0.16830115 -0.08189838
000360 ba 2c 39 be 8e 19 a3 bc 6d 10 ae 3c 02 b3 a7 bc
       -0.18083468 -0.019909646 0.021248067 -0.0204711
000370 5e 25 1c bd 4d fa a9 3d fe 86 cc 3c 5c 9a dc bd
       -0.038121574 0.08299694 0.024966713 -0.10771629
000380 e3 2a a4 bc a6 34 24 bd bd 55 f5 bd 17 2f 21 be
       -0.020039981 -0.040089272 -0.11979244 -0.1574062
000390 f0 02 ca bd 10 0a 89 bd 2a 6e 14 be 3a 36 db 3c
       -0.098638415 -0.066913724 -0.14495149 0.026759256
0003a0 17 3d ee 3d 4a 5d 46 3c 93 37 dc 3d 3c 26 0b 3e
       0.11632746 0.012107203 0.107527874 0.13588804
0003b0 b3 4c 2f 3e 10 76 3e bd 4d 09 af bc 33 55 cc bd
       0.17119102 -0.046499312 -0.02136674 -0.09977188
0003c0 f9 a5 bd bd 67 0b 3a bc cc 8e a6 bd 06 bf 49 3d
       -0.092601724 -0.011355258 -0.08132705 0.04925444
0003d0 9f da aa bc 01 1e a6 3d 5c a1 1d 3c a8 f7 09 3d
       -0.0208562 0.081111915 0.009620991 0.03368345
0003e0 1d b1 d0 3d f6 a3 aa 3b 89 21 36 be ec 43 8e 3d
       0.10190032 0.005207534 -0.1778623 0.06946549
0003f0 9b 0a 1b 3d de 2e 07 bd 95 cf 9b bd 39 a3 df 3d
       0.03785191 -0.03300368 -0.076079525 0.10919804

final.bias f4 [43]
000000 5b 9a a8 be fe 22 32 3d 9e 13 1f be e7 2b 54 b8
       -0.32930264 0.043490402 -0.15534827 -5.0585626e-05
000010 2d 29 a5 3d d4 1a b9 3d fd b2 04 3e 98 08 f5 3c
       0.08064494 0.0903832 0.12958904 0.029911324
000020 f3 87 f5 3d e3 ee 32 be e1 04 31 3d 6e 4c 86 be
       0.11988821 -0.1747394 0.043217544 -0.26230186
000030 0c 90 31 3e 0b f9 30 3e 92 6f 29 be d6 47 0f 3e
       0.17340106 0.17282502 -0.16546467 0.13992247
000040 0b 3a 81 be 11 ae fa bd 9f 31 b8 3d 2f c5 95 be
       -0.25239596 -0.12240232 0.089938395 -0.29252002
000050 6e a4 7a 3a 31 ab a2 be 15 88 5e be 19 2d 51 be
       0.0009561245 -0.31771234 -0.21731599 -0.2042736
000060 57 c0 27 3e 93 f8 89 bd 7a cb 3a bd 21 98 ff bd
       0.16381966 -0.06736865 -0.045604207 -0.12480188
000070 a3 7b 6e bd 4e fc 6c be b4 2e 15 3e f4 f9 52 3e
       -0.058223378 -0.23143122 0.14568597 0.20603162
000080 40 34 83 3c ac f8 e1 3d c8 c1 b1 bd d1 92 eb bd
       0.016016126 0.110337585 -0.08679539 -0.115026124
000090 ab d5 e7 bd 84 9c a9 3d 22 0f 97 bd 8a c9 41 be
       -0.11320051 0.08281806 -0.07375933 -0.18924537
0000a0 67 38 82 be 60 11 2d bd 8e f9 a6 bd
       -0.25433657 -0.0422529 -0.081530675
