Robustness/models/base_epsilon_0.059.pth (torch, 263698 bytes, 10 tensors)

conv1.weight f4 [6, 1, 5, 5]
00000000: b787 19bd b9a2 dd3d 3db9 33bd bc4b f0bd
00000010: 7ff8 74bd 6886 513c 0234 be3d 9710 053e
00000020: 857d e7bc 6d67 98bd 04f2 143d 2b39 3bbc
00000030: 907a 6f3d 2780 443c 83cf d43d db49 f73c
00000040: a1de cfbc 5fbe 2abd 67b3 63bd 25a5 d93d
00000050: 1ebb 713b 5327 153d fc03 163d 933d a53d
00000060: eec7 46bd 9b41 523d bd03 7c3b 08b4 54bd
00000070: 7b05 83bc 1af0 6bbc 02e1 5c3b 0b86 48bd
00000080: d31d 82be 3fcb 10be 80ce 4ebc 5c38 4bbc
00000090: 7ba5 09be 7159 2d3e e5ac 583e bc69 ad3d
000000a0: ba7d 893d 038c e63d 9de3 043f d732 213f
000000b0: d7f9 a63d ee27 f5bc a735 1a3e 7b8c a73e
000000c0: 3c67 9e3e 8d2e c03d c93d 4f3c 5060 c83c
000000d0: 90b0 263b 1515 a8bd fe2d 263c a758 44bc
000000e0: 94d7 cbbb b9b9 25bd b386 273d 903a c8bd
000000f0: 2ba0 b23b c066 2cbc e584 80bc e934 4ebd
00000100: 34ff 5dbc d039 14bd a542 91bb 921e 83bd
00000110: 79b5 e13d 9815 8ebd db67 273d 008d 0bbe
00000120: c23c 3cbd 8cac 9dbb 5532 25bc 74c3 28bd
00000130: bf0e b7bc f644 6cbd b25e 6abd 8b22 fdbd
00000140: e0a3 6abc c51c 0dbd 81f0 ccbd 50a0 0b3f
00000150: 0780 433e 4966 90bb 0ed8 4abd 5d65 6fbd
00000160: b432 953f 7e8c 353f 1221 29bb 4eef 40bd
00000170: 47e0 1abe 7f5d 003d ffcc 2dbd 96f5 34bc
00000180: c8df 9ebb 1d15 5dbd 27c0 8dbd 6029 8abd
00000190: 0c1b 7b3d 151d 803d a44b 46bc 4538 073c
000001a0: ec48 9e3d 569c d83c 35f0 17bd f384 4fbc
000001b0: ca0d 4e3e e266 debc 354e 68bc 3845 5abd
000001c0: 4a8c 6d3e d978 a43e 27a5 12bc 8d78 423d
000001d0: acc2 ac3d e9f4 693e b7ef 423e ca7a c0bd
000001e0: 6c8e 55bc ea01 8a3c 5d1c 2b3a 5423 c0bd
000001f0: 775a 6cbd 1227 69bd 878a 01bd ad52 6cbc
00000200: cd45 87bd 98cd 79bd 6def f4bc 5f3d 84bd
00000210: 860e c9bd 0810 fcbd 5f85 35bd 54ea 49bc
00000220: ad7a 8cbd 4c26 a33e 85c8 1e3d 9a48 d1bd
00000230: 9465 edbc ff5d 063d 2db3 bd3f 3c12 ef3e
00000240: 7719 15be a759 693a 1250 aebd 03e6 943e
00000250: 9b5b 0fb9 42e6 d8bd
-0.037482943 0.108220525 -0.04387783 -0.11733195 -0.059807297 0.012788393 0.092872635 0.1299461
-0.028258095 -0.07441602 0.036363617 -0.011427204 0.058466494 0.0119934445 0.10391142 0.030186584
-0.025374712 -0.04168546 -0.055591013 0.10627202 0.0036885212 0.036414456 0.036624894 0.08068385
-0.04853051 0.051332098 0.0038454377 -0.051929504 -0.015993824 -0.014400506 0.003370345 -0.04895596
-0.2541338 -0.14140032 -0.012622476 -0.012403574 -0.13442032 0.1692865 0.21159704 0.08467433
0.067134336 0.11257174 0.5190981 0.629682 0.08153122 -0.029926267 0.15059529 0.32724366
0.30938137 0.09383879 0.012649008 0.024459988 0.002543483 -0.08207146 0.010142801 -0.011984027
-0.0062207673 -0.040460322 0.040899944 -0.09776795 0.0054512224 -0.010522544 -0.015688369 -0.050343428
-0.013549615 -0.036187947 -0.0044329935 -0.06402315 0.11020941 -0.069377124 0.04087053 -0.13628006
-0.04595638 -0.004811829 -0.010082801 -0.041202024 -0.022345899 -0.057682954 -0.057219215 -0.12360104
-0.014321297 -0.034451265 -0.1000681 0.5454149 0.19091807 -0.0044067246 -0.049522452 -0.058446277
1.1656098 0.709175 -0.0025807065 -0.04710322 -0.15124618 0.031339165 -0.042431828 -0.01104488
-0.004848454 -0.053975213 -0.06921416 -0.06746173 0.06130509 0.06255547 -0.012102995 0.008253162
0.077287525 0.026441734 -0.037094314 -0.012665975 0.20122448 -0.027148668 -0.014178802 -0.05328867
0.23198047 0.3212345 -0.008950508 0.047478247 0.08435568 0.22847332 0.19036756 -0.0939842
-0.013034444 0.016846616 0.0006527359 -0.09381738 -0.05770346 -0.056922026 -0.03162625 -0.014424008
-0.0660511 -0.060987085 -0.029899323 -0.06457018 -0.09817223 -0.12307745 -0.044316646 -0.012323935
-0.06859336 0.31865156 0.03876545 -0.10218926 -0.0289791 0.032804485 1.4820305 0.466936
-0.14560495 0.0008901604 -0.08511366 0.29081735 -0.00013671668 -0.10590793

conv1.bias f4 [6]
00000000: 58f8 d93e d4c2 f8be fe13 303e a947 863f
00000010: e105 6b3f a900 853f
0.42572284 -0.48586142 0.17195126 1.0490619 0.91805845 1.0390826

conv2.weight f4 [16, 6, 5, 5]
00000000: bfe0 ffbb 8b3b 7bbc 7f39 bd3c 3c0e 9abb
00000010: b8ff 32bc 9c0a c9bc e6b4 963d e7cd d53d
00000020: 6e2f 5a3d 8da2 48bc 9d05 3abd eee8 cd3c
00000030: 7dcb ea3d 3808 8cbb a67d d4bd a74f 76bc
00000040: 2617 033e f2e0 113d 5973 183e 3d6e 99bd
00000050: e20a c6bc 51ad 0fbd d8f9 f43d b386 f43b
00000060: 34a6 3cbd 17e9 633c 2223 233c 87fb fe3d
00000070: 021c 32bb 2bb2 4fbd 17fa 77bc e7ec 2e3e
00000080: 6fa0 813e eebd 313d f8e1 97bd f945 5e3c
00000090: 6920 0c3e 5f3a f93d 0285 7ebe 7147 35be
000000a0: cee6 8abb e8f7 353e 04e9 f63d 4480 49be
000000b0: ce2b 0dbd 9076 b13d 4103 423e 9d7d 4bbe
000000c0: cfe9 afbd 4b7a 9b3c bb2f 64bc 622d 06bd
000000d0: 99fb 0fbe de59 afbd 6ea7 c8bc b74d 553d
000000e0: b5c9 57bc 2a95 e2bd 8674 d1bd bd4b a33b
000000f0: 4f8c 17bc 0fce 0abd 24ea 8fbd adbe 413d
00000100: 101c f23d b5ea 2d3d bce3 8bbd bfaa 33bd
00000110: 64fc aa3d 51ff fa3b aa1e 55bc 18d4 18bd
00000120: 24ea a33d 5e06 cc3d c2e4 94bc 853c 903b
00000130: f94b 623b 78ae ab3d 673d 5c3d 0e15 133b
00000140: e457 19bc fd60 203e 0ee4 083e 598c 8e3d
00000150: 6873 d53c a31b abbc 7cc6 c43d b546 41bd
00000160: 220e acbe 6db9 47be 6a2e 713c 64a1 a63e
00000170: e6a4 8ebe 14c6 edbe ce0c 483d a0e1 513c
00000180: 8749 883e 0970 bcbe 1493 a0bc 4417 9e3d
00000190: e39c 0cbc f674 2b3d 5422 e03d b26b 273e
000001a0: 8692 9a3c 0bfa 19bd bb6c cc3d 313d 763e
000001b0: 1339 443c 5ebf d7bd 44cf a8bb fb16 b13c
000001c0: 1e81 0e3e 571d 41be 7a1d 70be aacf d83a
000001d0: 2ebf 7a3e 5aff 6b3e 2636 93be 30d7 853c
000001e0: c0e3 f7bb a3bd 023e 1e98 14be 571a 0fbd
000001f0: 5035 63bd f5c7 05bd e023 08bd 1ef9 d53c
00000200: 1b6a a73d 636b 023c e01d 29bd 5c62 163e
00000210: 059f 7b3e 7271 003e 9d6c 5ebd 6d8d 65bc
00000220: 7ec7 2c3d aa40 2f3e 4986 aabe 3812 2bbe
00000230: 0d50 8ebd 96ee fe3d a871 593e 5c8d 6abe
00000240: ec52 403d 261a 72bc 77e8 353d f028 2ebe
00000250: ba5d bdbd 5b85 2bbd e2fc 813b e77a 673d
00000260: 7b55 813d 3fdc 2c3d 647b fb3c ec99 1cbd
00000270: 1c7e 103b 6272 3e3e a163 193e 3660 903c
00000280: b0f5 39be 312c 283c cf96 2f3e 7a5b 153e
00000290: 0d16 9d3d 78dc 563d 543c 96be b8eb 313e
000002a0: 0206 0a3e ca43 053d dd24 e33c ed4e fbbc
000002b0: d964 a1bd c1ca a03d 8a4e 1c3d 06c1 243b
000002c0: 1ce7 9bbc daed 63bd 71bc cfbc 4a7f 4abc
000002d0: 8af8 04bc 1f06 853e 3695 da3d 24ce 1b3c
000002e0: b116 893d 6a89 f8bd f022 b4bb 72f9 c03d
000002f0: e5fd 37bd 677a 79bd 0fe4 543c be67 78be
00000300: 8cc1 e6ba 13a3 0e3e 70c6 f73c 336e 84bd
00000310: c8be bdbd 01bb e0bb db2b a73d f501 2a3d
00000320: 3c64 54bd 6021 cabd ef8f aebd c669 03bd
00000330: 7ef6 09bd c804 823c 1492 97bd e87f 14be
00000340: 2528 5ebc 0b81 59bb 1a93 cd3d 47bc debb
00000350: 0a40 4fbd 084a aabc f96f 443a ba26 a23d
00000360: 671e 233c f5fa 9fbd f7b2 613d ccd4 1e3c
00000370: 5d6c aabc 59f8 7d3d 40f1 93bc 6ffc 563d
00000380: f389 b73c 5237 163d 205d 7e3d f8e1 0c3d
00000390: 8185 21bd e566 75bc 2d7f 673c 9bc7 963e
000003a0: 942b 6f3d 0b3d 25bd dc83 a6bc bc98 aebe
000003b0: ea25 f23e b710 a33d f0db ecbd 2ed0 14bd
000003c0: 21b3 e2be 3b4a 41be f0d1 ca3e ca1e 22be
000003d0: a9aa 04bd 5c84 0d3d 02c2 3cbe 03cb dd3d
000003e0: 2c90 343e b223 59bc 3dd7 a5bd 2c82 9f3d
000003f0: 7f41 1c3e 7aee 7d3d a86e 923c 22b4 b4bd
-0.0078087742 -0.01533402 0.023098705 -0.004701404 -0.010925226 -0.024541192 0.073587224 0.104396634
0.05326789 -0.012245786 -0.04541551 0.025135484 0.114645936 -0.0042734407 -0.10375528 -0.015033639
0.12801799 0.035614915 0.14887752 -0.074917294 -0.024175111 -0.035077397 0.119617164 0.0074623465
-0.04605694 0.013910553 0.009957107 0.12450319 -0.0027177338 -0.050707024 -0.01513531 0.17082559
0.25317714 0.04339402 -0.07416147 0.0135664875 0.13684238 0.121693365 -0.24855426 -0.17703034
-0.00423894 0.1777035 0.12056163 -0.19677836 -0.034465604 0.08665192 0.18946554 -0.19872136
-0.08589517 0.018979212 -0.013927395 -0.032758124 -0.1406082 -0.08562063 -0.0244939 0.052076068
-0.013170649 -0.11063607 -0.10227303 0.004983394 -0.009249761 -0.03388792 -0.07027081 0.047300983
0.11821759 0.042460162 -0.06830546 -0.043864008 0.08348921 0.0076598306 -0.013007799 -0.037311643
0.08003643 0.09962152 -0.018175486 0.0044017457 0.0034530147 0.08382887 0.053769495 0.002244297
-0.009359334 0.15661998 0.13368246 0.06960363 0.026056007 -0.020887202 0.096081704 -0.047186572
-0.33604532 -0.19504328 0.014720539 0.32545006 -0.27860183 -0.46440184 0.048840337 0.012810141
0.26618597 -0.36804226 -0.019601382 0.07719281 -0.008582327 0.04185959 0.109440476 0.16349676
0.018868696 -0.037591975 0.09981676 0.2404678 0.011976498 -0.10534547 -0.005151661 0.021617403
0.13916442 -0.18858849 -0.23448744 0.0016541381 0.24486992 0.23046628 -0.2875225 0.016337961
-0.0075649917 0.12767653 -0.14511153 -0.03493723 -0.055470765 -0.032661397 -0.033237338 0.026119765
0.08174535 0.007960173 -0.041288257 0.14685959 0.2457238 0.12543276 -0.0543028 -0.014010769
0.042182438 0.17114511 -0.33305576 -0.16706169 -0.06948862 0.124478504 0.21234763 -0.22905487
0.04695408 -0.014776742 0.04441115 -0.17007804 -0.092463925 -0.041875225 0.0039669136 0.056513693
0.06315132 0.04220223 0.030698486 -0.03823273 0.0022047823 0.18598321 0.14979412 0.017624002
-0.18160129 0.010264442 0.17147373 0.14585677 0.076702215 0.05245635 -0.29342902 0.17375076
0.13478854 0.03253535 0.027727539 -0.030677283 -0.07880563 0.07851172 0.03816084 0.0025139465
-0.0190311 -0.055646755 -0.02535841 -0.01235945 -0.008115897 0.25981233 0.10672991 0.009509597
0.06693781 -0.12135585 -0.005497329 0.09422578 -0.044919867 -0.060907748 0.0129938265 -0.24258325
-0.0017605289 0.13929395 0.03024599 -0.06466331 -0.09264904 -0.00685823 0.08162662 0.041505773
-0.051853403 -0.09869647 -0.08523547 -0.032083295 -0.03368234 0.01587142 -0.07400909 -0.14501917
-0.013559376 -0.0033188488 0.10037823 -0.0067973468 -0.05059818 -0.020787254 0.0007493492 0.07917543
0.009955979 -0.07811538 0.055102315 0.009694289 -0.020803625 0.06200442 -0.018059373 0.052486833
0.022404647 0.03667385 0.06210053 0.034395188 -0.03943396 -0.014978145 0.014129442 0.29449162
0.05839117 -0.04034142 -0.020326547 -0.34100902 0.4729455 0.079621725 -0.11565387 -0.036331348
-0.4427729 -0.18875973 0.39613295 -0.15832058 -0.032389317 0.034550056 -0.18433383 0.10829737
0.17633122 -0.013253139 -0.08097694 0.077885 0.1525936 0.061995007 0.01787503 -0.0882342

conv2.bias f4 [16]
00000000: eda7 173e d6da 8b3d dff9 903e d29b 1e3d
00000010: 5e64 7e3e 4022 1a3d 8af5 5a3e 13c1 7abd
00000020: 29b5 2f3e bdc7 713e 8d1c 3b3e a9d3 053e
00000030: 5ad5 cf3d 248b a53d 8c5e 343e 7023 083e
0.14810152 0.06828849 0.28315637 0.03872282 0.24842975 0.03763032 0.21382728 -0.061219286
0.17158951 0.2361135 0.1827261 0.13069023 0.101481155 0.080831796 0.17614192 0.13294768

dense1.weight f4 [128, 400]
00000000: f361 74bd 0dfe 56bd b35c 65bd 4fbf 5fbd
00000010: 4257 febc 6ee9 503c 5333 38bd e1d9 d33d
00000020: 22db 923d d5a7 1a3c afae df3c 9f27 893e
00000030: f211 b83c db5f bf3d 06ea a63b f5a3 113d
00000040: 671e 423e aa0e 79bc 29c8 9a3d 2240 ccbb
00000050: 1203 813b 4622 cdbb b636 533d fc8d 973c
00000060: 12c2 b4bc 1200 103c d84f 703c ca05 94bd
00000070: 1a4d 8abd 7bc8 e7ba 7fb0 b5bc fdbd 953c
00000080: 7ac1 073d bb79 edbc 869f 2e3d e3a6 2ebd
00000090: f40e 663e 7c42 8cba dc94 663e 7882 103d
000000a0: 0e53 ae3b f318 0f3e 30e9 4abe 9206 b53d
000000b0: 5bc0 debd de5c f83c 01eb e93d 8844 853d
000000c0: bfc2 1e3d 4e52 86bd 8e0e d43b a4ab ec3c
000000d0: 9e76 7d3d 6bb2 d0bc 0193 c1bc 0873 6ebd
000000e0: 2fde bebd e1b8 81bd 9f95 983c 4ef3 3dbd
000000f0: e003 afbb 777d 8e3e 779c 733e cbde bf3d
00000100: 0625 923d 9093 9abd 1bb4 9a3e 1552 353e
00000110: 08eb fd3c d9fd 6b3d e02f 3b3c cc65 8b3c
00000120: 274b ab3d 0808 a13d 6939 9d3d 934e 83bc
00000130: 982c 18bc 338f 5d3d 4ed0 613d a4bb ca3a
00000140: 4bd8 81bc 32e8 7fbd 5a5c 54bd 03b6 063d
00000150: cbfc 82bc 00f2 863d 99ae 8dbb a15e 98bd
00000160: 34c4 1abd a1e7 b1bc 5305 cf3b da16 e5bd
00000170: b65f 6d3c e343 c3bd 2a0e debd 5244 083d
00000180: 3a6b a93d 7bbb 8fbd abe3 5a3d 94ec aebc
00000190: 7d8b 173d b315 c03c 1dcf 9d3d 096e 873d
000001a0: 63e7 0f3c 3318 0cbd 84aa e23b 39a4 563d
000001b0: c5e9 10bd a698 b33c 643c 17be f1e6 0cbd
000001c0: 5b65 6b3e f0e8 0b3e 351e c6bd ba04 09bc
000001d0: da01 6b3c 8b4c 29bd 55b2 12bd 012c 98bd
000001e0: 1e9d 443d b9ff 873c 16ee d53d d4fa b03d
000001f0: 38ff f43c ff3a dbbb 94c8 e8bc 6f0d 0abd
00000200: 060b a9bc 1d3a baba 56ac 453d bc99 87bd
00000210: 6491 02bd 604c 8a3d a589 1d3c 5efc ff3d
00000220: 45e1 31be f258 9b3b 71b6 493e d0ed 403d
00000230: b1f0 b63d c10a 233e c5c6 48be 9e82 c13d
00000240: 9fde 713d bf34 18bd 3748 91bc c4ac 9bbd
00000250: 5097 3dbd f820 cabc 1fdc 9bbc ccd6 aa3c
00000260: 7884 593b fc49 943d 9f6b 513d 71a4 90bc
00000270: 65af 5e3c 4362 8dbd 7b2c 0d3e a26d a13d
00000280: 9168 7e3b 2853 603c 2cea 7d3e 4a16 b83d
00000290: 6d8a 8fbc 4762 3c3c b0ff 0abb c548 b93d
000002a0: d19a 44be ad56 27bd ddfb 30bc 38f8 053d
000002b0: 90a6 00bb 8751 d1bd 0ad5 62bd 7c5f dd3c
000002c0: c6ac be3d 7f22 1e3d 1779 313d e1b6 573d
000002d0: 3469 223d bb15 623d efe5 4d3d 08e5 833c
000002e0: 152e 4ebc 6935 b63c e230 0c3e e439 6dbd
000002f0: 2738 543c 05a5 7abb 1905 6cbc 4467 c43d
00000300: 1f12 7fbd aba0 e3bc 5b29 c63c 06fb 1bbd
00000310: 50a9 dabc 24ed cfbd 415d aabd e736 84bd
00000320: f7a2 5b3a a01c 72bc 84cd 61bb 8f6e bfbc
00000330: f0e3 3bbc 2c85 16bd 5a0a d4bc e869 a5bd
00000340: a84a 183c 9120 073c 9208 34bd 0630 e23c
00000350: 51b8 adbd bd41 97bd 2114 3dbb 05a8 4d3d
00000360: c73e 49bd c132 1c3e 6113 173c 85da 5c3c
00000370: 4782 513d 0d8f 6b3d 742b a3bd e02d 6bbd
00000380: 95aa 013d efed 1dbc 4a73 3abd 419f 783d
00000390: 4269 4b3c 24b7 353c 8243 9d3c f0cc a0bc
000003a0: 23d9 4bbe 9ec2 d93c bbd4 19bc ee74 b2bd
000003b0: 3520 babd b21a 25be bcd6 82bd 91d5 36bc
000003c0: e3e3 2b3d 571b 0f3c 1152 60be 552e d0bd
000003d0: f3de 74bc 40dd cabc 84f5 0d3c 4d38 cbba
000003e0: 43fa debd 8a84 a0bd e42e 45bc fe0e 32bd
000003f0: 8a0d 88bd a32f 39bd e116 adbc 1e84 9f3b
-0.059663724 -0.052488375 -0.055996608 -0.054625805 -0.031047467 0.0127509665 -0.04497082 0.103442915
0.071707025 0.009439428 0.027304975 0.2678804 0.022469494 0.09344455 0.0050938157 0.035556752
0.1895691 -0.01520125 0.07557709 -0.006233231 0.0039371336 -0.006260189 0.05156585 0.01850032
-0.022065196 0.008789079 0.014667474 -0.07227667 -0.06752987 -0.0017683649 -0.022178886 0.01827907
0.033143498 -0.02898871 0.042632602 -0.042639624 0.22466642 -0.0010700966 0.22517723 0.035280675
0.0053199595 0.13974361 -0.19815516 0.08839144 -0.10876533 0.03031772 0.114217766 0.06507212
0.038759943 -0.06558667 0.0064714616 0.028890438 0.0618807 -0.025475701 -0.023629667 -0.05821517
-0.09319722 -0.06334091 0.018626032 -0.04637461 -0.005341038 0.27830097 0.23790155 0.09368666
0.07135968 -0.075476766 0.30215535 0.17707093 0.03099586 0.057615135 0.0114249885 0.017016314
0.083639435 0.0786286 0.07676966 -0.016028678 -0.009287976 0.054091644 0.055130295 0.0015467298
-0.015850207 -0.062477298 -0.051845886 0.032888424 -0.015989682 0.065891266 -0.004323792 -0.07439924
-0.03778477 -0.021716895 0.0063177734 -0.11185999 0.014488151 -0.09534433 -0.10842545 0.03326828
0.08272405 -0.07018181 0.053439777 -0.021353044 0.03699826 0.023447847 0.07705519 0.066127844
0.008783194 -0.034202766 0.0069172997 0.05240271 -0.03537919 0.021923374 -0.14769131 -0.03439993
0.22987883 0.13663077 -0.0967373 -0.008362943 0.014343703 -0.041332763 -0.035814602 -0.07430268
0.0480014 0.01660143 0.10445802 0.08641592 0.029906854 -0.0066903825 -0.028415956 -0.033704218
-0.02063514 -0.0014207993 0.048260055 -0.066211194 -0.031876937 0.067528486 0.009615337 0.12499307
-0.1737109 0.0047408277 0.19698502 0.047101796 0.08932627 0.15922071 -0.19607075 0.094487414
0.0590502 -0.037159678 -0.01773463 -0.07601312 -0.04628688 -0.024673924 -0.01902586 0.020854376
0.003319053 0.07240674 0.051128026 -0.017656537 0.013591622 -0.069035076 0.13786499 0.07882239
0.003881965 0.013691701 0.2479636 0.08988626 -0.017522061 0.0114980405 -0.002120953 0.09047083
-0.19199683 -0.040854145 -0.010802236 0.032707423 -0.001963053 -0.10220628 -0.05537895 0.02702307
0.09310298 0.038607117 0.04332837 0.05266464 0.03965111 0.055196505 0.05026811 0.016100422
-0.012584229 0.022242265 0.13690522 -0.057916537 0.012952841 -0.0038245332 -0.014405512 0.09590009
-0.06227314 -0.027786573 0.024189642 -0.03808119 -0.026692063 -0.10152653 -0.08318568 -0.06455784
0.00083784707 -0.014777333 -0.0034454772 -0.023368148 -0.011467919 -0.036748096 -0.025883842 -0.08076841
0.009295143 0.0082475105 -0.043953486 0.02761079 -0.08482421 -0.073855855 -0.002885111 0.050209064
-0.049132135 0.15253736 0.009220929 0.0134798335 0.051149633 0.05750947 -0.079672724 -0.057416797
0.03165682 -0.009639247 -0.045520104 0.06069875 0.012415232 0.011091027 0.01919723 -0.019628972
-0.1990705 0.026582059 -0.009389098 -0.08713709 -0.09088174 -0.16123465 -0.063886136 -0.011159317
0.041965377 0.008734546 -0.21906306 -0.10165087 -0.014945733 -0.024763703 0.0086644925 -0.001550445
-0.108875774 -0.0783778 -0.012035105 -0.04347133 -0.06643207 -0.045211446 -0.021129074 0.0048680445

dense1.bias f4 [128]
00000000: a3d0 253d 806d 3e3d d86b a5ba 5d6d be3d
00000010: 3d1b c23c 04e4 463d acdb 79bc 5912 763e
00000020: 408b a23c 231d 683d 3f67 b5bc 5986 29bd
00000030: 29a9 69be f7ad 92be 5bb6 fabc 5401 633d
00000040: 04e5 a9bc 7acf 9c3c 84a3 46bc c8d9 87bd
00000050: 16cd aabd 4e99 31bd 338c 2dbd 9e73 2abe
00000060: 9f94 223e 87c5 96bc 288b a93a 69c0 073e
00000070: ac27 833b dbee ed3d d29b ee3d 1ea3 edbc
00000080: cf21 8c3d e847 273c 0ee8 543d d84b 39bd
00000090: 1bd1 a5bc 2150 9abb aa63 08bd 3c4a 31bc
000000a0: 49ed 193d b5a4 313c 81d1 77ba cd27 123d
000000b0: 818a d9bd 8520 23bd 6c22 293b 1775 c9bc
000000c0: e29b bcbc 0497 77bd 1e6e d5bd 4fce 4bbd
000000d0: cf3a 063e 5dc3 e03d f251 cdbb 9f7d 333e
000000e0: 83ba 75bd 90a1 b23d 6abc 4d3e a138 043d
000000f0: 4b73 603d 7d41 1dbb cd6d c03d 7fde 87bd
00000100: 5f8e 97bd 0b09 063e 637f 533c 13e5 073e
00000110: 9b1b b8bc 10d8 02bd b23b 393d c8ea 893a
00000120: b901 763e 5a24 563b 0967 403e d548 27bd
00000130: 50b0 fc3c 4863 163e c339 643d b181 943d
00000140: f4f3 acbc 3e7c 653e d23f 0a39 af0e 8fbb
00000150: cb1a b63d 247b bd3d 1dd6 9b3d 6d80 053d
00000160: 52e6 073e 3fb5 bebd 50d5 0e3e 808e 1c3d
00000170: 6aaa 2c3e 4f77 31bd 52eb 8d3c 9e56 99bd
00000180: 3bc9 dc3d 7bce 0dbd bdfe 0dbd cf5b e4bc
00000190: bb7c aa3d 3934 c5bd 00ce 34bd 9ef5 db3b
000001a0: 0e9b 4abd 5196 57bd 6948 acbd 96bb b8bc
000001b0: cd3a 8cbc 2881 793e 936d ba3e f0c3 023d
000001c0: 0340 8e3c a622 6f3e 5f8d d7ba 2f5b 76bd
000001d0: 645a c8bd c264 103e 3339 093a ef2c 583d
000001e0: 4cc0 34bd 39b5 c9bc 93f2 38bd cc07 0b3d
000001f0: 18c1 f53c 3b40 923d eb51 833d 6360 4fbd
0.040482175 0.046491146 -0.0012620641 0.09298203 0.023694629 0.048557296 -0.015250128 0.24030437
0.01984179 0.056668412 -0.022143958 -0.04138789 -0.22818436 -0.2864835 -0.030604532 0.05542119
-0.020739086 0.019141901 -0.012123946 -0.06633335 -0.08339898 -0.043359093 -0.042370033 -0.16645667
0.15877007 -0.018404735 0.0012935149 0.13256992 0.004002532 0.11617824 0.11650814 -0.029008444
0.06842386 0.010210015 0.051979117 -0.045238346 -0.02024131 -0.004709259 -0.033298172 -0.0108209215
0.03757981 0.010842492 -0.0009453521 0.03568249 -0.10622121 -0.039825935 0.002580787 -0.024591966
-0.02302355 -0.060446754 -0.10421394 -0.049757298 0.13108371 0.109747626 -0.006265872 0.1752839
-0.059992325 0.08722222 0.20091406 0.032280568 0.054797452 -0.0023995333 0.09395943 -0.06634235
-0.07400202 0.13089387 0.012908789 0.13270979 -0.0224741 -0.031944335 0.045222946 0.0010522241
0.24024095 0.0032675476 0.18789305 -0.040840942 0.030845791 0.1468631 0.05571915 0.07251299
-0.02111242 0.22410676 0.0001318448 -0.004365764 0.08891829 0.09252003 0.07609198 0.03259318
0.13271454 -0.09311914 0.1394856 0.038221836 0.16861883 -0.043326672 0.017324124 -0.07487224
0.10780569 -0.034620743 -0.034666765 -0.027875809 0.08324572 -0.09629101 -0.04414177 0.0067126295
-0.049464278 -0.052633587 -0.08412249 -0.022550385 -0.017117882 0.24365675 0.36411723 0.03192514
0.017364508 0.23353061 -0.001644533 -0.060145553 -0.09782866 0.14100936 0.00052346586 0.052777227
-0.0441287 -0.024622547 -0.04515321 0.033942983 0.0299993 0.07141157 0.06412109 -0.05062903

dense2.weight f4 [64, 128]
00000000: 39db fb3d 3dc0 783d 6b40 3d3d d4f6 cc3d
00000010: 6163 0fbe 662e 93bc a07f 88bd c310 19bc
00000020: cd73 88bd f61d 0abe adc8 ba3c 5f3d 853d
00000030: aee6 b3bc f585 d3bc ed9e b93c 0606 18be
00000040: 6c69 9dbd 860a 22be c8fe b13b d164 d43d
00000050: 9c1e c33d 1d4c dd3d fb91 4abd 665d d03c
00000060: 2adb 83bc aa80 86bb 5bf7 ac3d 2dab 583d
00000070: 49f5 403c de94 c5bd 2b32 323d 06a7 e93c
00000080: 4775 403d 1d0a 0e3d e50f 24bb af85 273d
00000090: ea40 003c 4a0e 65bd f688 8bbd 19d3 d63d
000000a0: b268 2b3e 6fa1 e4bd 20d7 e0bc 723f 5cbd
000000b0: efec f33d f728 873d 7955 a3bc 1de2 c83d
000000c0: 1445 dcbc 83fd 4c3e 2108 2b3e 360c 8c3c
000000d0: 8fef 633e 7c8d 38be 51e4 60bc a075 753b
000000e0: baa1 90bd 82e3 06be 4cf4 213c 86dc dfbb
000000f0: 4a02 6dbd abc9 883d 63e2 2b3d 6dae d0bd
00000100: e60d c1bc e275 23bd 0de0 423d 34d0 8cbd
00000110: 7190 d73c bca6 5a3d c917 94bd 16d1 e7bc
00000120: 55e0 17be dcb9 213e f288 c93c 58f7 61bc
00000130: b5e7 35bc f697 19be 377d e7bd 92e4 0d3e
00000140: 60ea 24bb 6f36 3ebd 6534 863d 2198 803d
00000150: 7800 aa3d aebb e13d b137 6bbd 8086 85bd
00000160: 7632 a7bd 397d 483e 4f99 7ebd aeb5 b8bc
00000170: 2f3a 0a3e 9102 bfba 3358 ff3b 70cc aa3d
00000180: 1c0f 733d 506f 803d 0e18 56bd 9fd6 0c3c
00000190: 06ea 1bbe 22d7 f9bc a8b5 d23d fc22 6abc
000001a0: 73ce aabc 5c5d a43d 5791 0fbe 271c 843b
000001b0: 7145 b13d 6a01 64bd e739 0a3d 11db 54bc
000001c0: 404f 623d 4176 59bd 1c7b a63d ada7 083d
000001d0: ff61 183e 2ed1 f63d 9117 563d 1cbc 0e3e
000001e0: 2021 983a 5f1d 243d 4f58 55bd a158 97bd
000001f0: da4d 8e3d f514 c3bd a67d c7bd 9d25 413d
00000200: 5a9c 76bc 5966 9f3d 71aa 2bbd 33af e43d
00000210: d0fe 1abd 4031 ac3d 7076 21bd 8e5a 30be
00000220: 1f1b 2abc e33e 04bd 9f03 0abd a054 a43d
00000230: df4f acbd 1d3d 87bd 06c6 903b e2d9 0f3e
00000240: b562 85bd 2552 cdbc c573 873d c398 0abb
00000250: 8e87 ccbc b7c6 f1bc 3e51 ef3c 7eca 3b3d
00000260: 75c4 383e 6272 f9bc df8a 89bd deca 4fbd
00000270: f082 e23d 5c7a e43d dcb4 27bd 0822 adbd
00000280: e908 123d a331 3abd c1ef 2fbe 2f17 65bc
00000290: 91f8 91bd 2f51 8dbd 89a5 9e3d 62e7 7c3c
000002a0: 52fc d33d 2939 09bd 66c7 4d3d 4c2d b4bd
000002b0: 1e28 683d 053a 6b3d 7fac fbbc e884 dc3d
000002c0: e8c5 95bc bcc3 903d 55b2 dbbb 25a5 f4bc
000002d0: c631 7b3c 58be 603d c686 87bd d51f f7bd
000002e0: 891f acbd 377d 9dbc 6ed2 4dbd a464 1f3c
000002f0: e25c 8fbd 3aea 2abd ad8c 443e 30c1 3cbd
00000300: 6728 c23d 0f99 fcbd 34eb 773d bebb 03be
00000310: 2d82 a53d 7aa5 c93d c9e7 173d 392a 983c
00000320: 3d73 aa3c fd05 1f3d d378 0a3e 040f 9f3d
00000330: 4561 523e a2bf 6d3e fbc9 f7bc 4047 023e
00000340: b7f6 8cbd 86ff 3f3d fd09 a23d eba9 103c
00000350: cd23 5bbc 64ac c63d 66f4 643e 39be d3bd
00000360: 35f3 dfbb 264c 073e c7de 013d 6970 19bd
00000370: 361c 2a3d f3fa 2abd c36f 22bd 7d90 273c
00000380: 6a13 b73c 048c 47be b330 7c3d 3caf 9e3c
00000390: 7e62 f1bd fbb2 d13d 5546 8e3d 5665 773d
000003a0: 08b6 9f3d c506 c83d 7e91 efbc da65 713d
000003b0: 7ef4 a33d c49f e4bc ae91 80bd 8af2 83bd
000003c0: 3711 87bd cafd aebd 41b6 86bd cd32 9fbd
000003d0: e485 003e ed85 a03d f250 46bd 7dfb eebd
000003e0: 2c1a aabd 8232 b43d 4503 7fbd ff89 b7bd
000003f0: f654 c2bc e215 383d 371d 303d 6596 ad3d
0.12297673 0.060730208 0.046204012 0.10008016 -0.14002754 -0.01796646 -0.066649675 -0.009342375
-0.06662712 -0.13487992 0.022800768 0.06505846 -0.021960583 -0.025820712 0.02265879 -0.14846048
-0.07686123 -0.15824327 0.0054319836 0.10370792 0.09527323 0.10805533 -0.049455624 0.02543516
-0.016095717 -0.0041046934 0.08445617 0.05289762 0.011777231 -0.09647535 0.043504875 0.028522026
0.046986844 0.034677614 -0.0025033888 0.040898975 0.007827977 -0.05592183 -0.068132326 0.104894824
0.16739157 -0.111636035 -0.02744633 -0.053771444 0.11910426 0.0659961 -0.019938217 0.09808753
-0.026888408 0.20018582 0.1670232 0.017095666 0.22259353 -0.18022722 -0.01372631 0.0037454143
-0.07062097 -0.13172725 0.009884905 -0.0068317084 -0.05786351 0.0667909 0.041963946 -0.10189519
-0.023566198 -0.039907344 0.047576953 -0.06875649 0.026313992 0.053381667 -0.07231099 -0.028297942
-0.1483167 0.15793556 0.024601433 -0.0137918815 -0.011102607 -0.14999375 -0.1130318 0.13856724
-0.0025164112 -0.04643863 0.06552962 0.06279016 0.08300871 0.11022125 -0.05742616 -0.065197945
-0.081639215 0.19579019 -0.062157925 -0.02254757 0.13498758 -0.0014572908 0.0077924966 0.083397746
0.05934058 0.06271231 -0.052269034 0.0085960915 -0.15225992 -0.030498091 0.102885544 -0.0142905675
-0.020850396 0.080256194 -0.14020287 0.0040316763 0.08655823 -0.05566541 0.033746626 -0.012991683
0.05525136 -0.05309129 0.0812895 0.033363033 0.14881133 0.120516166 0.05226857 0.13938946
0.0011606552 0.040067073 -0.05208617 -0.073899515 0.06948443 -0.095254816 -0.097407624 0.04715501
-0.015051926 0.07783193 -0.041910592 0.11166229 -0.037840664 0.08407831 -0.03941959 -0.17222044
-0.010382443 -0.032286536 -0.03369486 0.080239534 -0.08413672 -0.06603453 0.0044181375 0.1404796
-0.065129675 -0.025063584 0.06613878 -0.0021148182 -0.024966981 -0.0295137 0.029213544 0.04584741
0.18043692 -0.03045005 -0.06715941 -0.05073058 0.110601306 0.11156151 -0.040943965 -0.084537566
0.03565303 -0.045457494 -0.17181303 -0.013982578 -0.071274884 -0.0690025 0.07746417 0.015436025
0.10350861 -0.033501778 0.05023899 -0.08797702 0.056678884 0.05742838 -0.030721901 0.10767537
-0.018282846 0.07068583 -0.0067046084 -0.029863903 0.015331691 0.054869026 -0.06617503 -0.12066618
-0.08404452 -0.019224746 -0.05024951 0.009728584 -0.07000138 -0.041727282 0.19194289 -0.046082675
0.094803624 -0.12333881 0.06052704 -0.12864587 0.0808147 0.09846015 0.037086282 0.01857482
0.020806903 0.03882407 0.13522653 0.07766536 0.20544918 0.23217633 -0.030247679 0.12722492
-0.068829946 0.046874546 0.07912061 0.008829574 -0.013375235 0.0970085 0.22358856 -0.103390165
-0.0068344125 0.13212642 0.031706598 -0.03746072 0.04153081 -0.04174323 -0.039657366 0.01022732
0.022348125 -0.19487005 0.06156988 0.019370668 -0.11786364 0.10239216 0.069470085 0.060399376
0.077983916 0.09766916 -0.02924418 0.058935024 0.080056176 -0.027908213 -0.06277786 -0.06442745
-0.0659508 -0.085445 -0.06577731 -0.07773361 0.12551075 0.07838044 -0.04841704 -0.11669061
-0.08305773 0.08798696 -0.062258977 -0.089618675 -0.023722153 0.044942744 0.04299661 0.08475951

dense2.bias f4 [64]
00000000: 344f 453d e9ba cfbd c7d5 c7bd 3109 8cbd
00000010: 6c6e 693d 463c ed3d f4c1 ac3d b42a 8d3d
00000020: 502b bc3d b2f1 793d 20cf a0bd a47e ba3d
00000030: de83 b93d c74e 3cbd 3614 f13d 16ea 0d3e
00000040: 9156 133d 9726 243e 0251 0a3d 76c6 c6bd
00000050: b439 1e3e 25bc acbc deec da3d d783 96bd
00000060: c509 5b3d e3e8 103e 99dd ab3c bdf9 e13a
00000070: 06b0 023d 1c36 1d3e 6a4c 8ebd f826 053c
00000080: e8cd 12be deb3 dd3c f041 d7bc cb24 a63c
00000090: de15 9bbd 6f89 013e c9c2 09be 6c7f 803e
000000a0: 9c39 7bbd 81f1 a9bd faf6 babd 790e 35bc
000000b0: 8289 bc3d 7351 c0bd 511e 103e 1586 083e
000000c0: 031c 243e cf40 ef3d db45 193e 5743 473e
000000d0: c71a 5b3d d0ee 27bd a446 583c 18aa c53d
000000e0: 7301 943d 68bc 273d 49ab 4c3d d908 72bd
000000f0: d52a 4e3e 8a8d 063d 8160 4f3e 1d67 b2bc
0.048171237 -0.10143072 -0.09757572 -0.068376906 0.056990072 0.11583762 0.08435431 0.068929106
0.09187949 0.061021514 -0.07852006 0.09106186 0.09058355 -0.045973565 0.11771433 0.13858828
0.035971228 0.16030346 0.03376866 -0.09705822 0.154517 -0.021085808 0.1068971 -0.07349365
0.053476114 0.14151339 0.02097969 0.0017240566 0.03190615 0.15352672 -0.069481686 0.008126967
-0.1433636 0.027063306 -0.026276559 0.020281216 -0.0757253 0.12650083 -0.13453211 0.25097215
-0.061334237 -0.08298016 -0.09129138 -0.011050814 0.09205915 -0.09390535 0.14074065 0.13332398
0.1602631 0.11682283 0.14968054 0.19459282 0.053492334 -0.040999234 0.013200436 0.096515834
0.07226839 0.040951163 0.049968038 -0.05909047 0.20133527 0.032849826 0.20251657 -0.021777684

final.weight f4 [43, 64]
00000000: 1964 23bc 583c 2b3d 3dfa ce3d e784 fbbd
00000010: 4b52 70bd 9ca0 013e f923 adbd 26cd 0fbf
00000020: 13da d8bd cae2 61be 1257 08be d91b 8cbe
00000030: 94dd 8d3d aa8f 7a3d eaf3 30bd 4aab fdbd
00000040: 44ef 373d abf3 063e 5af6 8bbe 64d4 a1bd
00000050: 1495 563d 1f92 4f3d 4819 a13c fbac 223d
00000060: 3755 bb3c 8e4e 1e3d ac87 13bd 80fa e7bd
00000070: 2c1f fdbc 0316 49be 99ad 1cbd dd8a fb3c
00000080: 8196 0abd 4015 ab3d fb4b a13d 8e5f 173e
00000090: 9581 96bc 7a85 1bbb 65a9 ccbd bb41 50bc
000000a0: c7a8 14be f0d8 6b3d d04b 06bd 817d 05bd
000000b0: 97d5 b03d 2491 56bc 71ff 653d 39fc 053e
000000c0: afcd 023d f4be 18ba 7542 bc3d 9f39 363d
000000d0: d9da 003e 6521 003d 7eaf 203e f6b3 2fbd
000000e0: 1450 82be 6352 6bbe fa6a 53bd 6bcb 7f3b
000000f0: 2669 12bf dd48 95bd acf4 203e 15cf 433e
00000100: b8ff 14bd 1120 e3bd 257c 1c3b b328 fd3b
00000110: 2714 18bc 718f a03d 1cd8 e6bd 6968 92bd
00000120: 813f 7cbd 9278 69bc e025 60bd 6f24 1cbd
00000130: 33a1 fa3c a922 49bd 45c8 283e 5026 233d
00000140: 7729 c13d 9cc7 f43d 3129 33bc c311 f03b
00000150: 2220 033e fa10 9abc dc51 11bc 11b8 6abd
00000160: 64e0 bbbd 3fad 61bd befb f63d 33e0 65bc
00000170: b318 eebd c4c3 47bc 3135 733d eeca b43d
00000180: 01ad b2bd 1cf0 35bd 3e44 1cbd 5795 003e
00000190: c262 be3b b1d8 24bd 22c4 1dbd 31b6 233e
000001a0: 213f c2bd c7fe b53d 9946 9c3d 6605 c43d
000001b0: 2c0f 0bbd 6bed ccbd f698 363d 7f7b b1bd
000001c0: 38a2 183d 6b8b 02bd ccf9 99bd f3cf 1fbd
000001d0: 0459 d93d 3889 f23b 640b 08bd 74f7 03bd
000001e0: e01f 0cbe ec64 acbd 5736 f5bc badc b8bd
000001f0: e48a 55bd 1d2d a6bc 8172 333c 0f84 9c3d
00000200: f766 8ebd 39e1 c4bd 47a2 fa3d ac44 023d
00000210: 8373 bb3c 1f34 913d c14d f9bc 5512 8abd
00000220: b3e6 61bb 59e7 fa3b f0b5 b03c ba08 9e3d
00000230: cd85 31bd c52e d43d 5cb3 073d 3337 d03d
00000240: b7f9 f23d 5411 373e 5a30 afbd 72fb 99bc
00000250: f54e d5bd c934 a83d c094 3c3d a9e3 b43d
00000260: 9801 3cbd 770a 00bd d69d 87bd 3334 e13d
00000270: e83e d1bd ca4b a2bc 1b89 a03d b5e1 6d3d
00000280: d8a4 c8bd 223a dfbd b12a 83bd 84ba a73d
00000290: e54f 57bd cddc 61bd ba9b fe3b 977b fa3c
000002a0: a368 20bd ef34 17be 1ccc cbbb 485e fc3a
000002b0: 9388 e23d 83e8 233c 16f7 153e 59cc bbbd
000002c0: 40bd e53d 1403 8abd f904 06bd aa5f a63d
000002d0: 49f6 423c db38 56bd 6753 88bd 5b17 e03d
000002e0: 3279 25bd 4961 08be 82b2 53bd ced8 0dbe
000002f0: 1483 44bd 8fc2 87bd 5bdc 8dbd c897 2b3d
00000300: 2f5e 39be 8ea9 85bb af84 20bd 355c 99bd
00000310: 6498 b0bc c547 a13d 58b3 36bc 77c9 a6bd
00000320: ec52 133e 02da a63b 9968 7c3d b966 0d3d
00000330: 9090 14be 1533 7b3d 7ed9 bb3d 9376 ce3d
00000340: 8198 d03d 4982 9a3d f789 d1bc 7216 07bd
00000350: 6d9a 4b3d 8eb9 e9bc 8f5d 98bd 2b64 0c3c
00000360: d379 b7bd c530 e53d 4ec5 373d 8b9b 1b3d
00000370: 2590 33bd 4a11 8d3d 079c bf3c eda1 debc
00000380: 0a47 423d 726c 873c 8903 14bd 8a82 26bc
00000390: cd5e ad3c c896 3c3e bc23 8b3e b699 9abd
000003a0: fb06 29be f482 ddbd 3b2c b13d 638a a7bd
000003b0: f859 373c 9317 d53d 605a 44bd 9d16 b73c
000003c0: c793 ae3a cbf0 debd 22ec 86bd 4b28 673d
000003d0: 6bed 91bc ef7e e63a 1186 933d 905d 753d
000003e0: 77f6 2a3d db3f 6a3d c175 c53d 5d69 99bd
000003f0: 0b7e fdbd f972 313d e456 7cbd 1611 b8bd
-0.009972596 0.041805595 0.10106323 -0.122812085 -0.05867223 0.12658924 -0.08454127 -0.56172407
-0.10588469 -0.2205917 -0.13314465 -0.27364996 0.06927028 0.061172165 -0.043201365 -0.123861864
0.044905916 0.1317889 -0.2733639 -0.079018384 0.052388266 0.05067646 0.019665375 0.03971575
0.022867782 0.038649134 -0.03601806 -0.11327076 -0.030898653 -0.19637303 -0.038251493 0.030705864
-0.033834938 0.083536625 0.0787582 0.14782545 -0.018372336 -0.0023730681 -0.09993247 -0.012710984
-0.14517508 0.057579935 -0.032787144 -0.032590393 0.08634489 -0.013096128 0.05615181 0.13084497
0.031934436 -0.0005826794 0.09192363 0.044488546 0.12583484 0.031281848 0.15691945 -0.042896233
-0.2545172 -0.22980647 -0.051615693 0.0039031159 -0.57191694 -0.07289288 0.15718335 0.19121964
-0.036376685 -0.110901006 0.0023877707 0.007725799 -0.009282148 0.07839859 -0.11271688 -0.07148821
-0.061584 -0.014249938 -0.05472362 -0.038120683 0.030594444 -0.04910532 0.16482647 0.03983146
0.09431737 0.11952135 -0.010935114 0.007326336 0.12805226 -0.018806923 -0.008869614 -0.057304446
-0.091736585 -0.05509686 0.12059735 -0.014030504 -0.11625805 -0.01219267 0.0593769 0.08827768
-0.08724404 -0.04441844 -0.03815102 0.12556969 0.0058101127 -0.040245716 -0.038517125 0.1598747
-0.09484697 0.088864855 0.07630653 0.09571342 -0.033950016 -0.100062214 0.04457947 -0.08666133
0.03726408 -0.03187124 -0.07518348 -0.039016675 0.106126815 0.0074016117 -0.033213988 -0.03221841
-0.13684034 -0.08417687 -0.029933138 -0.09026475 -0.05213441 -0.020285184 0.010952593 0.07642376
-0.06953233 -0.0961327 0.12237983 0.03180377 0.022882229 0.070900194 -0.030432584 -0.06741778
-0.0034469783 0.0076569733 0.02157113 0.07716508 -0.043340493 0.10360483 0.033130035 0.101667784
0.118640356 0.17877704 -0.08554144 -0.018796656 -0.104154505 0.08213193 0.046040297 0.08832485
-0.045899957 -0.03125998 -0.06621902 0.10996284 -0.102170765 -0.01981153 0.07838651 0.05807658
-0.097970665 -0.1089976 -0.06404627 0.08189872 -0.052566428 -0.055142213 0.007770029 0.03057651
-0.03916229 -0.14766286 -0.0062194 0.0019254172 0.11061206 0.010004166 0.14645037 -0.091698356
0.11217737 -0.06738868 -0.032719586 0.08123715 0.011899539 -0.052300315 -0.06656533 0.10941955
-0.040398784 -0.13318361 -0.05168391 -0.13852236 -0.04797657 -0.06628906 -0.06926795 0.041892797
-0.18102334 -0.0040790504 -0.039189037 -0.0748829 -0.02155704 0.07875017 -0.011151157 -0.08143895
0.14387101 0.0050919065 0.06162319 0.034521792 -0.14508271 0.061328012 0.09172343 0.1008121
0.10185338 0.07544381 -0.025578482 -0.03298039 0.04970782 -0.028530862 -0.0743972 0.008568804
-0.08958783 0.11190943 0.0448659 0.037990134 -0.04383864 0.06888063 0.02338983 -0.027176822
0.04743103 0.016531203 -0.036136184 -0.010162959 0.021163369 0.18416893 0.271757 -0.07548849
-0.16506569 -0.10815993 0.086510144 -0.08180692 0.011190884 0.10404887 -0.04793775 0.02234965
0.0013319188 -0.10885771 -0.065880075 0.05643491 -0.017813405 0.0017585437 0.072033055 0.05990368
0.041738953 0.057189804 0.096416004 -0.074907996 -0.123775564 0.043322537 -0.061606303 -0.08987634

final.bias f4 [43]
00000000: eebf 65be de97 4a3d 7658 20be a300 8f3c
00000010: 7009 de3b 2266 f93d eaf9 773e 9376 96bd
00000020: be82 b73d ef0d 7dbd d618 013a f4b0 a23d
00000030: e918 88bd 8513 97bd f446 8ebc 7922 fb3d
00000040: 271e 1abe 42b9 c23c 8ba8 a43d 94f3 acbc
00000050: 9382 b6bb f359 81be 123e 75bc e468 e0bd
00000060: 4588 853d 793c 893d 83d8 efbc 1a16 4f3e
00000070: d140 05bd 128c 05be f089 0c3d 6e56 083e
00000080: 97ea 3cbe b2ed a93d a99f 6ebc 1fbb 2ebd
00000090: ec4a ffbd df1b 88bc bae1 f73c 7506 f8bc
000000a0: 25cc 90bc 3d12 9bbc 422b cc3d
-0.22436497 0.049461238 -0.15658745 0.017456358 0.0067760274 0.121776834 0.24216428 -0.07346835
0.08960484 -0.061780866 0.00049246603 0.079439074 -0.06645376 -0.0737677 -0.017367817 0.122624345
-0.15050565 0.023769978 0.080399595 -0.02111224 -0.005569765 -0.25263938 -0.014968412 -0.10957506
0.06520132 0.06700987 -0.029278046 0.20223275 -0.032532517 -0.13041714 0.034311235 0.1331422
-0.18448864 0.0829729 -0.014564433 -0.04265892 -0.12465462 -0.016614852 0.030259002 -0.030276516
-0.017675469 -0.018929595 0.09969188
