Robustness/models/base_epsilon_0.pth (torch, 259226 bytes, 10 tensors)

conv1.weight f4 [6, 1, 5, 5]
-0.17532155 -0.09023147 0.1525268 0.09964158 -0.014993313 0.030464748 0.22966862 0.36254805
0.34406647 0.32864755 0.12060652 0.15614855 0.517893 0.5918485 0.27372292 -0.29588544
0.25261608 0.35083306 0.54411316 0.5623254 -0.2882428 -0.257588 -0.10793016 0.11940941
0.33771393 -0.15228976 -0.09199556 -0.3388144 -0.047080167 0.37090442 -0.31191286 -0.7883018
-0.32178873 0.031930264 0.46052387 -0.47750074 -0.8906621 -0.67935354 -0.49592856 0.17218359
-0.25355843 -0.5809066 -0.47897825 -0.44471312 0.23620336 -0.11167162 -0.32921746 -0.52910596
-0.48211205 -0.15869132 -0.13569944 -0.15897128 -0.30306977 -0.018942041 0.016384562 0.021014597
-0.3339645 -0.60252786 -0.45850736 -0.01620532 -0.346698 -0.27381063 -0.5882356 -0.25264767
-0.16600639 -0.2249231 -0.48961994 -0.49608007 -0.41265678 -0.15809754 0.0051876204 -0.1620744
-0.46231157 -0.2753137 -0.18304265 0.0541877 -0.14880791 0.09923642 -0.3474059 0.046486385
0.33223623 0.1694776 0.1230808 -0.3013489 -0.3279251 0.53957874 0.5014015 0.038200628
-0.31494555 -0.3586123 0.5756087 0.6806152 0.41587156 -0.05244556 -0.25888014 0.40706813
0.37599498 0.5393386 0.20397194 -0.24429908 0.15649895 -0.47395608 -0.36956063 -0.5185143
-0.11738376 -0.19134423 -0.34603107 -0.6014029 -0.48473617 -0.35548514 -0.07737022 -0.35758635
-0.4221598 -0.18224628 -0.17694105 0.37481004 -0.18295546 -0.13300091 -0.2568482 -0.09371694
0.40217263 0.36833704 0.08427852 0.08384222 0.35084847 -0.51693577 -0.54687667 -0.23106354
-0.33054423 -0.3338412 -0.48931524 -0.4811749 -0.2939055 -0.5031551 -0.17107905 -0.1170936
0.18102697 -0.0125467675 -0.026128652 0.07508331 0.39246568 0.29946983 0.5769362 0.17863469
0.23874605 0.42164117 0.5186462 0.24137338 0.560984 0.42872566
00000000: 7e87 33be 47cb b8bd fc2f 1c3e e210 cc3d
00000010: 83a6 75bc 3591 f93c 402e 6b3e e69f b93e
00000020: 7b29 b03e 7e44 a83e 8d00 f73d 68e5 1f3e
00000030: a394 043f 6283 173f 6925 8c3e 4c7e 97be
00000040: e556 813e 64a0 b33e 004b 0b3f 8ff4 0f3f
00000050: 8f94 93be 93e2 83be 7d0a ddbd ec8c f43d
00000060: d7e8 ac3e d9f1 1bbe 2b68 bcbd 1579 adbe
00000070: 22d7 40bd 2fe7 bd3e 0bb3 9fbe 26ce 49bf
00000080: 7ec1 a4be 4fc9 023d c9c9 eb3e fa7a f4be
00000090: 6e02 64bf 1dea 2dbf 59ea fdbe e550 303e
000000a0: 69d2 81be 4cb6 14bf a33c f5be 70b1 e3be
000000b0: 4bdf 713e 17b4 e4bd 318f a8be 7d73 07bf
000000c0: 64d7 f6be fa7f 22be cbf4 0abe 5ec9 22be
000000d0: f62b 9bbe 572c 9bbc eb38 863c ce26 ac3c
000000e0: 65fd aabe 443f 1abf 7ac1 eabe 05c1 84bc
000000f0: 6682 b1be e830 8cbe 9c96 16bf 095b 81be
00000100: 94fd 29be 3e52 66be 77af fabe 35fe fdbe
00000110: c047 d3be 52e4 21be eafc a93b d5f6 25be
00000120: 1ab4 ecbe ebf5 8cbe 886f 3bbe ecf3 5d3d
00000130: 1a61 18be 773c cb3d 30df b1be 8268 3e3d
00000140: de1a aa3e 898b 2d3e c911 fc3d 674a 9abe
00000150: cce5 a7be d521 0a3f d95b 003f 4378 1c3d
00000160: 8b40 a1be 089c b7be 175b 133f cc3c 2e3f
00000170: 1eed d43e 28d1 56bd f08b 84be 3c6b d03e
00000180: 6a82 c03e 1812 0a3f 05de 503e 8a29 7abe
00000190: 4341 203e 5faa f2be 0d37 bdbe 5abd 04bf
000001a0: e666 f0bd beef 43be fc2a b1be 8af5 19bf
000001b0: 572f f8be 2602 b6be 4774 9ebd 8f15 b7be
000001c0: 5425 d8be c59e 3abe 0930 35be 1ae7 bf3e
000001d0: ad58 3bbe 6431 08be 9b81 83be abee bfbd
000001e0: 92e9 cd3e ac96 bc3e 379a ac3d 78b5 ab3d
000001f0: 69a2 b33e e755 04bf 1c00 0cbf ec9b 6cbe
00000200: 183d a9be 3ced aabe 8787 fabe 8e5c f6be
00000210: c87a 96be c6ce 00bf 592f 2fbe c5ce efbd
00000220: 225f 393e f590 4dbc c10b d6bc 47c5 993d
00000230: 43f1 c83e 1c54 993e 17b2 133f 03ec 363e
00000240: d879 743e 5ae1 d73e ffc5 043f 952a 773e
00000250: a69c 0f3f ee81 db3e

conv1.bias f4 [6]
0.12948348 0.21198821 -0.56398416 0.26137495 0.5025769 0.40303797
00000000: 5197 043e 7013 593e 4461 10bf f0d2 853e
00000010: e1a8 003f fe5a ce3e

conv2.weight f4 [16, 6, 5, 5]
0.12741175 0.13056034 0.08730305 0.01817366 -0.087840945 0.32763904 0.47940585 0.30584288
0.08633612 -0.0002818722 0.188192 0.13393374 -0.098866634 -0.17273192 -0.116247185 0.017197147
-0.2228168 -0.32474062 -0.23972993 -0.051090308 0.040857375 -0.088986434 -0.09713162 -0.1188264
-0.111636214 0.083740704 -0.12364685 -0.20299754 -0.0871371 -0.034095604 0.040893275 -0.058936324
-0.22848742 0.029609896 0.14543942 -0.05834116 0.021219185 0.03073272 0.15994883 0.17537011
-0.07325762 -0.095714234 0.11887185 0.17268483 0.016228648 0.02171704 -0.01240467 -0.0056664925
0.05896222 0.09608867 -0.017048948 -0.19020358 -0.19691293 0.0009532941 0.084663115 -0.110913984
-0.21887368 -0.17821057 -0.0040523675 0.15721865 -0.090726905 -0.032420803 0.090155005 0.10271393
0.18283 -0.086357825 0.07931674 0.07238168 0.1253075 0.12887825 0.027652856 -0.012323205
0.088258125 0.11979562 -0.0121504925 -0.07146547 0.06013619 0.2995733 0.23895614 0.025308212
0.0036816155 0.00613119 0.35188475 0.24897951 -0.033424586 -0.12596025 0.028107556 -0.018411916
-0.15947922 -0.24031505 0.032575924 0.14333114 -0.039137967 -0.15627676 -0.1822031 -0.06388582
-0.12476572 -0.20967594 -0.18807688 -0.070724845 0.074733555 0.011592191 0.017044235 -0.03349323
-0.11242972 -0.11391558 -0.3289763 -0.30188784 -0.07118114 -0.012094543 0.015140686 -0.22196555
-0.05364533 0.09427697 0.1571929 -0.03385608 0.06598304 0.19393666 0.2617072 0.22189279
-0.032876283 0.026007937 0.047440756 0.02758919 -0.0820132 0.40075353 0.673337 0.4814681
0.057256322 -0.34168434 0.43039668 0.25967103 -0.258132 -0.639665 -0.6224904 0.07214415
-0.6509262 -1.2123278 -0.87154555 -0.25445652 0.42536518 0.3483318 0.47599542 0.6565518
0.61678225 -0.18179862 -0.27419594 0.05652455 0.1636889 0.0680733 0.06748362 0.036512595
-0.01430314 -0.013628708 0.041780002 0.14914483 0.12623674 -0.101994626 -0.15475562 -0.119427614
0.09911359 0.10807332 0.09949207 0.054146852 -0.066732705 0.030804459 -0.2286048 -0.070362106
0.13139553 0.12628992 0.1383808 -0.24803388 -0.17755882 -0.00082375103 -0.14287119 0.023824738
0.0054266616 -0.027370641 -0.007330871 0.120488405 -0.11331898 -0.13040724 -0.029775549 -0.08806518
0.024131093 0.056713473 0.01648547 -0.05220031 -0.067012295 -0.10413144 0.044126123 0.06925448
0.19490072 0.021305485 -0.03296358 -0.0052236244 0.09297744 0.13574369 0.016172854 -0.011553062
0.024696775 0.081929885 0.033471905 0.07287685 0.084586434 -0.07648642 -0.049492557 0.0022766767
-0.06932487 -0.050935704 -0.09918496 -0.094401196 -0.011965938 -0.094299614 -0.06402185 0.009946158
-0.0030652292 0.097812146 -0.05506292 -0.06692645 -0.010637175 0.020518908 0.15251273 -0.006896773
-0.025689598 0.055645432 0.07950287 -0.010841067 -0.02186922 0.028751198 -0.028125972 0.121654734
0.064829126 0.018506674 -0.035239432 -0.09242336 -0.030902693 0.031196004 -0.068326436 0.02076062
0.16315405 -0.012087005 -0.11691226 -0.20253088 -0.091542885 0.21496743 0.2208458 -0.057195403
-0.14131081 -0.13600452 0.10332354 0.15765232 0.0749533 -0.054890797 0.015144233 -0.024383446
00000000: 3a78 023e 9cb1 053e f1cb b23d ede0 943c
00000010: f4e5 b3bd 4ec0 a73e af74 f53e 7097 9c3e
00000020: fed0 b03d 3fc8 93b9 67b5 403e ed25 093e
00000030: 977a cabd a3e0 30be 0113 eebd 08e1 8c3c
00000040: 162a 64be 6744 a6be c37b 75be 1244 51bd
00000050: 105a 273d 853e b6bd f1ec c6bd 415b f3bd
00000060: 87a1 e4bd 3f80 ab3d 8f3a fdbd 96de 4fbe
00000070: f074 b2bd d5a7 0bbd b57f 273d 3767 71bd
00000080: 9bf8 69be 7490 f23c 12ee 143e 24f7 6ebd
00000090: dbd3 ad3c 2fc3 fb3c a0c9 233e 3994 333e
000000a0: 1708 96bd d305 c4bd 1673 f33d 4bd4 303e
000000b0: f1f1 843c efe7 b13c f53c 4bbc fcad b9bb
000000c0: 5e82 713d 23ca c43d 3caa 8bbc bac4 42be
000000d0: 8ba3 49be 7ce6 793a db63 ad3d df26 e3bd
000000e0: 6c20 60be d57c 36be b9c9 84bb edfd 203e
000000f0: 07cf b9bd adcb 04bd 30a3 b83d ae5b d23d
00000100: ca37 3b3e 5fdc b0bd d170 a23d d93c 943d
00000110: 9c50 003e a9f8 033e 3e88 e23c 45e7 49bc
00000120: adc0 b43d 6857 f53d dc12 47bc 7d5c 92bd
00000130: 5e51 763d ac61 993e ebb0 743e 2b53 cf3c
00000140: 4247 713b 26e8 c83b 3d2a b43e 7cf4 7e3e
00000150: 38e8 08bd b9fb 00be d141 e63c 96d4 96bc
00000160: 854e 23be 2615 76be 556e 053d 66c5 123e
00000170: 224f 20bd 0407 20be 7393 3abe 92d6 82bd
00000180: 2b85 ffbd 4ab5 56be 3a97 40be 30d8 90bd
00000190: e80d 993d 2ced 3d3c 5aa0 8b3c 3230 09bd
000001a0: 8e41 e6bd 924c e9bd 956f a8be 0b91 9abe
000001b0: 6bc7 91bd 3128 46bc a410 783c f04a 63be
000001c0: 35bb 5bbd 4914 c13d 2df7 203e acac 0abd
000001d0: 1e22 873d 5597 463e 7cfe 853e dd37 633e
000001e0: 48a9 06bd 990e d53c 3d51 423d ba02 e23c
000001f0: 89f6 a7bd 912f cd3e d05f 2c3f fd82 f63e
00000200: 9b85 6a3d 40f1 aebe f45c dc3e 9af3 843e
00000210: e129 84be 16c1 23bf 885b 1fbf 50c0 933d
00000220: 19a3 26bf 8f2d 9bbf 9c1d 5fbf 2048 82be
00000230: 77c9 d93e 8c58 b23e acb5 f33e c713 283f
00000240: 71e5 1d3f 6b29 3abe 6963 8cbe 4986 673d
00000250: 109e 273e 046a 8b3d da34 8a3d 3b8e 153d
00000260: b857 6abc f24a 5fbc 8221 2b3d 6cb9 183e
00000270: 3444 013e 8fe2 d0bd 4278 1ebe 7796 f4bd
00000280: 11fc ca3d 8b55 dd3d 80c2 cb3d 17c9 5d3d
00000290: 28ab 88bd a259 fc3c 6017 6abe 021a 90bd
000002a0: 8d8c 063e 2552 013e b2b3 0d3e 98fc 7dbe
000002b0: fbd1 35be fff0 57ba d34c 12be 192c c33c
000002c0: 23d2 b13b 6538 e0bc ce37 f0bb a0c2 f63d
000002d0: c813 e8bd 7a89 05be daeb f3bc 845b b4bd
000002e0: 92ae c53c 634c 683d 890c 873c fecf 55bd
000002f0: be3d 89bd dd42 d5bd 98bd 343d 4bd5 8d3d
00000300: 0e94 473e d788 ae3c d204 07bd f02a abbb
00000310: f56a be3d 6500 0b3e ef7c 843c 0e49 3dbc
00000320: e450 ca3c dbca a73d d619 093d 7540 953d
00000330: a73b ad3d eaa4 9cbd b5b8 4abd 4c34 153b
00000340: 33fa 8dbd f5a1 50bd 7c21 cbbd 6a55 c1bd
00000350: c80c 44bc 2820 c1bd e31d 83bd 36f5 223c
00000360: 03e2 48bb bc51 c83d a889 61bd bc10 89bd
00000370: 8c47 2ebc 4517 a83c 4c2c 1c3e 53fe e1bb
00000380: fe72 d2bc 77ec 633d 67d2 a23d bb9e 31bc
00000390: 1427 b3bc a287 eb3c 7068 e6bc 1e26 f93d
000003a0: 22c5 843d 4f9b 973c 3957 10bd 7548 bdbd
000003b0: a527 fdbc c38e ff3c bbee 8bbd 2d12 aa3c
000003c0: db11 273e 9308 46bc b26f efbd 4164 4fbe
000003d0: d67a bbbd 6c20 5c3e 6725 623e ba45 6abd
000003e0: c8b3 10be c544 0bbe 4b9b d33d 9c6f 213e
000003f0: 1e81 993d 2cd5 60bd 841f 783c cbbf c7bc

conv2.bias f4 [16]
-0.06364358 -0.049211018 -0.18494277 0.19654022 0.36957905 0.44323477 0.29395065 0.06017483
-0.19069237 0.3501126 0.13252853 0.16959417 0.24303338 0.0185826 0.18865085 0.111307964
00000000: 9157 82bd 7e91 49bd a361 3dbe d741 493e
00000010: 7739 bd3e abef e23e b380 963e e279 763d
00000020: dc44 43be f541 b33e 8fb5 073e 18aa 2d3e
00000030: bedd 783e 893a 983c b02d 413e 6ef5 e33d

dense1.weight f4 [120, 400]
-0.08238434 -0.00085669477 0.076513916 0.02319887 0.065512896 -0.089817755 -0.011160646 -0.19597287
-0.02608035 -0.04281951 0.020556271 -0.031196801 -0.15356465 -0.104263596 -0.03174719 0.021942578
-0.13092703 0.079683736 0.12568407 -0.011624885 -0.009359881 0.12897293 0.022169199 0.014499147
-0.010576838 -0.043497533 -0.006705586 -0.018041667 -0.08294659 -0.0006140546 0.12654452 -0.010254835
-0.15301237 -0.006678832 0.16246712 0.09311028 -0.049261224 0.045459162 -0.009519789 0.002928369
-0.019355517 0.05933447 -0.018929834 -0.05928319 0.031111345 0.058931805 0.06397315 0.05433665
-0.03299669 -0.056320526 0.044126984 -0.003472754 0.03248415 -0.040013734 0.04750849 -0.00568918
0.031632673 0.06909693 0.046755895 0.0066039176 -0.05329176 0.015348144 0.14080273 -0.13675292
0.01915825 -0.08308518 -0.05595972 0.22413711 -0.092949346 -0.051458236 -0.054401815 -0.055275325
0.037789345 -0.009083471 0.07583106 -0.005066343 -0.06485204 0.124351956 0.119845435 0.014552644
0.07810763 -0.116672084 -0.08646071 -0.10673569 0.1079975 0.07541339 -0.040942423 0.06740203
0.07292391 0.06348532 0.02573124 -0.013445105 -0.11089287 0.09880411 0.016058514 0.019632658
-0.06348419 0.0898259 0.039158672 0.054239113 0.03296594 -0.09716135 0.023386948 0.02075331
0.04638562 0.059972018 -0.053162154 -0.10954115 0.08155071 0.05610636 0.0490348 -0.15662512
-0.07750762 0.09702423 0.11541893 0.008590653 0.12965977 0.070617765 -0.013322959 0.07080027
0.032284237 -0.011044857 0.05810256 -0.003002641 -0.08541249 -0.06521856 -0.08296499 0.0551026
0.100851014 -0.09431329 0.04363024 0.044475697 -0.10413495 0.03491643 0.015681155 -0.008106911
-0.05953472 0.19140567 0.08640257 -0.0013660375 0.0032236613 0.15839711 -0.096363075 -0.08362636
0.12985745 0.030973379 -0.018623872 -0.060776073 -0.067146495 -0.019527417 0.100823976 0.00033789309
-0.0066975513 0.006957492 0.057993397 -0.043278497 0.07691034 0.005422666 -0.080104634 -0.018793838
0.071430445 0.16484703 -0.10945299 0.0060592443 -0.060999256 -0.048199628 0.2066887 0.21025245
-0.05035676 0.07925496 -0.013613959 0.0395968 0.1194317 -0.03220426 0.041015815 -0.027006272
0.034155153 0.049706787 -0.066439494 -0.027755782 0.11904746 0.0875494 0.016157446 -0.0041080075
0.01110126 -0.033747725 0.1370544 0.09510368 -0.13936968 -0.053243212 -0.023858724 0.053969163
0.2906832 -0.14859207 0.006408011 -0.022373103 -0.1769152 0.14304817 -0.037816603 0.013893579
-0.03202737 0.03729277 -0.018279092 0.05214675 0.039507937 0.041233063 -0.11337689 0.08695015
0.03269979 -0.10531516 0.062308427 0.0733805 -0.0008983385 -0.11635107 -0.057460546 -0.018688753
-0.013860131 0.023422413 -0.09748316 -0.14543071 -0.034389786 0.079145595 0.04448723 0.15642752
0.06472894 -0.019510536 -0.036654092 0.100129984 -0.017201358 -0.0066573136 -0.062045936 -0.038490854
0.058810197 -0.22530779 0.05026428 0.037763536 0.042507596 -0.15482295 -0.0055210786 0.103363335
0.06781467 0.028768944 0.17018552 0.13634665 0.09206989 0.009001637 0.07193514 0.19916669
8.8950874e-05 -0.07890458 0.0061935466 0.037048656 -0.07084848 -0.013504412 -0.086322375 -0.019821435
00000000: 1fb9 a8bd d093 60ba 54b3 9c3d 8e0b be3c
00000010: a02b 863d 5ff2 b7bd 24db 36bc 1dad 48be
00000020: 75a6 d5bc 8363 2fbd a065 a83c 6f90 ffbc
00000030: 0d40 1dbe 2788 d5bd 5709 02bd ecc0 b33c
00000040: bc11 06be 3a31 a33d 53b3 003e 4d76 3ebc
00000050: 305a 19bc 7b11 043e 2e9c b53c d58d 6d3c
00000060: 794a 2dbc 782a 32bd 88ba dbbb 1ecc 93bc
00000070: e7df a9bd 82f8 20ba e394 013e e503 28bc
00000080: 46af 1cbe 1bda dabb c85d 263e 9ab0 be3d
00000090: 23c6 49bd 6333 3a3d e4f8 1bbc e1e9 3f3b
000000a0: 768f 9ebc b408 733d bd12 9bbc eed2 72bd
000000b0: 38dd fe3c 7a62 713d 5b04 833d 1b90 5e3d
000000c0: 8a27 07bd 5ab0 66bd 7fbe 343d 2597 63bb
000000d0: 1a0e 053d 71e5 23bd 4398 423d 4d6c babb
000000e0: 4391 013d b182 8d3d 1c83 3f3d ad65 d83b
000000f0: 7648 5abd c876 7b3c 972e 103e f508 0cbe
00000100: c3f1 9c3c 9028 aabd 0536 65bd 3384 653e
00000110: 3a5c bebd dfc5 52bd 70d4 5ebd 6168 62bd
00000120: 00c9 1a3d d7d2 14bc 514d 9b3d 9103 a6bb
00000130: 25d1 84bd 3dac fe3d 8671 f53d 376e 6e3c
00000140: e5f6 9f3d c6f1 eebd 5012 b1bd 3e98 dabd
00000150: cb2d dd3d 5672 9a3d 3eb3 27bd 130a 8a3d
00000160: 2259 953d 9704 823d 52ca d23c dc48 5cbc
00000170: cd1b e3bd cf59 ca3d 258d 833c abd4 a03c
00000180: 0004 82bd a4f6 b73d d864 203d d529 5e3d
00000190: 4b07 073d 88fc c6bd fc95 bf3c d802 aa3c
000001a0: d9fe 3d3d 38a5 753d 8fc0 59bd 1c57 e0bd
000001b0: 0f04 a73d c8cf 653d b7d8 483d 5662 20be
000001c0: 51bc 9ebd a4b4 c63d c360 ec3d cfbf 0c3c
000001d0: 88c5 043e 0ca0 903d 8a48 5abc bbff 903d
000001e0: 7a3c 043d 7df5 34bc f3fc 6d3d f5c7 44bb
000001f0: beec aebd 4f91 85bd 8ce9 a9bd 44b3 613d
00000200: fa8a ce3d 5427 c1bd 9fb5 323d 262c 363d
00000210: b444 d5bd 8804 0f3d c475 803c d9d2 04bc
00000220: aeda 73bd d9ff 433e d5f3 b03d 9d0c b3ba
00000230: 1044 533b da32 223e 015a c5bd 4c44 abbd
00000240: 5af9 043e e2bb fd3c 1791 98bc 55f0 78bd
00000250: 1a84 89bd f6f7 9fbc cd7c ce3d 3e27 b139
00000260: 2277 dbbb acfb e33b 7c8a 6d3d cb44 31bd
00000270: 2b83 9d3d 9fb0 b13b e60d a4bd 89f5 99bc
00000280: 204a 923d a9cd 283e e428 e0bd a08c c63b
00000290: 5bda 79bd f96c 45bd 34a6 533e 6b4c 573e
000002a0: e442 4ebd 6d50 a23d 150d 5fbc 4130 223d
000002b0: 9b98 f43d 9de8 03bd 3300 283d 423c ddbc
000002c0: 46e6 0b3d 5899 4b3d 6e11 88bd 1860 e3bc
000002d0: 28cf f33d 1a4d b33d 9f5c 843c 779c 86bb
000002e0: 0fe2 353c 0e3b 0abd fd57 0c3e b8c5 c23d
000002f0: edb6 0ebe 8e15 5abd 5f73 c3bc c50e 5d3d
00000300: 6ed4 943e 8528 18be 4bfa d13b cc47 b7bc
00000310: 4229 35be 387b 123e 95e5 1abd e5a1 633c
00000320: 222f 03bd 4ec0 183d 09be 95bc d597 553d
00000330: 13d3 213d 00e4 283d 2532 e8bd ec12 b23d
00000340: 37f0 053d 79af d7bd 1f37 7f3d 8448 963d
00000350: 7a7e 6bba 7849 eebd c05b 6bbd 2819 99bc
00000360: 9a15 63bc 5ce0 bf3c 40a5 c7bd caeb 14be
00000370: 4edc 0cbd 1617 a23d 3e38 363d 892e 203e
00000380: 9b90 843d 8fd4 9fbc 9a22 16bd f310 cd3d
00000390: dde9 8cbc 9825 dabb e123 7ebd 96a8 1dbd
000003a0: f6e2 703d 16b7 66be ebe1 4d3d f0ad 1a3d
000003b0: 721c 2e3d e889 1ebe 2aea b4bb 28b0 d33d
000003c0: 6be2 8a3d d9ac eb3c 1d45 2e3e 759e 0b3e
000003d0: 238f bc3d 9a7b 133c bb52 933d 5af2 4b3e
000003e0: 238b ba38 b998 a1bd 3cf3 ca3b 55c0 173d
000003f0: 0219 91bd 9c41 5dbc c9c9 b0bd 9060 a2bc

dense1.bias f4 [120]
0.06969116 0.032739103 0.011993459 -0.043959174 0.24186131 -0.13832168 -0.0415364 0.04632686
0.0002756961 0.066998415 0.028718002 -0.0033836928 -0.044816677 -0.034121994 0.08242081 -0.064319134
-0.0077756364 0.023313241 -0.045939375 0.015416771 0.1724974 0.005057511 0.037019413 0.07938177
0.100782946 -0.09950751 0.014695813 0.14460923 -0.009569339 0.037953194 0.023042616 0.044449124
0.0747404 0.24004881 0.26787835 -0.0013105121 0.04196679 0.23380032 0.019019738 0.089289874
-0.09461786 0.09278448 0.04000754 -0.12128947 -0.02544049 -0.0037456579 0.074494675 -0.077446654
-0.006274728 0.10757524 0.058733873 -0.039221667 0.04471397 -0.005960688 -0.058059312 0.07631462
-0.06719525 -0.017184997 0.0025972147 0.07091565 -0.055031557 -0.05440229 0.06833992 0.035784293
0.03213055 -0.039675083 0.014186559 -0.04790825 -0.028835587 0.012916492 0.2815448 -0.02382859
-0.04699549 0.019403752 -0.04067772 0.045033578 0.124468036 0.18276344 0.017645814 -0.08298318
0.008003914 0.028688904 0.045504272 0.068565235 -0.059594583 -0.018612117 0.18883604 0.0012504897
0.22527973 0.0099580595 -0.02301264 0.020808749 -0.14488001 -0.01164901 -0.035358205 0.10789197
-0.016727708 0.1767247 0.0106760245 0.11543598 0.1508074 -0.061531577 0.17747743 0.034725267
-0.056609806 0.10634623 0.09367438 0.12264033 0.038449097 -0.058823783 -0.044195287 0.20755525
0.05162698 0.009696093 0.11704242 -0.011125072 0.09143793 -0.014076186 -0.07213729 -0.026874468
00000000: 3dba 8e3d 7019 063d 3780 443c 890e 34bd
00000010: 7eaa 773e 33a4 0dbe 1222 2abd 3cc1 3d3d
00000020: 4e8b 9039 7736 893d 0442 eb3c f2c0 5dbb
00000030: b191 37bd 81c3 0bbd 3ecc a83d c0b9 83bd
00000040: c4ca febb 69fb be3c ed2a 3cbd a096 7c3c
00000050: 29a3 303e 7ab9 a53b aba1 173d e992 a23d
00000060: 4a67 ce3d 98ca cbbd b5c6 703c 7114 143e
00000070: b8c8 1cbc cf74 1b3d dec3 bc3c 4910 363d
00000080: 7f11 993d 5bcf 753e 5a27 893e 7dc5 abba
00000090: 5ee5 2b3d 5a69 6f3e 48cf 9b3c 9cdd b63d
000000a0: 02c7 c1bd ca05 be3d f2de 233d 9d66 f8bd
000000b0: 9368 d0bc b679 75bb aa90 983d 5a9c 9ebd
000000c0: 3c9c cdbb 6850 dc3d ee92 703d e6a6 20bd
000000d0: ff25 373d e051 c3bb 9acf 6dbd d74a 9c3d
000000e0: aa9d 89bd 8dc7 8cbc 0836 2a3b 393c 913d
000000f0: c568 61bd f0d4 5ebd cdf5 8b3d 8d92 123d
00000100: 539b 033d 5782 22bd be6e 683c 713b 44bd
00000110: 9c38 ecbc b29f 533c a426 903e 2d34 c3bc
00000120: 587e 40bd 9ef4 9e3c ae9d 26bd 2175 383d
00000130: 19e9 fe3d 5726 3b3e f48d 903c 16f3 a9bd
00000140: d922 033c fe04 eb3c b062 3a3d ee6b 8c3d
00000150: 7319 74bd 7078 98bc 3c5e 413e 79e7 a33a
00000160: bbaf 663e 2127 233c 0185 bcbc 1c77 aa3c
00000170: 6d5b 14be 7ddb 3ebc c4d3 10bd 77f6 dc3d
00000180: 8c08 89bc 52f7 343e 7eea 2e3c b369 ec3d
00000190: 416d 1a3e 8908 7cbd a5bc 353e 153c 0e3d
000001a0: afdf 67bd 0dcc d93d 5ad8 bf3d da2a fb3d
000001b0: cd7c 1d3d 35f1 70bd 1e06 35bd 5d89 543e
000001c0: d076 533d 5ddc 1e3c f0b3 ef3d ef45 36bc
000001d0: cf43 bb3d ce9f 66bc b7bc 93bd d827 dcbc

dense2.weight f4 [80, 120]
0.05999818 -0.07814369 0.017709391 0.026224615 -0.048971105 0.07206054 0.045121774 -0.049404077
-0.018757354 -0.039164905 -0.04502368 0.05609544 -0.028045995 -0.028284933 -0.079660505 -0.08322945
-0.02331844 -0.017759029 -0.03284566 0.06524876 0.024787001 -0.017118964 0.01773711 0.054578524
-0.06804622 0.057587877 -0.006300899 -0.054076917 -0.015337882 0.07260046 0.04785132 -0.07088148
-0.08973804 0.044743437 -0.042465076 -0.06538445 -0.029029096 -0.068336025 0.083250016 -0.041181218
-0.09819212 0.02457561 0.07770273 -0.007329546 -0.07316235 0.03451734 -0.029152961 -0.033622112
-0.016887324 -0.07684775 -0.07410304 -0.09336344 -0.07360663 -0.060691025 -0.08218091 -0.038946506
-0.06657964 0.01210804 0.05859733 -0.08180635 0.047326934 0.08380397 -0.08545046 -0.0857055
-0.014036593 -0.036184814 0.05883896 0.052749332 -0.007985929 0.015431689 0.07939059 0.044890046
0.010508041 -0.05024605 0.055977643 -0.051107958 -0.028173564 0.02661012 0.078019306 0.050978865
-0.0018873148 -0.03271367 -0.017058479 0.0050239763 0.023875123 -0.04646914 -0.01171987 -0.084184155
-0.022689112 0.005200215 -0.08964316 -0.039230105 -0.07354499 0.032394357 0.077230446 -0.046408277
0.042174704 -0.009622362 -0.025022615 0.022494478 0.07116852 -0.042566247 0.05786846 -0.0036688917
0.029849086 -0.02938989 -0.03020425 -0.04494171 -0.044156063 0.036258247 -0.023516094 -0.0807767
-0.07639954 0.028115442 0.0200954 -0.00088255206 -0.022169337 -0.104487754 -0.08293486 -0.009125588
-0.026997536 -0.07650576 0.059195213 -0.037471857 0.08445998 0.0982109 0.07433274 -0.107890375
-0.025844496 0.119796224 0.11423723 0.16109076 0.0724792 -0.09816026 0.13620123 0.036153782
-0.09841466 0.09849051 0.00627843 -0.051919017 -0.060655434 0.030762456 -0.003338876 0.058585864
0.039251722 -0.05351586 -0.034969777 0.2160189 -0.124977455 0.14158022 0.07025781 0.019525351
0.13171937 -0.023406368 0.10330691 -0.033705615 -0.07008097 -0.18787219 -0.05523871 0.12825394
-0.22254105 -0.026363434 0.03047411 -0.019151682 0.038200904 -0.0037554514 0.06399212 0.11895651
0.016797952 -0.1219973 0.008618419 -0.0505971 -0.17150317 0.0052098515 0.24344373 -0.0009530933
-0.013042301 -0.22491625 -0.059399206 0.17425554 0.08445489 0.011462306 -0.013221254 -0.13614753
-0.06479244 0.034702227 0.0646077 0.09659727 0.11015057 0.04177984 0.17777486 -0.063598044
-0.10232602 0.07372499 0.065415934 0.025629012 0.2515278 -0.016758928 -0.28405923 0.09155125
-0.045185197 -0.007555732 -0.075166196 -0.14087723 0.09311041 0.03052959 0.00032787226 -0.2070851
0.2557048 0.023341745 0.0801041 0.026924778 0.029425668 -0.19263501 -0.05528305 0.13271362
0.029207548 -0.09491184 0.11005377 -0.18952325 0.10049577 -0.024739238 -0.22945169 0.024709018
-0.051044088 0.09843817 -0.0132224215 0.18318553 0.088676624 0.1202452 0.057736438 0.15688352
0.09263971 0.031334613 0.12725775 0.17364743 0.14367338 -0.09610501 -0.10374517 -0.0007434883
-0.107965395 0.016066216 -0.021806773 0.08527641 -0.049791504 -0.024145415 0.04470468 -0.102529906
-0.03641756 -0.09159447 0.036785085 0.040505994 0.04861589 -0.010223739 0.038366538 -0.01918009
00000000: a7c0 753d cd09 a0bd 4913 913c 01d5 d63c
00000010: ed95 48bd 7a94 933d 9cd1 383d ee5b 4abd
00000020: 06a9 99bc 616b 20bd c06a 38bd 55c4 653d
00000030: b7c0 e5bc ceb5 e7bc 0c25 a3bd 3474 aabd
00000040: 5006 bfbc 627b 91bc 2c89 06bd 24a1 853d
00000050: 1c0e cb3c 123d 8cbc 6a4d 913c bb8d 5f3d
00000060: d15b 8bbd 44e1 6b3d c677 cebb c27f 5dbd
00000070: bd4b 7bbc 8daf 943d bfff 433d 4f2a 91bd
00000080: 94c8 b7bd e544 373d dcef 2dbd 48e8 85bd
00000090: 6dce edbc c2f3 8bbd fc7e aa3d a3ad 28bd
000000a0: f318 c9bd ca52 c93c 9c22 9f3d b02c f0bb
000000b0: 24d6 95bd 0e62 0d3d 31d2 eebc 57b7 09bd
000000c0: 4957 8abc 5a62 9dbd 56c3 97bd 5535 bfbd
000000d0: 13bf 96bd 2797 78bd 774e a8bd 5f86 1fbd
000000e0: e85a 88bd cd60 463c c103 703d 168a a7bd
000000f0: e3d9 413d 6aa1 ab3d a700 afbd 5d86 afbd
00000100: bdf9 65bc 8736 14bd 1f01 713d af0f 583d
00000110: 6ad7 02bc 32d5 7c3c 8997 a23d a0de 373d
00000120: eb29 2c3c cdce 4dbd d048 653d 9456 51bd
00000130: 3fcc e6bc 77fd d93c 96c8 9f3d 37cf 503d
00000140: c75f f7ba c5fe 05bd 39be 8bbc 2ba0 a43b
00000150: c395 c33c 6d56 3ebd b304 40bc be68 acbd
00000160: 84de b9bc 9166 aa3b d596 b7bd bfaf 20bd
00000170: c19e 96bd f2af 043d ff2a 9e3d 9b16 3ebd
00000180: 62bf 2c3d 1da7 1dbc 3afc ccbc 5746 b83c
00000190: cdc0 913d f259 2ebd 7a07 6d3d ca71 70bb
000001a0: 1286 f43c 11c3 f0bc e76e f7bc cc14 38bd
000001b0: fddc 34bd 8783 143d d3a4 c0bc 416e a5bd
000001c0: 5d77 9cbd 5b52 e63c 1c9f a43c 115b 67ba
000001d0: 789c b5bc adfd d5bd c0d9 a9bd 7e83 15bc
000001e0: f029 ddbc 0daf 9cbd ae76 723d 177c 19bd
000001f0: 5bf9 ac3d cc22 c93d c33b 983d a1f5 dcbd
00000200: d6b7 d3bc b957 f53d 35f5 e93d faf4 243e
00000210: fa6f 943d 3f08 c9bd 5678 0b3e fd15 143d
00000220: a08d c9bd 64b5 c93d 4abb cd3b 09a9 54bd
00000230: d571 78bd 8c01 fc3c 0bd1 5abb bbf7 6f3d
00000240: 6ac6 203d 7233 5bbd 783c 0fbd 0f34 5d3e
00000250: 2ef4 ffbd 68fa 103e 54e3 8f3d a1f3 9f3c
00000260: 71e1 063e b6be bfbc 9392 d33d e60e 0abd
00000270: 9d86 8fbd 9161 40be fc41 62bd 0055 033e
00000280: cde1 63be 21f8 d7bc d7a4 f93c fde3 9cbc
00000290: 8d78 1c3d 051e 76bb 4d0e 833d 799f f33d
000002a0: dc9b 893c b8d9 f9bd 4534 0d3c e83e 4fbd
000002b0: 879e 2fbe 67b7 aa3b 5049 793e 02d9 79ba
000002c0: 60af 55bc 7250 66be 954c 73bd 0b70 323e
000002d0: aff6 ac3d 65cc 3b3c f59d 58bc 426a 0bbe
000002e0: e6b1 84bd ec23 0e3d 0b51 843d cad4 c53d
000002f0: 9f96 e13d 5621 2b3d 9d0a 363e b13f 82bd
00000300: 4e90 d1bd 21fd 963d caf8 853d eff3 d13c
00000310: 40c8 803e 054a 89bc 3670 91be 397f bb3d
00000320: 1d14 39bd 1396 f7bb bcf0 99bd 1f42 10be
00000330: acb0 be3d 3119 fa3c 45e6 ab39 1e0e 54be
00000340: bdeb 823e 3037 bf3c 9e0d a43d 5a91 dc3c
00000350: 190e f13c 1d42 45be 7b70 62bd 14e6 073e
00000360: ab44 ef3c 2461 c2bd df63 e13d 6212 42be
00000370: bad0 cd3d f1a9 cabc 62f5 6abe 916a ca3c
00000380: 9b13 51bd f499 c93d dba2 58bc fd94 3b3e
00000390: 179c b53d 1e43 f63d 0b7d 6c3d 13a6 203e
000003a0: e3b9 bd3d b958 003d db4f 023e a2d0 313e
000003b0: 1d1f 133e b4d2 c4bd 5978 d4bd a8e6 42ba
000003c0: f61c ddbd 4c9d 833c 1ea4 b2bc 66a5 ae3d
000003d0: 2df2 4bbd 9bcc c5bc 411c 373d 33fb d1bd
000003e0: 942a 15bd e295 bbbd f5ab 163d 9de9 253d
000003f0: 7521 473d 7881 27bc 3b26 1d3d 901f 9dbc

dense2.bias f4 [80]
-0.042690188 0.17512494 0.10102184 -0.030975021 -0.041786574 0.0019001189 0.14736946 -0.039366752
-0.06551271 -0.0830458 -0.016671026 -0.12587385 0.052411266 0.049185056 0.1622882 -0.00941794
-0.03682375 0.034133397 -0.10498951 0.0044856546 0.017727 0.14177774 -0.08810904 0.019085933
0.15538958 0.11550615 -0.04456339 0.093250535 0.011851884 -0.052239742 -0.09781207 0.08219717
0.054034457 0.09890048 0.034908336 0.060434125 -0.058367472 -0.052218184 -0.10073374 0.08328755
-0.09848646 -0.02431984 0.110200174 -0.10311208 0.05234732 -0.09112721 0.05538578 0.04521599
-0.063638255 -0.16646194 0.08455185 0.15410365 0.0338001 0.102336876 -0.020204432 -0.07592562
0.14232445 -0.020039937 -0.07842836 0.116420686 0.044024445 -0.06049412 -0.0017697011 0.10270819
-0.048547383 0.1299619 0.05460399 0.0053271456 0.06631712 0.02638458 0.012277492 0.17457648
-0.15473892 0.2632084 0.0102267545 -0.026213989 0.06703902 -0.17225699 0.07300092 0.1547348
00000000: e8db 2ebd f453 333e 8ae4 ce3d 54bf fdbc
00000010: 6628 2bbd 690d f93a 05e8 163e 083f 21bd
00000020: 872b 86bd eb13 aabd ad91 88bc 13e5 00be
00000030: 32ad 563d 4576 493d e12e 263e b44d 1abc
00000040: 80d4 16bd 76cf 0b3d bd04 d7bd 66fc 923b
00000050: 3738 913c 2f2e 113e 8372 b4bd 1a5a 9c3c
00000060: 721e 1f3e 7d8e ec3d 1a88 36bd 23fa be3d
00000070: 682e 423c 57f9 55bd b251 c8bd fd56 a83d
00000080: 3c53 5d3d 568c ca3d 0bfc 0e3d c689 773d
00000090: bb12 6fbd bce2 55bd 7e4d cebd aa92 aa3d
000000a0: 45b3 c9bd 673a c7bc a1b0 e13d 6d2c d3bd
000000b0: 256a 563d e7a0 babd 33dc 623d 6734 393d
000000c0: c654 82bd 0075 2abe 8529 ad3d 59cd 1d3e
000000d0: f971 0a3d ff95 d13d c483 a5bc e47e 9bbd
000000e0: 80bd 113e cb2a a4bc 0c9f a0bd f86d ee3d
000000f0: fa52 343d afc8 77bd 51f5 e7ba ac58 d23d
00000100: 9fd9 46bd bb14 053e 6fa8 5f3d 568f ae3b
00000110: 45d1 873d 7a24 d83c 8927 493c 2dc4 323e
00000120: e173 1ebe 40c3 863e 1e8e 273c b8be d6bc
00000130: c14b 893d 2364 30be 8281 953d cd72 1e3e

final.weight f4 [43, 80]
-0.0842348 0.057826962 0.14264464 -0.06577505 -0.057007946 -0.30682978 -0.033165433 -0.057952207
0.08245791 0.018943131 0.0019306361 0.03753924 0.050258704 0.024442177 -0.44728684 -0.18648797
0.00083613716 0.10759543 -0.068215296 -0.091279685 -0.08019226 -0.03397223 0.055059243 -0.025481554
-0.010250366 -0.0355462 0.023888897 -0.066240184 -0.14936005 -0.057723396 0.040838942 0.09157167
-0.09482115 -0.31469467 -0.011632872 -0.09597621 -0.085495904 -0.11107995 0.082802415 -0.096160814
-0.0069863913 0.13878763 -0.30735505 0.06380257 0.11340488 0.0011540856 0.029315421 -0.40948978
0.008984801 -0.12739687 -0.19239518 -0.020823734 -0.2052772 0.1821029 -0.09267339 0.033504225
0.08980405 -0.01373346 0.022174647 -0.023733277 -0.5720903 0.12584685 0.043010436 -0.372997
0.20758139 0.24850614 -0.33658448 0.050182175 0.17953639 -0.10388835 0.07525944 0.019314708
-0.009196338 0.038008396 -0.02923508 -0.0667818 -0.06350622 -0.55724734 -0.2429296 -0.16101184
-0.105300106 0.103816874 0.03670105 0.018401647 0.14115584 -0.16158447 -0.25778893 0.05068067
-0.0071562384 -0.11294347 0.045342736 -0.2052528 0.04603924 0.03360718 -0.24672514 0.059902802
-0.12062493 0.0152148865 -0.086386286 -0.0014003572 -0.08937729 0.14914441 -0.008026938 -0.040959556
-0.063213125 0.14957877 -0.11181136 -0.06371534 -0.23518041 0.02716935 -0.19746582 -0.015996248
-0.061832413 -0.07564747 -0.11553279 -0.026318252 0.06223599 -0.15681432 -0.079797044 0.050249692
0.08628183 0.13397282 0.019367425 -0.018947586 0.12681107 -0.04026231 0.09721826 -0.17342328
-0.16745743 -0.19536802 0.031717595 0.085398525 0.05498799 0.0712293 0.008556622 -0.08781997
0.10874611 -0.048514675 -0.08239706 0.13404179 -0.29182085 0.16709632 0.064977385 0.05109859
-0.16825984 0.058864877 -0.2109184 0.042058386 0.1551559 -0.026756695 -0.033775844 0.0679807
0.010362021 0.09557797 -0.050472602 0.046620086 -0.14808926 -0.39616862 -0.3200567 -0.03896854
0.06319905 0.14709422 0.01571071 -0.03131123 0.1494469 -0.16131376 0.03418544 0.04576966
-0.0772572 0.077512845 -0.034579996 -0.094144285 0.15538774 0.12406642 -0.18508662 -0.18058546
-0.080683455 -0.2148074 0.054418426 -0.010144644 -0.013257386 -0.049876485 0.0118900975 -0.10873462
0.09020628 -0.13455592 0.026133759 0.078414984 -0.076404035 0.056092143 0.022172626 -0.19957188
-0.05146371 0.017481195 -0.21690747 0.011375371 -0.0027429385 0.05345259 0.03736965 -0.047617074
-0.041036166 -0.0135173835 -0.022230709 -0.056164205 0.07919438 0.018624175 0.023111604 0.14128648
-0.0047276067 -0.2051377 0.122680694 0.08407431 -0.031843655 0.06223685 -0.10017685 -0.0495498
0.11064397 -0.03810795 0.043501746 0.09714199 -0.06467002 -0.009664615 -0.1670452 0.13481815
-0.2742982 -0.14414683 0.038495857 -0.15300506 -0.05520505 -0.03034951 0.088234805 0.06386972
0.10225526 0.100381434 -0.044751022 0.014565227 0.036401674 -0.26203626 -0.010101444 -0.04226651
0.10476125 0.12579511 -0.10868387 0.010351341 0.09578914 0.21010578 -0.0028299007 0.03753153
-0.00953335 -0.07774208 -0.24507421 -0.10628893 -0.20837635 -0.04349644 0.10762586 -0.14940241
00000000: 4b83 acbd f7db 6c3d 7011 123e 12b5 86bd
00000010: 2a81 69bd cb18 9dbe 7ad8 07bd 4b5f 6dbd
00000020: b1df a83d a02e 9b3c 660d fd3a bfc2 193d
00000030: 12dc 4d3d f63a c83c c802 e5be b4f6 3ebe
00000040: 3730 5b3a fe5a dc3d 76b4 8bbd d8f0 babd
00000050: d73b a4bd 7726 0bbd cd85 613d b1be d0bc
00000060: 27f1 27bc e498 11bd a6b2 c33c efa8 87bd
00000070: d7f1 18be 5e6f 6cbd bc46 273d ed89 bb3d
00000080: 9731 c2bd a91f a1be cd97 3ebc 2d8f c4bd
00000090: 7a18 afbd e37d e3bd 5094 a93d f6ef c4bd
000000a0: 19ee e4bb 581e 0e3e a45d 9dbe ecaa 823d
000000b0: d140 e83d b044 973a e526 f03c a5a8 d1be
000000c0: fd34 133c 5374 02be 3e03 45be 8996 aabc
000000d0: 3034 52be 2f79 3a3e 8ccb bdbd ba3b 093d
000000e0: 30eb b73d 4e02 61bc 9ba7 b53c 4a6c c2bc
000000f0: 8374 12bf ffdd 003e b62b 303d 76f9 bebe
00000100: 3790 543e 6578 7e3e cd54 acbe d38b 4d3d
00000110: 63d8 373e 6ac3 d4bd 9f21 9a3d e139 9e3c
00000120: 3dac 16bc b1ae 1b3d 687e efbc e5c4 88bd
00000130: 8d0f 82bd c3a7 0ebf 89c2 78be 4ae0 24be
00000140: 95a7 d7bd f19d d43d d753 163d 0dbf 963c
00000150: 288b 103e 6676 25be e9fc 83be 8996 4f3d
00000160: e17e eabb e84e e7bd 4eb9 393d ca2d 52be
00000170: a493 3c3d afa7 093d 84a5 7cbe a45c 753d
00000180: 340a f7bd dc47 793c 4beb b0bd 318c b7ba
00000190: 710b b7bd 50b9 183e 6b83 03bc 35c5 27bd
000001a0: e275 81bd 2d2b 193e 5bfd e4bd 307d 82bd
000001b0: 22d3 70be 4292 de3c 7b34 4abe 900a 83bc
000001c0: fc43 7dbd 10ed 9abd 759c ecbd 6099 d7bc
000001d0: 2aeb 7e3d ef93 20be a26c a3bd 9fd2 4d3d
000001e0: 87b4 b03d 2c30 093e 6fa8 9e3c f837 9bbc
000001f0: c3da 013e 18ea 24bd 5e1a c73d df95 31be
00000200: f679 2bbe 8e0e 48be 4fea 013d 6ce5 ae3d
00000210: 163b 613d abe0 913d 1331 0c3c f5da b3bd
00000220: 48b6 de3d 53b7 46bd cabf a8bd 4042 093e
00000230: 8b69 95be 4c1b 2b3e dd12 853d c14c 513d
00000240: 4f4c 2cbe 4c1c 713d fefa 57be 6a45 2c3d
00000250: 30e1 1e3e db30 dbbc 8a58 0abd 7739 8b3d
00000260: 77c5 293c 62be c33d 5cbc 4ebd b4f4 3e3d
00000270: b6a4 17be 9dd6 cabe 79de a3be 7a9d 1fbd
00000280: 816e 813d de9f 163e bfb3 803c 3440 00bd
00000290: 9c08 193e 6f2f 25be 0806 0c3d f878 3b3d
000002a0: 0639 9ebd 0ebf 9e3d c1a3 0dbd b8ce c0bd
000002b0: f71d 1f3e 8916 fe3d 5987 3dbe 65eb 38be
000002c0: 5e3d a5bd 79f6 5bbe dbe5 5e3d b935 26bc
000002d0: 8235 59bc 494b 4cbd afce 423c 42b0 debd
000002e0: 12be b83d 07c9 09be 7716 d63c 0998 a03d
000002f0: b879 9cbd e0c0 653d 5ea3 b53c 925c 4cbe
00000300: 9ccb 52bd b934 8f3c fe1c 5ebe c45f 3a3c
00000310: dfc2 33bb 1af1 5a3d eb10 193d 1f0a 43bd
00000320: 8a15 28bd 0478 5dbc 2d1d b6bc 700c 66bd
00000330: aa30 a23d ba91 983c 8c54 bd3c 67ad 103e
00000340: 0aea 9abb 9e0f 52be 0440 fb3d 272f ac3d
00000350: 7e6e 02bd 11ec 7e3d 8529 cdbd bbf4 4abd
00000360: 4e99 e23d 1517 1cbd e32e 323d 61f2 c63d
00000370: b771 84bd 5558 1ebc e60d 2bbe c50d 0a3e
00000380: d070 8cbe 3a9b 13be d5ad 1d3d 5cad 1cbe
00000390: b11e 62bd 899f f8bc 73b4 b43d 21ce 823d
000003a0: 356b d13d c894 cd3d d94c 37bd fda2 6e3c
000003b0: ec19 153d 9e29 86be 8780 25bc a61f 2dbd
000003c0: 118d d63d 6fd0 003e a695 debd ac98 293c
000003d0: 192d c43d f825 573e db75 39bb a9ba 193d
000003e0: c531 1cbc 3d37 9fbd bcf4 7abe 03ae d9bd
000003f0: 9c60 55be 5329 32bd f26a dc3d f2fc 18be

final.bias f4 [43]
0.096658446 0.09503867 0.086227514 0.010302174 0.064989015 -0.005505188 -0.09635325 -0.07016258
-0.06916368 -0.019545458 -0.1748087 -0.12831263 0.04674901 0.020889077 -0.05120524 -0.04818721
-0.048302423 -0.20527504 -0.031948745 -0.04301497 0.1019121 -0.09221072 -0.036656715 -0.1674774
0.23523694 0.05319596 -0.17270534 -0.11179529 -0.10802067 0.1281936 -0.027982745 0.16830759
-0.076791435 -0.037263036 -0.16080295 -0.034677997 0.075863004 -0.12317239 -0.11013769 -0.039956804
-0.07048856 -0.2055224 0.003053683
00000000: ddf4 c53d a2a3 c23d 0d98 b03d 73ca 283c
00000010: f618 853d dd64 b4bb da54 c5bd 66b1 8fbd
00000020: b0a5 8dbd cc1d a0bc 0d01 33be 6364 03be
00000030: e47b 3f3d 921f ab3c 96bc 51bd f45f 45bd
00000040: c3d8 45bd 9f33 52be b0dc 02bd 7730 30bd
00000050: 4bb7 d03d f9d8 bcbd 5a25 16bd 327f 2bbe
00000060: f4e1 703e 02e4 593d abd9 30be eef4 e4bd
00000070: f139 ddbd 2f45 033e 123c e5bc d358 2c3e
00000080: d444 9dbd 20a1 18bd 87a9 24be 840a 0ebd
00000090: 105e 9b3d ce41 fcbd df8f e1bd bfa9 23bd
000000a0: 4e5c 90bd 7774 52be 4d20 483b
