Robustness/models/base_epsilon_20.pth (torch, 259240 bytes, 10 tensors)

conv1.weight f4 [6, 1, 5, 5]
000000 e5 ce 87 3b 56 f9 dc 3b fe e2 34 3c 2e ca 11 3d
       0.004144537 0.0067435903 0.011040447 0.035593204
000010 b9 7b cb bc fc 28 0e bd cd c0 cb bd 32 64 5f 3e
       -0.024839269 -0.034707054 -0.09948883 0.21815565
000020 bd 72 c5 3b 07 6f 02 be d6 f2 53 bd 41 09 a4 bd
       0.0060256408 -0.12737666 -0.05174526 -0.080095775
000030 39 86 24 3e 41 78 07 3e 1c c3 2a be e8 c8 57 bd
       0.16066827 0.13229467 -0.16675991 -0.052681834
000040 06 20 0c be 51 ee 30 3e 40 eb 2b 3e a9 cb 05 be
       -0.13684091 0.1727841 0.1678896 -0.13065971
000050 2b 12 d4 3b ef ac 11 be 88 82 d9 3d 92 a4 08 3e
       0.0064718924 -0.14226125 0.106206 0.13344029
000060 e9 b6 e1 bd 45 22 90 3c 70 c1 10 bc 90 e3 da 3c
       -0.110212155 0.017594466 -0.008835182 0.026719838
000070 cd a8 53 bc 80 c9 ae 3c 14 35 e5 3c ab ff d0 3d
       -0.012918663 0.021336317 0.027979411 0.10205015
000080 70 9a 80 3e 1e 45 d9 3d d9 41 7b bc 83 ec f3 bb
       0.25117826 0.10608886 -0.0153355235 -0.007443966
000090 38 9b a8 bc 8d 0a 80 3e 0b 71 26 3c 68 d6 41 bc
       -0.020581827 0.2500805 0.0101587875 -0.011830904
0000a0 d8 f4 13 bd ac 43 d3 bb a4 5f a5 3d 52 34 c5 3c
       -0.036122173 -0.006447276 0.080748826 0.0240728
0000b0 e3 88 d6 bc de f6 c0 3c 50 75 4b bc 32 da 81 bc
       -0.02618832 0.023555215 -0.012418106 -0.015851114
0000c0 a7 8e cd 3c 74 30 b1 3a d6 b7 81 bb dd 30 9c 3b
       0.025092436 0.0013518468 -0.0039586825 0.004766567
0000d0 ae 50 34 bc ea 28 a6 3b 2f fe ac 3b d8 f4 35 3b
       -0.011005564 0.0050707953 0.0052793245 0.0027764346
0000e0 4f f1 b9 bc bc ff 05 bd a6 24 80 bd 3d 5a 07 bc
       -0.022698073 -0.03271459 -0.0625699 -0.008261261
0000f0 45 2d e4 39 ae 90 d9 bc 63 06 a9 bc 60 da 56 bd
       0.00043521277 -0.026558246 -0.020632928 -0.052454352
000100 c3 bb 5f 3b 2d c9 37 bc e1 e0 84 bb e8 31 8e 3a
       0.0034139014 -0.011217398 -0.004055128 0.0010848613
000110 0f 9f 09 3d f4 21 b0 ba 08 e7 4d bb 0b a5 d6 bb
       0.033598956 -0.0013437853 -0.0031418223 -0.0065504364
000120 b7 03 e2 3a 1a d8 c3 3a fe af c2 3a 23 f5 8d bc
       0.0017243539 0.0014941723 0.0014853475 -0.017328804
000130 a9 a2 2d ba ee e6 16 3c f0 58 57 3b 40 66 8d bc
       -0.00066236645 0.009210331 0.0032859407 -0.01726067
000140 66 15 2c bc 23 7c 08 bd 84 17 4b bd cc 7a 04 bc
       -0.010503149 -0.03332151 -0.049582973 -0.008085918
000150 97 06 0b bc b0 86 c3 bc 1b 88 58 bd 91 dd 8b bd
       -0.008485458 -0.023867935 -0.052864175 -0.0682937
000160 78 72 e0 bc 86 34 68 bc 2a 86 21 bd 5e db 5c bd
       -0.027398333 -0.014172679 -0.03943459 -0.053920142
000170 b1 21 89 3e 06 74 5a bc 1a 24 0b bd c2 80 6d bc
       0.26783517 -0.013333326 -0.033969976 -0.01449603
000180 b7 72 00 3d b1 b6 6f 3f 21 5a 3f 3d 50 e1 c7 bc
       0.0313594 0.9363814 0.046716813 -0.02439943
000190 8a d2 01 3c 82 93 8b 3c 62 94 3a 3b 2c 46 84 bb
       0.007923732 0.01703811 0.002846979 -0.0040366855
0001a0 4b 86 76 bb d1 73 07 bd 25 86 42 bd 67 85 17 bd
       -0.0037616666 -0.033069436 -0.04749121 -0.036992457
0001b0 0d 25 50 bc f0 88 9c bb 06 9c bf 3c 93 74 5c 3a
       -0.012704146 -0.0047770664 0.023389827 0.0008409705
0001c0 30 46 72 3c f5 49 41 3c 0a 0c 81 37 b6 f4 5c 3e
       0.014787242 0.011797418 1.5383604e-05 0.21577725
0001d0 17 cc 87 3f cb fc e5 3d fc 7f df bc 76 b4 6b bc
       1.0609158 0.11229857 -0.027282707 -0.014386287
0001e0 dd 84 23 bd 1c ec 0b 3e ed 6b a6 bd 1f 93 9d bc
       -0.03992163 0.13664287 -0.08126054 -0.019235192
0001f0 34 60 89 3c 11 4c cb bc f7 1b f6 bc 9b 84 c7 bb
       0.016769506 -0.024816545 -0.030042632 -0.006088806
000200 ef b2 ac 38 43 5a 08 bc 22 fc a7 bd 84 d6 fa bb
       8.234928e-05 -0.008322301 -0.082023874 -0.007654967
000210 18 d3 a0 bc c5 99 d4 bc cd 12 f2 bb ca 9d 3d 3c
       -0.019631907 -0.02595223 -0.007387495 0.011573264
000220 ef 4d 8d 3f 2a 12 19 bc 92 27 2e bd 7d 3a c8 3b
       1.1039408 -0.00934271 -0.042518206 0.006110488
000230 d5 87 25 bb 9d 9e 09 3e 32 c7 49 bb 95 4c 11 bd
       -0.0025257964 0.13439412 -0.0030788896 -0.035473425
000240 13 c0 0d bb 13 cd 4e bd 8c fc 5d bd 24 09 8a bd
       -0.0021629378 -0.050488543 -0.054195926 -0.06740025
000250 49 c2 91 bc 32 47 ac bb
       -0.017792838 -0.0052575106

conv1.bias f4 [6]
000000 72 dd 0f bd bd a7 31 3f fe 38 9d 3d 0e 11 c5 3e
       -0.035123296 0.69396573 0.07676886 0.38489574
000010 64 d4 87 3e ce 8c f4 3e
       0.2652923 0.47763675

conv2.weight f4 [16, 6, 5, 5]
000000 a1 49 be bb ff d0 0e bd ba d1 4e bd a9 f9 b2 3b
       -0.005807117 -0.034867283 -0.05049298 0.0054618907
000010 fe b4 d4 3b 26 cd ac ba e4 97 b7 bd 1e 73 89 bd
       0.0064913025 -0.0013183698 -0.08964518 -0.0671141
000020 77 59 98 bc cb 2a ce 3a b4 8a 5d bc 1d cf aa bd
       -0.018597348 0.0015729306 -0.013521839 -0.08340285
000030 c9 45 3c be 02 b0 8d 3c df 5d 69 3c 4d a3 40 3c
       -0.18385996 0.017295841 0.014243572 0.011757684
000040 ff 58 2a 3b ff 2f a3 3b a0 86 43 3d f1 d8 00 3d
       0.0025992987 0.004980087 0.04773581 0.03145689
000050 a5 34 bd 3b 6d 7a cd bc c8 d0 55 bd 11 9f 49 bd
       0.005774098 -0.025082791 -0.052201062 -0.049223963
000060 89 8a 7a bc cf bc 14 bc 3e bc a4 bc cc 4a 5b 3c
       -0.015291818 -0.009078219 -0.020109292 0.013384532
000070 e1 28 1f 3c 87 31 00 3c c3 4b 04 bd 0b 51 15 3e
       0.009714336 0.007824308 -0.032298815 0.14581697
000080 7c c0 35 3e 91 ad 97 3d c9 c8 df bc 24 ea 9c 3c
       0.17749208 0.07406152 -0.027317422 0.019154616
000090 4c 59 17 3e 95 e9 81 3e 08 bd 20 bb 68 94 c2 bd
       0.14780158 0.2537352 -0.0024526734 -0.095009625
0000a0 72 c5 11 3c 99 e4 51 bd d4 32 e5 be c1 8f 91 be
       0.008897172 -0.0512434 -0.4476534 -0.28429988
0000b0 0d 8b cb bd bf 49 c3 bb 3d 35 02 3c 94 a3 37 3d
       -0.09938631 -0.005959719 0.007947263 0.044833735
0000c0 74 75 52 3d 44 a5 37 3c 73 d3 80 3c 52 d7 bd ba
       0.051381543 0.011208836 0.015725827 -0.0014483726
0000d0 4d 3c 4a 3c 96 e7 2c 3d 02 f1 c4 3c 2b 52 83 3d
       0.012343478 0.042213045 0.024040703 0.06412157
0000e0 9c 09 d0 bd 81 56 08 be 74 4c 7e bd 87 cd 03 3d
       -0.10158083 -0.13314249 -0.06208463 0.032178428
0000f0 1b 87 91 3d 94 a4 24 be 00 0c 94 be b8 55 46 bd
       0.071058474 -0.16078407 -0.28915405 -0.04842159
000100 4f 4c af 3c ea 4a 62 bb 78 56 f2 3d 12 ca d8 3d
       0.021398691 -0.0034529516 0.11832899 0.10585417
000110 de a5 47 bc 24 35 2c 3d f3 6d c7 bc c2 8b 66 bd
       -0.012185542 0.042042866 -0.02434442 -0.056285627
000120 4e 78 87 bc 8a 46 87 3d c7 43 74 39 6b 53 a0 3c
       -0.016536858 0.06605251 0.00023294902 0.019571027
000130 5c fa 0b bd c8 34 20 bd 8c 6e 99 bd 13 b9 9c bc
       -0.03417431 -0.039112836 -0.07491788 -0.019131219
000140 77 36 32 bc 00 f2 79 3e d5 c0 2d 3f 6a bf 72 3e
       -0.010877243 0.24408722 0.67872363 0.23705831
000150 db 01 50 bd 6c 83 90 bc 74 9c 9c bb bb 54 1a bf
       -0.05078302 -0.017640792 -0.004779393 -0.6028554
000160 ea f8 d3 be 0e 48 bb bd 3f 60 d6 3c 2a 33 ea bc
       -0.41400844 -0.09144603 0.02616894 -0.02858885
000170 3d c9 0b 3e 66 29 cd 3d da 35 a9 3c 78 eb fe bb
       0.13650985 0.10017662 0.020655561 -0.007779535
000180 b8 64 fd 3c 6f bf b5 bc 14 d4 5e bb 70 e3 70 3c
       0.030931816 -0.02218601 -0.003400092 0.014702663
000190 1d 95 67 bc ee cc 1f 3d a2 29 c0 bd d9 92 1a bd
       -0.0141346725 0.039013796 -0.09382941 -0.0377377
0001a0 c0 42 41 3d 5d 00 49 ba a2 18 c0 3d 8e 80 32 3e
       0.0471828 -0.00076675956 0.09379698 0.17431852
0001b0 f3 bd b3 3e 64 4f 0c 3d 54 16 00 bd 88 5e 7d 3d
       0.35105857 0.0342554 -0.031271294 0.06185773
0001c0 20 65 8d be a3 c2 ef be bb 03 f8 bd f8 a6 ec 3c
       -0.27616215 -0.46828184 -0.121100865 0.02888821
0001d0 66 0e 46 bd 3c 98 d0 bd 9d 12 b1 3d 1b 06 52 3d
       -0.048353575 -0.101852864 0.08646128 0.051275354
0001e0 8c 90 05 bb d5 95 71 bb b9 63 29 3d cc 3b 24 3d
       -0.0020380346 -0.0036862988 0.04135487 0.04009609
0001f0 a5 cb 9a 3d 7b ae 00 bb 3b b1 c8 bc 3e e3 ba ba
       0.07558373 -0.0019635248 -0.024498573 -0.0014258397
000200 a5 ac 0e 3d a0 f6 9b bc e8 f8 55 bc 64 33 26 3d
       0.034832615 -0.019038498 -0.013059832 0.040576354
000210 67 f1 3b 3e f6 18 5b 3e e4 95 fe 3c 17 30 fd bb
       0.18353806 0.2139624 0.031077333 -0.00772668
000220 cc 91 30 3d 4d d9 65 3e a6 51 8f 3d e0 20 00 be
       0.043107793 0.22446175 0.06997995 -0.12512541
000230 60 2d 74 bc 88 73 93 bc 0f f1 7a be 11 18 a1 be
       -0.014903396 -0.017999426 -0.24506019 -0.31463674
000240 2e 11 71 bc e4 48 56 3c 53 8b 13 3c ae ac 93 b9
       -0.014713569 0.013078902 0.009005385 -0.0002816668
000250 ab 06 6c 3d e7 05 a0 bc c9 6b 38 3c 1f f1 03 3c
       0.057623547 -0.019534064 0.011256167 0.008053093
000260 42 9c 08 3d 23 06 8b bc f6 a6 ad bb e4 a6 70 3b
       0.033352144 -0.0169707 -0.0052994443 0.0036720568
000270 18 c5 09 bd 17 88 61 bc f9 d9 49 3c 18 26 86 bb
       -0.03363523 -0.0137653565 0.012320035 -0.0040938966
000280 89 d3 aa bd 1a 36 73 bd 12 82 22 bd 16 08 b0 3a
       -0.083411284 -0.059377767 -0.039674826 0.0013430144
000290 83 16 20 3a 79 55 a8 bb 5a 83 62 bc ec dc 12 3d
       0.000610687 -0.0051371423 -0.013825262 0.03585522
0002a0 22 ef 64 bb a7 27 f2 3a 71 a0 05 3c b0 28 02 ba
       -0.0034932573 0.0018474952 0.008155928 -0.00049651694
0002b0 8b 32 9f bc f8 dc 45 bc ce 7e 1f 39 c3 06 2f 3d
       -0.01943328 -0.012076609 0.0001521066 0.042731058
0002c0 2a 2c 0f 3d 6e 8c 80 3d d0 20 2b 3d 31 35 87 3c
       0.034954228 0.06276785 0.04177934 0.016504856
0002d0 f3 96 b8 3d 73 e7 4a 3d d1 a1 e3 bd be 50 a4 3c
       0.09013166 0.049537133 -0.111148484 0.020058032
0002e0 76 93 48 bd 8c 1c 9e 3d 0c d1 76 3e 71 b3 aa bd
       -0.048968755 0.07720289 0.24103183 -0.08335007
0002f0 44 f8 5c be 71 13 8c bc 94 eb a1 3d 88 44 de 3d
       -0.21579081 -0.017099114 0.07906261 0.10852915
000300 84 22 84 3b 3b 50 aa bd f9 8a 81 bd c7 36 00 3d
       0.004032435 -0.08316084 -0.06325335 0.03130224
000310 a2 85 37 3c db a5 2b bd 39 5f 9a 3c 11 5c a7 bc
       0.011201294 -0.04190622 0.018844234 -0.020429643
000320 aa 1b 22 3c 7b 06 58 bd 54 f6 2a 3d fa 39 5f bc
       0.009894291 -0.052740555 0.041738823 -0.0136246625
000330 fc fb 0f 3a 32 6d 3c bd 4d 11 8e bd 88 2d 9d bc
       0.00054925657 -0.046002574 -0.069368936 -0.01918675
000340 53 0f 12 3c 73 d4 9c bc 3a 00 83 bd 3e 82 f7 bd
       0.008914786 -0.019144272 -0.063965276 -0.120853886
000350 91 c3 d5 3c 28 26 21 3d 50 59 1d 3d fe 1f 4f bc
       0.02609423 0.03934303 0.038415253 -0.012641905
000360 8d bd a1 bd f3 f8 12 bd 6b 3b 6e 3d 23 55 b4 3c
       -0.07897482 -0.035881948 0.058162134 0.022013253
000370 c0 9c 3d bc dd b8 50 bd 44 32 cd 3c 8b 03 23 3c
       -0.011573017 -0.05095755 0.025048383 0.009949575
000380 dc ed 1e 3c 92 c7 83 3d af c4 22 3d ab 29 07 bd
       0.009700265 0.064345494 0.039738353 -0.032998722
000390 d8 11 ae 3d fc 13 9f bc 1c 2a f9 3c 71 f7 b2 3e
       0.08499497 -0.019418709 0.030415587 0.34954408
0003a0 21 9e b6 bd 8c 49 84 be ac 77 78 bc e4 a3 d0 3d
       -0.089168794 -0.25837362 -0.015165251 0.1018751
0003b0 6c a1 53 3e 33 30 81 3d e9 d3 be be 89 dc 29 bd
       0.20667046 0.063080214 -0.3727105 -0.041470084
0003c0 fa 88 b1 3d 1d ea c1 bc 9b 85 60 3c 77 90 fa bc
       0.08668704 -0.023671204 0.013703729 -0.030586464
0003d0 cf d1 41 bb 96 74 46 bc 46 2f 37 3d 0b f4 6e bd
       -0.0029574519 -0.012112757 0.044722818 -0.058338206
0003e0 eb 37 8c bb 5f dd dd bc fb 26 8c 3d 7e 1b 19 3d
       -0.004279127 -0.027083097 0.068433724 0.037379734
0003f0 9d b5 88 bd a7 70 91 3d 01 f2 8c bc 67 f2 77 3d
       -0.06675265 0.07101565 -0.01720524 0.060533907

conv2.bias f4 [16]
000000 14 7a 7c 3d f3 af ce 3d 38 59 af 3e 79 0f 75 3f
       0.06163986 0.100921534 0.34247756 0.95726734
000010 21 28 b6 3d c5 4c 12 3f 5e 0d 92 bd 59 38 27 3e
       0.08894373 0.5714839 -0.07131456 0.16330089
000020 12 28 0a 3e 95 9b 99 3e 8c b5 4e be eb 17 08 3e
       0.13491848 0.30001512 -0.20186442 0.13290374
000030 1f b9 e4 3d 52 c9 81 3d 1e 86 e4 3b 2d 4e 10 bd
       0.111681215 0.06337227 0.006973996 -0.035230804

dense1.weight f4 [120, 400]
000000 a7 d7 60 3b 38 a1 8c bd 1b 55 d4 3b 27 6e 00 bd
       0.0034308226 -0.068666875 0.006479872 -0.03135505
000010 fa 9c 82 bd 32 d5 8d bd 0f b1 ff 3d c4 05 3b 3e
       -0.06377597 -0.069254294 0.12484943 0.18263918
000020 b9 88 9e 3d f5 b1 86 bd 00 b5 44 3c 7e 64 b3 3e
       0.077409215 -0.06576911 0.012006044 0.35037607
000030 d8 29 d7 3d 4b 14 98 3d dd 2d 26 be f3 b9 cc 3d
       0.10506028 0.074257456 -0.16228433 0.099964045
000040 fb 48 a7 3d 0d 86 50 be 04 43 9b bd cb 1d 75 bb
       0.08168217 -0.20363636 -0.075811416 -0.0037401791
000050 00 d5 6b bd 45 44 08 be cf 4a c1 3d 00 3a bb 3c
       -0.05757618 -0.13307293 0.09438097 0.022854805
000060 76 c4 10 bd 53 51 3a 3c 35 22 31 bd 85 c0 df bd
       -0.03534361 0.011371928 -0.043245513 -0.10925392
000070 95 05 17 bd 8c 3b f1 bc 43 2c c8 bd 5d 83 9c 3c
       -0.036870558 -0.02944734 -0.09774067 0.019105608
000080 ce ce 24 3d 0a 97 f3 3d 04 e3 10 3c 2c c5 04 be
       0.040236287 0.11894043 0.008843187 -0.1296584
000090 53 0d 83 be f3 95 da 3d 94 b2 25 3e 64 31 0e 3d
       -0.25596103 0.10673132 0.16181403 0.03471507
0000a0 72 f9 17 bd ac 71 27 3c 1f 18 3f 3e 7d e0 60 3e
       -0.037103124 0.010219973 0.18661545 0.21960635
0000b0 06 90 46 3d 18 e5 3a 3d ef 89 c7 bd 71 bd ab be
       0.048477195 0.045628637 -0.097431056 -0.3354297
0000c0 12 8d 53 bd 74 91 9b 3d d8 d5 db 3a 92 e4 83 3d
       -0.051648207 0.07596102 0.0016772104 0.06440081
0000d0 47 cc 6f bc 0b 4a 02 bd 9c 7a af bc 6c 6f b8 bd
       -0.014636106 -0.031808894 -0.02142077 -0.09005627
0000e0 95 1b a1 bc 6f db 5f 3d bf f9 a3 3b 3c f2 bf bc
       -0.019666472 0.054652628 0.0050041373 -0.023430936
0000f0 11 ba 8c be 34 3e 8c be 55 e2 2f bb bd e7 d6 3d
       -0.27485707 -0.27391207 -0.0026837785 0.10493419
000100 66 57 11 bc 63 a2 90 bd 15 d8 cd 3d 7c 50 f2 3d
       -0.008870935 -0.07062223 0.1005098 0.118317574
000110 58 00 0a be c6 03 be bb 11 5c d9 bd 26 1a 0d bd
       -0.13476694 -0.0057987897 -0.106132634 -0.034448765
000120 ac 43 89 bd 12 d7 97 3d 5d f7 31 be 45 13 90 bd
       -0.067023605 0.07414068 -0.17379518 -0.07034925
000130 c4 41 f0 bc 7a 6a 5a be b8 b2 6a bd 35 f0 59 bd
       -0.029328234 -0.2132968 -0.057299346 -0.053207595
000140 df f2 d3 bd 9c 01 30 be b7 6f 81 be 3d 48 7b be
       -0.10349058 -0.17188114 -0.25280544 -0.24539275
000150 39 c9 25 bd 70 d8 7b be 63 ee d2 be 47 5d c2 3e
       -0.040475104 -0.24594283 -0.411975 0.3796179
000160 11 6c f8 be 71 d6 7b be 4c 27 8c be 30 d3 bf be
       -0.48519948 -0.24593522 -0.2737373 -0.3746581
000170 e9 11 13 bf 44 a9 01 bf 01 bb a3 be be 25 33 be
       -0.57449204 -0.50648904 -0.3197861 -0.17494866
000180 c4 f9 00 bf ea b7 b0 be 93 24 ee bd 05 94 68 bd
       -0.5038111 -0.34515315 -0.1162807 -0.056781787
000190 f2 94 cb 3a 8e 6c 84 bd f3 75 6c 3d 03 a4 88 3d
       0.001553206 -0.06466018 0.057729673 0.06671908
0001a0 21 dc cd bc 8a 40 b6 bc b2 75 94 3d d6 12 ad 3e
       -0.02512938 -0.022247571 0.07249011 0.33803433
0001b0 e2 63 78 3e c7 8f 60 bd e0 e4 93 bd d0 c3 d0 3d
       0.24256852 -0.054824617 -0.07221389 0.10193598
0001c0 a4 c1 32 3e 20 9c 75 3e de b8 1a be b1 bb aa bd
       0.1745668 0.23985338 -0.15109584 -0.083365805
0001d0 18 65 20 3e 40 79 a2 3c 7e 02 0d 3d 1b 99 36 bd
       0.15663564 0.019833207 0.034426205 -0.044579607
0001e0 8d 3d af bc 1f 3d ad bd 27 d9 05 be dd 91 d0 bd
       -0.021391654 -0.084589235 -0.13071118 -0.10184071
0001f0 04 03 a7 bd c7 5e 6a 3c ab 4b dc 3c cb 78 ef 3d
       -0.08154872 0.014304823 0.02689155 0.11692961
000200 ef d2 1a 3c ed 79 f7 bc 44 d6 10 3d 87 c9 b4 3d
       0.009449705 -0.030209506 0.03536059 0.08827501
000210 b9 dd bb 3d 79 6f c0 3c 24 c5 12 3d 53 8d 55 3d
       0.091731496 0.023490654 0.03583254 0.05213673
000220 c7 07 7e 3e 5a c4 36 3e 6b ad f3 3d a0 be dd 3d
       0.24807654 0.1784834 0.11898311 0.108273745
000230 91 18 39 3d e8 49 0f 3e 6a c8 84 bd 98 83 16 3e
       0.045189444 0.13993037 -0.064835384 0.14698637
000240 5c b1 d0 3d 15 d8 f5 3c e7 7a 04 3d fb 56 a7 3d
       0.101900786 0.030010263 0.03234377 0.08170887
000250 b6 47 7b 3d 1b 07 84 3c 95 76 2d bd b9 29 d0 bc
       0.061347686 0.01611667 -0.042349417 -0.02541052
000260 7f e9 1a 3d c3 72 ad 3c a0 12 24 bd 23 e7 f9 bc
       0.037820335 0.021172887 -0.040056825 -0.030505722
000270 5b 2b 95 3b 0f b8 a7 3d 00 24 3a 3d 44 37 d4 3b
       0.0045522875 0.08189403 0.04544449 0.0064763147
000280 dd 9b c7 3b e0 48 21 3e 6b 98 93 bd 73 d7 a3 3d
       0.0060915784 0.15750456 -0.07206806 0.08000078
000290 e4 21 fa 3c 4d b7 40 3c d9 54 e1 3c 0a df 2e be
       0.030533738 0.011762452 0.027506279 -0.1707727
0002a0 c8 ab 0c be 72 97 f8 3d 97 de fe bc ff a4 5a be
       -0.13737404 0.12138261 -0.031111998 -0.21352004
0002b0 0d 8d 6a 3e 72 e4 62 3e 8a 9f 61 bd ed cf a9 bd
       0.22905369 0.22157457 -0.05508379 -0.08291612
0002c0 1c 90 f7 bc 38 d0 7c 3c 8f 7d b3 bb 9f 24 8d 3b
       -0.030220084 0.015430503 -0.0054776142 0.004307344
0002d0 55 8e 95 bd 8e 52 2d bd 5f 5f f9 bd 5c df 2e 3e
       -0.07302538 -0.04231506 -0.12176394 0.17077392
0002e0 3f 57 4a 3e f6 12 a5 bd 74 be f9 bc fa f3 09 3e
       0.19759844 -0.08060257 -0.030486323 0.13471976
0002f0 eb ff 0b 3d f4 7d 65 3d da 9a 8a 3d 2f 6a c9 3d
       0.03417961 0.05602832 0.06767817 0.09834706
000300 80 2b 23 bd 89 28 9d 3d f9 c4 f1 3d d2 48 32 3c
       -0.039836407 0.07673747 0.11805148 0.0108816195
000310 92 88 9d 3d bd bb f6 3d 8b 80 9c 3d 79 3a 04 3e
       0.07692064 0.12047527 0.07641705 0.1291293
000320 93 ee 9f bc eb 94 18 3d f3 41 f0 3c f2 34 b5 3d
       -0.01952294 0.037251394 0.029328322 0.08847989
000330 7f 3a 54 bc 34 16 d2 bc fb f5 33 bc 14 af 12 3e
       -0.0129534 -0.025645353 -0.010983939 0.143246
000340 5d c9 d6 3d 2c 73 9d bc 26 30 44 bd 40 9a dc 3d
       0.10487626 -0.019219957 -0.04789748 0.10771608
000350 fd 2b f3 bb 5a fe b7 3d 8f 25 af bc 5f 92 7b bd
       -0.0074210153 0.089840606 -0.021380214 -0.061418887
000360 21 9b bf 3c 2f 2c 94 3c 3b a5 a6 bd d4 07 80 3d
       0.0233894 0.018087475 -0.08136984 0.06251493
000370 5b bd f1 bd 9c d7 d5 bd e7 da a9 bd 82 11 91 be
       -0.11803695 -0.10441515 -0.082937054 -0.2833367
000380 77 7a 33 be 85 86 8c 39 6f d3 74 bc ee a7 9c 3b
       -0.17527185 0.00026803106 -0.014942988 0.004780761
000390 4f a0 b6 bc 2a 88 e5 3c d5 4f a0 3c e0 89 33 3d
       -0.022293238 0.02801903 0.019569317 0.04383266
0003a0 5b 16 b6 3d 85 2c 09 bc f4 c0 3d bd 31 c9 ad 3d
       0.08890983 -0.008372431 -0.046326593 0.0848564
0003b0 bc 24 e3 bc c8 a1 33 3d 6a 47 19 be 5f 51 67 bd
       -0.027727477 0.04385546 -0.14968649 -0.056474086
0003c0 19 7c b8 bc 37 e7 88 3d 75 ca cb 3d 7a e5 a4 bc
       -0.022520112 0.06684726 0.09950725 -0.020128954
0003d0 24 55 7d bd 99 99 5e 3d 60 db 30 ba 4e 0e 54 bc
       -0.061848775 0.0543457 -0.00067465566 -0.012942864
0003e0 bb 69 57 3d 0f 4b 9e 3b cc 17 0f bd 6c 17 c7 bb
       0.052591067 0.004830725 -0.034934804 -0.00607579
0003f0 b2 96 0e be 6c 36 29 bd e5 f8 08 bc 97 b5 ee bc
       -0.13924673 -0.041311666 -0.008360122 -0.029139323

dense1.bias f4 [120]
000000 ad ac e2 be e1 89 af bd 09 a6 f3 3e 2b fc f1 3c
       -0.44272366 -0.0857122 0.47587612 0.029539188
000010 a2 86 c2 bc af 96 a9 3e 3a 31 e7 bb 68 9b 19 3e
       -0.023745839 0.33122775 -0.007055429 0.15000689
000020 46 31 a4 bb 35 37 50 bd 4f 00 4b bc 92 87 75 bd
       -0.0050107567 -0.0508339 -0.01239021 -0.059943743
000030 aa 88 c9 3c 27 21 c8 3e 6f 7c 39 3b e3 b1 91 3c
       0.0246013 0.39087793 0.0028302928 0.017785018
000040 0a 47 5c be 32 d9 13 bd b5 50 5a be 27 2e d8 bc
       -0.21511474 -0.036095805 -0.2131985 -0.026389195
000050 bd 82 df bc f9 a0 3d 3e 94 11 b8 3c 06 f3 e9 3d
       -0.02728402 0.18518437 0.02246932 0.11423306
000060 6b 44 90 bd 3e 9b da 3c de 26 4b bd 4f 37 c4 3d
       -0.070443 0.026685353 -0.049597614 0.09580862
000070 d5 9a 8a 3d 78 1b 2d bd dc 00 0c 3e 73 ce d4 3d
       0.06767813 -0.042262524 0.13672203 0.103909396
000080 4c 18 41 3e 7a 58 25 3d 90 b9 6b 3e e6 9b 64 3e
       0.18856925 0.04036758 0.23020005 0.22325096
000090 b6 05 cf 3d e7 87 da be b5 37 35 bd 64 45 eb 3d
       0.10108511 -0.4268181 -0.04424258 0.114878446
0000a0 7a 65 10 3e ea 84 81 3e 12 ea fc 3d 20 78 12 3e
       0.1410121 0.25296718 0.12349333 0.14303637
0000b0 e5 35 30 3a a7 83 34 bc 64 90 eb bb e3 97 13 bd
       0.0006721898 -0.0110177165 -0.0071888436 -0.036033522
0000c0 84 ea 6a 3e 16 ec 4c be 5d 39 83 3e 16 60 44 3e
       0.22941023 -0.20011935 0.25629702 0.19177279
0000d0 2e 8a c3 3d e8 6b 27 3e 87 8b 90 bc 94 2d bd ba
       0.0954784 0.16349757 -0.017644657 -0.0014433139
0000e0 d3 cf 95 3c 0c d6 be 3d d1 2d c7 3b 1f 66 1f 3e
       0.018287575 0.0931817 0.00607846 0.155663
0000f0 56 93 ea bc 12 03 84 3e fd ad 23 3e 4e a1 21 bd
       -0.028634708 0.25783592 0.1598434 -0.039460473
000100 d0 e8 bb 3d 3e 8e 82 3d d4 47 36 3e c7 56 dd bd
       0.09175265 0.06374787 0.17800838 -0.10807567
000110 f1 04 62 bd 7f bf 71 bd d9 97 8a 3d c9 54 86 bc
       -0.055180494 -0.059020516 0.06767244 -0.01639785
000120 22 d2 8c 3d c2 a0 75 3e ac af 0e bd 41 1a 79 3e
       0.06876017 0.23987105 -0.034835503 0.24326421
000130 96 64 15 3e 4a 63 09 3c d7 82 b3 3e 91 3f 4b be
       0.14589152 0.008385489 0.3506076 -0.19848467
000140 b8 80 9f 3c 55 7c b5 bd 1e 7b 11 3e 46 96 44 bd
       0.019470558 -0.08861605 0.14207122 -0.047994874
000150 e2 86 05 3e 1a e0 aa 3c 52 a2 fa bd 46 95 64 3e
       0.13039735 0.020858813 -0.122379914 0.22322568
000160 9f e3 1c 3e b9 e6 49 bd a4 04 d7 3c a8 f6 5d bd
       0.15321206 -0.0492923 0.02624733 -0.054190308
000170 1e 02 c5 bc b5 ea ac bc 7d 3f 34 3e 88 a0 7e 3d
       -0.024048861 -0.02110801 0.17602344 0.062164813
000180 ad eb c4 be 0a e1 f4 3d 8f 3e 13 3e 50 81 9e 3e
       -0.38461056 0.11956985 0.14379333 0.30958033
000190 71 19 35 3e 57 d8 30 3e 60 5b 44 3e 01 b7 a7 bd
       0.17685486 0.17270027 0.19175482 -0.08189202
0001a0 4c ee c8 3d 1a 68 e2 bc 3c 8b af 3e 7d 01 d8 3e
       0.098110765 -0.02763753 0.34285915 0.42188635
0001b0 ab e3 82 bd e9 c1 05 3e ee b2 d6 3e 6b 57 0d bd
       -0.063910805 0.13062252 0.41933388 -0.034507196
0001c0 e1 03 16 3e f3 5c a7 bd e2 b2 8b 3e 99 c8 bb 3d
       0.14649917 -0.081720255 0.27284914 0.0916912
0001d0 d4 ca 65 3d 41 6a aa 3e 61 51 0c bf 90 d0 83 be
       0.056101635 0.3328419 -0.54811674 -0.25745058

dense2.weight f4 [80, 120]
000000 1c 0a 03 be ba e2 b5 bd 97 11 ab 3d fe 77 de bc
       -0.12796825 -0.08881135 0.08352964 -0.027156826
000010 0b 8c 18 bd 7f 5d f1 3c a7 6b b9 bd 72 91 ce 3d
       -0.03724293 0.029463528 -0.09053736 0.10086335
000020 a4 03 04 3e de ed 05 bc 4b b0 c3 3c fa 3e 88 3a
       0.12892014 -0.008174388 0.023887774 0.0010394745
000030 ca 2b 1d bc 41 88 ec bd 75 14 ff 3c bd 41 00 3e
       -0.00959296 -0.11549426 0.031137684 0.12525077
000040 08 55 2a be 96 93 74 bd 43 c3 84 3c c9 42 16 3e
       -0.16634 -0.05971106 0.01620639 0.14673914
000050 d2 3a 03 3d 3a 03 97 3e 69 55 a5 bd a7 d1 53 3d
       0.032038517 0.2949465 -0.08072931 0.051713612
000060 0d b4 7b bc 47 96 8b 3d 8e c0 67 bc fb 20 1e 3c
       -0.015362752 0.068157725 -0.01414503 0.009651418
000070 a4 ef b2 3d 53 7d 4e be 3b f5 88 bc 3c 5f 29 3d
       0.08737114 -0.20164995 -0.016718497 0.04135059
000080 4a e6 d5 3d 73 f0 c8 be 37 16 b0 bc 1e ff 6c 3d
       0.10444315 -0.39245948 -0.021494968 0.057860486
000090 21 53 cf bc 0b d6 09 be ca 12 08 be ac 2a e4 bc
       -0.025308194 -0.13460557 -0.13288417 -0.027852379
0000a0 ad 64 fd 3a b0 a5 a5 3d 8e 32 2b 3d 41 bd 22 3e
       0.0019332372 0.08088243 0.04179626 0.15892507
0000b0 dd d1 44 bd 09 f3 a5 3d 90 2b 91 3d 64 f5 71 bd
       -0.048051704 0.08102996 0.07088387 -0.059071913
0000c0 22 da 4d 3c bd 24 2f be 4d 74 b7 3d 50 64 b3 3d
       0.012564214 -0.17103858 0.089577295 0.087593675
0000d0 89 0f 2b bd f5 84 0d be a5 28 8a 3e 72 4a 90 bd
       -0.041762862 -0.1382025 0.26984134 -0.07045449
0000e0 df dd 53 3d 09 78 6e 3d 2e c8 4b be 99 ab 98 bd
       0.051725265 0.058219943 -0.19900581 -0.07454605
0000f0 39 39 fc bc a4 5b 03 bd fb 00 f6 3c 49 0c 5a bd
       -0.030789005 -0.032069817 0.030029764 -0.053234372
000100 d6 06 28 bd 0b d7 7b 3e d7 f8 56 3d 60 dd e5 bd
       -0.041022144 0.24593751 0.052483406 -0.112238646
000110 93 dc 20 bd d7 d3 2f bd 02 10 6f 3e 4c d3 27 3c
       -0.039272856 -0.042926636 0.2334595 0.010243248
000120 b8 b9 37 3d 79 c4 12 be 71 ba d1 3c a8 a1 d0 3c
       0.04485485 -0.14332761 0.025601598 0.025467709
000130 d4 8a d5 3d b0 06 2b 3e 94 15 01 3d 1b 6f 1c 3e
       0.1042687 0.1670177 0.03151472 0.15276758
000140 8f 1b f7 bc 04 09 71 bd e0 dc 05 3d a8 69 66 bd
       -0.030164508 -0.05884649 0.032681346 -0.056253105
000150 11 e0 09 3e 2f be 09 3c 54 f4 37 3d be 72 91 3c
       0.13464381 0.00840716 0.044910744 0.017754909
000160 50 6c a3 3d 67 d9 60 bd 1c 6f 82 bd 28 68 51 bd
       0.07979643 -0.05489483 -0.06368849 -0.05112472
000170 10 db 4d bb 52 1a 56 be 1d fd 43 3c 4a 54 4f 3c
       -0.003141109 -0.20908478 0.011962202 0.012654373
000180 02 66 e8 3c a1 04 60 3e c9 4a 5d bd c2 84 ad 3c
       0.028368954 0.21876766 -0.0540264 0.021181468
000190 3c e2 9a bc c7 db 0a be 36 3c d8 3c 41 dd 13 bb
       -0.018906705 -0.13560401 0.026395898 -0.0022562298
0001a0 61 2e 8a 3d c3 92 8a 3c 88 82 a0 3c a7 3c c2 3d
       0.06747127 0.016915685 0.019593492 0.09484225
0001b0 af 0b 1e 3e 68 38 2a bd 0e d3 59 3d 59 36 50 bd
       0.15434144 -0.0415577 0.053179793 -0.05083308
0001c0 c8 40 0b bd 4a 2f 99 3c 32 50 6c bd 35 97 00 be
       -0.033997327 0.018699307 -0.057693668 -0.12557681
0001d0 30 4c 58 bd ab 77 65 bd a0 e9 2b 3d a7 7f b4 be
       -0.052807033 -0.056022327 0.04197085 -0.3525364
0001e0 a1 00 31 be 59 d8 52 bc 68 07 05 3e b4 02 85 bd
       -0.17285396 -0.012868964 0.12991107 -0.06494656
0001f0 bd 63 18 bd 97 aa d5 3b e7 d1 27 bd 6e 18 35 3e
       -0.037204493 0.00652058 -0.040971663 0.176851
000200 53 a4 60 3e 16 18 9a bd eb d6 17 3c 51 21 75 bd
       0.21937685 -0.07524125 0.009267549 -0.059846226
000210 cc 09 cf 3d fa f9 50 bd ad 67 bf bd 17 1c 22 3e
       0.101092905 -0.051019646 -0.093459465 0.15831028
000220 af cf 05 3e 70 f2 07 3d 8a a7 85 bd 71 8d 0b be
       0.13067506 0.03319019 -0.06526096 -0.13628174
000230 72 f6 a3 3d 43 d3 d7 3d 4c 34 87 3d e7 77 67 3d
       0.0800599 0.10538342 0.06601772 0.056510832
000240 0b 8a c4 3c 3a de 5e bd db e1 6a bc 87 c5 96 bd
       0.023991605 -0.05441115 -0.014336075 -0.07361894
000250 da 49 02 3e af 82 7b 3d 83 c9 82 bd 44 39 8e be
       0.12723485 0.061403926 -0.063860916 -0.27778065
000260 16 62 a2 3d 16 78 88 3e 51 76 77 3d 1c 9f 63 3d
       0.07928865 0.26654118 0.06041557 0.05557166
000270 47 58 45 bd e2 aa 8d 3d 2e d6 4e 3b 17 bf 2c 3e
       -0.04817989 0.06917359 0.0031560767 0.1686977
000280 98 56 2b 3c df c0 b0 bc 9f 54 c1 3d 10 ef 34 3d
       0.010457657 -0.021576343 0.09439968 0.0441733
000290 7e a0 75 bd 23 04 2b 3d 7b 43 c7 3c a0 52 69 bb
       -0.05996751 0.041751992 0.02432417 -0.0035602227
0002a0 c9 1e 79 3d d7 9b 05 3d 8b 81 47 3d ab 4e eb 3d
       0.060820375 0.032619324 0.048707526 0.11489614
0002b0 c9 1b 02 3e 33 e0 a1 bd 66 cd 85 bd c8 d7 2a 3e
       0.12705912 -0.07904091 -0.06533317 0.16683877
0002c0 bb 0e 84 3d d9 06 c4 3b 6c b7 ce 3b 86 49 00 3d
       0.06448122 0.0059822616 0.0063084867 0.031320117
0002d0 e4 6d 4b 3d 23 25 bb 3a 19 72 24 3e 12 6c e7 3c
       0.049665347 0.0014278035 0.1605915 0.028249774
0002e0 78 74 84 3e f1 de 29 3e 85 6c 01 be 6f 6d 41 bc
       0.2587011 0.16588952 -0.12639053 -0.011805876
0002f0 3a 16 49 bd 92 78 7d bd b8 51 24 be e0 36 81 3d
       -0.049093463 -0.061882563 -0.16046798 0.06309295
000300 2a 31 91 bd 5b 85 09 bd 1b 49 33 3d 6e b5 b4 bd
       -0.070894554 -0.033574443 0.04377089 -0.088236675
000310 c2 86 eb 3d 02 27 f5 3d a9 70 68 bc 1a 62 39 3d
       0.115003124 0.11970331 -0.0141870165 0.045259573
000320 e4 41 27 3d a6 14 4d 3e e5 63 42 bd 63 9d f7 bc
       0.040834323 0.20027408 -0.047458548 -0.030226415
000330 25 f9 22 3e 62 46 21 bd bb 43 5c 3e 4a 20 bb bc
       0.15915354 -0.039373763 0.21510212 -0.022842545
000340 cb 9c 8e bd fb 62 bc 3d ed db 5e bd f1 ad c3 bc
       -0.069635 0.091985665 -0.054408956 -0.023886653
000350 e1 98 b0 3c 2c c8 50 be e2 e3 88 3d 50 66 89 3e
       0.021557273 -0.2038886 0.0668409 0.2683587
000360 b9 20 28 3e 22 ac f0 bc bc 13 86 be c9 84 e4 bd
       0.16418733 -0.029378954 -0.2618693 -0.11158139
000370 c2 65 9d 3c f9 52 91 3d e3 9a 37 3b 3e 1d ce 3c
       0.019213561 0.07095904 0.0028015904 0.025160428
000380 c7 24 be 3d cd 79 93 3d 68 66 8b 3d 09 1d 81 3d
       0.092843585 0.07200966 0.06806642 0.06304366
000390 6c 58 3c bd 18 ef 6f 3e 6e 3d af 3d 95 f6 a2 3d
       -0.045982763 0.23431051 0.08556639 0.07957188
0003a0 c3 c0 c6 bc 03 e2 5e be d2 76 0f 3e 5a 8c df 3c
       -0.024261838 -0.21765904 0.1401017 0.027288605
0003b0 b9 c2 6d 3d 49 3e 44 be 22 f2 dc bd 9b bc c6 bc
       0.05804703 -0.19164385 -0.10788371 -0.024259856
0003c0 69 0b 0f be a4 3f 11 3c eb 17 4b 3d 4e 43 50 bc
       -0.13969196 0.008865271 0.049583357 -0.012711359
0003d0 a4 41 97 bd ea d0 a2 3d 33 b7 9c bd 2a 2a a9 bc
       -0.07385567 0.079500034 -0.0765213 -0.020649988
0003e0 b4 17 fe 3d dc b4 46 bd e0 90 13 bb 04 ff 8f bd
       0.12406865 -0.048512325 -0.0022516772 -0.07031062
0003f0 31 1e 9a bd 58 90 68 3e 3a ad 28 3d 42 25 f2 3c
       -0.0752529 0.22711313 0.041180827 0.029558782

dense2.bias f4 [80]
000000 38 2c b9 3a 4d f3 a6 3e f8 f5 8a 3e 29 87 57 3e
       0.0014127558 0.326075 0.27140784 0.21047653
000010 64 40 b4 3c 13 9e 88 bd e5 b9 33 3d fc 75 28 be
       0.02200336 -0.06670775 0.043878455 -0.16451257
000020 b3 98 62 3e 4f 15 b0 3d 5f 89 0d bc 9b 43 7d bd
       0.22128563 0.08597814 -0.008638709 -0.06183205
000030 07 53 87 bd a9 27 97 bb 74 0b 41 3e 1c f6 08 3e
       -0.06607633 -0.004612882 0.18852025 0.13375133
000040 0c 34 47 3e 42 7e 8f bc 1d 3b 7b 3e 9f d0 4a be
       0.19453448 -0.01751626 0.24534269 -0.19806145
000050 50 97 ea 3e c7 65 6f 3e 40 e3 f0 bd e5 e2 da bd
       0.45818567 0.23378669 -0.117620945 -0.10687808
000060 61 55 57 3d ff 88 ca 3d 7b 6c 3a 3e 71 3f 75 bd
       0.052571658 0.09889411 0.18205445 -0.059874956
000070 7a 67 7c 3e c9 6d 5f 3e f0 ba 83 3d 1e 04 d8 bb
       0.24648848 0.21819223 0.0643214 -0.0065922877
000080 4a 68 84 be 43 b2 13 be 59 97 ed 3c b3 28 44 3e
       -0.25860816 -0.1442347 0.029002832 0.1915615
000090 12 13 17 be 51 04 46 3e 32 65 35 3b 10 d4 91 bc
       -0.14753368 0.19337584 0.0027678725 -0.017801315
0000a0 f1 42 91 bd 9d 31 f1 bd 23 1a 0f 3d a8 49 2f 3e
       -0.07092846 -0.11777041 0.034937035 0.17117941
0000b0 f2 bd 71 3e 65 1a b5 3d 38 a6 6c be 75 7f 1d 3e
       0.23607615 0.08842925 -0.23110282 0.15380652
0000c0 28 db c3 bd 76 a3 b5 bc 63 32 8d bd b8 87 1a 3e
       -0.09563285 -0.02217267 -0.06894376 0.15090835
0000d0 71 c6 6b 3c 20 47 2e 3e 59 6b 1b 3e 1c 81 49 bd
       0.014390574 0.1701932 0.15177669 -0.049195394
0000e0 dd 4b 9d be 6c 52 08 3e a7 52 ad bd 41 86 8e be
       -0.30721942 0.13312691 -0.0846303 -0.27836803
0000f0 53 a2 88 3e 32 4d a6 bc d0 aa 19 3d 9f dd a5 bd
       0.26686344 -0.020300481 0.037516415 -0.080989115
000100 ea fc c7 bd 1c a1 a1 3e d0 e6 0d 3e f9 82 c7 bd
       -0.097650364 0.3156823 0.13857579 -0.09741778
000110 fb f7 49 bd 8f 50 ed be 31 09 49 bd ea 74 38 3d
       -0.04930876 -0.46350524 -0.04908103 0.045033373
000120 9a da 92 3e d5 cd af 3c 89 1c 03 3d 3c 62 0b 3e
       0.28682405 0.021460453 0.032009635 0.13611692
000130 2c 86 1d 3d ec e9 5f 3c 9f 8d 70 3e 87 5d 48 bd
       0.038458034 0.013666611 0.23491524 -0.04891732

final.weight f4 [43, 80]
000000 b1 52 83 bc 1b 10 b0 3b c9 6b 8a be 6e 4a a9 3d
       -0.016030641 0.0053730137 -0.2703536 0.082661495
000010 92 2a b0 3d d7 dd c5 bd 3b 91 41 3e 85 3c 19 be
       0.0860187 -0.09661453 0.18903057 -0.14964493
000020 63 52 75 3d b1 3a 49 3d d1 e4 4a bd 31 6f 11 3d
       0.059893023 0.049128238 -0.049534623 0.03550643
000030 e1 53 a0 3d 84 a8 7e 3d b1 2c f8 3d dc de b5 bc
       0.07828499 0.062172428 0.12117899 -0.022200994
000040 a4 b5 13 3e 27 61 81 bd 2b 24 6e bd 9b 34 c1 bc
       0.14424759 -0.063173585 -0.05813996 -0.023584655
000050 54 36 7b bd 00 f0 38 3e 48 15 98 3c 4c fc 97 bd
       -0.06133111 0.18060303 0.018564835 -0.07421169
000060 71 24 28 3c df 85 6f be f2 90 c7 c0 78 aa 2a 3e
       0.010262595 -0.23390912 -6.2364435 0.16666591
000070 52 39 1b 3e f2 7a 1f bd 34 07 84 3c c8 af bd bd
       0.15158585 -0.03893561 0.016116716 -0.09262043
000080 c0 9b 85 be fb 6d fd bd d8 7c 9d bd f9 fc 60 bc
       -0.2609539 -0.12374493 -0.07689828 -0.013732188
000090 28 27 20 bd aa c4 08 bd 23 fb 52 bd da f9 b5 3d
       -0.039099842 -0.03339068 -0.051509034 0.08885546
0000a0 37 4f 0f 3d 3d f1 4e 3d 7c c3 fa bd 27 14 5c 3e
       0.034987655 0.05052303 -0.12244317 0.21492063
0000b0 2b 74 92 3d 86 0e d0 3c 7a 95 33 be 66 4a 3a 3e
       0.071510635 0.02539755 -0.1753749 0.18192443
0000c0 5e d5 a0 3d 3a 32 57 3c 41 a6 1b 3e 41 65 0f be
       0.078531966 0.013134534 0.1520014 -0.14003469
0000d0 0f 58 14 3d 32 46 a9 3d 4a 72 d5 bd fa f3 a0 bc
       0.03621679 0.08265342 -0.104221895 -0.019647587
0000e0 25 54 7f bf 82 4e a0 be 29 0e 9e 3d ab 6e c9 bd
       -0.9973777 -0.31309897 0.077175446 -0.09835561
0000f0 0f d5 3f be 54 3a c5 bc 85 7a b0 bf c3 da 01 bd
       -0.18733619 -0.024075665 -1.378739 -0.031702768
000100 a1 8c df 3c 3e 0a bb be e9 0c 38 be 71 a6 07 be
       0.027288737 -0.36531252 -0.17973675 -0.13247086
000110 ac 9b c1 3d af 69 2a bf 1b 33 8d 3d 44 f0 25 3d
       0.0945352 -0.6656751 0.06894513 0.04051234
000120 53 54 82 be f3 08 23 be e5 34 9e 3d ef c5 4c be
       -0.2545496 -0.15921383 0.077249326 -0.1999738
000130 60 62 87 3e 7c 3f 51 bb 3c 4f c0 bd 6f 23 51 3b
       0.26442242 -0.0031928709 -0.09390113 0.003191199
000140 6c 24 64 3d c4 1a ae 3d 3c 34 a3 bd 53 a3 4b 3d
       0.055698797 0.08501199 -0.07968947 0.049716305
000150 1c 10 d5 bd d2 9e 78 bd 6c c1 90 3d a1 b2 33 3d
       -0.10403463 -0.060698338 0.07068142 0.043871526
000160 c7 d8 5d 3d d2 2a 3e bd 7d 4c f2 3d 6f 36 a9 3d
       0.054161813 -0.046427555 0.11830995 0.082623355
000170 45 81 ab bc 6b ca 8d bd 75 d0 a1 3d 39 ea fa bd
       -0.020935664 -0.06923374 0.07901088 -0.12251706
000180 95 d6 dd bd 31 96 a7 3d 9e 0c a9 bc 1a 61 df bd
       -0.10831944 0.081829436 -0.0206359 -0.109071925
000190 70 92 e7 bb 61 8e 80 3d f7 0e 25 bd e3 a5 30 bc
       -0.0070670173 0.062771566 -0.040297475 -0.010781738
0001a0 0b a6 13 bc a2 3b a4 bd 64 2b b7 bc cf 94 b2 3c
       -0.009011756 -0.080191866 -0.022359557 0.021799473
0001b0 86 fc 6b bc 74 a4 18 3e 6a 40 85 bd a2 bc 19 be
       -0.014403468 0.14906484 -0.06506427 -0.15013364
0001c0 29 80 51 bd 74 6e 78 bd c7 95 7f bc bc 00 03 3e
       -0.051147614 -0.06065221 -0.015599675 0.12793249
0001d0 49 cc 3a bd a3 85 0f 3e 3b 5f 62 bc a5 94 c9 3d
       -0.045604978 0.14015822 -0.01381665 0.09842805
0001e0 57 84 b8 bc 83 ec 23 3d 63 fe ef 3d af ac f9 bb
       -0.022524042 0.040020477 0.11718442 -0.0076194624
0001f0 0a 56 7f 3d 2f 1e 0f 3d a3 0f cd bd 23 4d 90 3d
       0.062337913 0.034940895 -0.10012748 0.07045963
000200 ee 3b 8d 3c 08 29 04 be dd 3d 27 3e 83 ed d9 bd
       0.01724049 -0.12906277 0.16332193 -0.10641005
000210 5c 15 79 3c dd 4d 02 be c5 a6 c0 bd b1 c4 9c 3d
       0.015202846 -0.12725015 -0.09406809 0.076547034
000220 42 c7 42 be 0b 3a da bd 4b 0b 0a 3b 1b f4 b8 bd
       -0.19021323 -0.10655602 0.002106386 -0.090309344
000230 39 c4 12 3d da e9 08 be 57 79 17 be 9d 33 96 bd
       0.035831664 -0.13370457 -0.14792381 -0.07334063
000240 b6 83 ec 3d a2 e9 aa bc bb 47 21 bd b9 d9 08 3d
       0.11548559 -0.020863358 -0.039375048 0.03341076
000250 ca 29 38 3d 98 84 99 bb 6f d5 6b bc 41 e7 4c 3e
       0.04496173 -0.004684996 -0.014394148 0.20010091
000260 47 7d 91 bd ee 3c 67 bd 7c c5 0b 3d 37 9d 12 3d
       -0.07103973 -0.05645459 0.034123883 0.035794463
000270 9e cb 13 3e b4 c2 c5 3d f3 66 e2 bc bd 4a 7c 3c
       0.14433143 0.09656277 -0.02763698 0.015398678
000280 5c 5a aa 3d af 56 8c 3d d6 e9 4d bd 06 cf 30 bd
       0.08318016 0.06852471 -0.05027183 -0.043166183
000290 23 19 13 be 95 e6 c0 3e c4 32 9e bc 18 31 76 bc
       -0.14365058 0.3767592 -0.019311316 -0.015026353
0002a0 eb 43 a6 3d 33 1d 66 3d ed 55 47 3c c4 ed 28 3d
       0.08118423 0.05618019 0.012166482 0.041242376
0002b0 12 2f 3d 3d 09 09 46 bd c9 b2 89 3d b2 99 10 bd
       0.046187468 -0.04834846 0.06723554 -0.035302825
0002c0 a2 e2 60 3b b5 e4 c4 bd 93 26 13 3e ef 50 36 bd
       0.0034314771 -0.09613935 0.14370184 -0.044510778
0002d0 bf 75 8a 3a 32 4e 7d bd 10 94 93 bd fb 94 cd bd
       0.0010563656 -0.06184215 -0.07205975 -0.100381814
0002e0 c3 d6 b4 3d 16 29 bb bc f0 26 94 be 45 79 1c be
       0.08830025 -0.02284674 -0.28935957 -0.15280636
0002f0 34 5f 05 bc 98 24 44 3d 25 ee 35 3c 75 be 3d be
       -0.008140374 0.04788646 0.011104141 -0.18529685
000300 06 86 b5 bd f9 f8 d2 bd 24 11 15 bd 49 7f 65 bc
       -0.088634536 -0.10301394 -0.0363933 -0.014007398
000310 14 d0 97 bc d4 d8 0c 3e 59 9e 81 bd e7 7c cf 3c
       -0.018531837 0.13754588 -0.063290305 0.025328113
000320 75 74 76 3d 0c 8d 62 bd ea 48 5a 3d c1 ff 60 3d
       0.060169656 -0.055310294 0.053292193 0.054931406
000330 a1 1b 80 3d 90 68 a3 bd 67 d1 e6 bd 4d 01 58 bc
       0.0625527 -0.07978928 -0.11270409 -0.013183904
000340 06 1f 3b 3d 76 44 9d 3d c8 b9 1b 3e 32 5f ad bd
       0.045683883 0.076790735 0.15207589 -0.08465423
000350 17 10 fe 3d a6 a8 1e bd b7 71 5a 3e 0b 79 46 3c
       0.12405413 -0.038735054 0.21332441 0.01211382
000360 bd 56 a7 3d ea 76 1d bd 59 10 43 3d 1f 2f 40 be
       0.08170841 -0.038443483 0.047623012 -0.18767975
000370 e2 7b 04 3d 6b 87 fd ba 94 2f 98 bd 0d 79 ce bd
       0.032344706 -0.0019342726 -0.0743095 -0.10081682
000380 d4 d8 b4 3d 0f 22 74 bd 82 13 26 bd 32 83 15 3d
       0.08830419 -0.059602793 -0.040545948 0.03650207
000390 4b 6c 79 bd e3 15 d5 3a c2 72 88 bd 17 24 b2 3d
       -0.06089429 0.0016257133 -0.06662513 0.0869829
0003a0 8e 66 2e 3b 8a 77 8d bd 23 55 7a 3d a7 98 f5 3c
       0.002661142 -0.06907566 0.06111635 0.029980017
0003b0 15 8f cc 3c cf b9 5d bb 7f c8 31 bd 48 80 74 3d
       0.02497057 -0.0033832674 -0.0434041 0.05969265
0003c0 cc 9b 72 bd a3 aa 78 bd 9a 37 fb 3d 5c f5 fe 3d
       -0.05923061 -0.060709607 0.122664645 0.12449142
0003d0 44 18 f4 3d 4b 71 bb bc 70 99 18 3b 46 fd 09 be
       0.11918691 -0.02288117 0.0023284815 -0.13475522
0003e0 e6 bc 94 3d 19 d6 66 3d cc a7 91 bd 50 f2 d0 bb
       0.07262592 0.056356523 -0.07112083 -0.006376542
0003f0 60 98 83 bc 6b 69 d2 bb ac b9 ac 3d 22 ab 29 bd
       -0.016063869 -0.006421258 0.084338516 -0.04142297

final.bias f4 [43]
000000 47 a4 57 bd fc 28 35 3d 29 e7 73 3c 4e 18 b6 bc
       -0.0526469 0.04422854 0.014886656 -0.022228386
000010 1c 0b 51 3d 2c ae 8b 3e 7f f9 f5 38 f1 60 98 3d
       0.051035985 0.2728132 0.00011728983 0.07440365
000020 6d 37 38 3e f1 ab e7 3a 4e ba 4b 3e 15 6b d7 bd
       0.17989893 0.0017675144 0.19895288 -0.10518471
000030 f1 3e 57 3e 33 af a7 3c bf 37 5d be b2 47 25 3e
       0.21020104 0.020469284 -0.21603297 0.16140631
000040 fa 77 ab be f6 db 14 3d 5e 92 7a 3d 57 91 ae 3c
       -0.33489972 0.036342584 0.061174743 0.021309538
000050 2a 33 c0 bd cf 34 b5 be 1f 0f 51 be d4 ff fa 3b
       -0.09384759 -0.35391852 -0.20415924 0.0076598916
000060 41 66 f7 bd 13 15 38 3e 4c 3f ec bd 20 c0 a1 bd
       -0.1208005 0.17976789 -0.115355104 -0.07897973
000070 15 2e 8a bd 6b aa a0 bd 2c 06 1d 3e 37 10 72 3e
       -0.06747071 -0.07845005 0.15334386 0.23638998
000080 2b 6b 28 3e c1 29 cd bd 30 84 94 be 8d a1 7b be
       0.16447131 -0.100177296 -0.290071 -0.24573345
000090 46 a6 b5 bd ec 20 f5 bb 5b 1a ca 3d ed 63 f5 bd
       -0.08869605 -0.0074807312 0.09868308 -0.1198195
0000a0 d7 03 d5 be c1 5e 10 be 1b 6a f9 bd
       -0.41604492 -0.14098646 -0.12178441
