Robustness/models/base_epsilon_0.039.pth (torch, 264008 bytes, 10 tensors)

conv1.weight f4 [6, 1, 5, 5]
00000000: 8d01 b13d 9a8c bcbc d9fd 2c3d 108e 5f3d
00000010: c0c2 3e3d 27c9 133d 33fe 5a3d 7efb 84be
00000020: e3a1 a6be 6601 34be 1de1 a43c 7c04 37bd
00000030: fd3e 89bd 9788 85be b986 5fbe aeb9 a4bc
00000040: 452f c13d 53e0 2a3e ae3a 9a3e 6bc5 94bd
00000050: 3bdd 2ebd 7b90 a9bc 609b 6c3e 8574 2d3e
00000060: 7f95 473d be10 0bbd 7594 68bc 267d 04be
00000070: 2bd1 a0bd da2f 3c3d cdf8 7bbd 6430 76bc
00000080: 802a 983e 4fe6 793d aa2c 26be 53b8 8ebd
00000090: cbdf 6d3e e0b7 633f 0d73 0f3f 94ab 0d3e
000000a0: f59f a0bd 4753 09bd 9507 083f 6c0a f13e
000000b0: 5ac8 063e 2d71 ecbd 8a62 93bc f7bb 063e
000000c0: b94f 4c3e 93c7 1ebd b82c e33d e56b 953d
000000d0: 4cba 7fbd e8a6 9bbc c908 3abb 7639 69bd
000000e0: 29ae 4cbd 1fe0 34be 0b1a 403d 89af 84bd
000000f0: 3008 6aba 69cb 1abe 80ea 0dbe a092 37be
00000100: 351c 533d 5beb d6bd 67af 46be e7ab 1dbd
00000110: 01e9 04be 21da f7bd b9b8 7bbd 0c7b 71bd
00000120: 768e 28be 4a03 1dbd 1c5f 38bd eb80 cd3d
00000130: cee6 3e3c f72f 5abc 72aa a6bd a7ca 83bd
00000140: 29f3 333f 240b 193f 1b81 3ebe f25e d0bd
00000150: 38ad 43bc 3205 173f 1c53 003f f060 71bd
00000160: 90a5 05be 0aac 683c f5d1 79bc 178e 9bbd
00000170: bcfa 1fbe 6c26 11bc a705 65ba c0f8 06be
00000180: e554 1fbe 6a79 19bd b568 d6bc 6c9a 01bd
00000190: b2d5 fe3d 92e7 36be 94de b3be 489d c5bd
000001a0: 468a 1b3e 6385 ea3d c1d4 223d 944b c2be
000001b0: 7211 16bc 6823 4c3e 2f36 a63e 2761 e33d
000001c0: e1dc d3be cb67 0f3e 5398 2c3e 6441 123e
000001d0: 7539 473e d43a 83be 1716 10be a7bd 3b3e
000001e0: c42b 843d 94a8 493b 6474 34be 4d00 ccbd
000001f0: 2fad 6f3d adde 39bd 51a0 66bd c5db 80bd
00000200: 2a1b 8cbd cbc6 ffbd 1e9d 13bd 4440 cfbc
00000210: 669d 70be 33a6 3abe b987 01be dd06 a0bb
00000220: d7ee dbbd eff8 22be d355 a23e f156 853e
00000230: 940e acbc 32e5 69bd 2de1 673c 2dc5 6b3f
00000240: eb3d 2a3f 466a 5abc 42b6 8bbd d0c6 3cbd
00000250: b555 993e 3db5 513d
0.08642874 -0.023016263 0.042234275 0.05457884 0.046572447 0.036080506 0.05346508 -0.25973123
-0.32545385 -0.17578658 0.020126874 -0.04468201 -0.06701467 -0.26080772 -0.21828736 -0.02010807
0.09432844 0.16687135 0.30122894 -0.07264217 -0.04269145 -0.020698776 0.23106146 0.1693898
0.048726555 -0.033951513 -0.014195551 -0.12938365 -0.078523956 0.045944072 -0.06151657 -0.015026186
0.29719925 0.061010655 -0.16227975 -0.06968751 0.23229901 0.88952446 0.5603493 0.13834983
-0.078430094 -0.033526685 0.5313657 0.47078264 0.13162366 -0.11545024 -0.017991323 0.1315764
0.19952287 -0.038764548 0.11092514 0.0729597 -0.062433526 -0.019000486 -0.0028386584 -0.056939565
-0.04997078 -0.1766362 0.046899837 -0.06478793 -0.00089276116 -0.15116657 -0.13858986 -0.17927027
0.051540572 -0.10494109 -0.19402848 -0.038494017 -0.12979509 -0.12102152 -0.061455462 -0.058955237
-0.16460595 -0.038333215 -0.04501258 0.10034355 0.011651708 -0.0133171 -0.081379786 -0.06435137
0.7029291 0.59782624 -0.18603937 -0.101743594 -0.011943154 0.589923 0.50126815 -0.058930337
-0.13051438 0.014201174 -0.015247812 -0.07595461 -0.15622991 -0.008859258 -0.0008736499 -0.13180828
-0.15559728 -0.037469305 -0.026172975 -0.03164141 0.12443103 -0.17861775 -0.3513075 -0.0964914
0.15189466 0.11451223 0.03975368 -0.37948287 -0.009159433 0.19935381 0.32463214 0.11102515
-0.41379455 0.14004438 0.16854982 0.14282757 0.19455512 -0.2563082 -0.14070927 0.18334065
0.0645366 0.0030770646 -0.17622524 -0.09960995 0.05851477 -0.045378376 -0.056305233 -0.06291918
-0.06841119 -0.124890886 -0.03603851 -0.025299199 -0.23497543 -0.18227462 -0.1264943 -0.0048836307
-0.107389145 -0.15915273 0.31706104 0.26042894 -0.021003045 -0.057103343 0.014152807 0.9209774
0.6650073 -0.013331002 -0.06821872 -0.04608804 0.29948202 0.051198233

conv1.bias f4 [6]
00000000: a0cf f13e 0348 563e 88b8 77be 4d5e 913f
00000010: 492d 143e e0c8 623f
0.47228718 0.20925908 -0.24191487 1.1356903 0.144704 0.8858776

conv2.weight f4 [16, 6, 5, 5]
00000000: 1fda 9bbd 55c6 223d 17cd f8bc a9ae 62bd
00000010: f99a 653c aee2 aebc fc55 903c 98e4 a5bd
00000020: 6c62 3d3d 6673 80bc b08d e1bd 6157 323d
00000030: c104 963d 911f febd 0e25 85bd fa42 113c
00000040: b663 e43d cd70 01bc 291b 37bd 0feb 1ebd
00000050: 87f4 7ebd e440 9b3c 3d09 c9bd c541 b2bb
00000060: 9e44 30bd 6d19 5dbb 177c 563c 9b27 9ebd
00000070: c909 bebd 2935 313b 0c32 d13d 93d5 543d
00000080: 941e cabd 6306 8f3c 8620 3ebd bb9b c93c
00000090: 37e6 4cbd 8a9b fabd b78c bf3c 16af a0ba
000000a0: 4f92 4abd ec6e 60be 6ce8 f93d 8f4a 893d
000000b0: 7666 ccbd 24c0 233d 53f4 1cbc 6abd bb3d
000000c0: 7f7b babc ce82 0bbd c8ca 9ebd cd9c 13bd
000000d0: a519 50bd 407f 513d 2b7a edbc f5f7 4bbd
000000e0: 415c 1a3e ecca 6f3e 2bc5 5f3d 4c39 41bc
000000f0: 9de6 493d 3d3b f23d 924d 8b3e e77c 8f3d
00000100: 3310 413d 08bf 10bd 1ca0 a63d 52b0 893d
00000110: 86ca 59bc ae32 77bd 60ae cdbc 5150 7cbd
00000120: e1e7 12be c7a9 00bd 681a 82bd 2094 10bc
00000130: b588 aebb 0e25 463d 2863 cf3c 11e7 fabb
00000140: 9806 b63d 4254 623d ef78 993e 07e6 3fbe
00000150: b94d 963c 8c12 5abc 04e4 993e 4ea3 99bd
00000160: 1aec 3ebf 5aaf 903e 8f97 dabd dc47 093e
00000170: b85a 3bbf 6f89 4a3e 4d3c 113e 6517 8fbc
00000180: 3da4 893d bebc 3abe c56e a13e 3fd5 83bd
00000190: ab80 0b3d b259 8d3c 0ac1 5f3c 5e67 863d
000001a0: 3d22 62bb 6ded 76bc e626 0cbc bd8c 873d
000001b0: 393d 523d 2559 b43d 505c b23c e2b1 60bd
000001c0: e40d 1f3e 5234 aebd a068 893c beaf 403d
000001d0: ccd2 113e bab9 b03d 910a 02bb 4028 803c
000001e0: 38cf 74bc bfa8 663d 0438 a5bd a190 46bd
000001f0: 8656 8cbd d32b af3c d816 a33e 5371 6cbe
00000200: 5860 303d a178 45bd 8472 003f 72fa a7bd
00000210: 9ff9 3abe 989e c63d 953f 953b af6e a93d
00000220: 6b33 86bf d391 bd3e 950c 3c3d 1279 2d3d
00000230: b21d 14be 980e 663e 2ef4 fd3e de2c 603d
00000240: 5651 793d 42e9 5dbd c7a1 743e 1ef6 e2bc
00000250: f0a2 3d3e 9840 51bc 5fe6 40bd 982e 613c
00000260: ae55 823d 63a2 a63b 5ad3 e43d ba4e 7bbd
00000270: d061 72bc bff5 a53d 2a00 f83d a301 8a3d
00000280: 4101 ac3c d47c 1a3e b139 c8bd 78cf 0d3e
00000290: bb7d 143e 9650 d6bc 1e8b e43d 5333 793e
000002a0: aeb7 103e 8beb 673d c104 943d 653e 73bb
000002b0: d87b c93b b3df 763c 78dd e03d 3a81 a2bd
000002c0: c6e9 cabd 61d7 9ebd 4f80 0bbe 1f38 c5bd
000002d0: 1552 623a 7d93 dfbc ad13 4a3c 2088 3fbb
000002e0: a6e1 06bd f5dd 213d aee5 1cbe ca93 1bbe
000002f0: 6f54 aebd d1bf b1bc ff31 f1bc 067e bcbc
00000300: e14d d9bd 946b 86bd b1a4 b5bd 338c 73bd
00000310: ef08 313d e804 a339 2f26 b63d 4f42 36be
00000320: c382 c6bb 9a8c de3c 51e9 aabc 61be 3fbd
00000330: 14f2 04be 6534 37bd e67b 0dbe f610 1bbe
00000340: bbb6 c9bd add1 dcbd 1def c5ba 06c0 ebbd
00000350: e294 cbbd ea2a b6bd 560c 69bd 96ac 83bc
00000360: 547b 67bd 42b9 81bd 2ae7 223c de12 39bd
00000370: f52e e43c 1c57 2eba c22d 863b 99a2 323d
00000380: e504 dfbc 6d8d 57ba d28e bdba bce6 43bd
00000390: f912 d7bd eea9 a7bc 56b9 ca3b b197 f63c
000003a0: 2dbc 133e 88a4 743e cf15 c6bd 6cfb 623c
000003b0: 9483 3c3e 9cfd dd3c 19cb 393e 00d3 d63d
000003c0: cd9a 80bc 6ae7 a03d 1064 51bd 4fce b7be
000003d0: 48b3 423e 3dfa cb3c c3af a8bc 5a9e 87bd
000003e0: ff70 223e 7d32 4d3e aa5b c13c 00e7 8c3d
000003f0: 5d69 d13c 0816 1d3d 4ac2 4a3d 4aae eabc
-0.07609963 0.039739925 -0.030371232 -0.05534235 0.014013999 -0.021348324 0.017619126 -0.081002414
0.04623644 -0.015680026 -0.11013353 0.043540362 0.073251255 -0.124083646 -0.06501208 0.008866066
0.11151831 -0.007900429 -0.044703636 -0.038798388 -0.06224492 0.01895184 -0.09816215 -0.0054399692
-0.04303419 -0.0033737079 0.013091109 -0.07722398 -0.0927921 0.0027039743 0.10214624 0.051961493
-0.098691136 0.0174591 -0.046417736 0.02461039 -0.050024237 -0.12236698 0.023382528 -0.0012259211
-0.049455937 -0.21917313 0.12202534 0.06703674 -0.099804804 0.03997816 -0.009579736 0.09166987
-0.022763966 -0.034060292 -0.07753521 -0.03603821 -0.050805707 0.051146746 -0.028988918 -0.049797017
0.15074255 0.23417252 0.054631393 -0.011793446 0.049292196 0.11827705 0.2720762 0.07006245
0.04713459 -0.03533843 0.08136007 0.067230836 -0.013292914 -0.060351066 -0.025107563 -0.061600033
-0.14346267 -0.031411912 -0.06352693 -0.008824378 -0.0053263553 0.04837518 0.025315836 -0.00765694
0.088879764 0.055256136 0.29975078 -0.18740092 0.018347608 -0.013310086 0.30056775 -0.07501851
-0.7457901 0.28258783 -0.10673439 0.13406318 -0.731853 0.1977899 0.14183159 -0.01746721
0.06720779 -0.18236062 0.31529823 -0.06437158 0.034058254 0.017254684 0.013656864 0.065626845
-0.003450527 -0.015071255 -0.008554196 0.066186406 0.051327918 0.088060655 0.021772534 -0.054857142
0.15532643 -0.08506073 0.016773522 0.0470426 0.14240569 0.086291745 -0.0019842724 0.015644193
-0.014941983 0.056313273 -0.08067325 -0.048477773 -0.068524405 0.021383202 0.31853366 -0.23090105
0.04306063 -0.048210744 0.50174737 -0.082020655 -0.18259285 0.09698218 0.0045546987 0.08273064
-1.0484442 0.37025318 0.045910437 0.04235179 -0.14464453 0.22466505 0.49600357 0.05473029
0.060868584 -0.05417753 0.23889838 -0.027705248 0.18519187 -0.012771748 -0.0470947 0.013744019
0.06363998 0.005085276 0.111731246 -0.061354376 -0.014793828 0.08103513 0.12109406 0.067385934
0.020996692 0.1508668 -0.09776629 0.13848674 0.14501087 -0.026161473 0.11159347 0.24335985
0.14132568 0.056621116 0.07227469 -0.0037116047 0.0061487965 0.0150679825 0.10979742 -0.07934804
-0.0990787 -0.07755924 -0.13623165 -0.09629845 0.0008633447 -0.027292008 0.012333793 -0.0029225424
-0.03293004 0.039518315 -0.15321991 -0.15193096 -0.08512198 -0.02169791 -0.029442785 -0.023009311
-0.10610557 -0.06563488 -0.08869303 -0.059459876 0.04322141 0.00031093438 0.08894002 -0.17798732
-0.0060580685 0.027166653 -0.020863207 -0.04681242 -0.1298297 -0.0447277 -0.13816795 -0.15143189
-0.09849306 -0.1078218 -0.0015101169 -0.11511235 -0.099405065 -0.08894904 -0.05689653 -0.016073506
-0.0565141 -0.06334163 0.009942809 -0.04518401 0.027854422 -0.00066505536 0.00409481 0.043612096
-0.027224014 -0.0008222673 -0.001446212 -0.047827467 -0.105016656 -0.020466771 0.0061866445 0.030101629
0.14427252 0.23890889 -0.096721284 0.013853889 0.18409568 0.02709847 0.18143882 0.10489464
-0.015698815 0.07856639 -0.051120818 -0.35899588 0.19013703 0.024899596 -0.020591622 -0.06622
0.15863417 0.20038791 0.02360328 0.06879997 0.025562936 0.03835109 0.049501695 -0.02864756

conv2.bias f4 [16]
00000000: 4f1b 06be 75f8 ca3e 2949 1dbd a34c 273d
00000010: a131 b53e d93d 81bd 56b1 843e 4604 6c3e
00000020: 8be6 373c 5b77 d33d 3265 6c3e 4b9a adbd
00000030: de9a 413d 4ed9 fa3e 97df 833e 36d7 b33d
-0.13096355 0.39642683 -0.03839985 0.04084457 0.35389426 -0.06310625 0.25916547 0.23048505
0.011224399 0.103254996 0.23085478 -0.08476695 0.047266833 0.48993915 0.25756523 0.087812826

dense1.weight f4 [128, 400]
00000000: 377d 343d 51d5 5cbd 131b b63c 961c f73b
00000010: 1fb9 093d 87cd debc dc35 9b3c ea5c 093d
00000020: 9a0f f83b 617c e4bc 48a0 40bd 5ec6 30bd
00000030: a0c3 39bd 03ee 0c3b cdd3 edbc a331 4fbd
00000040: 21ce 97bc 2396 173d 2b3c 5a3c 0e8c 20bd
00000050: 5010 56bd a51d f6bb b805 36bd 4dca 4a3c
00000060: 5b86 093d fe49 24bd b729 d2bc c511 2c3b
00000070: 27ca bfb9 f449 24bc 434c 1ebd d574 5cbc
00000080: 28f8 39bd 4670 08bd 1787 f6bc 051e fc3c
00000090: ed83 7abc 8ddf 84bc 088e 2abd 83c6 14bd
000000a0: 5a2a 343d aad5 ebbc d757 8c3c c8a9 cd3a
000000b0: c695 2a3d 5e7e 24bd 6f8b 2cbc c0fa 56bc
000000c0: b1a8 89bb 20e5 bbbc 9f60 bfbc 0ae5 0abc
000000d0: 3268 043b 413c 3dbc 8bbe 8cbb ea55 1d3d
000000e0: 5c67 44bd a72e 61bd 799d 8ebc 7a88 a0bc
000000f0: 9213 a23c fb2f 79bc ad14 2d3d 108b 28bc
00000100: bd14 adbc 770c 1bbd 05c9 0ebd e112 26bc
00000110: 3bf5 773c b877 18bd 5c1f f53c 18ab 36bc
00000120: c745 c4bc f996 343c dd33 2c3c 530f d0bb
00000130: 33e8 bbbc 76a6 31bd 0110 45bc 9470 983b
00000140: 219b 943c cd99 ab3c 00ed edbb 53f2 c13b
00000150: 4c6b babc bc86 0c3b 0a3c 22bd 3641 99bc
00000160: 52bf 783c a653 3bbc cad0 11bd 7ac4 a63c
00000170: c838 76bb 7e4f d9bc 7022 23bd 61a9 46bd
00000180: f6cc 23bd 067e 56bd 9d61 ccbc bfa0 5d3a
00000190: 99bd 22bd a7a4 143d 47b6 b6bc 39c9 a1bb
000001a0: c8b1 a1bc e407 5abd 2a71 0d3d eef0 cdb9
000001b0: bd21 4cbc 3632 22bd 9963 5fba 5045 51bd
000001c0: 3d9b ac3c 420f ddbc 2036 ca3b 630f 1dbd
000001d0: acc8 9c3b 0c88 343d 256f 18bd 8c04 01bb
000001e0: c4f5 bc3c 2ef7 0abc 5a95 3f3c 75f0 ce3c
000001f0: 4083 99bc 7072 ebbc 763f 3cbd c526 133b
00000200: deca f0bc 2083 15bd b0a1 4fbd 6114 8ebb
00000210: e9f0 0a3d d607 b03c 52cc 1c3d ade2 163d
00000220: e993 963c 8c97 6d3c 67e4 9cbc e41d 47bc
00000230: 048e dd3b 6ea6 f3ba 8990 82bc 5335 37bd
00000240: 1302 de3b b7b9 823c 3882 463a 5b60 d6bb
00000250: c5be dbba b880 393d fe0a 83bc bcc0 17bd
00000260: 16c6 e5bc 87fe 9b3c 6fa0 46bd 06d0 c2bc
00000270: c21d 3fbd 0390 863c b581 0abc b9d8 b6bb
00000280: ffb0 bd3c 3655 063d 7b82 6dbd 6f32 9a3c
00000290: 5176 d93c d4b0 0bbd e857 e93c a081 313c
000002a0: 2421 50bc e2ab 23bd 2b26 053d 6659 4ebc
000002b0: 233d 1fbd 34c3 f0bc be88 4abd 07b2 ca39
000002c0: 04cd fa3c 30b2 1f3c 818e c13c e726 efbb
000002d0: c454 8a3c bdb2 06bd 0a21 f7bb aaf3 ab3c
000002e0: 573a 21bd 44e7 1dbd 49ad 04bc 957f fdbc
000002f0: 496d 9fbc 5c84 d63c f03b 47bc 535b 163d
00000300: 17d9 04bd 3ee2 ebbc 15ed 353d 93cd 81ba
00000310: bb34 e6bc 49de 08bd 7a52 47bd e0a3 09bd
00000320: 4cb2 04bd 1031 163c 471e 28bd 2067 983c
00000330: 1f7d 283d 50ee 053d b006 c4bc 6ea2 773c
00000340: d229 0939 397f c0bc 63e6 5ebd 105f 03bd
00000350: 6974 fb3c 3d9d bd3c 8250 b1bc ebcb 93bc
00000360: 13bc 53bd d020 46bd b9dc 1d3b 168c 1b3d
00000370: 9790 1cbd efb1 27bd f0a8 b3bc bf6c 21bb
00000380: 5a6b 10bd a66a 33bc e566 afbc 1cf0 15bd
00000390: 5f28 a0bc dc0c 0c3c 86e3 c63c 04ff 4cbd
000003a0: 3114 2a3d 0edf 36bd 2e01 0b3b 94bf 61bd
000003b0: 23ab e73b 0329 eebc 26da 9c3b 76ce 653c
000003c0: 28db 293c 7b12 d03c 2261 873b 2972 363d
000003d0: 1864 f33c 8b98 bd3b d695 c3ba 2aef 41bc
000003e0: 8d68 ef3b a2ee b83c 7255 af3c 6e57 1f3d
000003f0: fe39 15bd b566 de3c 119c efba f05f 17bd
0.044064727 -0.053914372 0.022229707 0.0075412495 0.03362381 -0.027197612 0.01894658 0.033535875
0.007570219 -0.02789134 -0.047027856 -0.043157928 -0.04535258 0.002150417 -0.029031659 -0.050584447
-0.018530907 0.037008416 0.013320009 -0.039196067 -0.05226165 -0.007510858 -0.044439048 0.012377334
0.033575397 -0.040109627 -0.025654657 0.0026255709 -0.00036580974 -0.010027397 -0.038646948 -0.013455589
-0.045402676 -0.033310197 -0.030093713 0.030776033 -0.015290243 -0.016219879 -0.041639358 -0.036322128
0.043985702 -0.028788406 0.017131729 0.0015690858 0.04164674 -0.040159576 -0.01053129 -0.013121307
-0.004201018 -0.022936404 -0.023361502 -0.008477459 0.0020203707 -0.01155001 -0.0042951754 0.038412012
-0.047950134 -0.05497613 -0.017409073 -0.019596327 0.019784722 -0.015209193 0.042256046 -0.010287061
-0.021128053 -0.037853684 -0.034859676 -0.010136337 0.015134151 -0.037223548 0.02992218 -0.01114919
-0.023959054 0.011022323 0.010510412 -0.006349483 -0.02293787 -0.04337164 -0.012027741 0.0046520922
0.018140377 0.020947361 -0.0072609186 0.00591878 -0.022756241 0.0021442613 -0.03960804 -0.018707853
0.015182333 -0.011433518 -0.035599507 0.02035736 -0.0037570465 -0.026527163 -0.039827764 -0.048501376
-0.039990388 -0.05236628 -0.02494889 0.0008454434 -0.039731596 0.036289837 -0.022303713 -0.0049373177
-0.019738093 -0.05323018 0.03453175 -0.00039280154 -0.012459216 -0.039598666 -0.0008521616 -0.051091492
0.021070117 -0.026984815 0.006171003 -0.038344752 0.004784664 0.044075057 -0.03721537 -0.0019686548
0.023066409 -0.008481784 0.011693323 0.025261143 -0.018739343 -0.028741091 -0.04595896 0.0022453528
-0.02939361 -0.036502004 -0.050691307 -0.0043359254 0.033921156 0.021488111 0.038280793 0.03683727
0.018381076 0.014501464 -0.01915188 -0.012153123 0.0067613143 -0.0018589029 -0.01593806 -0.04472859
0.0067751496 0.015957696 0.00075725047 -0.006542248 -0.0016765228 0.04528877 -0.015996452 -0.03704904
-0.028048556 0.019042267 -0.048492845 -0.023780834 -0.04665924 0.016426092 -0.008453776 -0.0055800346
0.023155687 0.032796107 -0.057985764 0.018822877 0.026545675 -0.034104183 0.0284843 0.010834128
-0.012703214 -0.039958842 0.032507103 -0.012594556 -0.038876664 -0.029389955 -0.049446814 0.00038661083
0.030615337 0.009747073 0.023627521 -0.0072983387 0.016886123 -0.0328853 -0.0075417804 0.020990212
-0.039362278 -0.03855063 -0.008097955 -0.030944625 -0.01946129 0.02618616 -0.012160286 0.036708187
-0.032433596 -0.028794404 0.044415552 -0.0009903185 -0.028101316 -0.033415113 -0.04866264 -0.03360355
-0.0323966 0.009166971 -0.0410445 0.018603861 0.04113495 0.032697976 -0.02392897 0.01511441
0.00013080917 -0.023498164 -0.054418933 -0.03207308 0.030695157 0.023146266 -0.021644834 -0.018041572
-0.051693033 -0.048371136 0.002408786 0.037975393 -0.03822383 -0.040941175 -0.021931142 -0.0024631468
-0.03525863 -0.01095072 -0.021411369 -0.03660594 -0.0195505 0.008547988 0.024278414 -0.05004789
0.041523162 -0.044646315 0.002121042 -0.055114344 0.0070699616 -0.02907229 0.0047867475 0.014026275
0.010367192 0.025399437 0.004131452 0.044542465 0.029710814 0.005786007 -0.0014921974 -0.011836806
0.0073061646 0.022574726 0.021403048 0.03890174 -0.03643226 0.027148584 -0.0018280764 -0.036956728

dense1.bias f4 [128]
00000000: 7f02 38bd cae5 403d 2439 34bd 86af 74bd
00000010: d04d 1d3e cd77 50bd 8e5b 503a 050e b13c
00000020: cf2b 093e 30dd e0bc b3c5 a8bc 2bbe 6abc
00000030: 5b4c 543e da9b dc3c b929 993c 26f7 de3d
00000040: 6897 033d 7106 5ebd 0732 153d a808 183e
00000050: 3349 91bb 24cc 473e 2cac d73d 6a7b 49bd
00000060: 1166 8fbc f1a9 c0bc 59d3 cfbc bdb7 983d
00000070: 173b 333e c386 dc3d 4319 2bbe 752d f23c
00000080: fdea ba3c a214 98bd 8a97 173e f8d4 cebd
00000090: 0c82 883e abee 9c3d d3d1 423c ba26 f63c
000000a0: 90c7 bdbc b819 813e 6aab 383d 8b9f cebd
000000b0: b144 71bc 7149 c8bc 3a5d 8d3d e80a 4ebe
000000c0: 0df4 e23d ac58 3bbd 1e62 cf3d 18a5 18bd
000000d0: cb2d bdbc 7c75 963c c0f0 ac3d bd62 a73e
000000e0: 82ba 813e 688f 71be 198f b93d 96ca 4bbc
000000f0: a11e aebd ca5c a33d 12d9 e93c bf88 3ebd
00000100: 7d47 0fbd 2bea 003e e039 b1bd 78de 383e
00000110: 0a2d 52bd d121 393e d769 aabc 9a28 a5bc
00000120: ba4a e4bd 3950 3ebd 0e1f 13be d6eb 2b3e
00000130: 21f7 0ebd e8d5 ac3b 6e71 293e 1a1a 9b3e
00000140: 9e59 92bc 1539 13bd fb02 1ebd 3e5b 0a3e
00000150: 78af e33c 3a0d a33d 3c39 a8bc fc8f 0bbe
00000160: 54f3 82bc 93d6 5ebc 1fd8 643c a7e6 ad3c
00000170: 0d36 b5bc c202 2e3e fc18 8a3e 63ed 073e
00000180: a924 5f3b c3ee b63c b592 593b 891a efbb
00000190: 4870 8d3d 02b6 8d3d 51db b23d 9453 cc3d
000001a0: d9f5 11bd 6e50 523d 20f2 96bd 71f6 493e
000001b0: 3524 aebc c4cf 44bc e205 8aba 5611 c53c
000001c0: f12b e73a be9e 64bd d4ca 853d 1137 82bd
000001d0: fda5 213d 6abf 4dbd 8111 4e3e 09a5 a13d
000001e0: ca5f e0bc d27a 063e f413 b3bb 4917 68bd
000001f0: 383e 52bd ebc5 abbc 4d38 4c3e c094 5d3c
-0.044924255 0.047094144 -0.043999806 -0.059737705 0.15361714 -0.0508955 0.0007948213 0.02161313
0.13395618 -0.02744922 -0.020602083 -0.014327566 0.20732252 0.026929785 0.018696653 0.108869836
0.032126814 -0.05420536 0.036424663 0.14847052 -0.004433775 0.19511467 0.10530886 -0.049189962
-0.017504724 -0.023518534 -0.025369333 0.0745692 0.1750301 0.10767891 -0.16708855 0.029562691
0.02281713 -0.074258104 0.14803901 -0.10099214 0.26661718 0.0766271 0.011890846 0.030047763
-0.023166448 0.25214934 0.04508535 -0.10089024 -0.01472585 -0.024449082 0.06902547 -0.20121348
0.11081705 -0.04573886 0.10126136 -0.03726682 -0.023093125 0.018366568 0.08444357 0.3269252
0.25337607 -0.23589861 0.09060497 -0.012438437 -0.08501936 0.079766825 0.02854589 -0.04651713
-0.034980286 0.12589328 -0.08653617 0.18053615 -0.051312484 0.18079306 -0.020802421 -0.020160962
-0.111470655 -0.046463225 -0.14367315 0.16789183 -0.03490365 0.005274523 0.16547176 0.3029335
-0.017864998 -0.03594311 -0.03857706 0.13511369 0.027793631 0.07961507 -0.020535104 -0.13629144
-0.015985169 -0.013600963 0.013967543 0.021228148 -0.0221205 0.1699324 0.26972187 0.1327415
0.003404895 0.022330647 0.0033199016 -0.0072968644 0.069061816 0.06919481 0.087332375 0.09976879
-0.03563485 0.051346235 -0.073704004 0.19722916 -0.0212575 -0.012012426 -0.0010530318 0.024056118
0.0017636997 -0.05581545 0.06532827 -0.06358159 0.03946494 -0.050231375 0.20123865 0.07892806
-0.027389426 0.1313279 -0.005465025 -0.05666283 -0.051328868 -0.020968398 0.19943352 0.013524234

dense2.weight f4 [64, 128]
00000000: a78e 5cbc 245c 003d 7f32 87bd 8267 a73d
00000010: 5ed9 76ba 06b5 9b39 f9a0 523c fdd8 74bd
00000020: c4cc 30bd 2a4e 85bd 4596 9e3c ab66 be3c
00000030: 913d f73c c830 563d 1604 b5bd 084a 83bc
00000040: dec6 b0bd c2f0 4abd fa85 26bd e318 81bd
00000050: 4e65 483b 7e99 a5bd 7bc0 5fbd 611a 8abd
00000060: 5a1e a2bc 7a89 26bd e2db 013d 9934 853d
00000070: bf50 bdbd e290 023d 1a61 eebd 678d 043d
00000080: 4540 3bbc 6298 8a3a db19 c2bd 656d b23d
00000090: e5ae 4fbd f293 953c e119 d2bc 92d4 a6bd
000000a0: 1587 173d 985f e4bc 14bc 53bd dc0e 1a3d
000000b0: 82ea 06be b8fd 923d b4bb 4a3d 35b0 23bc
000000c0: acca 7f3c 00a2 e63b fa2c 4d3d b823 9b3d
000000d0: 68f1 2b3d e321 8abd 0c2a febc ce1a b2bd
000000e0: 0f17 bebc 567d 80bd 6823 333d 0bee d03c
000000f0: 33fc dabc a81c c9bc d517 463d f3ca d5bb
00000100: a259 99bd 115c b1bc 9ddf 15b9 2c25 233d
00000110: 30ab ac3d d332 293d 35fe 4b3a 421a 95bd
00000120: d85b 9dbc ef25 753d 80f1 09bd 1834 90bd
00000130: 4e4a 8c3d 6a23 b43d efeb 9bbc 7b6d c0bd
00000140: abb0 583d 677a 07be 64c2 953d 4ea0 eebd
00000150: 7f54 82bd 393e 9dbd e8da 04bd 8313 04bd
00000160: 8710 8ebd bd1f 6abd bc68 13be a9e9 183d
00000170: 7b64 febd cdc0 a3bc f6f3 323d e071 46bd
00000180: 5c8e af3c 4e0f 6dbd 6a25 2abd 8df3 1aba
00000190: 59ea e73c 7843 38bd a72c 1dbd fdcd 553d
000001a0: 99a4 84bd ac8f 983d 1c3b b1bc e52a bb3b
000001b0: a9e2 f0bd 1d7d e33c f7d2 0abc bbd8 7e3c
000001c0: 3e9b a23d 760d e7bc 4db7 c0bd 73e4 2d3d
000001d0: 5d1d 66bd 4e25 efbc 34a3 dbbd 43dd bbbd
000001e0: 34c6 32bd 7576 b2bd e3c6 883c 2a48 253c
000001f0: 8568 28bd 39f4 aabd 866c 94bc d334 5fbd
00000200: ba57 26bd f8b1 2fbc f0e8 32bd 3910 abbd
00000210: 130e b2bc d4ea 4ebd e050 373d 95a8 373d
00000220: c893 70bb ac41 343d 641a cdbb 847b 403c
00000230: f113 afbd 4e14 823d 72f4 9abd 15cb abbd
00000240: a474 c8bd c7f1 2cbd 363c 2f3d 9f3a adbd
00000250: ce36 c1bd 313b 88bd f640 b4bd 8996 48bd
00000260: 72a7 75bd 508a 42bd fdac 2c3d 4aff 803c
00000270: 0984 95bd 952e 4fbd a6f6 16bd 31d7 61bd
00000280: cd46 4dbc af46 793d 0b2a b8bd 94d5 16bc
00000290: 9572 98bd 6468 283d 271e b9bd 9ece fabb
000002a0: 7b73 4cbd 4d9d 29bd 7911 efba 265b 4e3d
000002b0: 4981 76bd 1363 1ebb 848b adbd 411e 06bd
000002c0: 9813 9cbd c67e 98bd 4025 34bd 7fad b23c
000002d0: dec9 8b3d cc49 203d f98c 5bbd 41e5 53bd
000002e0: 99ff 923c 31f6 fe3c b36d 0a3d cf15 b4bd
000002f0: 399e 943d 1a33 47bd c72d e9bb 293b 903d
00000300: 967e d03c 2599 343d 5ce6 93bd 29a9 113d
00000310: bdf5 753c 4ac5 76bd 1f59 d9bd cc41 6bbd
00000320: ba2e 1ebd 41c3 ac3c fd45 41bb 4b5c 993c
00000330: ea4f 8d3c d52f a03d 1ec9 283c 3cc7 aabd
00000340: 4c30 9c3d 0a84 7c3d 5d90 983d 0502 65bc
00000350: d332 82bd d673 0a3d d5c4 493d 4ae4 3bbd
00000360: c4d1 5d3d 024d 08bc 0912 b2bd 0a68 7cbd
00000370: 7ff9 10bc 94ee 4ebd 7bd8 86bd bda6 cabd
00000380: ff41 0cbc 48e7 a7bd d078 893c 5b4d ccbd
00000390: bf69 383d 4e2f 5dbd 28b3 d53c 2418 8c3c
000003a0: 2b85 a2bc 2bba 7cbd 087b a93c 9d59 893b
000003b0: 921f b93c 2810 653d 8245 7e3c b9da a4bd
000003c0: c27a 41bd 64aa 5b3d 7a1c 8f3c f70d 9bbd
000003d0: 16cd fdbc a5c1 89bd 92ae fbbc 91d0 93bd
000003e0: c2bc 30bb 643a c4bd 8a4b 153d 88f4 0cbd
000003f0: 9f61 babc d332 8b3c 0c76 993b 3cc7 01bc
-0.013461745 0.031337872 -0.06601428 0.081740394 -0.00094165455 0.00029698777 0.012855762 -0.05977725
-0.04316403 -0.06509049 0.019358763 0.023242315 0.030180724 0.052292615 -0.0883867 -0.016026512
-0.08631681 -0.04954601 -0.040655114 -0.06303575 0.003057796 -0.08085917 -0.054626923 -0.067433126
-0.019789863 -0.04065845 0.031703837 0.06504173 -0.09243917 0.031876452 -0.116396144 0.032361414
-0.011428897 0.0010573978 -0.09477588 0.087122716 -0.0507039 0.018259022 -0.025647106 -0.08146013
0.03699406 -0.027877614 -0.051693037 0.037611827 -0.13175395 0.07177299 0.049495414 -0.0099907415
0.015612286 0.007038355 0.05009172 0.07575172 0.04197827 -0.06744745 -0.031025909 -0.08696519
-0.023204355 -0.06273906 0.043734938 0.025504133 -0.026731586 -0.024549797 0.04836257 -0.0065244376
-0.07487799 -0.021650346 -0.0001429305 0.03983037 0.08431089 0.041308235 0.0007781715 -0.07280399
-0.019208834 0.05985063 -0.033677578 -0.07041186 0.0685011 0.08795817 -0.0190334 -0.09395882
0.05290286 -0.13230287 0.07312468 -0.116516694 -0.063637726 -0.07677884 -0.032435328 -0.03224517
-0.06936746 -0.057159174 -0.14395422 0.03733221 -0.12421509 -0.019989396 0.04368969 -0.048448443
0.021430187 -0.057875924 -0.041539587 -0.00059109257 0.028309988 -0.04498622 -0.038372662 0.0521984
-0.06476707 0.07449278 -0.02163463 0.0057119005 -0.11761982 0.02776962 -0.0084731495 0.015554602
0.07939766 -0.02820466 -0.09409962 0.042454194 -0.056180347 -0.029192593 -0.10724488 -0.09173062
-0.043646052 -0.08714 0.0166964 0.010088006 -0.041115303 -0.08347363 -0.018118154 -0.054493736
-0.040611006 -0.010723583 -0.043679178 -0.083527036 -0.021735227 -0.05051692 0.044754863 0.044838507
-0.0036709178 0.044007942 -0.0062592495 0.011748198 -0.085487254 0.06351529 -0.075661555 -0.08388344
-0.097878724 -0.042222764 0.04278203 -0.08458447 -0.09434281 -0.06651915 -0.08801453 -0.048971687
-0.05997414 -0.047495186 0.042157162 0.015746731 -0.07300574 -0.050581533 -0.036856316 -0.055136863
-0.012529087 0.060858425 -0.08992394 -0.009206194 -0.0744373 0.04111518 -0.09038954 -0.007654025
-0.04991482 -0.04140978 -0.001823946 0.050379895 -0.06018189 -0.002416794 -0.08473876 -0.032743696
-0.07620925 -0.07446055 -0.043980837 0.021811245 0.068256125 0.03913288 -0.05360124 -0.051732305
0.017944144 0.031123253 0.033796024 -0.08793222 0.07256741 -0.04863272 -0.007116053 0.07042534
0.025450986 0.044091363 -0.07221672 0.035561714 0.015012202 -0.060246743 -0.106127016 -0.057435796
-0.03861878 0.021089198 -0.002949118 0.018720767 0.01725002 0.07821623 0.010301856 -0.08338782
0.076263994 0.06164936 0.0744941 -0.013977532 -0.0635735 0.033801876 0.04925998 -0.04587201
0.054155126 -0.008319141 -0.08694846 -0.061622657 -0.008848547 -0.050520495 -0.06584259 -0.09895084
-0.008560657 -0.0819841 0.01678124 -0.09975692 0.045022722 -0.05400019 0.026086405 0.017101355
-0.01983889 -0.06170098 0.020688549 0.004191591 0.022598062 0.05592361 0.015519502 -0.080495305
-0.04723621 0.053629294 0.017469633 -0.07571023 -0.030981582 -0.06726388 -0.03072289 -0.07217515
-0.0026967977 -0.0958145 0.036448993 -0.03441289 -0.022751627 0.016992008 0.0046832617 -0.007921036

dense2.bias f4 [64]
00000000: 76a7 50bd 06c8 abbd ad44 9d3c 18c9 a7bc
00000010: 4d91 b13d 2cc4 9fbd db15 293e d850 4fbd
00000020: cc9e 903c 7862 3f3e b507 99bc 445b 093e
00000030: 6f7d 0fbc 2e4e 0c3e 7eea 403e f1de c9bc
00000040: b558 3ebc 911d a23e 9093 fd3c 88a1 66bd
00000050: ae52 ff3d 3742 ea3c c33b 263e b5c3 593d
00000060: ee5b cf3c 52d5 083d 5a20 d4bd 7b95 7c3e
00000070: 0ba3 693e 7de2 90be 322b 233e abbf bb3d
00000080: 1260 d93d db8d 9abd 7abc 1dbb 3d1f 633e
00000090: 57cc 9abd f354 a03d 2f2c 1fbe db1a 8cbb
000000a0: 76c3 dbbd 776d be3c c424 cd3d 8021 cd3d
000000b0: e3dd 263c 34d5 89be 4a87 06bd 8ea9 6e3e
000000c0: 914c e4bd a897 af3d 50e3 303d 8b10 123e
000000d0: 7b26 48bc 4557 c5bd eb53 993d 456c f7bd
000000e0: 255e 99bd e270 e03c fbd0 39be 95ad 1c3d
000000f0: 960c d13c d714 8f3d 2240 4d3e a2f2 6dbd
-0.050940953 -0.08387761 0.019197786 -0.020481631 0.08670292 -0.07801089 0.16512243 -0.050614208
0.017653845 0.18689907 -0.018680433 0.13413721 -0.008757933 0.13701698 0.18839452 -0.02464244
-0.011617829 0.31663182 0.030954152 -0.056306392 0.12466942 0.028596027 0.16233735 0.053165156
0.02531239 0.033406563 -0.10357733 0.24666397 0.22816102 -0.28297797 0.15934446 0.09167417
0.10614027 -0.07546588 -0.002406864 0.22179885 -0.07558506 0.07828703 -0.15544198 -0.0042756624
-0.107306406 0.023245556 0.10016778 0.10016155 0.010184738 -0.26920474 -0.032843865 0.23306867
-0.111474164 0.08573848 0.043185532 0.14264123 -0.012216206 -0.09635786 0.07486709 -0.12081198
-0.0748866 0.027397577 -0.18146126 0.03825148 0.025518697 0.06986397 0.20043996 -0.05809272

final.weight f4 [43, 64]
00000000: 9062 eebc d448 893d 0d7f ab3d abac 683d
00000010: f0e6 ae3c fc5c 39be 9295 443e 5de7 c8bd
00000020: d525 9c3d fac7 92be 7b3a d8bd b138 1ebc
00000030: 3e20 103c cecd c13d 5788 6ebe b7be ef3c
00000040: 048d 2d39 7f8f cfbe 30da 8abd 6d1f 783c
00000050: 3174 bcbe f33b febb 31c0 08be b343 07bd
00000060: b705 bcbd 5857 89bd f28e 013d 7f51 dfbd
00000070: 3d2d dfbd e825 5bbc 167b 0bbe d2c0 10bc
00000080: d93e 2a3e 1e22 2dbe e8bf 04bd a500 ee3d
00000090: 79f2 5f3d a68a 94bd 6b8a 89be 158f c0bd
000000a0: 9cd2 9e37 2b83 c3bc bd0e 9e3c 96cb 053e
000000b0: c19c 02be 8282 79bf 5a3a 01be ac01 2d3e
000000c0: f478 6abe 5934 82be b7d1 4d3d 7cd0 673c
000000d0: e080 8a3d d6e2 113d 0465 033d f8d8 a1be
000000e0: a7c9 babc 8298 1abe 3c52 1c3e 4aa7 9b3c
000000f0: be0b 04be 3038 35bd 8c94 3d3e 3c87 a63d
00000100: 24eb 36be 92bb 973d c2b8 233d b0b8 97bc
00000110: c525 2cbc 9a5c 86bd 185e dabc ffb3 ad3c
00000120: 74b7 fa3c 88ab aabd e1cc ffbd 4fd7 2abd
00000130: a9ee a739 0646 6abd b601 9ebd 15c0 ac3d
00000140: 1443 9fba cace 9d3d ee3e af3b 69ae 58bd
00000150: 3a16 25be f3e9 7ebd 7d42 d4bd b33c 303d
00000160: d4a2 79bd e81e bdbd 5379 c13a 662d 0f3e
00000170: ff7b 393d 779a 543d 0908 d53d 96bc e2bb
00000180: 5d11 553e 0b31 18be 9061 0b3d d9d8 eb3d
00000190: 6a0f babd cddc c93b f019 2cbe bb22 4bbd
000001a0: d400 99bd d2ed 003d 0801 8b3c a9f3 493b
000001b0: 4d4b 17bd 411e 873e fd87 01be d0af d13d
000001c0: 92f6 2bbe fb95 813d 800d 08bd c87f 053d
000001d0: 12c5 6d3c b681 04be c5d5 15be 67e6 9bbd
000001e0: 7267 e5bd 98ed b9bd 0c66 8f3d c680 263e
000001f0: c52c c2bd 29da 55bd e112 dcbc 61a4 5c3d
00000200: b428 d4bd bd56 683d 1270 c43d acfa d73d
00000210: 5ca2 a03d 6b7f 313d 6ec8 d8bd 96b6 043e
00000220: 7c19 efbd bf39 3d3d 2af5 55bd 142b 1ebd
00000230: 89d9 b03d afc3 96bd ce30 afbd 4021 8f3d
00000240: 842b 78bd 1141 2d3c 0f7c 8d3d 4791 cdbd
00000250: 894b 14be b8f1 82bd a195 77bc c44d fa3d
00000260: d0cc f5bd 5a44 56bd d3de 653d 0143 fc3d
00000270: d3b1 6b3d a106 db3c fa35 b2bd e7d8 663c
00000280: a16d 033e 08f9 c6bd aa94 7c3d 44b5 05be
00000290: 0b3e b9bd 90d2 f53d 81c3 a4bd bfc8 963c
000002a0: b62f a5bd ae74 d6bd 3ccc 933c a90f 27bc
000002b0: df0d fc3d 0645 2fbd 172a 85bd fe76 803d
000002c0: 24e0 e93c 0176 2ebd 4819 19bc 695d 66bd
000002d0: 5e15 e03d a2b7 43be 68fb 71bd 876a 9f3d
000002e0: 44ba d53d d5e6 a1bd 8a22 663b c7c6 aa3c
000002f0: 04f6 87bd a12f e9bd c663 833d e6c0 273e
00000300: 4fc7 3bbd ca27 9c3c 6c0d c23c 469f 7cbd
00000310: 4e43 a13d 6b03 43be fe4a 81bc 3798 383d
00000320: 895d 093e 3b40 d53d e6bd 9e3d 56e9 46bd
00000330: 175d 953d 2813 4a3e 611c 52bd ad7b bcbd
00000340: fe62 13bd 89ff 8cbd 3ad6 d33c e263 9f3d
00000350: 663f dfbd 1e5f e0bd 85e1 b2bd dd32 11bd
00000360: ac5b bbbd bc8b af3c da51 b4bd 92f3 153d
00000370: 4431 8b3d 2e3b 023d 228f 0a3e f6dc 47be
00000380: a13c 343d cf92 7cbb 9d4d 9a3d a407 9dbd
00000390: fc6e 1dbd ad71 c43d c31f 053d e151 b73d
000003a0: c4ba f13c 5d0a 9cbd 4168 ff3d df1b c13c
000003b0: 8970 a3bd 6e26 5f3d 0020 b7bd 2891 e33d
000003c0: 3b10 283e 1712 1d3d f8f3 ab3c 6ebd d7bd
000003d0: 4928 843b 8f8a 87bb d121 a83d 9618 14bd
000003e0: 2f4f e23d 58e4 f5bd 73fc e1bd 4298 f4bd
000003f0: 793e 38be f79f a0bc 2204 62bb 4b39 823c
-0.029099733 0.06703344 0.083738424 0.056805294 0.021350354 -0.18101877 0.19197682 -0.09809754
0.076244034 -0.28668195 -0.10558029 -0.009657071 0.00879675 0.09463082 -0.23294197 0.029265745
0.00016551098 -0.40539166 -0.06779897 0.015144211 -0.36807397 -0.0077586113 -0.13354565 -0.033023547
-0.091807775 -0.067061126 0.031630464 -0.10904216 -0.108973004 -0.013375737 -0.13621172 -0.008835034
0.16625537 -0.16907546 -0.03240958 0.11621217 0.0546746 -0.072530076 -0.26863417 -0.09402291
1.893314e-05 -0.023866257 0.019294137 0.13065943 -0.1275511 -0.97464764 -0.12619916 0.16895169
-0.22897702 -0.25430563 0.050248828 0.014148828 0.06762862 0.03561672 0.032078758 -0.31610847
-0.022801233 -0.1509724 0.15265745 0.019000668 -0.12895104 -0.044243038 0.18513697 0.08131263
-0.17863137 0.07408823 0.03997112 -0.018520683 -0.010507052 -0.06560631 -0.026656196 0.021203993
0.030605055 -0.08333498 -0.124902494 -0.04170924 0.00032030538 -0.057195686 -0.0771517 0.08435074
-0.0012150728 0.077054575 0.005348078 -0.052900705 -0.1612176 -0.06223483 -0.10364244 0.043026637
-0.0609463 -0.092344105 0.0014760889 0.13982162 0.045284268 0.05190512 0.10401923 -0.006919454
0.20807405 -0.14862458 0.03402859 0.1151597 -0.09084971 0.0061603547 -0.1680677 -0.04959367
-0.07470861 0.031476803 0.016968265 0.0030815399 -0.036937047 0.2639027 -0.12649532 0.10238612
-0.16793278 0.06327435 -0.033216 0.032592565 0.014512317 -0.12940106 -0.14632328 -0.07612305
-0.11201371 -0.090785205 0.07001886 0.1626006 -0.09481195 -0.052210007 -0.02686447 0.0538677
-0.10359326 0.056723345 0.09591688 0.10545859 0.078434676 0.043334406 -0.10585104 0.12960276
-0.11674783 0.04619765 -0.05223576 -0.0386153 0.086352415 -0.073615424 -0.08554231 0.06988764
-0.060588375 0.010574595 0.06908428 -0.10037475 -0.1448194 -0.063937604 -0.015111358 0.12221864
-0.120019555 -0.05231128 0.056120705 0.123174675 0.057542633 0.02673656 -0.087017015 0.0140897995
0.12834789 -0.09715468 0.061665215 -0.13057429 -0.09045037 0.12003052 -0.08045102 0.01840627
-0.08065741 -0.10471474 0.018041722 -0.010196605 0.12307333 -0.042790435 -0.065021686 0.06272696
0.028549261 -0.042593006 -0.009344406 -0.056241427 0.109415755 -0.19113019 -0.05907765 0.0778399
0.10435918 -0.07905356 0.0035115802 0.020846738 -0.06638721 -0.113860376 0.06415515 0.16382179
-0.045844372 0.019061942 0.02368804 -0.061675332 0.078741655 -0.19044273 -0.01578283 0.04506704
0.13414587 0.104126416 0.07751064 -0.04856237 0.07293146 0.1973387 -0.051296595 -0.09203277
-0.03598308 -0.06884677 0.025858987 0.07782723 -0.10900764 -0.10955642 -0.08734421 -0.035448898
-0.091483444 0.021428935 -0.088046744 0.03660924 0.06796506 0.03179472 0.13531163 -0.19517884
0.044003133 -0.0038539653 0.07534335 -0.07667473 -0.03843592 0.095919944 0.032500993 0.08951164
0.029508002 -0.07619164 0.12471057 0.02357286 -0.07980449 0.05448001 -0.089416504 0.11111671
0.16412441 0.03834733 0.020990357 -0.10534178 0.0040331227 -0.0041363905 0.08209575 -0.03615626
0.11050259 -0.12006444 -0.11034479 -0.119431034 -0.17992581 -0.019607527 -0.0034487327 0.01589646

final.bias f4 [43]
00000000: 65df 40be e397 f33d 5d88 1abd c71e 2dbd
00000010: 5421 cdbd dc9f 853e 748d 613e 7839 e23a
00000020: 467b c33d ad2e 1abe c338 42bb 1648 47be
00000030: a421 5d3e 91dc cf3d 2a5f 833d 38ad 89bb
00000040: a8f9 59be 9dad d2bd 16c4 503c c527 7ebe
00000050: 57e8 3a3d 3bdb 8fbd e8bc 01be 67c8 bfbb
00000060: e338 153e bd7c 963c 8bb1 1abe 2aea 6abd
00000070: 474f 3dbd 7c31 fabd 0650 243e 5c9e 7a3e
00000080: 1783 20be 1b5f 6e3d 23fd 84bc 968b 06be
00000090: 8687 0b3c dfd3 9dbd 8d6f d33c 9740 b0bd
000000a0: c706 aebe 319c 54be 9258 8cbd
-0.18835218 0.118942045 -0.037727702 -0.04226568 -0.100161225 0.26098526 0.22026616 0.0017259559
0.09544997 -0.15056868 -0.0029635883 -0.19461092 0.21594864 0.101494916 0.064146355 -0.0042015575
-0.21286643 -0.1028702 0.012742063 -0.24819858 0.045631733 -0.07024237 -0.12669718 -0.0058527472
0.14572482 0.018370027 -0.1510679 -0.057352223 -0.046218183 -0.1221647 0.16046152 0.24474472
-0.15675007 0.05819617 -0.016233986 -0.13139185 0.008516198 -0.07706427 0.025810027 -0.086060695
-0.33989546 -0.20762707 -0.06852831
