Robustness/models/base_epsilon_0.020.pth (torch, 264008 bytes, 10 tensors)

conv1.weight f4 [6, 1, 5, 5]
0	0x3e2366b2	0.15957144
1	0xbe3e3453	-0.18574648
2	0xbe4f48b2	-0.20242575
3	0x3d3317e1	0.043723945
4	0x3e7dabd5	0.2477258
5	0x3da4f004	0.08053592
6	0xbc45d3ff	-0.01207447
7	0x3a0014f4	0.0004885935
8	0xbe242fd3	-0.16033868
9	0xbe4103cf	-0.18849109
10	0xbd87f09e	-0.06637691
11	0x3ea60745	0.3242742
12	0x3e90615a	0.28199273
13	0x3f1c1452	0.60968506
14	0x3e7879a1	0.24265148
15	0x3e04e06b	0.12976234
16	0x3e6a1a68	0.22861636
17	0x3f65881f	0.8966083
18	0x3f442c47	0.7663006
19	0x3f030258	0.5117545
20	0x3d36f8e6	0.04467096
21	0x3e9731f3	0.29530296
22	0x3f0536a6	0.5203651
23	0x3f1a663b	0.6031224
24	0x3e000b49	0.12504305
25	0xbe31d1ba	-0.1736516
26	0xbdeab3e7	-0.11460095
27	0xbeae37d9	-0.34026983
28	0xbecd7dd3	-0.4013506
29	0xbeb3d449	-0.35122898
30	0xbe036f7f	-0.12835501
31	0xbcfd9c6e	-0.03095838
32	0x3dc7ce56	0.09756152
33	0x3e2d05fe	0.16896817
34	0x3ddeb6bd	0.10874698
35	0xbd98c628	-0.0745967
36	0x3dcc8755	0.0998675
37	0x3f31af6c	0.694083
38	0x3f447a08	0.76748705
39	0x3eb31d4d	0.34983292
40	0xbe0129de	-0.12613627
41	0x3de8e1d0	0.11371195
42	0x3efbfc8e	0.4921612
43	0x3f0aca02	0.5421449
44	0x3e99c246	0.3003103
45	0xbd9d09e1	-0.076679
46	0xbd927e9c	-0.07153055
47	0x3d9df599	0.0771286
48	0x3d1720e3	0.036896598
49	0xbd142f10	-0.036177695
50	0xbe863edd	-0.26219836
51	0xbebd55e0	-0.3697958
52	0x3f15a24a	0.5845076
53	0x3f39dc61	0.72601897
54	0xbf0158b8	-0.50526
55	0xbe72139a	-0.2364029
56	0xbd133bff	-0.03594589
57	0x3fa2f822	1.2731974
58	0x3f82276c	1.0168281
59	0xbf00db04	-0.5033419
60	0xbc12d2da	-0.008961404
61	0x3c5d3ceb	0.0135032935
62	0x3f13e5df	0.5777263
63	0x3e4f16b5	0.20223506
64	0xbed230c6	-0.41052836
65	0xbca18553	-0.019716894
66	0x3e3c1dad	0.18370695
67	0xbdbb1c21	-0.091362245
68	0xbe8a9b0a	-0.2707141
69	0xbe9419df	-0.28925988
70	0x3bb7b9f0	0.0056068823
71	0xbdab80d3	-0.08374181
72	0xbe1aa9e0	-0.15103865
73	0xbe504a18	-0.20340765
74	0x3cb91ec3	0.022597676
75	0x3d96035a	0.07324858
76	0x3e8ca150	0.27466822
77	0x3e836efe	0.25670618
78	0x3daacdcb	0.08340033
79	0x3d4c3521	0.049855355
80	0x3dc9ad3c	0.09847495
81	0x3cd1a2e1	0.025590362
82	0x3e4d7cad	0.20067091
83	0x3e900083	0.2812539
84	0xbc8beaca	-0.01707973
85	0x3c913504	0.017725475
86	0xbcf399ff	-0.029736517
87	0xb7abb892	-2.0470736e-05
88	0xbe2917a2	-0.16512921
89	0xbc991453	-0.01868645
90	0x3e0b1c05	0.13584907
91	0xbda2df53	-0.07952752
92	0xbe92cde4	-0.28672707
93	0xbe917d39	-0.2841585
94	0xbb695a5a	-0.0035606832
95	0x3e5433b5	0.2072285
96	0x3d9a8107	0.07544141
97	0xbd3df338	-0.04637453
98	0xbea50a94	-0.32234633
99	0xb9c7c736	-0.00038104662
100	0xbd29ca42	-0.041452654
101	0xbe58a4f2	-0.21156672
102	0xbdfccfbb	-0.12344309
103	0x3ef29d09	0.47385433
104	0x3ed9a25c	0.42506683
105	0xbc34db63	-0.011038634
106	0xbe907cbf	-0.28220174
107	0x3cf8e479	0.030382382
108	0x3f414291	0.754922
109	0x3f5f6fe4	0.87280107
110	0xbdaf4fcd	-0.08560143
111	0xbe2269c6	-0.15860662
112	0xbe4b3c3d	-0.19847198
113	0x3eb0e8dc	0.34552658
114	0x3eb324e4	0.34989083
115	0x3b251262	0.002518796
116	0xbe0258c1	-0.1272917
117	0xbdbd3ac6	-0.09239726
118	0xbe6182e7	-0.22022592
119	0xbd3e3263	-0.04643477
120	0xbe182faa	-0.14861932
121	0x3cb60835	0.02222071
122	0xbe20fe2a	-0.15721956
123	0xbd6ed82e	-0.058311634
124	0xbe80f6d0	-0.25188303
125	0x3cabd32f	0.020974724
126	0xbddad4fd	-0.106851555
127	0xbdf04aa8	-0.117329895
128	0xbc2d196a	-0.010565141
129	0x3d35936a	0.044330038
130	0xbcce36c7	-0.025172604
131	0xbd5bf1ad	-0.053697277
132	0xbe7d4241	-0.24732305
133	0xbd4deff2	-0.050277658
134	0xbce1dc20	-0.027570784
135	0xbe09dd10	-0.13463235
136	0xbe8dc6c1	-0.276907
137	0xbeb519d2	-0.35371262
138	0xbe1ab693	-0.15108709
139	0x3e43a15b	0.19104521
140	0xbd290acd	-0.041270066
141	0xbe838506	-0.25687426
142	0xbe8092ba	-0.25111943
143	0x3d40137f	0.046893593
144	0xbe1093bf	-0.1411886
145	0x3cd09fd1	0.025466831
146	0xbdaf3a50	-0.08556044
147	0xbe088826	-0.13333187
148	0xbe876ccd	-0.26450196
149	0xbdcf6999	-0.10127563

conv1.bias f4 [6]
0	0xbf06fd76	-0.527305
1	0x3f803bf4	1.0018296
2	0x3f89124b	1.0708708
3	0x3f476a4c	0.7789657
4	0x3f96ae09	1.1771861
5	0x3e032268	0.12806094

conv2.weight f4 [16, 6, 5, 5]
0	0xbe1da559	-0.15395106
1	0xbe4def0e	-0.20110723
2	0xbeafa899	-0.34308317
3	0xbd7fea51	-0.06247932
4	0xbef777d7	-0.48333618
5	0x3d222cb1	0.039593402
6	0x3b70a445	0.0036719006
7	0xbe8828b0	-0.26593542
8	0xbeb8c5f8	-0.36088538
9	0xbe64d5b1	-0.22347142
10	0xbd9abb03	-0.07555201
11	0xbc6ce9b6	-0.014460018
12	0xbeb29323	-0.3487788
13	0xbe6dabc0	-0.23210049
14	0x3aca0151	0.0015411769
15	0x3d916b85	0.07100586
16	0x3d08df5c	0.033416137
17	0xbd057f07	-0.032591846
18	0x3e4af574	0.19820195
19	0x3e441224	0.19147545
20	0x3d986bac	0.07442412
21	0x3dc3d02f	0.09561192
22	0x3e537c89	0.20652975
23	0x3e532199	0.20618285
24	0x3dd43d37	0.10363238
25	0x3c844fc3	0.016151315
26	0x3dd6775a	0.10471983
27	0xbd9ed4e9	-0.07755453
28	0x3c49da95	0.01232018
29	0xbe80b1ce	-0.25135654
30	0x3dabb682	0.0838442
31	0x3ce7b3e9	0.02828403
32	0x3d217eba	0.039427496
33	0x3c621dc1	0.013801039
34	0xbe693f0a	-0.22777954
35	0x3d8de8cb	0.06929167
36	0x3d107274	0.0352654
37	0xbe95f89a	-0.2929123
38	0xbe0d07b8	-0.13772476
39	0x3dc26e5d	0.094937064
40	0x3d15a8b8	0.036537856
41	0x3e2080ec	0.1567418
42	0x3d9ce49c	0.07660791
43	0x3e973f17	0.2954032
44	0x3e8ea922	0.27863413
45	0x3d552b97	0.052043524
46	0x3e5d5d43	0.21617608
47	0x3e2a21cf	0.1661446
48	0x3e87a2fd	0.26491538
49	0x3e4d19a4	0.20029312
50	0x3c783d27	0.015151299
51	0x3c62a399	0.01383295
52	0xbd2f7ce5	-0.042843718
53	0xbe02d9cd	-0.12778397
54	0x3d017853	0.03160889
55	0x3c66d982	0.014089944
56	0xbc00f780	-0.007871509
57	0xbdfc614a	-0.12323244
58	0xbea4fb5b	-0.3222302
59	0xbb053e26	-0.0020331233
60	0x3d0f0217	0.034914102
61	0x3d7d3c0c	0.061824843
62	0xbc4a945e	-0.012364475
63	0xbe47d041	-0.19513036
64	0xbdf1d5d6	-0.11808364
65	0x3abd1434	0.0014425577
66	0x3e0d1eee	0.1378133
67	0xbe0aa257	-0.1353849
68	0x3d2a8e18	0.041639417
69	0x3e0db4db	0.13838522
70	0xbcaf7fab	-0.021423182
71	0x3e18dc2c	0.14927739
72	0x3bdc8543	0.006729753
73	0x3e06af50	0.13152814
74	0xbc274550	-0.0102093965
75	0xbd610d08	-0.05494407
76	0xbae1aa13	-0.0017216824
77	0xbd95b131	-0.07309187
78	0x3d633a9a	0.05547581
79	0xbdd8d30e	-0.105871305
80	0x3c990c9f	0.018682776
81	0x3bc0e839	0.005887058
82	0xbd893a27	-0.06700545
83	0xbdb1e4b4	-0.086862
84	0x3cf9d1a6	0.030495476
85	0xbd482f3a	-0.048873164
86	0xbdaff63e	-0.08591889
87	0xbe06facd	-0.1318161
88	0xbeb19b90	-0.34688997
89	0xbcab9f28	-0.020949915
90	0x3c6bf537	0.0144017255
91	0xbe229c08	-0.15879834
92	0xbe8d8690	-0.27641726
93	0xbdb51d1e	-0.08843444
94	0xbdbcd5c9	-0.09220464
95	0xbd16c4c9	-0.036808763
96	0x3d4d238d	0.050082732
97	0xbd55dd70	-0.052213132
98	0x3d1c7f50	0.038207352
99	0x3dc18141	0.09448481
100	0xbdbb22f1	-0.09137524
101	0x3b3939f4	0.0028263303
102	0xbdb619b3	-0.088916205
103	0x3d54f8a7	0.051994946
104	0xbc43cdfd	-0.011950967
105	0x3d22254f	0.03958636
106	0xbe7e6b81	-0.24845697
107	0xbe971570	-0.29508543
108	0xbe8a7343	-0.27041063
109	0x3dc89457	0.097939186
110	0xbda995b6	-0.08280508
111	0xbeaddc38	-0.33957076
112	0xbea537e7	-0.32269213
113	0xbec88ea6	-0.39171332
114	0x3cf9cbcd	0.030492688
115	0x3dc10b0c	0.09425935
116	0xbe0b2449	-0.1358806
117	0xbd8fc02b	-0.07019075
118	0x3dad41a7	0.08459788
119	0xbbef49ec	-0.0073025133
120	0x3b927eb2	0.0044706697
121	0x3e1e1c41	0.15440466
122	0x3dbefb4a	0.09325273
123	0x3e5eb320	0.21748018
124	0xbdc32039	-0.0952763
125	0x3ce62c7c	0.028097384
126	0x3dde479e	0.10853504
127	0x3d6317e5	0.05544271
128	0x3da0cb93	0.07851329
129	0x3d88cd63	0.066797994
130	0x3d83d020	0.06436181
131	0x3caf78cb	0.021419903
132	0x3e15cc12	0.14628628
133	0x3e40f611	0.18843867
134	0x3b257196	0.0025244704
135	0xbd5ae3d3	-0.053439926
136	0x3e13db95	0.14439233
137	0x3dcc172c	0.09965357
138	0x3e39d8ee	0.18149158
139	0x3e15d224	0.14630944
140	0x3d35287e	0.04422807
141	0xbc525ebe	-0.012839971
142	0x3dab88a7	0.08375674
143	0xbcf5f2bd	-0.030022973
144	0x3d016e20	0.031599164
145	0xbc272f22	-0.010204108
146	0xbdd8a2ff	-0.10577964
147	0xbddc92ac	-0.10770163
148	0x3c36f8cb	0.011167715
149	0xbd92d99e	-0.071704134
150	0xbe328f22	-0.17437413
151	0xbde796bd	-0.11308048
152	0xbd7b5d99	-0.06136856
153	0x3bb70717	0.005585562
154	0x3c560de9	0.01306484
155	0xbdfc61d1	-0.123233445
156	0xbde6ffc5	-0.11279253
157	0xbe5c1226	-0.21491298
158	0xbc15a68a	-0.009133944
159	0x3d2e0032	0.042480655
160	0xbdeab9f0	-0.11461246
161	0xbe5341ce	-0.20630571
162	0xbe07ff85	-0.13281067
163	0x3de69fa4	0.11260918
164	0x3dadba5f	0.08482813
165	0x3d37aa80	0.044840336
166	0xbd98e981	-0.07466412
167	0x3c96c3cf	0.018403916
168	0x3e787f36	0.24267277
169	0x3e0194b6	0.12654385
170	0x3dc3f709	0.095686026
171	0xbd71f94c	-0.05907564
172	0x3db78bfa	0.08962245
173	0x3e89edb2	0.2693916
174	0x3e98bd78	0.29832053
175	0xbd8870d7	-0.066621475
176	0xbc279d87	-0.010230429
177	0x3b025e83	0.001989276
178	0x3c72458b	0.014787088
179	0x3d389309	0.0450621
180	0xbe3b322b	-0.18280856
181	0xbe3f065f	-0.18654774
182	0xbdcf80e6	-0.10132007
183	0xbb2bbd9e	-0.002620555
184	0xbda9138a	-0.0825568
185	0xbd94cf08	-0.072660506
186	0xbe01f9d5	-0.1269296
187	0xbea08047	-0.31347868
188	0x3df68a30	0.12038076
189	0x3d4b8b24	0.04969324
190	0xbde09a19	-0.10966892
191	0xbdbd1f7d	-0.092345215
192	0x3d7373ac	0.059436485
193	0x3e89c972	0.26911503
194	0x3e4bc2b6	0.19898495
195	0x3cd06be2	0.025442068
196	0x3c01380d	0.007886899
197	0x3dfc2c46	0.12313132
198	0x3e3f1f01	0.18664171
199	0x3e0fab48	0.14030182
200	0xbc89b70f	-0.016810922
201	0xbcf9e1ae	-0.03050312
202	0x3d020f76	0.031753026
203	0x3da504a3	0.08057525
204	0x3d174697	0.036932554
205	0xbdd55c85	-0.10418037
206	0xbe7cd332	-0.2468994
207	0x3d7a6899	0.06113491
208	0xbdbbb958	-0.09166211
209	0x3d5c0ec8	0.053725034
210	0x3d01fddd	0.031736244
211	0xbe4320de	-0.19055507
212	0xbea48a12	-0.3213659
213	0x3d9aca75	0.07558147
214	0x3d3ca54a	0.04605607
215	0xbd9df738	-0.07713169
216	0xbd4fcb20	-0.050730824
217	0xbe7cd94b	-0.24692266
218	0x3e7c126c	0.24616402
219	0x3d04ac7a	0.03239105
220	0xbc1cd962	-0.0095733125
221	0xbcf51c85	-0.029920826
222	0x3d9abe4e	0.07555829
223	0x3e33a7cc	0.17544478
224	0xbc465c01	-0.012106896
225	0x3d37ac2d	0.044841934
226	0x3e077547	0.13228332
227	0x3d2373c0	0.03990531
228	0xbe11eaf3	-0.14249782
229	0xbd95759f	-0.07297825
230	0x3c178f59	0.009250485
231	0x3e89ba63	0.26900014
232	0x3ef4e696	0.47832173
233	0xbe5bc0cd	-0.21460266
234	0xbd835bd8	-0.06414002
235	0x3dbd236f	0.09235274
236	0x3e3d82d6	0.18506941
237	0x3d0b6840	0.034034967
238	0xbdc4b4a7	-0.09604769
239	0xbd8b40d2	-0.06799473
240	0x3dc9e9e8	0.09859067
241	0xbe052bf5	-0.1300505
242	0xbe95a978	-0.29230857
243	0xbe090df2	-0.13384226
244	0x3cd2450e	0.025667693
245	0x3cdd5643	0.027018672
246	0xbbd24ef8	-0.006418105
247	0xbd977e4c	-0.07397136
248	0x3c856a0a	0.016285915
249	0x3b67991f	0.003533907
250	0x3da502ca	0.080571726
251	0x3e34022f	0.17578958
252	0x3e428cf9	0.1899909
253	0xbc0d88e8	-0.008638598
254	0x3dec0548	0.11524445
255	0xbdd799b0	-0.105273604

conv2.bias f4 [16]
0	0xbc6316a7	-0.013860381
1	0x3e1498bb	0.14511387
2	0x3e8ee3c0	0.27908134
3	0x3e6fb4e5	0.2340885
4	0x3e97082c	0.29498422
5	0xbd3e3595	-0.04643782
6	0xbd34bb30	-0.04412383
7	0xbc090f42	-0.008365454
8	0x3e43adb4	0.19109231
9	0x3e7a2e4d	0.24431725
10	0x3e4e69b3	0.20157509
11	0xbe00f791	-0.12594439
12	0xbd5869ed	-0.052835394
13	0x3d9bb14b	0.07602175
14	0x3e978336	0.29592294
15	0x3db29306	0.08719449

dense1.weight f4 [128, 400]
0	0xbe1302fa	-0.14356604
1	0xbe045f21	-0.12926914
2	0xbca18437	-0.019716365
3	0xbe271a24	-0.16318566
4	0xbdb2a9a1	-0.087237604
5	0xbe7cd90a	-0.24692169
6	0xbdca7cdd	-0.09887097
7	0x3de56e9d	0.112027384
8	0xbc309245	-0.010777061
9	0xbd97c5de	-0.07410787
10	0xbe8dfccf	-0.2773194
11	0xbf00fc36	-0.50384843
12	0xbf150cf0	-0.58222866
13	0xbec86eb5	-0.39146963
14	0x3d8a10e1	0.06741501
15	0xbd82bce1	-0.06383682
16	0xbf15049e	-0.5821017
17	0xbe9f46ac	-0.31108606
18	0xbf28d529	-0.65950257
19	0xbdda848a	-0.10669811
20	0xbdc03de3	-0.09386804
21	0xbd7c7c67	-0.061642077
22	0xbdf52f07	-0.119718604
23	0xbe843701	-0.25823215
24	0xbe0b80fe	-0.13623425
25	0xbd877860	-0.066147566
26	0x3cb0f664	0.021601863
27	0x3da66dad	0.08126388
28	0x3db9cb8f	0.09072029
29	0x3d3a5f3a	0.04550097
30	0xbdaed948	-0.08537537
31	0x3bf6ca1b	0.007531417
32	0x3d1dd3d6	0.0385321
33	0xbd215c74	-0.03939481
34	0x3c53d479	0.012929075
35	0xbd8d8c0c	-0.069114774
36	0xbced2cf6	-0.028952103
37	0x3de3feab	0.111325584
38	0xbdcd04b9	-0.100106664
39	0xbdd19ab8	-0.102345884
40	0xbd5d6c66	-0.054058455
41	0x3dd36355	0.103216805
42	0xbe087a23	-0.13327841
43	0xbd9eeaef	-0.07759654
44	0xbd889068	-0.06668168
45	0xbdac9a4d	-0.08427868
46	0xbd22b87f	-0.03972673
47	0x3e98d9f7	0.29853794
48	0x3d13ba03	0.036066066
49	0xbbeb94b5	-0.007189358
50	0xbda59e7f	-0.08086871
51	0xbc069b45	-0.00821573
52	0xbe3cd2af	-0.18439744
53	0xbe5a7a67	-0.21335755
54	0xbe1f9684	-0.15584761
55	0xbd3a524b	-0.045488637
56	0xbe97745d	-0.29580966
57	0x3db18188	0.08667284
58	0x3c46e72e	0.0121400785
59	0xbddf3f21	-0.10900713
60	0xbd88da07	-0.066822104
61	0xbe0c6b6f	-0.13712858
62	0xbd82227a	-0.06354232
63	0xbde1ad4b	-0.11019381
64	0xbb11e606	-0.0022262349
65	0x3caccb1c	0.021092944
66	0x3d1fee68	0.03904572
67	0x3b7a318b	0.0038176503
68	0xbe068325	-0.13135965
69	0x3d5ca7ae	0.05387085
70	0x3ba0e369	0.004909922
71	0x3cda3f44	0.026641496
72	0xbd879d62	-0.06621815
73	0xbe33929f	-0.175364
74	0x3d34e202	0.04416085
75	0x3c672289	0.014107355
76	0xbc674e36	-0.014117768
77	0xbd7a9c14	-0.061184004
78	0xbd6c6c3d	-0.05772041
79	0xbca1fceb	-0.019773921
80	0x3d866efd	0.06564138
81	0xbc187f98	-0.0093077645
82	0x3e1154ec	0.14192551
83	0xbdb3e12d	-0.08783183
84	0xbd6c1a56	-0.057642303
85	0x3ca4ce2a	0.020117838
86	0xbe2cbb1d	-0.16868253
87	0x3c5ea18a	0.013588319
88	0xbe5038f2	-0.20334223
89	0xbd22114d	-0.03956728
90	0x3dab21b3	0.08356037
91	0x3e5a5d93	0.21324758
92	0xbec8cae6	-0.392173
93	0x3d87437d	0.06604669
94	0xbd07c92d	-0.03315084
95	0x3c86c2d3	0.016450321
96	0xbd6db700	-0.05803585
97	0xbe77db67	-0.24204789
98	0x3c40be07	0.011764056
99	0xbdbfcef5	-0.09365646
100	0x3be240ca	0.006904696
101	0x3b44a4db	0.0030005488
102	0x3dc6ce9b	0.097073756
103	0xbc8a12e8	-0.016854718
104	0x3c390e21	0.0112948725
105	0xbd074535	-0.033024985
106	0xbcb7418a	-0.022370119
107	0x3d438750	0.047736466
108	0x3d0c5bb5	0.034267146
109	0xbb1513a2	-0.0022747298
110	0x3c67dd05	0.014151816
111	0xbde668f8	-0.1125049
112	0x3e11704c	0.14202994
113	0x3cef29fa	0.02919482
114	0x3d932116	0.07184045
115	0xbc85093e	-0.016239759
116	0xbde977f3	-0.113998316
117	0x3d3893ff	0.045063015
118	0x3da77bfe	0.081779465
119	0x3c80334b	0.015649458
120	0x3d03589c	0.032066926
121	0xbe1e0b5e	-0.15434024
122	0xbdcb8ef9	-0.09939379
123	0x3d07b048	0.0331271
124	0x3dde8d3f	0.10866784
125	0x3d908e3a	0.070583776
126	0x3c9e5ae5	0.019330451
127	0x3d777246	0.060411714
128	0x3d440254	0.047853783
129	0x3cc301c9	0.023804562
130	0x3de39c95	0.1111385
131	0x3e8083b0	0.2510047
132	0x3e4fa991	0.20279528
133	0x3d3c7e96	0.04601916
134	0x3dab405b	0.08361884
135	0x3dc3fc69	0.09569628
136	0x3eb556f6	0.35417908
137	0x3dbec066	0.09314041
138	0xbe253678	-0.1613406
139	0x3d8d7247	0.06906562
140	0x3d7ba845	0.06143977
141	0x3e12b1b1	0.14325596
142	0xbe89ad7a	-0.26890165
143	0xbd355ace	-0.04427605
144	0x3daf214a	0.08551271
145	0x3dfc5966	0.12321739
146	0x3df75afd	0.120779015
147	0x3d628b0f	0.055308398
148	0xbdff7e4c	-0.12475261
149	0x3c68c51d	0.014207152
150	0xbd42d8a4	-0.047569886
151	0xbdd7266f	-0.105053775
152	0x3d2431fe	0.04008674
153	0x3d17ca23	0.037058007
154	0x3d8781ef	0.0661658
155	0xbce80807	-0.02832414
156	0x3b0a518f	0.0021105742
157	0xbdba93ac	-0.091101974
158	0x3bd82e9b	0.0065973527
159	0x3c81aeda	0.015830446
160	0x3bf0d580	0.00734967
161	0xbd04c4bb	-0.03241418
162	0xbe203918	-0.1564678
163	0x3d1d025b	0.038332324
164	0xbcc8d978	-0.02451776
165	0xbd4a779f	-0.049430486
166	0xbe055409	-0.13020338
167	0x3e281c37	0.16417013
168	0x3d7f9fb8	0.06240818
169	0xbcc8b1c0	-0.02449882
170	0xbc32113d	-0.010868368
171	0x3c4eb6a5	0.012616788
172	0xbe19adf2	-0.15007761
173	0xbcaaa31b	-0.020829728
174	0x3c9d97eb	0.01923748
175	0x3e033326	0.1281248
176	0xbccce6bc	-0.025012366
177	0x3d0bd6c8	0.03414038
178	0x3c95e850	0.018299252
179	0xbb8796b9	-0.0041378406
180	0xbd8e319f	-0.06943058
181	0x3c5558f9	0.013021701
182	0xbd285a95	-0.04110201
183	0xbd0bcb62	-0.034129508
184	0x3b948645	0.0045326077
185	0xbcb282f0	-0.021790951
186	0x3d4c7204	0.04991342
187	0x3ca977f2	0.020687077
188	0xbcf05451	-0.02933708
189	0x3d4c894a	0.049935617
190	0x3d0c50df	0.034256812
191	0x3df4ba4f	0.11949598
192	0x3aa466c5	0.0012542835
193	0x3b227a95	0.0024792303
194	0x397900aa	0.00023746738
195	0xbd62d245	-0.05537631
196	0x3da0725a	0.07834311
197	0x3deaa93b	0.114580594
198	0x3d75c28d	0.05999999
199	0xb9e4ff38	-0.00043677702
200	0x3db182f2	0.08667554
201	0x3d826d1f	0.063684694
202	0x3db0c9a3	0.08632209
203	0xbd88d8f5	-0.06682006
204	0x3c8aa9b7	0.01692663
205	0x3dc05554	0.09391275
206	0xbcb21b2a	-0.021741468
207	0xbc2b05c9	-0.010438391
208	0xbc972333	-0.018449401
209	0xbb9012f9	-0.004396793
210	0x3dd17bec	0.10228714
211	0x3c0cc1a7	0.008591092
212	0xbbc4856f	-0.005997352
213	0xbdfbb41c	-0.122902125
214	0xbd61aa0e	-0.055093817
215	0x3d6e0f13	0.058119845
216	0x3db70988	0.08937365
217	0xbdb00996	-0.08595578
218	0x3df2dcfc	0.11858556
219	0x3ddddbcb	0.10832938
220	0x3d47d74b	0.048789304
221	0xbce61b40	-0.028089166
222	0xbdbadfb8	-0.09124702
223	0x3dfe0be8	0.12404615
224	0x3c3f66e6	0.011682248
225	0xbe0cd834	-0.1375435
226	0xbdd316b4	-0.10307065
227	0x3c8152b1	0.0157865
228	0xbc67c519	-0.014146113
229	0x3d5c00b4	0.053711608
230	0xbdab5d55	-0.08367411
231	0x3ddb0b70	0.10695541
232	0x3d3569ba	0.04429028
233	0x3e0d15c5	0.13777836
234	0x3d7ab23b	0.06120513
235	0x3ce6103c	0.028083913
236	0x3e1c0ede	0.15240046
237	0xbc9f3e03	-0.01943875
238	0x3dd37bc4	0.10326341
239	0x3d6cdc99	0.057827566
240	0x3db91abc	0.09038302
241	0xbd8b483b	-0.06800886
242	0xbd1f1e12	-0.038847037
243	0x3b2d5245	0.0026446742
244	0x3e1bde02	0.15221408
245	0x3d9634d5	0.07334296
246	0xbb888b1d	-0.004166974
247	0x3cd19440	0.025583386
248	0xbd46e602	-0.048559196
249	0x3c664ac4	0.014055911
250	0x3be1ea37	0.0068943757
251	0x3cdc2e04	0.02687741
252	0x3c81ed08	0.015860096
253	0xb99a502f	-0.0002943291
254	0x3d45ed37	0.04832193
255	0x3c5ede07	0.01360274

dense1.bias f4 [128]
0	0xbdb0b64d	-0.08628521
1	0xbcfc9304	-0.030831821
2	0xbe06fb84	-0.13181883
3	0x3b677008	0.0035314579
4	0x3e0f569d	0.13997884
5	0x3d118e5c	0.035536155
6	0x3d96e26d	0.07367406
7	0xbdd8f319	-0.10593242
8	0xbd4d1c92	-0.050076075
9	0x3d9a0d04	0.07522014
10	0xbd0f4dfa	-0.034986474
11	0x3de4fd90	0.11181176
12	0xbc74ef1b	-0.014949585
13	0x3c68e0bf	0.01421374
14	0xbcf364c1	-0.02971113
15	0xbc7589a6	-0.014986431
16	0x3d202903	0.03910161
17	0x3e15d4c6	0.14631948
18	0x3c4d099f	0.012514501
19	0xbdd83686	-0.105572745
20	0xbd2e4b4e	-0.042552285
21	0xbcf2420f	-0.029572515
22	0x3e4fbad3	0.20286112
23	0xbd8d57a3	-0.06901481
24	0xbcf4e33e	-0.029893514
25	0x3d3c2a51	0.045938794
26	0xbc85e546	-0.016344678
27	0x3dfc89b7	0.123309545
28	0x3c15ae0f	0.009135737
29	0xbe23d597	-0.15999447
30	0x3d7752c5	0.06038167
31	0x3d11999f	0.035546895
32	0x3d912b4b	0.070883356
33	0xbcdf9209	-0.027291315
34	0x3cd283d2	0.025697622
35	0x3d1da7a0	0.038489938
36	0x3c3b050d	0.011414778
37	0x3e2b61d1	0.16736533
38	0xbc6de8c4	-0.014520828
39	0x3e0c22ba	0.13685122
40	0x3e570386	0.20997438
41	0xbcf75de1	-0.030196132
42	0x3dc17e64	0.09447935
43	0xbdf1a519	-0.11799068
44	0x3e986184	0.297619
45	0x3ce73194	0.028221883
46	0x3d8eadd4	0.06966749
47	0x3d0a1248	0.03370884
48	0x3b32bf2a	0.0027274587
49	0x3de54eec	0.11196694
50	0x3c3e9391	0.011631862
51	0xbcf38106	-0.02972461
52	0xbcd4f7b1	-0.025997015
53	0xbc1159f0	-0.00887154
54	0x3dcbb8ff	0.099473946
55	0xbb3e07e1	-0.0028996395
56	0xbdbc074d	-0.0918108
57	0x3df33293	0.11874881
58	0xbd7534fa	-0.059864976
59	0x3bda3e40	0.006660253
60	0x3da77f4f	0.08178579
61	0x3deff31c	0.11716291
62	0xbc90b90b	-0.01766636
63	0x3c37fdf7	0.0112299835
64	0xbbe60ff5	-0.007020945
65	0x3d184ddf	0.03718364
66	0xbd4cb946	-0.049981378
67	0xbe285afb	-0.16440956
68	0xbd7dd1fc	-0.061967835
69	0x3d156d38	0.036481112
70	0xbd4c38ff	-0.049859043
71	0x3e051517	0.12996326
72	0x3e1da714	0.15395766
73	0x3e61cb11	0.2205012
74	0xbc369d15	-0.01114585
75	0xbc2dadc1	-0.010600508
76	0xbd36863d	-0.044561613
77	0xbc403cce	-0.011733247
78	0x3def089f	0.11671566
79	0xbc326497	-0.01088824
80	0x3cfc4b8b	0.03079774
81	0x3d04ac9f	0.032391187
82	0x3cdb1c38	0.026746854
83	0x3d960588	0.07325274
84	0x3c8a3c14	0.01687435
85	0xbc9979b2	-0.018734787
86	0x3ab55a5d	0.0013836134
87	0xba993b48	-0.0011690641
88	0xbe989065	-0.29797664
89	0xbd5f9532	-0.054585643
90	0x3ddd727f	0.10812854
91	0xbbadc9a7	-0.00530358
92	0x3d084fee	0.033279352
93	0x3e2d8419	0.16944923
94	0xbd40706d	-0.046982218
95	0x3e512989	0.20426
96	0x3d8b86c2	0.068128124
97	0x3dba0edd	0.09084866
98	0xbd46c358	-0.048526138
99	0xbd88e139	-0.06683583
100	0x3c72e521	0.014825136
101	0xbd45045c	-0.04809986
102	0xbc25ea48	-0.010126658
103	0xbcd697ea	-0.026195485
104	0xbd5290e1	-0.0514077
105	0x3e0910e6	0.13385352
106	0x3a547585	0.000810467
107	0x3c1695f8	0.009191029
108	0x3cdfa037	0.027298076
109	0x3cc2036b	0.02368327
110	0xbdbba317	-0.09161966
111	0xbc36cfb9	-0.011157923
112	0x3dcd7574	0.10032168
113	0xbd10c656	-0.035345398
114	0x3e07810e	0.13232824
115	0x3cf63a49	0.03005709
116	0x3ded4013	0.11584487
117	0x3e4fa5c5	0.2027808
118	0x3ba9d773	0.0051831543
119	0xbdb58e91	-0.08865083
120	0xbca786e9	-0.020450072
121	0x3cd0d8f5	0.025494078
122	0x3cc5a25a	0.024125267
123	0x3e0a809d	0.13525625
124	0xbc72e550	-0.01482518
125	0x3e8ce590	0.27518892
126	0xbccae000	-0.024765015
127	0xbbdec5c4	-0.006798478

dense2.weight f4 [64, 128]
0	0xbd5b97b9	-0.05361149
1	0xbd3fcd23	-0.046826493
2	0xbddbd6e3	-0.10734346
3	0x3dce98e9	0.10087759
4	0xbbdcd832	-0.0067396397
5	0x3d03d395	0.032184202
6	0x3d9ab391	0.07553781
7	0xbdd97237	-0.10617488
8	0x3d937e10	0.07201779
9	0x3d8cd83c	0.06877181
10	0xbd99bacc	-0.07506332
11	0x3e3daf3f	0.18523882
12	0xbd42203f	-0.047394034
13	0xbd0005d5	-0.03125556
14	0xbd637aee	-0.055537157
15	0xbc9e897e	-0.01935267
16	0x3ce0987e	0.027416464
17	0x3e3047d7	0.17214905
18	0xbd5fd5db	-0.054647308
19	0x3d934d55	0.07192484
20	0xbc9fdb2e	-0.019513693
21	0x3aab47da	0.0013067678
22	0x3e1a11b4	0.15045816
23	0xbcee3a38	-0.029080495
24	0x3d847a2c	0.06468615
25	0x3c653638	0.013989978
26	0xbd7b594f	-0.06136447
27	0x3e08642d	0.13319464
28	0x3d8506a7	0.064954095
29	0xbce32f6f	-0.027732579
30	0xbd17b465	-0.037037272
31	0xbc8e2278	-0.01735042
32	0x3e267592	0.16255787
33	0x3e2315a3	0.15926223
34	0x3cedb294	0.029015817
35	0x3d33474c	0.043769166
36	0xbdc131bb	-0.094333135
37	0xbe7d8be3	-0.24760394
38	0x3e08ba24	0.13352257
39	0x3dd32e72	0.10311593
40	0x3d61f495	0.055164892
41	0x3d9660fc	0.07342717
42	0x3cbba0e0	0.02290386
43	0xbda34d48	-0.079737246
44	0xbd82f5e4	-0.06394556
45	0xbb7eec22	-0.003889807
46	0x3c9f0aae	0.019414272
47	0x3e3e2741	0.18569662
48	0xbd185c24	-0.037197247
49	0x39f932a6	0.00047530717
50	0xbd4b7611	-0.049673144
51	0x3d4793d1	0.048724953
52	0x3bb1e92a	0.0054294067
53	0x3ccf359e	0.025294121
54	0xbe0faa0f	-0.14029716
55	0x3d19f345	0.037585516
56	0xbdb88550	-0.09009802
57	0x3e0188db	0.12649862
58	0xbdaeb846	-0.08531241
59	0x3ce6ef52	0.028190289
60	0x3db5802a	0.08862336
61	0xbd49e30e	-0.0492888
62	0x3d1b7951	0.037957493
63	0xbc7b69a3	-0.01534501
64	0x3cfa0562	0.030520145
65	0xbd7cd2c5	-0.061724443
66	0x3d8ca7db	0.068679534
67	0xbe233348	-0.15937531
68	0x3d124b53	0.035716366
69	0x3ca3cae5	0.019994209
70	0x3d767369	0.060168657
71	0x3dc3883f	0.09547471
72	0x3e044b64	0.12919384
73	0x3dbfc958	0.09364575
74	0x3e0ab986	0.13547334
75	0xbdf30fd5	-0.11868254
76	0x3e16c9df	0.14725445
77	0xbdc6bb5d	-0.097037055
78	0x3e4a4dc0	0.19756222
79	0xbd5713c7	-0.052509096
80	0xbe1de701	-0.15420152
81	0xbd65322e	-0.05595606
82	0xbdaba822	-0.08381678
83	0x38ce1edf	9.828596e-05
84	0xbc3e46c1	-0.011613549
85	0x3bc7e883	0.0061007156
86	0x3ab482b1	0.0013771859
87	0xbdbde844	-0.09272817
88	0xbe3fe326	-0.18738994
89	0xbe177b67	-0.14793168
90	0xbd9166a1	-0.07099653
91	0xbcf28407	-0.029603971
92	0xbda88416	-0.082283184
93	0x3d84e992	0.064898625
94	0xbc9c3949	-0.019070284
95	0x3baecd56	0.0053345365
96	0x3e06a79f	0.1314988
97	0xbe4e11f9	-0.20124044
98	0xbd338b1b	-0.043833833
99	0xbdf65a72	-0.1202897
100	0x3d083674	0.033255056
101	0x3e12f996	0.14353022
102	0xbd596d89	-0.053082976
103	0xbd9a95af	-0.07548081
104	0xbd32fc54	-0.04369767
105	0xbd2a96bc	-0.041647658
106	0xbd505c2a	-0.050869144
107	0x3d0ce6c4	0.034399763
108	0x3c5b0b62	0.013369413
109	0xbc052bf9	-0.00812816
110	0xbce08446	-0.027406823
111	0x3cd2a4d0	0.025713354
112	0x3c704aa9	0.014666238
113	0xb802f363	-3.1221087e-05
114	0x3d951953	0.07280221
115	0xbbddaa5e	-0.006764694
116	0x3e015586	0.12630281
117	0x3dc5cb9b	0.09657975
118	0xbd83a656	-0.064282104
119	0x3d191382	0.03737212
120	0x3d3c8fac	0.046035454
121	0xbacb909f	-0.0015530771
122	0xbdca278c	-0.09870824
123	0x3deb19e9	0.11479551
124	0xbd9dec6b	-0.07711109
125	0x3c327bd3	0.01089378
126	0xbda2aa1f	-0.07942604
127	0xbcf96e0b	-0.03044798
128	0xbdce81f1	-0.10083378
129	0xbba509d9	-0.0050365743
130	0xbe3b6438	-0.18299949
131	0xbd6c7f3c	-0.057738528
132	0x3d5b9d1a	0.05361662
133	0x3d310831	0.043220703
134	0x3da59630	0.080852866
135	0xbc8af783	-0.016963726
136	0xbb858552	-0.004074731
137	0xbd46e246	-0.048555635
138	0xbd10742e	-0.035267048
139	0x3d5209f5	0.051279027
140	0xbb9be3bc	-0.0047573727
141	0x3d61be3e	0.05511307
142	0xbdb5c40e	-0.08875285
143	0xbd7adafe	-0.061244003
144	0xbd864eab	-0.065579735
145	0xbe5e7fc2	-0.21728423
146	0x3dd93421	0.10605646
147	0x3d3526cb	0.04422645
148	0x3c802844	0.0156442
149	0xbd98f4a0	-0.074685335
150	0x3dcdab6e	0.10042463
151	0xbdd83c87	-0.1055842
152	0xbc1d47a0	-0.009599596
153	0xbdb9dc7c	-0.09075257
154	0xbd87d875	-0.06633083
155	0x3c5fcbf0	0.013659462
156	0xbcde1ac6	-0.027112376
157	0xbd492132	-0.049103923
158	0x3d46d6a4	0.04854454
159	0xbccfedf6	-0.025382023
160	0x3cfe80a6	0.031067204
161	0x3d78d1e4	0.060747042
162	0x3a8b1f44	0.0010614176
163	0xbc772786	-0.015085107
164	0xbd2a9f5c	-0.041655883
165	0x3e092275	0.1339205
166	0x3ae7ffaf	0.0017700101
167	0xbe1323f4	-0.14369184
168	0xbde5fd25	-0.11229924
169	0xbd7cb525	-0.06169619
170	0x3dbbf4f0	0.091775775
171	0xbe84aaa2	-0.25911433
172	0x3e12f3f1	0.14350869
173	0xbc54d3d2	-0.012989955
174	0x3dd4a11b	0.10382291
175	0xbcefc12e	-0.02926692
176	0xbc44d00f	-0.012012496
177	0x3dc59f94	0.09649578
178	0xbcf8c572	-0.030367587
179	0xbe40ecc4	-0.18840319
180	0x3d52d831	0.051475707
181	0xbb868dbd	-0.004106252
182	0xbd1b3bcf	-0.037898835
183	0xbd8cad75	-0.06869022
184	0xbdf4e52f	-0.11957776
185	0x3d7ad64c	0.061239526
186	0xbd2e6d61	-0.04258478
187	0xbd5cbc3d	-0.053890456
188	0x3d5d79c7	0.054071214
189	0x3d3761ae	0.04477089
190	0x3db28cc6	0.08718257
191	0xbc631f0e	-0.0138623845
192	0xbd7fb4bc	-0.06242822
193	0x3cb49ce2	0.022047464
194	0x3d951c58	0.07280797
195	0x3e0ed8f5	0.1394995
196	0xbd4b242c	-0.049595043
197	0x3d18c656	0.037298523
198	0xbe53d896	-0.2068809
199	0x3ddfa1ab	0.109195076
200	0xbe2261fa	-0.15857688
201	0xbdda0db1	-0.10647143
202	0xbe402426	-0.1876379
203	0x3d3e30f9	0.046433423
204	0x3d8a5729	0.06754906
205	0x3dd3bd30	0.10338819
206	0xbd73da70	-0.05953449
207	0xbd85b11c	-0.065279216
208	0x3dcde6b6	0.1005377
209	0x3dd7cc62	0.1053703
210	0x3d099acc	0.03359489
211	0xbd1ab432	-0.037769504
212	0xbd8f59cc	-0.06999549
213	0x3d9d5d22	0.07683779
214	0x3d08ed89	0.033429656
215	0x3e1bf83d	0.15231414
216	0x3aa16ac4	0.0012315144
217	0xbdfe3a66	-0.12413482
218	0x3bb2a1c1	0.0054514115
219	0x3d7db160	0.061936736
220	0x3d726a6b	0.05918352
221	0x3d9afb14	0.075674206
222	0xbd9a195c	-0.07524368
223	0xbdbf2647	-0.09333473
224	0x3e150bce	0.14555284
225	0xbcb13e25	-0.021636078
226	0x3e17a1e8	0.14807856
227	0xbd5ec4fb	-0.054387074
228	0xbce9e96e	-0.02855369
229	0xbdfd60f7	-0.1237201
230	0x3bfd2e5e	0.0077264747
231	0xbd3fda8a	-0.046839274
232	0x3de8cd08	0.113672316
233	0x3dfd0f74	0.12356463
234	0x3bc6e2f5	0.006069536
235	0xbc9d4b01	-0.019200804
236	0xbd856949	-0.06514222
237	0xbdc4b3ce	-0.096046075
238	0xbd8ea31e	-0.06964706
239	0xbd94450a	-0.07239731
240	0xbd84a823	-0.06477382
241	0x3d7676d5	0.06017192
242	0x3c57ec8b	0.013178955
243	0xbdf42f65	-0.11923102
244	0xbc691744	-0.014226738
245	0x3d818382	0.06323911
246	0x3cf2ba8a	0.029629964
247	0x3d65de99	0.05612049
248	0x3db1d94c	0.08684024
249	0xbd918c74	-0.071068674
250	0xbdaaf3c5	-0.083472766
251	0xbd2e5e9b	-0.04257069
252	0xbd1ab0a7	-0.037766125
253	0x3b7aa1af	0.0038243344
254	0x3e12a32b	0.14320056
255	0xbce33b22	-0.027738158

dense2.bias f4 [64]
0	0x3dd47700	0.1037426
1	0x3d7ccd90	0.061719477
2	0xbd77c1bc	-0.060487494
3	0x3de908b1	0.11378611
4	0xbd89efe6	-0.0673521
5	0xbd8761bd	-0.06610439
6	0x3d3f3320	0.046679616
7	0xbd4e006f	-0.050293382
8	0xbd3212c8	-0.043474942
9	0x3d8c1bdd	0.06841252
10	0xbd5434c2	-0.051808126
11	0x3e1c850d	0.1528513
12	0x3c9a8be1	0.018865528
13	0x3dc157da	0.094405845
14	0xbdc6b250	-0.09701979
15	0x3d9d3eb9	0.07677979
16	0xbd1681b0	-0.036744773
17	0x3df6c3be	0.120490536
18	0x3e0e06e6	0.13869819
19	0xbd61565d	-0.055014003
20	0xbcf8144f	-0.030283121
21	0xbd37da12	-0.044885702
22	0xbd7b7889	-0.06139425
23	0x3c0f0ec9	0.008731552
24	0x3d325063	0.043533694
25	0x3b21b97e	0.0024677212
26	0xbd0b25a2	-0.033971436
27	0x3d9b7e39	0.075924344
28	0xbcebb18a	-0.02877118
29	0x3e8576b5	0.2606713
30	0xbd50a6e2	-0.0509404
31	0xbcdcb91b	-0.026943734
32	0x3de6c667	0.11268311
33	0xbdd73486	-0.10508065
34	0x3e0e6dab	0.13909023
35	0xbd33289a	-0.043739893
36	0xbd6200dc	-0.0551766
37	0xbd5fe496	-0.054661356
38	0x3db0bc69	0.086296864
39	0x3df1c126	0.11804418
40	0x3d42d849	0.047569547
41	0x3d952eac	0.072842926
42	0xbe774647	-0.24147902
43	0x3cb7db8a	0.022443552
44	0xbc83ce03	-0.016089445
45	0xbde5f8b3	-0.11229076
46	0x3d6dd8ae	0.05806797
47	0xbd83421a	-0.06409092
48	0x3e5bfd56	0.21483359
49	0x3dba9f39	0.091124006
50	0xbccc6577	-0.024950726
51	0x3d4869ca	0.048929013
52	0xbdf95fd8	-0.12176484
53	0x3e247ce6	0.1606327
54	0x3d99239d	0.07477496
55	0x3e0607d2	0.1308892
56	0x3d8b0c3e	0.067894444
57	0x3c9eb6b2	0.019374225
58	0x3d9fc01a	0.07800312
59	0xbc94f661	-0.018183889
60	0x3d89d89a	0.067307666
61	0xbd636a57	-0.055521335
62	0xbc9d0705	-0.019168386
63	0x3ca98ae1	0.020696105

final.weight f4 [43, 64]
0	0x3e00ba48	0.1257106
1	0xbe05f959	-0.130834
2	0xbdf9b034	-0.12191811
3	0x3e493eff	0.19652937
4	0xbdaba7b8	-0.08381599
5	0x3e8337b4	0.25628436
6	0x3de09c42	0.10967304
7	0xbdf4aeb0	-0.119473815
8	0xbd43e949	-0.0478299
9	0xbd93f0aa	-0.072236374
10	0x3d9de562	0.07709767
11	0x3d27278b	0.040809195
12	0xbd56cbd3	-0.052440476
13	0x3e0d27c8	0.13784707
14	0x3cacda06	0.021100055
15	0xbdf243a5	-0.118293084
16	0xbe88ace2	-0.266944
17	0xbdffee55	-0.1249663
18	0x3d530fbb	0.051528674
19	0xbdaa824d	-0.08325634
20	0xbd7caa20	-0.06168568
21	0xbd0eda88	-0.034876376
22	0x39c02f69	0.00036656417
23	0xbdcdd4e0	-0.10050368
24	0x3e1a147f	0.15046881
25	0x3e0064e8	0.12538493
26	0xbe51b2ef	-0.20478414
27	0xbcf8f113	-0.03038839
28	0xbcf42fbb	-0.029807916
29	0xbd86911d	-0.06570647
30	0xbdef409d	-0.11682246
31	0xbd72136d	-0.059100557
32	0x3c8f8f39	0.017524349
33	0xbafaf144	-0.0019145389
34	0x3cc17aa1	0.023618044
35	0xbe29fba2	-0.16599897
36	0xbd84b8d1	-0.064805634
37	0xbe15f20e	-0.14643118
38	0xbdcb978c	-0.09941015
39	0xbe6821a7	-0.22669087
40	0x3d2015f9	0.039083455
41	0x3e15976c	0.14608544
42	0xbec1b62c	-0.378343
43	0x3e039520	0.12849855
44	0x3dd87ca8	0.10570651
45	0xbda2bea4	-0.07946518
46	0xbd47d73a	-0.04878924
47	0x3d5cbf1c	0.053893194
48	0x3cf00a2c	0.029301725
49	0x3d8627fa	0.06550594
50	0x3d0a15fe	0.03371238
51	0xbe1f5474	-0.1555956
52	0xbd9b9108	-0.07596022
53	0xbe20ba66	-0.15696105
54	0xbd1857ad	-0.03719299
55	0x3e7c0d57	0.24614464
56	0xbee5d1b2	-0.44886547
57	0xbceffba9	-0.029294806
58	0xbdd09c46	-0.10186057
59	0xbe02c254	-0.12769443
60	0xbe84cf9e	-0.2593965
61	0xbdb9f56c	-0.09080014
62	0xbd55cff5	-0.052200276
63	0xbe094d92	-0.13408497
64	0xbbe9aac0	-0.0071309507
65	0xbb4c73b5	-0.0031196896
66	0x3cb3407a	0.02188133
67	0x3dc68ad6	0.096944496
68	0x3df66240	0.120304585
69	0x3d5820eb	0.052765768
70	0x3d7f2428	0.06229034
71	0xbd9e82e6	-0.07739811
72	0xbdfe7ab7	-0.1242575
73	0x3d11b6a0	0.035574555
74	0xbce1b113	-0.027550256
75	0xbdf0a6e0	-0.11750579
76	0x3d672fc2	0.05644203
77	0xbdd9c954	-0.106341034
78	0xbdabb3dd	-0.083839156
79	0xbca05eec	-0.019576512
80	0xbdf19b97	-0.117972545
81	0x3d77f278	0.06053397
82	0x3d978a42	0.073994175
83	0xbdfc54e0	-0.12320876
84	0xbe673049	-0.22577013
85	0x3bde3e39	0.00678232
86	0xbdfcb3e3	-0.12338998
87	0x3dc125c7	0.094310336
88	0xbddfb0dc	-0.10922405
89	0x3d4bc494	0.04974802
90	0xbdef96ad	-0.11698661
91	0x3d2969fc	0.04136084
92	0xbc925d10	-0.017866641
93	0x3e0f081c	0.13967937
94	0xbd2505ba	-0.040288664
95	0xbd90e44f	-0.070747964
96	0x3b806755	0.003918568
97	0x3d19ebdf	0.03757846
98	0xbcc2d3fa	-0.023782719
99	0xbd940223	-0.0722697
100	0xbdb6c71f	-0.08924698
101	0x3e192a05	0.14957435
102	0x3dbbb854	0.09166017
103	0xbdb2f897	-0.08738821
104	0xb9e0ad0f	-0.00042853548
105	0xbd42f871	-0.047600213
106	0xbe04683c	-0.12930387
107	0x3db796fe	0.08964346
108	0x3d627f67	0.05529728
109	0xbd8232cd	-0.06357346
110	0x3d91d3e2	0.071204916
111	0xbd5fe318	-0.054659933
112	0x3e04e90c	0.12979525
113	0x3d9ac1f8	0.07556528
114	0xbcce445e	-0.025179084
115	0xbe3652b9	-0.17804994
116	0x3d8b766b	0.06809696
117	0x3cfe7c2e	0.031065073
118	0x3d8dcf06	0.06924252
119	0x3e1022a1	0.1407571
120	0xbe39bb1a	-0.1813778
121	0xbe0f368f	-0.13985656
122	0x3dfd977c	0.12382409
123	0xbe057773	-0.13033848
124	0xbdc10202	-0.09424211
125	0x3c80b78e	0.015712526
126	0x3cc724dc	0.024309568
127	0x3a34c4e1	0.00068957923
128	0x3dc5388a	0.096299246
129	0x3d62d014	0.05537422
130	0xbd4bbc2d	-0.049740005
131	0xbdc1d726	-0.094648644
132	0x3c3d3abf	0.011549651
133	0x3dd7374b	0.10508593
134	0xbd194d31	-0.03742713
135	0x3d25c46d	0.04047053
136	0xbd9168e4	-0.071000844
137	0xbd197dfe	-0.03747367
138	0x3b5ee560	0.003401123
139	0x3d7d8b84	0.06190063
140	0x3d7ca1fd	0.06167792
141	0xbe268539	-0.16261758
142	0x3c9ce8c9	0.01915397
143	0x3d6cf596	0.057851397
144	0xbdc69eb8	-0.09698242
145	0x3da6a81f	0.08137535
146	0xbe1d5944	-0.15366083
147	0xbd7d4a3f	-0.061838385
148	0xbdf12000	-0.11773682
149	0x3dd775e1	0.105205305
150	0x3cfa1162	0.030525867
151	0x3d57296a	0.05252973
152	0x3ce1815d	0.027527506
153	0xbdbe497c	-0.0929136
154	0x3d8fbd3a	0.07018514
155	0x3d25e1bf	0.04049849
156	0x3ce6b612	0.02816299
157	0xbd3642d3	-0.044497322
158	0x3d752162	0.05984629
159	0xbe328d71	-0.17436768
160	0x3e289658	0.16463602
161	0x3d1deef1	0.03855795
162	0xbe523a9d	-0.20530172
163	0xbd51c466	-0.05121269
164	0xbce5f019	-0.028068589
165	0xbe2dea46	-0.169839
166	0x3d6271a4	0.055284157
167	0x3daa8063	0.08325269
168	0xbbd18fa0	-0.0063952953
169	0xbd9178af	-0.07103097
170	0xbe12ec5e	-0.1434798
171	0xbd46a719	-0.0484992
172	0x3ca0dc5e	0.01963633
173	0xbcf96fc2	-0.030448798
174	0x3bd42aca	0.0064748274
175	0xbcbbb30c	-0.022912525
176	0x3da152a0	0.078770876
177	0xbe26f994	-0.16306144
178	0xbd4171b6	-0.047227584
179	0xbdc371c6	-0.09543185
180	0xbd69756c	-0.056996748
181	0x3d39a3eb	0.04532234
182	0x3dd2dd40	0.10296106
183	0x3e0a2d8f	0.13493942
184	0x3d0121a0	0.031526208
185	0xbe248e22	-0.16069844
186	0x3d80b8ab	0.062852226
187	0x3d50999c	0.050927743
188	0xbde6f9d5	-0.112781204
189	0xbd45c4cf	-0.048283394
190	0xbd98fda8	-0.07470256
191	0xbd5bfc1c	-0.053707227
192	0x3da095ec	0.07841095
193	0xbdbb8889	-0.091569014
194	0xbdf021d6	-0.11725204
195	0xbe6f2049	-0.2335216
196	0x3d42f982	0.04760123
197	0x3e173460	0.14766073
198	0xbe271f0a	-0.16320434
199	0xbe2f7396	-0.17133936
200	0x3bda05b4	0.006653512
201	0x3cbe0bfc	0.023199074
202	0xbde8f75c	-0.11375305
203	0xbdbc7289	-0.09201533
204	0x3e10fd8e	0.14159223
205	0x3d354ea9	0.04426447
206	0x3ae9760e	0.0017811672
207	0xbdb9323f	-0.09042787
208	0xbdac9eb4	-0.08428708
209	0xbdaa3997	-0.08311766
210	0xbe548c61	-0.20756675
211	0xbc6853d1	-0.01418014
212	0x3c9604b6	0.018312793
213	0xbd009217	-0.031389322
214	0xbdcc2340	-0.09967661
215	0x3bb3f879	0.0054922667
216	0xbc515dec	-0.01277874
217	0x3db42fc2	0.087981716
218	0x3ca21218	0.019784018
219	0x3e3ec97d	0.18631549
220	0xbda1d963	-0.07902791
221	0x3dcdcba4	0.10048607
222	0x3df7237d	0.12067316
223	0xbe03cbb0	-0.1287067
224	0x3d71fa98	0.059076875
225	0x3cd80b21	0.026372494
226	0xbda7ac4f	-0.08187162
227	0xbcce2bd4	-0.025167383
228	0xbc868993	-0.016423022
229	0xbe555c06	-0.20835885
230	0xbd772b20	-0.06034386
231	0x3cda4d5b	0.026648214
232	0x3d6c3122	0.057664044
233	0x3d9fc07c	0.07800385
234	0x3d01466b	0.031561296
235	0xbe52c9ef	-0.20584844
236	0xbdec0c2b	-0.11525758
237	0xbe1524b4	-0.14564782
238	0x3dc9ee72	0.09859933
239	0x3d85addb	0.06527301
240	0xbd1362ff	-0.035983082
241	0x3d8d3890	0.06895554
242	0xbca0b6fc	-0.019618504
243	0xbe05cd02	-0.13066486
244	0x3df9ef84	0.12203887
245	0x3d3c640b	0.045993846
246	0x3d3a249a	0.045445062
247	0x3d0c4c30	0.034252346
248	0x3c5627d4	0.013071019
249	0x3d459cac	0.048245117
250	0x3e1a8541	0.15089895
251	0x3d048c4a	0.032360353
252	0x3d379209	0.044817004
253	0xbcc3c1f9	-0.023896204
254	0xbcf2db6c	-0.029645644
255	0xbdbf5416	-0.0934221

final.bias f4 [43]
0	0xbe452a73	-0.19254474
1	0x3e2b5777	0.16732584
2	0xbdae06b9	-0.08497376
3	0xbe1d1e83	-0.1534367
4	0x3d84ea55	0.06490008
5	0x3e5393a4	0.20661789
6	0x3df18e94	0.11794773
7	0x3e0b7128	0.13617384
8	0x3d1a069e	0.037603967
9	0x3d9701cc	0.073733896
10	0xbe4a8cdf	-0.197803
11	0xbd3d6f2d	-0.046248604
12	0x3db86a5f	0.09004664
13	0x3ddd8824	0.108169824
14	0xbd128e78	-0.0357804
15	0x3d5d36e2	0.05400742
16	0xbde21d76	-0.110407755
17	0x3de54857	0.11195438
18	0x3ce6b297	0.02816133
19	0xbe8810bb	-0.26575264
20	0x3da58ac8	0.08083111
21	0xbda4ac64	-0.080406934
22	0xbd75ce7f	-0.060011383
23	0xbc37ee04	-0.011226181
24	0x3d91bd32	0.07116164
25	0xbcc82f3e	-0.02443659
26	0xbd4b7d32	-0.049679942
27	0x3c4e645d	0.012597171
28	0x3bb6bcec	0.0055767205
29	0xbe097e92	-0.13427189
30	0x3d7d6dc7	0.06187227
31	0x3e89c80b	0.26910433
32	0xbcc30cb0	-0.02380976
33	0x3d28c95d	0.04120766
34	0x3ce1249b	0.027483275
35	0xbe051e35	-0.12999804
36	0xbd13cabb	-0.03608201
37	0xbda5c7fb	-0.08094784
38	0x3dbe4932	0.09291305
39	0x3d55d1f3	0.052202176
40	0x3d8c79b3	0.0685915
41	0xbe2c89c1	-0.16849424
42	0xbcf7044b	-0.030153414
