Robustness/models/base_epsilon_10.pth (torch, 259240 bytes, 10 tensors)

conv1.weight f4 [6, 1, 5, 5]
000000 59 70 93 3c 11 0e 3b bd c7 be 90 bd 6a e0 b5 bd
       0.017997907 -0.04566771 -0.07067638 -0.08880694
000010 7c 56 e2 bc a1 7d 8a 3c 60 7a 19 be f3 12 22 be
       -0.02762913 0.016905608 -0.14988089 -0.15827541
000020 3c ef 43 be 0e 28 e4 bd e4 bf 53 bd fc 9c 1b be
       -0.1913423 -0.11140452 -0.051696673 -0.15196604
000030 0c 6e d7 bd ee 19 b3 3d f7 6c 0f 3d ff cd 96 bd
       -0.10519037 0.0874518 0.035016026 -0.073635094
000040 32 11 f9 bd 27 5c 44 be 6f f3 0c 3e 1c 25 dd bc
       -0.12161483 -0.19175778 0.13764738 -0.026995234
000050 d8 80 88 3d f3 12 fa bd 71 8c 83 bc a2 84 8b 3c
       0.066652 -0.122106455 -0.016058179 0.017031018
000060 33 83 15 bd e7 e2 77 bd 40 9e c1 bc 21 dc ba 3d
       -0.036502074 -0.060519125 -0.02363503 0.091240175
000070 1b f4 4b 3e c6 20 99 3d 64 6c 93 3c c8 3d b3 bd
       0.19917338 0.07476954 0.01799602 -0.08752018
000080 88 fb 2c 3e 5a c9 39 3f 1b 47 6c 3e 6c ca 11 bc
       0.16892827 0.72572863 0.23074 -0.008898359
000090 fc 66 18 be 58 ca 71 be 2a 0d b3 3e b1 b4 1d 3e
       -0.14883035 -0.23612344 0.3497098 0.1540096
0000a0 72 3d 59 bc 1c de 81 bd 19 0f 03 be 3d 9d ff bd
       -0.013259279 -0.06341192 -0.12798728 -0.12481163
0000b0 ad 74 8e bd 6f a3 32 bb 43 31 d8 bc 6d e0 06 bd
       -0.06955848 -0.0027258059 -0.026390677 -0.032928873
0000c0 43 74 ea bd bd d3 a5 bd 31 a6 15 bd 5c 4e ca bc
       -0.114479564 -0.080970265 -0.036535446 -0.024695568
0000d0 ba f2 b4 bb 29 1d 07 bd a0 d6 2f bd 66 2b 51 bd
       -0.0055220993 -0.032986794 -0.04292929 -0.05106678
0000e0 3b 3b d7 bd 1f fc c8 bd dc bf 08 bd 78 d9 c0 bc
       -0.10509344 -0.09813713 -0.033386096 -0.023541197
0000f0 f1 bc 11 bd 32 43 a1 bd 52 68 7f 3d fc 17 79 3d
       -0.03558058 -0.078741446 0.062355347 0.06081389
000100 0e 7f 86 bd 50 2e f3 bd 85 52 a6 bd eb a9 10 3f
       -0.065672025 -0.11874068 -0.08121208 0.56509274
000110 bc 53 80 3e 08 ae 1a be 00 5d 26 bd 40 a3 bd 3d
       0.25063884 -0.1510545 -0.040616035 0.09259653
000120 19 2b 6e 3f 39 38 6d 3e 9b fd 06 be 17 f5 07 bd
       0.9303451 0.23165978 -0.1318268 -0.03319272
000130 6d 2d 40 be 9f a3 d6 bd f2 32 42 bd 9d 51 b4 ba
       -0.18767329 -0.10480427 -0.047411866 -0.0013757233
000140 dd af c6 bd f9 20 b5 be 7d 9f d4 be 21 31 ab be
       -0.09701512 -0.3537672 -0.4152793 -0.3343592
000150 c4 90 72 bd d8 c9 0f bc 73 0e 02 3d d7 c0 65 3e
       -0.05922009 -0.008776151 0.03175206 0.22436844
000160 9d 16 a3 3d a7 79 27 ba c0 6a 46 bc f5 81 e0 3e
       0.079632975 -0.0006388672 -0.012110412 0.4384915
000170 f2 7d 16 3f 96 9b 34 3e b3 a1 b4 3d bf 9f 1b bd
       0.5878593 0.17637476 0.08819904 -0.037994143
000180 03 c1 26 3e 6d 39 cc bc 69 a2 3c bd 01 52 cd 3b
       0.16284566 -0.024929726 -0.046053324 0.006265879
000190 10 f4 08 3d a9 47 c4 3d 14 98 c2 3c 05 d0 42 bd
       0.03343588 0.095839806 0.023754157 -0.047561664
0001a0 45 08 9a 3d 3c 10 18 bd 4d 2b 96 3e e8 fa 0b bd
       0.075211085 -0.037124857 0.2932991 -0.03417483
0001b0 16 b0 c3 be ae 4a 68 bd 24 0d 59 3b fc c5 91 3e
       -0.3822028 -0.056711845 0.0033119405 0.28471363
0001c0 a4 9c a9 3d 90 80 1e bf d5 1a aa 3d 0a d4 ad 3d
       0.0828183 -0.6191492 0.08305899 0.08487709
0001d0 3f d7 d6 3e db e5 e1 bc cc 9d d9 be 07 ce 8e 3d
       0.41961095 -0.027575424 -0.42503202 0.0697289
0001e0 f4 57 c2 bc e4 44 38 3e 81 9c 1e 3d 6e 30 38 be
       -0.02372358 0.1799503 0.038723473 -0.17987224
0001f0 4d e4 fe 3a 03 64 b9 3c 0c 15 ea 3d 3f ff 69 3b
       0.0019446701 0.022630697 0.114297956 0.0035705117
000200 ca 51 2f bd 82 cf 1f 3d 09 96 7b 3c ac bb 93 3d
       -0.04280261 0.039016254 0.015355595 0.0721353
000210 ac 09 5a 3d ae 94 f0 bb b1 76 5a 3d 2a 06 86 bd
       0.05323188 -0.0073419427 0.05333585 -0.065441445
000220 ca 88 92 3e 7e b3 b2 3e 91 b0 07 3e e4 e2 5b 3d
       0.28619987 0.34902567 0.13250948 0.053683177
000230 c5 ec bc 3d fb 11 31 3f 37 fb 0d 3f 04 2d 15 3e
       0.09224848 0.6916806 0.5546145 0.14567953
000240 ec d3 d2 bc e9 c5 07 bb e2 46 b7 3e 08 cb a9 3e
       -0.025735818 -0.002071733 0.35796267 0.33162713
000250 e7 c4 56 be f8 cd 89 bd
       -0.2097355 -0.067287385

conv1.bias f4 [6]
000000 18 46 ef bd b0 e8 52 3f 59 38 6a 3f a6 bf de 3c
       -0.11683291 0.823863 0.9149223 0.027190994
000010 e0 85 93 bc 93 f5 08 3e
       -0.018008173 0.13374929

conv2.weight f4 [16, 6, 5, 5]
000000 00 ab f3 3c 46 0c d1 3c 5d bb 0a be 92 59 6c 3c
       0.029744625 0.025518548 -0.13548036 0.014425652
000010 93 dd 2a 3d 32 47 1d 3d 37 aa 4a bd 50 60 d3 bd
       0.041715216 0.038397975 -0.049478736 -0.103211045
000020 b8 28 6b 3d 93 28 55 bd ad d5 07 3d 3c dc d1 bc
       0.05741188 -0.052040648 0.03316276 -0.025617711
000030 2c 1d 02 be f1 77 b8 bd 52 96 12 3d f1 49 6d 3c
       -0.1270644 -0.09007252 0.035787888 0.014482961
000040 57 f0 96 be e1 c9 20 bf d5 5d 0c 3d 3a 6b 2e 3e
       -0.2948024 -0.6280804 0.034269173 0.17033091
000050 ed bd d0 3c 28 ad 13 be d1 c1 10 be 28 a6 b8 3e
       0.025481189 -0.14421523 -0.14136435 0.36064267
000060 c6 bb 87 3e 13 78 a4 bb 43 a3 90 bd 75 40 53 3b
       0.26510447 -0.005019197 -0.0706239 0.0032234464
000070 ff 5a 44 3d 0a 4b 0a bd 9f 45 30 bd 59 1f d6 bd
       0.047938343 -0.03376297 -0.043035146 -0.10455198
000080 67 78 87 bd ff 44 14 be 98 78 04 3d ef d9 02 bc
       -0.06614762 -0.14479445 0.03234157 -0.00798653
000090 4d 8d 12 be e9 a8 1e 3d 8d 25 29 be 26 fb 3c 3d
       -0.14311714 0.038735304 -0.1651823 0.04613795
0000a0 7d b0 ca 3c f8 f0 a7 3e bc f5 a5 3e c9 d1 3c 3d
       0.02474236 0.32801032 0.32414043 0.046098504
0000b0 0a 6b 26 3b 65 d7 26 bb 16 6e b5 3d 97 f1 bf 3d
       0.002539339 -0.0025457975 0.08858888 0.093722515
0000c0 69 e0 83 be 27 87 54 bd d0 4d 1f bd 59 3e 81 bd
       -0.2575715 -0.051886704 -0.038892567 -0.0631072
0000d0 08 a6 6e 3d 0d 97 e1 bd 28 ae 8a bc 0f d0 56 3c
       0.05826381 -0.11015139 -0.016928747 0.0131111285
0000e0 0b d6 38 3d b5 c7 6f 3e 32 6d 98 bd be 5e 89 3e
       0.045126002 0.23416026 -0.07442702 0.26830095
0000f0 28 f3 3d 3c 33 57 6f 3e fc b4 87 3e a8 63 0f 3e
       0.0115936175 0.23373108 0.26505268 0.1400286
000100 35 58 d2 39 0d 82 89 bc 31 4b f2 3d 3f ba d9 3d
       0.0004012004 -0.016785646 0.11830748 0.10631227
000110 f4 dd f0 be b6 77 a8 be 5a f0 ab 3b 00 bb 25 3d
       -0.47044337 -0.32903832 0.005247158 0.04046154
000120 a9 74 19 be fb 16 5f be a0 e8 82 3c 6c ed ae 3c
       -0.14985909 -0.2178611 0.015980065 0.021353446
000130 cd 9d 95 3c a4 24 10 bc c2 0b 23 3e 04 23 9e bc
       0.018263722 -0.008797798 0.15922454 -0.019303806
000140 d8 4c b2 3c b7 73 90 bd c7 a6 52 3e d1 05 58 bd
       0.021765158 -0.07053321 0.20571433 -0.052739922
000150 c0 1a 45 bd 49 c9 15 bc de 1a 28 bd b9 18 6a 3e
       -0.048121214 -0.009142228 -0.041041248 0.22860993
000160 80 01 dd 3d 74 3f 65 be ae db 25 bd ea e8 80 3d
       0.10791302 -0.22387487 -0.040492706 0.06294425
000170 10 f3 7c 3f 2d c2 64 3f 04 7e 03 bf 1e d0 26 3c
       0.98808384 0.8935879 -0.5136416 0.010181455
000180 ee 41 ae 3d 92 30 9a 3e b3 5c bf 3d 6c 4d 14 be
       0.08508669 0.3011518 0.09343853 -0.14482659
000190 87 46 f4 3c e7 ab c9 3c ba e2 bc 3d fc 50 2a bc
       0.029818786 0.024618102 0.09222932 -0.010395285
0001a0 51 aa 1e 3d 92 4d 5a 3d 94 c4 bc 3c 01 cb b3 bd
       0.038736645 0.053296633 0.023042955 -0.08778954
0001b0 ea d2 47 3e 56 df 27 3d 98 f2 d1 bc 3a b9 b2 be
       0.19514051 0.040984474 -0.025628373 -0.34906942
0001c0 3e 44 5b be 0e b3 89 3e f3 b2 90 3d 8e 64 3f 3d
       -0.21412751 0.2689442 0.07065382 0.046726756
0001d0 c9 c1 74 be 28 9f 20 bf 97 c8 f7 bd a6 fd 6b bc
       -0.23902048 -0.62742853 -0.12098806 -0.014403736
0001e0 55 68 9d 3d e3 e1 c5 bd 4a 1b a2 be 96 90 22 bd
       0.076859154 -0.09662225 -0.31661445 -0.03968867
0001f0 d0 f6 60 bc 6d f0 ab 3c b4 b8 26 bd b1 d5 ec bc
       -0.01373072 0.020988667 -0.04070349 -0.02891049
000200 39 80 9e bd 3e 14 dd bd 07 d0 6f bd eb 93 39 3d
       -0.077393 -0.107948765 -0.058548 0.04530708
000210 f6 b6 4d 3e 36 f0 ac 3c b5 1b 8f bd 6f 41 3c 3d
       0.20089325 0.021110635 -0.069877066 0.04596084
000220 df 50 db 3d be ba 70 3e f7 8b 16 3e cb a6 c7 bd
       0.10708784 0.23508736 0.1470183 -0.0974861
000230 cd cc ca bc e7 92 f4 3d f4 15 88 3e 26 42 07 3e
       -0.02475586 0.11942082 0.2657925 0.13208827
000240 96 27 e4 be 19 b1 13 3c 60 2e 6a 3d 63 e2 e4 bb
       -0.44561452 0.009014391 0.057173133 -0.006984995
000250 67 54 56 be 58 93 9a be 8e d3 a2 bc ce f8 f8 bc
       -0.20930634 -0.3019054 -0.019876268 -0.030392077
000260 15 d1 e4 3c 2b 85 8e 3d 7f ed 13 3d ba dd a5 bb
       0.02793173 0.069589935 0.036115166 -0.0050618323
000270 ad 3e 93 3d 45 3e a3 3d 78 28 dd bb 12 66 f6 bc
       0.07189689 0.07970861 -0.006749209 -0.030077968
000280 e9 43 17 3d e5 91 8d 3d 2e aa f6 3d 55 cc 3d bd
       0.03693 0.06912593 0.12044178 -0.046337444
000290 21 d4 21 be e5 fd af 3a 13 36 35 3e 0f 5f de 3d
       -0.15803577 0.0013427107 0.17696409 0.10857975
0002a0 de 64 ab bd 84 a7 dc bd ec 03 d1 3b e7 e8 8c 3d
       -0.08368848 -0.107741386 0.0063786414 0.0688036
0002b0 f5 a5 77 3d 53 d6 28 bd 0d 82 42 3c 38 1c 58 bd
       0.060461003 -0.04122002 0.011871827 -0.052761286
0002c0 47 64 aa bd 0f f6 e0 3c 66 06 c5 bc 7a ba 6d 3d
       -0.08319908 0.02746108 -0.024050903 0.058039166
0002d0 ad b8 d8 3d c9 c8 e5 bd c5 bd bd bd 27 30 49 bd
       0.10582099 -0.11219937 -0.09264711 -0.049118187
0002e0 78 97 fb bc 24 7f 11 bd 21 3d 73 be 05 f5 e4 bd
       -0.030711874 -0.03552164 -0.23753788 -0.11179546
0002f0 92 a6 a4 bd 4c 86 eb 3c 00 ef 38 bd 0f ac ee be
       -0.08039583 0.028750561 -0.045149803 -0.46615645
000300 7f b2 5e bc 6d 1b 19 3d 23 dd 90 3c b0 10 8f 3c
       -0.0135923615 0.03737967 0.017683571 0.017464012
000310 d6 56 52 3d 73 61 08 3d 0c 5a ac 3d c3 d9 10 3d
       0.051352344 0.03329606 0.084156126 0.035363924
000320 4b 1f a1 3d fa ae 81 3e 44 80 aa 3b 0f c8 25 3d
       0.07867297 0.2532881 0.0052032787 0.040473994
000330 e4 31 c0 3d 87 d6 09 bd 8d f2 bb 3e de c9 26 bf
       0.09384516 -0.033651855 0.3670849 -0.65151775
000340 ba dd 21 3e da 09 83 bc 09 36 07 be e0 76 17 3e
       0.15807238 -0.015995909 -0.13204207 0.14791441
000350 9e 84 89 be df 6f be 3e 16 d4 ef 3c 11 7a 9b 3d
       -0.2685899 0.37194726 0.029275935 0.07591642
000360 9e 75 3b 3e 18 86 61 3d c6 dd cb bb 79 49 93 3d
       0.18306586 0.055059522 -0.006221506 0.07191748
000370 69 40 89 bb 78 68 ae bd 7c 54 96 bc 17 3a e9 bb
       -0.0041885865 -0.085160196 -0.018350832 -0.0071175206
000380 31 fe 07 3c 17 81 81 3c 4b 05 5f bd 01 90 5c 3d
       0.00830035 0.015808625 -0.054448407 0.05384827
000390 ac c1 07 3c 32 bc 7c bd 93 d5 5f 3c d0 6b 16 3e
       0.008285921 -0.061702915 0.01366176 0.14689565
0003a0 70 13 36 be 25 f1 74 bc 9d d2 5c bd e8 27 79 bb
       -0.17780852 -0.014950071 -0.053911794 -0.003801817
0003b0 60 c8 22 3e 20 2e ee be 8c 9c ff 3d 5c 26 80 bc
       0.1589675 -0.46519566 0.12481031 -0.015643291
0003c0 58 0f 0d 3d 73 1f 90 3d ba 40 91 3e ce 55 ba 3e
       0.03443846 0.070372485 0.28369695 0.3639359
0003d0 cc 85 b2 3d 0b f8 c6 3c 03 e7 b5 3d 47 c5 21 3d
       0.08716926 0.024288198 0.088819526 0.03949478
0003e0 0b 6a 16 3e 74 af b8 3d 34 82 56 3c 01 6f 0c bb
       0.1468889 0.0901784 0.013092566 -0.0021428468
0003f0 b9 2b d1 bc 90 74 87 3d 90 cc 6f 3d 9a 03 40 bd
       -0.025533544 0.066140294 0.058544695 -0.046878435

conv2.bias f4 [16]
000000 54 5d b1 bd 45 f7 34 bd cb 12 92 3e 8f 48 6c 3e
       -0.08660379 -0.044181127 0.28529963 0.23074554
000010 08 db 22 3e ec f2 93 bd 83 cc 31 3f 2a d7 5a 3e
       0.15903866 -0.07224068 0.69452685 0.21371141
000020 8b ac 4c 3f 89 61 14 3d 4b 17 57 3e ad 4e 69 be
       0.7995078 0.03622583 0.2100498 -0.22783919
000030 3d 8b 8e bc 55 34 d5 3e 35 80 14 3f 4c 68 d6 3e
       -0.017400378 0.4164149 0.5800813 0.41876447

dense1.weight f4 [120, 400]
000000 56 b0 0f be 85 b8 73 bc 2d 2f 74 bb d6 26 ad bd
       -0.1403211 -0.014875536 -0.0037259564 -0.08454673
000010 a0 c1 07 bd cc 75 c0 bd 28 8f 08 be 0a 10 a2 bc
       -0.03314364 -0.09397468 -0.1333586 -0.019783039
000020 b7 a3 b4 bd 9c 9b 1f bd 1f 89 ce bd 0a c2 e6 be
       -0.08820289 -0.03896676 -0.100847475 -0.45069915
000030 ba e1 c0 bd cb 24 db 3d a0 7e 61 3d 6a a0 99 3c
       -0.09418054 0.10700377 0.0550524 0.01875325
000040 2a f6 11 3e dd 64 c1 bd be f7 b2 3d a8 52 b2 bc
       0.1425406 -0.09443066 0.08738659 -0.02176793
000050 5f bd 26 3e 80 5c 4d 3e 1f ec c6 3d 19 e4 8d 3d
       0.16283177 0.20054817 0.09713005 0.06928272
000060 5f 99 3b 3d 45 63 9f 3c 45 3d 85 bb cc 6b c5 3d
       0.045800563 0.019456515 -0.004066142 0.09639701
000070 e5 86 d7 3a dd 3b 87 3c 10 ec 01 3d c8 7b c1 3b
       0.00164434 0.016508037 0.031719267 0.0059046485
000080 db 54 65 bc 2e d0 06 be ea 8f ed 3b 6c 2b f6 bc
       -0.013997282 -0.13165352 0.007249822 -0.030050002
000090 48 00 7b 3e a9 1f c3 be 26 a5 b8 3d 24 db ef 3c
       0.24511826 -0.38110092 0.090158746 0.0292793
0000a0 e1 3c d9 bc bc 78 49 bd 51 e9 0f 3d 32 27 8f 3d
       -0.026518287 -0.049187407 0.035134617 0.06989898
0000b0 64 a0 35 3c d3 ef 8a 3c 0d b2 00 bc 47 34 0e 3e
       0.011085603 0.01696006 -0.007854951 0.1388713
0000c0 ca f1 09 3e 6a a0 36 3d 51 6e b4 bd 48 b4 30 bd
       0.13471141 0.044586577 -0.08810104 -0.04314068
0000d0 b4 9b 0b bd c5 11 93 bd 75 9b 88 bc be 9c b9 3d
       -0.034084037 -0.07181124 -0.01667569 0.09063099
0000e0 3b e7 63 3c b3 ba 89 ba 62 9a d8 bd da b5 4f 3c
       0.01391011 -0.0010507911 -0.10576321 0.012677634
0000f0 e8 f2 c4 3c 85 3e 81 3d 18 fd 8b 3e 05 ab 21 be
       0.024041608 0.06310753 0.27341533 -0.15787895
000100 08 9e 2d bd 2f f5 11 3d a5 13 f9 3d c4 a9 19 3e
       -0.04238704 0.035634216 0.1216195 0.15006167
000110 2a 4e 57 3d b4 3d 37 bd a5 c6 ed bc 30 f4 d1 3d
       0.052564777 -0.04473658 -0.029025385 0.10251653
000120 6c 61 19 3e a4 5d c4 3d 47 a1 91 3c 6a 47 72 bd
       0.1497857 0.09588173 0.017777098 -0.059150137
000130 f9 57 27 bd 5f f6 11 bc 32 f9 3d bd f5 0b be 3a
       -0.04085538 -0.008908837 -0.04638023 0.0014499413
000140 ad fb 5f bd 28 cc e2 3d 58 3b 83 bb 06 d6 88 bd
       -0.054683376 0.11074096 -0.004004877 -0.06681447
000150 bc 64 df bc f9 0a 38 bb 67 2f 9a 3e ae 1e 1c 3e
       -0.027269714 -0.0028082712 0.3011429 0.15246078
000160 2d fc fe 3d 87 23 39 bc cc ac bd bc 47 17 37 3e
       0.124504425 -0.011299974 -0.023153685 0.17879973
000170 8d ed 01 3e 92 bf 56 3e 69 37 b7 bd 30 38 c6 bc
       0.12688275 0.20971516 -0.089461155 -0.024196714
000180 87 6d 89 3c 59 43 b9 bc 97 51 03 3e 89 99 5a bd
       0.01677586 -0.022615122 0.12824093 -0.05336908
000190 1e 94 86 bd 5f 1a bf bd 90 28 39 be c2 06 14 bd
       -0.0657122 -0.09331202 -0.1808188 -0.036139257
0001a0 62 8b eb bd 2e 31 3d bd d2 81 8e bb ca c6 c9 3d
       -0.115011945 -0.04618948 -0.004348972 0.09852369
0001b0 38 18 1c be 4e f9 9e bd b3 d4 c4 bc e9 ab 81 3d
       -0.15243614 -0.07762395 -0.024027204 0.063316174
0001c0 4e bf 86 be a7 2f dd bd 44 ec 7c 3c 25 ee 92 bc
       -0.2631783 -0.108001046 0.0154371895 -0.017935822
0001d0 94 9e ad 3d 21 1a 08 3c 52 b2 f1 bd b7 d3 d5 3d
       0.08477512 0.008307011 -0.1180159 0.10440772
0001e0 20 bf 2f bd 22 2c 48 bd 10 ba e9 3c 8b 78 03 3d
       -0.04290688 -0.048870213 0.028531104 0.03209738
0001f0 56 0e be 3c 1f 77 71 3d bd f8 0b bd 1c 3d c6 3c
       0.023200195 0.058951493 -0.034172762 0.024199061
000200 73 ed 09 3c 31 ff 8d 3b fa dd 0a 3d f2 cc 94 3d
       0.008418429 0.0043333997 0.0339031 0.07265653
000210 2d a9 2c 3e 0b 12 13 be cb 50 ab bc e5 94 4e bc
       0.1686141 -0.14362352 -0.020912549 -0.012608741
000220 81 59 28 be 90 b7 ad bb af 3e bd bd 95 eb 76 bb
       -0.16440393 -0.0053014234 -0.092404716 -0.003767704
000230 21 b5 99 3b a9 52 90 3d 19 cd 70 3b d0 39 4c 3e
       0.0046907817 0.07047016 0.0036743341 0.19943929
000240 ad 49 41 bd 7b 65 9d 3c ed b2 4c 3c 20 98 ac 3c
       -0.047189403 0.019213429 0.012493831 0.021068633
000250 cc 94 4a 3c 34 b2 b8 b9 71 1c d7 bd f3 0d b4 bd
       0.0123645775 -0.00035227987 -0.10503472 -0.08791723
000260 48 30 ec 3c 54 e3 14 bd 9f 67 5f bc 72 34 6f bd
       0.028831616 -0.03634961 -0.013635545 -0.058399625
000270 e0 7b 0e 3e da a7 54 bc 41 b6 b0 3d 2b 1b 05 bc
       0.13914442 -0.012979472 0.08628512 -0.008124153
000280 1b 77 6d bc 5b 36 5f 3e 45 4b db 3c e1 47 f5 3c
       -0.014493729 0.21798079 0.02676929 0.029941501
000290 71 9d d1 3c c7 34 ab 3b e4 80 10 3d ce b7 a8 bd
       0.02558777 0.0052247974 0.03527917 -0.08238183
0002a0 89 47 d1 bd d4 66 44 3d e6 c0 84 3c 96 11 51 3c
       -0.102187224 0.047949627 0.016205262 0.0127605405
0002b0 da 0e 03 bd 45 ec 5d 3d 3d ff 34 3c da de 95 bd
       -0.031996585 0.054180402 0.011047182 -0.07317896
0002c0 1c 3a 82 bd 3d 58 a9 bd bc 49 00 be 9f c1 b2 bd
       -0.0635874 -0.08268783 -0.12528127 -0.087283365
0002d0 17 45 26 3d 60 a0 12 bd a8 20 65 3d 4e 19 18 bd
       0.040593233 -0.035797477 0.055939347 -0.037133507
0002e0 04 66 32 bc 88 7f 68 3d 07 19 b3 3d 66 da 66 be
       -0.01088858 0.05676225 0.08745008 -0.2254425
0002f0 98 c4 57 3d 07 69 d7 3d f9 80 e1 3d ce 9a 3f 3b
       0.05267772 0.10518079 0.11010928 0.0029236558
000300 71 54 ca bd 07 f3 0b 3d d7 71 25 3d ba 19 36 3e
       -0.09879387 0.034167316 0.04039177 0.17783251
000310 63 94 80 3d 99 23 10 3e 03 b1 a6 3d c8 fa 7c 3d
       0.062783025 0.1407608 0.08139231 0.0617626
000320 20 f2 31 bc cd 1a 8a bd 7b 16 7e 3c d0 93 d1 bc
       -0.01086095 -0.06743393 0.015508289 -0.025583178
000330 55 bb 3f 3c 76 68 30 bd 88 21 f1 bd f7 d7 1a 3e
       0.011702378 -0.04306837 -0.11773974 0.15121447
000340 8c 01 86 3c eb c9 87 3d 67 64 26 bd 09 d6 78 bd
       0.01635816 0.0663031 -0.040623095 -0.060750995
000350 45 13 4a be ca ef 2f bd 34 e8 2c bd d4 a5 15 3c
       -0.19733913 -0.04295329 -0.042213634 0.009133775
000360 28 18 23 3e f2 fa c7 3d 53 65 89 3d f5 6d b8 3d
       0.15927184 0.09764661 0.06708779 0.09005348
000370 5d 52 f8 3c bd 67 80 3d e3 96 1f 3d e3 d4 a1 3c
       0.030312711 0.062697865 0.038962256 0.019754833
000380 fa be 2c 3d 8c 59 b9 3c b1 dc 28 bc d6 a0 c0 bc
       0.042174317 0.022625707 -0.010306523 -0.023514193
000390 35 b7 8c bc 17 ea 9c bc 82 db 17 3d 50 6d 03 3d
       -0.017177204 -0.019154591 0.037074573 0.03208667
0003a0 e5 e2 d6 3d 43 bc 43 3d c7 c2 3c bc b1 52 c7 3d
       0.104924954 0.047786962 -0.011521048 0.09732569
0003b0 e4 4f 2a bd fe 94 b9 3d c3 f9 4b 3d 4d 97 da bc
       -0.041580096 0.09061621 0.04979874 -0.026683474
0003c0 52 40 4c 3d 60 7f df 3e 6a 9e 84 3e e2 34 8a 3d
       0.049866028 0.43651867 0.2590211 0.06748368
0003d0 ff c3 53 3c e5 1f 4a bc f7 05 20 3e 6e e1 76 3d
       0.012925147 -0.012336706 0.15627275 0.06027358
0003e0 52 ef c2 3c 3b 2b 96 3a 7f ee 2c bd 56 2d b4 bc
       0.023795757 0.0011456975 -0.042219635 -0.021994274
0003f0 15 b3 89 3d e9 cf bf bc 6e 73 14 3b b1 42 8e 3c
       0.0672361 -0.023414569 0.002265181 0.017365785

dense1.bias f4 [120]
000000 11 f6 bd 3c 75 cc 98 bd c9 c3 97 3e 5b 53 c6 3d
       0.023188623 -0.07460872 0.2964156 0.096838675
000010 cb 68 62 3e ad 9a 4e 3b 30 2e 93 bd 64 7f 08 3e
       0.22110288 0.00315253 -0.07186544 0.13329846
000020 00 7a fa bc 51 8c 8f 3e c3 d4 57 bd 85 3b 43 3e
       -0.030575752 0.2803674 -0.05269314 0.19065674
000030 c8 9a ce bc fb 61 b5 3e 03 af 06 3e 49 4b a7 3d
       -0.02522029 0.35426316 0.13152699 0.081686564
000040 cf 9a 8f bc 15 b4 d7 3d d9 67 06 be e4 44 91 3c
       -0.017529873 0.10532395 -0.13125552 0.017733045
000050 5f d6 b1 3d 27 64 81 3e db 41 a2 3d a0 e6 83 3c
       0.08683466 0.25271723 0.07922717 0.016101182
000060 14 84 9a bc eb 29 a0 3e d7 65 b4 bd 9d 43 7f bd
       -0.018861808 0.3128198 -0.08808487 -0.06232034
000070 58 e3 79 be 4a 82 8d bd 61 94 c7 3e 79 99 ac 3d
       -0.24403131 -0.06909616 0.38980392 0.0842771
000080 75 02 4d 3e 07 b0 08 be f2 7c 14 be 72 08 96 3e
       0.20020469 -0.13348399 -0.14500788 0.29303318
000090 44 79 a1 3e c1 6c 5a 3d ad 85 69 bd c6 e3 43 bd
       0.3153783 0.053326372 -0.05701225 -0.047824644
0000a0 9b c6 21 3d 91 2f bd bb 9e 48 64 bd c1 68 7a 3d
       0.039496046 -0.0057734926 -0.055733316 0.061135057
0000b0 30 ce a4 bd 0e 75 2d bd 4b 82 a3 bd 7f b3 38 3e
       -0.0804714 -0.04234796 -0.07983836 0.18037222
0000c0 3e 71 d1 bc d3 03 69 3d 2b b1 3e be 87 02 3e 3e
       -0.025566693 0.056888413 -0.18622272 0.18555652
0000d0 1c 9f 3e 3e 02 a4 5d bd cf 75 75 3d b0 e2 33 3d
       0.18615383 -0.05411149 0.059926804 0.043917358
0000e0 0f 00 8e 3e 9f 83 dd 3c 3e 38 ac 3e 53 37 b1 3d
       0.2773442 0.0270403 0.3363666 0.086531304
0000f0 d4 54 69 3c 96 39 56 3e c9 9e 4e 3c 64 04 aa bb
       0.014241416 0.20920405 0.0126110995 -0.0051885117
000100 3f 04 d1 bc 70 40 e2 bc 7f 9b 15 3c 65 5d e1 bb
       -0.02551472 -0.027618617 0.009131311 -0.0068775886
000110 36 2e 32 3e 70 eb 4f 3e 77 a9 98 bd 60 36 6b 3e
       0.1740044 0.20304656 -0.07454198 0.22969961
000120 fb b7 93 3c f7 6f be bc 50 65 fd bb 1f dc aa 3d
       0.018032065 -0.023246748 -0.0077330247 0.08342766
000130 f5 42 22 bd b2 92 53 bd 3a f1 c4 3d ed 09 b6 3d
       -0.039614636 -0.05165357 0.09616323 0.08888612
000140 39 a5 a4 3e 84 36 1d 3e fc 9c a4 3e ee db 35 be
       0.32157305 0.15352827 0.3215102 -0.17759678
000150 fe 29 c6 3c 79 c6 ae 3a 40 fb 8d 3e 68 3f 7b 3c
       0.024189945 0.0013334296 0.2773075 0.015334941
000160 76 2f 80 3e 76 9e a6 bc 3f 67 0a bd ca ab c1 bc
       0.2503621 -0.020339232 -0.03378987 -0.023641486
000170 f2 d0 2c 3e 07 42 c5 bc be a4 7f 3d ab cd 83 bd
       0.16876581 -0.024079336 0.06241297 -0.064357124
000180 90 83 00 bd ff dd 1f bd dd aa 6f 3e 18 d9 c2 3b
       -0.031375468 -0.03903007 0.23405023 0.0059462897
000190 52 ab 6d 3e 54 c6 5d 3c bd b7 72 3e 4e 51 57 bd
       0.23209885 0.013536055 0.23702903 -0.052567773
0001a0 6c b8 a7 3e de 8c 8c 3e 4a 11 b9 3d 12 c9 eb bc
       0.3275789 0.27451223 0.09036501 -0.028782401
0001b0 78 7c b7 3d b3 22 c6 ba c0 6c b0 3e 1f 44 5d 3e
       0.089592874 -0.0015116542 0.3445797 0.21608017
0001c0 ba 61 52 3e 57 bd e9 be 59 fc 5c bd 44 95 15 bd
       0.20545092 -0.45652267 -0.053951595 -0.036519304
0001d0 13 37 63 3c f1 c2 19 3c be d0 8f 3b df 57 57 bd
       0.013868111 0.009384857 0.0043888977 -0.052574035

dense2.weight f4 [80, 120]
000000 cf 7d a1 bd 07 a7 18 3d 69 fd 1f bd b8 f8 ed bb
       -0.07885324 0.037268665 -0.03906003 -0.0072623156
000010 14 64 62 be 30 c2 61 3d 5a 59 c8 3d 8b 33 ff 3d
       -0.2210849 0.055116832 0.097826675 0.12461003
000020 db 54 1e 3d ca 6d c0 3d 5b c5 a6 3d 30 4b 0d be
       0.038655143 0.093959406 0.08143111 -0.13798213
000030 07 da 30 3e 0e 9a 46 bd df ce 1e bd e6 a3 17 3e
       0.17270671 -0.04848676 -0.038771506 0.14808616
000040 19 be 99 bd b8 09 66 be e7 d7 3a bd 18 8b 94 3c
       -0.075069614 -0.22464645 -0.045616057 0.018132731
000050 86 bc ff 3d 3e 2c 84 bd 76 fd 9a bc ae 70 88 3e
       0.1248713 -0.06453751 -0.018919688 0.26648468
000060 c9 83 9e bd 2f 8b 38 3e 23 d2 6b 3d 87 32 2b 3e
       -0.0773998 0.18021844 0.05757345 0.16718493
000070 d3 bf 08 3c 00 90 c9 bd 8e 7f 55 bd 3e b3 6c 3e
       0.008346516 -0.09841919 -0.0521236 0.2311525
000080 92 a0 8f 3d 21 cc 16 3e 18 2a 25 3e e7 79 01 3b
       0.07013048 0.14726306 0.16129339 0.0019756497
000090 96 39 62 3d 19 28 33 3e 2e e6 35 3c 13 24 fb bc
       0.0552307 0.17495765 0.011102242 -0.03065685
0000a0 2e 18 6b bc 31 a6 df 3d 7d c4 16 3d c7 42 2f 3e
       -0.014349027 0.1092037 0.03680848 0.17115317
0000b0 95 77 ae bc b3 16 d0 bc f3 6e bc 3b c6 90 5c 3c
       -0.021297256 -0.025401449 0.005750531 0.013462251
0000c0 6a ce 06 be 34 e3 e4 bd 88 27 25 bd 62 c5 dd bd
       -0.13164678 -0.11176148 -0.040320903 -0.108286634
0000d0 7d e7 f4 bd 90 37 51 bd ec 86 12 be 3e ff 1b 3e
       -0.119582154 -0.05107838 -0.14309281 0.15234086
0000e0 ae 47 12 3e 95 f0 f2 3b 8d e7 f2 bd 99 bc 2b bd
       0.14285156 0.0074139335 -0.11860571 -0.041927908
0000f0 f0 18 1c 3d 6a 46 15 3e 8a d4 bd 3b f6 79 97 3d
       0.03810972 0.14577642 0.005793159 0.07396309
000100 fa 52 36 3c 2f f6 b0 bd 46 17 83 bd fa 4d 83 3d
       0.011128182 -0.08640706 -0.064009234 0.06411357
000110 60 13 28 bc cb be bd 3d 2d 0d ce 3d fc 90 dc 3b
       -0.010258526 0.092649065 0.10061107 0.0067311507
000120 a6 c1 39 bd ad 5c ee bb 6f 0f b1 3d 29 a1 e0 bb
       -0.045350693 -0.0072742314 0.08645522 -0.0068551493
000130 70 22 00 bd 8f 06 9f bd 36 a2 eb bd b7 3b 69 3e
       -0.031282842 -0.07764923 -0.11505549 0.22776686
000140 50 35 2b bd 67 04 ca bd 20 c9 4c 3c ac c7 88 bd
       -0.04179889 -0.09864121 0.012499124 -0.066787094
000150 77 e2 9a bd 1b bd ad 3d 28 4c 4b 3d 45 f1 4d 3d
       -0.07562726 0.08483335 0.049633175 0.05027892
000160 24 08 7c 3e 14 65 a3 bc 70 58 43 3d 8a a5 81 3d
       0.2461248 -0.019945659 0.047691762 0.06330402
000170 58 ae 86 bd 6d f1 17 bd af 64 ef 3d 04 74 78 3c
       -0.06576222 -0.037095476 0.11689126 0.015164379
000180 9f b4 3d bd 71 88 b7 3c e9 19 49 3d 6d dd a5 3b
       -0.04631483 0.022403928 0.049096975 0.0050617964
000190 20 46 b2 3d d1 01 9a 3d a1 b7 b8 bd 2d db d8 3c
       0.087047815 0.07519878 -0.090193994 0.026471699
0001a0 d7 c4 66 be fd 60 2e 3e 34 00 75 3c 24 d1 75 bd
       -0.22536026 0.17029186 0.014953662 -0.060013905
0001b0 c5 c7 84 bd 57 4a 82 bd d8 2d da bc 59 5e 05 be
       -0.064834155 -0.063618354 -0.026633188 -0.13024272
0001c0 12 7e c3 bc cb b8 8d 3e d2 2e 18 3d fd 2e 42 3d
       -0.023863826 0.27680048 0.037154026 0.047408093
0001d0 96 e9 91 3c a4 e5 82 bd dd d5 57 3c 11 8d 8b bd
       0.017811578 -0.06391457 0.013173548 -0.06814016
0001e0 ea 8f e0 3d ca 61 e0 bc 01 b4 71 3d 95 ff a6 3c
       0.109649494 -0.02739038 0.059009556 0.020385543
0001f0 60 f4 20 3e cc 15 b0 3d 1e 7b 90 3d 98 48 08 3e
       0.15718222 0.085979074 0.07054733 0.13308942
000200 c0 56 3c 3d c6 01 cb 3b bb ce 1f 3e b8 c2 52 bc
       0.04598117 0.00619528 0.15606205 -0.012863807
000210 41 c9 26 be 8c 66 0b be 67 72 78 bd d2 67 83 be
       -0.1628771 -0.13613337 -0.060655978 -0.25665146
000220 62 8c d7 bc 79 b9 94 bd 2c d0 03 3e 55 a5 32 bc
       -0.026312057 -0.072619386 0.1287238 -0.010903676
000230 82 fa a8 3d 85 24 36 3d ad 55 a7 3d 53 de 16 bd
       0.082509056 0.04446842 0.08170638 -0.03683312
000240 56 e2 fc ba f8 73 6b bd 00 d0 84 bd c7 bb 1d bd
       -0.0019293528 -0.057483643 -0.06484985 -0.038509157
000250 d2 12 74 be cf dd d7 3a ef 51 a9 3d 42 35 54 3e
       -0.23835304 0.0016469302 0.08267581 0.20723441
000260 79 66 6a bd ac d9 22 bd b2 21 59 3e 53 45 78 be
       -0.05722663 -0.03975837 0.2120426 -0.24245195
000270 77 dc 56 3e c4 e8 1f 3e e3 6d 25 bc 81 9b 2f 3d
       0.20982538 0.15616137 -0.010097 0.04287291
000280 92 16 3b 3e fa 5a bd bc 28 4c d8 3d 56 ca bc 3d
       0.18270329 -0.02311467 0.10561401 0.0921828
000290 44 cd 7f 3c 41 a2 d3 bd 9b 7e 1f be 6e c3 d5 bd
       0.015612904 -0.10333682 -0.1557564 -0.10437666
0002a0 b6 05 39 bd 36 33 e9 3d a6 8c 67 bb 8e 8b fc 3d
       -0.045171462 0.11386721 -0.0035331636 0.123313054
0002b0 58 4e 2a bc b7 fa 5b 3d 39 89 be bd ea ac 5b be
       -0.010394655 0.053705897 -0.09303517 -0.2145268
0002c0 20 ee e6 3d 28 61 a1 3b 73 b1 a1 3d 91 6d 2b bd
       0.112758875 0.004924912 0.07895174 -0.041852538
0002d0 ae 82 bf 3d d5 4c 56 3e da 4c 8d bd f6 51 0f bd
       0.09351097 0.20927747 -0.06899424 -0.034990273
0002e0 0a c8 a2 3e 43 35 22 3d a3 3d c7 3c 39 8c 47 3d
       0.31793243 0.039601576 0.024321383 0.04871771
0002f0 62 06 31 3e 3b 7e df 3d 39 a7 b9 bd 9a 34 94 3c
       0.17287591 0.109127484 -0.09065098 0.018091489
000300 bb e5 9b bd aa dd 9c bd 15 e9 b9 3b 0a bb b7 bd
       -0.07612177 -0.076594666 0.0056735375 -0.08971222
000310 5b 2b 2e bd 92 d0 2d 3d 37 88 2c 3e 6d b8 d9 3d
       -0.042521816 0.042435236 0.16848837 0.106308796
000320 d2 c6 9c bc 85 74 c7 3d f7 8b 4a be 84 ac 35 be
       -0.019137774 0.09739021 -0.19779955 -0.1774159
000330 15 51 85 bd e9 bc 6f bb d7 f5 e2 bc e2 81 36 3d
       -0.06509606 -0.0036581105 -0.027705116 0.04455746
000340 45 85 e1 3d 80 8a 8c 3c 37 be 47 bd 47 8d 56 bd
       0.11011747 0.017155886 -0.048765387 -0.052380826
000350 0c 8c 48 3e ac 11 c2 bc 74 22 e4 bd a7 be 36 3d
       0.19584674 -0.023690067 -0.11139384 0.044615414
000360 2f 3e 08 3d db 8b 63 3d 17 75 49 be 47 1e 0e bb
       0.033262428 0.0555533 -0.19673572 -0.0021685527
000370 5d 49 05 3d 36 68 74 bd 06 91 d3 3d 13 85 2f bd
       0.032540668 -0.059669696 0.103303954 -0.04285152
000380 07 b1 df 3d 50 5b 2c 3e 0d 37 df ba c6 01 d5 3d
       0.10922437 0.16831708 -0.0017029956 0.10400729
000390 3e 6e 8a bd 10 13 8f 3d ff 8c 88 3d 5e e7 b6 bd
       -0.06759308 0.06986058 0.06667518 -0.089308485
0003a0 95 f8 09 be 02 b4 cd 3d 0d ac 52 3d df b4 c5 3b
       -0.13473733 0.100440994 0.05143361 0.0060335244
0003b0 63 60 79 bd 91 0f ad bb f4 ba 4f bd 46 4f 65 bc
       -0.060882937 -0.0052813967 -0.0507154 -0.013995951
0003c0 f1 ec e7 bd f6 47 b0 bc f3 a9 86 bd 18 34 c3 3d
       -0.1132449 -0.021518689 -0.06575384 0.095314205
0003d0 b9 65 b9 3d 83 4f 3c 3d 24 f0 39 be a0 16 dc 3d
       0.09052605 0.045974266 -0.18158013 0.10746503
0003e0 7a 29 10 3d b5 c0 5d bd ea fd 05 3e ab ea 3a 3e
       0.035195805 -0.054138858 0.13085142 0.18253581
0003f0 1a 0b fe 3d ba b8 5d 3e 6f a1 65 3c 58 3a 42 be
       0.12404461 0.21652499 0.01401554 -0.18967569

dense2.bias f4 [80]
000000 24 96 3e be dc 05 a5 3e 20 7e 46 3e 1e bd 8a 3d
       -0.18611962 0.32231033 0.1938405 0.067743525
000010 1c 49 7d bd 19 6b 74 bb 00 56 2b 3e c2 ac 63 bc
       -0.0618373 -0.003729528 0.16732025 -0.013896169
000020 56 da 29 3e f1 86 8b 3d 55 2a 55 ba 16 d4 fd bd
       0.16587195 0.068128474 -0.0008131613 -0.12393968
000030 a4 3f b9 3d 93 e0 76 3c 50 eb d4 3d 17 64 ae 3e
       0.090453416 0.015068191 0.10396445 0.34060737
000040 13 0d 4d be 42 e5 23 be 48 7b 17 bd 9a 63 1e bd
       -0.20024519 -0.16005424 -0.036982805 -0.038669206
000050 a3 b3 89 3c 9e ef 9e 3d c5 c3 9f be 84 3b 03 be
       0.01680929 0.07760547 -0.31204048 -0.12815672
000060 cb ed 8b be 1c b2 39 3c 4e 37 48 3e d7 1a 26 3e
       -0.2732986 0.0113339685 0.19552347 0.16221176
000070 0f 04 b1 bc 46 65 06 3e af ea 63 3d a7 5c 2c bd
       -0.02160838 0.1312457 0.055643734 -0.042080548
000080 e5 88 73 bd 59 57 58 3e 9c 75 4f 3e 7d 9c 29 3d
       -0.059456725 0.2112707 0.20259708 0.041409004
000090 d4 2c e2 bd 72 7e 96 3d 06 5b eb 3d 60 69 11 3e
       -0.110437065 0.07348336 0.11491971 0.14200354
0000a0 b4 08 0a bc 32 56 29 3e 84 e5 d4 bc f7 a6 1b be
       -0.008424927 0.16536787 -0.025988348 -0.15200411
0000b0 23 96 91 3d 72 2a 53 3d 87 b4 85 3e cb b3 a2 3d
       0.071087144 0.05155415 0.26114294 0.07944449
0000c0 48 13 9d 3e 13 9e 24 be a0 75 55 3e 20 98 51 bd
       0.30678773 -0.16075926 0.20845652 -0.05117047
0000d0 bc 7c 36 3e ac 31 ca 3c 11 86 a6 3d 6b bd 4d 3e
       0.1782102 0.024681889 0.0813104 0.20091788
0000e0 17 3e 59 be 08 73 ed bd bc 9d 0a 3d 1f e2 4d be
       -0.21215092 -0.11594206 0.033841833 -0.2010579
0000f0 1a 34 26 3e 1a ca 27 3e 21 ec 91 be c1 f9 80 bd
       0.16230813 0.1638569 -0.28500465 -0.06297637
000100 25 3b 2d be ae 01 f0 3d 20 42 86 3e 68 8c 82 3e
       -0.16917093 0.117190704 0.26222324 0.25497746
000110 9d ee 71 3d 7f d6 f3 bd 77 48 b1 bd 5f 3f cb bd
       0.05906545 -0.11906146 -0.086564 -0.099241965
000120 28 bf 28 3e 1c 7b 9e 3c af d7 09 3e 6a 31 57 bd
       0.1647917 0.019345812 0.13461183 -0.05253736
000130 b6 f5 16 bd a0 12 39 3e ee af 33 3e 34 df ec 3d
       -0.036855422 0.18073511 0.1754758 0.1156601

final.weight f4 [43, 80]
000000 06 1f 11 3c b8 8f 8a 3d 32 23 2b be af f1 7d ba
       0.008857494 0.067656934 -0.16712645 -0.0009687198
000010 02 a8 8b 3d b6 03 7a 3d 34 96 46 be eb ac b1 3d
       0.06819154 0.061038695 -0.19393235 0.086755596
000020 de 76 f5 bd a7 4a 61 3d 7f b8 90 3d 75 82 c7 3d
       -0.11985563 0.055002835 0.0706644 0.097416796
000030 e2 cb 25 be ae be af 3c bf f4 14 bd 91 c5 f9 be
       -0.16191056 0.021453228 -0.03636622 -0.48783544
000040 68 f6 71 3e 8a 51 9c be 0e 1f 5e 3d 12 64 c2 bd
       0.23629153 -0.3053096 0.054228835 -0.09491743
000050 1b ac b1 3d 06 e8 99 bb 93 ab 08 3e 88 59 a7 3d
       0.08675405 -0.004696849 0.133467 0.081713736
000060 ba 8e cb bf aa 50 88 bd 43 1c 9d 3d 25 10 61 be
       -1.5902932 -0.066560104 0.07671406 -0.21978815
000070 50 30 b0 3c 74 5a b7 3d 55 53 b3 3d 18 c7 9f 3b
       0.021507412 0.089527994 0.08756129 0.0048760287
000080 01 2d 7b 3d 60 13 c8 bd 27 0d 1c be 91 54 5e bd
       0.061322216 -0.097693205 -0.15239392 -0.054279868
000090 10 08 b5 3d 4f db 24 bd 97 f9 4b bd 34 64 1d 3e
       0.088394284 -0.04024821 -0.049798574 0.15370256
0000a0 31 96 56 be 29 18 1b be fb 22 c2 bd bb ac e9 3a
       -0.20955731 -0.15145935 -0.09479328 0.0017827967
0000b0 2e f4 e1 be fd 9a 11 3c bf ee f0 bd 55 d7 5c bd
       -0.44131607 0.00888705 -0.11764287 -0.053916294
0000c0 d7 e7 08 3e 07 52 1c be 7a d7 7e be 0b 50 49 be
       0.1336969 -0.15265666 -0.24886885 -0.1965944
0000d0 8b 45 d6 3d 0f 0e 8d 3d 04 0f 8e 3d 32 3d 35 3d
       0.10462483 0.06887447 0.06936458 0.044247814
0000e0 1f a5 f8 bd 61 27 fc 3c 5e a2 a0 3e 2a cd 8f be
       -0.12140869 0.030780496 0.31373876 -0.28086215
0000f0 bb b5 43 3d 83 88 1a 3e 46 4a 41 be bf 1d 8f 3d
       0.047780734 0.15091138 -0.1887599 0.069880955
000100 61 13 e0 3b 5e 3a 2b 3c a3 ff 16 bd 59 e2 a8 3d
       0.0068382476 0.010450928 -0.036864888 0.082462974
000110 c9 2f df 3c 7c d0 9c be 6a 4c 98 3d 2d 01 9e bd
       0.027244465 -0.3062781 0.0743645 -0.07715068
000120 32 e1 96 bd be 6d d9 bd ec 0f 23 3d a2 d1 69 bd
       -0.07367171 -0.10616635 0.039810106 -0.057084687
000130 ed a3 09 3d 0e d1 da bd 10 41 8b be 75 c3 0b 3e
       0.033603597 -0.10684405 -0.27198076 0.1364878
000140 c3 69 a0 bd 03 fa 04 bb f8 56 78 3c cb 5d c1 3c
       -0.078326724 -0.002029062 0.015157454 0.023604294
000150 a5 91 b0 3d 1c d0 75 bc 57 8b 1d be df e7 a4 3d
       0.086215295 -0.01500323 -0.15385185 0.080520384
000160 b0 e2 81 bd 62 c8 91 bd 9e bb 8a 3c e9 6d 4d bd
       -0.06342065 -0.07118298 0.016935166 -0.050153647
000170 4d 1f b4 3d 40 88 44 bd df f5 93 3d 58 2e 06 be
       0.08795033 -0.0479815 0.072246306 -0.13103616
000180 97 12 35 bd 98 c2 ac bd 08 aa 9a bc 8d a2 2b 3d
       -0.04420718 -0.08435553 -0.018879905 0.041903067
000190 c1 37 33 bd 2d a0 21 bd 18 cb 89 be cf 16 80 3e
       -0.043754343 -0.039459396 -0.2691276 0.25017402
0001a0 21 c4 83 be ab 99 8f 3d d1 32 c1 3d b7 4b 44 be
       -0.25735572 0.07011732 0.094335206 -0.19169508
0001b0 2d c6 5d 3c be f8 e4 3c 55 d6 af 3d dd 45 d5 bd
       0.013536018 0.02795064 0.085858025 -0.10413716
0001c0 80 76 8e bd 0a 79 1e 3e bd 3e 02 bd 69 1a 78 3d
       -0.06956196 0.1547586 -0.031798113 0.06057206
0001d0 9e 55 95 bd bd e6 b9 bd 4d 26 fd ba d5 87 58 3c
       -0.07291721 -0.09077213 -0.0019313783 0.013215979
0001e0 f9 e8 1b be 1f c4 ff bd fc 37 a5 bd e4 de a7 bc
       -0.15225591 -0.12488579 -0.08067319 -0.020492025
0001f0 d6 8b 03 bc 97 b5 10 ba aa 81 9d bd d1 ae 5a 3c
       -0.008028945 -0.0005520223 -0.07690747 0.013347344
000200 45 48 ca bc 7d 23 1d 3d cb 46 21 3c 3f 75 b9 bb
       -0.024692664 0.038363922 0.0098435385 -0.005659729
000210 53 35 02 3e fa 7d 2b bc 1a 71 8f 3d d3 15 f1 3d
       0.12715654 -0.010467047 0.07003994 0.11771741
000220 79 8c 41 be 94 0f ad bc c5 11 01 bd 50 2f 13 be
       -0.18901242 -0.021125592 -0.031511087 -0.14373517
000230 41 ca ac bd 6a e5 14 3d a4 d0 c9 bd 7b 16 b0 3d
       -0.08437014 0.0363516 -0.09854248 0.08598038
000240 c4 89 70 3b 25 10 f3 3d db ae 10 bd a4 3f d5 3d
       0.0036703208 0.11868314 -0.035323005 0.10412529
000250 9c b2 b9 bd e0 ec 08 be 5b 1d 5d 3d 51 bf a9 3d
       -0.0906727 -0.1337161 0.053983074 0.08288444
000260 2e 81 3a 3e 3f 4c f9 bc 8d 9c 58 3d c8 41 08 3d
       0.1821334 -0.030431865 0.052883673 0.03326586
000270 90 92 93 bd 8f 36 9f 3d 7f b0 0e 3d ae ee d4 3c
       -0.07205689 0.07774078 0.03483629 0.025992718
000280 04 5c 79 bc 4b 1a 88 3c 94 d9 d7 3d df e7 4e 3d
       -0.015219692 0.0166141 0.105395466 0.0505141
000290 36 c6 4b bb 30 0a 28 3d 20 b2 1a be 0d 26 af 3c
       -0.0031093485 0.04102534 -0.15107012 0.021380449
0002a0 5b 2a f6 3d 68 75 85 3d 70 59 48 bd d1 59 ca bd
       0.120197974 0.06516534 -0.04891342 -0.09880412
0002b0 1a 20 63 3d f8 ee e3 bc de 05 ff bd ce c5 60 bd
       0.055450536 -0.02782391 -0.12452291 -0.05487614
0002c0 63 85 d6 bd 9a c2 b5 bc 2b c8 b0 3d 9f 84 af bd
       -0.1047466 -0.02218752 0.08631929 -0.08570217
0002d0 10 8f c7 3d 23 58 e5 bd 4a 85 a2 be 70 fe 5c bc
       0.09744084 -0.11198451 -0.31742316 -0.013488397
0002e0 84 1a 9e be 9b 6d 33 3d 00 da 00 3e 49 e1 bd 3a
       -0.30879605 0.0438057 0.1258316 0.0014486696
0002f0 34 39 f7 bd d5 20 85 3c 91 ec 03 3d bc 4a 41 bd
       -0.120714575 0.016251007 0.03220803 -0.047190413
000300 fe a0 c7 bc e1 80 a2 bd 57 77 8b bd be 2b c3 3c
       -0.02436876 -0.07934738 -0.06809872 0.023824569
000310 7a 80 8c 3b d7 38 d7 3c 92 d7 a1 3d ce 67 88 3d
       0.0042877765 0.02627222 0.07902445 0.06660424
000320 dc d1 8a bd d9 61 d7 bd 8f 65 a9 3c a8 10 22 3d
       -0.06778309 -0.1051671 0.02067831 0.039566666
000330 4b 9f 05 be b6 94 0c 3d db 38 7a bb a8 33 7e 3d
       -0.13049047 0.03432151 -0.003818086 0.062060982
000340 65 a2 ac 3d d6 07 f3 bd 19 c9 62 3c a6 10 a8 3c
       0.08429412 -0.11866729 0.013841891 0.020515751
000350 91 18 ea 3c 33 58 f6 bc 80 83 7d 3d 17 28 8f 3d
       0.028576167 -0.030071354 0.061892986 0.069900684
000360 b6 86 36 bd e3 63 02 bd 95 2d 28 be 6c 1d 2e 3d
       -0.044562064 -0.03183354 -0.16423638 0.042508528
000370 32 e2 8d bc 40 5c e1 3d c9 2f 17 be 4f 54 35 3d
       -0.017319772 0.110039234 -0.14764322 0.044269856
000380 28 ca 99 3d b2 78 94 3b b1 b7 0c be 1d f7 42 3d
       0.07509261 0.0045309896 -0.13741948 0.047598947
000390 0d 04 c0 bd 85 63 1c bd 23 55 77 bd fd e0 b6 bd
       -0.093757726 -0.038180847 -0.060383927 -0.08929632
0003a0 cd ae e5 3d fe 74 2b 3c 17 d3 5b 3d 31 df 66 3d
       0.11214981 0.010464905 0.053668108 0.056365196
0003b0 02 47 2f bc 07 87 0d 3e 6d f2 30 bd f6 04 ea 3b
       -0.010698082 0.1382104 -0.043199945 0.0071417047
0003c0 5f 55 fb 3b ff b3 8b bd 6c ad 25 3d b6 55 34 bd
       0.007670089 -0.06821441 0.04044859 -0.044027053
0003d0 8e e1 01 bd 12 e1 6c bd 67 f0 d1 bd 15 8c 5b bd
       -0.031709246 -0.05783183 -0.10250931 -0.05360039
0003e0 f6 17 17 bd 4e d3 1b bd 26 54 1a 3d 74 73 00 be
       -0.036888085 -0.038043313 0.037677906 -0.12544042
0003f0 97 3f c9 bd b5 30 7d 3c a7 60 55 bd 1e 33 e0 ba
       -0.09826582 0.015453507 -0.052094128 -0.0017105078

final.bias f4 [43]
000000 5d 3c 78 be 8d c5 fa 3d c8 8e c1 3d b1 de c7 bd
       -0.24241777 0.12244711 0.094510615 -0.09759272
000010 b0 aa 43 bd da e4 c1 3d 96 94 e2 3e 02 4f 99 3c
       -0.047770202 0.09467478 0.44253987 0.018714432
000020 8f 6b 91 3e 15 55 d8 3d a6 ef 87 bc 8d c0 fc bd
       0.28402373 0.10563103 -0.016593765 -0.12341414
000030 0b ff 9c 3e 97 6a c6 ba 02 3e 1f 3e a1 f9 bb 3d
       0.30663332 -0.0015137967 0.15550998 0.09178472
000040 89 80 3c be 2f 20 2c 3e 7b 96 ee bc a4 51 c0 be
       -0.18408407 0.16809152 -0.029124489 -0.37562287
000050 c7 74 0b 3e de c8 29 bd 27 60 87 be 81 2a 40 bc
       0.13618766 -0.041451328 -0.26440546 -0.011728884
000060 a2 3b 97 3d 36 74 ce 3c 8f 7e 2e be 0b 77 0d 3c
       0.07384421 0.025201898 -0.17040466 0.008634339
000070 83 13 37 bd b3 98 68 be a9 5b 75 3e e8 6a 6c 3e
       -0.044696342 -0.227145 0.23960747 0.23087656
000080 e7 a6 0c bd f1 21 00 3e 00 f6 65 bd 72 ba 71 be
       -0.034338858 0.12512948 -0.056142807 -0.2360628
000090 1e 7b 81 3b 47 15 66 be 77 1c 6f bd 67 94 09 bd
       0.0039514443 -0.22469054 -0.058376756 -0.033588793
0000a0 5c 90 22 be f1 2c 83 be 98 04 1b be
       -0.15875381 -0.25620225 -0.15138471
