Robustness/models/base_epsilon_5.pth (torch, 259226 bytes, 10 tensors)

conv1.weight f4 [6, 1, 5, 5]
000000 78 24 a4 bc 27 70 1f 3e 3e 6d 42 3e 49 eb ef 3c
       -0.02003692 0.15570126 0.18986985 0.029286997
000010 40 59 53 be 24 0f 24 be 6b f7 54 3e bd 90 0f 3f
       -0.20639515 -0.160214 0.20797507 0.5608023
000020 97 0e d2 3e 16 6f 81 3e 37 a1 4d 3d 28 2e 8d 3e
       0.41026756 0.25280064 0.050202575 0.27574277
000030 49 e3 dd 3e c4 cd f0 3e 43 2a 17 3e a5 54 1c bd
       0.43337467 0.47031987 0.14762215 -0.03816666
000040 40 9f a2 3d 87 e4 90 3e f7 f2 8e 3e 77 87 4c bd
       0.07940531 0.28299353 0.27919742 -0.049933877
000050 71 39 ed bc 50 d0 0b 3e 4a 83 92 3d ff f6 46 bd
       -0.028958054 0.13653684 0.07153948 -0.048575398
000060 0f 63 06 3c 2c 41 08 3d 4a a1 14 be 12 af 60 be
       0.008202328 0.033265278 -0.14514652 -0.21941784
000070 c7 67 9d be 55 c8 4b be 16 7b 28 3d d6 cc de 3c
       -0.30743238 -0.1990064 0.04113301 0.027197283
000080 d1 55 b5 be a0 fa fd be bd 72 b6 be f9 9f 6c bd
       -0.35417035 -0.49605274 -0.35634413 -0.05776975
000090 33 4c c2 bd 0b 76 15 be 42 67 cf bd e0 ee 86 bd
       -0.0948719 -0.14595811 -0.10127117 -0.065885305
0000a0 36 9f 61 bd 3f 8a 32 be a7 ab a9 3c 04 f9 de bd
       -0.055083476 -0.17435549 0.020711733 -0.1088734
0000b0 85 37 72 3d 0e c5 db 3d 30 f0 c0 bd 94 71 8b bd
       0.05913498 0.107309446 -0.09420812 -0.06808773
0000c0 f1 da be 3d ec f1 f8 3d 44 17 30 be 78 ef fe 3d
       0.093191035 0.12155518 -0.17196375 0.12448019
0000d0 5c d2 6f 3e 50 84 ba bd 42 71 cd bd 31 99 39 3b
       0.2342009 -0.09107268 -0.10031368 0.002832007
0000e0 d0 4a 21 3f d6 21 a5 3e c2 52 ea be 63 f4 69 be
       0.6300478 0.32252377 -0.45766264 -0.22847132
0000f0 42 ba 57 3e 36 23 30 3f 95 e2 b7 3d 80 c0 0e bf
       0.21067145 0.6880373 0.08978764 -0.5576248
000100 53 fc 23 be a6 bb 98 3d a4 ba 07 3f 36 b0 06 be
       -0.16014223 0.07457666 0.53019166 -0.13153157
000110 41 81 06 bf e7 1a d8 bd 6c 8e a9 3b 36 04 38 bc
       -0.52540976 -0.10552006 0.0051744487 -0.011231473
000120 05 11 c7 bd cf d6 13 be b6 de c4 bd 95 bb 3c 3c
       -0.09720043 -0.14437412 -0.09612791 0.011519332
000130 23 8f 1d 3e 6d 16 c1 3d f6 d2 15 3e 25 cb a2 bc
       0.15386634 0.094281055 0.14631256 -0.019872257
000140 ad 84 ca 3d 5a af d9 3e 41 32 21 3f 8b 09 ac 3e
       0.09888587 0.42516595 0.62967306 0.3360103
000150 30 e8 86 bc fc 1d cc bd ee fe 06 3e b7 0e ba 3e
       -0.016468138 -0.099666566 0.13183185 0.36339352
000160 40 79 3c 3e 98 66 fb bc 76 0c be bd 56 e0 aa be
       0.18405628 -0.030688569 -0.092797205 -0.3337428
000170 ed 47 a4 be fa e9 bd be c7 d8 7d bd e8 46 72 3d
       -0.32086125 -0.37092572 -0.061974313 0.059149653
000180 76 00 17 be db 7b a8 be 36 43 ad be 0e ff 89 bc
       -0.1474627 -0.32906994 -0.3384034 -0.016845252
000190 89 a1 f5 3c 5c 87 8d bd a4 95 c4 bd a5 a8 2c 3e
       0.029984253 -0.069105834 -0.09598854 0.16861208
0001a0 d4 c1 e6 3d 9e fb 3b 3e 34 97 c3 be 14 7b a4 be
       0.112674385 0.18357703 -0.38201296 -0.3212515
0001b0 ea f5 24 3e 38 50 9b 3e 25 79 2d 3e a3 74 b1 3d
       0.16109434 0.3033464 0.16940744 0.08664825
0001c0 b4 e9 a4 be c8 b8 35 bd 22 0c b6 3e 05 94 14 3e
       -0.3220955 -0.044365674 0.35556132 0.1450959
0001d0 e1 e1 0f 3e f5 b5 08 bf b3 52 c8 be c1 97 3b 3e
       0.1405101 -0.53402644 -0.39125594 0.18319608
0001e0 c6 81 1a bd cc a0 0e be 3d 04 b0 be fe 70 fe be
       -0.037721418 -0.13928527 -0.34378234 -0.4969558
0001f0 4e 6f c2 bd 8e eb ca bd 0c f1 32 be 64 18 9e be
       -0.09493886 -0.0990821 -0.17474765 -0.30877984
000200 e1 92 de be 7b d4 c8 be 1c 43 7f be d5 74 4a be
       -0.43471435 -0.3922461 -0.24927944 -0.1977113
000210 09 1d 15 3d 98 31 10 3e 50 9e 8a be ac 38 48 be
       0.036404643 0.14081419 -0.27073908 -0.19552869
000220 22 a7 0a be 16 98 34 3f 02 52 59 3f 9f 95 af 3d
       -0.13540319 0.70544565 0.8489076 0.0857346
000230 75 f2 fa bd c9 fd b3 3d 79 47 f2 3e a7 c4 46 3f
       -0.12253276 0.0878864 0.47320154 0.7764382
000240 39 fb 70 3e ad 1e 9a bd de b9 7d bd cf 04 23 3e
       0.23533334 -0.07525382 -0.061944835 0.15919803
000250 5b ba 09 3e 2b 60 16 bd
       0.13449995 -0.036712807

conv1.bias f4 [6]
000000 f1 2c 0b 3f 2a 0d 03 bf 2d d7 33 3d cd 87 13 3f
       0.5436545 -0.5119196 0.04390638 0.5762909
000010 e4 59 0d 3d cd 8b 0a 3f
       0.034509555 0.5411957

conv2.weight f4 [16, 6, 5, 5]
000000 1f 39 d7 bd 87 c7 51 bd 8e de 8a be a0 3c ef bc
       -0.10508942 -0.051215675 -0.2712292 -0.029203713
000010 6e 7a 1a bd 19 0a 5b bd 6c b2 59 bd 4a 66 18 be
       -0.037714414 -0.053476427 -0.053148672 -0.1488277
000020 33 ec 1a be c1 8b 1d bd 68 e7 0b bc 92 11 64 bc
       -0.15129165 -0.038463358 -0.008539058 -0.013920205
000030 4f 40 00 be f6 9b 46 be a8 dc 07 bc 70 95 da 3d
       -0.12524532 -0.19395432 -0.008292355 0.10673034
000040 14 9a cc 3d 75 ba 56 be 2a 03 a3 3d 05 af 05 3e
       0.099903256 -0.20969565 0.07959588 0.13055046
000050 55 4c 76 3e 57 53 34 3e a2 50 0a 3c 1a 4d 76 3e
       0.24052556 0.17609917 0.008442076 0.2405285
000060 35 bf 8b 3e db 28 e5 bc 1c c1 eb bd eb d3 d0 bc
       0.27294317 -0.027973583 -0.11511442 -0.025491675
000070 d2 2d 0c bb 84 c4 04 bd 0b 28 98 bd b9 51 1a be
       -0.0021389616 -0.032413974 -0.074295126 -0.15070237
000080 c0 84 ae bd 93 62 5a bd be 70 4f bd 2d 15 a2 bc
       -0.08521414 -0.053316664 -0.05064463 -0.019785488
000090 8c f0 fd bd f3 c5 bf 3d ca 0f f0 3d 0b 14 05 bd
       -0.12399396 0.09363928 0.117217615 -0.032489818
0000a0 e4 50 49 be b3 ee 23 be df b9 85 3e d2 06 d8 3d
       -0.19659764 -0.16009025 0.2611837 0.10548176
0000b0 71 cc 1d be 37 0c 16 be d0 c7 31 be 8e 30 53 3e
       -0.1541002 -0.14653097 -0.17361379 0.20623991
0000c0 fd 49 3b 3e b2 ff e8 bc 44 d4 0c bb 1b 2a 35 3e
       0.18289943 -0.028442238 -0.0021488825 0.17691843
0000d0 2a 80 ec 3c a2 36 dc 3d 76 7c d9 3d 24 05 ed 3c
       0.028869707 0.10752608 0.10619442 0.028933115
0000e0 8e df 10 be 07 b6 6c bd 87 85 82 3e 87 1b 0f be
       -0.1414778 -0.057790782 0.25492498 -0.13975345
0000f0 44 94 1e 3d 09 ae ff bc 5a 68 01 3e 65 b5 bd be
       0.038715616 -0.031210916 0.12637463 -0.37052456
000100 ac e0 a8 3e 33 d1 1c bc 5d 6b 5b 3e e1 99 9f bd
       0.3298391 -0.009571361 0.21427675 -0.07793022
000110 1c ab ce bd c7 b0 45 3e 68 cc 9e bd 1f dd cc bc
       -0.1009123 0.19305716 -0.07753831 -0.025007783
000120 3a 65 c9 be c7 93 85 be dd d3 29 be 59 24 73 3c
       -0.39335042 -0.26089308 -0.16584726 0.014840209
000130 87 69 a2 bb 80 e6 ed bb 8a 2b 23 bc 3c c0 3e bc
       -0.0049564275 -0.0072601438 -0.009959111 -0.011642512
000140 20 e6 93 3d 84 87 89 bd 4f 14 cf 3e f2 37 a8 3d
       0.07221627 -0.06715301 0.40445182 0.08213796
000150 8b fe e0 bd 15 ac 8b 3d db 8b 26 3e 68 8e cc 3d
       -0.1098605 0.068199314 0.16264288 0.09988099
000160 d8 e5 49 bd da 56 d8 bd 86 4f 42 bb 97 71 b8 3e
       -0.04929146 -0.105634406 -0.002964945 0.36024162
000170 7b 98 bb be df 17 da 3d 7a 95 f7 3d 68 b9 e0 bb
       -0.3663977 0.10649084 0.12089057 -0.0068580396
000180 84 30 0e 3e b0 9d 38 be d0 00 9c bd d4 f9 46 3d
       0.13885695 -0.18028903 -0.076173425 0.0485781
000190 c3 6a 83 bc ff db 3b 3c 0a 66 b8 bc 13 99 96 3d
       -0.016042119 0.011466025 -0.022509594 0.07353415
0001a0 ee e5 a2 3b e0 a8 be bd 7e 8e 20 3c ca 8b 51 3e
       0.0049712574 -0.09309554 0.009799598 0.20463482
0001b0 9c c4 6b 3d 18 a8 75 3d a5 f7 90 bc 81 25 52 be
       0.05756055 0.05997476 -0.017696211 -0.20522119
0001c0 e7 1e b5 3e e3 d6 31 3d 65 a1 0c bd 32 c0 d1 bc
       0.3537514 0.043417823 -0.034333605 -0.025604341
0001d0 a7 5d 3a be 12 3f 5b 3e df fb 8d 3e a6 76 c9 3c
       -0.18199788 0.21410778 0.27731225 0.024592709
0001e0 c2 18 14 3d f5 e4 d2 bc d7 86 8e 3e 1c ea 7a 3e
       0.036156423 -0.02574394 0.2783725 0.24503368
0001f0 3f ac d3 3d 67 5a d4 3d 2b 37 d4 3c 93 0c bf bd
       0.10335588 0.103688054 0.025905212 -0.0932857
000200 5b 75 8a bc 63 09 a9 3b 65 1a 70 bc 99 77 95 3d
       -0.016901663 0.0051585897 -0.01465473 0.07298202
000210 65 2d 1e 3d 8a be a1 bd 73 9b f3 bc 53 b0 e7 3d
       0.03861751 -0.078976706 -0.02973721 0.11312928
000220 e1 0e 5f 3b be 6f d3 be 23 88 09 3e ff 64 2e bd
       0.0034035968 -0.4129619 0.13430838 -0.042576786
000230 47 f3 46 bd e1 e8 21 be 17 92 81 bc e5 e9 a1 3e
       -0.04857185 -0.15811493 -0.015816731 0.3162376
000240 94 32 e6 bd bc 52 9c 3d fe ea 61 be 99 c8 5b 3d
       -0.11240116 0.07632968 -0.22062299 0.0536581
000250 97 19 d3 3d de d5 3a 3d d8 ad ba 3d 57 a6 94 3d
       0.10307615 0.045614116 0.09115189 0.07258289
000260 17 98 89 bb 63 f5 11 bd 63 71 de 3d 44 04 48 3d
       -0.0041990387 -0.03563441 0.108614706 0.048832193
000270 85 74 43 3d a2 10 68 3d fa 5d 2d bd ee f1 cb bd
       0.047718544 0.056656487 -0.04232595 -0.09958254
000280 03 53 a0 3d 58 26 c0 b8 e7 34 50 be fd be 73 bb
       0.07828333 -9.1624155e-05 -0.2033268 -0.0037192695
000290 6c 69 ad bd 86 52 53 3d 30 95 85 3d 10 8b 79 bd
       -0.08467373 0.051592372 0.06522596 -0.060923636
0002a0 97 ee 65 bd 92 80 08 be 43 73 93 3d 3f e6 d7 3d
       -0.05613574 -0.13330296 0.07199719 0.10541963
0002b0 d2 8a 0a be df 30 a2 bd ab de f4 3d 5c 6a e1 bb
       -0.13529518 -0.07919478 0.11956533 -0.006879134
0002c0 77 fd b2 bc e7 84 a5 3d 25 c8 08 3c c3 36 54 3d
       -0.021849377 0.0808199 0.008348499 0.051810037
0002d0 f6 99 69 bc 59 42 66 3d 1c 42 84 3d 09 62 26 3e
       -0.014257899 0.056215618 0.06457922 0.16248335
0002e0 62 11 b2 3d b6 7d 27 bc 70 60 07 3d 56 50 a3 3d
       0.08694722 -0.010222843 0.033050954 0.07974307
0002f0 d5 bb 2d 3e e0 68 34 3b f5 61 d7 bd be 4f 27 be
       0.16966183 0.002752833 -0.10516731 -0.16339013
000300 60 1e 83 bd 26 53 c9 bd 23 fc f8 3b 8a f2 b9 bd
       -0.06402278 -0.098303124 0.0075984164 -0.09079464
000310 86 c7 82 be 63 96 e8 bd a0 d7 71 3d cb 3b 79 3d
       -0.2554285 -0.11356809 0.059043527 0.06084804
000320 1d f1 9b 3d 5b 93 ba bb 82 7c 4b bc d8 3a 2c 3d
       0.07614348 -0.0056938357 -0.012419822 0.042048305
000330 76 52 8a bd 0d 06 4f bd 51 cf 28 3d c7 d6 bf bd
       -0.067540094 -0.05054288 0.041213337 -0.093671374
000340 d7 80 3c bd 63 f0 1d be e7 87 0e 3d 0d d0 2c 3f
       -0.04602131 -0.15423732 0.034797575 0.6750496
000350 18 89 c6 be 10 f0 d5 be 77 59 45 3e 04 18 40 3d
       -0.3877647 -0.41784716 0.1927241 0.046897903
000360 ad 5f 37 bd bf 53 2d bf b8 ed 45 be 70 f3 fe 3c
       -0.044768978 -0.6770591 -0.19328964 0.03112194
000370 97 50 84 bd 49 cf 47 be 37 b3 c9 be 4f 48 04 bf
       -0.06460684 -0.19512667 -0.39394543 -0.51672834
000380 36 e4 b9 bd 92 2c 1c bd b3 b4 2e 3d 99 93 36 3d
       -0.09076731 -0.038128443 0.042652797 0.044574354
000390 96 b1 0e 3c 53 5c 06 3e 76 a8 71 3c 15 ea 59 be
       0.008709332 0.13121156 0.014749637 -0.21280701
0003a0 84 65 6e 3e 1e 83 3e 3e 40 df d5 ba 5c 5f 80 3c
       0.23280913 0.18604705 -0.0016317144 0.01567047
0003b0 9a 21 06 3e 96 34 b0 3c 21 a4 04 3f e2 b6 bc 3b
       0.13098755 0.02150945 0.5181294 0.005759106
0003c0 5f a7 21 be a6 0c 7f 3e ef ff af 3e 0e 9d 26 3f
       -0.15786503 0.24907169 0.3437495 0.65083396
0003d0 9f f9 9f 3d 52 08 4d 3d 0a 56 ed 3d 0d 61 ce 3e
       0.07811283 0.050056763 0.11588676 0.4030842
0003e0 62 e2 de 3d 2c 42 4c 3d f0 37 d1 3b b8 21 a2 3c
       0.10883023 0.049867794 0.006384842 0.019791469
0003f0 cf d0 47 3d d3 3b 08 3e 66 a6 3c bc ce 55 09 bc
       0.04878312 0.13304071 -0.011514282 -0.008382274

conv2.bias f4 [16]
000000 94 2c f2 3e 32 75 27 3f 76 f3 44 be 80 25 19 3f
       0.47299635 0.654132 -0.19233498 0.59822845
000010 d7 0e d7 3e 4f 0b 87 3e 81 77 19 3e 5e 9f 07 bb
       0.4200351 0.26375815 0.14986993 -0.0020694355
000020 27 86 52 be 3f e1 42 be ac c3 f9 be 22 77 e0 3d
       -0.20558988 -0.19031237 -0.48782098 0.10960223
000030 92 c6 cf be 40 01 06 be df 6a bd 3d c3 73 37 3f
       -0.40581185 -0.13086414 0.092489 0.71661013

dense1.weight f4 [120, 400]
000000 03 25 73 bd 8f c5 15 bd 11 0f f1 bd 61 f8 cc 3c
       -0.05936147 -0.03656536 -0.11770452 0.02502078
000010 12 3a 1b 3d b5 39 72 bc 81 aa f7 bb 57 fa 50 3d
       0.037897177 -0.014784266 -0.0075581674 0.051019993
000020 f5 68 9d bd 85 63 7e bb 58 e4 33 3d 55 3f 8d 3d
       -0.076860346 -0.0038816642 0.043918937 0.06896845
000030 97 19 9e be 93 fa 08 bd 48 46 06 3d e7 ec a4 3d
       -0.30878899 -0.03344209 0.03278187 0.08052998
000040 80 bc 2a 3e 91 37 e5 bd 3b cc 11 3e 66 44 f2 3c
       0.1667347 -0.11192239 0.14238064 0.02957363
000050 c7 2a bd 3c e0 d1 a6 3d 55 32 78 3d bb 52 13 3a
       0.023091687 0.08145499 0.060594875 0.0005619933
000060 18 35 0b bd f7 8c 47 bd 72 17 90 3c d1 34 c5 3d
       -0.03398618 -0.04871842 0.017589305 0.096292146
000070 a1 12 80 3c e0 93 14 3c ef 81 4d bc 49 40 de 3b
       0.015633883 0.009068459 -0.012543186 0.0067825657
000080 eb 5b 23 bc af 17 a1 37 d6 f5 bf bc 75 e6 fd bd
       -0.009970645 1.9203724e-05 -0.023432653 -0.12397472
000090 ff 25 65 3e d4 b0 8b be de eb 87 be 13 cd 31 3d
       0.22377776 -0.27283347 -0.2654714 0.043408465
0000a0 86 15 7b bd a3 6c c9 3b 67 2d 9e 3d 8e c5 8a bd
       -0.061299823 0.0061469837 0.077235036 -0.06775962
0000b0 ac f6 bc 3d ae fe 8d bd 3a 8e be bd 46 17 46 bd
       0.092267364 -0.06933342 -0.09304471 -0.04836204
0000c0 3f f7 13 3d 3b e0 c8 3c 9b 62 00 bd ca ae f0 bb
       0.036124464 0.024520984 -0.031344038 -0.007345055
0000d0 83 4b e7 bd ef 44 81 bd 62 ae 06 3c d9 d6 ca 3b
       -0.112936996 -0.06311976 0.008220287 0.0061901626
0000e0 4b bf 96 bd d5 c3 5f be 85 3e 1a be 0d db f8 bc
       -0.07360705 -0.21852048 -0.15062912 -0.030377889
0000f0 ba 4c 20 3d 0b 0c dd be 92 c5 1c be 1b 3d b8 3d
       0.039135672 -0.4317325 -0.15309742 0.0899603
000100 fd ed b9 3d fc de 6c 3d 2d c5 58 be 6b 26 a5 be
       0.09078596 0.057829842 -0.21168967 -0.32255873
000110 fa cd 3d 3d 10 60 44 3d ee 32 6d bd 4c 28 44 bd
       0.046339013 0.047943175 -0.0579099 -0.047889993
000120 9b 4e b2 3b 88 0d c7 3c 9a 2d 49 3c f7 1f bb 3c
       0.0054414994 0.024298444 0.012278939 0.02284239
000130 1e 21 48 bb 88 cc ae 3b 45 07 98 39 2f 54 94 bb
       -0.0030537318 0.0053344406 0.00028997115 -0.004526637
000140 eb ec 9f 3c 11 c7 01 bb 36 cc 8c bd 83 9d 0f 3c
       0.019522151 -0.001980249 -0.06874888 0.008765581
000150 d4 d7 52 3d 91 35 a1 bd e9 47 cb 3d d9 e2 3e be
       0.05147536 -0.07871545 0.09925825 -0.18641223
000160 e4 3f bb 3d 0c bc 79 3d 33 b9 da bd 4f 13 c3 be
       0.091430455 0.06097035 -0.10679855 -0.3810067
000170 ae fb 31 be 18 5c 12 3e 3d 84 25 3d a8 69 a7 bc
       -0.17381164 0.14292943 0.040409315 -0.020436123
000180 f9 0d 77 bc 75 f4 ae 3d 60 1a c6 ba aa 05 06 bd
       -0.015079015 0.0854272 -0.0015114062 -0.032720245
000190 19 a7 3e bc b0 a5 50 bc 0c ef 04 bc 5a 6e 56 3d
       -0.011636519 -0.0127348155 -0.008113634 0.052351333
0001a0 2e 20 85 3a 9b 20 34 3d 28 74 27 bd be 6b 1f 3e
       0.0010156685 0.043976407 -0.04088226 0.15568444
0001b0 6c ce 9b 3d 80 39 d9 bc 0c 1c 00 bd 30 71 81 be
       0.07607731 -0.026516676 -0.031276748 -0.25281668
0001c0 d6 c9 92 3c b3 98 90 3e a0 d1 b1 3d 71 cf d8 bc
       0.017918508 0.282415 0.08682561 -0.026466103
0001d0 c2 25 85 3e ed fc 75 3e 52 a8 9e 3d 37 34 25 3d
       0.2600537 0.24022265 0.07746948 0.040333
0001e0 bc 45 8c 3d 6b 71 21 3d e4 43 26 3e 03 96 03 bd
       0.06849238 0.039414804 0.16236836 -0.032125484
0001f0 1d e5 a3 bd e2 a1 04 3d 03 4f 94 3d 8e 9c 1a 3d
       -0.08002684 0.032380946 0.07241633 0.03774696
000200 dd 7c 0b 3d 52 88 c2 3d d2 29 09 3d 25 8b a4 3d
       0.034054626 0.09498657 0.03348715 0.08034352
000210 a4 ef 1c bd 45 43 ae bc b8 eb 23 3e b8 5f 58 bb
       -0.038314477 -0.021272311 0.16007888 -0.0033016037
000220 81 cb 1d be 24 a3 31 bf d0 29 3b 3e 91 20 95 3d
       -0.15409662 -0.6938956 0.18277669 0.07281602
000230 90 28 40 3d 16 8f eb 3d 53 e2 b3 3d 1e c7 70 3d
       0.046913683 0.11501901 0.08783402 0.058783643
000240 43 93 fa bb 5d f0 fe bc f8 34 90 3c c5 e1 19 3c
       -0.0076469495 -0.031120474 0.017603382 0.009392207
000250 57 06 82 bc 9a b3 10 bb d6 85 08 3c d4 2e 6a 3d
       -0.015872164 -0.0022079707 0.00833269 0.057173565
000260 42 9c 41 bd b9 03 83 bd 21 a5 53 bd 62 91 b7 bb
       -0.04726816 -0.063971944 -0.05167115 -0.005602048
000270 40 58 4e 3e 50 ed 21 be 71 28 2b bd b9 dc 1c 3c
       0.20150852 -0.15813184 -0.041786615 0.009574109
000280 bd 62 78 bd 2c bf 81 3e fa 4c bb 3e 3a a5 a9 3b
       -0.06064104 0.25341165 0.36582166 0.0051771672
000290 b1 cd c1 bb b9 10 45 3c 04 1b 15 be d6 58 d1 3d
       -0.005914413 0.012027913 -0.14561087 0.10222022
0002a0 21 9d 26 bc 56 1c d8 bc 3f cc 6d bd 24 77 78 3d
       -0.010169298 -0.0263807 -0.058056112 0.060660496
0002b0 fe 5c 73 3d 3a b6 1f 3d 87 fc bb 3b c0 9f 96 3d
       0.059414856 0.038992144 0.0057368907 0.07354689
0002c0 58 32 de 3d 65 b4 c6 bd 04 c8 2b 3d e7 5e ac bc
       0.10849446 -0.09702376 0.041938797 -0.021041347
0002d0 49 98 2b 3d 4e 44 0f 3e ed 1f a0 3d bc 72 8e 3c
       0.041893277 0.139909 0.07818589 0.017388694
0002e0 1c bd 5a 3c 6f 78 bd bc ae dc 6e be 50 71 de bd
       0.013350751 -0.023128716 -0.2332637 -0.108614564
0002f0 a2 5f 06 3e e3 d1 e2 3d be c1 d6 3b 54 ad 10 3c
       0.13122419 0.11075189 0.0065538576 0.008830387
000300 90 e7 ca 3d 9f 6b 34 3b 85 6c 4a 3d d8 78 0b bd
       0.09907448 0.0027529967 0.0494199 -0.034050792
000310 32 1c 07 3d 02 6d 27 3d 76 9c a6 bc 90 ea 8e bc
       0.032985874 0.040875442 -0.020338278 -0.017445832
000320 aa 9b 34 bc d3 2c cd 3b d1 bb 83 3c 47 e1 14 bd
       -0.011023441 0.006261447 0.016080769 -0.036347654
000330 7a 56 d3 3c 40 fa 6a 3d d9 aa 88 3d 02 4a 64 be
       0.025798071 0.057367563 0.066732116 -0.22293857
000340 56 ee 5f bd c5 93 b8 3c 98 f8 72 3b 5f 12 a8 be
       -0.054670654 0.0225314 0.0037074443 -0.32826516
000350 de f8 c0 be 81 44 0a be 9c b4 b1 3d 21 c6 ef bc
       -0.3768987 -0.13502695 0.08677027 -0.02926928
000360 08 32 34 be 5a 41 62 3c fc 33 4d 3c 86 d7 fd bc
       -0.1759721 0.013809526 0.012524601 -0.030986559
000370 82 15 f3 3c 29 19 3e bd da 5e a1 3d 78 9a d2 3d
       0.029673342 -0.046410713 0.078794196 0.10283369
000380 bb d8 78 bb f9 9f a6 bd 62 86 a5 bd c4 a1 ee 3b
       -0.0037970978 -0.08135981 -0.08082272 0.0072824676
000390 91 64 5e 3d 09 4c 32 3c c8 eb 28 be 12 36 53 be
       0.054295126 0.010882386 -0.16496193 -0.20626095
0003a0 57 7c 02 be 83 66 a2 3d de 36 ef 3d 19 8a 82 bd
       -0.12742744 0.07929709 0.11680387 -0.06373996
0003b0 b8 3b a0 bc 6e ba bb bb 8f 69 2d 3d a4 cf 1c 3e
       -0.019559726 -0.0057290113 0.042336997 0.15313584
0003c0 3c fe 21 3e 59 df 49 3e dd 96 86 3d c4 11 a8 3d
       0.15819639 0.19714107 0.06571744 0.082065135
0003d0 04 ad e7 3d 51 bc 36 3d 25 19 88 3d 34 b4 17 3e
       0.11312297 0.044613186 0.06645421 0.14814836
0003e0 f7 d2 c3 3d 70 f3 2f bd fa 92 ec bc 39 2a c6 3a
       0.09561723 -0.04295677 -0.028878678 0.0015118785
0003f0 5f e7 7b 3d 9d b0 b3 3c fc c1 33 bd d4 fe 5a 3c
       0.06149995 0.021934802 -0.04388617 0.01336642

dense1.bias f4 [120]
000000 39 53 c4 bd e6 a4 80 bc c7 1e a4 be 61 c6 fa bb
       -0.09586186 -0.01570363 -0.3205473 -0.007653043
000010 9f 20 cd 3d a1 de e3 bd 42 10 93 bd 95 ef da bc
       0.100159876 -0.111264475 -0.07180835 -0.02672557
000020 6e c6 dc be bf 5a 37 3e 1f f0 6f 3c 3d 4e 27 3c
       -0.4312014 0.1790571 0.014644652 0.010211525
000030 3a 67 93 3b 87 2e 6a bd d0 5b 20 3c f0 43 4d be
       0.0044983895 -0.05717328 0.009787515 -0.20045447
000040 16 4b 13 3e fd a3 8c bc 51 54 0d bf 99 f7 64 bd
       0.14384112 -0.01716804 -0.5520678 -0.05590019
000050 04 02 af 3d 48 8f cc 3e 31 11 75 3e 4b 44 57 bb
       0.08545306 0.39953065 0.23932339 -0.0032847102
000060 bf eb 91 bd ca 0d 44 bc f9 d9 34 3d fe 3e af bd
       -0.07125043 -0.011966178 0.044153187 -0.08556937
000070 09 21 74 3c 61 a9 39 3e d9 a4 86 bc f6 97 62 3d
       0.014900454 0.18131019 -0.016436027 0.055320702
000080 af 96 29 3e fb c0 83 3e 27 c4 6f 3e 40 ce d5 3c
       0.16561387 0.2573317 0.2341467 0.026099324
000090 09 3d 68 3e 62 ea 16 bc b4 be 5f bc f3 7b 75 3d
       0.22679533 -0.009211155 -0.013656307 0.05993266
0000a0 8f e0 67 bd 5c 92 9b bc 59 88 67 3e 9d ce 31 3d
       -0.05661064 -0.018990688 0.22610606 0.043409932
0000b0 e7 7b a8 3d b4 fd e2 3c 66 f5 9d 3e 78 ca 02 3f
       0.082267575 0.027708866 0.30851287 0.5109019
0000c0 65 6c 63 bd 54 a0 02 3e c2 84 43 3e 4b 16 a5 be
       -0.055523295 0.12756473 0.19093612 -0.3224357
0000d0 37 b5 98 3d 70 a5 76 bd 9f a5 27 bd a2 d5 21 3e
       0.07456439 -0.060216367 -0.040929433 0.1580415
0000e0 a4 ab aa bd 41 77 85 bb d4 d6 08 3e 7d 24 a2 be
       -0.08333519 -0.004073054 0.133632 -0.31668463
0000f0 bc d9 3a be 02 09 26 3c 98 bd 0e bc b4 02 90 3e
       -0.18247122 0.010133984 -0.008712195 0.28127062
000100 29 d6 25 3e 4d 52 ec bc b1 ae 18 bd 54 62 ea 3d
       0.16194977 -0.028847838 -0.037275974 0.11444536
000110 9f 20 2b bd f8 1a 5a 3c 7b 56 06 3f df 8b 21 bd
       -0.041779157 0.013312094 0.5247571 -0.039440032
000120 ae d7 99 be 11 be d7 3a 25 a3 37 bd eb c9 a5 bd
       -0.30047363 0.0016459842 -0.04483332 -0.080951534
000130 b6 12 1e 3c d4 d5 12 3d a6 fe 4a bd 68 fe e8 3c
       0.009648016 0.035848454 -0.049559258 0.028441623
000140 58 76 40 3e 4a 61 c1 3e c3 c2 fd 3d 14 6f 86 3c
       0.18795145 0.37769538 0.123906635 0.016410388
000150 f5 d8 64 bd 0a 99 2a 3d 7c 34 01 3d 99 65 cf bc
       -0.05587097 0.041649856 0.031544194 -0.025317
000160 b2 2e a8 bc 73 79 d5 bb 55 0f 3b bd 88 34 b5 bc
       -0.020530079 -0.006514722 -0.04566892 -0.022119775
000170 7b 69 0f bd ce 05 4d 3e e9 4b 17 bd 09 f2 e2 3c
       -0.035012703 0.20021746 -0.036937628 0.027703302
000180 fc dc ea bd e3 1c 4a bc 20 06 9d 3e 57 bd c2 bc
       -0.11467931 -0.012335989 0.30668736 -0.023771925
000190 7a 01 d1 bc d8 ff 50 3c d8 7f 25 be 39 98 96 bd
       -0.0255134 0.01275631 -0.1616205 -0.07353253
0001a0 c1 db 71 3d 28 35 b8 bd 57 e6 ca 3b 6b 98 af 3c
       0.059047464 -0.08994514 0.0061920094 0.021434983
0001b0 d9 7c c6 3d 1c 74 a4 bc 61 b5 b8 3d 94 b8 fb 3d
       0.096917816 -0.020074897 0.0901897 0.12291065
0001c0 4f 9e 85 3a 09 b0 02 3d b1 1c 79 bc c9 75 88 bc
       0.0010194274 0.03190616 -0.0152045945 -0.016657727
0001d0 61 ed cb 3c 13 42 53 bc f6 89 4f ba 63 92 6f 3c
       0.024893465 -0.012894171 -0.0007916981 0.014622304

dense2.weight f4 [80, 120]
000000 9f ec ba bd cf 7d 12 3d d3 f2 24 3e 93 41 7d bc
       -0.09127163 0.03576451 0.16108255 -0.015457529
000010 1e ab 18 3e a6 7b ee 3d ac 02 d5 3c f3 05 ad 3c
       0.14909026 0.11644678 0.02600225 0.021121
000020 42 14 1a bc 7a fc 61 3e e3 dd 8f 3c 94 bb 2e 3d
       -0.009404244 0.22068968 0.017561859 0.042659357
000030 be bf da bc d7 3e cf 3c 6b c9 9c 3d 98 b0 2f 3e
       -0.026702758 0.025298519 0.07655605 0.17157209
000040 78 29 a6 3c 24 86 bc 3b 2c 0f 4f bd 23 d1 f1 3d
       0.020283446 0.0057532955 -0.05055158 0.11807468
000050 5a 6f 18 3b 25 12 df 3d 84 2a 6f 3e ac 9e fe ba
       0.002325973 0.10892133 0.23356062 -0.001942595
000060 5f c0 ad bd f0 1d c2 bd 70 34 aa 3c a4 90 14 be
       -0.084839575 -0.094783664 0.020776957 -0.14508301
000070 e9 8e 54 3d 67 aa 35 be 52 13 3c 3e 99 d0 41 3e
       0.051894102 -0.17740785 0.18366745 0.1892723
000080 53 f8 bc 3d 6d 39 d4 bc c1 25 63 3e 70 a8 8b bd
       0.092270516 -0.025906289 0.2218237 -0.06819236
000090 c1 47 0d 3e 14 31 61 3d fd 5d b3 bd 58 8e cd bd
       0.13796903 0.054978445 -0.08758161 -0.100369155
0000a0 79 82 25 3d 5a bb 89 3d cf 0a ef bd 65 69 43 bd
       0.04040763 0.067251876 -0.116719835 -0.047707934
0000b0 cb 9e 21 bd 65 27 db 3c a6 ab 6f 3d 69 1f 13 3e
       -0.039458077 0.026752183 0.058513306 0.14367451
0000c0 de 98 a9 bc a3 6f bd bc 45 4e 1b be 05 07 f9 3d
       -0.020702776 -0.023124522 -0.15166576 0.12159542
0000d0 51 a0 e4 bc 91 0e 1e 3e f5 c0 b8 bd d9 ae 8f bd
       -0.027908476 0.15435244 -0.09021179 -0.070157714
0000e0 2c 4e 1f bd b8 12 a8 bd 3f 95 2a be c3 bb 81 3b
       -0.03889291 -0.08206695 -0.16658495 0.0039591505
0000f0 d6 64 3a 3e 64 ff 3b bd 48 32 ce 3c e0 8c d9 bc
       0.18202528 -0.045897856 0.02517046 -0.026556432
000100 a2 10 81 bc 3b 4f ce 3d 4e 69 11 be d0 45 81 3b
       -0.015755001 0.10073706 -0.14200327 0.00394509
000110 00 21 61 3d 2f 33 ac 3d d7 1d b4 3d 97 ad 3c bc
       0.054963112 0.084082 0.08794754 -0.011515996
000120 75 b5 1b be e2 2a 85 3d a2 c4 88 bd 2f 74 3d 3e
       -0.15205939 0.0650232 -0.0667813 0.18501352
000130 08 9d a2 bd e3 3a 51 3d 4c 33 40 bd 97 f8 0b bd
       -0.079401076 0.05108155 -0.04692392 -0.03417262
000140 a3 69 04 bd eb db 00 3e b4 48 10 3e 26 6a 3c bc
       -0.032327306 0.12583892 0.14090234 -0.011499917
000150 6e 56 77 3d 5c c0 47 3e 84 63 39 3d 3e 64 87 3b
       0.06038516 0.19506973 0.04526092 0.004131823
000160 bb 70 87 3d 83 06 17 bd 2c f0 15 bd 61 01 8a bd
       0.066132985 -0.036871444 -0.036606 -0.06738544
000170 73 8a 7a 3d 09 e1 bc 3d 0e 10 a0 bc 14 a6 9e bd
       0.06116719 0.092226095 -0.019538905 -0.07746521
000180 0c 60 49 bd 94 f0 b8 39 ff a6 91 3b 50 97 84 bd
       -0.049163863 0.0003527446 0.0044449563 -0.06474173
000190 ec d2 d4 3d 44 41 ae 3d 0b 2d 04 be 72 3d 15 3d
       0.10391793 0.08508542 -0.12907808 0.036435552
0001a0 2c 3e e7 bd 35 3e 45 3b 67 78 f4 3c db 6b 5c 3c
       -0.11291155 0.0030096893 0.029842569 0.013453449
0001b0 09 a4 88 bc 6e 68 e4 bc 60 f5 22 3e 7e 7f 45 3b
       -0.01667978 -0.027881827 0.15913916 0.0030135806
0001c0 3c 16 7b 3d 4a 53 c6 bd 47 dc 54 be d2 74 ad 3d
       0.0613005 -0.09683855 -0.20787154 0.08469547
0001d0 24 2a a7 3d 3d 46 de bc 89 8b c4 bd 39 a4 38 3c
       0.081623346 -0.027133102 -0.09596927 0.0112696225
0001e0 80 31 1d bd 47 d9 65 bd 69 9c 5a bd cd cc 9f 3c
       -0.038377285 -0.056115415 -0.05337182 0.019506836
0001f0 56 8c be bc 81 42 c2 3c 44 7c 94 bc bc 42 97 bd
       -0.023260277 0.023713352 -0.01812566 -0.073857754
000200 5b d9 8f 3d b2 7d a9 bd 61 17 79 3d 53 12 5f 3c
       0.07023879 -0.082759276 0.06081331 0.013615209
000210 33 4a e3 bc e1 1a 35 bd 9a d7 0e bd f5 ac ec bc
       -0.027745342 -0.044215087 -0.034873582 -0.028891066
000220 f5 80 aa bd 5e 77 93 3d 29 5b 59 bc 67 f9 bf 3c
       -0.08325378 0.07200502 -0.013266363 0.023434354
000230 a7 a8 2c bd 1e bc d3 bd 79 04 59 3d ba 02 9e 3d
       -0.042153027 -0.10338615 0.05298278 0.07715364
000240 e0 47 a3 3c 28 e0 9b bd 37 8f 4d bd 14 07 15 bd
       0.019931734 -0.07611114 -0.05018541 -0.036383703
000250 99 b5 91 3c f0 c4 a5 3c f7 c5 34 bc 47 30 3d bc
       0.017786788 0.020235509 -0.011033527 -0.011547155
000260 6b 57 d5 bd bf 93 9c bc e9 ae 73 bd 00 e7 a8 bc
       -0.10417064 -0.01911342 -0.05949298 -0.020617962
000270 b6 97 8f 3d 31 19 2a 3d 0b 17 12 bd f9 cb f3 3c
       0.070113584 0.04152793 -0.035666507 0.029760348
000280 76 fc 53 3c f2 25 a9 bd b7 32 9a bd 80 c4 7b 3c
       0.012938609 -0.082591906 -0.07529204 0.0153666735
000290 bc 84 29 3d 86 28 84 bc 39 fd bd bd ac 86 f2 3c
       0.04138635 -0.016132604 -0.09276814 0.029605232
0002a0 93 8a c2 bb e7 8d 0b bd a8 82 e9 bc 46 27 9b bd
       -0.0059369295 -0.034070875 -0.028504685 -0.0757585
0002b0 94 d1 00 3d b1 dd 67 3d 7b 70 97 3d 4c fa a1 bb
       0.03144987 0.056607906 0.07394501 -0.004943168
0002c0 c1 1e 89 3d c4 9b 41 bd 36 a5 43 3d bf 3e 4b bd
       0.06695319 -0.04726769 0.04776498 -0.049620386
0002d0 02 44 b1 bd 3c ff ba 3c 9f 01 47 bb d6 7f 6b 3d
       -0.086555496 0.022826783 -0.0030365956 0.05749496
0002e0 f3 48 fe bc a4 78 a3 bd da 59 6a bd 63 85 e9 bd
       -0.031040644 -0.07981995 -0.057214595 -0.114023946
0002f0 ee b7 05 bc 19 d2 06 3c 50 22 dc 3c 4d cb 68 3c
       -0.008161528 0.008228802 0.02687183 0.014208627
000300 ef b8 29 bd e2 74 b7 bc 54 c8 99 3d de 9c 8e bd
       -0.041436132 -0.022394601 0.07508913 -0.06963514
000310 ba 15 1b bd 69 b4 49 3d a6 8b 08 3d 3f 64 4d 3c
       -0.037862517 0.04924432 0.033336304 0.012536108
000320 79 60 a1 bd d4 85 28 bd e7 f7 eb 3c ea c9 77 bd
       -0.07879729 -0.041143253 0.028804732 -0.060495295
000330 bf c2 e2 bc 00 47 8f bd 7d 49 8d 3d c4 02 8b bc
       -0.027680753 -0.06995964 0.068987824 -0.016969092
000340 80 60 78 3d 68 ad 9e 3c d6 e7 45 3c c0 9c 7a 3d
       0.060638905 0.019369796 0.0120792 0.061184645
000350 57 eb 14 3d 10 84 c1 bc bf aa ce 3c 9b f2 88 bd
       0.03635725 -0.023622543 0.025227902 -0.06686898
000360 8c f9 86 3c 22 a6 10 bd e3 c7 f6 bc 2e a6 01 3d
       0.016476415 -0.035314687 -0.03012461 0.031652622
000370 25 dd 61 3d c6 c9 57 3d 8a dc 8d bd 56 e9 b4 bd
       0.05514254 0.05268266 -0.0692683 -0.08833568
000380 45 11 76 3c 34 f1 95 bd f8 17 6e 3d 4e 0e 73 bd
       0.015018766 -0.073213965 0.058128327 -0.059339814
000390 08 ae a4 3c 3c f3 8b 3c 31 70 c9 3c 42 fb e7 bc
       0.020102516 0.017083757 0.02458963 -0.028318051
0003a0 da f7 aa bc 01 0f 9f bd 8c c9 5d bc eb e1 46 bc
       -0.020870138 -0.07766534 -0.013536822 -0.012138824
0003b0 b3 d3 6b bd af bb 42 3c 47 7a db 3c 6d 74 c5 3b
       -0.05757494 0.011885568 0.026791705 0.006025842
0003c0 2c 2f 49 3d 70 98 87 3d 0a dc 76 3d 52 f2 a5 3c
       0.049117252 0.06620872 0.06026844 0.020257149
0003d0 f1 25 09 be 54 13 a2 3d ff 6f 95 3d 69 4f 3b 3d
       -0.1339338 0.07913843 0.07296752 0.04573003
0003e0 be a5 1c 3d 2e c1 7d be 52 68 94 bb d4 e6 d4 bc
       0.038244 -0.24780723 -0.0045290375 -0.025988974
0003f0 da 5f 27 3d 50 83 ba 3c db 1f 89 bd 06 c9 ee 3d
       0.040862896 0.022767693 -0.06695529 0.11659436

dense2.bias f4 [80]
000000 b9 57 50 3e 51 25 4d bb a7 9b 71 be 45 09 62 bc
       0.20345964 -0.003130276 -0.23594533 -0.013796155
000010 09 72 c6 3c c6 d9 9f 3d a8 ce 4c be 3b 96 63 3e
       0.024224298 0.07805209 -0.20000708 0.22225277
000020 b9 3c f5 3c 54 e3 7f 3d 3f 2e 82 be 0c 6e e1 3b
       0.029936181 0.062472656 -0.25425908 0.0068795737
000030 8d 83 87 3d ee 32 f7 bb fc e0 9b bd 36 1e 5a bd
       0.06616888 -0.007543913 -0.07611272 -0.053251468
000040 bb df ba 3e 49 04 41 bd 4e f6 19 bd bd 7b 52 3d
       0.36498818 -0.047123227 -0.03758841 0.051387537
000050 a1 94 c7 3d 26 0b 1f 3d 64 7f 54 3d c3 4b 6a bd
       0.097451456 0.03882899 0.0518793 -0.05720116
000060 b9 6d ea bd 3f 40 40 be 0c 48 c6 bd 0e 08 f8 3e
       -0.11446709 -0.18774508 -0.096817106 0.48443645
000070 ff 8d 2e 3d d5 d7 82 be 70 36 2b 3e 40 9d 34 b9
       0.042615887 -0.25555292 0.16719985 -0.00017224718
000080 04 bb d4 3c ce 48 46 be e8 09 1d bd 3a 18 48 bc
       0.025968082 -0.1936371 -0.038339525 -0.012212807
000090 ca 28 03 3e b3 98 39 bc 3f 53 b8 bd 65 d8 53 3e
       0.12808529 -0.01132791 -0.09000253 0.20688017
0000a0 5b 84 78 bd 94 59 4e 3e 7c 4d fb 3b b5 84 3a 3d
       -0.0606731 0.20151359 0.007669149 0.045536716
0000b0 0f 92 cf 3d c5 ae 63 3e 90 74 de bd d6 69 56 3e
       0.1013528 0.22234638 -0.10862076 0.2093881
0000c0 ab 5c 4d 3d fc 15 bb 3d f7 a7 fb bb c4 03 7b 3d
       0.050137203 0.091350526 -0.007679935 0.061282888
0000d0 e0 23 9c 3c ff be 86 bd 4e 13 00 3f 0d 30 c0 bd
       0.019060075 -0.06579398 0.50029457 -0.09384165
0000e0 28 de 66 be ce f8 d5 bc ec c7 18 3d 12 02 a2 bd
       -0.22545683 -0.026119616 0.037300035 -0.07910551
0000f0 f4 b4 ce bc 2c e9 14 3e ae 53 ec 3d 0d 16 61 3e
       -0.02523277 0.14542073 0.11539398 0.21981068
000100 02 ee b9 bc 03 75 bf 3e 50 99 2a 3e 62 be 34 3d
       -0.022696499 0.3739396 0.16660047 0.044126876
000110 75 3f 88 3e be 8e 80 3d ab ba cc 3e 23 03 8b bd
       0.26610914 0.06277226 0.39986166 -0.06787708
000120 17 4f a0 be 1b c7 53 bd 1c 66 01 3e df 2c bb bd
       -0.3131034 -0.051703554 0.12636608 -0.09139418
000130 ce 61 08 3e e8 6f 78 be 57 1b 79 3e b7 c9 c7 3e
       0.1331856 -0.24261439 0.24326836 0.39021084

final.weight f4 [43, 80]
000000 14 f5 7d bc 6c fb 79 3d f8 53 2a 3e ac 67 a8 bd
       -0.015500326 0.06103079 0.16633594 -0.08222899
000010 1f cd 75 bd f9 f0 2d 3d 89 c8 b3 be 75 d0 3a bd
       -0.06001007 0.042466138 -0.35113934 -0.045608956
000020 a2 04 8a be b1 a5 9a 3d 76 35 a2 ba f3 0c b5 be
       -0.2695666 0.075511344 -0.0012375552 -0.35361442
000030 30 58 56 be 0a 26 8b 3e 91 3c ee bd 92 5d 14 be
       -0.20932078 0.2717746 -0.11632646 -0.14488819
000040 24 56 62 bd 2e 36 ab 3d 4b ba b3 bd 3c ef 1e be
       -0.05525793 0.08359943 -0.08775767 -0.15520948
000050 de 89 44 3e 9c 27 4a bd 49 f1 45 be 8e c3 61 bd
       0.19193217 -0.04935418 -0.19330324 -0.055118136
000060 5f 86 20 3d 90 59 5d 3e 29 65 d0 3b 2e 7f 9c 3c
       0.039190646 0.21616197 0.0063597155 0.019103613
000070 6c 16 82 bd d3 67 9b be d1 2f 29 be 2d 54 40 bd
       -0.06351933 -0.3035265 -0.16522147 -0.046955276
000080 63 22 5c 3d 82 1f c2 bd 2c 61 bd bc 5b 3c 6c 3e
       0.05374373 -0.09478666 -0.023117624 0.23069899
000090 6d 7f da 3d c8 62 d4 bd 57 81 ae bc 67 99 b6 bd
       0.10668836 -0.103704035 -0.021301908 -0.08915978
0000a0 cb a9 8f 3d 8d 6d 8f be c3 01 ba bd 62 11 d4 3b
       0.07014807 -0.28013268 -0.09082367 0.0064717988
0000b0 93 bd cc be 7a c5 2f be dd c5 72 3e 70 3f 31 3a
       -0.39988384 -0.17165175 0.23708291 0.0006761467
0000c0 58 bd da 3a 2f c3 11 3e 27 92 18 3e 3b 4f 12 3d
       0.0016688509 0.14234613 0.14899503 0.03572009
0000d0 40 f1 9c 3d 20 c3 19 3d cd 03 2b be 08 4f 7a bc
       0.07663202 0.0375396 -0.16700669 -0.015277632
0000e0 5c 3c b6 bd d6 b5 4f bd 9a 1d 9c 3d 0e 89 9b bb
       -0.088982314 -0.05071052 0.076228335 -0.004746563
0000f0 9c f4 b5 bd 9d 9d 31 be 68 02 81 3d 7f b1 64 be
       -0.08884546 -0.17345281 0.06299287 -0.22333334
000100 0d ae d5 bd ec 70 8f bc 03 c5 be bd 8b 03 37 be
       -0.10433588 -0.0175099 -0.09314921 -0.17872445
000110 6a c8 77 3e 1d 86 5a bc 04 c5 4d 3e b1 4b 17 be
       0.24197546 -0.013337639 0.20094687 -0.14774968
000120 c2 76 09 3e cd 90 cd 3d 2b af a6 3d e1 d5 0b bd
       0.13424209 0.10037384 0.081388794 -0.034139518
000130 16 37 5d 3c a8 6b 22 be 89 6d e6 be 9a 7d 1a 3e
       0.013501903 -0.1586138 -0.45005444 0.15086976
000140 bd 94 c7 3d a8 6a 95 bc e1 6c 33 3c 02 16 43 bc
       0.097451665 -0.018239334 0.010951252 -0.011907103
000150 ca a4 29 be d4 ce a6 3d 9e 95 8a be dd a4 84 3d
       -0.16566768 0.08144918 -0.27067274 0.06476758
000160 d9 e8 36 be 79 d3 aa bc e5 75 6c 3c 3c 02 86 3d
       -0.17862262 -0.020852791 0.014432405 0.06543395
000170 a9 d8 14 be 2e b6 b5 3d 04 b5 1f be 4e 4a 07 3e
       -0.14535774 0.08872639 -0.15596396 0.13211939
000180 1d f7 3d bd 39 73 42 bd fa 94 a1 bd 4b 05 a6 bc
       -0.046378244 -0.047473166 -0.07889743 -0.020266196
000190 d4 58 96 3d b7 99 95 bb c4 97 10 3e 7f fb c2 bd
       0.07341161 -0.0045654434 0.14120394 -0.09520625
0001a0 1e 05 4a bd e1 d8 a2 bd 79 01 2d 3d 9f ae dc 3d
       -0.049321286 -0.079515226 0.042237733 0.10775494
0001b0 11 59 54 bd 2e ab 5d be 66 62 ea 3c 89 c2 ba 3d
       -0.051842753 -0.21647331 0.028611373 0.09119136
0001c0 a1 32 90 3d bc 5c 6d 3b 9b c5 47 3e 25 8d 90 3a
       0.07040907 0.0036218604 0.19508974 0.0011028392
0001d0 3a dc 8f 3d ee 4a 02 bd 6d 67 4b 3d 58 57 08 3e
       0.07024427 -0.03180974 0.04965918 0.13314569
0001e0 e0 e1 4f bd dd 44 52 be 47 95 bd bd 22 22 d1 3d
       -0.05075252 -0.20534082 -0.09256988 0.102115884
0001f0 ce ef 19 bb b5 75 2d bd 36 04 92 ba d3 f3 bd 3c
       -0.0023488882 -0.042348582 -0.0011140171 0.023187554
000200 26 60 34 bc 4f ea 8c 3d 69 41 cc bd 7f 98 c7 bc
       -0.011009252 0.06880628 -0.099734135 -0.024364708
000210 ea 93 0f bd ea 62 7e bd 38 9e 86 3d f8 71 0d 3c
       -0.03505317 -0.06210605 0.065731466 0.008633129
000220 60 a3 94 bd 44 3e 9b 3d b7 33 95 bd 99 bf f5 bd
       -0.07257724 0.075802356 -0.072852544 -0.11999435
000230 56 59 90 3d 44 3c 12 3d cc d2 fe 3c ee b6 e4 3d
       0.070482895 0.035702005 0.031106375 0.111677036
000240 3d 33 de bd 9d 40 57 3c 6b 96 05 3d 90 83 7c be
       -0.10849617 0.013137964 0.032614153 -0.24659562
000250 04 d0 05 bd 70 00 31 3d ae e9 e9 3d eb f2 f9 bd
       -0.032669082 0.043213308 0.11421524 -0.12204536
000260 38 13 c8 3d 90 ec 0b be fb 07 b8 3c fb 8a 48 bd
       0.09769291 -0.1366446 0.022464743 -0.048960667
000270 98 82 1f 3d 6d 59 e9 39 aa 1c 5b bd e0 f5 88 bd
       0.038942903 0.0004450785 -0.053494133 -0.06687522
000280 52 f0 80 3d c7 a8 89 bd c1 32 b9 bd 5f 10 5e bb
       0.062958375 -0.06721645 -0.09042884 -0.003388427
000290 a4 50 ac bd 96 41 44 3c 91 ac a7 be bb 09 19 bd
       -0.084138185 0.0119785275 -0.32748845 -0.037362795
0002a0 6e 26 a8 bc 15 f0 5b bd c5 38 8b 3d 40 b4 f2 bc
       -0.020526137 -0.053695757 0.06797937 -0.029626966
0002b0 22 5c ef 3d 66 c5 e7 bc ef e1 45 bb 0f ce 86 bd
       0.11687495 -0.02829237 -0.0030194481 -0.06582271
0002c0 95 26 b6 bc f1 61 7a 3d ee 09 36 bd e1 18 5b 3d
       -0.022235194 0.06112856 -0.044443063 0.053490523
0002d0 18 1d f3 3d e2 3b b2 3a 23 f1 8a bc 6f 6c e0 bd
       0.118707836 0.0013598169 -0.016960686 -0.10958182
0002e0 d8 7e 80 bd c6 32 c2 bd 1c b0 17 be 7f ab 50 3d
       -0.062741935 -0.094823405 -0.14813274 0.0509448
0002f0 07 03 cc 3c 7f e3 04 be 02 ff bd bd e8 eb b1 3d
       0.024903787 -0.12977408 -0.092771545 0.08687574
000300 a9 14 bc 3c c8 e6 11 bc 2e 8c df bc b6 0c 2e 3e
       0.02295907 -0.00890512 -0.027288523 0.16997036
000310 a6 00 b2 ba fd 8b 9d 3d 49 99 6c bd 15 d7 36 3d
       -0.0013580516 0.07692716 -0.05776337 0.044638712
000320 38 86 a1 bc d1 4e d9 bd fc 03 3b bb 57 d0 36 bd
       -0.01971732 -0.10610736 -0.002853631 -0.044632282
000330 3d 18 18 3e 29 e4 b0 3c d6 99 e9 bc af cb 52 bd
       0.14852996 0.02159317 -0.028515738 -0.05146378
000340 82 82 96 bc 56 f6 26 3e 73 b9 4a be a2 db d9 3d
       -0.018372778 0.16304907 -0.19797306 0.10637595
000350 4a 2e 21 3b 38 89 45 bd 7a e5 96 be 7c d1 e0 bd
       0.002459424 -0.048226565 -0.29471952 -0.10977456
000360 d5 50 01 bc 0f c4 eb 3c a7 91 e9 bc 45 86 2e 3d
       -0.007892807 0.028780011 -0.028511835 0.04260852
000370 db dc 2a 3e 64 b8 05 3d f1 ed 03 bd e0 79 aa bc
       0.16685812 0.03264655 -0.03220934 -0.020810068
000380 34 02 9a bd 05 01 63 3d 14 53 fc bd 3c ee 0a be
       -0.075199515 0.055420894 -0.123205334 -0.13567442
000390 a6 6c 33 be 1d 6f ec 3d 31 4a cb bd 72 22 a5 bd
       -0.17521915 0.11544631 -0.0992626 -0.080632105
0003a0 08 53 f9 3d df db e1 bd e2 32 6f 3d de 37 92 3d
       0.1217404 -0.11028265 0.058398135 0.07139562
0003b0 7b 0e 40 be 8b b1 00 3e 65 d7 be 3d 67 fc 10 bd
       -0.18755524 0.12567727 0.09318427 -0.03539696
0003c0 e4 fa f2 3c bd b0 15 3d a6 ac 6b 3d b8 75 22 bd
       0.02966065 0.036545504 0.057537697 -0.039663047
0003d0 d0 31 87 bd e6 a7 ef bc cb 55 52 3e ef 7c 7e 3c
       -0.06601298 -0.029254865 0.2054054 0.015532716
0003e0 03 2d 8a b9 56 bc 3e bd 4b 48 5b 3e 8a 7d 9c 3c
       -0.00026354947 -0.04656633 0.21414296 0.01910283
0003f0 51 4d ba 3d 0a fd b9 3d 68 f4 b7 3d ea 5c 1c 3e
       0.09096778 0.090814665 0.08982164 0.15269819

final.bias f4 [43]
000000 23 f8 2c be ca 22 22 bc 76 60 ee bc df b8 b3 bd
       -0.16891532 -0.00989599 -0.02909873 -0.08775496
000010 cb 23 08 3e e6 dd 16 3e 7d a7 ab 3e 7d 05 f6 bd
       0.13294904 0.14733085 0.3352622 -0.120127656
000020 93 63 95 bd 5e 57 d2 bc 3f e4 52 be 8a cd 8f be
       -0.07294383 -0.025676426 -0.20594881 -0.280865
000030 39 a6 38 3c 59 30 6d 3d 75 ce 3a bd ac c5 b8 3e
       0.011270099 0.057907436 -0.04560705 0.36088312
000040 1f c3 b9 bd 65 ab bc bd 9b ae ce 3e 29 49 6b be
       -0.090704195 -0.092123784 0.40367588 -0.22977127
000050 29 31 01 3e 99 b2 af be 3d 19 ef 3c 78 29 cb 3c
       0.1261641 -0.34315947 0.02918684 0.024800047
000060 e9 a4 cb 3e a9 c1 cb 3c 68 f4 8a be ba e3 ab 3d
       0.39774254 0.024872618 -0.27139592 0.08393045
000070 87 58 8c 3d 7c d8 77 bd 52 80 e0 3d 3c 0b a1 3e
       0.06852823 -0.06050919 0.10961975 0.31453884
000080 c7 cb 11 3d d6 95 b5 bd 3c b4 17 3c dd 97 93 3b
       0.035594728 -0.088664696 0.00925928 0.0045041875
000090 1f aa 11 bd 17 5c 23 3e 9a 4e 82 bc f5 9a d3 bd
       -0.03556263 0.15953098 -0.01590662 -0.1033229
0000a0 1e 8a cb bd 3e 6d 85 be 2d 83 48 be
       -0.09938453 -0.26059908 -0.1958129
