Robustness/models/base_epsilon_15.pth (torch, 259240 bytes, 10 tensors)

conv1.weight f4 [6, 1, 5, 5]
0	0xbca11d4c	-0.01966729
1	0xbcfc79a4	-0.030819722
2	0xbc9d2438	-0.01918231
3	0x3c41485f	0.01179704
4	0xbc549812	-0.0129757095
5	0xbc566cf4	-0.0130875
6	0x3adfd682	0.0017077478
7	0x3c7f1a3c	0.01557022
8	0x3cf4c306	0.02987815
9	0xbc1071e4	-0.008816216
10	0xbcebeb5b	-0.02879875
11	0xbc149baa	-0.009070316
12	0x3d39fe01	0.045408253
13	0xbd0bb0d9	-0.034104202
14	0x3d57c4e6	0.05267801
15	0x3b7b7174	0.0038367184
16	0xbd662f54	-0.05619748
17	0xbc2ba050	-0.010475233
18	0x3ec247d9	0.3794544
19	0x3e889a22	0.26680094
20	0x3c1db42e	0.009625478
21	0xbde6c973	-0.11268892
22	0xbbce8295	-0.0063021877
23	0x3f0c5295	0.5481351
24	0x3e9ea7ba	0.3098734
25	0x3c81c81e	0.015842494
26	0xbcf2fe15	-0.029662171
27	0x3b90245b	0.004398865
28	0x3d895ff7	0.06707757
29	0xbc3fff48	-0.011718579
30	0x3c6a8a7e	0.014315246
31	0xbd8bab8c	-0.06819829
32	0xbde960fa	-0.1139545
33	0xbd765fd7	-0.060149994
34	0x3cd27369	0.025689797
35	0xbbe9d0c1	-0.007135481
36	0xbde573ea	-0.112037495
37	0xbe99c315	-0.30031648
38	0xbd9c5e2c	-0.07635149
39	0xbd78eebf	-0.06077456
40	0x3cf30da8	0.029669598
41	0x3c241251	0.010014133
42	0x3cb2ad03	0.021811014
43	0xbdbd95fb	-0.09257122
44	0xbd83a316	-0.064275905
45	0x3abb592e	0.0014293545
46	0x3d022129	0.031769905
47	0x3d0b4247	0.033998754
48	0xbbb91d21	-0.0056492244
49	0xbd1a58e7	-0.03768244
50	0xbcb6186c	-0.022228442
51	0xbb760a35	-0.0037542705
52	0x3ba040f7	0.004890557
53	0xbc14cef8	-0.009082548
54	0xbd65faf0	-0.056147516
55	0xbc00d7c8	-0.007863946
56	0xbd9b193c	-0.075731725
57	0xbe096289	-0.13416494
58	0xbd9355f7	-0.07194131
59	0xbdc48b40	-0.09596872
60	0xbd434ed9	-0.047682617
61	0xbe0d4714	-0.13796645
62	0xbe1e0a44	-0.15433604
63	0xbe331470	-0.17488265
64	0xbdaac2fe	-0.08337973
65	0xbd30c601	-0.04315758
66	0x3c98ff3f	0.018676398
67	0x3ef4c222	0.47804362
68	0x3e6bc329	0.23023666
69	0xbcfe1c67	-0.031019403
70	0xbc81f02a	-0.01586159
71	0x3d9be8b0	0.07612741
72	0x3f57d557	0.84309906
73	0x3ea18eea	0.31554347
74	0xbdcc4ab8	-0.09975189
75	0x3d065519	0.032796
76	0xba3afef9	-0.0007133331
77	0xbb3b9a02	-0.0028625731
78	0x3d7857ce	0.060630612
79	0x3d03584c	0.03206663
80	0x3e14a6a0	0.14516687
81	0xbd2a2f08	-0.04154876
82	0xbea22447	-0.31668302
83	0x3d5f4903	0.05451299
84	0x3c41d72f	0.011831089
85	0x3e6629d6	0.22476897
86	0xbe9c977a	-0.30584317
87	0xbf3261cc	-0.69680476
88	0x3e28dd4a	0.16490665
89	0x3dbd5d02	0.092462555
90	0x3e01375a	0.12618771
91	0xbdda0a12	-0.10646452
92	0xbe9370a6	-0.2879688
93	0x3f0a6ce0	0.5407238
94	0x3e4fcc5b	0.20292799
95	0x3d187463	0.03722037
96	0xbdd84dfe	-0.10561751
97	0xbd9c6712	-0.076368466
98	0x3dfaf418	0.122535884
99	0x3df29dca	0.11846502
100	0x3e0b49bf	0.1360235
101	0x3ef6bb36	0.48189706
102	0x3d96f324	0.07370594
103	0xbd458b8a	-0.048228778
104	0xbd5c61e5	-0.053804297
105	0x3e6a6994	0.22891837
106	0x3f47f1f2	0.78103554
107	0x3d317a92	0.043329783
108	0xbdef63dc	-0.116889685
109	0xbc9850ff	-0.01859331
110	0xbd676f0e	-0.056502394
111	0xbcadc19e	-0.021210488
112	0xbc12e4a5	-0.008965646
113	0xbdb9a117	-0.090639286
114	0xbd04579f	-0.032310124
115	0xbd9e6c80	-0.077355385
116	0xbdad248a	-0.08454235
117	0xbd4051dd	-0.04695307
118	0xbc88861e	-0.016665515
119	0xbc0797b6	-0.008275917
120	0xbd8457bf	-0.06462049
121	0xbd8c9d7b	-0.068659745
122	0xbdb2d903	-0.08732798
123	0xbcc186e6	-0.023623895
124	0xbd1f05fa	-0.03882406
125	0xbd1b03f8	-0.03784558
126	0xbb9d0223	-0.0047915145
127	0x3d86ae87	0.06576257
128	0x3d857e9d	0.0651829
129	0xbd73471d	-0.05939399
130	0xbd5874cf	-0.052845772
131	0x3d189a4d	0.037256528
132	0x3df5e90d	0.120073415
133	0xbccc8c94	-0.024969377
134	0x3cc6a9bf	0.024250863
135	0x3cce37fb	0.025173178
136	0xbd430cc1	-0.047619585
137	0x3d6900ec	0.056885645
138	0xbd34b64a	-0.044119157
139	0xbe06f128	-0.13177931
140	0xbc6fc451	-0.014634208
141	0x3c5f3b60	0.013624996
142	0x3e750921	0.23929264
143	0xbe304681	-0.17214395
144	0xbe08d757	-0.13363396
145	0x3c8a80db	0.016907146
146	0x3de5e88b	0.11225995
147	0x3e066fae	0.1312854
148	0x3cbe4874	0.023227908
149	0xbd71b9af	-0.059014972

conv1.bias f4 [6]
0	0x3f1a22b4	0.602092
1	0x3eaaa971	0.333324
2	0x3ef38b11	0.47567037
3	0x3cc18996	0.023625176
4	0x3f2fde12	0.6869823
5	0x3eecad86	0.46226138

conv2.weight f4 [16, 6, 5, 5]
0	0x3c3a8be1	0.011385889
1	0x3d13bb2c	0.036067173
2	0x3e92aa40	0.28645515
3	0x3eaa49bb	0.33259377
4	0x3e54a084	0.20764357
5	0xbe3b2730	-0.18276668
6	0xbe91e472	-0.28494602
7	0x3cc17d49	0.02361931
8	0x3e9c712c	0.30555093
9	0x3dfc74c3	0.12326958
10	0xbccce11b	-0.025009682
11	0xbebb19a4	-0.36543
12	0xbeb1330e	-0.34609264
13	0x3de879d2	0.113513604
14	0x3dc58280	0.096440315
15	0xbcc45930	-0.02396831
16	0xbd90308c	-0.070405096
17	0xbe69c3a6	-0.2282854
18	0xbca6379f	-0.020290194
19	0x3d26159f	0.040547963
20	0xbbcd1096	-0.0062580807
21	0xbce405d6	-0.027834814
22	0xbdbbc1cd	-0.09167824
23	0x3d40b38b	0.047046226
24	0x3d2d96e7	0.04238024
25	0x3c904da3	0.017615145
26	0x3c349e39	0.011024051
27	0xbd7f58dc	-0.062340602
28	0xbdff45c8	-0.124644816
29	0xbe404b26	-0.18778667
30	0x3ce196d5	0.027537743
31	0x3b6bf2cd	0.0036002875
32	0xbcc0e5f6	-0.023547154
33	0xbe18b84f	-0.14914058
34	0xbea5c90b	-0.32379946
35	0x3d82a1f7	0.063785486
36	0x3dac2315	0.08405129
37	0x3e1cd0a7	0.1531397
38	0x3cef2cfc	0.029196255
39	0xbddc2364	-0.10748938
40	0x3d32e6af	0.04367703
41	0x3d88587d	0.06657503
42	0x3e1ffb66	0.15623245
43	0x3cbe7b6d	0.023252213
44	0xbc613e0b	-0.013747702
45	0x3dba96a6	0.09110765
46	0x3dc452f2	0.09586133
47	0x3d8ba9fa	0.0681953
48	0x3cae2eab	0.021262487
49	0xbb794a58	-0.0038038697
50	0x3c711a17	0.014715693
51	0x3df30e82	0.118680015
52	0x3dad041b	0.08448049
53	0x3dac6b70	0.084189296
54	0xba3a33d3	-0.00071030593
55	0x3c383bdd	0.011244741
56	0x3bf4f10f	0.0074750255
57	0x3e08471e	0.13308379
58	0x3e951542	0.2911778
59	0x3dfbf371	0.12302292
60	0xbd84445e	-0.064583525
61	0xbe27f508	-0.16402066
62	0xbe9e1653	-0.30876407
63	0x3b55625e	0.0032559852
64	0xbd042081	-0.03225756
65	0xbcfff076	-0.03124259
66	0xbd86cf10	-0.06582463
67	0xbe2926f6	-0.16518769
68	0xbdf10c8a	-0.1176997
69	0x3c5fd6ec	0.013662081
70	0xbcbc783e	-0.023006555
71	0xbd87dd2e	-0.066339836
72	0xbd8251d3	-0.06363263
73	0x3a522fb0	0.000801797
74	0x3a0503c1	0.0005074107
75	0xbc0e4193	-0.008682626
76	0xbd769d00	-0.06020832
77	0xbde9cc5c	-0.114159316
78	0xbd8965c6	-0.06708865
79	0x3c9cb9af	0.01913151
80	0x3b615a68	0.0034386162
81	0x3bd65c2b	0.006541749
82	0xbc9fccb6	-0.019506793
83	0xbde4c782	-0.111708656
84	0xbe2235af	-0.15840791
85	0xbc234f90	-0.0099677
86	0xbd2edff8	-0.042694062
87	0x3cccf334	0.025018312
88	0xbd97391b	-0.07383939
89	0xbd08d78b	-0.033408683
90	0x3c9752ab	0.018472036
91	0xbd5ab1fe	-0.053392403
92	0xbdb649a2	-0.08900763
93	0x3d0b9476	0.03407713
94	0xbd17a6f2	-0.037024446
95	0xbcb32c90	-0.021871835
96	0xbbf3ebbb	-0.0074438727
97	0xbc5cfab0	-0.013487503
98	0xbbd9071f	-0.0066231634
99	0xbb08f419	-0.0020897447
100	0x3c47a7de	0.012186019
101	0x3cb0a1b6	0.021561485
102	0x3dc78295	0.097417034
103	0x3e0c9060	0.1372695
104	0x3db7e134	0.08978501
105	0x3ad4e892	0.0016243628
106	0x3d136857	0.035988178
107	0x3e0fdc96	0.1404899
108	0x3e24dfce	0.16101
109	0x3e785247	0.24250136
110	0xbc0fc9fd	-0.008776185
111	0xbdc85a27	-0.0978282
112	0xbe006258	-0.12537515
113	0x3e4576ed	0.19283648
114	0x3e00e887	0.12588702
115	0xbcf992f5	-0.030465582
116	0xbd8921cd	-0.066959
117	0xbe9f01bb	-0.31056008
118	0xbe64ca78	-0.2234286
119	0x3dce5df7	0.10076516
120	0xbbded9a4	-0.006800847
121	0xbc87b73a	-0.016566861
122	0x3d15755d	0.03648888
123	0xbe0b7027	-0.13617001
124	0x3d6e9d3a	0.05825541
125	0x3d17698c	0.03696589
126	0x3d37120b	0.04469494
127	0x3d0927c4	0.03348519
128	0x3db65d16	0.089044735
129	0x3d195c01	0.037441257
130	0xbc5b32e5	-0.013378833
131	0xbe461979	-0.19345655
132	0xbe5289e8	-0.2056042
133	0x3d968b51	0.07350791
134	0x3b7d8039	0.0038681163
135	0x3d9a6cf4	0.075403124
136	0xbd70d3e2	-0.058795817
137	0xbdfd014f	-0.12353765
138	0x3c515cbc	0.012778457
139	0xbc021db7	-0.007941655
140	0x3d924700	0.071424484
141	0x3d19925e	0.037493102
142	0xbd856ba8	-0.065146744
143	0x3d2d2e18	0.042280287
144	0xbc69a367	-0.01426015
145	0xbd229457	-0.03969225
146	0x3a227c3d	0.00061983225
147	0xbd6e682b	-0.05820481
148	0xbd6a2645	-0.057165403
149	0xb8bf88c4	-9.133064e-05
150	0xbd94c435	-0.07263986
151	0xbd135bde	-0.035976283
152	0x3d8747e1	0.06605507
153	0x3da1afcc	0.07894859
154	0x3d2eb4e8	0.042652994
155	0x3dd5b265	0.10434417
156	0x3e6a731a	0.2289547
157	0xbd0ffc83	-0.035152923
158	0x3d89a8a9	0.067216225
159	0xbd5ed26a	-0.054399885
160	0x3d74ab5e	0.05973374
161	0x3d3fb5b8	0.04680416
162	0xbd4d5c70	-0.050136983
163	0x3de938b5	0.11387769
164	0x3ced8a2d	0.028996551
165	0x3b8eb967	0.004355598
166	0xbdaf8297	-0.0856983
167	0xbd81b4b6	-0.06333296
168	0x3dad9eb2	0.08477534
169	0x3da52836	0.0806431
170	0x3d3eec37	0.04661199
171	0xbd40df5f	-0.047088023
172	0xbd653661	-0.055960063
173	0xbd97a3f1	-0.07404316
174	0xbc36c934	-0.011156369
175	0x3d1f75e1	0.038930777
176	0x3df63662	0.120220914
177	0x3d380083	0.044922363
178	0x3d8623ea	0.06549819
179	0x3c24002a	0.010009805
180	0x3c7800ef	0.015136941
181	0x3d2e4825	0.04254927
182	0x3c7a8a35	0.01529174
183	0x3dfab65a	0.12241812
184	0x3d00a2ae	0.031405143
185	0x3d8fbf45	0.07018904
186	0x3dc7e943	0.09761288
187	0x3e182317	0.14857136
188	0x3e175548	0.14778626
189	0x3d1e221a	0.03860674
190	0x3d98442c	0.07434878
191	0x3d6fbf73	0.05853219
192	0x3e1ed9ea	0.15512815
193	0x3e125d22	0.1429334
194	0xbdb6f25c	-0.08932945
195	0xbd0ddba7	-0.034633305
196	0x3d88acfe	0.06673621
197	0x3d92ca2d	0.07167468
198	0x3c94bb98	0.018155858
199	0xbd46cab6	-0.048533164
200	0xbd320e71	-0.043470804
201	0xbe0f407c	-0.13989443
202	0xbd059e2d	-0.03262155
203	0xbd952331	-0.07282103
204	0x3d69928b	0.05702452
205	0xbdc7fb38	-0.09764713
206	0x3d831e23	0.064022325
207	0x3d10ed95	0.035382826
208	0xbdbaa738	-0.09113926
209	0x3cb22075	0.021743992
210	0xbd8fefa2	-0.07028128
211	0x3dcc3c16	0.09972398
212	0xbd9427ad	-0.0723413
213	0xbd171006	-0.036880516
214	0xbbe8b85c	-0.0071020555
215	0xbbc8fb9b	-0.0061335093
216	0xbd734533	-0.059392165
217	0xbdf07ba3	-0.11742332
218	0xbdbb9964	-0.09160116
219	0x3c9a160f	0.018809346
220	0xbd0f05ac	-0.03491752
221	0xbd861c13	-0.065483235
222	0xbd28ee04	-0.041242614
223	0xbd7e314b	-0.06205873
224	0x3a375f9a	0.0006995142
225	0xbc788f30	-0.015170857
226	0xbb4b7090	-0.0031042434
227	0x3c674efd	0.014117953
228	0xbc6bfd27	-0.014403618
229	0xbc170d11	-0.009219424
230	0x3c145e36	0.009055665
231	0xbb0ee5cd	-0.0021804452
232	0xbc81563f	-0.015788196
233	0x3d805363	0.06265905
234	0x3c865b95	0.016401092
235	0xbcf1ce84	-0.02951742
236	0x3c53f37e	0.012936471
237	0xbdb6fd18	-0.089349926
238	0xbd744428	-0.05963531
239	0xbc0b92fc	-0.0085189305
240	0xbd1fe810	-0.03903967
241	0x3d06f2d7	0.032946434
242	0x3d496a76	0.049173795
243	0xbe0a0519	-0.13478507
244	0xbc0698ef	-0.008215173
245	0x3c7bca48	0.015368052
246	0xbcd853a5	-0.026407072
247	0xbd4756a0	-0.048666596
248	0x3d2daf53	0.04240353
249	0xbc90f792	-0.017696176
250	0xbbdbeb90	-0.006711431
251	0xbd087c01	-0.033321384
252	0xbdc29163	-0.095003866
253	0xbde0bce8	-0.10973531
254	0xbd7e8b8c	-0.0621448
255	0xbbf9d985	-0.0076248073

conv2.bias f4 [16]
0	0x3e3690ab	0.17828624
1	0x3d3baf8d	0.045821715
2	0x3c704aa0	0.0146662295
3	0xbe90b314	-0.28261626
4	0x3e94f62c	0.29094064
5	0x3e076d34	0.13225251
6	0x3e1c6160	0.1527152
7	0xbda8f31a	-0.08249493
8	0xbe395874	-0.18100148
9	0x3f05ac5b	0.5221612
10	0x3e817728	0.25286222
11	0x3d276990	0.040872157
12	0x3eb10ca2	0.3457995
13	0xbd5d7a0b	-0.054071467
14	0x3e1812c6	0.14850911
15	0x3f0aa212	0.5415355

dense1.weight f4 [120, 400]
0	0xbc527c2d	-0.012846989
1	0xbbb91382	-0.0056480775
2	0x3e0392b5	0.12848933
3	0x3da9d1a9	0.082919426
4	0x3d0739e5	0.033014197
5	0x3c179030	0.009250686
6	0x3eedb54b	0.46427378
7	0x3e130eb0	0.14361072
8	0x3cab8279	0.020936238
9	0x3d9a06ef	0.07520854
10	0xbccb1f36	-0.024795156
11	0x3eb3a443	0.3508626
12	0x3d5f33ca	0.05449275
13	0xbd63de8e	-0.055632167
14	0xbd78274f	-0.060584363
15	0x3c32f7bc	0.010923322
16	0x3de0148a	0.109414175
17	0x3d7a9276	0.061174832
18	0xbd442217	-0.047884073
19	0xbd73bef0	-0.059508264
20	0x3d3c58ec	0.04598324
21	0x3e2bf203	0.16791539
22	0x3e308d42	0.17241386
23	0x3d7e707d	0.062118996
24	0xbc3e5410	-0.011616722
25	0xbc1fb3ee	-0.009747488
26	0xbd0a7c42	-0.033809908
27	0x3d10c800	0.035346985
28	0x3cfa1cd3	0.030531323
29	0x3cfa8751	0.030582102
30	0x3c2c6360	0.01052174
31	0x3e0e57ca	0.13900676
32	0x3dd02546	0.10163359
33	0xbc197c7e	-0.00936806
34	0x3d21f3c7	0.039539125
35	0xbb97f030	-0.004636787
36	0x3b96e0ad	0.00460442
37	0x3e0cbd6a	0.1374413
38	0x3dcaeb7b	0.099081956
39	0xbd1cf831	-0.03832263
40	0x3d5263ec	0.051364824
41	0x3dc6344d	0.09677944
42	0x3e1418f8	0.1446265
43	0x3db992e6	0.09061222
44	0xbc099202	-0.008396627
45	0xbb81a146	-0.003955993
46	0x3d78524f	0.06062537
47	0x3ccd0ed4	0.025031485
48	0x3a45c037	0.0007543596
49	0x3cbee7c8	0.023303881
50	0x3c8c6ae5	0.017140815
51	0x3cd0bea8	0.025481537
52	0x3d55df65	0.052215
53	0xbd1cf1ce	-0.03831654
54	0xbd15af54	-0.03654416
55	0x3cf278fd	0.029598707
56	0x3cec420c	0.028840087
57	0xbe94966c	-0.29021013
58	0x3e094199	0.1340393
59	0x3be97f43	0.0071257665
60	0x3bc37a63	0.0059655174
61	0xbe387e16	-0.18016848
62	0x3da64ecd	0.08120499
63	0x3d87bba4	0.066275865
64	0x3c9a71b8	0.018853053
65	0x3d781b55	0.06057294
66	0xbced1fbd	-0.028945798
67	0x3e064077	0.13110529
68	0x3ce1b4df	0.027552066
69	0xbcc53698	-0.024073884
70	0x3cb46106	0.02201892
71	0x3db84ab9	0.08998627
72	0x3e13982c	0.14413518
73	0xbd0a4b4c	-0.033763215
74	0xbca704cf	-0.020388035
75	0x3d712a3f	0.05887818
76	0x3ddfd229	0.10928757
77	0x3d344904	0.044014946
78	0xbcc0c072	-0.023529265
79	0xb8b40ad6	-8.585087e-05
80	0xbd083212	-0.033250876
81	0xbe190b83	-0.14945798
82	0xbd2d5aba	-0.04232285
83	0x3dd4891a	0.103777125
84	0x3cb416b8	0.02198349
85	0xbd032d00	-0.032025337
86	0xbdd351d5	-0.103183426
87	0x3da38310	0.079839826
88	0x3d967be3	0.07347848
89	0x3c1a9885	0.009435778
90	0xbbb30c73	-0.0054641305
91	0xbd6e2b9d	-0.05814706
92	0x3bef6a15	0.007306347
93	0xbc123f62	-0.008926244
94	0x3db5b1c9	0.088718005
95	0xbd29346d	-0.041309763
96	0xbd89bcaa	-0.06725438
97	0x3e11b7f9	0.14230336
98	0x3df7b5a9	0.12095196
99	0x3d0dfdd8	0.034665912
100	0xbce093a8	-0.027414158
101	0xbc63f6ae	-0.0139137935
102	0x3cc7b79c	0.024379544
103	0xbd361ee8	-0.04446307
104	0x3be1cc0c	0.0068907794
105	0x3c20937a	0.009800786
106	0xbd84019d	-0.0644562
107	0xbe8781e2	-0.2646628
108	0xbd1d5c3e	-0.038418047
109	0x3d0aa449	0.03384808
110	0xbc6a1240	-0.014286578
111	0xbd2c6cd5	-0.042095978
112	0xbebde4da	-0.37088662
113	0xbcf8bd8e	-0.030363824
114	0x3d3403f3	0.04394908
115	0xbd2a5ea8	-0.041594177
116	0xbe890536	-0.26761788
117	0xbea3f787	-0.32024786
118	0x3dfb2ff5	0.122650065
119	0x3e17b833	0.1481636
120	0x3b6805d2	0.003540386
121	0x3dc4c2b2	0.09607448
122	0x3d706917	0.05869397
123	0x3da6dd10	0.08147633
124	0x3d901702	0.070356384
125	0xbca62ec0	-0.020285964
126	0x3c910688	0.01770331
127	0xb8c9b3da	-9.617927e-05
128	0xbd4fc1ad	-0.050721813
129	0xbb846483	-0.0040403022
130	0xbbcc6194	-0.006237218
131	0x3cd79410	0.026315719
132	0x3d759401	0.0599556
133	0xbc61c54b	-0.013779948
134	0xbd0600bf	-0.032715555
135	0xbcacf1eb	-0.02111145
136	0x3dc9bb0a	0.09850128
137	0xbe99a658	-0.30009723
138	0xbe084e0c	-0.13311023
139	0x3c29cf38	0.010364346
140	0xbd0cde40	-0.03439164
141	0xbe02dff0	-0.12780738
142	0x3c91ce96	0.017798703
143	0x3c72f64a	0.014829228
144	0xbcbda3df	-0.023149429
145	0xbbbed4bf	-0.005823701
146	0xbda48c55	-0.08034579
147	0xbd05fa88	-0.03270963
148	0x3c3e7473	0.011624443
149	0xbb831589	-0.00400037
150	0x3c05c628	0.00816492
151	0x3c6e6e0c	0.014552604
152	0x3cf5f3bb	0.030023446
153	0xbb3d966c	-0.002892877
154	0xbc651b6a	-0.013983587
155	0x3d148816	0.036262594
156	0x38fc5f2f	0.00012034026
157	0xbe830ce5	-0.25595775
158	0x3dfdc853	0.123917244
159	0x3d128aef	0.03577703
160	0xbb9b20e4	-0.0047341455
161	0xbf08d100	-0.5344391
162	0xba80c654	-0.0009824731
163	0x3d6f0218	0.058351606
164	0x3bd19b6e	0.0063967025
165	0xbd726138	-0.059174746
166	0xbdaf5e6b	-0.08562931
167	0x3eb4c8a7	0.35309336
168	0x3d6c6998	0.05771789
169	0x3d38a668	0.045080572
170	0xbc676ccb	-0.014125059
171	0xbd7d0af2	-0.061778016
172	0x3dee78fd	0.116441704
173	0x3c8662a2	0.016404454
174	0x3c85b55b	0.016321829
175	0xbcb9bd6e	-0.022673335
176	0xbcb8821e	-0.022522982
177	0xbdcb9bb3	-0.09941807
178	0xbd664ebc	-0.05622743
179	0xbcd1dfa0	-0.025619328
180	0xbae8cc90	-0.001776116
181	0xbc11fa6e	-0.008909805
182	0x3ac58d13	0.0015071951
183	0xbd2254a1	-0.03963149
184	0xbcab719b	-0.020928195
185	0x3dc16c9c	0.09444544
186	0xbeb73f71	-0.3579059
187	0x3e1ed3b1	0.15510441
188	0x3d844e4d	0.06460247
189	0xbd0f1547	-0.0349324
190	0xbd903418	-0.07041186
191	0xbf19ae73	-0.60031813
192	0xbd455504	-0.04817678
193	0x3db68801	0.089126594
194	0xbd1468a9	-0.036232624
195	0xbd8039fc	-0.0626106
196	0x3a56f703	0.000820026
197	0x3a653a67	0.00087443594
198	0xbb99adf8	-0.004689928
199	0xbcb7a1c2	-0.022416
200	0x3c22a5a8	0.009927191
201	0xbd99f5e0	-0.075176
202	0xbd7e06fb	-0.062018376
203	0x3c7b8f07	0.015353925
204	0xba8b7efd	-0.0010642704
205	0x3bebf1eb	0.0072004697
206	0xbec6daf0	-0.3883891
207	0xbe52c510	-0.20582986
208	0xbc9a3103	-0.018822199
209	0xbd3ed69b	-0.046591382
210	0xbdb91283	-0.09036734
211	0xbec2e25e	-0.3806333
212	0xbe505880	-0.2034626
213	0x3de8ad20	0.11361146
214	0xbcface96	-0.030616086
215	0xbd99db39	-0.075125165
216	0xbe810e9e	-0.25206465
217	0xbde7e56f	-0.11323058
218	0x3e447f23	0.19189124
219	0x3d090ebe	0.033461325
220	0xbd1c506c	-0.038162634
221	0xbcf50e9a	-0.02991419
222	0xbd1491cc	-0.036271855
223	0xbc84e30d	-0.016221547
224	0xbd52cf80	-0.05146742
225	0x399d6241	0.00030018578
226	0x3e0699a6	0.1314455
227	0xbd347ef6	-0.044066392
228	0xbd88f73e	-0.06687783
229	0xbd013a33	-0.031549644
230	0x3cd7ad07	0.026327623
231	0x3df07f68	0.11743051
232	0xbcfb6e79	-0.030692326
233	0xbc59d398	-0.013295077
234	0xbdbff7bd	-0.09373424
235	0xbd8e0af3	-0.06935682
236	0x3e0077ad	0.12545653
237	0x3e01d131	0.12677456
238	0xbd4d9111	-0.050187174
239	0xbb6d9e4e	-0.0036257687
240	0xbd431aae	-0.047632866
241	0xbdb23ca5	-0.08702973
242	0xbe6710ae	-0.22564957
243	0xbbd6d9d3	-0.0065567284
244	0x3b87344b	0.004126107
245	0xbd4c0eda	-0.04981885
246	0xbdab090d	-0.08351336
247	0xbda293f9	-0.0793838
248	0x3a5585ec	0.0008145261
249	0xbc0a6f10	-0.008449331
250	0xbc9c73a9	-0.01909812
251	0xbcfe42f2	-0.031037781
252	0xbd47c944	-0.048775926
253	0xbb5ad37a	-0.003339021
254	0x3c25dc13	0.010123271
255	0xbb3e39fe	-0.0029026265

dense1.bias f4 [120]
0	0x3d24b94c	0.040215775
1	0x3c5a6653	0.01333006
2	0xbd0dd790	-0.034629405
3	0xbd6edc40	-0.058315516
4	0x3c45cbd9	0.012072527
5	0xbd44a988	-0.04801324
6	0xbd2a15ee	-0.04152482
7	0x3cd1978e	0.025584962
8	0xbd0ad3f5	-0.033893544
9	0x3e517411	0.20454432
10	0xbcf1fe18	-0.029540107
11	0x3b300899	0.0026860593
12	0x3d840188	0.064456046
13	0xbe0c6641	-0.13710882
14	0x3c9cf463	0.019159501
15	0x3cfadde0	0.030623376
16	0x3e03763a	0.12838069
17	0x3e1c232e	0.15247795
18	0xbcf34392	-0.029695306
19	0x3c0fc5b3	0.0087751625
20	0x3d4f64f0	0.05063337
21	0x3e06d254	0.13166171
22	0xbd15944a	-0.036518373
23	0xbc1c2e1e	-0.00953248
24	0xbdd5f140	-0.104464054
25	0x3e176ffe	0.14788815
26	0x3d308f81	0.043105606
27	0x3cbcd0bc	0.023048751
28	0x3e80d277	0.25160572
29	0xbd15c1b5	-0.036561687
30	0xbc93f470	-0.018060893
31	0xbb9bb93e	-0.004752307
32	0xbd077340	-0.033068895
33	0xbcdea1d8	-0.027176782
34	0x3df741cf	0.12073099
35	0xbd5aa632	-0.053381152
36	0xbc05f36e	-0.008175714
37	0x3e0a8629	0.1352774
38	0x3ca68515	0.02032713
39	0xbcd17c35	-0.025571922
40	0xbd20cb4c	-0.03925638
41	0xbbf0afb3	-0.0073451637
42	0x3c08f7f3	0.008359897
43	0x3e500af0	0.20316672
44	0xbca2c439	-0.019868957
45	0xbd1268ff	-0.035744663
46	0xbd6a33c4	-0.057178274
47	0x3c1b18ad	0.009466332
48	0xbd40e6cb	-0.0470951
49	0x3dd91da8	0.106013596
50	0x3e85d592	0.26139504
51	0xbd1869ff	-0.03721046
52	0x3e95890d	0.29206124
53	0xbcca9627	-0.024729801
54	0xbd638fe0	-0.05555713
55	0x3cd2d3c8	0.02573575
56	0x3e5b02bd	0.21387763
57	0x3c8b6afc	0.017018788
58	0x3e349e03	0.17638402
59	0xbce10286	-0.027467024
60	0x3d96c672	0.07362069
61	0xbd4f80dd	-0.050660003
62	0xbd13885b	-0.03601871
63	0xbd374616	-0.044744574
64	0xbd20bacb	-0.03924064
65	0x3e78cee2	0.2429767
66	0x3c759543	0.0149892
67	0xbd6b88fc	-0.057503685
68	0xbd14f1e6	-0.036363505
69	0x3e3c4cf3	0.18388729
70	0x3e58e8cb	0.21182553
71	0x3dd72a93	0.10506167
72	0xbe157a5f	-0.14597462
73	0x3dc14565	0.09437064
74	0x3a2d80d8	0.00066186255
75	0xbca580cd	-0.020203019
76	0x3e5150a3	0.20440917
77	0x3dea8939	0.114519544
78	0xbd82c282	-0.06384756
79	0x3e0d1781	0.13778497
80	0xbd12feb9	-0.035887454
81	0xbc643fc6	-0.01393122
82	0x3e44b483	0.19209485
83	0x3da16cd0	0.078820825
84	0x3e96f88b	0.29486498
85	0x3d6a5e9e	0.05721914
86	0x3c61eb75	0.0137890475
87	0xbe24dafe	-0.16099164
88	0xbd5d2482	-0.053989895
89	0x3cb9267b	0.022601357
90	0x3d1796e7	0.037009146
91	0x3e379960	0.17929602
92	0xbca43ef3	-0.020049548
93	0xbc8b3bcb	-0.016996285
94	0x3e352169	0.17688526
95	0x3e14e7e3	0.14541583
96	0x3d7cc78b	0.061713737
97	0xbdfaef36	-0.12252657
98	0x3e7f3e40	0.2492609
99	0xbd279b7d	-0.04091977
100	0x3cd52e5e	0.026023086
101	0x3e8bcfad	0.27306882
102	0xbd50ed65	-0.051007647
103	0x3df4d514	0.11954704
104	0x3c07ac70	0.008280858
105	0xbc88ef34	-0.016715623
106	0xbe201263	-0.15632014
107	0xbd24f302	-0.040270813
108	0x3c2a2189	0.010383972
109	0x3e01340d	0.12617512
110	0xbd5cec1c	-0.05393611
111	0xbcc2d2a7	-0.023782087
112	0x3d3e1ca6	0.04641404
113	0xbd4036e4	-0.046927348
114	0xbb799f1a	-0.0038089217
115	0x3d3f3ef0	0.04669088
116	0x3d5b04c9	0.05347136
117	0x3c5987b0	0.013276979
118	0x3e4d4ba6	0.20048389
119	0x3e7cbd27	0.24681531

dense2.weight f4 [80, 120]
0	0x3cf5afb1	0.029991003
1	0xbd67d933	-0.05660362
2	0x3cf34932	0.029697988
3	0x3cdb3768	0.026759818
4	0xbdb95423	-0.09049251
5	0xbd5a822b	-0.053346794
6	0xbd829e7c	-0.06377885
7	0x3d97d34c	0.074133486
8	0x3d631d59	0.05544791
9	0xbe465fb8	-0.19372451
10	0x3d635ac6	0.05550649
11	0x3d940026	0.07226591
12	0x3c40fb5c	0.011778679
13	0xbdccc04f	-0.099976175
14	0xbbfe2b5e	-0.0077566346
15	0x3d302294	0.043001726
16	0xbdec6add	-0.1154382
17	0xbe3ef7fa	-0.18649283
18	0x3c8e61c5	0.017380605
19	0x3d8aca18	0.067768276
20	0xbe852b38	-0.26009536
21	0x3d34dc30	0.0441553
22	0x3d628ee1	0.05531204
23	0x3da9eb25	0.082968034
24	0xbdfc0371	-0.12305344
25	0xbc471c52	-0.012152748
26	0xbc6b4473	-0.014359581
27	0xbd1b345c	-0.03789173
28	0x3dfa8710	0.122327924
29	0xbc9bd0a0	-0.019020379
30	0xbdec7ba5	-0.11547021
31	0x3ac6a192	0.0015154353
32	0xbbca42c3	-0.0061725094
33	0x3d26429c	0.040590867
34	0x3d65b0ae	0.056076698
35	0x3d1a700b	0.03770451
36	0x3d8a5885	0.06755165
37	0xbd0dc3c3	-0.03461052
38	0x3d2ca16c	0.04214613
39	0x3d8edc1b	0.069755755
40	0xbc88e2dc	-0.016709737
41	0x3d945a39	0.07243771
42	0xbd54b60d	-0.05193143
43	0x3cbeeb21	0.023305478
44	0x3b68b9ad	0.0035511062
45	0x3d21f4da	0.03954015
46	0xbca68bf7	-0.020330412
47	0xbd386bfb	-0.045024853
48	0x3cc23ffc	0.02371215
49	0xbc865b63	-0.016400998
50	0xbdf74886	-0.120743796
51	0x3c5df531	0.013547228
52	0x3e97900b	0.29602084
53	0x3d8a89e1	0.067645796
54	0x3d57f614	0.052724913
55	0xbe2007bb	-0.15627949
56	0x3dab103d	0.083527066
57	0xbd6f20de	-0.058380954
58	0x3d9e6ea6	0.07735948
59	0x3d16faec	0.03686039
60	0x3d55fd20	0.052243352
61	0xbd179c68	-0.037014395
62	0x3d4bd59e	0.049764268
63	0x3d3f559b	0.0467125
64	0xbdc76b37	-0.097372465
65	0x3e5fdf46	0.21862516
66	0x3d4ec340	0.050479174
67	0xbd994484	-0.074837714
68	0xbcbf3be6	-0.023343991
69	0x3e1ae7fb	0.15127556
70	0x3e20b847	0.15695296
71	0x3e3a9daa	0.18224207
72	0xbd954af1	-0.072896846
73	0x3c38f3a4	0.011288557
74	0xbbcd9a6e	-0.006274513
75	0x3d5cd4a2	0.05391372
76	0xbdb9a96a	-0.09065516
77	0x3d8e458a	0.06946857
78	0x3d821abf	0.06352758
79	0x3df72c16	0.120689556
80	0xbd53421d	-0.051576722
81	0xbc90cd28	-0.017675951
82	0xbd9ab2d5	-0.07553641
83	0x3c0fa3af	0.008767053
84	0xbe076580	-0.13222313
85	0x3caa2ed5	0.020774284
86	0xbc8893a6	-0.016671967
87	0xbc520539	-0.012818628
88	0x3c489693	0.012242931
89	0x3d8cd707	0.06876951
90	0x3c49fb11	0.012327925
91	0x3da4ac02	0.080406204
92	0xbd873351	-0.06601585
93	0xbc39ee4d	-0.011348319
94	0xbc4bb544	-0.012433354
95	0x3e02d422	0.12776235
96	0x3b40cd6d	0.0029419318
97	0x3d0f224d	0.03494482
98	0x3d84d5dc	0.06486103
99	0xbd8b335d	-0.06796906
100	0x3d7474af	0.05968159
101	0xbca3b153	-0.019982016
102	0xbd8b938a	-0.0681525
103	0x3d1bfa9f	0.038080808
104	0xbc8d0805	-0.017215738
105	0x3d2ba5eb	0.04190628
106	0xbdb6bd41	-0.08922816
107	0xbc80cb63	-0.015721982
108	0xbd82c86b	-0.06385883
109	0x3dfd9647	0.12382179
110	0x3dbd3d2f	0.092401855
111	0xbdadbb49	-0.084829874
112	0x3d98e04a	0.07464655
113	0xbc5e2ca4	-0.013560448
114	0xbd108ca8	-0.03529039
115	0xbe15581d	-0.14584394
116	0xbe99a1ce	-0.3000626
117	0x3babab48	0.005238924
118	0x3dcf7ac3	0.10130837
119	0x3e124288	0.14283192
120	0x3d9936d0	0.07481158
121	0x3d932108	0.071840346
122	0xbdab6db4	-0.083705336
123	0x3d79631a	0.060885526
124	0x3dc499b8	0.09599632
125	0xbc85983e	-0.016307946
126	0xbc81d252	-0.015847359
127	0x3dede499	0.11615867
128	0x3cb82680	0.022479296
129	0x3d1bf85c	0.03807865
130	0x3dae92c3	0.08524086
131	0x3ed85b64	0.42257226
132	0x3e0081ab	0.12549464
133	0x3dfa61d4	0.122256905
134	0x3cac6d2c	0.021048151
135	0xbe824906	-0.25446337
136	0x3cc031e2	0.023461286
137	0x3e156676	0.14589867
138	0x3ccea715	0.025226155
139	0xbd99c094	-0.075074345
140	0x3d02e137	0.031953063
141	0x3cd32718	0.025775477
142	0x3ae08006	0.0017127998
143	0xbd8920ae	-0.06695686
144	0x3d09f62b	0.03368203
145	0x3e2ce29d	0.16883321
146	0xbe390528	-0.18068373
147	0x3c897623	0.016779965
148	0x3e25626d	0.16150828
149	0x3be02ea1	0.006841496
150	0xbde1e679	-0.11030287
151	0xbd7f7cb4	-0.062374786
152	0xbd0625da	-0.03275094
153	0x3de3ff38	0.111326635
154	0xbbca940f	-0.0061822007
155	0x3d4d82a4	0.050173417
156	0xbd9755ae	-0.07389389
157	0x3d7ca17d	0.061677445
158	0xbdc6aa57	-0.097004585
159	0xbdaeed60	-0.085413694
160	0x3ce1a22c	0.02754315
161	0x3b07b4d6	0.0020707152
162	0x3bc40d6b	0.005983045
163	0xbdaccd36	-0.084375784
164	0x3b05b060	0.0020399317
165	0xbd3ba62c	-0.04581277
166	0xbce900a6	-0.028442692
167	0x3db191a3	0.08670356
168	0x3d84e7b2	0.06489505
169	0xbdd891b2	-0.10574664
170	0x3e20eb97	0.1571487
171	0x3bcbcfb4	0.0062198285
172	0xbdc7b898	-0.09752005
173	0x3de403e3	0.11133554
174	0x3dabbf1a	0.08386059
175	0x3d8b1b0b	0.067922674
176	0xbe604a4f	-0.21903346
177	0xbca2dc7e	-0.01988053
178	0x3da96950	0.0827204
179	0x3c073e00	0.008254528
180	0x3e192965	0.14957197
181	0x3c719278	0.0147443935
182	0xbd8df565	-0.06931571
183	0x3d87913b	0.066194974
184	0x3dbbd649	0.09171731
185	0x3e7fc7fd	0.24978633
186	0xbdde339a	-0.10849686
187	0x3d4181d0	0.04724294
188	0x3d8df243	0.069309734
189	0xbdeb0915	-0.11476342
190	0xbdf06b2a	-0.1173919
191	0xbdce4f8f	-0.10073768
192	0x3e310118	0.17285573
193	0x3e451498	0.19246137
194	0x3d10dbcd	0.03536587
195	0x3d7e27cc	0.062049672
196	0xbe082a6e	-0.13297436
197	0x3e9b866f	0.30376002
198	0x3d002892	0.03128869
199	0xbe0b0b41	-0.13578512
200	0x3c7884a0	0.015168339
201	0xbd9d7831	-0.0768894
202	0x3d576713	0.052588534
203	0xbd9eceb7	-0.077542715
204	0x3cb1bba4	0.02169592
205	0xbc3ddb8a	-0.011587987
206	0x3d8cf8ed	0.06883416
207	0x3e0a5be5	0.13511617
208	0xbe4f6ce5	-0.20256384
209	0xbd3be7e5	-0.04587545
210	0xbd38dd7c	-0.0451331
211	0xbd05aa09	-0.03263286
212	0x3daad8b6	0.083421156
213	0xbd9dbaed	-0.07701669
214	0x3d3e2e78	0.046431035
215	0xbe5e0ce3	-0.21684603
216	0x3d825961	0.06364704
217	0x3d55407f	0.05206346
218	0xbcbb8841	-0.02289212
219	0xbd90d887	-0.07072549
220	0xbd600f57	-0.05470213
221	0xbde17f6e	-0.110106334
222	0x3cf0c0d3	0.02938882
223	0x3e7ca0a3	0.24670653
224	0xbd8a5f49	-0.067564555
225	0xbd20c427	-0.039249565
226	0xbe073360	-0.13203192
227	0xbd6606d6	-0.056158863
228	0xbcd6944d	-0.026193762
229	0x3d807940	0.062731266
230	0x3d1d5c46	0.038418077
231	0xbd3db72e	-0.046317272
232	0x3e4bbcc4	0.19896227
233	0x3dbef7f0	0.09324634
234	0x3dd3fe25	0.103512086
235	0x3d5418e5	0.051781554
236	0x3d85b6ca	0.06529005
237	0xbd33a9cd	-0.043863107
238	0xbd9fb8bb	-0.077989064
239	0x3daa6600	0.08320236
240	0xbe0c17fc	-0.13681024
241	0xbd00cd99	-0.031446073
242	0xbdc588fa	-0.09645267
243	0xbc5562f1	-0.013024078
244	0x3d8824a5	0.066476144
245	0xbc2e53e0	-0.010640115
246	0xbcc9fdf6	-0.02465723
247	0xbdae33a5	-0.08505944
248	0x3d65eef9	0.056136105
249	0x3c9b80b3	0.018982267
250	0xbd97be40	-0.07409334
251	0x3e096655	0.13417943
252	0x3d8180ff	0.06323432
253	0x3d82515f	0.063631766
254	0xbd940d11	-0.07229055
255	0x3e2642de	0.16236445

dense2.bias f4 [80]
0	0x3ed0f1ec	0.40809572
1	0x3dea0388	0.11426455
2	0x3cb35497	0.021890922
3	0xbe7c9105	-0.24664696
4	0xba460c35	-0.00075549196
5	0x3dd00981	0.10158063
6	0xbd7b035c	-0.0612825
7	0xbc21cf86	-0.009876138
8	0xbe3eab1c	-0.1861996
9	0x3de1625c	0.11005089
10	0x3e072859	0.13198985
11	0x3c26228b	0.010140072
12	0xbd903843	-0.07041981
13	0xbdb0279e	-0.086013064
14	0x3d25964e	0.040426545
15	0x3c737d37	0.0148613965
16	0x3dfe5eeb	0.12420448
17	0x3d576de5	0.052595038
18	0xbdb28f75	-0.087187685
19	0xbe03fb59	-0.1288885
20	0xbda7e045	-0.08197073
21	0x3cdc60c3	0.026901608
22	0x3c06af1d	0.008220461
23	0xbcbb7edf	-0.022887645
24	0x3d87828f	0.06616699
25	0xbc18286d	-0.009286982
26	0x3cb5436d	0.022126878
27	0xbdc94b3e	-0.098288044
28	0xbe05a07d	-0.13049503
29	0x3ddb7ea0	0.10717511
30	0x3e9b2af8	0.3030622
31	0x3dc32708	0.09528929
32	0xbd21280a	-0.039344825
33	0xbb1b6bde	-0.0023715417
34	0xbdc524ac	-0.09626135
35	0xbe65b294	-0.22431403
36	0x3e6b3f9c	0.22973484
37	0x3e16d23d	0.14728637
38	0x3c0db124	0.008648191
39	0xbddaeaca	-0.10689314
40	0xbe1a8aff	-0.15092085
41	0xbdc54d9a	-0.09633942
42	0x3e45541f	0.19270371
43	0x3e35af49	0.17742647
44	0x3d31692c	0.04331319
45	0x3e993e8f	0.2993054
46	0x3d2062e9	0.039156828
47	0x3bb3806a	0.0054779546
48	0xbc0466c6	-0.008081144
49	0x3acbc7e6	0.0015547245
50	0x3dd6c26b	0.10486301
51	0xbd99ef06	-0.07516293
52	0x3e093e52	0.1340268
53	0xbd086d59	-0.033307407
54	0xbe058cf4	-0.1304205
55	0x3e0ab8f5	0.13547118
56	0xbd00ad32	-0.031415172
57	0xbddee310	-0.108831525
58	0xbb43fa51	-0.002990384
59	0x3e0a005d	0.13476701
60	0x3d9b6ed1	0.07589496
61	0x3d5de122	0.05416978
62	0x3de53dcd	0.11193428
63	0xbf3bc28f	-0.7334375
64	0xbd7fcd4c	-0.062451646
65	0xbd86e8e4	-0.06587389
66	0x3dc34e84	0.0953646
67	0x3e010505	0.12599571
68	0x3e28de8f	0.1649115
69	0xbd8db420	-0.06919122
70	0xbe70ea30	-0.23526835
71	0x3e4cb41e	0.19990584
72	0x3e235227	0.15949307
73	0x3dd91575	0.10599796
74	0xbd0de9fd	-0.034646977
75	0x3e1b3df9	0.1516036
76	0x3c8fbeeb	0.017547091
77	0xbd369bf7	-0.044582333
78	0x3e8683b9	0.2627237
79	0xbe86d574	-0.26334727

final.weight f4 [43, 80]
0	0xbe9a473e	-0.30132478
1	0x3dd6743d	0.104713894
2	0x3e1bc066	0.15210113
3	0xbdb281b7	-0.087161474
4	0x3d9043ab	0.07044157
5	0x3d4a84cf	0.049443062
6	0xbd192b13	-0.037394594
7	0xbe1483c0	-0.14503384
8	0x3de2a845	0.11067251
9	0x3d8eb57d	0.0696821
10	0xbd793230	-0.06083888
11	0x3e85ff92	0.26171547
12	0xbc1e1371	-0.00964819
13	0xbd7d9307	-0.061907794
14	0x3db60da5	0.08889321
15	0xbea971fd	-0.3309478
16	0xbec1579f	-0.37762162
17	0xbd738c08	-0.059459716
18	0xbd9df5b2	-0.07712878
19	0xbd1d2a86	-0.03837063
20	0x3d986718	0.074415386
21	0xbddd3720	-0.1080153
22	0xbf7871db	-0.9704873
23	0xbc96d9b3	-0.018414354
24	0xbdaa54f5	-0.083169855
25	0x3d9c3e52	0.07629074
26	0xbd06caac	-0.032908127
27	0x3c8bf90d	0.01708653
28	0xbfef6959	-1.8704025
29	0xbcea88aa	-0.02862962
30	0x3bb8e523	0.0056425496
31	0xbb66e5ab	-0.0035232108
32	0x3da64adc	0.08119747
33	0x3e48feb3	0.1962841
34	0x3df8786c	0.12132344
35	0xbdbe5289	-0.09293086
36	0x3e206a04	0.15665442
37	0xbb107dca	-0.0022047632
38	0xbdcbb944	-0.09947446
39	0xbdbb1a9e	-0.09135936
40	0xbe154b9d	-0.14579625
41	0xbd8135c0	-0.0630908
42	0x3e067bd8	0.1313318
43	0xbe73c652	-0.23806122
44	0xbe34e22f	-0.17664407
45	0xbe2c54a3	-0.16829161
46	0xbe9ded0b	-0.30844912
47	0x3d290621	0.04126561
48	0x3da6a28a	0.081364706
49	0xbe0dc840	-0.1384592
50	0xbbab7649	-0.0052326065
51	0x3c186a61	0.009302706
52	0x3e443153	0.1915944
53	0xbe452c25	-0.19255121
54	0x3de0c0de	0.109742865
55	0x3e4c98d1	0.1998017
56	0xbe459d69	-0.19298328
57	0xbdcf5b40	-0.101248264
58	0x3d076864	0.03305854
59	0x3daf7c67	0.0856865
60	0xbd8c2d2b	-0.068445526
61	0xbda78cc9	-0.081811495
62	0x3c202c52	0.009776192
63	0xbea09f00	-0.31371307
64	0xbe415d30	-0.18883204
65	0xbe090eef	-0.13384603
66	0xbdb2b9a5	-0.08726815
67	0xbe50eba7	-0.20402394
68	0xbd5d74e3	-0.05406655
69	0xbdc3eb60	-0.095663786
70	0x3daa5955	0.0831782
71	0x3c6c52cd	0.014424038
72	0x3bc64b78	0.006051477
73	0xbd21883a	-0.039436556
74	0xbe826237	-0.25465557
75	0x3d996174	0.07489291
76	0x3d2ed484	0.04268314
77	0xbe0905c0	-0.133811
78	0xbdd65e32	-0.10467185
79	0xbd499da5	-0.049222607
80	0x3d0bbacd	0.034113694
81	0x3d2c9c07	0.042140987
82	0x3df92e27	0.12167006
83	0xbddc455f	-0.10755419
84	0x3be696c6	0.0070370166
85	0xbc21ea4c	-0.009882521
86	0xbd9751ef	-0.073886745
87	0x3d89877a	0.06715293
88	0xbe090514	-0.13380843
89	0xbbdb824c	-0.006698882
90	0xbdee76bc	-0.116437405
91	0xbd312518	-0.043248266
92	0x3d429d86	0.047513507
93	0x3b7001c3	0.0036622144
94	0x3ca84352	0.020539913
95	0xbdb8aa40	-0.090168476
96	0x3d9f0f2b	0.07766565
97	0x3d440ff6	0.047866784
98	0x3b0a1c40	0.0021073967
99	0xbd855278	-0.0650987
100	0x3db96f72	0.0905446
101	0xbd2cf2dd	-0.0422238
102	0xbe8a8c65	-0.27060238
103	0xbdadb696	-0.08482091
104	0x3ce8185b	0.028331926
105	0xbcf4dee4	-0.029891439
106	0xbd1cebed	-0.038310934
107	0xbc3072e6	-0.010769581
108	0xbe0a4188	-0.1350156
109	0x3da17cb1	0.07885111
110	0x3dad949b	0.0847561
111	0xbd59e028	-0.053192288
112	0xbd28cc67	-0.04121056
113	0xbde34d88	-0.11098772
114	0x3bc4232a	0.005985637
115	0xbd9c04e0	-0.07618117
116	0xbc9b1544	-0.018931039
117	0x3e10667e	0.14101598
118	0xbc601154	-0.013676006
119	0xbdc6a04d	-0.09698544
120	0xbdb0d2c1	-0.08633948
121	0xbcab4bd5	-0.020910183
122	0x3d8395e9	0.064250775
123	0xbe0afdb3	-0.13573341
124	0x3da5ff1c	0.08105299
125	0xbd40088c	-0.04688315
126	0xbe39ae97	-0.18133007
127	0xbd06407a	-0.032776333
128	0x3db213a9	0.08695156
129	0xbcae7ac8	-0.021298781
130	0x3d5dc894	0.054146364
131	0x3d9ba188	0.07599169
132	0x3db22a05	0.08699421
133	0xbde93ced	-0.11388574
134	0x3d08bba5	0.033382077
135	0x3d441eca	0.047880925
136	0x3d8607ab	0.06544431
137	0xbd8e71c8	-0.06955296
138	0xbd2cf3de	-0.042224757
139	0xbd494a34	-0.04914303
140	0xbd1c02fa	-0.038088776
141	0x3dd3864d	0.1032835
142	0x3bf0365e	0.0073307
143	0xbdb2a33e	-0.08722542
144	0xbdffebbe	-0.12496136
145	0xbdd9dcb9	-0.10637803
146	0x3ca284e3	0.019838756
147	0xbddb59b8	-0.10710472
148	0x3b53b64c	0.0032304702
149	0xbc18e2dc	-0.009331431
150	0x3d14c702	0.0363226
151	0x3e1875ef	0.14888738
152	0xbd8efad9	-0.06981439
153	0x3dd90763	0.10597112
154	0xbdf9f2ab	-0.12204488
155	0x3dadd408	0.084877074
156	0xbd673fbd	-0.05645727
157	0xbc7eb5b5	-0.015546252
158	0xbcc1fe8d	-0.02368095
159	0xbdf2b161	-0.118502386
160	0x3c803218	0.015648887
161	0xbd73f673	-0.059561204
162	0x3d8f9370	0.07010543
163	0x3d087a84	0.033319965
164	0x3d79d627	0.060995247
165	0xbda53f29	-0.080686875
166	0xbdcf5c98	-0.10125083
167	0xbd4d59eb	-0.05013458
168	0x3e0385bf	0.12843989
169	0xbd0a387c	-0.033745274
170	0xbd89b227	-0.06723433
171	0x3c68968d	0.01419605
172	0xbd595dcd	-0.05306797
173	0xbca39736	-0.019969564
174	0xbdb3954e	-0.08768712
175	0xbde40bc3	-0.11135056
176	0x3dbd58b0	0.092454314
177	0x3d8319e9	0.06401426
178	0xbdb767e5	-0.08955363
179	0xbdcf7d28	-0.101312935
180	0x3b520e41	0.0032051953
181	0x3db32c08	0.08748633
182	0xbe193205	-0.14960487
183	0x3c5a49fd	0.013323304
184	0xbb5e41f0	-0.0033913814
185	0xbd3149b9	-0.043283198
186	0xbda3c65a	-0.07996817
187	0x3c590b31	0.013247297
188	0xbe348237	-0.17627798
189	0x3dbe0a24	0.09279278
190	0xbd3290ff	-0.04359531
191	0xbd895981	-0.06706525
192	0x3de853fb	0.11344143
193	0xbde739b0	-0.112903
194	0xbcd34f5d	-0.02579468
195	0xbd2c1cd8	-0.042019695
196	0x3973bbaa	0.00023244196
197	0xbc1271b0	-0.008938238
198	0xbe17f2d0	-0.1483872
199	0xbcb5470e	-0.022128608
200	0xbde3652b	-0.11103281
201	0xbd4b1605	-0.049581546
202	0xbd03beae	-0.03216427
203	0x3d42e7fd	0.047584523
204	0x3d418b07	0.047251727
205	0x3bcbff89	0.0062255305
206	0xbdaa50c9	-0.0831619
207	0xbdbdbe64	-0.0926483
208	0xbd5ef55f	-0.054433223
209	0x3d22d19c	0.03975068
210	0x3d5e8699	0.05432758
211	0xbd44579f	-0.047935124
212	0xbe1a67f1	-0.15078713
213	0xbdbc7082	-0.09201147
214	0xbd2c093b	-0.04200099
215	0x3d7a797b	0.06115101
216	0x3998d813	0.00029152687
217	0xbdd67e7f	-0.10473346
218	0x3cc6a6d2	0.024249468
219	0xbcfe69af	-0.031056253
220	0x3dc2063f	0.094738476
221	0x3dad9583	0.08475783
222	0x3e0b43a5	0.13600023
223	0xbe3fef8e	-0.18743727
224	0xbd8e59c5	-0.06950716
225	0xbd83f05a	-0.06442328
226	0xbda44df2	-0.080226794
227	0xbddb4f1b	-0.107084475
228	0x3de27eb9	0.11059327
229	0xbdf7715a	-0.12082167
230	0x3ce057b6	0.027385574
231	0x3dad198e	0.0845214
232	0xbcc9ee91	-0.02464989
233	0x3dff5572	0.12467469
234	0xbdf5c5d8	-0.12000626
235	0x3d122952	0.035683937
236	0x3baff1ce	0.0053694015
237	0xbdcc3796	-0.0997154
238	0x3b19350f	0.0023377573
239	0x3db52363	0.0884464
240	0xbd38bbc6	-0.04510095
241	0xbccbfc9b	-0.024900725
242	0xbd426969	-0.04746381
243	0x3e0f5aa3	0.13999419
244	0xbd85139c	-0.06497881
245	0xbdec5c1e	-0.115410075
246	0x3d61165c	0.054952964
247	0xbd2865f8	-0.04111287
248	0x3dc2362b	0.09482988
249	0xbe1732e2	-0.14765504
250	0xbd5e05a6	-0.054204606
251	0xbd4ceccc	-0.050030515
252	0xbb01abda	-0.001978627
253	0x3daf8059	0.08569402
254	0x3da6d363	0.081457876
255	0xbd39c2be	-0.045351736

final.bias f4 [43]
0	0xbe475a53	-0.1946805
1	0x3e3da9fa	0.18521872
2	0xbe0f44ed	-0.13991137
3	0xbd90e168	-0.07074243
4	0x3a238bf9	0.0006238814
5	0x3d8be276	0.06830303
6	0x3de00351	0.109381326
7	0x3c8c4b23	0.017125672
8	0x3e294329	0.16529526
9	0xbe0f7838	-0.14010704
10	0x3e2aa881	0.16665842
11	0xbdf626e0	-0.120191336
12	0x3e27c0bd	0.16382118
13	0xbc38eb5e	-0.011286585
14	0xbd8b5cd5	-0.06804816
15	0x3e44c71d	0.1921658
16	0xbdaf58b4	-0.08561841
17	0xbd5d7720	-0.054068685
18	0x3de18afd	0.11012838
19	0xbd99bdbc	-0.07506892
20	0xbd1d8451	-0.038456265
21	0xbe8b3a48	-0.27192903
22	0x3d7281b9	0.059205744
23	0x3d842867	0.06453019
24	0xbc564f66	-0.0130804535
25	0x3ce51524	0.027964182
26	0x3dd3ac09	0.103355475
27	0x3b7dd701	0.0038732889
28	0xbd29986d	-0.04140513
29	0xbddaefeb	-0.10690292
30	0x3baef870	0.0053396747
31	0x3ce28eac	0.027655922
32	0x3e01285f	0.12613057
33	0x3d8c0fb4	0.06838933
34	0xbe2bbf2b	-0.16772144
35	0xbdaacd71	-0.08339966
36	0x3c0231a2	0.007946404
37	0x3e05ce66	0.13067016
38	0xbe18f8c9	-0.14938654
39	0xbd4bcb5c	-0.049754485
40	0xbead568a	-0.33855087
41	0xbdca841f	-0.09888481
42	0xbe7d126f	-0.24714063
