Robustness/models/base_epsilon_0.000.pth (torch, 263698 bytes, 10 tensors)

conv1.weight f4 [6, 1, 5, 5]
000000 49 29 c3 be d9 55 24 bc 11 aa bc bd c7 40 37 3e
       -0.38117436 -0.010030233 -0.09212125 0.17895804
000010 37 79 27 bd ad 20 4c be 21 9c 21 be a2 ea 39 3e
       -0.040887084 -0.1993434 -0.15782215 0.18155912
000020 75 c2 ba b9 e3 fb 68 3c 45 56 e0 be d4 5e 86 be
       -0.00035621566 0.014220211 -0.43815818 -0.26244223
000030 d3 c0 8a 3b 62 0a e3 3e e7 f7 f0 3e 02 05 f5 be
       0.004234412 0.4434386 0.47064134 -0.47855383
000040 bc 13 a9 be f4 fd 46 bd 99 85 b4 3e 9d 01 dc 3e
       -0.3302287 -0.048582032 0.35258177 0.4296998
000050 a7 04 c6 be 7e d1 67 be 33 1f 82 3e b3 23 c5 3e
       -0.38675424 -0.22638509 0.25414428 0.385038
000060 27 70 df 3e 2f 59 c1 be d2 7a 9b be fe 63 fc be
       0.43640253 -0.37763354 -0.30367142 -0.49295038
000070 01 fe 65 be 8e ac 52 3d 1f 7f 9b be 81 76 a8 be
       -0.22460176 0.051434092 -0.30370423 -0.3290291
000080 ff 37 f9 be 23 f7 cf be f2 84 7a be 97 77 47 3e
       -0.48675534 -0.40618238 -0.24464777 0.19479214
000090 43 33 02 3e 2e d5 89 3d 79 44 31 be 13 bc 7f be
       0.12714867 0.06730114 -0.17311276 -0.24974088
0000a0 f7 60 74 3e 95 b9 cb 3e 37 19 ce 3e 3b 9d b0 3d
       0.23865114 0.39790025 0.40253612 0.08623739
0000b0 2e d6 fe 3d 3d 39 97 3e f9 78 fd 3e 03 fc f1 3e
       0.12443195 0.29535857 0.49506357 0.47262582
0000c0 c7 6e c4 3e 1b eb ae 3e 58 36 1e 3f a2 29 b3 3e
       0.38365766 0.34163746 0.6180167 0.349927
0000d0 24 83 bb bd 0d a3 66 bd 77 93 95 bc 2b 97 00 3f
       -0.091558725 -0.05630784 -0.018258793 0.50230664
0000e0 4c a5 fc bd de 00 9c be c3 5e d2 be 52 dd 74 be
       -0.123362154 -0.30469412 -0.41087922 -0.23912552
0000f0 d9 a5 b0 3d 37 e8 54 3a ec fe 09 bf ea f4 02 bf
       0.08625383 0.0008121761 -0.53904605 -0.5115496
000100 37 a6 be be de 7c d9 3e 1b 1b a5 be 54 b0 0a bf
       -0.37236187 0.4247808 -0.32247242 -0.54175305
000110 aa 77 32 bf f4 bf de be f5 c9 a8 3e 4d bc 09 be
       -0.6971384 -0.43505824 0.3296658 -0.13450737
000120 85 79 e0 be f5 a5 eb be 83 fe 84 3d 9d f2 04 be
       -0.43842712 -0.46025053 0.06493857 -0.12983175
000130 07 5f 8d be cd 38 54 be ec 4d 97 3e 38 4e 38 3e
       -0.27611563 -0.20724793 0.29551637 0.17998588
000140 35 8c b3 be 41 52 02 bf 6d 08 8a be b1 72 40 be
       -0.35067907 -0.5090676 -0.26959553 -0.18793751
000150 c6 b1 80 be c2 19 ab be 9f c2 d3 be 78 db c7 be
       -0.2513563 -0.3341809 -0.41359422 -0.3903463
000160 4e 6c c1 be 66 b3 4d be e9 c8 5a 3e 7d b0 87 bd
       -0.37777942 -0.20087966 0.21365704 -0.06625459
000170 41 53 ef 3d 84 af f6 bd b5 9f 40 be 5d a9 83 3e
       0.11685801 -0.12045196 -0.18810923 0.2571515
000180 df f3 06 bd c6 6d 9a 3e d1 28 96 3e b4 1d 55 3d
       -0.032947417 0.30161875 0.29328015 0.05203028
000190 38 3c 82 be 20 df a5 be d5 8d 0b 3c 31 0b 9d 3e
       -0.25436568 -0.32396793 0.008517702 0.306726
0001a0 94 14 34 3e 0f a4 b5 be 89 86 bf be 56 4b 9c be
       0.17585975 -0.3547673 -0.3740733 -0.30526227
0001b0 4a a7 41 be 7b ac 52 3e 81 19 6c be 29 2e 7b be
       -0.18911472 0.20573609 -0.23056604 -0.24529327
0001c0 19 78 ba be 8e 21 aa 3c 7e 3f b5 3d d8 3c 1d 3b
       -0.36419752 0.020767953 0.08850001 0.0023992565
0001d0 a7 be db be d9 67 09 be db a2 18 be 00 ca bc 3d
       -0.42918894 -0.13418521 -0.14905874 0.09218216
0001e0 ee 3c f8 bd d2 6f 1b be 3c 5c aa be d0 38 71 bd
       -0.121209964 -0.15179375 -0.33273494 -0.05889207
0001f0 19 4b 0f 3d de 10 8e be 25 ca 12 be 73 2e 46 3e
       0.034983728 -0.27747244 -0.14334925 0.19353656
000200 21 17 c4 3e 30 1e 63 3e 66 f2 0f bd f3 23 d9 be
       0.38298896 0.22179484 -0.03514328 -0.4241024
000210 17 02 37 bd a7 c3 9e 3e f0 fa 81 3e b2 cd fe bd
       -0.044679727 0.31008646 0.25386763 -0.12441577
000220 a5 28 bf be 86 6e cf bd cd 86 d6 3d 48 67 ab 3e
       -0.37335697 -0.101285025 0.1047493 0.33477235
000230 41 6e b5 3e 1e 20 78 be 25 10 1d be 3c 18 83 be
       0.3543568 -0.24231002 -0.1533819 -0.25604427
000240 cd 8a fd 3b 80 d3 02 3f b3 7d 8d 3e 2b 8e a6 be
       0.0077374936 0.51103973 0.27634963 -0.3253034
000250 fd 94 c0 be 2d 06 a5 bd
       -0.3761367 -0.080578186

conv1.bias f4 [6]
000000 53 38 ab 3e 3f 5b c9 3e 46 34 d5 3b e0 0f 07 3f
       0.3344141 0.39327428 0.0065064756 0.527586
000010 92 02 c5 be 70 53 20 3e
       -0.38478523 0.15656829

conv2.weight f4 [16, 6, 5, 5]
000000 ea 36 24 3e e4 ce 0d 3e cd 89 6a 3d 3f b4 ba 3d
       0.16036573 0.13848454 0.057260323 0.091164105
000010 61 a5 01 3e c2 b0 85 3e cd e3 af 37 99 c5 7e be
       0.12660743 0.26111418 2.0967704e-05 -0.24880065
000020 57 85 77 3e 58 6d a5 3e dd 8d 3d be 2c 90 ff be
       0.24171959 0.32309985 -0.18511148 -0.49914682
000030 3d 04 42 be 0a a0 a6 3e 72 ec c1 3e b1 09 c7 be
       -0.1894693 0.32543975 0.37875706 -0.3887458
000040 e4 cc 9a be 44 d9 53 3e 13 33 97 3e ad db e0 3d
       -0.30234444 0.20688349 0.29531154 0.109794
000050 d0 11 83 be ac 02 1a 3e cd 6f cd 3e a4 6a f6 3d
       -0.25599527 0.15040082 0.4012436 0.12032059
000060 64 5d 5e be fd cb d1 3e 3d 47 0a 3f ce d3 d8 3e
       -0.21715313 0.40975943 0.5401495 0.42349094
000070 e8 b0 b3 3e 8f 7f 66 3e ee f3 ad 3e 5d 5f d6 3e
       0.35095906 0.22509597 0.33975166 0.4186963
000080 40 77 a0 3e 07 56 13 3e 27 53 b8 3d 4d 49 6f bf
       0.3134098 0.14388286 0.09000235 -0.93471223
000090 d7 2e 9d bf ad 6e 85 bf d4 6a 24 bf 62 db 0f be
       -1.2279919 -1.04244 -0.64225507 -0.14048532
0000a0 51 d0 5b bf e3 12 60 bf 00 72 5b be 79 e8 20 3e
       -0.8586474 -0.8752882 -0.21430206 0.15713681
0000b0 1f 09 ae 3d c1 e7 07 3e c1 cf 35 3e 76 db ba 3e
       0.084978335 0.13272001 0.17755033 0.3649556
0000c0 35 d3 cb 3e 3a cd 0b 3e 4c e7 1c be dc c6 7c bd
       0.39809576 0.13652506 -0.15322608 -0.061713085
0000d0 aa 8e 75 bd 6e 3e 13 3b af 68 d8 3d 90 9a 34 be
       -0.05995051 0.002246763 0.10566842 -0.17637086
0000e0 0a 0a 5d be 88 a5 35 bd b3 6c 85 3d fe 6b 77 3b
       -0.21585861 -0.044347316 0.06514873 0.0037753577
0000f0 ab 51 db bc 85 37 88 3c 8e 6e 54 3e 71 24 9c 3d
       -0.02677234 0.016628036 0.20745298 0.07624138
000100 5f d0 5e bd d1 ef 6c 3d 6e a7 19 3e 15 2b dc 3d
       -0.054397937 0.057845894 0.15005276 0.10750405
000110 81 01 f4 3d 66 06 88 bd 2c b2 df bc 51 b9 9a 3d
       0.11914349 -0.066418454 -0.027306639 0.075548775
000120 ad 9c 13 3c 34 d9 3b 3c ef 2d 86 3d 8f 5a 90 3c
       0.009009522 0.0114653595 0.0655173 0.017621307
000130 66 2b 65 bc 57 29 61 3d 2a 53 51 3d 24 b5 88 3d
       -0.013987398 0.054971065 0.051104702 0.06675175
000140 9a 49 14 be 69 97 29 be c7 0b 3a be ca d0 56 3c
       -0.14481202 -0.16561665 -0.18168555 0.013111303
000150 fb 33 7e ba c3 04 0e be e5 f0 41 be a7 b6 8c bd
       -0.0009697077 -0.13869004 -0.1893955 -0.06870776
000160 ef ec 93 3d 4f c7 9a bd 67 cd f4 bc 6e eb 24 3d
       0.07222926 -0.07557546 -0.0298831 0.040263586
000170 5b 2c 13 3e 71 de 0b 3e 94 4c 12 3e ef 1a dc 3d
       0.14372389 0.13659073 0.14287025 0.10747325
000180 19 e3 df 3d 13 76 d0 3d a3 86 f3 3d 7d 96 3b 3d
       0.10931987 0.10178771 0.11890914 0.045797814
000190 b3 84 f3 bc 55 2d d2 bd fa 2c 02 3b 58 97 c1 bc
       -0.029726362 -0.10262553 0.0019863234 -0.023631737
0001a0 81 aa 7a bd bd 7e 78 be 2a 16 e8 bd 71 73 f3 bd
       -0.06119776 -0.24267097 -0.113323525 -0.11887253
0001b0 3d 30 fc bc 51 71 a8 3c 07 7a df bc b4 22 9e bd
       -0.03078472 0.020561846 -0.027279867 -0.07721463
0001c0 3d a8 49 bc 64 f5 30 3d 08 75 b3 bc f7 2c 2f bd
       -0.012308178 0.043202773 -0.02190639 -0.04276749
0001d0 c3 e4 85 bd 85 13 be 3d 04 b2 00 3e 82 76 eb 3d
       -0.065377735 0.09281067 0.12567908 0.11497213
0001e0 51 9a d5 bc 14 97 8d 3d e9 96 fb 3c 10 5f 45 3b
       -0.02607456 0.069135815 0.030711608 0.0030116476
0001f0 c8 12 18 bc fd f5 37 bd 86 a4 3b 3e d8 da 0a 3f
       -0.009281822 -0.044912327 0.1832448 0.5424018
000200 4b 85 f6 3e 8a 2d 07 3d 71 93 99 be 89 ca c7 3d
       0.4814857 0.033002414 -0.299953 0.097554274
000210 90 9e 9e 3e db 18 41 3e 3e da 6f be 0e ce fd 3c
       0.3098035 0.18857138 -0.23423097 0.030982044
000220 4b 5d 76 3d a8 cd 20 bd 5e a8 8e 3e 4c 3f 88 3e
       0.060147565 -0.03925863 0.2786283 0.26610792
000230 c7 5d 00 be 32 93 1a bf 2a e2 a9 be a7 08 33 3e
       -0.12535773 -0.6038085 -0.33180362 0.1748377
000240 fe f3 d7 3e 24 5c be be 76 aa ef be 6f fc c0 bd
       0.4217834 -0.37179673 -0.4680974 -0.09423148
000250 f9 99 b9 3d 65 3d a6 3c 26 b2 e1 bd e1 9b d6 be
       0.09062571 0.020292947 -0.11020307 -0.419158
000260 5e 32 8f be c8 e3 b1 bd d4 bf 27 be 4f 18 49 3e
       -0.27968115 -0.08686024 -0.1638177 0.19638179
000270 ad 77 09 bf 31 7d 0e bf 0d 18 a5 3d 58 15 65 3c
       -0.53698236 -0.55659777 0.08061228 0.0139821395
000280 6f e5 c5 3e b0 4f 77 be 02 58 29 bf 28 79 0f 3d
       0.38651606 -0.24151492 -0.66149914 0.035027653
000290 3c 13 64 3d 08 69 40 3e 75 dc 32 be de 45 06 bf
       0.055682406 0.18790066 -0.1746691 -0.5245036
0002a0 c6 7d 8b be 01 70 1e 3e d9 2e 8d bd 46 4f ce 3c
       -0.27244395 0.15472414 -0.06893701 0.025184285
0002b0 74 70 13 3b 5f 7f de bd d3 19 0c 3e e8 3c ba 3d
       0.0022497447 -0.10864138 0.13681726 0.09093648
0002c0 ff 63 97 3c 35 32 1d bd 17 36 d6 bd 6d 81 8e 3d
       0.018480299 -0.03837796 -0.104595356 0.0695828
0002d0 8e bb d2 3e 46 dd 0d 3f fb 17 86 3e de 25 1a 3c
       0.41158718 0.5541576 0.2619017 0.009408442
0002e0 1d 96 5a bc 32 2d 34 bd 72 9b 81 3e d0 07 83 3e
       -0.013341454 -0.043988414 0.25313908 0.25591898
0002f0 d7 4d 5b bd 9e f8 14 be 12 46 4f be c5 7e f3 bd
       -0.05354103 -0.14547965 -0.20241573 -0.11889414
000300 69 30 77 3c 45 ae 2a be 3a ac ad be f6 bc 6e 3e
       0.0150872255 -0.16668041 -0.3392046 0.2331427
000310 0b 6e 68 3e 0a b4 81 3e 94 cc dd 3e b6 94 18 3e
       0.22698228 0.2533267 0.43320143 0.14900479
000320 08 6e c6 3d 74 6c 73 3d 0d 76 34 3d 28 d7 2e 3d
       0.096889555 0.0594296 0.044057894 0.042685658
000330 c7 28 11 bb 04 3c de bd cc 56 84 3c 2f d9 e3 3d
       -0.002214955 -0.10851291 0.01615467 0.11125409
000340 71 43 51 3c c5 b3 0c 3c 78 e8 44 be 4a 1e 0e bd
       0.012772427 0.008587782 -0.19229305 -0.034696855
000350 60 2f 81 3d ed 5c e8 bc 05 40 ee bd ad da 3e be
       0.06307864 -0.028364623 -0.116333045 -0.18638106
000360 ce aa 89 bc 9d 15 ec 3d 86 56 a4 3d ce 64 03 3d
       -0.016805079 0.1152756 0.080243155 0.032078557
000370 27 71 6d bd 29 d4 e7 3c 64 88 46 3c 35 b6 7a 3d
       -0.05796924 0.028299408 0.012117479 0.061208922
000380 8e 1a ec 3b 95 d3 42 3d 61 7b 7f 3d ee 2e ce 3d
       0.007205314 0.04756506 0.062373523 0.10067545
000390 52 f3 3c 3d 73 49 9e bd c8 70 7e 3d 89 f2 d8 3d
       0.046130486 -0.07728853 0.062119275 0.10593135
0003a0 45 df 09 3e 96 01 ef 3d ca aa 4d 3d 52 fb fb bd
       0.13464077 0.11670224 0.050211705 -0.12303795
0003b0 ca 27 82 bd 56 8d b3 3d 6e a6 70 bc 67 2f 6b bc
       -0.063552454 0.08767192 -0.014688117 -0.014354563
0003c0 74 67 1b be ef e9 a7 bc b5 0a b3 3d 8e 15 c3 3c
       -0.15176183 -0.02049729 0.087422766 0.023813989
0003d0 09 9b 17 3d 51 b2 82 bd d7 2e aa bc 22 d0 0e 3c
       0.037013087 -0.063816674 -0.020774288 0.008716615
0003e0 e7 06 05 bc 5a a7 8e 3c 75 b0 a8 bc 60 12 52 bc
       -0.008119321 0.017413784 -0.020591954 -0.012821764
0003f0 39 9c 37 3e 1d b9 ab 3d 5a a8 20 3d 86 e9 9a bd
       0.17930688 0.08384917 0.039223053 -0.07564072

conv2.bias f4 [16]
000000 d4 7c 37 3e 8d 1e 55 be 84 71 b2 bd da eb b9 3e
       0.17918712 -0.20812435 -0.08713058 0.36312753
000010 2f 8b 4d 3d 3f a8 b1 3d 8b 62 f6 3d 8b 51 2e 3e
       0.050181564 0.086746685 0.12030514 0.17023294
000020 84 25 3f 3b 63 5c 43 3e 99 20 07 3c 5d 30 3b 3c
       0.0029166648 0.19078211 0.008247518 0.011425105
000030 43 7e 1a 3e d6 79 02 bd aa e8 72 be 73 c9 64 3e
       0.15087228 -0.031854473 -0.23721567 0.22342472

dense1.weight f4 [128, 400]
000000 3e ed 13 3d 44 28 07 bd 32 5c 76 3b 07 ad e0 3d
       0.036114924 -0.032997385 0.0037591574 0.10970502
000010 6c 99 cc bd 26 0e 1b 3d dc fa 1e 3e 87 eb 8d be
       -0.099902004 0.03785529 0.15525383 -0.27718756
000020 25 15 6e 3d ab 75 f2 bd 8b bf 2c 3e d3 82 17 bc
       0.058125634 -0.1183885 0.16869943 -0.0092474995
000030 43 80 f2 3d b2 c6 5f 3e f7 1e ea bc b5 b5 d4 3d
       0.1184087 0.2185314 -0.028579218 0.1038622
000040 7e c6 a2 3e 78 3d 07 3f 7c 3e 00 3e 22 67 3b 3d
       0.31792063 0.5282817 0.12523836 0.045752652
000050 71 98 33 3d f7 76 b8 bb 48 6c 14 3e 35 3e bd bb
       0.04384655 -0.005629416 0.14494431 -0.005775238
000060 36 8a 6a bd 8a 7a d3 3d 0d dd 2b bd 0e 2c 62 bd
       -0.057260714 0.10326107 -0.041958857 -0.055217795
000070 05 0b 86 3c 0f 81 61 bc b4 59 1f 3c c3 03 7f bd
       0.016362676 -0.01376368 0.009725977 -0.062259447
000080 0c cd f4 bd b1 78 74 bc 49 19 b2 3c 03 a9 e0 b9
       -0.11953172 -0.014921353 0.021740573 -0.00042850533
000090 35 3d 63 bb eb ac 67 bd 49 0e 1b bd fc e4 c5 3d
       -0.0034673933 -0.05656139 -0.03785542 0.09662816
0000a0 4f 36 d1 3c ba 39 dc bd 42 29 b8 ba 6b de ae 3d
       0.025538592 -0.10753198 -0.0014050382 0.085385166
0000b0 cd f0 02 3e f9 eb f5 3d 38 92 55 3d df cf 8e 3d
       0.1278717 0.12007899 0.0521414 0.06973242
0000c0 56 3c 27 3d 81 cc d1 3d 45 fc cb bc 6e fb 66 3d
       0.040829025 0.10244084 -0.024900565 0.056392126
0000d0 8f a3 b9 bc 8c 74 8e bd 0e 19 65 3d ed 66 8f 3d
       -0.022660999 -0.06955823 0.055932097 0.070020534
0000e0 af 23 3d 3d 81 cf 26 bd f4 45 5b bc cd fd b1 3c
       0.04617661 -0.040725235 -0.013383377 0.021727467
0000f0 b6 90 0e 3e 95 88 93 3d 09 b9 1e 3d fa 52 8e bc
       0.1392239 0.07203785 0.038750682 -0.01737355
000100 eb cf e5 3c 13 30 5e 3d e4 ac 4a 3d e4 e3 37 bc
       0.028053245 0.054245066 0.049481288 -0.011223767
000110 14 f4 0a 3d ab ab aa bb 19 72 6c 3d 21 07 c4 3d
       0.033924177 -0.0052084527 0.057726 0.09571672
000120 98 df 14 3e 6a 9e e3 3d 06 41 a6 3d 53 b7 ea bd
       0.14538419 0.111141995 0.08117871 -0.114607476
000130 cc ac 04 be 24 82 0d be 18 88 99 bc 68 0b 2a 3d
       -0.12956542 -0.13819176 -0.018741652 0.041514784
000140 67 70 21 3d 3d 57 43 be 77 3f ae bd b3 ea 1b 3d
       0.039413836 -0.19076248 -0.08508199 0.038065623
000150 49 1b 2c 3c b6 e3 94 3d af c1 b3 bc 3a 7f fc bb
       0.010504552 0.07269995 -0.021942941 -0.0077055963
000160 dd 1f d5 3d 33 89 76 3d 3d 92 3f 3e 8a 35 26 bc
       0.10406468 0.060189437 0.18708129 -0.010144601
000170 95 1b d4 3d 7d e0 14 be 96 02 cb bd cc 87 bd bd
       0.10356823 -0.1453876 -0.099126026 -0.09254417
000180 b2 bd ef bd 07 2c 4b 3d ff 35 d8 3d 94 ca 21 3d
       -0.117061034 0.049602535 0.10557174 0.039499834
000190 2b 68 51 3d cd f7 52 3e a3 5c b1 bd ce 09 8c bd
       0.051124733 0.20602341 -0.08660247 -0.068378076
0001a0 9e 3d 29 bd d6 46 ae 3d 39 73 f3 3d 04 94 bc bd
       -0.04131853 0.08509605 0.11887211 -0.09207919
0001b0 54 a1 90 bd a6 79 4a 3d b2 db 23 3d e5 ac c4 3d
       -0.07062021 0.04943242 0.04000444 0.096032895
0001c0 44 75 19 bd 4d bd 3d be e6 f5 b5 3d 58 8e 90 ba
       -0.03746535 -0.18529244 0.08884792 -0.001102875
0001d0 26 11 3f 3e 48 8f 2b bc 68 6f c4 bb 78 d0 8d 3c
       0.18658885 -0.010471173 -0.005994726 0.01731132
0001e0 0c 94 66 bd 3a 86 a2 3d fc ab 92 3d 16 fd 2d bc
       -0.056293532 0.07935758 0.0716171 -0.010619422
0001f0 98 2b 59 3d 1b 33 86 3c 22 4f d9 bb b9 38 12 be
       0.05302009 0.01638179 -0.006631748 -0.1427945
000200 12 1d 9f 3d c2 1d 96 3d 71 87 9f 3d 41 76 b4 3c
       0.077692166 0.073298946 0.07789505 0.022029044
000210 27 4d b3 bd c3 24 e9 3b 35 ca a3 bc a2 1b 3f 3d
       -0.0875495 0.007114978 -0.01999388 0.046657212
000220 2c b0 26 3d c8 de 08 3e 3a 9a 4f bc af b8 74 3c
       0.040695354 0.13366234 -0.012671048 0.01493661
000230 8f ca 2b be 9b 0d bb 3d d9 3c e3 3d 8a f9 05 be
       -0.16776489 0.091334544 0.1109559 -0.13083473
000240 b5 f9 d9 bc 5f 9a c5 bd 24 91 bb ba b5 12 45 bc
       -0.026608327 -0.096485846 -0.0014310223 -0.012028386
000250 4b 6c 30 3e eb 47 c0 bc 05 11 1a be 7b a2 87 3d
       0.1722881 -0.023471793 -0.15045555 0.066227876
000260 7f f8 3d bd d3 57 a7 3c 71 67 d6 3d 62 bf cf 3b
       -0.046379562 0.02042762 0.10468949 0.0063399533
000270 34 08 fd bc 8f d7 ec 3d df 9f 1a 3d 3f 41 fb 3d
       -0.0308877 0.11564552 0.03775012 0.12268304
000280 da 0a 96 bd 14 f7 27 bd 58 d3 01 be 54 fc 0b bc
       -0.073262885 -0.041007116 -0.12678277 -0.008544046
000290 f1 c6 08 3e e1 f1 35 be fe 50 00 be 15 9f 6c 3d
       0.1335714 -0.1776805 -0.12530896 0.0577689
0002a0 ea fd 73 3e 08 71 16 3c 46 56 74 bd da 4f 4d be
       0.2382733 0.009182222 -0.05965259 -0.20049992
0002b0 ef f7 1f be c1 5e 1d 3c 28 41 42 be 24 e7 8b 3d
       -0.15621923 0.009605111 -0.18970168 0.06831196
0002c0 a9 3e 2f be 43 ca af bc d0 a6 b7 bd 40 47 c0 bc
       -0.17113747 -0.02145875 -0.08967364 -0.023471475
0002d0 07 1a 42 bd 97 07 18 be ed 8e c0 bd da 5d 17 3c
       -0.047388103 -0.14846645 -0.09402261 0.009238685
0002e0 fb 8a 72 3d 79 00 39 be 47 1f 92 bc d8 46 0c 3e
       0.059214573 -0.18066587 -0.01783718 0.136989
0002f0 2d 9e a9 3c dd 64 a9 3d cd e8 bb bd 36 85 82 bd
       0.020705307 0.08271191 -0.091752626 -0.06373064
000300 be 08 3c 3b b7 7c 17 3e 44 7c 0c bd 51 28 44 bd
       0.0028691734 0.14793669 -0.034298196 -0.04789001
000310 b5 05 37 be 7f 2c fe bb fc b1 e1 bc 7a fe 34 3e
       -0.17873271 -0.007756769 -0.02755069 0.176752
000320 b0 37 a7 bc b4 0e 97 3d b2 75 32 3d d5 40 6c 3d
       -0.020412296 0.07375851 0.043569274 0.057679016
000330 56 51 9b 3d 08 ee 7e 3c 6d 79 38 3e be aa c9 3d
       0.07583873 0.015559681 0.1801507 0.098470196
000340 3f e7 53 3d 17 e7 1e be 2f cc 0d 3e ed 56 29 3e
       0.051734205 -0.15517841 0.13847421 0.16537066
000350 2f 74 14 be 1c 5a d2 bd d8 44 27 be 41 ff 55 bd
       -0.14497446 -0.10271093 -0.16334856 -0.052245382
000360 52 97 17 3d b7 cc 30 3e 5e 25 a0 bd 69 71 14 bd
       0.037009545 0.17265593 -0.07819627 -0.03624097
000370 25 cb 07 bd 8d 02 ef 3b 7d a9 0d 3e ed 17 4e be
       -0.033152718 0.0072940052 0.13834186 -0.20126314
000380 a0 ef 6b 3b db 65 04 3e 38 f5 77 3d 32 eb 71 bd
       0.0036000982 0.1292948 0.060536593 -0.05906219
000390 a8 71 22 bb a2 e9 cc bd af 02 f2 bc aa 58 3f 3e
       -0.0024786983 -0.100054994 -0.029542295 0.18686166
0003a0 59 a7 6f be 9f 92 ea bd 3c f2 97 bd e9 14 df 3c
       -0.23403682 -0.11453747 -0.074192494 0.02723165
0003b0 83 d3 74 3d f1 69 2d 3e 0b fe 22 be fc 7c 31 3d
       0.059772026 0.16934945 -0.15917222 0.043332085
0003c0 1e 78 c1 bd 7d 74 93 bb c9 87 5e 3e 2f 34 8d bb
       -0.09446739 -0.0044999705 0.21731485 -0.0043091993
0003d0 6f 7f 89 3d b8 88 26 3d 42 1c 8e bd a9 ce 6f 3c
       0.06713759 0.04065773 -0.069389835 0.014636674
0003e0 7c 1b a9 bc e3 b2 74 bb a6 e3 d2 bd b4 6f 7e 3d
       -0.020642988 -0.003733807 -0.10297327 0.062118247
0003f0 f3 e4 19 be 58 96 91 bc 7b 28 8a bd af dd b7 bc
       -0.15028743 -0.017771885 -0.06746002 -0.022444574

dense1.bias f4 [128]
000000 7b 05 06 be 71 d6 42 bd 53 89 10 3e 58 85 08 bd
       -0.13088028 -0.04756779 0.14114885 -0.03333029
000010 e8 ea ce 3c 92 79 68 b9 5e 6c 17 3b 46 f7 52 bd
       0.025258496 -0.00022170533 0.0023105363 -0.05150535
000020 a3 fb 01 3e dc b4 a5 bc d0 40 64 3d 65 26 c8 bd
       0.12693648 -0.020227842 0.055725873 -0.09772948
000030 ee 87 18 3c 62 f7 c1 bd 08 11 b9 bd 61 58 d5 3c
       0.009309752 -0.09471013 -0.090364516 0.026043119
000040 06 4e 59 bc be 4d d8 3d 26 9e 08 be 2f 7f 48 3e
       -0.013263231 0.10561703 -0.13341579 0.19579767
000050 b8 f3 35 bc 8b bf b2 3b e2 ed 00 3d e4 d4 cd bb
       -0.01110547 0.0054549626 0.031476863 -0.006281482
000060 fe e0 c1 3c fa 85 30 3b 87 a9 5d 3b b5 52 a7 bc
       0.023666855 0.0026935325 0.003382297 -0.02042518
000070 d6 aa 25 bd ff 8a 08 bd 65 5a a8 bd 79 99 e7 3e
       -0.040446125 -0.033335682 -0.082203664 0.45234278
000080 59 57 12 bd 55 2c 42 3d 07 2b 1d 3d e3 02 63 bd
       -0.035727832 0.04740556 0.038371112 -0.055422675
000090 ab ed 6a 3d 73 c0 0b 3d de 6c 2b 3d b0 76 a1 bc
       0.057355564 0.03411908 0.04185187 -0.019709915
0000a0 32 3a 6b bd ae 6f e7 3d 42 cb 73 bd 7c bf 26 bd
       -0.057428546 0.11300598 -0.059520014 -0.040709957
0000b0 97 d9 95 3d 1a 9b 4a 3c be 1f 15 3d be 2e 5d 3e
       0.073168926 0.012366081 0.036407225 0.21599862
0000c0 d1 88 15 bd c5 13 0b 3d 55 e1 65 3d 45 46 99 bb
       -0.03650743 0.0339544 0.056123096 -0.0046775662
0000d0 86 9c 57 bd 24 79 77 3d 11 0c f2 3d 83 7f 68 3b
       -0.052639507 0.060418263 0.11818708 0.0035476394
0000e0 cb b8 84 3e 44 da 9e 3d c6 30 67 bc 52 53 d6 3d
       0.25922236 0.077564746 -0.01411075 0.10465111
0000f0 6d 15 5e ba 94 d4 e7 3c ed 83 91 bd d0 be 86 bd
       -0.00084718206 0.028299607 -0.07105241 -0.06579363
000100 f4 47 12 bc 8d a5 5a 3d 7b 14 9a 3d ff 4b 19 3c
       -0.008928288 0.053380538 0.075234376 0.009356498
000110 ba 89 d7 bb f3 57 e5 3d fb d3 f8 bc 78 2e 54 3e
       -0.0065776976 0.111984156 -0.030374518 0.20720851
000120 9f 5d ce ba 84 21 91 bc 2d 43 77 3e 68 d2 13 bd
       -0.0015744454 -0.017716177 0.2414672 -0.03608933
000130 27 9f 10 3e 25 4c 08 be c2 1a 87 3d 8c b4 c5 bc
       0.14123212 -0.13310297 0.065969005 -0.024133943
000140 fc 90 a1 bd 2f 33 f5 3d eb bb b2 3b 37 24 91 3d
       -0.07888982 0.11972653 0.0054545305 0.070869856
000150 6b 2e 06 3c fe e8 3e 3d 70 26 92 bc 83 da 43 bc
       0.008189778 0.046608917 -0.017840594 -0.011953953
000160 7a 86 c2 3d 33 de c1 bd 78 67 c5 3c ee 73 8f bd
       0.094983056 -0.09466209 0.02409719 -0.07004534
000170 eb ed 40 bd fd f6 d5 bc 2c c0 56 3c ef 70 0c be
       -0.047101896 -0.02611875 0.013107341 -0.13714956
000180 c6 3f 83 3d 12 a7 95 3d 24 36 ac 3d 15 3e 6a 3e
       0.06408648 0.07307257 0.08408764 0.22875245
000190 7d dc 73 bc 03 42 12 3d c0 75 02 bd 32 63 95 3e
       -0.0148841115 0.035707485 -0.031850576 0.29177243
0001a0 10 73 2a bd 0a 51 de bb d6 63 be bc 29 b9 2d bd
       -0.04161364 -0.006784563 -0.023240965 -0.04241291
0001b0 61 4f 74 3e 10 36 74 3d 9f f1 07 be 08 23 31 bc
       0.23858406 0.05962187 -0.13275765 -0.010811575
0001c0 c0 23 ba ba df 4a b2 bc 9d cd 81 3e 96 69 6c bd
       -0.0014201328 -0.021764217 0.25352183 -0.057717882
0001d0 4d 1f 28 3d 4c d3 0a bd 02 1f 26 bd a8 8c 0e bd
       0.041045476 -0.033892915 -0.040556915 -0.03480211
0001e0 48 8d ef 3d a2 6b 99 bd fd b9 e0 bc 61 af 65 3e
       0.11696869 -0.074912325 -0.027432436 0.22430183
0001f0 d1 dd 4d 3e 44 86 64 3b 6c cd d6 bc 96 3e d4 bc
       0.20104147 0.0034870068 -0.026221 -0.02590875

dense2.weight f4 [64, 128]
000000 a5 ca 12 3d 00 a1 41 3d 52 6a 22 3e 92 b6 44 bd
       0.035837788 0.047272682 0.1586087 -0.048025675
000010 a3 32 00 bd 9b 92 a7 3d 28 e6 01 3e f5 3a af 3d
       -0.03129829 0.0818226 0.12685454 0.08556167
000020 72 7d 03 3c 00 6d da 3b 9e 01 90 bd 45 a4 a8 bd
       0.008025514 0.006665826 -0.070315585 -0.08234457
000030 14 b6 d8 3c 6b 24 e2 3d ab c1 cd bd 42 5f ae 3c
       0.02645401 0.110421024 -0.10046705 0.021285657
000040 d1 00 9b bd ea 81 13 be 4d eb a7 bb 89 1b f6 3d
       -0.07568515 -0.14405027 -0.0051244856 0.12016971
000050 4d 08 11 bd 37 4e a9 bc bf ca d9 3d e9 55 4e bd
       -0.035408307 -0.020667179 0.10634374 -0.0503749
000060 ae 67 6c bd 1d 05 3b 3d 16 24 2b bd fb 25 83 be
       -0.057716064 0.045659173 -0.04178246 -0.25614914
000070 8e 45 19 bc eb 11 b5 bd cc d6 8b be 25 49 41 3d
       -0.009354962 -0.08841308 -0.27312315 0.047188897
000080 83 61 49 be 11 46 0a 3e 89 43 0a bd eb 6c c0 3c
       -0.19666104 0.1350329 -0.033755813 0.023489436
000090 58 eb 4d bd 22 01 2f bd 0a 07 82 3c cd 99 d5 bc
       -0.05027327 -0.04272569 0.015872497 -0.026074314
0000a0 f0 f3 b3 3d 1e 8c a3 3e e2 8f 7a 3d fd 7e 91 3e
       0.08786762 0.31942838 0.061172374 0.28417197
0000b0 16 56 c9 3d 79 82 41 be 0b 81 78 3e 49 d1 60 bd
       0.09830873 -0.18897428 0.24267976 -0.05488709
0000c0 04 a6 47 bd 7b 61 f2 bd 13 d6 f4 bb ce bd 93 bd
       -0.04874231 -0.11834999 -0.0074718087 -0.07213937
0000d0 8a a5 03 bd 80 a7 c1 3d 7d 43 2b be f6 cf 1f bc
       -0.032140292 0.09455776 -0.16724963 -0.009754172
0000e0 fe 43 36 3e 78 c8 28 3e 8d eb 64 bd 8e 0f 78 3c
       0.17799374 0.16482723 -0.0558887 0.015140427
0000f0 90 58 8b 3c a6 cd be bc 7a 5d 96 3d 2b 54 76 bd
       0.017010003 -0.02329142 0.07342048 -0.060138863
000100 af fb 0f bd 1a 3e 39 3e 39 5c 65 3c 7d 45 46 bc
       -0.035152134 0.18090096 0.013999038 -0.012101528
000110 dc 60 17 bd 74 40 0c bd 89 57 6a 3c 61 82 aa bc
       -0.036957607 -0.034241155 0.014303097 -0.020814123
000120 a8 f9 a8 bd d3 ab 8d bc ca 4d 83 3d 87 06 21 3e
       -0.08250743 -0.017293846 0.064113215 0.15725146
000130 6c 68 e3 3d bd 84 fc bd 46 54 94 3c 9a bc 92 3d
       0.11103901 -0.12330005 0.018106591 0.07164879
000140 c2 a5 cc bc be 72 0f 3e d3 4a 4a be ce b8 66 3e
       -0.024981383 0.14008614 -0.19755106 0.22531435
000150 3c 44 38 3e 2b 5b f0 3b f4 61 62 bd 95 e4 8c 3c
       0.1799478 0.007335087 -0.055269197 0.01719884
000160 b2 56 e8 bd bb db 2a 3e 14 31 8b 3d 7f 74 94 bd
       -0.11344661 0.16685383 0.0679647 -0.07248782
000170 7d 54 be bb fb 3a d2 3d 3a 44 a1 bd 93 fb 47 be
       -0.0058084116 0.10265156 -0.07874341 -0.19529562
000180 39 01 25 ba 60 af 46 3b 43 30 c4 3d ae f4 06 3e
       -0.00062944327 0.0030316934 0.09579518 0.13179275
000190 f5 b8 58 bb 8b a5 6e 3d a3 79 63 bd c7 60 35 bc
       -0.0033069227 0.058263343 -0.055535924 -0.011070437
0001a0 df 40 18 3e 34 01 1b 3d 99 fd 99 3b 50 32 8a bc
       0.14868496 0.037842944 0.0046994206 -0.016869694
0001b0 ec d3 8d 3d d7 43 8d 3d c8 c7 b5 bd 16 4b 94 bd
       0.069251865 0.06897705 -0.08875996 -0.07240884
0001c0 8f 22 52 3d a3 b9 94 3d a4 dd b4 bd 45 ba 58 bd
       0.05130249 0.0726197 -0.08831337 -0.052912015
0001d0 a9 fd 42 bd 73 be 8b bc 04 bf 93 3d e4 19 d1 3c
       -0.04760519 -0.017058587 0.07214168 0.02552504
0001e0 8e 86 ed 3d f7 74 d3 3d 10 aa 9e 3d 37 25 98 3b
       0.1159793 0.10325044 0.077472806 0.004643108
0001f0 b7 ba 7d bd 56 2f 63 bc 70 c0 04 3d 4f c2 f6 3b
       -0.061945643 -0.013866266 0.032410085 0.0075304876
000200 4c 5c 78 3d 4f dd e1 3c 99 e8 8c bd c0 e6 58 3d
       0.060634896 0.027571348 -0.06880302 0.052954435
000210 cc cb 91 3b cf 05 77 3d da 1b 8d be 47 80 98 3d
       0.0044493433 0.060308274 -0.27560312 0.07446342
000220 d7 2d 8e 3d 67 c5 93 3d ed a5 5e 3d e8 68 87 bd
       0.06942337 0.07215386 0.054357458 -0.06611806
000230 0d 10 3c 3e 6b 19 a6 bd 59 8d 14 bc fa 65 25 bd
       0.18365498 -0.08110317 -0.009066903 -0.040380456
000240 86 8e 37 bd 3b c2 b4 3d 18 10 37 3d 54 95 20 3e
       -0.044813655 0.08826109 0.044693083 0.15681964
000250 59 fe 27 be bd 32 8a 3d 38 7b 31 be 80 39 ed bc
       -0.1640562 0.06747959 -0.1733216 -0.028958082
000260 5c d4 f9 bc 05 9f a1 3d 91 83 99 3d b1 26 83 bd
       -0.030496769 0.07891659 0.074957974 -0.06403864
000270 a9 26 e6 bc 72 6a e7 bd 6c a3 38 3e b7 d6 68 3e
       -0.028094606 -0.112996 0.1803109 0.22738157
000280 55 ce 26 bc 10 a9 0c 3e c9 bd 83 bd 14 d0 84 bb
       -0.010181029 0.13736367 -0.06432683 -0.004053125
000290 cb 40 9b 3e ff 72 6e 3e e6 2d 26 3e 06 24 db 3a
       0.3032287 0.23286055 0.16228446 0.001671911
0002a0 78 52 db bd 87 87 3d be 5f 28 85 bd fb 9e 9d bd
       -0.10709089 -0.18508731 -0.06501841 -0.07696339
0002b0 89 b4 44 3e e3 da 0d 3e 0f 1e 5e be 74 59 04 3e
       0.19209494 0.1385303 -0.21691154 0.12924749
0002c0 88 a0 0c bd 18 bf 11 3e ed 1e 91 bd 81 3a ec 3d
       -0.034332782 0.14233053 -0.07085977 0.11534596
0002d0 91 67 21 3d 7e 47 18 3d d2 48 c8 bb 6f 83 95 bd
       0.03940541 0.037177555 -0.0061121965 -0.073004596
0002e0 d2 4c 21 be 1c da c3 3b 69 58 6c bd 26 e2 c2 bd
       -0.15751961 0.0059769284 -0.057701502 -0.09515791
0002f0 be 3e 73 3c 2d f2 92 3d 10 49 13 3d 4d 60 08 3b
       0.014846502 0.071750976 0.03595835 0.0020809353
000300 f4 31 8e bd c9 91 71 be 11 58 9b 3d 53 fa 93 bd
       -0.069431216 -0.23590769 0.07585157 -0.0722548
000310 41 ab 8f 3a 23 70 91 3d 5e b8 b2 bd a7 dd 64 bc
       0.0010961072 0.071014665 -0.087265715 -0.013968862
000320 8e fc a3 bd 96 e6 00 be a4 d9 31 3d af 32 64 bc
       -0.08007155 -0.12587962 0.04342045 -0.0139281
000330 a8 6f 01 3d 88 12 67 3d 3f 03 d6 bd 85 45 c1 bc
       0.031600624 0.056414157 -0.10449838 -0.02359272
000340 73 ad b1 3c 24 02 82 bd 33 42 c0 bc be 0c 57 3e
       0.021689152 -0.063480645 -0.023469066 0.21000955
000350 b1 10 fe 3d 80 09 31 bc 3b 7b 30 3d fe ed 1e be
       0.124055274 -0.010805488 0.04308627 -0.15520474
000360 33 81 45 3e 8a ab 4f 3c ed c5 3e 3e cd 3b fe 3d
       0.19287567 0.012675175 0.1863019 0.1241375
000370 a8 a2 22 bc 5e 39 94 3e 01 9b 3b 3d 00 5b 2b 3d
       -0.009926476 0.28950018 0.04580212 0.04183483
000380 8c 99 ee bb 01 23 ec 3d 92 ea 47 3e fd 1b 86 3c
       -0.007281488 0.11530114 0.19523075 0.016370768
000390 a6 02 1b be 65 e2 c4 3c a6 29 7b 3d 61 6e 12 3d
       -0.15137729 0.024033735 0.061319016 0.035749797
0003a0 2b 08 0e be 49 e3 c3 bd 79 91 2c be 96 c3 a9 3d
       -0.13870303 -0.095648356 -0.16852368 0.08289258
0003b0 d7 b1 24 3e d3 41 4a 3d ff e0 03 be 8a fe 81 bc
       0.16083466 0.04937918 -0.12878798 -0.015868444
0003c0 a2 70 20 bd 7b a1 35 bd 5d 78 6c 3e 6c 94 2d 3c
       -0.039169915 -0.044343453 0.2309279 0.010594469
0003d0 18 de 3a be 19 3a 04 3e 13 e5 28 3c 49 0c ce bb
       -0.18248785 0.12912787 0.010308522 -0.0062880856
0003e0 c6 50 da bc 0e 00 8f bb dd c5 28 be 14 b5 47 bd
       -0.026649844 -0.00436402 -0.16481729 -0.048756674
0003f0 b7 cf cb bd 27 be 24 3d b6 c2 60 3d 70 94 8c bd
       -0.09951728 0.040220406 0.05487319 -0.0686425

dense2.bias f4 [64]
000000 5f 77 38 3e d6 89 5d 3e e6 6b bc 3d 26 c7 e0 3d
       0.18014286 0.21634611 0.092002675 0.109754845
000010 76 2e aa bd d4 f7 8e bd e3 2d 82 bd e1 6c bf 3c
       -0.08309643 -0.06980863 -0.063564084 0.023367347
000020 48 49 94 3d b0 34 03 be 3b 12 5c 3e 8c 73 0b 3e
       0.0724054 -0.12813067 0.2149133 0.13618296
000030 31 06 33 3e 51 6a 50 bc 03 4f 18 3e 38 01 39 bd
       0.1748283 -0.01272066 0.1487389 -0.045167178
000040 15 a3 f3 3c 51 86 88 bd b0 f3 e6 3d 08 ca 33 3e
       0.02974085 -0.06666244 0.112769485 0.17557538
000050 45 65 4d 3e 16 af 54 3d be 78 7b 3d ba 08 82 bc
       0.20058163 0.051924787 0.061394446 -0.015873302
000060 91 2d 39 3d 76 7e 4a 3e 1e 02 89 be 1a 41 33 3e
       0.04520947 0.19774804 -0.26759428 0.17505303
000070 cf 00 ad 3d af 93 37 be 9f 2b 13 3e b1 9b 73 bd
       0.0844742 -0.1792743 0.14372109 -0.05947465
000080 c8 b2 b1 bd 57 7e 7b 3d 74 0e b1 bd 30 f9 fa 3d
       -0.08676678 0.061399784 -0.08645335 0.1225456
000090 94 a7 03 bd 9c a6 37 bb 6d 70 d7 bd 77 bd 2e bc
       -0.032142237 -0.002802289 -0.105194904 -0.010665289
0000a0 49 6e 12 bd 18 ba 84 bd 45 4c 86 bd 9b 6e ff 3d
       -0.035749707 -0.06480807 -0.06557516 0.12472268
0000b0 d1 c5 66 3d be 7a 4a bd ac 18 37 bd a8 e0 85 3d
       0.056340996 -0.049433462 -0.044701263 0.065369904
0000c0 c3 b1 c7 3b e4 a9 fe 3c 7b fa 08 3e 3a 9a 06 3d
       0.006094189 0.03108687 0.133768 0.032861926
0000d0 10 ed a8 bc b6 dc b2 3b 10 f2 33 3d b3 cb dd 3c
       -0.020620853 0.0054584397 0.04393202 0.02707467
0000e0 8d 7e e7 bd 57 13 c4 bd bb 6b c8 3c 5e 42 07 bd
       -0.113034345 -0.09574001 0.024465432 -0.033022277
0000f0 fd ec 78 3e 1f a9 1c bd 15 7e 54 bd a5 18 9c bc
       0.24309154 -0.038247224 -0.051878054 -0.01905472

final.weight f4 [43, 64]
000000 6f 6a 52 bd 58 7e f3 3c 8b 66 8f 3d 03 cc 7c 3e
       -0.051371034 0.029723331 0.070019804 0.246872
000010 df fd 48 3c 7e a8 8b 3d 8b e8 75 3e e0 ab 4a 3e
       0.012267559 0.06819247 0.2401449 0.19792128
000020 09 e6 03 bf f2 ad dc 3b e8 58 72 be 5b 0c 99 bd
       -0.5152288 0.006734603 -0.23666728 -0.0747306
000030 cd ff e7 3d cd 11 76 3d 76 5c 6d 3e 7b 9c 15 be
       0.11328087 0.06007557 0.23179802 -0.14610474
000040 b6 6b 73 be e4 65 00 be a0 12 93 be 1b 67 15 3d
       -0.23771557 -0.12538868 -0.28725147 0.036475282
000050 49 4a a3 3d cf 2e 55 3d d7 ae 1c 3d df 18 fd bb
       0.07973153 0.052046593 0.038252678 -0.007723912
000060 eb 83 da bb b4 63 0e bf 4c da ba bd a0 5f 8e bd
       -0.006668558 -0.55620885 -0.09123668 -0.06951833
000070 c0 28 89 3e dd 92 50 3c 97 51 2c 3e dc 0a 4a bd
       0.26788902 0.012730327 0.16827999 -0.049326763
000080 21 d9 bc 3d 07 87 db bc e6 cc 4f be 53 c4 0c 3e
       0.092211016 -0.026797784 -0.20293006 0.13746767
000090 62 43 18 bd ee a9 53 be 0f 33 0d 3d 80 b6 e2 bd
       -0.037173636 -0.20670292 0.03447252 -0.11069965
0000a0 3f 6e 6d 3d e4 7d 85 bc b1 6a bd 3c 25 89 ca 3d
       0.057966467 -0.01629538 0.023122163 0.098894395
0000b0 9f e0 03 bf bf cb 82 bd 0f 85 7e 3d 84 fc 35 bc
       -0.5151462 -0.06386518 0.062138613 -0.011107568
0000c0 83 9a 56 be 39 af eb bd e0 c9 f9 3d ca 03 bd be
       -0.20957379 -0.115080304 0.12196708 -0.36916953
0000d0 f8 c3 8c bd c4 08 20 bd b0 1c cd 3d ab 11 64 bd
       -0.068733156 -0.03907086 0.10015237 -0.055680912
0000e0 b6 73 77 3c a9 77 21 bf c9 f3 b2 3d a0 76 32 3d
       0.015103271 -0.6307321 0.087379046 0.04357016
0000f0 7e d4 c8 bd e9 05 2f bd 96 4b 6b 3e 9e 7f dc bd
       -0.09806155 -0.042730246 0.22978052 -0.107665285
000100 7b 35 09 3e f1 bd 23 3e ee 96 b1 3d 65 6a ce 3d
       0.13399307 0.15990426 0.08671366 0.10078887
000110 5f 45 12 bd 7f 81 77 be 9f 8e cf 3c e5 ef b9 3c
       -0.03571069 -0.24170493 0.025336562 0.022697398
000120 74 16 8a be 17 d0 70 bd 73 19 be bd fe 66 4c 3b
       -0.26970255 -0.0587922 -0.09282198 0.0031189318
000130 66 64 f7 3d 89 a8 26 bd 21 19 ec bd f5 e1 1c 3c
       0.12079696 -0.04068807 -0.115282305 0.009575357
000140 07 20 94 bd c3 de 94 bc 89 a4 b5 bd ad 7b 32 3e
       -0.07232671 -0.018172627 -0.08869273 0.17429991
000150 9c c2 89 3d 61 30 a0 bd 9d 0e 83 bd 95 b3 2e be
       0.06726572 -0.078217275 -0.06399272 -0.17060693
000160 7a a3 93 bc 23 ab 74 bd fc f5 5d be 08 9d cd bd
       -0.018022288 -0.05973352 -0.21675867 -0.10039717
000170 61 cc 51 3e d5 a4 c4 3d fc d0 fb 3d bd fa 7e 3d
       0.2048812 0.09601752 0.1229572 0.06225084
000180 10 1c 19 3d 6b 1f d0 3d 1c 5f 98 3e 69 d9 e4 3d
       0.037380278 0.101622425 0.29760063 0.1117428
000190 df 05 8d bb af 30 30 3d 6a ac c7 bd 69 a8 a6 bc
       -0.0043036784 0.04301518 -0.09749682 -0.020343976
0001a0 4a b1 11 bd 9c 08 0a be dc 25 29 3b bb d0 1d 3e
       -0.035569467 -0.13479847 0.002580992 0.15411656
0001b0 96 df d0 be d3 ac 39 bd 84 cd c6 3d 46 70 55 bd
       -0.40795583 -0.045330834 0.09707168 -0.052109025
0001c0 8b 30 fd bd 87 56 73 bd 79 9c 50 3e 9f a6 e0 bc
       -0.123627745 -0.05940869 0.2037219 -0.027423201
0001d0 c5 7a 28 bd 89 8f 0c be e4 7e f6 3d 31 f0 a7 bc
       -0.041132707 -0.1372663 0.12035921 -0.020500274
0001e0 f9 df 5a 3d aa 6c be be e7 14 e9 3d 5e 33 94 bd
       0.053436253 -0.3719228 0.1138094 -0.0723636
0001f0 6a 2a 57 3d 0e 8a 0c be 19 ad 67 bd 8a d0 b0 3c
       0.052530684 -0.13724539 -0.056561563 0.021583814
000200 28 56 2e be e8 b2 4b bd 53 e5 7a 3e 14 9e b9 bc
       -0.17025054 -0.049731165 0.24501543 -0.022658385
000210 80 4f c5 bd a5 ac 49 bd b3 95 b4 be b7 61 75 3d
       -0.09634304 -0.049236912 -0.3527046 0.05990764
000220 03 20 b9 bc 50 2d 60 be 2d e3 29 3e b2 15 da bd
       -0.022598272 -0.21892285 0.16590567 -0.10648669
000230 a6 bd 05 3e 83 eb b2 bd d6 51 5b be 52 97 90 3d
       0.13060626 -0.087363265 -0.21417937 0.07060112
000240 be 42 f8 bc 71 94 50 3e 7a 35 d3 3b 99 01 c5 3c
       -0.030305263 0.20369126 0.006445584 0.024048613
000250 07 a8 d2 bd 8b 43 55 bd 06 99 73 3e 85 21 80 be
       -0.10285955 -0.052066367 0.23788843 -0.25025573
000260 c9 cb 1a bd a1 01 f4 3d 55 0d 79 bd be 13 85 be
       -0.037792 0.11914373 -0.06080373 -0.25991625
000270 eb 16 33 be 80 2c 9f 3a 06 04 95 3d 67 e6 fa bd
       -0.17489211 0.0012143999 0.07276158 -0.12250977
000280 b7 b2 cc bd f4 f4 c8 3c ad d7 53 bd d6 17 3e 3d
       -0.09995025 0.024530865 -0.051719356 0.04640945
000290 ac f0 ac bc 5f 62 ee 3d ca 9e 2a 3d 7a a2 3d 3d
       -0.021110855 0.116398565 0.04165534 0.046297528
0002a0 b1 35 85 3d 60 9f 50 be 18 83 fa bd c8 61 39 3e
       0.065043814 -0.20373297 -0.122320354 0.18103707
0002b0 8c 14 d3 bd 05 d0 93 bc 1f 4c 9c bd 5a b8 dd 3d
       -0.103066534 -0.018043527 -0.076317064 0.10826178
0002c0 0b 73 92 bc 34 d8 d5 3d 24 7a a9 3c 78 dc 3f bd
       -0.017877122 0.10441628 0.020688124 -0.046841115
0002d0 d0 cd de 3d 11 82 7f 3d e1 8f 07 bd 09 c3 ec 3c
       0.10879099 0.0623799 -0.033096198 0.028901594
0002e0 7d 25 63 3d 8f f4 8d bd 48 db c2 bc 70 d3 be bd
       0.055455673 -0.069314115 -0.023786202 -0.09317672
0002f0 e5 ff a1 3d ce 31 21 bd f0 37 10 be b5 81 c7 bd
       0.07910136 -0.039354138 -0.14083838 -0.097415365
000300 0e 09 90 3d 57 77 03 3e 05 d3 f8 bd 14 ac 9a 3d
       0.07032977 0.12838493 -0.12149624 0.075523525
000310 54 22 11 3e 64 ae 1c bd a7 e0 73 be 02 4c 28 3d
       0.14173251 -0.03825225 -0.23816167 0.04108811
000320 29 38 e1 bd b3 1a bc 3d bc 47 ce 3d 2f a5 37 3d
       -0.1099704 0.0918478 0.10072276 0.044835266
000330 e0 ba ce 3d 22 71 41 bd dc 11 1f 3e 47 89 b7 3d
       0.10094237 -0.047227032 0.15534157 0.089617305
000340 a4 90 dc bd 81 02 60 3e d4 d1 92 3d d7 93 ea 3d
       -0.107697755 0.21875955 0.07168928 0.114539795
000350 7b 66 e4 bd bf 70 db 3d 0a be 22 3d 7a 5a 41 3d
       -0.11152359 0.10714864 0.039732017 0.047205426
000360 39 8b a0 3d e0 8f 83 3e 08 98 0a bf 96 0d 16 be
       0.078390546 0.25695705 -0.5413823 -0.1465362
000370 07 fa 0e bd f4 2d 6c be 3f ad 93 3d 2a b1 8c bd
       -0.034906413 -0.23064405 0.072107784 -0.06869729
000380 ee 33 50 3c 61 23 7a be 95 23 41 be e8 d9 7f 3e
       0.0127076935 -0.24427558 -0.1886123 0.24985468
000390 38 de 2c bd 26 a2 b1 bc 63 6c 9f be e3 67 01 bc
       -0.04220411 -0.021683764 -0.3113738 -0.007898304
0003a0 fb ce 94 bd 6a 98 0b 3d 57 2f 27 bd c1 2f 93 bd
       -0.07266041 0.0340809 -0.04081663 -0.07186843
0003b0 52 5c ba 3d 76 5c ad 3d 3b fa ab 3b 0e 21 e1 3d
       0.0909964 0.08464901 0.0052483357 0.10992633
0003c0 ea 83 13 be 23 1e 70 3d f5 b1 3b 3d d7 63 06 be
       -0.1440579 0.05862249 0.04582401 -0.13124023
0003d0 67 aa 84 3d 03 63 7a 3e 3c ea 67 3d 60 9f ca bd
       0.06477814 0.24451832 0.056619868 -0.098936796
0003e0 ec 6c 49 bd 35 f6 8c 3d 78 75 e3 bd 77 64 a7 bd
       -0.04917614 0.06882898 -0.1110639 -0.08173459
0003f0 eb 57 20 3c 0f 30 08 be 80 3e 58 be e1 a6 3c bd
       0.009786586 -0.13299583 -0.21117592 -0.046057586

final.bias f4 [43]
000000 b6 a8 3f bd df ba 19 3e 45 ba 9e bb 0c 19 11 3e
       -0.046791755 0.15012692 -0.0048439824 0.14169711
000010 bb 53 2e 3d 97 07 99 3d b2 6d 2a 3d 0a 4f 9b bd
       0.04256032 0.07472151 0.04160852 -0.07583435
000020 9a 20 bc bd 29 f8 e1 bb e9 70 20 be b2 bb 21 be
       -0.09185906 -0.006896038 -0.15668072 -0.15794256
000030 3b 3d 97 3d 17 28 52 3e 5b b1 aa 3c f3 e3 29 3e
       0.07384726 0.20523106 0.020836523 0.16590862
000040 ac fe a8 bd 28 c5 51 be 9b cc 8c 3e b7 7f 8f 3c
       -0.082517 -0.20485365 0.27499852 0.017516954
000050 ad af fd 3d 40 c5 54 be c6 3a 64 3d 14 1b d5 bd
       0.12387023 -0.2077837 0.055720113 -0.10405555
000060 df 1d 83 3e ee 6e f2 3d 1a d9 69 be b5 df 1a bd
       0.25608727 0.118375644 -0.22836724 -0.037811
000070 1a 70 5b be e2 a3 b2 bc a3 e4 05 3e 54 92 98 3e
       -0.21429482 -0.021806661 0.13075499 0.2979914
000080 01 e2 9d bc f4 9a 1a be c3 d4 63 bd 46 80 b8 bc
       -0.019272806 -0.15098172 -0.055622827 -0.022522103
000090 79 95 25 be bb a2 2f be 7b a3 15 be 9c 3c 90 bd
       -0.161703 -0.1715192 -0.14613144 -0.0704281
0000a0 69 a7 7f 3b 42 c0 05 bd 1b d0 57 be
       0.0039009696 -0.032654054 -0.2107548
