Robustness/models/base_epsilon_0.078.pth (torch, 263698 bytes, 10 tensors)

conv1.weight f4 [6, 1, 5, 5]
0.023897203 0.009812557 -0.013302275 0.021630844 -0.0123074455 -0.17659463 -0.039339654 0.01766677
0.027966833 -0.00547432 0.0067316703 0.1896313 0.1270478 -0.013938412 0.0058814697 0.3328334
0.77104944 0.22515501 -0.055615284 -0.014688279 0.19365714 0.5611997 0.104157865 -0.11312633
0.040092025 -0.095306896 -0.043036856 -0.0368153 -0.013864349 -0.025083428 0.11644746 -0.067769125
-0.064780295 -0.0001979964 -0.0077447672 1.5521508 0.16762105 -0.093517795 -0.0019008607 -0.0023969954
0.12215766 -0.025003646 -0.07112085 0.009903879 -0.005593083 -0.07568063 -0.02825708 -0.03785995
0.0011730872 -0.0143073015 0.013737568 -0.02034293 -0.03929457 -0.018678376 0.022900691 -0.01527657
0.004950478 0.030106427 -0.013885694 -0.022644605 -0.03715064 0.041201748 -0.003100486 0.010812631
-0.019930296 0.005286026 -0.013683092 -0.010670037 -0.010409327 -0.014589527 0.0050231973 0.0070415745
-0.025506673 -0.03191113 0.0038584697 -0.028452935 -0.012338106 0.03853206 0.06679205 -0.061550975
0.023141956 0.03936808 -0.07811508 -0.045559615 0.04866333 0.052773997 -0.031000994 -0.020991888
-0.073741645 0.03507225 -0.04131012 0.04249941 0.035517547 -0.020573623 -0.014887927 -0.014114282
-0.05252607 0.024548449 0.07835175 -0.032238785 -0.13716552 0.40138528 -0.0053019775 -0.025464967
0.008256894 0.039929863 1.502744 0.1719955 -0.055337846 -0.002920377 -0.04479346 0.111554615
-0.09646875 -0.042239543 0.0045331675 -0.04054148 -0.05695785 -0.055579368 -0.019368468 0.0008789951
-0.017166859 -0.027503632 -0.022198489 -0.015660957 -0.012906824 -0.0013536281 -0.0018459668 0.008128041
0.008734998 0.0062046004 0.003930613 -0.00012489398 -0.018128235 0.0026356927 0.012087839 0.008688422
0.0071791876 0.055954944 0.0069811027 0.024067875 0.02174341 0.16712673 0.28573266 -0.0026198283
0.0019249385 0.00094100274 0.14081098 0.24146074 0.03432132 0.014776861
00000000: 11c4 c33c d9c4 203c c9f1 59bc 2b33 b13c
00000010: 2ba5 49bc 39d5 34be 9e22 21bd e7b9 903c
00000020: b31a e53c ed61 b3bb 5895 dc3b b52e 423e
00000030: d218 023e f05d 64bc 58b9 c03b 2469 aa3e
00000040: 7f63 453f 098f 663e dacc 63bd 1ba7 70bc
00000050: 0f4e 463e c9aa 0f3f b850 d53d c7ae e7bd
00000060: 8937 243d 4330 c3bd 6a47 30bd a4cb 16bd
00000070: 4b27 63bc c37b cdbc 027c ee3d 8aca 8abd
00000080: 88ab 84bd 419d 4fb9 d1c7 fdbb e1ac c63f
00000090: daa4 2b3e 4286 bfbd 4d26 f9ba e916 1dbb
000000a0: cc2d fa3d 72d4 ccbc cfa7 91bd e143 223c
000000b0: 2e46 b7bb 72fe 9abd 647b e7bc 0913 1bbd
000000c0: 46c2 993a 2c69 6abc 8913 613c 37a6 a6bc
000000d0: 58f3 20bd 6503 99bc 3b9a bb3c 944a 7abc
000000e0: 9f37 a23b c1a1 f63c d280 63bc 2e81 b9bc
000000f0: 452b 18bd 2ac3 283d 8631 4bbb 7627 313c
00000100: dc44 a3bc 6636 ad3b 0c2f 60bc 61d1 2ebc
00000110: e28b 2abc e908 6fbc a299 a43b 02bd e63b
00000120: 5ff3 d0bc 3fb5 02bd 61de 7c3b 2116 e9bc
00000130: c425 4abc cbd3 1d3d 45ca 883d e01c 7cbd
00000140: 3394 bd3c 6d40 213d cdfa 9fbd b89c 3abd
00000150: 3353 473d 8c29 583d ccf5 fdbc 2ef7 abbc
00000160: dc05 97bd eba7 0f3d cd34 29bd dd13 2e3d
00000170: d97a 113d 048a a8bc 7eec 73bc 973f 67bc
00000180: 9425 57bd d419 c93c e276 a03d d10c 04bd
00000190: 1e75 0cbe 5f82 cd3e 36bc adbb e89b d0bc
000001a0: ec47 073c 7f8d 233d ea59 c03f 971f 303e
000001b0: f0a9 62bd cc63 3fbb 5979 37bd bf76 e43d
000001c0: 6891 c5bd 5f03 2dbd f78a 943b d30e 26bd
000001d0: a24c 69bd 31a7 63bd 9faa 9ebc 5d6c 663a
000001e0: 83a1 8cbc 4c4f e1bc 9bd9 b5bc 684b 80bc
000001f0: 2577 53bc 396c b1ba 5ef4 f1ba 7a2b 053c
00000200: 3d1d 0f3c f64f cb3b 5fcc 803b f9f5 02b9
00000210: aa81 94bc 96bb 2c3b 120c 463c e259 0e3c
00000220: 643f eb3b 0331 653d bcc1 e43b fe29 c53c
00000230: 3c1f b23c 4523 2b3e 8d4b 923e 6db1 2bbb
00000240: 384e fc3a a0ad 763a c130 103e 7c41 773e
00000250: 8394 0c3d a61a 723c

conv1.bias f4 [6]
-0.14114861 0.5883188 0.0527722 0.4008002 0.7641909 0.7196642
00000000: 4389 10be 109c 163f aa27 583d af35 cd3e
00000010: 04a2 433f ea3b 383f

conv2.weight f4 [16, 6, 5, 5]
-0.017158384 -0.04531902 -0.035446122 -0.018802349 -0.038584042 0.016423313 0.15415435 0.019648938
-0.0877944 0.06550482 -0.01761204 -0.23934197 -0.3017957 -0.12978661 -0.06777337 -0.029820323
0.039223094 0.28597736 0.12974925 0.056530524 0.025589833 0.0033325064 -0.009663715 -0.045106426
-0.0698556 -0.020668972 0.0045695384 0.029189182 0.08448748 0.012964252 -0.011631441 0.0994592
0.26020822 0.15341909 0.040712617 -0.06430798 -0.0009173996 -0.21665461 -0.4193726 -0.06270703
0.030639086 -0.081383504 0.101741835 0.36705264 0.12206808 -0.013376511 0.035716172 0.15982339
0.079804316 -0.034076676 0.033339802 -0.011737109 -0.038638007 -0.0036600942 -0.018865736 -0.011737467
-0.15822779 -0.23533008 -0.094299376 0.005214999 -0.006198746 0.04191993 0.022129918 -0.0022828078
0.0001570668 0.08264241 0.005419268 -0.052989975 0.05349278 0.02380813 -0.057968013 -0.1072538
-0.119441934 -0.072028756 0.007991895 -0.01870006 -0.027766284 -0.043368533 -0.01761074 -0.037184797
-0.06443523 -0.085970156 -0.1030783 0.039767683 0.02116028 0.014458287 0.13667786 0.19155933
0.011077609 0.03707026 0.04795863 0.12500358 -0.024673538 -0.010228105 0.023310274 -0.023936179
-0.026287794 -0.043052047 -0.038570143 -0.043493688 -0.012624456 -0.029939216 0.032336857 0.07833091
0.019014778 0.019809082 -0.01642807 0.09508637 0.05203795 -0.004873237 0.03481933 0.16188514
0.18875057 -0.023974536 -0.026902534 0.013136221 -0.24190924 -0.51711714 -0.31465393 -0.10065775
-0.035580583 0.024996856 0.2963664 0.24774489 0.060399223 -0.043431476 0.040882185 0.09570259
0.011025297 0.014729567 0.012940341 0.11525745 -0.12332989 -0.093256764 -0.09535876 -0.13561244
-0.18496145 -0.3451523 -0.13921846 -0.067655504 0.06953436 0.034049816 0.29440573 0.14475097
0.036749102 -0.016410977 0.04611333 -0.009320319 0.0052805347 0.037053227 0.015857967 -0.07982866
-0.037194688 -0.066034615 -0.059454806 -0.09991595 0.044859394 0.058104184 0.033850294 -0.120510995
-0.12059471 0.03730024 -0.036474228 -0.105312034 -0.029590063 -0.11397709 -0.010310241 -0.06131827
-0.020886645 -0.10715712 -0.015116018 0.06181671 -0.045249175 0.029089885 0.048056427 0.0038839777
-0.07381772 -0.08216236 0.026625238 -0.08475432 0.017312108 -0.09014896 0.02603929 -0.06979789
-0.0058376254 0.032533225 -0.097469985 0.060010947 -0.09396601 -0.03622129 -0.037486132 0.008912774
-0.0567472 -0.07408552 -0.0072251246 -0.008060611 -0.09697631 -0.043420803 -0.08396629 -0.070177585
-0.071881734 -0.04537869 -0.076796845 -0.092148505 -0.010161841 -0.06663617 -0.09287542 -0.12710276
0.019744758 0.0008216549 -0.011986343 -0.06803885 -0.0030522654 -0.12096784 -0.07835904 -0.09087092
-0.025599241 -0.08017953 -0.1079999 -0.024731519 -0.08968972 -0.0929986 -0.064496376 -0.0671817
-0.030955872 -0.10230041 -0.1234917 -0.049957816 0.012690471 -0.07835824 -0.08943402 0.015274395
-0.061632626 0.030656658 -0.0683578 -0.0010914557 -0.051199008 0.032471187 0.03350878 -0.098617226
-0.12025467 -0.101281665 0.0008749357 0.041168407 -0.028326154 -0.0017715846 -0.04197252 -0.029264962
-0.005525535 -0.08793884 -0.078339085 0.020721853 0.054822054 -0.089001484 0.0068872273 -0.013073205
00000000: bd8f 8cbc 70a0 39bd f42f 11bd 6207 9abc
00000010: 4d0a 1ebd 2f8a 863c a3da 1d3e cff6 a03c
00000020: 8dcd b3bd 6427 863d 2047 90bc 1016 75be
00000030: f784 9abe c8e6 04be c4cc 8abd c049 f4bc
00000040: 65a8 203d a06b 923e fddc 043e 8d8c 673d
00000050: c5a1 d13c 2e66 5a3b 8f54 1ebc 84c1 38bd
00000060: 7410 8fbd fa51 a9bc 11bc 953b 271e ef3c
00000070: c607 ad3d 0468 543c cd91 3ebc 44b1 cb3d
00000080: 033a 853e e519 1d3e 46c2 263d e7b3 83bd
00000090: a57d 70ba b5da 5dbe 01b8 d6be 8b6c 80bd
000000a0: d2fe fa3c 65ac a6bd 065e d03d 53ee bb3e
000000b0: d4fe f93d 2729 5bbc 1f4b 123d bea8 233e
000000c0: 7270 a33d fc93 0bbd 518f 083d 014d 40bc
000000d0: e342 1ebd 31de 6fbb 518c 9abc 814e 40bc
000000e0: 7706 22be 5efa 70be 0820 c1bd 95e2 aa3b
000000f0: da1e cbbb 3cb4 2b3d cd49 b53c 299b 15bb
00000100: 4cb2 2439 6d40 a93d 1d94 b13b 040c 59bd
00000110: 3f1b 5b3d 4409 c33c de6f 6dbd e1a7 dbbd
00000120: f99d f4bd d083 93bd 70f0 023c de30 99bc
00000130: 1e76 e3bc 34a3 31bd 6644 90bc 164f 18bd
00000140: 9ef6 83bd 1f11 b0bd b71a d3bd 70e3 223d
00000150: 5358 ad3c 73e2 6c3c 48f5 0b3e 2128 443e
00000160: dc7e 353c fcd6 173d 4570 443d f000 003e
00000170: 2920 cabc c893 27bc 30f5 be3c ce15 c4bc
00000180: 8059 d7bc 5857 30bd bafb 1dbd 7026 32bd
00000190: ced6 4ebc 1643 f5bc a773 043d f56b a03d
000001a0: e1c4 9b3c a846 a23c 2994 86bc a5bc c23d
000001b0: bf25 553d adaf 9fbb b79e 0e3d 38c5 253e
000001c0: d447 413e 3f66 c4bc b462 dcbc 4e39 573c
000001d0: 0eb7 77be ca61 04bf 521a a1be a725 cebd
000001e0: f2bc 11bd 35c6 cc3c 56bd 973e d6b0 7d3e
000001f0: 2d65 773d 34e5 31bd 1474 273d b8ff c33d
00000200: 73a3 343c 4854 713c b903 543c 190c ec3d
00000210: 6294 fcbd 67fd bebd 744b c3bd fddd 0abe
00000220: 8966 3dbe cdb7 b0be 498f 0ebe f88e 8abd
00000230: 0868 8e3d d277 0b3d 59bc 963e 9939 143e
00000240: 3a86 163d 5070 86bc 55e1 3c3d 40b4 18bc
00000250: 5608 ad3b 20c5 173d 91e8 813c 357d a3bd
00000260: 7559 18bd 283d 87bd e286 73bd bca0 ccbd
00000270: 7cbe 373d a7fe 6d3d 9ba6 0a3d 78ce f6bd
00000280: 5cfa f6bd 23c8 183d 0066 15bd d6ad d7bd
00000290: dc66 f2bc d26c e9bd 49ec 28bc de28 7bbd
000002a0: 781a abbc 3175 dbbd 2da9 77bc 8533 7d3d
000002b0: 3357 39bd e94d ee3c d1d6 443d 558a 7e3b
000002c0: bf2d 97bd bd44 a8bd 2c1d da3c ac93 adbd
000002d0: 1fd2 8d3c 05a0 b8bd 5950 d53c 32f2 8ebd
000002e0: 8d49 bfbb 8f41 053d 589e c7bd 0ace 753d
000002f0: 4071 c0bd c65c 14bd 0f8b 19bd e206 123c
00000300: c16f 68bd 26ba 97bd bdc0 ecbb a710 04bc
00000310: 849b c6bd 03da 31bd 85f6 abbd 44b9 8fbd
00000320: bb36 93bd 01df 39bd aa47 9dbd 5bb8 bcbd
00000330: da7d 26bc 8b78 88bd 7835 bebd 3a27 02be
00000340: c2bf a13c 5464 573a 5e62 44bc f457 8bbd
00000350: 8408 48bb fdbd f7bd b47a a0bd 881a babd
00000360: 80b5 d1bc 2a35 a4bd 0d2f ddbd c199 cabc
00000370: 3eaf b7bd 0d76 bebd ad16 84bd 8f96 89bd
00000380: 2b97 fdbc e182 d1bd 37e9 fcbd 91a0 4cbd
00000390: b1eb 4f3c 497a a0bd 2f29 b7bd 7541 7a3c
000003a0: 7e72 7cbd ac23 fb3c 2dff 8bbd 2d0f 8fba
000003b0: 0db6 51bd 8200 053d 8140 093d d4f7 c9bd
000003c0: 1548 f6bd c36c cfbd f15b 653a 34a0 283d
000003d0: 400c e8bc 8434 e8ba 61eb 2bbd 13bd efbc
000003e0: 8c0f b5bb 4719 b4bd 3e70 a0bd e0c0 a93c
000003f0: 178d 603d 6946 b6bd 40ae e13b ff30 56bc

conv2.bias f4 [16]
0.101953596 0.004993269 0.17072167 0.06825993 0.15028812 0.3174364 0.21169329 0.23520795
-0.08072634 0.09111412 0.1356606 0.03706865 -0.024945023 -0.017397506 0.16527328 0.13463612
00000000: 0ccd d03d 949e a33b a9d1 2e3e ddcb 8b3d
00000010: 21e5 193e 0687 a23e 20c6 583e 5ada 703e
00000020: da53 a5bd 0a9a ba3d 9dea 0a3e 4cd5 173d
00000030: 8159 ccbc 3785 8ebc 663d 293e 0dde 093e

dense1.weight f4 [128, 400]
-0.013163493 -0.028512385 -0.0036525538 -0.032473832 -0.018695349 0.028337555 -0.045841727 -0.012359359
-0.02798925 -0.046707865 -0.038702756 0.039749354 -0.005444918 0.034870762 0.02517697 0.03473267
-0.03801134 0.030500855 0.02546815 0.001213837 -0.038051132 0.031520616 -0.051672447 -0.032247107
-0.056839213 0.012538971 0.04668828 -0.023963576 0.03827294 0.00953871 0.019321501 -0.028330682
-0.014666922 -0.04656143 0.015762199 0.04106399 -0.04844099 -0.036741838 0.004472176 -0.045151476
-0.050321884 0.036626752 -0.046738226 0.04322407 0.02025768 0.0057681403 0.0276732 -0.03237284
-0.026564784 -0.03173038 -0.011995355 0.0106831975 -0.013394752 -0.021042332 -0.043261953 -0.029694004
-0.023416277 0.013641538 -0.021283025 -0.005025556 -0.0144354645 0.018789036 -0.041289594 -0.05023026
0.031049732 0.00815634 0.034009345 -0.025671996 0.01584669 -0.025177391 -0.04726918 -0.03481743
-0.056279026 -0.051832527 0.0016325471 -0.04235855 0.041407194 -0.020256054 -0.04927914 0.017348554
-0.010966475 -0.016352728 0.028304575 0.027695136 -0.03730098 -0.0034260806 -0.024964945 0.0022977276
-0.048576135 -0.00071793323 0.021805037 -0.031198494 0.0032995294 -0.013494917 0.003921423 0.009479908
0.027164256 -0.015847733 -0.035947267 0.040164772 0.029333236 -0.052675437 -0.043891754 -0.048171535
-0.051146556 -0.04558441 -0.024152646 -0.021291785 0.006107045 0.023416098 0.0038090956 -0.012356231
0.012185661 -0.055262018 0.015505724 0.037056353 -0.008513998 -0.008849137 0.018480882 -0.02062478
0.031777687 -0.045089774 -0.044964958 -0.027113715 -0.05907216 -0.03132739 -0.031329803 -0.05288598
-0.008992306 0.013163988 -0.019280834 -0.045492183 -0.023328 0.04110456 -0.006116068 0.012507031
0.030605737 -0.019630536 -0.022157365 -0.04687534 0.036993187 -0.015216823 0.022925388 0.021507274
0.028023362 -0.00922142 0.0032802587 -0.024819154 0.0041835285 -0.02267573 0.026873173 -0.032065373
0.0055490034 -0.037267588 -0.0071465764 0.027638156 -0.01779228 0.034382857 -0.0037199517 0.03503347
-0.026457544 -0.015367006 0.035749126 0.023158371 -0.014131158 0.009490508 0.04034981 -0.047645517
0.019858422 -0.0359485 0.0018269992 0.042092215 0.036440156 -0.017958242 0.028425252 -0.050299652
0.030940026 -0.03195155 -0.016296295 -0.03947493 0.00057462155 0.016381133 -0.034405887 -0.053606514
0.0029161277 -0.03182723 -0.010753593 -0.010033613 -0.055728715 -0.02409347 0.022295289 -0.03843783
0.012313083 -0.019654578 0.017263044 -0.054113474 -0.025108859 0.031314045 -0.048880905 -0.032999773
0.018055607 -0.043984048 -0.030621972 -0.047039125 0.0023116684 0.03360075 -0.029277159 -0.018630615
-0.017787877 -0.0035577214 -0.022702934 0.012586732 0.032140903 0.01853556 0.017269762 0.006704619
-0.037668172 0.021557277 -0.019244121 0.0045337677 -0.0002439186 -0.01262967 0.0045210086 -0.051848963
0.0020786617 -0.045087025 0.018872127 -0.018821027 0.02959367 -0.05398753 -0.03526876 -0.009178569
0.030692827 0.022316199 -0.0059371977 0.029285634 0.013753391 -0.04152967 0.020956654 0.0045496533
0.037774075 -0.009690082 0.030923352 -0.0317639 -0.020028828 0.005966166 0.022460539 -0.03169515
-0.045584958 0.008835772 -0.011284368 -0.040295433 -0.01260893 -0.060184717 -0.038350575 0.024998179
00000000: b1ab 57bc ce92 e9bc af5f 6fbb 4803 05bd
00000010: fd26 99bc 2924 e83c 89c4 3bbd e97e 4abc
00000020: b649 e5bc bf50 3fbd c886 1ebd 38d0 223d
00000030: 486b b2bb a5d4 0e3d ef3f ce3c d843 0e3d
00000040: c7b1 1bbd eedc f93c 95a2 d03c 9c19 9f3a
00000050: 81db 1bbd c31b 013d 7da6 53bd 8b15 04bd
00000060: 3cd0 68bd 4270 4d3c 363c 3f3d 434f c4bc
00000070: 16c4 1c3d 4048 1c3c 2048 9e3c bf15 e8bc
00000080: 884d 70bc 33b7 3ebd ba1f 813c b732 283d
00000090: 0f6a 46bd 9c7e 16bd 558b 923b c1f0 38bd
000000a0: 521e 4ebd ef05 163d 9570 3fbd b90b 313d
000000b0: 6ff3 a53c ab02 bd3b e8b2 e23c 6299 04bd
000000c0: 649e d9bc b7f7 01bd 2a88 44bc 9408 2f3c
000000d0: a975 5bbc f860 acbc 7233 31bd d740 f3bc
000000e0: 7ed3 bfbc c280 5f3c bd59 aebc 6bad a4bb
000000f0: ba82 6cbc 77eb 993c 471f 29bd 3fbe 4dbd
00000100: 025c fe3c 2ba2 053c 624d 0b3d 144e d2bc
00000110: ebd0 813c d140 cebc 549d 41bd b99c 0ebd
00000120: d684 66bd 584e 54bd 31fb d53a 2980 2dbd
00000130: 979a 293d 06f0 a5bc ecd8 49bd 8e1e 8e3c
00000140: bbac 33bc 28f6 85bc ffde e73c e9e0 e23c
00000150: eac8 18bd 1888 60bb 4983 ccbc 7995 163b
00000160: c5f7 46bd af33 3cba 7aa0 b23c fc93 ffbc
00000170: eb3c 583b c919 5dbc 487f 803b 9e51 1b3c
00000180: 9387 de3c 1bd3 81bc 713d 13bd d183 243d
00000190: 414c f03c 33c2 57bd d7c7 33bd 844f 45bd
000001a0: 0d7f 51bd b8b6 3abd c5db c5bc 1c6c aebc
000001b0: 9b1d c83b 1ed3 bf3c 05a2 793b ca71 4abc
000001c0: 5ea6 473c 6d5a 62bd b80b 7e3c 67c8 173d
000001d0: 4c7e 0bbc f9fb 10bc 3865 973c 4cf5 a8bc
000001e0: 5229 023d 0eb0 38bd 2d2d 38bd 951d debc
000001f0: a6f5 71bd 2651 00bd ae53 00bd f89e 58bd
00000200: 7754 13bc c4ad 573c d7f2 9dbc 0356 3abd
00000210: 5d1a bfbc 415d 283d 4c69 c8bb 4aea 4c3c
00000220: e2b8 fa3c 38d0 a0bc 5d83 b5bc 5b00 40bd
00000230: 2b86 173d fb4f 79bc 06ce bb3c 0630 b03c
00000240: 4091 e53c 7015 17bc 9cf9 563b 8a51 cbbc
00000250: fb15 893b 74c2 b9bc 2125 dc3c fb56 03bd
00000260: 6ad4 b53b e6a5 18bd d42d eabb 6a69 e23c
00000270: 1ec1 91bc 0ad5 0c3d 6fca 73bb 417f 0f3d
00000280: 7ebd d8bc e5c5 7bbc ad6d 123d a0b6 bd3c
00000290: 5f86 67bc 137e 1b3c d845 253d f227 43bd
000002a0: 21ae a23c bc3e 13bd ec77 ef3a e368 2c3d
000002b0: 4642 153d 2a1d 93bc 13dc e83c 0207 4ebd
000002c0: f075 fd3c a1df 02bd cf7f 85bc 77b0 21bd
000002d0: 33a2 163a ba31 863c 30ed 0cbd 8192 5bbd
000002e0: 811c 3f3b 455d 02bd d72f 30bc 0664 24bc
000002f0: cb43 64bd ab5f c5bc 9ca4 b63c fc70 1dbd
00000300: d0bc 493c a302 a1bc 3a6b 8d3c 17a6 5dbd
00000310: 18b1 cdbc 2843 003d 5837 48bd c52a 07bd
00000320: 5ae9 933c 9e28 34bd eeda fabc 19ac 40bd
00000330: 5c7f 173b f1a0 093d a7d6 efbc 3b9f 98bc
00000340: e2b7 91bc a928 69bb 81fb b9bc 9538 4e3c
00000350: 2ea6 033d e3d7 973c 5179 8d3c 6cb2 db3b
00000360: f149 1abd e398 b03c d9a5 9dbc 0090 943b
00000370: 67c4 7fb9 adec 4ebc f824 943b 945f 54bd
00000380: 283a 083b 2cad 38bd b899 9a3c 8e2e 9abc
00000390: 6d6e f23c 0722 5dbd fa75 10bd b561 16bc
000003a0: 866f fb3c 76d0 b63c d38c c2bb 6de8 ef3c
000003b0: e755 613c 041b 2abd 4aad ab3c 4215 953b
000003c0: fdb8 1a3d 26c3 1ebc f852 fd3c dd1a 02bd
000003d0: 7f13 a4bc d47f c33b 2aff b73c c6d2 01bd
000003e0: 4bb7 3abd eac3 103c 12e2 38bc d30c 25bd
000003f0: af95 4ebc 4084 76bd 7e15 1dbd fbc8 cc3c

dense1.bias f4 [128]
-0.011367113 -0.009336214 0.023210919 0.0078444695 -0.07807484 -0.02017147 0.08522364 -0.028370192
0.07036622 0.035367377 -0.025403418 0.058763027 -0.043976247 -0.0012635413 0.016224071 0.24127655
-0.0053909826 0.014244467 0.050173517 -0.07750153 -0.0173768 0.006704084 -0.045111578 -0.02373678
0.09629941 -0.06700572 0.009290929 0.01333209 0.10344854 0.13706493 -0.007398053 0.020959593
-0.043903306 0.1812849 0.021436365 -0.0056074583 0.17940238 -0.013001528 0.008810831 0.02980109
0.09405835 0.02856923 0.18242599 0.0009493869 -0.02854836 0.009916747 -0.04094261 0.0340498
-0.025468986 -0.045261227 0.15030724 -0.020905932 0.077595346 0.0036919697 -0.0873638 0.095322736
0.13298316 0.11415642 0.10657464 0.045802433 0.24541362 -0.038677543 -0.04765325 -0.027341288
0.031524032 0.20514752 -0.014283216 -0.0577989 0.018380051 -0.043296333 0.062022198 -0.05075403
0.1468639 -0.20644155 -0.05656168 0.09121531 -0.109397784 0.082096376 -0.0112142395 0.15190667
0.12605703 0.0003376687 0.09203725 0.16081077 0.03295123 -0.0089948885 -0.005689141 0.012215897
0.026453847 -0.09075348 -0.00916065 0.034828015 -0.00021856478 -0.16694172 -0.051944826 -0.012953556
-0.0009458572 0.13453694 0.16658036 -0.034128956 -0.041255977 0.023754591 0.083542526 0.012327059
-0.03590393 -0.044312064 0.012997033 0.029432323 -0.03978548 -0.08606508 0.00994909 -0.04042938
-0.04873315 -0.07699303 -0.008335058 0.010894562 0.084650315 0.010462417 -0.054495234 -0.024658803
0.18202755 -0.037028663 0.18072608 0.19234611 0.0239467 -0.011848829 -0.014536418 0.10610869
00000000: 213d 3abc ebf6 18bc d324 be3c 1786 003c
00000010: b4e5 9fbd a33e a5bc bb89 ae3d 9b68 e8bc
00000020: 2a1c 903d 62dd 103d d41a d0bc 80b1 703d
00000030: 7020 34bd 699d a5ba 58e8 843c 3311 773e
00000040: d7a6 b0bb a061 693c bf82 4d3d 1fb9 9ebd
00000050: ca59 8ebc efad db3b ebc6 38bd a373 c2bc
00000060: a038 c53d 4c3a 89bd fb38 183c d76e 5a3c
00000070: d4dc d33d c05a 0c3e 5e6b f2bb 74b3 ab3c
00000080: f4d3 33bd c0a2 393e 519b af3c c5be b7bb
00000090: 42b5 373e 5c04 55bc 4e5b 103c 6a21 f43c
000000a0: aaa1 c03d 050a ea3c e1cd 3a3e 47e0 783a
000000b0: 40de e9bc da79 223c 70b3 27bd ce77 0b3d
000000c0: 56a4 d0bc d663 39bd 24ea 193e eb42 abbc
000000d0: 4fea 9e3d f9f4 713b cbeb b2bd 9138 c33d
000000e0: bd2c 083e d7ca e93d ce43 da3d 559b 3b3d
000000f0: b54d 7b3e 586c 1ebd 0e30 43bd d6fa dfbc
00000100: 581f 013d 3112 523e 2604 6abc 8abe 6cbd
00000110: c391 963c 7f57 31bd fd0a 7e3d 75e3 4fbd
00000120: 7d63 163e 6a65 53be 38ad 67bd 18cf ba3d
00000130: f20b e0bd 2522 a83d eebb 37bc 6c8d 1b3e
00000140: 1815 013e 2009 b139 077e bc3d 94ab 243e
00000150: def7 063d 4c5f 13bc f96b babb 3025 483c
00000160: bdb5 d83c f6dc b9bd 8d16 16bc d2a7 0e3d
00000170: 892e 65b9 c5f2 2abe 19c4 54bd 273b 54bc
00000180: 67f3 77ba 0dc4 093e 0b94 2a3e ceca 0bbd
00000190: 07fc 28bd fd98 c23c 5818 ab3d 6ff7 493c
000001a0: 0010 13bd 9180 35bd 82f1 543c 0e1c f13c
000001b0: 19f6 22bd e342 b0bd 8201 233c 4799 25bd
000001c0: 699c 47bd 86ae 9dbd c48f 08bc 1b7f 323c
000001d0: 255d ad3d 8f6a 2b3c 6536 5fbd 4201 cabc
000001e0: 6e65 3a3e 5eab 17bd 4210 393e 61f6 443e
000001f0: df2b c43c 9721 42bc 282a 6ebc 834f d93d

dense2.weight f4 [64, 128]
-0.028273117 -0.059161402 -0.036283985 -0.06801159 -0.07191249 -0.04274271 0.07082413 -0.039481122
0.0048379856 -0.055044025 0.04021559 -0.060738865 0.02447006 -0.07642765 -0.018569417 -0.018839443
-0.037923954 -0.03364072 -0.03844391 -0.021438215 0.022872485 -0.053800587 -0.04065877 -0.073628075
0.004611916 0.08084699 -0.043081537 -0.06409938 -0.010722295 -0.038371652 -0.0065431823 -0.073903434
-0.02088175 0.06876906 -0.08544054 0.068151444 0.05199828 -0.069927424 -0.0729344 0.010279089
-0.019208843 -0.079500094 -0.0018148647 0.04134961 0.0038518214 -0.1040307 -0.03496828 0.035551067
-0.06401533 -0.017027717 -0.10358494 -0.032513913 -0.00261539 0.053441834 -0.03151087 -0.043819256
-0.056286957 -0.02527178 -0.06291676 0.026654001 -0.052576467 0.08117528 -0.02553586 -0.006904128
-0.032586847 0.035929747 -0.0054398235 0.051859893 0.05516245 -0.043613862 0.019071795 -0.02235334
-0.0050213616 0.06666407 -0.046627026 -0.10740581 -0.039099198 -0.019163601 0.07553802 -0.051831983
0.023432732 -0.009489278 -0.063938804 -0.05714417 0.008978496 -0.05209603 -0.0009051141 0.006783103
-0.07013252 0.029701147 -0.0843621 -0.05835172 0.050935533 -0.09085756 -0.02362692 -0.020700434
0.0028544164 -0.012700555 0.02955948 0.07962701 0.026858047 0.084860414 -0.050969306 0.02237025
-0.06953061 0.086091764 -0.047996294 0.004168439 0.07681818 0.044687312 -0.05248902 -0.017262917
0.039551772 0.035232708 -0.031052629 0.043819834 -0.008561593 -0.03747899 -0.017736763 -0.00017549947
-0.020067336 -0.060585156 -0.084906206 0.0028397304 0.04868119 0.0015036098 -0.08580038 0.059961546
-0.058014967 -0.009616707 -0.04542659 -0.011538244 0.01826263 -0.027010133 -0.0262826 -0.028533297
-0.053516142 0.08997208 0.08710658 -0.11019714 -0.024033353 -0.06276062 0.046780143 0.1192485
0.06755509 0.039081972 -0.037041247 0.08445115 0.06301474 0.011061616 0.010763882 -0.07363297
0.011319458 0.044040203 -0.00440678 -0.045631133 -0.045474894 -0.08508369 -0.046160363 -0.08584307
-0.07013366 -0.16452637 0.1449091 -0.00825576 -0.11608432 0.076973975 0.043999925 0.055525348
0.13484308 -0.07258351 0.2158184 -0.030327778 0.07217956 0.02533318 0.025376426 0.06753062
-0.013144018 -0.05875002 -0.12618497 -0.014815084 0.054093324 -0.014091338 -0.044124518 0.0031461504
-0.1298551 0.032502398 -0.094774775 0.012539579 0.099342816 0.035521757 -0.03888613 -0.08481526
0.14989567 0.09038793 0.096256696 0.014790484 0.0295984 0.083681315 0.067184776 0.07188189
-0.09051551 0.012086771 -0.0064563993 0.03576082 0.115084395 0.048819542 0.006105728 -0.014888383
-0.039540824 0.04388795 0.052949585 -0.04360801 -0.011126901 0.062283695 -0.0326764 0.101565346
0.0056952117 0.0025416666 -0.019932726 -0.017335147 0.073931485 0.04003376 -0.024247719 0.090998635
-0.081652276 0.12829691 0.15748248 -0.035539486 0.062051643 -0.032572884 -0.07223297 0.051080495
0.19209287 -0.016596317 0.024371218 0.027410803 0.00959371 0.11180301 -0.07541995 -0.08060422
0.01922603 0.22907366 0.08498885 -0.06867806 0.092602305 0.07795529 0.056310233 -0.042572338
-0.0092404345 -0.029647848 0.08756337 0.002160844 -0.061635442 -0.040099733 -0.080569975 -0.11564492
00000000: 069d e7bc 3a53 72bd 849e 14bd a949 8bbd
00000010: db46 93bd fb12 2fbd 3e0c 913d f5b6 21bd
00000020: f787 9e3b d875 61bd 1ab9 243d 51c9 78bd
00000030: 6f75 c83c 1a86 9cbd e41e 98bc 2d55 9abc
00000040: 2656 1bbd daca 09bd 5d77 1dbd 329f afbc
00000050: 145f bb3c 015e 5cbd cf89 26bd 51ca 96bd
00000060: 8e1f 973b 1b93 a53d 4476 30bd 8946 83bd
00000070: 91ac 2fbc 982b 1dbd 3168 d6bb af5a 97bd
00000080: 3410 abbc cbd6 8c3d 73fb aebd fc92 8b3d
00000090: 26fc 543d 1c36 8fbd a15e 95bd a069 283c
000000a0: dd5b 9dbc f2d0 a2bd c1e0 edba 355e 293d
000000b0: d76e 7c3b 0c0e d5bd e63a 0fbd ff9d 113d
000000c0: 781a 83bd b67d 8bbc 5724 d4bd 4f2d 05bd
000000d0: f766 2bbb d3e5 5a3d 8b11 01bd d27b 33bd
000000e0: 278d 66bd c406 cfbc 81da 80bd 7e59 da3c
000000f0: 6c5a 57bd 3a3f a63d 9430 d1bc 063c e2bb
00000100: c979 05bd 122b 133d 8c40 b2bb 0a6b 543d
00000110: 05f2 613d 73a4 32bd 743c 9c3c 5a1e b7bc
00000120: 3c8a a4bb 2c87 883d fbfb 3ebd 94f7 dbbd
00000130: 7b26 20bd fcfc 9cbc adb3 9a3d c64d 54bd
00000140: 00f6 bf3c eb78 1bbc 59f2 82bd 0110 6abd
00000150: 8b1a 133c a662 55bd 2e45 6dba cb44 de3b
00000160: a3a1 8fbd d24f f33c 09c6 acbd 3702 6fbd
00000170: c7a1 503d 8713 babd 3e8d c1bc f593 a9bc
00000180: 2911 3b3b fd15 50bc b926 f23c 7c13 a33d
00000190: 6805 dc3c 4ccb ad3d 31c5 50bd d141 b73c
000001a0: 1166 8ebd e150 b03d c397 44bd 6797 883b
000001b0: da52 9d3d 0b0a 373d bafe 56bd f66a 8dbc
000001c0: 0a01 223d 2c50 103d 1562 febc 6d7c 333d
000001d0: ec45 0cbc 9283 19bd b04c 91bc 4806 38b9
000001e0: 4164 a4bc 2428 78bd 4ee3 adbd c51a 3a3b
000001f0: ed65 473d c614 c53a 1cb8 afbd 3d9a 753d
00000200: 1aa1 6dbd 658f 1dbc 3b11 3abd e70a 3dbc
00000210: 839b 953c 5b44 ddbc 9b4e d7bc a9be e9bc
00000220: be33 5bbd 4843 b83d ef64 b23d 0aaf e1bd
00000230: 98e1 c4bc a488 80bd 899c 3f3d 8f38 f43d
00000240: 535a 8a3d 6b14 203d 90b8 17bd b9f4 ac3d
00000250: df0d 813d c83b 353c fe5a 303c e2cc 96bd
00000260: 3f75 393c 8063 343d c066 90bb b6e7 3abd
00000270: e243 3abd 5c40 aebd a612 3dbd 7ece afbd
00000280: 3da2 8fbd 9a79 28be 0d63 143e 2b43 07bc
00000290: 9ebd edbd 88a4 9d3d 4439 343d 8c6e 633d
000002a0: 4e14 0a3e aaa6 94bd 80ff 5c3e f671 f8bc
000002b0: e1d2 933d 8787 cf3c 39e2 cf3c 7e4d 8a3d
000002c0: 025a 57bc dca3 70bd a236 01be f7ba 72bc
000002d0: f690 5d3d 5bdf 66bc e9bb 34bd a52f 4e3b
000002e0: bcf8 04be 3c21 053d 4719 c2bd ce72 4d3c
000002f0: 3f74 cb3d 437f 113d 1047 1fbd 9fb3 adbd
00000300: 407e 193e 4f1d b93d 3b22 c53d c953 723c
00000310: 5878 f23c 1c61 ab3d 2c98 893d d036 933d
00000320: 3260 b9bd 9807 463c 3490 d3bb f079 123d
00000330: 5eb1 eb3d 00f7 473d 8f12 c83b 68ee 73bc
00000340: 8ff5 21bd dac3 333d aae1 583d 509e 32bd
00000350: 9b4d 36bc 301d 7f3d b0d7 05bd 7e01 d03d
00000360: e69e ba3b 1792 263b f549 a3bc 7002 8ebc
00000370: 6469 973d 71fa 233d 27a3 c6bc 7e5d ba3d
00000380: 4f39 a7bd 4460 033e 1643 213e da91 11bd
00000390: dd29 7e3d 256b 05bd e1ee 93bd c839 513d
000003a0: feb3 443e 00f5 87bc 26a6 c73c 9f8c e03c
000003b0: f02e 1d3c faf8 e43d c675 9abd d313 a5bd
000003c0: e87f 9d3c 4992 6a3e a20e ae3d 15a7 8cbd
000003d0: 47a6 bd3d 06a7 9f3d 8fa5 663d 5560 2ebd
000003e0: 3165 17bc 0be0 f2bc 6d54 b33d f29c 0d3b
000003f0: 7275 7cbd 9e3f 24bd df01 a5bd 3ed7 ecbd

dense2.bias f4 [64]
-0.06716033 0.01611582 0.054986812 0.012655204 0.017160205 -0.088357046 0.004117309 -0.012733899
-0.007674394 0.04334503 0.059488315 0.021826899 0.005176681 0.08916703 -0.07924521 0.13976876
-0.10749711 -0.013732617 -0.0047606975 -0.04630418 -0.01058879 -0.033707242 -0.20291832 -0.12435703
0.14801426 0.19124593 -0.05042421 0.21071608 -0.020663641 0.066977285 -0.043783233 0.1693179
0.015713718 -0.04027875 0.13363826 0.22696178 -0.006417333 -0.06430455 0.010679392 -0.096231505
-0.009576287 -0.06371159 0.10995724 -0.091228895 0.10739021 0.0107021285 -0.045893382 0.026081266
0.06385578 0.1797195 0.010501331 0.08534149 0.086418495 -0.033089384 -0.0015051839 -0.046038803
0.14157267 -0.029930105 -0.0069055622 -0.0744913 -0.107552454 0.004617407 0.35241342 0.07505302
00000000: 5b8b 89bd 5305 843c da39 613d c657 4f3c
00000010: 8f93 8c3c 8af4 b4bd 7eea 863b d8a1 50bc
00000020: 7c79 fbbb 8f8a 313d 05aa 733d 53ce b23c
00000030: 26a1 a93b 349d b63d 504b a2bd 8b1f 0f3e
00000040: 7227 dcbd c5fe 60bc a0ff 9bbb 74a9 3dbd
00000050: 9b7c 2dbc 9b10 0abd d2c9 4fbe e6ae febd
00000060: 0d91 173e f9d5 433e 9e89 4ebd f5c5 573e
00000070: cc46 a9bc 632b 893d 0c56 33bd ac61 2d3e
00000080: 0eba 803c 55fb 24bd 78d8 083e ab68 683e
00000090: 7e48 d2bb 1bb2 83bd 9ef8 2e3c 0615 c5bd
000000a0: dce5 1cbc 397b 82bd 4331 e13d 37d6 babd
000000b0: 66ef db3d fb57 2f3c b3fa 3bbd 61a8 d53c
000000c0: d2c6 823d 6308 383e c60d 2c3c 85c7 ae3d
000000d0: 2efc b03d bc88 07bd 9749 c5ba 2f93 3cbd
000000e0: 6df8 103e fb2f f5bc 0e48 e2bb e58e 98bd
000000f0: 7644 dcbd 9e4d 973b 886f b43e 66b5 993d

final.weight f4 [43, 64]
0.0005427852 -0.146887 0.031285696 -0.13463993 -0.0963401 0.04412056 0.0010679743 -0.13242954
-0.08126842 -0.14541572 0.11308264 0.020760518 0.15256068 -0.27976453 0.08713647 0.08514948
0.08736887 -0.004850956 -0.0383654 -0.01967844 -0.07127213 0.11557435 -0.010815406 -0.13359211
0.16346136 -0.13344485 0.009549748 -0.06590616 -0.062565446 0.07906451 0.05812334 -1.4542476
0.10464755 -0.115574084 0.082525544 -0.19903947 0.0850705 -0.18529238 -0.009342242 0.08457933
-0.0077700317 0.12223448 0.11645472 0.08951926 -0.23124847 0.0027494228 0.066164345 -0.04831062
-0.17316659 -0.2964099 0.018469965 -0.034523323 0.18504265 0.10796823 0.039495718 -0.31940845
0.01964951 -0.11933927 0.16223274 -0.10156557 -0.18138267 -0.15437475 -0.97417593 0.029944822
0.086040944 0.026860995 -0.11337351 0.020020962 -0.13151217 0.035908382 -0.0048767943 0.06606007
-0.1101391 -0.12614124 0.08955782 0.030476993 -0.0051041874 -0.114587575 0.09894657 -0.06133981
0.07894258 0.080861524 0.14734438 -0.080377124 -0.020927612 0.010500729 -0.102377504 -0.070263006
0.104170494 -0.024239935 0.01049718 0.07413867 -0.057436414 0.014016193 -0.08355635 -0.09642996
-0.014256358 -0.08582422 -0.04531392 0.12938966 -0.023031825 0.031597774 0.105173066 0.074005455
-0.0035502682 0.047611497 0.13838658 -0.002403323 -0.08935113 0.012566163 -0.07794442 0.111013025
-0.054891255 -0.002120169 0.019550662 0.0036668922 0.11124116 -0.07567855 -0.02898193 -0.06340394
-0.024830865 0.07211798 0.10117181 -0.08556205 -0.13189064 0.015052021 0.0075086933 -0.0030951293
0.022642646 0.14236498 0.1515767 -0.10806291 -0.094055064 0.031188507 -0.034068372 -0.053358708
-0.1113435 -0.059778865 -0.03558441 -0.0068498957 0.047751945 0.08979119 -0.105900794 -0.010942859
-0.09859007 -0.0605579 0.023118602 -0.0118734315 -0.025500018 0.07222476 -0.08530703 -0.09618193
0.13018818 -0.09370776 -0.09893102 0.00011045433 -0.014544752 -0.021230847 -0.091977604 -0.029958814
-0.09972159 0.06591805 -0.027326573 0.066428564 0.0441543 0.04155401 0.05223115 -0.10739134
-0.042886715 -0.003623139 0.123930864 -0.030262712 0.054692287 -0.008539309 -0.17278174 0.0037276538
-0.032444563 0.019598797 -0.046449196 -0.030254696 -0.013007184 -0.09883149 0.009300621 -0.13190661
-0.09183817 -0.09613265 0.102049075 -0.081726834 -0.038161337 0.03035164 0.033210747 -0.01952241
0.011423137 0.11919757 -0.0003153033 0.056252025 -0.057105307 -0.19590358 -0.08014784 -0.09831228
-0.07277342 -0.005968504 -0.0017046062 0.17091234 0.15813725 0.08532268 0.0038512498 -0.010967976
-0.0280393 0.038846575 -0.08060121 0.029676616 -0.14946683 0.015389306 -0.15922931 0.11569051
0.09969473 0.097719856 -0.054033637 0.012744153 -0.10058104 -0.10230969 -0.037760016 0.081484914
-0.03628855 -0.04108579 0.1653806 0.06612707 -0.059311237 -0.079979084 -0.002493357 0.13158974
0.040716283 0.014497693 -0.09926711 0.08206372 -0.09588634 0.031052677 0.076139584 -0.04029044
0.060527653 0.090333015 -0.055000894 -0.0015132434 -0.05599891 -0.025735265 0.0070292293 -0.052376848
-0.032676097 -0.03430763 0.09005201 -0.025025073 -0.05387916 -0.08366145 0.09733598 -0.15157914
00000000: b349 0e3a 8c69 16be 6e25 003d 0ddf 09be
00000010: f54d c5bd c3b7 343d 45fb 8b3a 9c9b 07be
00000020: 0f70 a6bd dce7 14be df97 e73d f611 aa3c
00000030: de38 1c3e 4c3d 8fbe 9b74 b23d da62 ae3d
00000040: 73ee b23d c5f4 9ebb 0a25 1dbd ae34 a1bc
00000050: 1ff7 91bd 3fb2 ec3d 1a33 31bc 5fcc 08be
00000060: 6a62 273e c4a5 08be 8c76 1c3c cff9 86bd
00000070: 5022 80bd 93ec a13d bd12 6e3d c924 babf
00000080: 7451 d63d 1bb2 ecbd 2703 a93d 01d1 4bbe
00000090: 7139 ae3d 49bd 3dbe 3410 19bc ee37 ad3d
000000a0: c09b febb 1256 fa3d d07f ee3d e055 b73d
000000b0: 66cc 6cbe a92f 343b 2c81 873d 5be1 45bd
000000c0: 9552 31be 0ac3 97be 534e 973c 5468 0dbd
000000d0: d27b 3d3e 731e dd3d 43c6 213d 8189 a3be
000000e0: 02f8 a03c 2668 f4bd 5720 263e 9c01 d0bd
000000f0: 61bc 39be 6a14 1ebe 9863 79bf d84e f53c
00000100: 3c36 b03d 970b dc3c 5f30 e8bd 0003 a43c
00000110: 20ab 06be ab14 133d 84cd 9fbb 814a 873d
00000120: 9c90 e1bd 2b2b 01be 176a b73d e3aa f93c
00000130: 0741 a7bb e4ac eabd 80a4 ca3d 743f 7bbd
00000140: a6ac a13d ba9a a53d 72e1 163e c39c a4bd
00000150: 6270 abbc 400b 2c3c 4cab d1bd 0de6 8fbd
00000160: 5757 d53d d492 c6bc 5dfc 2b3c 04d6 973d
00000170: 7242 6bbd 2da4 653c 971f abbd 127d c5bd
00000180: 8093 69bc 9cc4 afbd 179b 39bd b97e 043e
00000190: 3dad bcbc ab6c 013d fa64 d73d 2c90 973d
000001a0: 9eab 68bb 4604 433d 36b5 0d3e 1281 1dbb
000001b0: bafd b6bd 4fe2 4d3c 53a1 9fbd cc5a e33d
000001c0: a7d5 60bd 89f2 0abb b628 a03c 3e50 703b
000001d0: 68d2 e33d 5bfd 9abd 836b edbc edd9 81bd
000001e0: 196a cbbc 97b2 933d 2a33 cf3d 283b afbd
000001f0: 570e 07be c09c 763c 7c0b f63b a7d7 4abb
00000200: 127d b93c 20c8 113e ec36 1b3e 1650 ddbd
00000210: f19f c0bd 0a7f ff3c 478b 0bbd a98e 5abd
00000220: 1008 e4bd afda 74bd f5c0 11bd 1775 e0bb
00000230: 8b97 433d 72e4 b73d 84e2 d8bd ad49 33bc
00000240: 97e9 c9bd 900b 78bd 3963 bd3c c888 42bc
00000250: 6ae5 d0bc 93ea 933d 74b5 aebd 08fb c4bd
00000260: 0d50 053e dbe9 bfbd 599c cabd b8a3 e738
00000270: 1d4d 6ebc 50ec adbc c15e bcbd 306c f5bc
00000280: d53a ccbd 0b00 873d fadb dfbc b30b 883d
00000290: 24db 343d 8a34 2a3d 55f0 553d feef dbbd
000002a0: fba9 2fbd 3072 6dbb 77cf fd3d 82e9 f7bc
000002b0: 0505 603d 75e8 0bbc b2ed 30be a74b 743b
000002c0: 97e4 04bd a88d a03c 8341 3ebd b2d8 f7bc
000002d0: 151c 55bc 2a68 cabd a261 183c 8712 07be
000002e0: a715 bcbd 32e1 c4bd 1bff d03d 6660 a7bd
000002f0: 104f 1cbd 01a4 f83c fe07 083d 76ed 9fbc
00000300: 1c28 3b3c db1d f43d 4b4f a5b9 8668 663d
00000310: 41e7 69bd f39a 48be 8d24 a4bd f357 c9bd
00000320: 3b0a 95bd 7193 c3bb 186d dfba a503 2f3e
00000330: bbee 213e a8bd ae3d 4065 7c3b 07b3 33bc
00000340: adb2 e5bc 961d 1f3d 3f12 a5bd 601c f33c
00000350: d50d 19be 6d23 7c3c 020d 23be 25ef ec3d
00000360: c02c cc3d 5921 c83d 6052 5dbd dacc 503c
00000370: 6ffd cdbd be87 d1bd 3faa 1abd 90e1 a63d
00000380: 4da3 14bd 9349 28bd 8859 293e a16d 873d
00000390: 57f0 72bd 13cc a3bd 9767 23bb 76bf 063e
000003a0: 1ec6 263d bb87 6d3c 8e4c cbbd 0611 a83d
000003b0: 0f60 c4bd 2f62 fe3c 12ef 9b3d 9707 25bd
000003c0: d8eb 773d 8400 b93d 9e48 61bd 0658 c6ba
000003d0: 1d5f 65bd c3d2 d2bc 7355 e63b 1b89 56bd
000003e0: 5fd7 05bd 2886 0cbd 306d b83d 6201 cdbc
000003f0: 65b0 5cbd b256 abbd 1658 c73d 9037 1bbe

final.bias f4 [43]
-0.14901268 -0.04545065 0.078260735 0.0027734784 -0.05691895 0.18609999 0.24035287 0.08325833
-0.078256555 -0.16944999 -0.049860984 0.009484824 -0.04420715 0.068555094 -0.008078607 0.19580092
-0.26963672 0.07244288 0.16275766 -0.059563465 0.13780068 -0.16521606 0.076674655 -0.17627785
-0.21531923 0.15002155 0.075470865 -0.046451718 -0.10323668 -0.03949375 0.12578855 0.0045955484
0.28967574 0.095623165 -0.22937883 0.076026924 -0.10698018 0.15980718 -0.056052543 0.020708915
-0.06907498 0.022382481 0.018353473
00000000: c896 18be 762a 3abd 2a47 a03d 3fc3 353b
00000010: d823 69bd ff90 3e3e 101f 763e 5883 aa3d
00000020: f944 a0bd 4c84 2dbe 083b 4cbd 3c66 1b3c
00000030: 8e12 35bd 9d66 8c3d 225c 04bc 0980 483e
00000040: d30d 8abe ef5c 943d f2a9 263e d2f8 73bd
00000050: 9f1b 0d3e 662e 29be 9a07 9d3d 2e82 34be
00000060: a57c 5cbe 409f 193e 7890 9a3d 2844 3ebd
00000070: c16d d3bd 33c4 21bd b7ce 003e 4196 963b
00000080: 6150 943e 14d6 c33d 49e2 6abe 01b4 9b3d
00000090: 6d18 dbbd 7ea4 233e 5a97 65bd bea5 a93c
000000a0: 2f77 8dbd 775b b73c 065a 963c
