models/adversarial_model.pth (torch, 265092 bytes, 10 tensors)

_orig_mod.conv1.weight f4 [6, 3, 5, 5]
00000000: 530f beb9 7871 d6ba 4c0e 00bb cf37 12bb
00000010: 7c5f 86ba 1830 a8bb 37c4 fabb eb5b fdbb
00000020: 7fb0 0bbc eb14 7dbb c954 0fbc cf50 70bc
00000030: 911e 87bc ea68 78bc c445 bfbb b13e 07bc
00000040: 33fd 90bc 88b1 b3bc c2d5 7fbc 6ede 96bb
00000050: 2367 95bb 35f1 32bc a64d 5fbc 46aa f7bb
00000060: 78c5 0cbb 62cc 3eba cbc2 e0ba e058 07bb
00000070: 0bd4 feba a9f0 82ba 5d56 11bb 34e0 8dbb
00000080: 777e 95bb 8437 8fbb e49f 08bb 3b5e 40bb
00000090: 8a8e c9bb c2e6 dfbb f747 cbbb 8214 34bb
000000a0: e432 21bb e016 c5bb 847d eebb 700d a7bb
000000b0: e0d1 01bb ddc3 acba 77f7 5ebb 310d 85bb
000000c0: 6b15 24bb ba54 94ba e992 3bbd 32e0 93bd
000000d0: c641 95bd 2874 80bd 0ede 16bd a44c 88bd
000000e0: b073 ecbd eb25 01be 462f f4bd f18a 80bd
000000f0: a212 95bd 34d2 11be 30f1 32be da1f 1abe
00000100: f462 87bd 9f7e 4cbd fa0c f2bd 76f7 14be
00000110: 8c58 ccbd 7656 c9bc 29fd 8ebc f47e 60bd
00000120: 7a94 87bd a45a 01bd 7788 01bb 98be 3ab9
00000130: 80c5 9c3b b670 ec3b bf56 113b 2988 eeba
00000140: aa4a c03b 089c a23c 42fe c03c 5221 763c
00000150: ce17 303b 8798 3c3c 47de 093d 0295 203d
00000160: b36e bb3c 2f2d 343b e506 253c 8359 dc3c
00000170: 44b5 f33c c5de 973c 9353 293b e613 a03b
00000180: fe50 4d3c c5e0 5d3c 0ee1 ed3b def1 4bba
00000190: 4f5d b83a 32c0 b63a 5305 753b b7e2 473b
000001a0: f706 193b 3e6d d63a 3963 c43b 8273 fe3b
000001b0: 7e42 a23b 6d9e d33a 70b7 813b cb37 1f3c
000001c0: 982d 503c 033b b03b b9ed 413b c241 573b
000001d0: 370c e23b a144 f03b 8eea a53b cf6c 573b
000001e0: 9ccc 3c3b 2d15 4b3b 21a9 8b3b a303 463b
000001f0: 445a 9b3a 2c0f 563c f821 433d a39a 753d
00000200: 31fe 0e3d acee 723b c5e2 4d3d 271f 2a3e
00000210: c8e5 563e 37f3 e13d 6835 853c 72da 963d
00000220: db07 5d3e 320c 8d3e 9e45 003e 35ff a03c
00000230: cd91 3e3d 9da3 183e 89f8 383e 71fe a33d
00000240: cd1d 433c c520 193c f7e1 443d 5e50 6c3d
00000250: 6eae d13c 4cb1 a539 91cf be3c 47f5 563d
00000260: ca50 a83d cf87 3d3d 85fe 783c de1d d13c
00000270: 6090 453d 125a a83d 240e 653d adbe b43c
00000280: bc9d cf3c efed 943c 5bf7 993c c0aa ae3c
00000290: 118c c33c 009d 053d e0ce 3d3d a726 3e3d
000002a0: ea62 e13c 23a4 ce3c 7746 ea3c ac11 663d
000002b0: b099 8c3d 844c 0f3d 71e5 9f3c 3d7a 093b
000002c0: 49d7 153c 9eb2 863c a698 133c 2338 113b
000002d0: 3f7f cf3a 0df3 5d3b e27e 083c 2e2b b83b
000002e0: db69 053b 38a9 823a 2bf2 0abc 8d60 70bc
000002f0: cf40 e2bb 813d 843a fb10 bf3b d295 4b3b
00000300: b544 21bb ffc1 41bb bcce 073b e117 d43b
00000310: 63e3 153c 0456 ff3b 13a9 033b ea6f e43a
00000320: 267f 4fbc 1837 0e3e 8300 a33e 259c 063e
00000330: cdba 8ebc 2b25 88bd bc99 81bd aa33 833d
00000340: fd6c 203d af02 53bc b32a d9bd 7c2e 00bf
00000350: 958b 3fbf be0d 96be a7e4 58bc e9a6 423d
00000360: 1f47 67bd 8224 67be 96d1 2bbe 75ef e43c
00000370: 43de df3d ec04 2f3e 79e5 033e 93d0 653b
00000380: 99c5 913c a9d8 c93b efbe f0bc 4a6c a9bd
00000390: 2bc4 80ba 6c15 9a3c 7ee6 ca3b 9ea8 acbd
000003a0: cf6d 34bf 5fc2 91bd b553 0d3c 59f0 873c
000003b0: 749a 88bd bc90 6dbf 85d2 e5bd b09e 75bb
000003c0: a1fb a23c 4ef4 51bc 2343 b5bd 96a9 b6bc
000003d0: 08a5 fa3b cb6d bd3c bebb 293c 698b 30bc
000003e0: f400 5f3b 90d2 343c 33c8 283b b7c5 02bb
000003f0: 9566 81bb 57aa 893b 2c54 ac3b 3211 3e3b
-0.00036251041 -0.0016360721 -0.0019539772 -0.0022311097 -0.0010251845 -0.0051326863 -0.007652785 -0.0077319047
-0.008525967 -0.0038617204 -0.008748242 -0.014667704 -0.016494067 -0.015161732 -0.005837174 -0.008254693
-0.01769886 -0.02193524 -0.015614929 -0.0046041524 -0.004559414 -0.010921766 -0.013629353 -0.00755814
-0.0021480005 -0.000727838 -0.0017147897 -0.002065234 -0.0019441856 -0.0009989935 -0.002217672 -0.0043297056
-0.004562195 -0.0043706317 -0.0020847255 -0.002935304 -0.006151025 -0.0068329284 -0.0062036472 -0.0027478044
-0.0024596984 -0.00601469 -0.007278146 -0.0050980374 -0.0019808933 -0.001318093 -0.0034022012 -0.0040604104
-0.002503718 -0.0011316754 -0.0457944 -0.07220496 -0.07287936 -0.06272155 -0.03683286 -0.06655243
-0.11545503 -0.12612121 -0.11923079 -0.06276501 -0.072789446 -0.14240342 -0.17474818 -0.15051213
-0.06610671 -0.049925443 -0.11818881 -0.14547524 -0.099778265 -0.02457736 -0.0174547 -0.054808572
-0.066201165 -0.031580582 -0.0019765177 -0.00017809344 0.004784286 0.0072155846 0.002217695 -0.0018198538
0.0058682756 0.019849792 0.02355874 0.015022593 0.0026869657 0.011510975 0.033659246 0.039204605
0.022879934 0.0027492752 0.010072445 0.026898151 0.02974952 0.018538842 0.0025837168 0.0048851846
0.012531517 0.013542359 0.0072594946 -0.00077798765 0.0014065894 0.0013942777 0.0037387207 0.0030500123
0.0023350099 0.0016359461 0.0059932736 0.0077652344 0.004951774 0.0016145237 0.003958635 0.009717892
0.012706183 0.0053781285 0.0029591157 0.0032845591 0.006898429 0.0073324 0.0050633615 0.0032871251
0.002880848 0.0030987964 0.004262105 0.003021457 0.0011852463 0.013065141 0.047639817 0.059961926
0.034910385 0.003706853 0.050265092 0.16613446 0.20986092 0.11032718 0.016260818 0.07365884
0.21585028 0.27548367 0.12526557 0.019652942 0.046525765 0.14906164 0.18063559 0.08007515
0.0119089605 0.009346192 0.04806706 0.05769383 0.02559587 0.0003160335 0.023292335 0.05248001
0.08218534 0.046272095 0.015197401 0.025526937 0.04823339 0.082203045 0.05592169 0.022063578
0.025343768 0.018179862 0.018794706 0.021321654 0.0238705 0.03262043 0.04633987 0.04642358
0.027512986 0.02522475 0.028598053 0.056169197 0.06865251 0.03498508 0.019518586 0.00209774
0.009145566 0.016442593 0.009008562 0.0022158704 0.0015830769 0.0033866793 0.0083310325 0.005620382
0.0020357284 0.0009968644 -0.008480589 -0.014671457 -0.0069046984 0.001008913 0.0058308817 0.0031064642
-0.0024607603 -0.0029565094 0.0020722589 0.006472573 0.0091484515 0.0077922363 0.002008979 0.0017428373
-0.012664592 0.13888204 0.31836328 0.13145502 -0.017423058 -0.06647714 -0.06328151 0.064063385
0.03916644 -0.012879058 -0.10603847 -0.5007093 -0.7482236 -0.2930736 -0.013238109 0.04752246
-0.05646431 -0.2257252 -0.1677917 0.027946213 0.10931065 0.17091721 0.12880506 0.0035066947
0.017794417 0.006159861 -0.02938792 -0.082726076 -0.0009824088 0.018809043 0.0061920276 -0.08430599
-0.70480055 -0.071171515 0.008625914 0.016594099 -0.066700846 -0.9279897 -0.11221794 -0.0037478618
0.019895377 -0.012814594 -0.08850696 -0.022297662 0.007649068 0.023123642 0.010359703 -0.0107754255
0.0034027668 0.01103653 0.0025754094 -0.0019954273 -0.0039489963 0.0042012143 0.0052590575 0.0029001948

_orig_mod.conv1.bias f4 [6]
00000000: 55dd 25bf 4f06 1940 37b4 b13e e153 5cbe
00000010: f50d 6d3f 8e97 7b3f
-0.6479085 2.39101 0.34707806 -0.21516372 0.9259942 0.9827813

_orig_mod.conv2.weight f4 [16, 6, 5, 5]
00000000: ba57 d03c 332f e5bb d3f2 05bd 4e77 373a
00000010: 610e d43c 9870 e03a 3538 52bd da09 d3bc
00000020: 699e 9d3c 9092 58bc 433b 85bd 1109 73bc
00000030: b4a4 84bd 21a8 b4bb 19a6 c43c 57ba 9cbc
00000040: eb93 223d ee1b 693d a10e 64bd 1e6b 853d
00000050: cf04 053c 0a20 0d3d 1d46 a2bc 8b95 71bc
00000060: 6d37 8c3d c43a 68bd 8b69 7ebb 9261 ab3d
00000070: a5d6 1e3d ec7d 5a3d 57c7 febd afc7 00be
00000080: 0de2 8b3e 383b 5b3e 5100 773d 5606 e5bd
00000090: eab6 c2be 580c 343e 3e5d 013f 1a6d 293c
000000a0: 4855 50bd e056 c9be a459 f6be 94d7 4f3f
000000b0: 2338 f33d 5456 093d a808 4fbe c1ab 03bf
000000c0: d50d 633e de51 633e c971 5bbb 3dee 1d3c
000000d0: a6f3 45bc 42c0 d6ba 54bf a83b dd78 abbb
000000e0: d24c 213d 64ee c9bc 04e0 8bbc eb9f 3bbc
000000f0: ba73 99bc 88e2 213c 5e1f b2bc 7b2a a7bd
00000100: 3c65 c9bc 9211 52bb c5ef 06bd a368 853d
00000110: bef3 ddbd 45e8 b3bc f806 bfbb 975b cbbb
00000120: c45b 9c3b 1448 f63b afcd df3c 0fce 853b
00000130: 744b 91b9 88ca 513c f1ee a73b 6ef5 363b
00000140: 77cc bc3c eab6 8d3c 4787 36bc 6a69 263c
00000150: cd1e 96bb a583 fd3c c483 c33d 81a2 0fbc
00000160: f2f9 d3bc 514b 8e3a 6eb8 1b3d bc34 053e
00000170: 5189 ec3d f47f 3bbe e554 4abc a9da c53a
00000180: 4605 553d e860 813d 63fd debd 2ed7 b4bc
00000190: daec fdbb a28d 783c 1eae 13bd e514 4bbc
000001a0: 01cd 2fbc 0500 11bd 9bc9 503d e186 c73c
000001b0: b43c 5dbd d2dc 32bc 020c 55bd 0d7e f3bc
000001c0: 2dbd 563d 75f0 15be 4354 62bc 50f9 febb
000001d0: 1b20 2bbe 4f74 8ebc 25d5 dc3c a43f 61bd
000001e0: 3a34 323d bd4b 64bd 46cf 9dbd 136f 1e3e
000001f0: 5e2f 083c abfd 043d ca26 df3c 6027 04bd
00000200: bcbe d4bc 3be7 3fbc ab75 0a3d 9aca ac3c
00000210: d014 54bc 1066 923c 73be 5cbc 17a6 913c
00000220: 8506 733d 0657 e3bd 72c5 5a3d 0fae 38bd
00000230: 2a2d 7ebc 70e3 ab3d ebf0 10be 4647 6c3d
00000240: 39d2 16bd db72 093c d995 453c cb06 cabb
00000250: 61ef a2bc dc4b 43bd 92cf 183b 254f 59bc
00000260: 0268 15bc 5ca4 893d 2084 d3bc f345 3fbb
00000270: 762d 523d d532 af3c 78ae 263d 3d77 f83c
00000280: e487 863d ef38 8abd eeab c53c 89f0 1f3c
00000290: 62ad 663c 9536 b0bd cd79 0f3d b7e1 c6bc
000002a0: 6dab 8c3d 836e b63b 47d1 2abd 5eda 3cbd
000002b0: 16d3 3fbd 4308 c03b e07e 323d 82ad 80be
000002c0: 4974 28be 170d 1bbe a698 c2bd e007 81bd
000002d0: c394 65be 5242 40bd 0f5f 1a3d 4362 3c3c
000002e0: fea8 42bd 4c18 0f3e 26d6 393e 44a7 8e3e
000002f0: ab9d 813d b5ed 3e3c d48d eb3d 74f3 c03d
00000300: 81fd a23d f035 1abd bab4 8c3c 4f8c f2bd
00000310: 0642 25be 4ac4 babd e481 ecbd 70fd febb
00000320: 87e2 47bd eeac c9bc 9a75 dcbc 4e30 7cbc
00000330: 1fb7 36ba 221b 623d 96a3 1b3e 836f f13c
00000340: 8692 ac3c c1a4 0f3c 5d13 533b 8932 65bc
00000350: a6c5 02bc 3ab4 a0bc 9162 9b3b 0daf 193d
00000360: cc6d b83d 888d 913d 4266 1bbc 60c7 9a3a
00000370: 9f70 2abc 2ba9 bbbb 9088 9abb 3d71 04bd
00000380: 20d1 50bc c03b cf3b 99d6 52b9 0aa1 6e3c
00000390: 0e98 95bc 0495 613c 556b ba3d 7c1a 983d
000003a0: 5113 983d 26a0 783d cf68 893c 7d9d febb
000003b0: 2bd7 1cbd dfbc 0f3d 94ff 503d 54bb 523c
000003c0: 55fd 86bd ef4e 29bd ed2a a93d f35c 443d
000003d0: bcc9 0a3c 7724 6d3d 3a0f a03d db0c 643d
000003e0: 5554 a03d 56a9 033d 3ea4 4a3b ead5 a23c
000003f0: 66b0 8fbd 26c6 ddbc 060e b2bb 4dab 43be
0.025432456 -0.006994152 -0.03270228 0.0006998674 0.025885763 0.0017123399 -0.051323134 -0.025761534
0.019240575 -0.013218537 -0.06505444 -0.014833705 -0.06476727 -0.0055132066 0.024004983 -0.019131823
0.039691847 0.0569114 -0.055678014 0.065145716 0.008118822 0.034454383 -0.019808823 -0.0147451265
0.06846509 -0.05669667 -0.0038820233 0.083682194 0.03877892 0.053342745 -0.12440365 -0.12576173
0.273209 0.21409309 0.060303036 -0.11182849 -0.38030177 0.17582834 0.505329 0.010340953
-0.05086258 -0.39324093 -0.48115265 0.8118832 0.118759416 0.033529595 -0.20218146 -0.5143395
0.22173245 0.22199199 -0.003348457 0.00963932 -0.012082016 -0.0016384202 0.005149761 -0.005232914
0.039379902 -0.024649806 -0.017074592 -0.011451702 -0.01873194 0.009880669 -0.021743473 -0.081623994
-0.024584405 -0.003205393 -0.032943506 0.065140985 -0.10837506 -0.02196134 -0.005829688 -0.0062059867
0.0047716815 0.0075159166 0.027319757 0.004083402 -0.00027712772 0.012804635 0.0051249196 0.0027917284
0.023046715 0.017299134 -0.011140651 0.010156969 -0.0045813085 0.030946562 0.09546617 -0.008766771
-0.02587602 0.0010856186 0.038017683 0.13008398 0.115496285 -0.18310529 -0.012349342 0.0015095073
0.052006982 0.063173115 -0.108881734 -0.022075262 -0.007749182 0.015170487 -0.036054723 -0.012395118
-0.010730029 -0.03540041 0.050973516 0.024356307 -0.05401297 -0.0109169055 -0.052013405 -0.029723192
0.052426506 -0.14642508 -0.013814035 -0.007781185 -0.16711466 -0.017389445 0.026957104 -0.054992333
0.04350684 -0.055736292 -0.0770555 0.15472059 0.0083120745 0.03246848 0.027240176 -0.032264113
-0.025969855 -0.0117128445 0.033803623 0.021092702 -0.012944415 0.017870933 -0.013473141 0.017779393
0.05933239 -0.11100583 0.053410955 -0.04508787 -0.015513698 0.0839299 -0.14154403 0.05768516
-0.036821578 0.0083892 0.012059652 -0.0061653606 -0.019889535 -0.047679767 0.002331708 -0.013263498
-0.009119036 0.06720802 -0.025819838 -0.002918598 0.051312886 0.021386543 0.04069373 0.030330295
0.06568888 -0.067491405 0.024129834 0.009761938 0.014079424 -0.08604161 0.035028268 -0.024277551
0.068686344 0.0055673732 -0.04170349 -0.04610669 -0.046832167 0.00586036 0.04357803 -0.25132376
-0.1645061 -0.15141712 -0.09501772 -0.0630033 -0.2242003 -0.046938248 0.03768831 0.011498037
-0.047524445 0.13974112 0.18148097 0.2786199 0.06328901 0.011653353 0.11501661 0.09421435
0.07958508 -0.037649095 0.01717602 -0.11843168 -0.16138467 -0.091194704 -0.11548212 -0.007781677
-0.048800018 -0.024618592 -0.026911546 -0.015392376 -0.0006970036 0.055201657 0.15199122 0.029472118
0.021065962 0.008767308 0.0032207586 -0.013989099 -0.007981693 -0.019617189 0.0047419746 0.037520457
0.09005317 0.07107073 -0.009484829 0.0011808686 -0.0104028275 -0.0057269535 -0.0047159865 -0.032334555
-0.012745172 0.0063242614 -0.00020107105 0.014564762 -0.018260982 0.013768438 0.09102503 0.074269265
0.07425559 0.060699604 0.01677361 -0.007770239 -0.038291138 0.03509223 0.05102499 0.012862045
-0.06591288 -0.041335043 0.082601406 0.047940206 0.008470949 0.057896104 0.07815404 0.055676322
0.07828585 0.032143913 0.003092065 0.019877393 -0.07016067 -0.027072024 -0.0054338006 -0.19108315

_orig_mod.conv2.bias f4 [16]
00000000: 9514 163e 86b4 a4bd 8e37 453f cd7e 06bf
00000010: ba45 083f 0dae aebc ee09 9c3d 880d bb3c
00000020: 0043 053f 9168 dc3e 49c6 e33e ba05 f43d
00000030: fd4f 78be 2915 c43e 3eb1 7d3e d430 1f3e
0.14656289 -0.080422446 0.77037895 -0.5253723 0.53231394 -0.021323228 0.076190814 0.0228336
0.5205536 0.43048528 0.44487217 0.11915155 -0.24249263 0.38297394 0.24774644 0.1554597

_orig_mod.dense1.weight f4 [128, 400]
00000000: 5851 3cbc af08 813c 00c2 04bd 0733 e53c
00000010: 7d04 493d c0fa eabc 6e06 c3bc a3a0 753d
00000020: 7d9d b6bd 6220 f63c c366 04bd 52b1 4f3d
00000030: 0851 7dbd 2c99 18bd 3bf9 943d 7388 3fbd
00000040: f62d 9e3d f65b 8e3e 1f0c 11bd eb78 ca3c
00000050: 0e63 26bc 66c2 4e3d 0c17 a3bc e86f a23c
00000060: 8f99 78bc 0aed d43b 5b86 ab3c 46be ed3b
00000070: f14a 463d 97a5 603c 1e1e 06bc 5dce 75bd
00000080: a2e1 66bd afd6 39bc 2f89 21bd ea03 99bc
00000090: 191b e8bc 707a 68bd ab08 b83c 9dde 43bd
000000a0: a2c3 203c 5d47 3a3d c2a0 09bd 85ef 9abd
000000b0: 0d53 e2bc 9a37 82bc 0586 48bb ef2a 5738
000000c0: 84e0 1fbd e3fb 18bd 3496 87bc 3fe3 ecbc
000000d0: c652 a03d a085 223d b1f2 4e3c ddb6 3abc
000000e0: afd6 c53d 63bf ad3d 7671 583e f47f 5ebc
000000f0: 4039 0cbb c24b 523e 1d07 063d 66ab e93a
00000100: 8741 30be cc4f e6bc 089c 073c c676 19bd
00000110: 4a47 cbbd 7fed e8bd b0fe 13bc 9493 efbb
00000120: e8bc 9cbd d793 16bd 8327 58bc ab15 983c
00000130: e302 1dbb 12c4 783c 8ca6 9b36 1049 fabc
00000140: 63da 26bd d8c2 943a 4f08 433b 5849 193c
00000150: 0bbd 44bc 952e 3abd 1999 20bc 196c 5bbc
00000160: 3bdc d3bc f1bc 0c3d 0193 92bd 6a2f 833b
00000170: 87c0 7cbd 0e86 d3bc add6 b43d 15a5 b3bc
00000180: 4a65 03bd e5d7 8d3d 37a7 873c aaa6 ae3d
00000190: 77a7 33bc 195f 94ba d280 323d 16b8 30bb
000001a0: 78d3 40bb 48ec 013c 3c7b 97bc 6c09 cdbd
000001b0: 2459 243d 651d 543c c1c6 b3bc b2bf c03c
000001c0: 4743 f6bd 1958 84bd 4140 5c3d acb7 0bbd
000001d0: c3e2 aa3d 9701 63bd 188f fdbd 5e42 a5bc
000001e0: c9e8 d23b 1e69 14bd ec97 f93c d14d 373c
000001f0: b750 153c 90fe cc3b 9b66 51bc f631 cc3c
00000200: 9329 993c 0492 483d 9530 f5bc 5d0f 2c3d
00000210: 5610 21bd 78db 35bd 021c 473a 9df4 81bc
00000220: ec71 36bd 4183 7cbc 75ac 2c3c a57c bf3c
00000230: f115 e53c 7d4f fc3b cba9 293d 2223 96bc
00000240: b151 f73c 8dd3 103c 025a 243c 7184 02bd
00000250: 0905 0d3d 6f20 0abd 9df7 7c3b 398d 7dbb
00000260: e799 37bd d8e6 013c e21e aebc a676 d13c
00000270: ac00 bfbd 570c f83d 378e 8c3d f2c7 9b3b
00000280: ba45 3a3c 30eb 1bbe 271b 043e f304 113e
00000290: 79c6 0a3d 3e32 82bb b64a 823d c800 c93d
000002a0: 97ff 723d 4d05 0bba b609 0e3c 241d de3b
000002b0: f051 473d 7453 ccbb 243c bb3b 0b91 06bc
000002c0: 89af 063d 8cac 323d e63e 88bb e0c3 12bb
000002d0: afd1 17bb 2bc9 d43b 25e9 66bd 5c2e cf3d
000002e0: cf83 12bc 0869 dbbb 6ac8 4ebd aa47 0b3e
000002f0: 9022 943c 7099 8f3c 528a 1a3c 6c5d b83d
00000300: 5a74 3abe 8bfe 5cbd a852 843c 7293 813b
00000310: 9e86 573d 902f b63d 1085 f13b 72ac 90bc
00000320: 3af8 09bc 7332 bc3b 9017 6a3c e326 35bc
00000330: dec4 0e3c a98c 0c3c 3997 233d 09c3 dabc
00000340: 905c ad3c b7b0 d6bc 4f7b 85bb 5f86 c93d
00000350: d7f4 6d3e ef6e f5bc 2bb3 05bd e442 48bc
00000360: a85e 85bc 6710 96bc 3557 cfbc 5bf4 acbc
00000370: 5e80 42bc 7b45 f2bb c0b2 74bd dab6 823d
00000380: 4e81 cbbb 7f35 6e3c 6fad a53c 55ca 863d
00000390: 810c 163d 0e04 ae3c c7a5 9b3c 57be 26bd
000003a0: b05e e23c ab73 d13d 5bdf 7cbc d05e 0dbd
000003b0: ca9f ffbd 4b50 ac3d c0d2 843d 0110 83bd
000003c0: 0e1c 483c 8f72 17bd 91f6 30be 499d a23d
000003d0: a726 d8bc 9ee7 a6bc 52c8 03bc 9017 cb3b
000003e0: 9e66 b2bb 9947 39bd c536 8a3c bea4 fd3b
000003f0: 7be0 c03c 07a5 9a3c 181e 58bb 2056 71bb
-0.011494003 0.015751211 -0.032411575 0.027978433 0.049076546 -0.02868402 -0.023806777 0.05996765
-0.08916757 0.030044738 -0.032324564 0.050706215 -0.061844856 -0.03725545 0.072740994 -0.046760987
0.0772361 0.27804536 -0.03541195 0.024715861 -0.010155452 0.05047836 -0.01990845 0.019828752
-0.01517333 0.006497984 0.02093809 0.0072553484 0.048411313 0.013711355 -0.008185891 -0.060011256
-0.056367524 -0.011342688 -0.03943747 -0.018678624 -0.028333234 -0.05675739 0.02246507 -0.047819722
0.0098122675 0.045478214 -0.033600576 -0.07565216 -0.027627492 -0.015895654 -0.003059746 5.129998e-05
-0.039032474 -0.037349593 -0.016551115 -0.028916953 0.07828288 0.039678216 0.012631104 -0.011396137
0.09660088 0.0848377 0.21137032 -0.013580311 -0.0021396428 0.20536712 0.032721628 0.001782757
-0.17212497 -0.028114222 0.008276947 -0.037466787 -0.09925707 -0.11373424 -0.00903289 -0.007311294
-0.076532185 -0.036762085 -0.013193014 0.01856502 -0.002395802 0.015183466 4.6387486e-06 -0.030552417
-0.040735614 0.0011349572 0.002975959 0.009355865 -0.012007962 -0.04545458 -0.009802126 -0.013392472
-0.02586185 0.034359876 -0.07156945 0.004003455 -0.061707046 -0.025820758 0.08830009 -0.021929303
-0.03207902 0.06925944 0.016559226 0.085278824 -0.01096522 -0.0011319845 0.043579884 -0.0026965193
-0.002942292 0.007929869 -0.01849138 -0.10011563 0.040124074 0.012946461 -0.02194536 0.023528907
-0.12024551 -0.06462116 0.053772215 -0.03411071 0.083440326 -0.055421438 -0.123808086 -0.020173248
0.0064364416 -0.03623306 0.03046795 0.0111879865 0.009113482 0.006255932 -0.012780811 0.024926167
0.018696582 0.048967376 -0.029930392 0.04200684 -0.03932222 -0.044398755 0.0007595421 -0.015863711
-0.044542238 -0.015412153 0.010539164 0.023374865 0.027964564 0.0076999054 0.041421693 -0.0183273
0.03019032 0.0088395 0.010031225 -0.031864587 0.03442863 -0.033722337 0.0038599737 -0.0038688912
-0.044824507 0.007928573 -0.02125496 0.025569271 -0.093263 0.12111729 0.06863063 0.00475406
0.011369163 -0.15226436 0.12900983 0.14162044 0.033880685 -0.0039732745 0.06361906 0.09814602
0.05932578 -0.0005303219 0.008669307 0.006778376 0.048662126 -0.0062355343 0.0057139564 -0.008213292
0.032882247 0.043621585 -0.0041578887 -0.0022394583 -0.0023165753 0.0064937077 -0.056374688 0.10116264
-0.008942558 -0.0066958703 -0.0504841 0.13601556 0.018082887 0.01752922 0.009432392 0.09002194
-0.18208447 -0.05395369 0.016152695 0.0039543444 0.052618615 0.088957906 0.0073705986 -0.017660353
-0.008420998 0.0057433187 0.014287844 -0.011056635 0.008713929 0.008578458 0.03993914 -0.026704328
0.021162301 -0.026207311 -0.0040735374 0.098400824 0.2323793 -0.029960124 -0.03264157 -0.012222979
-0.016280487 -0.018318368 -0.025310138 -0.021112612 -0.011871425 -0.0073935366 -0.05974078 0.063825324
-0.0062104827 0.014539122 0.020224301 0.065815605 0.03663302 0.021242168 0.018999947 -0.040708866
0.027633041 0.1022714 -0.0154341115 -0.03451425 -0.12481649 0.08413752 0.0648551 -0.06399537
0.01221372 -0.036974486 -0.17281558 0.07940156 -0.026385618 -0.020374116 -0.008043366 0.006197877
-0.005444362 -0.045234296 0.01687182 0.007740586 0.02354454 0.01887752 -0.0032976922 -0.0036825016

_orig_mod.dense1.bias f4 [128]
00000000: 6441 4cba 510c 54bd bb66 0ebe a1be f13a
00000010: f03a f03d 7d9b bf3b 58a7 033c 2f1a 0c3b
00000020: a7a0 043d c859 683c dcad 22bb 6f4f 30bd
00000030: ab01 143c deb7 a3bd f675 5cbc 2dfd 963d
00000040: ddbc 9ebd 0a6b 32bd fd56 943c 5f5c 953c
00000050: a03c b9bc c913 1c3e 0097 0f3e b4ec e8bc
00000060: 13c3 37bc efc4 2c3c 5fae 6dbe 97f8 acbd
00000070: ddef d2bc c9a6 dcbc 2f5d 8a3d 8288 103d
00000080: 88cd 1abe 9ceb 68bd a9de bebc db6c 983c
00000090: 5451 41bc 5fb1 8ebd 43b0 18bd 2fb6 663e
000000a0: 5c93 e5bc a16b bb3d dd34 80bd faa9 3fbd
000000b0: 979f d43d 11c5 93bd 2005 9bbd 3419 833e
000000c0: 6ead c33c 8d5b ff3d d735 b8bc 0610 abbd
000000d0: 17d4 00be c454 4c3c e34c c33c 6836 303e
000000e0: ff65 8d3c 8fe2 eabc db72 da3d db08 6e3d
000000f0: c006 c03d e05c b23c be93 33bd f3ea 37bd
00000100: 2513 c8bc b4ac d33d 3201 50bd 5cd8 fe3d
00000110: 9a17 b43d 6ad9 04bd 0009 8abd 2647 a3bc
00000120: 4468 e3bd de76 11bd 3c18 993d 2199 d7bc
00000130: e99c b6bd 9d7d b6bc 7d5e 1dbd 8590 92bb
00000140: be36 82bb fb94 a53c 66b9 37bd 9122 533e
00000150: 5adc b83d 4691 8b3d da4f 86bc f758 0c3d
00000160: 38d0 b4bd 51da b63c 5122 923e 07b1 d8bc
00000170: b9f1 433c 3043 10bd 9a4b dd3b 9c25 993a
00000180: 2409 36bd c87f afbc a60d 4d3d 4b4a 9b3d
00000190: b3c9 1e3d bc71 033e 38f1 ac3c 7c8f 083e
000001a0: 90a5 03be 16f6 883d e0e0 debc 9d45 2abc
000001b0: 8e8f 7b3d 2d32 b9bd 7f36 10bc 7709 4e3d
000001c0: 3b5a 9bbc cb34 7bbd efbc 1c3d 134e 003e
000001d0: a074 8dbc 8e05 d13a 4c3f 1abd 3727 f63d
000001e0: 40e3 b6ba 06b7 b73c fe79 153d cba6 b5bd
000001f0: cef3 b43c fcb2 7fbc 29be 3b3e ad33 823d
-0.00077917264 -0.05176956 -0.13906376 0.0018443653 0.117299914 0.005847393 0.008035503 0.0021377911
0.032379773 0.014181562 -0.0024822867 -0.043044504 0.009033601 -0.07994054 -0.013455858 0.07372508
-0.077508666 -0.04355911 0.018107885 0.018232523 -0.022611916 0.15241922 0.14022446 -0.028433181
-0.011215943 0.0105449995 -0.23211049 -0.08445852 -0.025749141 -0.026934998 0.067560546 0.035286434
-0.15117466 -0.05686532 -0.023299532 0.018606594 -0.011799175 -0.069674246 -0.03727747 0.22530435
-0.028024368 0.09151388 -0.06260083 -0.04679296 0.10382002 -0.07215322 -0.07569337 0.25605166
0.023886409 0.12468634 -0.02248661 -0.083526656 -0.12580906 0.012471382 0.023840373 0.17208254
0.01726055 -0.028672485 0.10666438 0.058113914 0.093762875 0.021772802 -0.04384207 -0.0449018
-0.024423191 0.10335675 -0.05078239 0.12443611 0.08793564 -0.032433905 -0.06739998 -0.019931387
-0.111038715 -0.03551375 0.074753255 -0.026318135 -0.08916647 -0.022276694 -0.03842019 -0.0044727945
-0.003973811 0.020212641 -0.044854544 0.20618655 0.09026404 0.06814818 -0.016395498 0.03426453
-0.08828777 0.022320898 0.28541806 -0.0264516 0.011959487 -0.035220325 0.006753397 0.0011684182
-0.04444231 -0.021423236 0.050061844 0.0758253 0.038766574 0.12836355 0.021111116 0.13335985
-0.12856126 0.06687562 -0.027206838 -0.010392574 0.0614162 -0.090427734 -0.008802055 0.050301995
-0.018963924 -0.061329644 0.03826612 0.12529783 -0.017267525 0.001594709 -0.03765802 0.120191984
-0.0013953224 0.02242614 0.036493294 -0.08869704 0.022088911 -0.015606638 0.18334259 0.063575126

_orig_mod.dense2.weight f4 [64, 128]
00000000: ae4f 523e 3026 d93d b54c 91bd 38d3 113d
00000010: 28fe f0bc 0e49 ab3d 88f5 46bd 66c2 153e
00000020: 42c8 26bd 7277 443d a2dd 08be 69f9 c5bd
00000030: 2a2c 57bd 7569 60be f5b9 183d 3ecd 41bd
00000040: db90 fabc 7e8d 86bc c67f 1c3d 4da2 a4bc
00000050: 2a65 513d 095d ba3c b5b2 1d3d a075 893d
00000060: b165 183d 77bb d739 199c 9fbd 5814 fbbd
00000070: 522b 85bd ea02 083e ebcc 93bd 3b9a 893d
00000080: ca6d 1fbe 4c2e d9bd 8a67 a53c 807d 13bd
00000090: 4581 75bd 3f6c 903c 1463 58bd d670 c93d
000000a0: 7d3d 42bd ab3c 4d3d 2895 acbd 03ab bbbd
000000b0: e622 dcbd 22d7 1abe d66a 1dbe dd35 79bd
000000c0: 0581 7abd ed42 80bd ccf5 603e cae8 6fbd
000000d0: 5bcd 053e 7ac0 a63d 7824 86bc 6cab bb3d
000000e0: e20b e7bd 6cee debd a99e 8cbd 3f6e 0e3d
000000f0: 7684 223e af7d 0e3c 40bb b33d 346f 983c
00000100: 1a52 ebbc 49fe dcbd abd7 ebbc c7ee aabd
00000110: 0800 e23d 5123 1dbd 0d63 87bd 6042 3a3c
00000120: 0033 cd3d 4dc5 83bd 38a8 733d 425d 9b3d
00000130: 5a83 333d de35 6bbe 85f4 4fbd 5920 2dbe
00000140: 941f 81bd 4572 a1bc 56f2 0c3e 5a0f 473e
00000150: 8aba 0dbe f715 153e dd95 7a3d cb2b a13d
00000160: 05ee 613d 0766 d3bd 5c42 b23d b6cd a3bd
00000170: 4f7b 6ebd c1e0 55bc 1aac c53d f445 0dbd
00000180: f2ff a0bd 3eeb 81bd a586 dabc d39d c8bd
00000190: 97dc 293e 1c7b f53b d31f 883d c20a cdbd
000001a0: 9d92 32bd e5e4 b83c 0370 88bd c91e 4ebd
000001b0: 2acc 4fbe d689 9dbb 5a25 d1bd 3b2f 7ebd
000001c0: 7d4b 04be d4c0 bd3c 6f9a 103b aa51 9d3e
000001d0: 5926 133e 810e fd3d fd55 b2bc 48da 693d
000001e0: ffc8 71bd bbf0 1cbe e75a 8bbd 557b c5bc
000001f0: 8bc3 453d d177 043d 81b0 343e 28f7 aebd
00000200: 057f a5bc 0d3e 1d3e 2cf0 2dbd c16d 82bc
00000210: f16d 68bd 2cde e7bb ede6 3d3d 0389 a0bc
00000220: a200 3a3d 5b31 41bd 8403 db3c 3ab2 61bc
00000230: 658a 82bd 94a1 20bb 01db a6bc 184a babd
00000240: a80f 933d b190 d8bc 8da2 803c 583e c4bd
00000250: e789 193d a93d 26bb 9ea3 2dbd 25cc fabc
00000260: 824a 7f3d d6df 883d c7a7 7ebc 3c12 113e
00000270: 2e83 9f3c 2ce4 183d 23f6 fdbd 6790 4ebd
00000280: fdc9 4a3d ab56 1e3d f868 86bd 2637 7d3d
00000290: 6645 4ebd f72e 153e cbc5 8b3a 0961 70bd
000002a0: 7b8d 3abd 2e47 0e3e f790 c23b 9f8e 643d
000002b0: 22c7 ae3c f435 f23d 8c41 c73d 7ab0 f7bd
000002c0: c055 dfbd 1625 f0bb f0b3 91bb bfef 76bc
000002d0: 378f d73d aa2d 02bd bbec cb3d 7568 6cbc
000002e0: e6e4 dc3b 997f 86bd b47a 32bd 241c 9cbd
000002f0: 2587 63bd 6a2a 15bd 4b17 f7bc 95aa 2f3d
00000300: 11e3 bebc e1a7 c63d cddd 39bd 7795 a33c
00000310: 3f6e 61bd f16e afbb 04c5 b03d 303a c73b
00000320: d00c e1bc 12ba 37bc bde7 07bd cb7d d73d
00000330: 4335 94bd eb6d b23d 7107 7ebd 5e64 b43d
00000340: 0e5a 75bd a5ff f13d 35b7 10bd 678b 393d
00000350: 8643 dabd 1edf 75bd cf3b 443d 6deb 60bd
00000360: bd11 a03c cdfd 86bc e4d4 a23d 7f4d a83b
00000370: bab0 093d 0ccd a33c 0a78 da3c f903 86bd
00000380: 7617 d33c 49a8 8bbd f461 c2bc d390 fbbc
00000390: 2ec2 a43d fcdb 6ebc abaa b0bd 7df7 2e3d
000003a0: 88f1 27bd 82d4 f13c 3e00 59bd deba 1fbd
000003b0: 4b35 8f3d 68d7 febc 28ee ecbc 4f24 883d
000003c0: e8de b8bd 13d8 05be c85c 053d f6dc 90bc
000003d0: c64f 18bd fb9a 57bd 9568 133d 431f 8fbd
000003e0: 88d1 153d ed8d e9bc 67e6 a83c 1c38 dcbc
000003f0: cf53 e1bd 293f 433d b3b7 883d f319 4cbd
0.20538208 0.10602987 -0.07094709 0.035601825 -0.029418066 0.083635435 -0.048574 0.14624938
-0.040718324 0.047965474 -0.13365796 -0.09666712 -0.052532353 -0.21915229 0.037286717 -0.047314875
-0.03058665 -0.01642489 0.03820779 -0.020096922 0.05112187 0.02274944 0.038500506 0.06711888
0.037206355 0.00041147668 -0.07793445 -0.1225974 -0.06502403 0.13282362 -0.072168194 0.0671887
-0.15569225 -0.106045336 0.020190973 -0.036008358 -0.059937734 0.01762974 -0.052828863 0.09835975
-0.04742192 0.050106686 -0.08426887 -0.09163477 -0.10748844 -0.15121129 -0.15372786 -0.060842384
-0.0611582 -0.06262765 0.21968764 -0.058571614 0.13066618 0.08142181 -0.016374812 0.091635555
-0.11281563 -0.10885319 -0.068661995 0.034773108 0.15870842 0.0086969575 0.087759495 0.018607713
-0.028725673 -0.107906885 -0.028789362 -0.083463244 0.11035162 -0.03836376 -0.06610689 0.011368364
0.10019493 -0.064341165 0.059486598 0.07586147 0.04382644 -0.22969767 -0.0507703 -0.16906871
-0.06304851 -0.019707808 0.13764319 0.1943945 -0.1384069 0.1455916 0.061178077 0.07869681
0.055158634 -0.103221945 0.08704063 -0.079982206 -0.058223065 -0.013054074 0.096519664 -0.03449054
-0.07861318 -0.06343697 -0.026675532 -0.097957276 0.16588055 0.0074914824 0.06646695 -0.100118175
-0.043596853 0.022570083 -0.066619895 -0.050322328 -0.20292726 -0.004807691 -0.10212202 -0.06205676
-0.12919421 0.023163237 0.0022064706 0.30726367 0.14370097 0.12356282 -0.021769518 0.057092935
-0.059029575 -0.15326206 -0.068044476 -0.02410666 0.048282187 0.03234083 0.17645456 -0.08543235
-0.02020217 0.15355702 -0.042465374 -0.015921475 -0.056745473 -0.0070760455 0.046362806 -0.019596582
0.04541076 -0.04716621 0.026735075 -0.013775403 -0.06374053 -0.002451037 -0.020368101 -0.090961635
0.071807206 -0.026436182 0.01570251 -0.095822036 0.03748503 -0.0025366342 -0.042392366 -0.030614922
0.062326916 0.06683318 -0.015542931 0.14167112 0.019471731 0.037326977 -0.124004625 -0.05043068
0.049509037 0.03865687 -0.0656299 0.06182017 -0.050359152 0.14568697 0.0010663805 -0.05868629
-0.045545083 0.1389434 0.0059376913 0.055800077 0.021335188 0.11826697 0.09729299 -0.12094207
-0.109050274 -0.0073286397 -0.004446499 -0.015071808 0.10525363 -0.03178183 0.09957262 -0.014429201
0.006741154 -0.06567306 -0.04357405 -0.07622555 -0.055548806 -0.036417402 -0.030162474 0.04288729
-0.023301633 0.09699989 -0.04537754 0.019968731 -0.05503678 -0.0053538014 0.08631328 0.0060799345
-0.02747193 -0.011213796 -0.033179987 0.1052204 -0.07236721 0.087123714 -0.062018815 0.08808206
-0.059900336 0.118163384 -0.03533097 0.04529896 -0.1065741 -0.060027234 0.0479086 -0.05491202
0.019539708 -0.016478444 0.07950762 0.0051361914 0.033615805 0.019995235 0.026668567 -0.065437265
0.025768023 -0.06819207 -0.023728348 -0.030708706 0.08044849 -0.014578816 -0.08626302 0.042716492
-0.041001827 0.029520277 -0.052978747 -0.03899657 0.06992587 -0.031108573 -0.028922155 0.0664755
-0.09026891 -0.13070707 0.032559186 -0.017683487 -0.037185453 -0.052638035 0.03598841 -0.069883846
0.036576778 -0.028510058 0.020617677 -0.026882224 -0.11002313 0.047667656 0.06675663 -0.049829435

_orig_mod.dense2.bias f4 [64]
00000000: 3754 ca3d b72b 8b3c d956 50be 007d 2dbe
00000010: 9b8e 91bd 31db 013d 2d15 a73e afa3 7b3d
00000020: ce93 27bc dd5b 1f3e b75a b0bd dd66 f5bd
00000030: 207c 6d3e 3736 96bd fcc9 d33c 6d79 423e
00000040: eda6 3ebe bf35 c43d 5c88 a3bd 670c 8538
00000050: 1f80 c33e 4741 0ebe bdde b4bd 3c65 ae3d
00000060: 22d3 41be e2f3 a9bd ca6d 59be 4cce 77bc
00000070: 723f b9bd 2e5d 143d 00ab 343d c6ca b3bd
00000080: 2fa9 073e f2a1 2d3e f82e debd ec11 323c
00000090: 2e56 903e 4f3a 60bd ca7b 903d c1f5 bfbc
000000a0: 51e7 7d3d 7797 09be a802 633e 5787 323d
000000b0: bc0c 80bd 28f7 aa3d 9570 dcbc c2ab 393d
000000c0: 8881 813e f687 89bd 640f 25bc f51e 5cbd
000000d0: 1ac0 933d 67d3 3b3e 6b9d 86bd d3d1 07be
000000e0: d617 b6bc 1dc9 cfbd bb51 08bd 38e5 753e
000000f0: 995d 64bd e754 0e3e f158 01bb 8ad1 ad3e
0.09879344 0.016988618 -0.2034563 -0.16942215 -0.07107278 0.031703178 0.32633343 0.061435398
-0.0102281105 0.15562387 -0.086110525 -0.1198251 0.23191881 -0.073345594 0.02585315 0.18991633
-0.18618365 0.09580564 -0.07984993 6.344244e-05 0.38183686 -0.13892089 -0.088315465 0.08515403
-0.18928197 -0.0829847 -0.21233287 -0.015124869 -0.09045304 0.036221676 0.04410839 -0.0877891
0.13248132 0.16956308 -0.10848802 0.010868531 0.2819075 -0.054743107 0.07054861 -0.023432614
0.06198818 -0.13436686 0.22168982 0.0435861 -0.06252429 0.083479226 -0.026909152 0.045329817
0.25294137 -0.067153856 -0.01007447 -0.05374046 0.07214375 0.18342362 -0.06572994 -0.13263635
-0.022228163 -0.10145781 -0.03328107 0.24013221 -0.055753324 0.13899575 -0.001973685 0.33948928

_orig_mod.final.weight f4 [43, 64]
00000000: 9810 eb3d 8d5b 42bd 1889 d7bd 9ebe cb3c
00000010: 4d12 c83d 3283 223d b3c9 443e 03c6 78bd
00000020: 3f5e a33d 7481 5bbc f835 3d3c ccd7 d13d
00000030: 6d51 acbc 79a0 e43e af82 d4bd 39d3 aabd
00000040: 7731 e03d 3713 803d bb90 27bd 8cdc 993d
00000050: 6b8d a4bd a4e2 46be 23cf 98be 1881 33be
00000060: 912c a2bd 177e d33e 8299 3d3e 3647 96bd
00000070: 9939 15bd adf5 9cbd 41c6 88bd 554d c13d
00000080: ab13 f1bd f207 95bd e7fb fbbd 17ad 183e
00000090: 9b21 263e 1bc0 173e eb91 a6be 1c85 ef3d
000000a0: 0ef5 b1be 6300 febd 7ac6 14be 4b35 41bd
000000b0: a114 62bd 6c04 3c3e 40ac 93bc b119 1cbe
000000c0: 067d 4fbd 43bf 223e a726 903d 62e4 b6bc
000000d0: b46f 63be d6dd 13bd 8220 92bd bbb1 adbb
000000e0: 15f0 a8bd 55d8 0a3b b146 d7bc 8c94 21be
000000f0: 4210 df3d 72be c93d 44de f3bd fb35 b9be
00000100: 5521 b6bd 6eed 5b3d 7321 b7bd 44f2 1cbe
00000110: 66da a6bc 5bc2 11bd 90e3 2d3e 89b9 183c
00000120: 675b 0dbe 151d 813d 5711 ccbd a8ca d6bc
00000130: e6d6 7fbd b787 ea3a 3277 933c 0163 31bd
00000140: 4bfe 33bc 2c0f cabc f00f 913d 822e 0abe
00000150: 3f8e 1bbe 1dbc b5bc adb7 51be 50c4 d93d
00000160: cb2f 88bd de1a 833e 42ff 1c3e 0ab3 f2bd
00000170: 3146 c03c 697a e8bd 3151 8d3c 9dc1 e33d
00000180: 5441 95bd f5ce 873d 396e 89bd 4c17 4abd
00000190: a45c 1d3e 036c 883c 8cab 4ebe 12b1 8f3e
000001a0: 8b09 c6bd 480a c4bd fcce d43d 1f13 7fbc
000001b0: c56a c5bd 574c 923e 14bc 01be e1c2 203c
000001c0: ef00 843e b062 61bd ccc5 3d3e 586d febb
000001d0: 77e3 253d 3c3f d93c bdf0 3dbd 99a0 a6bd
000001e0: 1f6b 363d 795b 283d 8acf 953d 9242 63bd
000001f0: 911c 3d3e 570c 26bd 3f56 ac3a b077 263d
00000200: 93c0 06be d94f c93d dae8 123d 2cdb 8b3d
00000210: a854 45be b2a5 3fbd 28e5 d13d 9277 05be
00000220: 7d5e 4c3e 4abd 2cbd 2573 f13c 2a1d 03bc
00000230: 34a8 96bd a669 dbbd c635 d53d 7da2 c3bc
00000240: 54d0 0e3e 57cc 9c3c f2fe 353c 2c7e 2ebd
00000250: b2fc 853d 90b6 6dba 0dfc 823d 984f 64bd
00000260: 1838 42bd 5441 6d3e 107d 3a3e aed9 a03d
00000270: bbf9 2e3e bdbb de3d 0b06 adbd 303c 193e
00000280: b539 793c 04e6 18bd ca0e 91bd b315 b2bd
00000290: c7df 923e 1ac4 d23c 9a2f 59be c168 313e
000002a0: b14a 003c 8ec0 0bbe 8ecc ff3d 422d 013e
000002b0: e45d f4bd 4835 693e 4a4e 86be 3fde 9e3c
000002c0: e7e2 883e a19a 50bc 7797 54bd fea5 0d3e
000002d0: e9cf b0bd 9686 173e 9ff9 e1bc d789 16bd
000002e0: 884a e8bd 0f81 0dbd e8f3 d7bd 0186 85bd
000002f0: a7c5 4cbe 28e6 09be 1b3a 0dbe 8c9b c03d
00000300: 1c0e fd3e 46e4 b53d 12af c03d 5c20 8f3d
00000310: 8095 de3d 71de a13d cf0e 023e b4a3 003d
00000320: f0aa 653c e09c 753c 213c 2f3c 6f36 e03d
00000330: 4ceb 813e 8d40 31bd ba7d 8cbd db8f f4bd
00000340: 3707 4bbd 249a 6fbd 4861 9fbd 63ac 043e
00000350: 9941 14be 830b 14bd b976 0b3e c105 a4bd
00000360: eae0 1ebe 1cd0 c93c ce35 e03c 77db ddbd
00000370: 4bc5 093e af18 d83d 339d 9bbd 3698 2f3d
00000380: 8d72 c8bd 8d37 a7bd 565d 05bc 0576 bbbd
00000390: c16a 513e 6a26 5abd 9ea7 4dbe 98c9 533d
000003a0: 6218 1d3e 3cf2 213d e1f7 113e 439a c63d
000003b0: e2a7 173d f011 693d 93c6 633d 1676 303c
000003c0: 42db 913e fff3 3d3d 064a b3bd 0e7e e5bc
000003d0: 0054 193e 8473 563e 50a4 ebbb 6c5a aebd
000003e0: c526 0fbd bbaf c53c 19c3 ecbd 8312 27be
000003f0: 5b80 78bd 7da0 613d 015a c7bc f005 b83c
0.114777744 -0.04745059 -0.105241954 0.024871167 0.097691156 0.0396759 0.19217567 -0.060735714
0.079769604 -0.013397563 0.011548512 0.10246238 -0.02103492 0.4465368 -0.103764884 -0.08341069
0.10946935 0.06253665 -0.04090951 0.07512769 -0.08034786 -0.19422394 -0.29845533 -0.17529714
-0.079186566 0.41307136 0.1851559 -0.07337801 -0.036431883 -0.076640464 -0.06678439 0.09438578
-0.117713295 -0.07276906 -0.12303906 0.14909779 0.16223757 0.14819376 -0.32533202 0.116953105
-0.34757274 -0.124024175 -0.14528838 -0.047169965 -0.055195455 0.18361062 -0.018026471 -0.15244175
-0.05065634 0.15893273 0.07038622 -0.022325698 -0.2221058 -0.03610023 -0.071351066 -0.005300728
-0.08248917 0.0021186073 -0.026278825 -0.15779322 0.10891773 0.09850778 -0.11907628 -0.36173996
-0.08893076 0.053693227 -0.08941927 -0.15326792 -0.020367812 -0.035585742 0.1698134 0.009321579
-0.13804398 0.06304375 -0.09964245 -0.02621968 -0.062460802 0.0017893229 0.018001173 -0.043307308
-0.010985921 -0.024665438 0.07083118 -0.13494304 -0.15190981 -0.022184426 -0.20480223 0.10633147
-0.06649741 0.25606436 0.15331748 -0.11850555 0.02347097 -0.11351473 0.01725063 0.11120913
-0.07287851 0.06631271 -0.067104764 -0.049338624 0.15367371 0.016653067 -0.20182627 0.2806478
-0.09669789 -0.095722735 0.10391042 -0.015568524 -0.09639505 0.28573868 -0.12669402 0.009812088
0.25781962 -0.055025756 0.18532485 -0.0077644996 0.04050013 0.02651941 -0.046372164 -0.081361
0.044535752 0.04110286 0.073149756 -0.05548341 0.18467928 -0.040539112 0.0013148262 0.040641487
-0.13159399 0.09829683 0.035866596 0.06828913 -0.19270575 -0.04678888 0.10248786 -0.13033894
0.1995792 -0.042172708 0.02947385 -0.008002559 -0.07356301 -0.1071351 0.10410647 -0.023881191
0.13946658 0.019140406 0.011108147 -0.042600796 0.065423384 -0.00090680365 0.06395731 -0.05573997
-0.047416776 0.23169452 0.1821177 0.07854019 0.17087452 0.10875652 -0.08448418 0.14964366
0.015211512 -0.037328735 -0.07082899 -0.08695545 0.28686354 0.025728274 -0.21209565 0.17325117
0.007830308 -0.13647673 0.124901876 0.1261492 -0.11931971 0.22774231 -0.26231605 0.019393085
0.26735613 -0.012732179 -0.05190226 0.13832852 -0.08633406 0.14797434 -0.027584849 -0.036752548
-0.11342341 -0.034546908 -0.10544568 -0.065197 -0.19997273 -0.13466704 -0.13791697 0.09404668
0.49424827 0.0888143 0.09408392 0.06988594 0.108683586 0.079037555 0.12700962 0.03140612
0.014017805 0.014991015 0.010695488 0.109478824 0.2537483 -0.04327445 -0.06859918 -0.11941501
-0.049567427 -0.05849661 -0.07782227 0.12956385 -0.14478149 -0.03614379 0.13619508 -0.0800891
-0.15515485 0.024635367 0.027369406 -0.10832875 0.13454168 0.10551583 -0.07598343 0.04286977
-0.09787474 -0.08164892 -0.008139929 -0.0915337 0.2045088 -0.05325929 -0.20083472 0.051705927
0.15341333 0.039537653 0.14254715 0.09697392 0.03702534 0.056901872 0.055609297 0.010770341
0.28487593 0.04637527 -0.08754353 -0.02801421 0.1497345 0.20942503 -0.0071912184 -0.0851334
-0.034949083 0.024131646 -0.115606494 -0.16315655 -0.060669284 0.055084694 -0.02433491 0.022463769

_orig_mod.final.bias f4 [43]
00000000: f6f0 71be 9a39 943e ea97 5c3e f4b7 febc
00000010: e5fe b43d bb82 f13e b66d 2a3e dde8 3d3e
00000020: da6b e13d 3f3a 96bd e4f5 b5bd d5f7 35be
00000030: 355f c83e e831 0a3f b3af fdbc 5114 773e
00000040: c007 e0be 2fa8 e1bd 2040 fb3d 60bf 87be
00000050: 0e38 45be 9d86 f2be 5839 90be 3939 c4be
00000060: e89d 8c3a fad8 f43d bcb7 d53b 72c2 3abe
00000070: 3173 5dbe ecde f2bd ddaf 6ebd 7a53 c63e
00000080: a5e8 3f3d fa83 1b3d 2b56 a8be 1f14 9b3d
00000090: 7a48 43be dd90 81bd bb4f 623f 7730 9ebe
000000a0: cdaf 03be 3641 8fbe 1213 b0be
-0.23627076 0.28950197 0.21542326 -0.031093575 0.0883768 0.47170052 0.16643414 0.18545862
0.11006899 -0.07335328 -0.088847905 -0.17770322 0.39135137 0.539824 -0.030967569 0.24128844
-0.43755913 -0.110184066 0.1226809 -0.26513195 -0.19259664 -0.47368327 -0.2816875 -0.38324907
0.0010728212 0.119554475 0.006522147 -0.18238238 -0.21625973 -0.11858925 -0.058273185 0.38735563
0.046852726 0.03796766 -0.3287824 0.07572197 -0.19070616 -0.063264586 0.8840291 -0.3089635
-0.12860031 -0.2797944 -0.3438955
