models/adversarial_model_grey_10.0.pth (torch, 263952 bytes, 10 tensors)

conv1.weight f4 [6, 1, 5, 5]
000000 d7 a0 2c ba 85 0e 89 3e e6 20 a3 3e 47 f4 98 3d
       -0.00065852463 0.2676889 0.31861037 0.07468467
000010 d1 41 1c 3d 8b 55 0b be 4a 37 0f 3f 9f e5 57 3f
       0.038148705 -0.13606851 0.5594374 0.8433475
000020 09 70 4f 3e 7a 19 4f 3d b3 4f 79 be 29 1c 1c 3d
       0.20257582 0.050561406 -0.24346809 0.038112793
000030 5e 3a cb 3e 5e c5 09 bc 62 a6 32 3c 43 3a 01 be
       0.39692968 -0.008408872 0.010903927 -0.12619881
000040 29 e9 ea 3d 68 20 8a bd e8 f0 30 be 6c 16 9f bd
       0.11470253 -0.06744462 -0.17279398 -0.077679485
000050 c2 4a 00 3e dd fc d9 3d 7f 6e 44 3d 85 8f 25 bc
       0.12528518 0.10643933 0.04795694 -0.0101050185
000060 51 43 d0 3c d2 10 23 bd ce 83 2e 3c 85 cd bf 3c
       0.025422724 -0.039810963 0.010651542 0.023413429
000070 ef 50 c7 3c a8 ac d0 bb 31 e4 24 bd b2 b4 8d 3d
       0.024330584 -0.0063682385 -0.040256683 0.069192305
000080 7a 32 8d bd df 13 c4 bc 8b 67 83 3d 10 ac cc 3d
       -0.06894393 -0.023935257 0.06416234 0.09993756
000090 8d 5c 97 3e c3 e2 a8 bd fe 1f c9 be 13 fe 0d bd
       0.29562798 -0.08246376 -0.3928222 -0.034666132
0000a0 dc d2 4e 3e db 90 34 3f 60 b2 40 be 70 e5 23 bf
       0.20197624 0.7053353 -0.18818045 -0.6402197
0000b0 58 a0 4e bd f7 da 8a 3c e6 43 fb 3e a0 2b 63 bd
       -0.050445884 0.016950114 0.4907524 -0.055461526
0000c0 8f 6e df be 3c f9 54 3d 10 46 5a bd a2 6b a1 3d
       -0.43639037 0.0519955 -0.053289473 0.078818575
0000d0 d7 f9 52 3d a3 88 71 3c 4d 28 fe 3d af a9 a0 3d
       0.051507797 0.014742049 0.124100305 0.078448646
0000e0 99 3a 04 be 1a 80 53 3c ba af 24 be 56 f4 49 3d
       -0.12912978 0.01290896 -0.1608266 0.049305283
0000f0 93 96 34 bc ee 72 54 bd ad b5 87 be d8 78 52 be
       -0.011022228 -0.051867418 -0.26505795 -0.2055391
000100 d8 1e 3b be 3a 92 73 bd 83 03 39 3b bc 1a ea bb
       -0.18273485 -0.059465624 0.0028230853 -0.0071443003
000110 03 f7 74 be ff 65 1b bd 1f 47 4c bd 7b ee a4 bc
       -0.23922352 -0.037939068 -0.049872514 -0.020133248
000120 74 d4 73 bc f9 37 31 ba 87 dd bf bc 5d 55 af bd
       -0.014882196 -0.0006760355 -0.023421062 -0.08561204
000130 28 96 cc bd 68 1e 1f 3e a6 c7 b0 3e 8a 26 d1 bc
       -0.099895775 0.15538943 0.3452732 -0.025531072
000140 e2 64 0a be f1 a6 50 be dd ff 1b 3f cb b0 46 3f
       -0.13515046 -0.20376183 0.6093729 0.77613515
000150 98 81 7b 3d 39 6b c8 bd ff f2 c0 bd 94 d9 a5 3e
       0.061402887 -0.09786076 -0.09421348 0.3239256
000160 50 2f d8 3e 6f 3f d3 3c 97 b0 5e bc b1 c8 30 bd
       0.42223597 0.025787083 -0.013591907 -0.043160144
000170 9e 30 df bc 4d 9e 0d be 2d 61 7c bd 42 74 40 bd
       -0.027244862 -0.13829918 -0.06161611 -0.046985872
000180 06 90 85 bd 6f c2 2d be f5 02 45 be 5f d9 10 be
       -0.06521611 -0.16968702 -0.1923941 -0.1414542
000190 97 4b 83 3c b9 b1 9a 3d 46 ef 18 bd 57 75 f3 bd
       0.016027255 0.07553429 -0.037337564 -0.11887615
0001a0 71 41 8e 3d ff b8 8c 3d 48 86 94 bd 66 a4 3c be
       0.06946076 0.06871223 -0.072521746 -0.18422088
0001b0 d2 2e 0a be a9 6e 77 bd 96 53 5f bd b2 7c ba bd
       -0.13494423 -0.060408268 -0.054523073 -0.09105815
0001c0 21 ce bc bd bb 5e 6d bd 68 e8 a2 bb b5 46 e0 bd
       -0.092190035 -0.05795167 -0.0049715526 -0.10950986
0001d0 97 de db 3d ff 37 9a bd 0f 66 fd bd 24 37 92 3d
       0.10735815 -0.07530212 -0.12372982 0.071394235
0001e0 91 ef 06 3d bc fd b9 bd 2b 8b 7c bc 37 d2 84 bd
       0.032943312 -0.09081599 -0.01541404 -0.06485408
0001f0 8a 8e 04 bd b5 48 a8 bd 3d f0 15 bd 07 74 8f 3c
       -0.0323625 -0.08216993 -0.036606062 0.01751138
000200 b9 63 99 bd d8 55 05 bd 12 de ef bd e6 90 20 be
       -0.07489724 -0.03255257 -0.117122784 -0.15680274
000210 31 7a d4 bd d5 a2 61 be 24 b2 5d bd 10 ae dc bd
       -0.10374869 -0.22034772 -0.054124966 -0.10775387
000220 d1 09 37 bd 66 44 5e bd e4 42 00 be 56 1b dd bb
       -0.044687096 -0.05426445 -0.12525517 -0.0067476435
000230 03 c5 04 3d 0f e5 4c 3e 97 05 ec 3e 02 07 0e 3e
       0.032414448 0.20009254 0.46098015 0.13869861
000240 14 2e 30 3c 5b 39 48 bd 40 5d da 3e eb df 0a 3f
       0.010753173 -0.048882823 0.4264927 0.5424792
000250 f9 1d 17 3e 8a 6b 36 bd
       0.14757527 -0.04453615

conv1.bias f4 [6]
000000 ce a4 11 3f 13 85 00 bb 27 eb f7 be ad 35 78 3f
       0.56892097 -0.0019610568 -0.48421595 0.969569
000010 07 8b 7a 3e 68 48 14 3f
       0.24467097 0.57922983

conv2.weight f4 [16, 6, 5, 5]
000000 f6 1f a1 bb a5 b6 49 bc cc fd fa bb 85 44 de bd
       -0.00491714 -0.012311612 -0.0076596495 -0.10852913
000010 87 43 d1 bc 06 cf 5a bd 21 3a bc 3b 14 66 17 bc
       -0.025544895 -0.05342009 0.005744234 -0.009240646
000020 2f 9e cf bd 9c a7 cf 3a f4 68 b0 3d 33 93 38 be
       -0.10137593 0.0015842798 0.08613768 -0.18024902
000030 42 98 fa 3d 12 a1 07 bd 95 eb 53 be c8 24 89 3d
       0.12236072 -0.033112593 -0.20695336 0.066964686
000040 cb 5d 85 3d 61 1e 04 3e f7 d9 77 3e c9 7d 3c 3d
       0.0651203 0.12902214 0.2420424 0.046018396
000050 48 29 54 bd e4 6a cc 3c 72 f1 eb bd e8 ec 62 3e
       -0.05179718 0.024953313 -0.115206614 0.22160685
000060 17 28 89 3e 7c 76 18 bd 99 1f 15 3d ca 8c 70 3e
       0.267884 -0.03722237 0.036407087 0.23491207
000070 0b e6 08 bd e4 22 82 3d 26 a7 98 3d e2 89 5e bd
       -0.03342251 0.06354311 0.07453756 -0.054330714
000080 e6 34 0b 3e 3c ba 94 3e 88 b0 a8 bd 22 01 6b bd
       0.13594398 0.29048336 -0.08236796 -0.057374127
000090 f0 c9 00 3d 94 78 2b bf c2 f8 cf 3d 9c 47 bc bd
       0.031442583 -0.6698086 0.10154869 -0.09193346
0000a0 81 d8 d9 b7 15 e5 f8 3c af c3 8a be 4c fb 94 be
       -2.5969233e-05 0.030382672 -0.2710242 -0.29097974
0000b0 af d2 e5 3d 25 ad 1f 3a 13 42 48 3d 8b e2 c5 bd
       0.11221825 0.0006091169 0.04889114 -0.0966235
0000c0 29 5f 4f bd 06 88 91 bc 99 fa 03 3d 7c e5 c9 bd
       -0.05062786 -0.017765056 0.03222141 -0.09858224
0000d0 77 f7 35 bb d2 7b b5 bc 85 f9 74 3d 66 b4 05 bd
       -0.0027765909 -0.022153769 0.059808273 -0.032642744
0000e0 83 a5 af bd c8 dc cb bd ad 75 86 be 63 a2 27 3d
       -0.08576491 -0.0995422 -0.26261654 0.04092635
0000f0 dd 07 77 bc 2e d9 bc bd ee 5e 81 be 2f 6e 4c be
       -0.015077558 -0.09221111 -0.25267738 -0.19963907
000100 d8 5b 13 bc 15 3c 50 bc c7 d3 97 bd 9b 68 12 be
       -0.008994065 -0.012709637 -0.0741344 -0.14297716
000110 e2 63 f1 bd 5d 6a bd bc 49 40 25 3d f0 36 4c be
       -0.11786629 -0.023122007 0.04034451 -0.19942832
000120 dc ae ce 3c 0d 05 14 3e d3 6d d9 3b 42 3e 12 3b
       0.025229864 0.14455052 0.0066354065 0.002231494
000130 b5 cc 22 bd ee 3d 0e be 5e 34 f2 ba ff dd 8b 3c
       -0.039746005 -0.13890812 -0.0018478741 0.01707363
000140 9e f1 4c bd 44 19 c8 bc 13 b8 a1 be fc b8 c7 be
       -0.05003511 -0.02442611 -0.3158575 -0.3900832
000150 bd da 8c bc 86 b3 20 bb f7 78 3d bc f7 08 91 3e
       -0.017194146 -0.0024521067 -0.011564485 0.28327152
000160 f8 6c a7 be a2 ff 2c be a0 56 c5 3d 16 a4 b9 bd
       -0.32700324 -0.16894391 0.09635663 -0.090645
000170 1c dc 97 3e da c0 27 3e 92 05 ae be cb 7d 5a 3c
       0.29660118 0.16382161 -0.33988625 0.013335655
000180 fe f5 ec bc e4 fe 0d be 04 80 8c 3e 3c 41 4c bd
       -0.028925892 -0.13866764 0.27441418 -0.0498669
000190 e3 43 f3 3d a4 ed 34 3d 8c 94 18 3b 4e f1 26 3d
       0.11878183 0.044171944 0.00232819 0.04075747
0001a0 83 68 0a bd 0d 97 b4 3d 2c f1 ac 3d 7b 5a e1 bd
       -0.033791076 0.08817873 0.084444374 -0.11003586
0001b0 5d a8 8e bd 80 28 35 bd fb 01 8a 3d bd df 2e 3d
       -0.069657065 -0.044228077 0.06738659 0.042693842
0001c0 26 95 19 be a8 e8 19 bd a9 b0 d0 3d 18 b6 66 3d
       -0.14998302 -0.037575394 0.10189945 0.056326002
0001d0 9f cc ae 3d 43 a4 81 bc 02 2b 06 bd 9d 9e a2 3d
       0.08535122 -0.015825396 -0.03275586 0.07940409
0001e0 c9 ed 39 3d 96 93 c0 3b 6e aa 99 3d b8 c5 22 3e
       0.045392785 0.0058769686 0.0750321 0.15895736
0001f0 1a c0 05 3e 2f c6 98 bd 12 61 02 3c 80 e0 81 3d
       0.13061562 -0.074596755 0.007957714 0.06341648
000200 52 6f 2d be a8 65 27 bd 44 97 85 bc 79 77 63 be
       -0.16936997 -0.04086843 -0.01630748 -0.22213544
000210 ac ae 3f 3e c8 cf e2 3d f2 cd 0f be 2e 7c 94 bd
       0.18718976 0.110747874 -0.14043406 -0.07250248
000220 52 5d e6 bd 93 51 35 3e 0e c5 75 3e c4 11 ad bd
       -0.11248268 0.177069 0.24000952 -0.08450654
000230 ed 00 a1 bd 78 43 a7 bd 35 7b 7c 3d fe b2 6b 3e
       -0.07861505 -0.081671655 0.061640937 0.23017499
000240 35 94 36 3e 24 70 02 bd 21 56 93 bb ac 74 dc 3d
       0.17829974 -0.031845227 -0.0044963514 0.10764441
000250 9f e8 7c 3e c9 05 76 3e 14 17 4c bc f5 47 81 bd
       0.24698113 0.24025644 -0.012456674 -0.06312553
000260 59 d7 16 3c 57 0c 0b be c1 c4 22 bd bd eb 32 bd
       0.009206616 -0.13578926 -0.03973842 -0.04368185
000270 28 85 f4 bd db 7d 81 bd 95 04 df bd 0b 90 87 bc
       -0.1193946 -0.06322833 -0.10889546 -0.016548177
000280 9e 0d 0b bc 54 67 e2 3b 8d 78 f0 3c 78 3f c7 bd
       -0.008487133 0.0069092903 0.029354358 -0.097289026
000290 68 96 d1 3d d1 78 e5 3c 34 b3 1f 3b e1 56 2f 3e
       0.10233766 0.028011711 0.0024368288 0.17122985
0002a0 09 2c 0d be e9 9e fe 3b 81 a8 73 3d f3 2b ad 3a
       -0.1378633 0.0077704084 0.05948687 0.001321195
0002b0 84 91 62 3e b6 ae 9f bc 13 62 03 bb b7 68 f9 bc
       0.22125822 -0.019492488 -0.002004747 -0.03044544
0002c0 a1 ae c8 bc fa 7e a5 3c 68 cb ed 3d e1 c1 18 3d
       -0.024497332 0.020202149 0.11611062 0.037294272
0002d0 54 fd 21 3d a2 8e 23 3e 02 9d 0d 3f 70 52 5f be
       0.039548233 0.15972379 0.553177 -0.21808791
0002e0 0d c6 b2 3d b4 74 f4 bc 30 8f 99 3c 4d 91 f1 3e
       0.087291814 -0.029840805 0.018745035 0.47181168
0002f0 42 bb 9a 3e 4b 2a 2a be 92 39 36 bd 74 9e 80 bd
       0.3022099 -0.16617696 -0.044488497 -0.062802225
000300 f7 0e b3 bd 15 ad 2f 3d 37 b2 52 bc 9e 64 ff 3b
       -0.08743089 0.042889673 -0.012859873 0.007793977
000310 59 12 ed ba e4 93 18 3c 2e 21 be bd b1 d7 5f bc
       -0.0018087133 0.009312604 -0.09283672 -0.013662265
000320 c6 35 9a bd 70 50 0c be 59 0b 09 bd eb 17 0a be
       -0.07529788 -0.1370256 -0.033458088 -0.13485686
000330 ff fc be bd 94 55 01 be 3c be 0d be 7a cd 38 be
       -0.09325599 -0.12630302 -0.138421 -0.18047133
000340 ad c2 4b bd 9d f1 e9 bd f1 50 82 bd 7f f0 19 be
       -0.049746204 -0.11423037 -0.063630946 -0.15033148
000350 10 7c c9 bd 99 e4 39 bd 34 6f fd bc b1 75 82 bd
       -0.09838116 -0.045384023 -0.030936815 -0.06370104
000360 30 c4 47 bd 77 89 b4 bc 6a 0b 25 be 4b b9 9c bb
       -0.048771083 -0.022038205 -0.16117635 -0.004782831
000370 f2 9f be bd b8 a3 1f bd 70 4b cb bc 83 a4 00 bc
       -0.09307851 -0.038974494 -0.024816245 -0.007851723
000380 69 19 f0 bc de 05 28 ba 6b 5d 49 3d 82 36 c4 bc
       -0.029308992 -0.00064095657 0.049161356 -0.023951773
000390 b2 5a 0f bc 59 69 a4 bb f3 ed 70 3d 90 d4 fc bc
       -0.008749651 -0.005017441 0.058820676 -0.030863076
0003a0 a6 0a 03 3d ac ba 9a 3e 2e 28 9d 3c 45 5c c4 bc
       0.031992577 0.30220544 0.019184198 -0.023969779
0003b0 41 3b 0e 3e 6e e2 ba 3d 79 a4 aa 3c 4d aa f6 3d
       0.13889791 0.09125219 0.02083038 0.12044201
0003c0 c6 35 8b bd a4 01 eb 3d 60 95 0d 3e 17 a6 bc be
       -0.06797366 0.11474922 0.13826513 -0.36845466
0003d0 d5 f1 9f bd 3f c4 85 3c 41 b4 34 bc 2d 92 4a bc
       -0.07809798 0.016328929 -0.011029304 -0.012363953
0003e0 85 8d 6b be db bc f4 3d 18 6b e5 bc 34 b7 f7 3c
       -0.23003204 0.11950084 -0.028005168 0.030238725
0003f0 f7 7d a0 bd 9b b0 45 bd ea e5 95 bd 58 ca 26 3d
       -0.07836526 -0.048264127 -0.07319243 0.040720314

conv2.bias f4 [16]
000000 33 25 c5 3c 37 f5 12 3f e3 e3 c2 3b af 60 1a bd
       0.02406559 0.5740542 0.0059475764 -0.03768986
000010 82 3a 9b bc fa 22 a2 3e 4b 50 f8 3e 2c 0b f9 bd
       -0.018948797 0.3166731 0.4849876 -0.12160334
000020 89 da fd 3d 69 95 e2 3d 5a 42 10 3f 39 3d 17 3e
       0.12395198 0.11063654 0.56351244 0.14769448
000030 c3 d5 4c 3d 2b 22 f9 3d b2 72 39 3e cf 37 a3 3d
       0.050008547 0.1216472 0.18110159 0.07969629

dense1.weight f4 [128, 400]
000000 ac a9 01 bd a6 ef f7 bc c4 86 e7 3c 1c 1d ef bc
       -0.031655952 -0.03026564 0.028262503 -0.029188685
000010 26 bd c4 3c 27 4a 1e bb d5 7b a1 3c d4 b0 67 bd
       0.024015974 -0.0024153085 0.019712368 -0.05656512
000020 91 f5 ba 3b ae c9 83 3c e6 4e 2a 3c c3 ff 0a 3d
       0.0057055433 0.01608738 0.010394787 0.03393532
000030 74 f8 0d 3d c0 84 ed bc 9d 90 10 bd 40 3d b0 3c
       0.03466077 -0.028993964 -0.035294164 0.021513581
000040 82 cf 75 3c d8 0f 04 3d a2 32 17 bd 8d fd 7f bc
       0.015003087 0.032241672 -0.03691352 -0.015624416
000050 89 46 9c bc d5 f6 80 bb a9 ae 62 bd 7d 3b 94 bb
       -0.019076603 -0.0039356747 -0.05534235 -0.004523693
000060 20 cb dc bc 88 d0 60 bd 44 da 00 bd a3 24 df bc
       -0.026952326 -0.05488637 -0.031458154 -0.02723915
000070 7f 22 03 3d a7 6b 97 3c 27 ce 7e bd 4b da 30 3d
       0.03201532 0.01848395 -0.06220832 0.04317693
000080 92 55 c2 3c 9d 6e 33 bd 82 0b 8d ba ad 43 aa 3b
       0.023722444 -0.04380666 -0.0010760876 0.005196056
000090 3e 4b 46 bd 89 78 a0 bb a6 f1 b1 bc 9d 9b 9f bc
       -0.0484116 -0.0048971814 -0.021721672 -0.019483382
0000a0 e6 82 24 bd 65 ea 1e bc bb 6c 4d bd 63 ee 60 bd
       -0.040163897 -0.009699439 -0.05015252 -0.054914843
0000b0 4d d5 8e bc c1 4b c7 bc 32 12 1c bd f2 9a 26 bc
       -0.017435694 -0.024328114 -0.03810329 -0.010168778
0000c0 15 53 90 3c 07 f7 e4 3c 73 fe 26 bd 08 58 06 3d
       0.017617742 0.027949823 -0.040770005 0.032798797
0000d0 72 f9 96 ba 1e 15 82 3c 18 45 15 3d 7a d4 04 bd
       -0.0011518432 0.01587921 0.036442846 -0.032429196
0000e0 17 ae ec bb 9c 07 aa 3a c6 2d f5 3c 64 bb 31 bd
       -0.0072229016 0.0012972238 0.029929053 -0.0433916
0000f0 aa 03 22 bc ec 38 0c 3d 3e 34 4b 3c ff b4 80 bd
       -0.009888569 0.034233972 0.012402592 -0.06284522
000100 7f 05 30 bd 7b 8f 04 3b eb fe 57 bd e3 eb f1 3c
       -0.04297399 0.0020227123 -0.052733343 0.029531425
000110 24 69 9f bb f7 9e 23 bd 74 00 19 3c d8 0e 17 3c
       -0.0048648287 -0.039946523 0.009338487 0.009219848
000120 13 32 bb 3c a3 b0 d6 bc ee 1f b5 3c 2e 25 c2 bc
       0.022851026 -0.026207274 0.022109952 -0.02369937
000130 d0 35 c3 bc 6f 3e 5d bd 78 1a 5e bd 4b 65 9b 3c
       -0.02382937 -0.05401462 -0.05422446 0.018969199
000140 df ce 05 3d 52 63 72 bd d1 5b c0 bc 67 b5 3d bd
       0.03266799 -0.05917675 -0.023481281 -0.046315577
000150 a5 60 de bb fe 92 39 bd 51 24 f5 bc c9 b7 e7 bb
       -0.0067864233 -0.0453062 -0.029924544 -0.0070714694
000160 b9 21 03 bc a2 9a 6b bd 92 21 83 bc 97 10 0e bd
       -0.008003646 -0.057520516 -0.016007219 -0.03468379
000170 19 68 12 3d 09 d3 33 bb 43 7f 13 bd f2 45 a7 3c
       0.035743807 -0.002743902 -0.036010038 0.020419095
000180 12 71 bf 3c d4 a4 e4 3c 77 ac de 3c 27 12 6b bd
       0.023369346 0.027910627 0.027181847 -0.05739036
000190 76 4f 6e 3c 83 26 fe 3c 66 85 03 bd fc 3e 1a bc
       0.014545312 0.031024223 -0.03210964 -0.009414431
0001a0 e5 b8 29 bd 04 29 26 3d db 5a 9c 3c b7 c4 2d bd
       -0.041436095 0.04056646 0.019086292 -0.04242393
0001b0 4f ad b5 3c 0f 25 a2 3b 7e f0 07 3d 1b 63 f7 bc
       0.022177367 0.0049482654 0.033188336 -0.030198624
0001c0 45 c2 0b 3b d2 c4 42 bc b1 52 11 3d c4 67 ce 3c
       0.002132551 -0.011887746 0.03547925 0.025195964
0001d0 ca 99 b6 3c d1 10 26 3d d7 99 60 bd 99 1b 7d bc
       0.02229013 0.04054338 -0.054834213 -0.015448474
0001e0 51 92 1d 3d 8f 28 52 3c 15 f0 46 3c 33 28 ed 3b
       0.038469616 0.012827053 0.012142201 0.007237458
0001f0 96 d5 64 3b 61 e4 89 bc 01 fa 9c 3b 4a fd 01 3d
       0.0034917346 -0.016832532 0.004790545 0.031735696
000200 d1 3f 0b bd a5 16 f7 3c 00 c5 9e 3c 67 02 3a 3c
       -0.033996407 0.030162165 0.019381046 0.011353112
000210 36 e5 2d bd 16 04 29 bd 5c f1 9b 3b 44 67 5d bd
       -0.04245492 -0.041263662 0.004758997 -0.05405356
000220 09 67 3f bd 7a f5 71 bd a1 f0 3d bd ec 6a e3 3c
       -0.04672912 -0.059071995 -0.04637206 0.027760945
000230 20 46 cc bc 91 31 e0 bc bd 10 51 bb 0a 86 59 bd
       -0.024935782 -0.027367385 -0.0031900846 -0.053106345
000240 ff d7 3a bd 98 04 49 3b f3 ec 69 bc e2 fe 34 bd
       -0.045616146 0.0030672904 -0.0142776845 -0.044188388
000250 db 5e 54 3a 41 a1 17 bd f8 c9 0c bd 92 4b 7e 3c
       0.0008101293 -0.037019018 -0.0343723 0.015520947
000260 4c 38 0a bb dd 80 e8 3c a1 b6 30 bc ad 20 2c 3d
       -0.0021090684 0.02838176 -0.01078573 0.04202335
000270 d0 b6 36 3d 3d ef 26 bd ad 88 22 bc 06 6b 2f bc
       0.044607937 -0.0407555 -0.009920281 -0.010706669
000280 d9 eb 04 3d 21 b3 4b bc ad 52 1d 3d dc 65 00 3d
       0.032451484 -0.012432844 0.038408924 0.03134714
000290 46 29 41 bc 4a 23 1c bd 29 70 cf bc ee b9 02 3d
       -0.0117896255 -0.03811959 -0.025322037 0.031915598
0002a0 16 c9 94 bc d2 5b 6b bb 43 f2 2e bd 10 7c da 3b
       -0.018162291 -0.0035912883 -0.042711508 0.0066676214
0002b0 8e e4 1d 3d 9e 58 6c 3b 4d eb f0 bc 7c 92 3b bb
       0.038548045 0.0036063562 -0.029409075 -0.0028621247
0002c0 07 9a 46 bb fc e8 0b 3d e9 84 42 3c a4 14 19 3d
       -0.003030421 0.034157738 0.011872509 0.0373732
0002d0 0e 2f 86 3c 44 4c 07 bd b0 4f f1 bc 39 02 1c bd
       0.01637986 -0.033031717 -0.029456943 -0.038088057
0002e0 56 89 15 bd b8 ef 41 bd 08 d5 27 bc af 3a 3b 3c
       -0.036507927 -0.047347754 -0.010243662 0.0114275655
0002f0 90 9c 96 bb a8 55 91 bb fe 80 5e bb c8 94 52 3b
       -0.0045963004 -0.00443526 -0.0033951397 0.0032132138
000300 83 75 89 3c 6e d5 cb bc ea 26 8c 3c 70 36 40 3c
       0.016779667 -0.024882045 0.0171084 0.011731729
000310 55 b0 84 bc 90 10 9b 3c d4 20 00 bc 42 7e e5 3c
       -0.016197363 0.018928796 -0.007820327 0.028014306
000320 81 88 95 ba f4 8c 3a 3a 0a 86 94 3c e2 4e 79 bc
       -0.0011408479 0.00071163406 0.018130321 -0.015216561
000330 23 1a 8e bc bd a2 1d bd b1 68 61 bd 4d 95 8b 3c
       -0.017346447 -0.038485277 -0.055031482 0.017038966
000340 36 31 0d bd 01 6a 1f 3c 22 43 91 bc 7d a4 e3 bc
       -0.03447076 0.009729863 -0.017732207 -0.027788395
000350 29 26 91 ba 6f f0 85 bc c7 7d c0 bb 42 02 41 bd
       -0.0011073995 -0.01635 -0.005874369 -0.047121294
000360 3b 11 3c bd 85 1b 01 bc 04 a6 a0 3b 8a 00 ad bc
       -0.04591487 -0.007880096 0.004902603 -0.021118421
000370 e7 aa be bc 13 b9 f5 3c 6c 7a 70 bc 47 a8 6e bd
       -0.023274852 0.029995477 -0.014677625 -0.05826595
000380 43 e9 b9 bc 47 47 f6 bb ca 65 f2 3b 58 bb fc bc
       -0.022694236 -0.007515821 0.007397388 -0.030851051
000390 e8 3f a9 bc 05 50 e1 3c 6b 27 e0 bc ea 87 14 3c
       -0.020660356 0.027503977 -0.027362546 0.009065608
0003a0 6a 20 80 bc 9b d9 3b bd 99 35 3b bd 20 e1 3e bd
       -0.015640456 -0.04586182 -0.04570541 -0.046601415
0003b0 6a 61 a2 3c e5 e7 5e bd cc 6c 84 bb 23 f2 94 3c
       0.019821841 -0.05442037 -0.00404129 0.018181866
0003c0 8b 93 33 3c 8f fa 06 bd 6d b1 78 ba 55 ec 2f bd
       0.01096047 -0.032953795 -0.0009486888 -0.042949993
0003d0 9b 9a 03 3b 8a 45 a0 3c 3d 76 52 bd fa 06 f3 bc
       0.0020081166 0.019564409 -0.051382292 -0.029666413
0003e0 54 0c 79 bd 6c c5 ad 3a 4d 6d d0 bb 31 27 ac bc
       -0.060802773 0.0013257689 -0.006360686 -0.021014782
0003f0 eb 7c c6 bc 1c f5 8d 3b 25 7e 91 3c 40 2a b1 3a
       -0.024229487 0.004332198 0.017760346 0.001351662

dense1.bias f4 [128]
000000 4c 2c 31 3c fa 54 34 bd 61 3c 7b 3e 24 58 e5 3d
       0.010813784 -0.044026352 0.24534751 0.11198452
000010 14 63 38 3b b8 b3 ec bd 37 0f ef 3b 96 1e de 3c
       0.0028135227 -0.11557716 0.007295515 0.027114194
000020 32 dc 99 3d 57 72 32 bd 8f 70 1f be f9 18 e7 3c
       0.07512702 -0.043566074 -0.15570281 0.02821015
000030 13 26 b4 bb 03 61 da bc d6 1f cd 3e 65 94 63 bd
       -0.005497703 -0.026657587 0.4006335 -0.055561442
000040 ab b5 3f bc 0a a3 45 3e 7e 6d a9 bc 75 ef 12 bd
       -0.011701028 0.19300476 -0.020682093 -0.035872895
000050 b7 e9 c1 3d 44 f5 9b bd 9a 2d 1c 3e 5a 53 28 3e
       0.09468406 -0.0761514 0.1525177 0.16438046
000060 48 df 0c bd db 42 d6 bd d7 24 30 3e 06 e3 1c 3d
       -0.034392625 -0.104619704 0.17201553 0.038302444
000070 d1 d3 f3 3c f7 f2 ba 3d 59 eb 3d 3e 4b 7e 2f 3d
       0.029764088 0.09128373 0.1854681 0.04284505
000080 dd ad 94 bc 71 84 50 bd 3d 80 42 3e 1c 32 7f 3e
       -0.01814931 -0.050907556 0.18994232 0.24921459
000090 26 90 2a bd eb df 6b bd 97 72 73 bc 2c 58 15 3c
       -0.041641377 -0.05758659 -0.014858863 0.00911526
0000a0 28 1b 6c bd 4d 89 b3 3d 85 49 60 bd 88 3c b9 3e
       -0.057643086 0.087664224 -0.054757614 0.36178994
0000b0 32 48 03 be 1f b0 b6 3b cc 79 50 3e cf 49 c2 bc
       -0.12820509 0.0055751945 0.20358962 -0.023716835
0000c0 84 26 20 bd aa 12 3a bd 4a e0 91 3e 1b 73 08 bd
       -0.03909923 -0.045427956 0.2849143 -0.033312898
0000d0 8e e1 d7 3d cf 32 7f bd 4f 03 95 3e 31 1b 8b 3d
       0.10541068 -0.062304314 0.29104087 0.06792296
0000e0 76 b0 58 3d 8b 88 29 3e f4 e6 e1 3d 3f 89 56 3d
       0.05290266 0.16555993 0.11030379 0.05237698
0000f0 69 21 1c bd d6 97 b4 3c d1 73 e4 3c 74 03 9f 3e
       -0.0381178 0.022045057 0.027887257 0.31057322
000100 da 38 12 be 32 d8 64 3b 36 9b 3a bd a9 21 64 3e
       -0.142795 0.0034918902 -0.045558177 0.22278465
000110 3d e0 85 3c 2f 89 d0 bc 96 37 24 bd c7 ee a7 3d
       0.016342277 -0.02545604 -0.040092073 0.0819984
000120 5d d9 ee bd ad e7 4f bd bc 78 4c bd 71 1e 41 be
       -0.116625525 -0.050758053 -0.04991983 -0.18859269
000130 69 55 dc 3d 72 15 52 bd 68 32 c6 3d 0d b9 86 bd
       0.10758478 -0.051289983 0.09677583 -0.065782644
000140 c4 90 8d 3d 48 2b 38 3e 40 f7 f5 3d 0d e3 4e be
       0.069123775 0.1798526 0.1201005 -0.202038
000150 d6 b7 90 3b 30 7c 8c 3c 9a 0f 90 be a7 37 21 3e
       0.004416446 0.017149061 -0.28136903 0.15743886
000160 66 9a 56 bc 5a e3 38 3d 8c 9a 87 3b e7 18 86 bd
       -0.013098335 0.045138694 0.0041382965 -0.065477185
000170 82 c8 a4 bd 9e 78 a7 3e 4f 40 d5 3c f3 e9 7f bc
       -0.08046056 0.3270921 0.026031641 -0.015619743
000180 bd 1b 8d 3c 9b cc 66 3e c5 30 40 be 48 ce 06 3e
       0.01722514 0.22538988 -0.18768604 0.13164628
000190 0c c7 25 be 5d e6 8a 3d c6 2d 8a bd 3c 1a d8 3d
       -0.16189212 0.067822196 -0.06747012 0.10551879
0001a0 79 8e ba 3c 9e 60 c4 3d 94 a8 d8 3c c1 29 35 bd
       0.022773014 0.09588741 0.026447572 -0.044229273
0001b0 22 3d ca 3e b2 90 3a be 3d 0b 1d 3b 87 ce 5d 3e
       0.39499766 -0.1821926 0.0023962997 0.21660815
0001c0 7a 2d 90 3e 8e b3 3a 3e 72 51 49 3e 82 76 5e 3e
       0.28159696 0.18232557 0.19659975 0.21724895
0001d0 ef 83 b9 bd 57 ee f3 bc 0f d9 70 bc 44 ad 34 be
       -0.090583675 -0.029776735 -0.014700188 -0.1764422
0001e0 59 9c b1 3d b2 82 02 3d 6f 36 32 3e 6f 22 3f 3e
       0.08672399 0.031862922 0.17403577 0.18665479
0001f0 58 cd 33 bd 40 92 3b 3e dd c2 cc 3c 13 64 98 bc
       -0.043897003 0.18317509 0.024995262 -0.018602407

dense2.weight f4 [64, 128]
000000 91 57 2a bd 28 e2 e2 3c 67 5c 48 3d fa 47 e3 3c
       -0.041587416 0.02769573 0.048916247 0.027744282
000010 38 be 45 bd 7a 75 8a bd c4 e0 51 3d 52 6e b3 bc
       -0.04827711 -0.06760688 0.051239744 -0.02190319
000020 23 49 96 bc 98 ae 05 bd ea b4 e6 3b 8c f5 6c 3d
       -0.018345421 -0.03263721 0.0070406096 0.05785136
000030 a5 43 60 bd f9 99 0e bd bb 5c c1 bd a2 a5 ec bb
       -0.05475201 -0.03481481 -0.09441515 -0.0072218934
000040 00 e7 6a 3d 43 f1 41 bb 62 d6 01 bd 48 57 83 3a
       0.057349205 -0.0029593266 -0.031698592 0.0010020519
000050 75 80 97 bd d5 c4 40 bd d2 3a 3e 3d 17 10 ee 3c
       -0.07397548 -0.047062714 0.046442814 0.029060407
000060 95 ab f4 3c c5 88 70 bd 91 17 ce bd af 75 ce bd
       0.029866973 -0.058724184 -0.10063089 -0.1008104
000070 8a 5b 0e 3d 28 b5 0f 3d 9c 31 b3 bd 5e c4 83 bd
       0.034755267 0.035084873 -0.087496966 -0.064339384
000080 24 b0 24 bd 96 9d 1d 3c f3 bf f9 bc d3 8b 4c 3d
       -0.040207043 0.009620091 -0.030487036 0.049938034
000090 c8 8c a8 bd d1 d1 8b bd af 4d 98 bd 79 6d 48 bd
       -0.08229977 -0.06827129 -0.07436692 -0.048932526
0000a0 f2 69 12 bd 84 62 df bd 8a a7 62 3c 45 6c b0 3c
       -0.03574557 -0.10907462 0.01383389 0.021536002
0000b0 65 e6 4b 3c 86 59 cb bd 41 25 9c 3d 9d 3f 29 3d
       0.012445067 -0.099291846 0.07624293 0.041320432
0000c0 49 86 f5 3c 39 f7 a4 bd 18 45 be 3a eb 18 8a bc
       0.029971259 -0.080549665 0.0014516441 -0.016857585
0000d0 52 44 9f 3c b1 be 6c bd 78 9b 61 bd ce b9 b3 bd
       0.019441757 -0.057799045 -0.055079907 -0.08775674
0000e0 c2 9d bf bd c5 13 8c bd f9 fd 96 bc 78 4e bc b9
       -0.09356262 -0.06839708 -0.01843165 -0.00035916618
0000f0 0e a8 6f 3d a0 a0 0a 3d a0 46 42 bd 14 9f 11 bb
       0.05850988 0.03384459 -0.047430634 -0.0022220062
000100 49 b2 b3 bd 12 b6 93 bc e7 53 38 3d 06 fc b1 bd
       -0.087742396 -0.018031154 0.04500189 -0.08690648
000110 ed d9 ff bc 0e 15 86 3c 4f 84 96 3d f9 a2 95 bd
       -0.031231845 0.016367462 0.073494546 -0.07306475
000120 c6 b3 a9 bd 5e da b5 bd 94 3a 8e 3c 14 ca f5 bc
       -0.08286242 -0.08879541 0.017361917 -0.030003585
000130 5a 40 39 bd a5 43 91 3d 67 be fc 3b 75 7c af bd
       -0.045227386 0.0709298 0.0077131274 -0.0856866
000140 2f a9 f9 bd 41 e3 aa bd 13 19 c4 bd b7 ef c6 bd
       -0.12190472 -0.083441265 -0.09575095 -0.09713691
000150 24 a1 5c 3d 2d b2 d5 bd 8a 11 0c bd 90 aa ec bc
       0.053864613 -0.10434375 -0.034196414 -0.028889924
000160 d8 66 49 3a ca 2e b5 bd 4a 4d 1d 3d 43 13 91 bc
       0.00076828664 -0.08846815 0.038403787 -0.01770938
000170 89 0e cc 3c 35 59 87 bd 5a 50 fc bb f8 25 04 bd
       0.024909275 -0.06608812 -0.0077000083 -0.032262772
000180 d1 80 7d 3d 88 df 7d 3d b2 64 82 bd 26 95 33 3d
       0.061890427 0.061980754 -0.06366862 0.04384341
000190 b7 82 31 bd af 27 31 3d 65 3a 59 bc 98 21 dd 3c
       -0.04333755 0.043250736 -0.013258551 0.026993558
0001a0 54 6e 89 bd 0f f4 20 3d d8 39 2d bd ea 54 3f bc
       -0.067104965 0.039295252 -0.042291492 -0.01167796
0001b0 99 e4 00 bd 11 db c4 3c b3 17 b1 3c c3 ff cc 3c
       -0.031468008 0.02403024 0.021617746 0.0250243
0001c0 59 52 82 bd c5 be 25 bd a4 36 8c 3c 77 30 da bd
       -0.06363363 -0.040465135 0.017115898 -0.10653775
0001d0 f6 d7 c9 3b 62 8e 2b bc 4e 43 b6 bd d7 e9 99 bd
       0.0061597778 -0.010470958 -0.08899556 -0.075153045
0001e0 24 58 8e bd 2a 3a 95 3d 38 cb ca bd ee 3f d2 bd
       -0.06950405 0.072864845 -0.09902042 -0.102661
0001f0 57 3d e9 3c de 05 06 bd ba 6b cd bb cb d6 70 3d
       0.028471632 -0.03272044 -0.0062689455 0.058798593
000200 e2 ec 5e 3d 7e ab 90 bc 1a fe 46 3e 68 da 8a 3c
       0.054425128 -0.017659899 0.1943287 0.016949847
000210 aa 84 21 3e 9e d0 6d bd 98 df 1f 3d f4 8b 01 bc
       0.15773264 -0.05806028 0.039031595 -0.007906903
000220 d1 c8 dc 3c 10 fd 25 3d 40 1e 18 be f0 ed 61 3d
       0.026951225 0.040524542 -0.1485529 0.055158556
000230 59 21 f4 3c 7f 59 94 3d 14 fb c2 3d 9f 9f 78 bc
       0.029801058 0.072436325 0.095205456 -0.015174775
000240 c0 d9 73 3d fc 4c b6 bd e0 1e 0d bb 80 a4 9b 3d
       0.059533834 -0.08901402 -0.0021533296 0.07599735
000250 84 dd e8 bd 44 4d e3 bd 83 3f 0b 3e f2 da 30 3e
       -0.11370376 -0.110987216 0.13598447 0.17271021
000260 b5 6b 07 3d 11 ad 29 3d fe f9 93 3d 4e 5d 87 3d
       0.0330617 0.041424815 0.072254166 0.06609593
000270 2e f8 7b 3b 12 b3 3e 3d b4 f0 9f 3d 98 8d ec bc
       0.0038447487 0.046557494 0.07809582 -0.02887611
000280 01 98 3e bd 8b c5 1b 3c e8 3f 55 bc 50 41 3c 3e
       -0.04653168 0.009507547 -0.013015725 0.1838429
000290 b5 c9 a5 bb fa a4 35 bd 11 6d ad 3d c7 a8 28 3e
       -0.0050594457 -0.044346787 0.084680684 0.16470633
0002a0 8b ac 34 bd d2 6d 9a 3b 8a e6 c0 3d f2 4f e1 3d
       -0.044109862 0.0047127986 0.09418972 0.110015765
0002b0 5c 00 bd bd ec f9 6d bd 76 94 11 3d a6 d3 0a 3e
       -0.09228584 -0.058099672 0.035541974 0.135573
0002c0 94 9d 2f be a6 83 85 ba 32 6d 0a 3e e6 7d 65 bc
       -0.17149955 -0.0010186329 0.13518217 -0.014007067
0002d0 61 11 5b be 55 e3 8c 3d 4f 18 5c 3e 63 59 fb ba
       -0.21393348 0.06879298 0.21493648 -0.001917642
0002e0 f5 d3 2d bd 0f c6 81 3d 37 2f 00 3e 5d 3c ba 3c
       -0.042438466 0.06336605 0.12518011 0.022733862
0002f0 96 99 11 bc 1d 71 84 bd 9b 97 a2 3b d4 18 7a bc
       -0.008886715 -0.06466887 0.0049619204 -0.015264709
000300 f2 92 ab bc 89 19 8d bd 03 26 80 3d ae 91 b8 3d
       -0.020944092 -0.06889636 0.0625725 0.09012161
000310 9b 07 32 3e b1 1f a8 3d e0 a5 5b bd 34 be 96 bd
       0.17385714 0.0820917 -0.053624988 -0.07360497
000320 28 cd 20 be f1 c1 f4 3c c7 57 fd bc 1e 37 08 3e
       -0.15703261 0.029877635 -0.030925645 0.13302276
000330 f3 99 2e 3e 70 cb 06 3d 13 e4 ac b9 4c 2f c7 bd
       0.17050914 0.032908857 -0.00032976325 -0.09725818
000340 74 76 3a be 35 5d 1f bd 56 37 db 3d 46 3e 9d 3d
       -0.18209249 -0.03890725 0.10703914 0.07677893
000350 29 1e 1c 3c 5e bc 5a 3c c7 d2 31 3e 35 b3 00 3e
       0.009528675 0.013350574 0.17365561 0.12568362
000360 66 c1 63 3c 6c 76 86 bc eb 44 6b bb df 01 05 3d
       0.01390109 -0.01641389 -0.0035899233 0.032472488
000370 d3 c3 10 be 22 6e 56 be 13 c7 5f 3d 4f 8b 12 be
       -0.14137201 -0.2094045 0.05463321 -0.14310955
000380 02 95 be ba 8f 83 83 bd 91 c1 93 bd 86 50 c5 bc
       -0.0014540257 -0.06421577 -0.07214654 -0.024086248
000390 b5 29 95 bd 05 05 89 3c 57 30 d1 bc b5 fa c8 3d
       -0.072833456 0.016726026 -0.025535746 0.098134436
0003a0 c8 a4 c0 bd 71 d9 be bd 4e 7a e0 bc 98 5e 9f b9
       -0.094064295 -0.093188174 -0.02740207 -0.0003039732
0003b0 f8 09 ac 3d f7 56 93 3d 8c 32 64 bc 9f ae ae 3d
       0.08400339 0.071943216 -0.013928067 0.085294
0003c0 ea 02 8e bc e8 b1 4a bd f4 20 23 3e 41 3e 4f 3e
       -0.017335374 -0.04948607 0.1593054 0.20238592
0003d0 9d 4f 63 3c 3f 49 f3 bb ed ee 4a be d9 89 8f bd
       0.013873962 -0.007424503 -0.19817705 -0.07008714
0003e0 3b 75 1c 3d 0c 48 88 bd f0 23 7c be a2 29 91 bb
       0.038197737 -0.06654367 -0.24623084 -0.004430012
0003f0 28 cd 37 bd b4 7b fa 3d b1 7f 33 3b 83 60 42 bd
       -0.044873387 0.12230626 0.0027389342 -0.047455322

dense2.bias f4 [64]
000000 50 c1 8d 3c 0a 9d 12 3e 4d f3 29 3e 0d 9f 2f bd
       0.017304093 0.14317718 0.16596718 -0.042876292
000010 ca 34 65 bd 05 f1 87 3d 63 32 d8 bd 45 25 69 3c
       -0.055958547 0.06637768 -0.105564855 0.014230077
000020 88 32 15 3e 8c 8e f8 bd 4c 55 41 3e 42 8b 27 3e
       0.14570057 -0.12136564 0.18880194 0.16361716
000030 e7 10 0d 3e 30 d7 54 3e 72 24 5c 3e ba 93 bf 3d
       0.13775979 0.20785213 0.21498278 0.093543485
000040 2a 3c 02 3d da ae d8 bb 5f d2 5c bd 08 2f d2 bd
       0.03179566 -0.006612641 -0.053911563 -0.10262877
000050 5e 74 3c 3d 61 81 6a 3c 5b 94 6b 3e 8c e0 73 3e
       0.046009414 0.014313073 0.23005812 0.23816127
000060 e2 81 44 3d 7a 8d 39 3e 9a 9a 23 3e f6 e0 96 3c
       0.04797543 0.18120375 0.15976945 0.018417817
000070 be 5b d9 3d a0 78 2d 3e ad a5 6d 3d 64 84 e0 3b
       0.106132016 0.16940546 0.05801933 0.0068517197
000080 47 99 10 bd 58 e9 d4 3c da 05 b9 bd c3 f9 1a 3d
       -0.035302427 0.025990173 -0.09034319 0.037835848
000090 6b 51 71 3d 25 65 8f bc 55 ea 29 3e 86 43 38 bc
       0.058915537 -0.017504284 0.16593297 -0.011246568
0000a0 ec c2 8b 3e c4 02 b7 3b 52 ce 1e bd 81 b4 80 3d
       0.2729715 0.0055850465 -0.03877098 0.062844284
0000b0 7e 78 0c be e1 0d c7 bd 2a 37 25 be 19 f0 8a 3d
       -0.13717839 -0.09719444 -0.16134325 0.06784076
0000c0 1c 01 de 3d 46 f1 05 3e 40 e4 c8 bd e9 99 c8 bd
       0.10840055 0.1308032 -0.0980916 -0.09794981
0000d0 99 35 8b bd 60 c1 24 3e 76 18 4d 3e ab f7 b4 bd
       -0.06797332 0.16089392 0.20028862 -0.088363014
0000e0 6b 55 5b 3e c3 b4 6b be 0e 2f 81 bc ef ad 09 3e
       0.21419303 -0.23018174 -0.015769508 0.13445257
0000f0 06 7e 82 bc f9 94 95 bd 36 7d 59 be cf 84 ce 3c
       -0.015929233 -0.07303805 -0.2123917 0.025209812

final.weight f4 [43, 64]
000000 d1 d8 a1 3d 67 c8 ee bc cd 03 99 3d 78 ed 47 3d
       0.079026826 -0.029148294 0.07471428 0.048810452
000010 91 48 c0 3c d0 18 b7 3c ef b0 4d bd 0b 88 ed bd
       0.023472102 0.022350699 -0.050217565 -0.11598214
000020 2f b4 1d 3e d8 a4 be 3d 01 f6 f9 3d c8 81 89 be
       0.15400766 0.09308785 0.12205125 -0.26856828
000030 1c 5c 3d 3e e2 63 b7 be 1f c1 cb 3d 9c 03 0a 3c
       0.18492168 -0.35818392 0.09948944 0.008423712
000040 76 6c 2e bd 46 f2 80 bc 37 6d aa 3d 4e 07 a6 3c
       -0.042583905 -0.015740525 0.08321612 0.020267155
000050 73 4c 49 3d 2c bc 96 bd d9 42 71 bc 9f 25 09 bd
       0.049145173 -0.0736011 -0.01472541 -0.033483144
000060 c2 44 a1 be 0c 35 f2 3d 0a a4 88 3d 06 2b 62 bd
       -0.3149777 0.11826524 0.06671913 -0.05521681
000070 cd cb 0f be 43 97 93 be 66 15 90 be 6b 98 0a be
       -0.14042588 -0.2882634 -0.28141326 -0.13534705
000080 11 8f df 3d 0c 8d 79 3c 2e 05 09 3d 7c 3f 7f bd
       0.109159596 0.015231382 0.033452205 -0.062316403
000090 3b 4b db bd 17 2a 3d 3d 46 7a 01 be 60 69 13 be
       -0.107077084 0.046182718 -0.126443 -0.14395666
0000a0 1f e1 ee bd 30 3a 81 3e e0 b1 37 3b 34 d3 1c bc
       -0.11664032 0.25239706 0.0028029606 -0.009571839
0000b0 f7 f4 ca bd 04 06 e9 bd e8 fa da 3c 56 57 a8 3d
       -0.099100046 -0.113781005 0.02673097 0.08219783
0000c0 a5 cf 2f 3b e4 75 bb bd a1 52 04 bc 01 4c a7 3c
       0.0026826647 -0.09153345 -0.008076341 0.020421984
0000d0 e5 29 eb bd 5e 97 57 3d ad fa 9a be 52 bf 47 3d
       -0.114826 0.05263459 -0.30269375 0.04876644
0000e0 bb 49 10 bd dd 2c 42 be eb 07 8f bd 10 c0 33 be
       -0.035226565 -0.18962426 -0.06983932 -0.17553735
0000f0 5e b2 c6 3d 23 8f a7 bd c5 5f 10 c0 f4 13 5f 3d
       0.097019896 -0.08181598 -2.2558453 0.05446239
000100 00 0a cc bc 57 a7 c9 3c c7 92 e9 bc 4d 84 01 bc
       -0.024907112 0.024615927 -0.028512372 -0.007905078
000110 e0 0a 10 bd 79 16 8f 3c 46 21 b4 3c 5a 5a a4 bc
       -0.03516662 0.01746677 0.021988522 -0.020062614
000120 e6 7c 03 3e 6f 1b 9e bd d5 d6 36 3c c0 b3 75 bd
       0.12840614 -0.07720076 0.011159618 -0.059985876
000130 5b ae 10 3d ad e5 1f be 28 41 2c 3e aa 8d 08 be
       0.03532253 -0.15614958 0.1682173 -0.1333529
000140 76 93 1f 3d a7 ff 8a bd da 02 a3 3d cc e5 c0 3c
       0.03895899 -0.06787043 0.07959528 0.023547076
000150 29 88 1e bd 6a 56 03 be c6 cb 0a 3e b9 1d 1f 3e
       -0.03870407 -0.12825933 0.13554296 0.15538682
000160 36 18 27 be 9d c9 53 bd 90 49 9b bd f6 b2 38 bc
       -0.1631783 -0.051705945 -0.0758239 -0.011273136
000170 e4 30 2d be 70 a5 ab bd 24 a1 aa 3d f0 fd a9 bd
       -0.16913182 -0.08381164 0.083315164 -0.08300388
000180 fc 3b a5 3d 80 20 6b bc f6 7f 9d 3d 6a 44 ac bd
       0.08068082 -0.01435101 0.07690422 -0.084114864
000190 87 a1 78 bd 17 48 07 bd 64 1b 07 3c a0 8e c1 bc
       -0.06070092 -0.033027735 0.0082462765 -0.02362758
0001a0 05 b9 0d bd 87 7c cc bb 21 91 93 bd 76 62 b8 bc
       -0.034600276 -0.0062404308 -0.072054155 -0.022507887
0001b0 25 5b 02 bd e2 63 23 3d 4e 9d 43 bd 63 a6 5e 3d
       -0.031825203 0.039890178 -0.04775744 0.054357897
0001c0 32 ad 8b 3d 41 f4 36 bd bf 1d ca bd 30 99 da 3d
       0.06820144 -0.044666532 -0.09868955 0.106737494
0001d0 62 cb 03 be 63 f9 fa 3d f5 c3 b3 bd 3e 0d 55 bd
       -0.12870553 0.12254598 -0.0877761 -0.05201458
0001e0 bf d0 9e 3d ed e2 83 bd a2 26 57 3b af 6c 5f bd
       0.07754659 -0.06439767 0.0032829423 -0.054547008
0001f0 a9 65 c4 bd f2 93 c2 bd 4d a7 67 be 5d 6f 93 bc
       -0.09589703 -0.095008746 -0.22622414 -0.017997438
000200 2d 5b bf bd a8 ae 79 bd ce 56 03 be 76 e2 ff bc
       -0.09343562 -0.06095758 -0.12826082 -0.031235915
000210 00 90 a4 bd 88 ee 0c bd 64 8f 3c bd 86 f1 70 3d
       -0.08035278 -0.03440717 -0.046035185 0.058824085
000220 d3 d2 8e 3d 93 43 4a 3d 81 4e b6 bc 6b 11 1f bd
       0.06973805 0.04938085 -0.02225423 -0.03883497
000230 84 54 5a 3c 4d 92 07 be 9a 7d 1d 3e 93 43 8c bd
       0.013325814 -0.13239403 0.15379944 -0.06848826
000240 d2 fd ad 3c 8f 8a d3 3c fb ad ef bc ec cc 1b bd
       0.021239195 0.025822906 -0.029257765 -0.038037226
000250 22 e6 a0 3c 65 b5 bd bb 68 b0 b9 bd 90 47 31 3d
       0.019640986 -0.005789446 -0.0906685 0.043281138
000260 0b 2c 95 bd 02 92 1c bd 7a 49 94 3d 96 77 82 bd
       -0.07283791 -0.03822518 0.07240577 -0.063704655
000270 ee 00 05 be 89 e1 27 be 97 16 64 3e 60 4b 8f bd
       -0.12988636 -0.16394629 0.22274242 -0.069967985
000280 3e b5 49 bd e6 2b d6 bc 7d 6c da bd f6 35 d5 bd
       -0.04924511 -0.02614398 -0.10665224 -0.10410683
000290 db a0 ab bd f8 36 b7 3d c4 80 ed 3c 6b 13 ab 3d
       -0.0838029 0.08946031 0.028992064 0.08353313
0002a0 66 84 e5 bc 70 75 8b bd 15 81 ae bd 15 63 b2 bd
       -0.028017234 -0.06809509 -0.08520714 -0.08710305
0002b0 53 f4 22 bc 89 42 9d bd 33 7f 37 3a 97 03 0b 3d
       -0.009945947 -0.07678706 0.000699985 0.03393897
0002c0 fc b9 0e 3e 04 85 05 3e d5 37 b7 bd 82 04 96 bd
       0.13938135 0.13039023 -0.08946196 -0.073250785
0002d0 04 0b a5 bd 33 2a a7 bc 4a 31 c4 3d 96 ca f2 3c
       -0.08058742 -0.020405864 0.09579714 0.029637616
0002e0 f1 67 d7 bc 68 0e cf bd 72 9e 89 bd a8 df 16 3d
       -0.02629468 -0.1011017 -0.06719674 0.03683439
0002f0 79 e7 db bd 83 48 70 3c 7c 42 4f be 14 c2 06 3e
       -0.10737509 0.014665726 -0.20240206 0.13159972
000300 23 36 b1 bd 86 de af bd 92 77 98 3d d7 17 0b 3e
       -0.08652904 -0.08587365 0.07444681 0.13583313
000310 ce cc 07 3c ab eb 0a 3e 03 fc 56 3c c7 7e d8 ba
       0.008288575 0.13566463 0.013121608 -0.0016517275
000320 7f a7 a2 bd 0f d6 00 bd 01 0f 2d be 7d f5 5d 3d
       -0.079421036 -0.031454142 -0.16900255 0.054189194
000330 0b 5f 15 3d 4c 59 ea 3d a9 91 51 bc ea 4f 0c bb
       0.036467593 0.11442813 -0.012791076 -0.0021409937
000340 9a be ca 3d 13 e8 cc bb 84 d6 57 3d 33 c8 e6 3c
       0.098996356 -0.0062532513 0.052694812 0.028171634
000350 09 56 69 bd d7 37 9c bd c7 2b 03 be 0d 62 6e 3d
       -0.056966815 -0.07627838 -0.12809668 0.058198977
000360 62 f8 8c bd 96 ce ea 3d 44 1d ab bc 10 c9 c7 bc
       -0.06883313 0.114651844 -0.020887978 -0.024387866
000370 db 6b 55 be eb 58 55 be 15 46 1a 3d d4 ee 62 bd
       -0.20841925 -0.20834701 0.03766449 -0.055403545
000380 d7 eb 99 3d 13 bb 67 bc c8 0f df bd ce 83 ba bd
       0.07515686 -0.014143723 -0.10891682 -0.09107171
000390 ff c1 e2 bd f3 75 d2 3d cc bb 35 bd 15 82 64 bd
       -0.11072158 0.10276403 -0.04436855 -0.05578812
0003a0 57 38 e9 3d bc cd 96 3d e7 ba ca bd 5c 11 d9 bd
       0.11387699 0.073634595 -0.0989893 -0.10599014
0003b0 a4 9b b4 bd 4c 73 7f 3d 2d c6 0b bd ad a1 2d bd
       -0.088187486 0.062365815 -0.034124542 -0.042390514
0003c0 13 e5 3d bd 99 42 ab bc 18 d5 f6 ba a8 56 88 bb
       -0.04636104 -0.02090578 -0.0018831817 -0.004160721
0003d0 da 9f 43 bd 56 97 60 bd 23 d7 01 3e f7 cb 17 bd
       -0.04775987 -0.054831825 0.12679724 -0.03705975
0003e0 d7 8d 02 3d db d6 79 bd f1 1f 43 3d 22 50 ae 3d
       0.03187355 -0.060995918 0.047637884 0.08511378
0003f0 20 e9 4c 3d 36 f8 f7 bd 77 87 54 bd 0d 99 9a bd
       0.050027013 -0.12107889 -0.051887 -0.07548723

final.bias f4 [43]
000000 99 c0 d7 bd e9 a4 84 3c f2 e7 bc bd d2 26 b2 3d
       -0.10534782 0.016191917 -0.092239276 0.08698811
000010 c2 0f bb 3c 14 1f 60 3e a8 92 8b 3e b7 9a 6a 3d
       0.022834662 0.21886855 0.27260327 0.057276454
000020 69 9e 16 3e b5 c5 d1 bd ca bb 43 be 9e b4 30 be
       0.14708866 -0.10242788 -0.19114605 -0.172564
000030 ce da 86 3d 4e 7e 8f 3d 92 c9 07 3d 80 74 1f 3e
       0.065847024 0.070065126 0.033151217 0.15571785
000040 bb 76 9c be 22 ff 2d bd 4e 83 8a 3d 83 8e b4 bd
       -0.30559334 -0.04247964 0.06763326 -0.088162445
000050 f0 fc 1b bd ac f0 b3 be 83 94 31 bd 83 5b e0 bd
       -0.038083017 -0.35144556 -0.043354522 -0.109549545
000060 a5 26 a0 3d b5 f8 f9 3c ae de d5 bd 6e ee 24 be
       0.07819871 0.0305141 -0.104428634 -0.16106579
000070 66 59 21 3e 68 32 60 3d 6e 4e 0f 3e 1e 34 7d 3e
       0.15756759 0.05473557 0.13994762 0.24726912
000080 70 f2 0e 3d 0c d8 9d bd 27 0f a2 3c 00 8f 97 bd
       0.034899175 -0.07707223 0.019782616 -0.07400322
000090 75 fa 05 3d 19 9b a0 bd a0 9d 07 3e 44 df 24 3c
       0.032709558 -0.078420825 0.13243723 0.010062996
0000a0 0d 2c cf bd ef 35 08 be ff 09 89 bd
       -0.10115824 -0.13301824 -0.0669136
