models/model.onnx (onnx, 261335 bytes, 10 tensors)

sequential_1/dense_2_1/Cast/ReadVariableOp:0 f4 [84, 43]
000000 1d 71 82 3e 9b 92 90 3e 3c 4d 3e 3e 7b 07 c7 3d
       0.25476924 0.2823685 0.1858415 0.09718224
000010 c3 45 58 3d f3 ce 42 3c 52 05 41 3e 6e 3c 50 3c
       0.052800905 0.011890161 0.18849686 0.01270972
000020 ce e6 85 3d 4b 87 36 be 66 cb f0 3d 75 ac 85 3b
       0.06538163 -0.17825048 0.11757545 0.0040793964
000030 95 6b 9b 3d 27 bc 95 be cb e1 c9 3d 1a e6 00 3e
       0.07588879 -0.2924511 0.0985752 0.12587777
000040 e7 28 42 3e 67 cf df bd 69 ac c7 bd d9 45 dd be
       0.18960916 -0.10928231 -0.097496815 -0.43217352
000050 a6 dc 55 bd b7 ff 3d 3e f8 74 f4 be ba 87 26 be
       -0.05221238 0.18554579 -0.4774549 -0.16262713
000060 82 40 86 3c 36 1b 9b be 9a 75 e3 be 7a 8c 6e 3c
       0.016388182 -0.30294198 -0.4442566 0.014559859
000070 f5 ea c4 be 0b bb 21 be 1f db 97 3d 21 ce 9a 3e
       -0.38460508 -0.15794007 0.07414841 0.3023539
000080 a0 f6 cd bd d1 6e 90 bd 7e 72 2e 3c 2c 61 99 be
       -0.100568056 -0.070523866 0.010647414 -0.2995695
000090 a8 5a 92 be e3 92 93 3e b9 f6 47 3e d4 f0 4f be
       -0.2858479 0.28823003 0.19527711 -0.20306712
0000a0 ee 7b 94 3e ea 4f 38 be 64 28 fa 3d 80 ee 60 be
       0.290008 -0.17999235 0.12214735 -0.2196598
0000b0 21 65 1c bf 02 6b a3 be 0c 6a be bd 07 9d 0a bf
       -0.6109181 -0.31917578 -0.092975706 -0.54145855
0000c0 91 59 18 3e c0 a1 15 3e 04 86 64 be 18 f6 42 3e
       0.14877917 0.14612484 -0.22316748 0.1903919
0000d0 c4 fd 51 3e ea cc 1c 3e 91 a6 fb bd 4c a8 7f 3e
       0.2050696 0.15312544 -0.122876294 0.24966544
0000e0 38 74 61 be d1 d0 2d be e7 8c 1e bc e5 e5 5f 3e
       -0.2201699 -0.16974188 -0.009677148 0.21865042
0000f0 5f b2 2d 3d 4a 4a 1d 3e 05 28 64 be d8 31 86 bd
       0.042406436 0.1536037 -0.22280891 -0.06552476
000100 cd d7 09 be 1c d9 89 be 0b ca 22 be a9 37 29 bd
       -0.13461228 -0.26923454 -0.15897386 -0.041312847
000110 a8 21 43 bc 42 9f 02 be 5d 3e 19 3e 14 02 07 be
       -0.01190988 -0.12756065 0.14965196 -0.13184386
000120 2e 8f 77 be a3 b5 ef 3d 40 ce 68 be 7f 45 02 3e
       -0.24175712 0.11704566 -0.22734928 0.12721823
000130 0a dc 0e bf 7f a5 60 3e b6 87 6a 3e 96 6b 60 3e
       -0.558045 0.21938132 0.22903332 0.21916041
000140 ee 01 d0 be a2 2e e2 3d 3b 7e 06 bf dd ed ce be
       -0.40626472 0.11044051 -0.5253636 -0.4041585
000150 8e 80 9d 3e 45 61 b5 3e 3c 5e e6 bd b1 31 34 3e
       0.30762142 0.35425773 -0.112484425 0.17597081
000160 b2 f2 19 be 46 d3 1d 3e 85 ee 1a bf 43 06 85 bd
       -0.15033987 0.15412626 -0.605202 -0.06495335
000170 a1 82 95 3e 28 f9 81 3e b3 4e 8d be cc c4 33 be
       0.29201224 0.25385404 -0.27599105 -0.17555541
000180 63 3a af 3d 31 9a 4b 3e 74 86 4b be f3 03 f8 bd
       0.08556058 0.19883038 -0.19875509 -0.12110128
000190 08 ce 63 bc 48 22 4d be bd 45 6a 3e 91 68 1f 3e
       -0.013904102 -0.20032609 0.22878166 0.15567233
0001a0 4d db 84 3d f7 f8 99 bd 75 8b 90 3e e0 19 47 be
       0.06487141 -0.075181894 0.28231397 -0.19443464
0001b0 fb 61 b4 be be 84 6c 3e 9c 84 57 3d 17 47 ba 3e
       -0.35231003 0.23097512 0.0526167 0.36382362
0001c0 83 cd f1 be 8f 50 8d be 76 74 28 be 1e 03 38 3e
       -0.47227105 -0.27600524 -0.16450676 0.17969939
0001d0 db 8c f0 3d 9b 9f a7 3e 3f e9 18 3e df b1 aa be
       0.11745616 0.32738957 0.14932726 -0.3333883
0001e0 d1 e5 6e 3e b9 96 76 3e b7 b7 d9 bd a9 94 a0 3c
       0.23329856 0.24080934 -0.10630744 0.019602137
0001f0 4c 6d ce 3d 0e 7a f3 be 04 6f b1 3d 83 f7 3e 3e
       0.100794405 -0.47554058 0.08663753 0.18649106
000200 7b b5 87 3e 76 f3 f2 be 9b 65 ee be d4 4d 2d 3e
       0.26505646 -0.4745137 -0.46561894 0.1692422
000210 27 ed b2 be b8 5f 8b 3d 78 74 db bd 7b b9 82 be
       -0.34946558 0.06805366 -0.10715574 -0.25532135
000220 fc 12 b4 3d cb 4b be bd e7 72 98 3e b7 34 27 3e
       0.087926835 -0.092918 0.29775164 0.16328703
000230 a5 5f 13 3e 06 a3 b9 bd a2 e7 46 3e 21 bc 5b be
       0.14391954 -0.090642974 0.19424298 -0.21458484
000240 11 b5 6c be 71 a3 34 3d bc ab 13 be 10 3c 27 be
       -0.23115946 0.044101182 -0.1442098 -0.16331506
000250 3d 3d 8d 3c fa 07 19 3e 10 f4 94 3e 9e 45 94 be
       0.017241115 0.14944449 0.29092455 -0.28959364
000260 3c da 21 be f4 f0 68 3e 04 1c 1c 3e 43 74 09 3e
       -0.15805906 0.22748166 0.15245062 0.13423257
000270 34 f8 91 3d 83 25 2b bd 60 12 f6 bb dd 40 b9 3d
       0.07127419 -0.04178382 -0.0075095147 0.09045575
000280 96 5e 0b 3e 0e df 18 3e 54 87 3c 3e cb 85 94 bd
       0.136103 0.14928839 0.18410999 -0.072520815
000290 19 cb 61 bd 90 b9 ec be d6 5c 7f be 01 61 6e 3d
       -0.05512533 -0.46235323 -0.24937758 0.05819798
0002a0 1e bc 01 bd 25 72 90 bd 5b d0 99 bd dd 33 2b be
       -0.031673543 -0.07053021 -0.07510444 -0.16719003
0002b0 bf 7c 65 be 2b 86 a0 be d7 cb 88 bd a4 bd 3a 3e
       -0.22410868 -0.31352362 -0.06679504 0.18236405
0002c0 6b d0 2b be 00 87 4e be 99 0a 63 bd 85 4d d7 be
       -0.16778724 -0.20168686 -0.05543003 -0.4205133
0002d0 cf 56 8b be 39 39 2a 3e 6a 3f ff be 5b ea c3 be
       -0.27214667 0.16623391 -0.4985307 -0.38264737
0002e0 27 bb df 3c f3 00 37 3e 82 90 c4 bd 14 7c d1 3d
       0.02731092 0.17871456 -0.09597875 0.10228744
0002f0 65 dc 80 be 2d bf 12 3e 9b 9c 25 3e d2 2a 68 3e
       -0.25168148 0.1433074 0.16173021 0.22672585
000300 95 8a 43 bd 53 ff 1e be 73 90 7f 3e 84 09 b3 bd
       -0.047739584 -0.15527086 0.24957447 -0.08742049
000310 c1 23 e9 3d 47 4d 9a 3e 49 69 8d 3e 2d fe 32 3c
       0.11383773 0.30137083 0.2761939 0.010924858
000320 29 19 0d 3e ae ed 2a 3e a3 f4 0b 3d 05 27 8e be
       0.13779129 0.1669223 0.03416885 -0.27764145
000330 1a 26 2b 3e b9 84 8c 3b 77 bb 14 be 82 a5 76 3e
       0.16713753 0.0042882827 -0.14524637 0.24086574
000340 13 a4 0a 3e 42 a3 b3 be bd f7 87 be b7 dd 95 bd
       0.13539152 -0.35085493 -0.26556197 -0.073176794
000350 dd db 33 3e f5 dd ff 3d 10 a9 90 be 86 ff 60 3e
       0.1756434 0.12493507 -0.28253984 0.21972474
000360 66 1e 99 3d d7 22 9c be b2 00 7a be 47 e4 3a be
       0.07476501 -0.3049533 -0.24414328 -0.18251143
000370 cb fc b9 3c a9 49 8d 3e 92 e3 36 bd 01 f0 2a 3e
       0.022703549 0.2759526 -0.04465062 0.16693117
000380 82 3a 83 bb 72 e6 fa be 88 89 09 be 09 4c 32 3d
       -0.0040047774 -0.4900394 -0.1343137 0.043529544
000390 37 a9 6f 3e 88 77 e7 bc 57 50 3d 3e 9e 1b 13 bf
       0.23404394 -0.02825524 0.18487678 -0.57464015
0003a0 c7 80 0a 3e c7 a1 0d 3e 42 0f fc be 6e 35 96 3e
       0.13525687 0.13831244 -0.4923039 0.2933764
0003b0 66 70 5a bd 49 a7 75 3e 7d 2c 91 be 14 c8 e7 bd
       -0.053329848 0.23989595 -0.28354254 -0.11317459
0003c0 bf 89 43 3e 92 d0 0c 3e 25 8c 7b be 1b 28 07 be
       0.19095515 0.13751438 -0.2456518 -0.13198893
0003d0 29 5c e4 3d 51 f8 7a 3e 34 9f 0f be 18 91 2f 3d
       0.11150391 0.24508788 -0.14025575 0.04286298
0003e0 a6 ed ad bd 19 ba 3d 3d ad d9 09 bd 7a ba 79 bd
       -0.084925935 0.046320055 -0.033654857 -0.060968854
0003f0 16 0d 03 3e 9d 9c 1a 3e e8 31 3a be 6c a4 03 3e
       0.1279796 0.15098806 -0.181831 0.1285569

sequential_1/dense_2_1/Add/ReadVariableOp:0 f4 [43]
000000 aa 96 6a be c6 af 29 3c 59 86 92 bc a4 f7 a8 3d
       -0.22909036 0.010356849 -0.017886328 0.08250359
000010 73 68 6b 3d 53 65 a7 3d e7 7d 07 3e 7f 68 af 3d
       0.057472657 0.08173623 0.13231622 0.08564853
000020 3a 9f 28 3e 41 cf 8f bc a8 bc 6e bd 6f 04 f4 bd
       0.1646699 -0.017554881 -0.058285385 -0.11914908
000030 fa fe 73 3d d1 85 a8 bb 12 7b 9a bd 3e 94 1b 3d
       0.059569336 -0.0051429053 -0.07543005 0.03798317
000040 7e cc b2 bd e2 cc 7a bd 2f c9 66 bc f1 72 07 bd
       -0.0873041 -0.061230548 -0.014086052 -0.0330686
000050 e0 25 18 3e fe ad 8c bd a9 46 3a be ca c6 1b be
       0.14858198 -0.06869124 -0.18191017 -0.15212551
000060 e9 49 19 3e 84 49 16 bb fa 94 fa 3b f1 b2 89 bb
       0.149696 -0.0022932002 0.007647154 -0.0042022397
000070 e5 ef 05 be 33 e3 75 bd 94 5d 53 3e 1d 2e c0 3d
       -0.13079794 -0.060031127 0.20641166 0.093837954
000080 28 e8 c6 3c c7 40 a8 ba 6a b6 b0 bd 3b 91 12 be
       0.024280623 -0.0012836688 -0.08628543 -0.14313214
000090 6e 72 2b bd c8 35 58 bd 90 47 6d bc 9e cd 96 bd
       -0.041857176 -0.052785665 -0.014482394 -0.07363437
0000a0 90 62 38 bd 06 8b 58 be f9 58 08 bd
       -0.04501587 -0.21146783 -0.033287976

sequential_1/dense_1_2/Cast/ReadVariableOp:0 f4 [120, 84]
000000 20 e5 1c 3d 79 b7 6d 3d d2 01 49 bc 9c 69 f5 bd
       0.038304448 0.0580363 -0.0122685 -0.11983034
000010 92 4b 0a 3e b5 d9 93 be 60 aa 56 be 03 f2 0a be
       0.1350539 -0.28877035 -0.2096343 -0.13568883
000020 78 0a 8a 3e a8 43 4e 3e d9 94 1c 3e 0a b1 36 be
       0.26961112 0.20142996 0.15291156 -0.17840973
000030 29 32 2a 3d 0a f6 4b 3e 27 cc 8d 3e 56 36 af 3c
       0.041551743 0.19918075 0.27694818 0.021388214
000040 cf 54 06 3e e2 e0 13 3e ea 8a 24 bd 95 13 ff bd
       0.1311829 0.14441255 -0.04017154 -0.12454907
000050 db 60 f2 be 67 4f 02 3e eb fa 04 3e a2 70 9b bd
       -0.4733952 0.12725602 0.12986343 -0.075898424
000060 0d 5f 26 3b 34 46 ed bd 87 c1 2f 3e 25 61 fa bd
       0.0025386245 -0.11585656 0.17163669 -0.1222556
000070 26 65 30 bd 63 40 ce bd 71 70 26 3b 65 82 96 3d
       -0.043065213 -0.100708745 0.002539661 0.073490895
000080 0b c8 5a 3d 62 ab 07 3e d8 a7 22 3e d4 f2 92 3e
       0.053413432 0.13248971 0.1588434 0.28700888
000090 aa e4 88 3e 50 cd 18 be 00 1c 6a 3c ac 97 8f be
       0.26736957 -0.1492207 0.014288902 -0.28045404
0000a0 66 25 e7 bc b9 c8 b2 3d 88 b6 5a 3e e4 1d 76 3c
       -0.028216075 0.08729691 0.21358693 0.015021775
0000b0 65 6f 71 3e c1 a1 f1 bc 53 52 9f bd 4e 31 bb 3d
       0.2357765 -0.029496076 -0.07779374 0.091402635
0000c0 4d 04 d7 3d cd 53 23 3d 32 ff 92 3e bd 7b e3 3d
       0.10498867 0.03987484 0.28710324 0.111075856
0000d0 bf c9 c6 bc fc ec 52 be 7e 0d cd bd 9d 30 60 3d
       -0.024266122 -0.20598215 -0.10012339 0.05473386
0000e0 f4 3f a5 3e d6 97 c7 3e 1b ab 66 bd 2b 1f 15 3e
       0.32275355 0.3898303 -0.056315523 0.14562671
0000f0 91 ae 15 be 02 f4 cc bd 97 45 3b 3e 80 96 12 3e
       -0.14617373 -0.10007478 0.18288265 0.14315224
000100 28 91 7e be 34 5d f9 3d 17 b3 32 be b3 0e 67 bd
       -0.2486006 0.1217598 -0.1745113 -0.056410503
000110 9e 2e 67 be 5a 4d 0c 3d 63 c3 99 3e f7 aa ac 3e
       -0.22576377 0.034253456 0.3003188 0.33724186
000120 5f b6 66 3c 79 33 e7 be 10 e3 16 3e c0 75 ed 3d
       0.014081567 -0.45156458 0.14735055 0.11594725
000130 e2 13 5a 3e a4 0c 6c be 42 80 9f be 98 5e 94 3e
       0.21296647 -0.23051697 -0.3115254 0.2897842
000140 58 22 00 bd 94 6e f0 3d 43 dd da be 15 9d f4 bd
       -0.031282753 0.11739841 -0.42746934 -0.119440235
000150 8b 80 ab be 9e dc de 3d 7a c4 d7 3d 0d 88 cc bd
       -0.33496508 0.10881923 0.10535522 -0.09986887
000160 da f4 2b 3e 9a ca 0a be b3 8e b2 3d 48 a1 58 be
       0.16792622 -0.13553849 0.08718624 -0.21155274
000170 c5 b6 0d 3f f0 78 bb 3e 4d eb 18 be 85 9b 77 3e
       0.5535701 0.36615705 -0.1493351 0.2418042
000180 83 27 52 be 81 4a b8 be 04 d7 42 3d 48 86 fe bc
       -0.20522885 -0.35994342 0.047568336 -0.03106989
000190 2f d7 68 bd bc 0d 09 be 17 87 dd be 39 de 7a bd
       -0.05684584 -0.13384145 -0.43267128 -0.061247084
0001a0 6f 0f b0 3c f2 d6 fc be 65 a3 c5 ba 42 d7 98 3d
       0.021491734 -0.4938274 -0.0015078603 0.07462932
0001b0 23 0e 2d 3e 49 7c 29 be 6f eb 6d be 46 5b da be
       0.16899924 -0.16551317 -0.23234342 -0.4264776
0001c0 c8 a3 37 be 95 ab 6a be 1f ab 23 be cc c0 b7 be
       -0.17933571 -0.22917016 -0.15983246 -0.3588928
0001d0 11 cc 02 bc 11 a4 9b be ad 5a b4 bd ae 10 3b be
       -0.007983224 -0.3039861 -0.088063575 -0.18268082
0001e0 13 90 9e 3e 5a 1a 4f 3e 56 5f d2 3d 29 c2 07 be
       0.30969295 0.20224896 0.1027209 -0.1325766
0001f0 12 a3 11 bc 9a 8b c4 3d 0e 64 0c 3d fc fd 57 be
       -0.008888977 0.095969394 0.034275107 -0.21092981
000200 f1 27 90 be df 44 0a 3e 61 8a bd be eb 2d e8 bd
       -0.28155473 0.13502835 -0.37019637 -0.11336883
000210 fc 16 bb 3e 2d 69 e2 bd 16 53 65 3e 98 6d 0d be
       0.36540973 -0.11055217 0.22394976 -0.13811338
000220 3a 6d 41 3d 96 09 66 3e 1a 66 8f bd 09 f6 b5 be
       0.047223307 0.22464594 -0.07001896 -0.35539272
000230 42 2d fa bc 5a c6 ba bd ee 57 a2 bd ec 62 76 bd
       -0.030539159 -0.09119864 -0.079269275 -0.060152933
000240 97 f2 a3 bd e0 2b 71 bd 35 38 4d 3e 60 0a 67 be
       -0.08005255 -0.058879733 0.20040973 -0.22562551
000250 17 75 8e bd cb b8 db 3c c5 04 43 bd 36 2a 72 3d
       -0.06955927 0.026821515 -0.04761197 0.059122287
000260 69 43 c5 3d 24 63 65 be 7e 45 b2 be e5 93 35 bd
       0.09631998 -0.224011 -0.34818643 -0.044330496
000270 64 c5 9d 3c 4a 06 4e be b7 38 df bd 2a a2 12 bd
       0.019259162 -0.20119587 -0.108994894 -0.035799183
000280 3c f4 5b 3e 9a 2a a9 3e 72 42 71 be 07 c8 33 3e
       0.21479887 0.33040315 -0.23560503 0.17556773
000290 43 ab b5 3d 9f 1d 15 3d 3a ee 3c 3e fc ae 96 be
       0.08870556 0.036405202 0.18450251 -0.29430377
0002a0 30 4f 4a 3c f7 8d 55 3e f1 89 53 be b2 02 6a 3d
       0.012347981 0.20854937 -0.20658089 0.057131477
0002b0 b0 23 8f bd b0 bc 37 be 14 24 d7 3d 3f 19 3d 3d
       -0.06989229 -0.17943072 0.10504928 0.046166655
0002c0 0a 1d 03 bd bb 19 71 be b5 e0 0e bd 71 1a 7e be
       -0.032010116 -0.23544972 -0.034882266 -0.24814774
0002d0 b1 46 00 bd 08 46 35 be a9 d9 34 be 1c 52 4a bd
       -0.031317417 -0.17702496 -0.17661156 -0.04939471
0002e0 af 71 70 be 04 ce 96 3d 4a ac 3e be f4 0c 27 3b
       -0.23480867 0.07363513 -0.1862041 0.0025489898
0002f0 ce 54 94 3e b7 ce 8b 3d b6 a6 8c 3e 63 1c d3 3d
       0.2897095 0.06826537 0.2747094 0.10308149
000300 a2 5d 71 be 22 4f 94 bd 52 c9 93 be 28 80 0b be
       -0.23570874 -0.07241656 -0.28864533 -0.13623106
000310 cb 87 9b 3e d5 41 39 bd 62 0b 79 3d cc 31 67 bd
       0.3037704 -0.045228798 0.06080187 -0.056443974
000320 f9 4e b2 bd 3e a5 c7 3e c4 33 9a 3e 8e 45 ed 3d
       -0.08706469 0.38993257 0.3011762 0.11585532
000330 28 3e 8b be 84 d1 90 bd b8 18 b8 3e 3a be 51 3d
       -0.2719586 -0.07071212 0.3595636 0.051206805
000340 ee 0f 13 be 7d a8 d8 3e 72 d3 c5 3c 6a 4e f9 bd
       -0.14361545 0.42316046 0.024148677 -0.121731594
000350 72 2d 8f 3c 70 3d 68 3d 85 df 92 3c 62 9c be be
       0.017477725 0.056699216 0.017928848 -0.37228686
000360 ba bc 8e bd fb 9f 1a bd 04 cb 13 bd 85 63 e4 3d
       -0.069695905 -0.037750226 -0.036082283 0.11151794
000370 11 cb 39 3e cd e5 21 be 09 b2 07 be 36 7d 3b bd
       0.1814387 -0.15810318 -0.13251509 -0.045773707
000380 47 c6 9b bc 68 3f d3 bd 96 bb 4d 3d 00 32 5f bd
       -0.019015444 -0.10314828 0.050227724 -0.054491043
000390 4a bb 13 3e e8 4a 65 bd 41 b5 4b be 2c 5a 3e be
       0.14426914 -0.05597964 -0.19893362 -0.18589085
0003a0 b7 96 ff 3d 44 9d b2 3d 8c 41 2a bc 21 28 8e bd
       0.124799185 0.08721402 -0.010391604 -0.06941248
0003b0 59 f7 42 3e 5a 91 37 bd 17 d6 19 be ae 01 54 bc
       0.19039668 -0.044816352 -0.15023075 -0.012939854
0003c0 72 02 e2 bd 0b ab f9 bd 6b 1d 3a be 11 71 27 bd
       -0.11035623 -0.12190827 -0.18175285 -0.040879313
0003d0 c9 b8 9e 3e 3f 37 4a 3e 18 4c 22 3e ed bd 6c 3e
       0.31000355 0.19747637 0.1584934 0.23119326
0003e0 59 f6 35 3e b3 4d 06 3e c5 fc 4d 3c 28 19 af bd
       0.17769755 0.13115577 0.012572472 -0.0854972
0003f0 7f bd ac 3d 91 ab 6b 3d 10 4a 90 bd 2d d8 59 be
       0.08434581 0.057536665 -0.07045376 -0.21273871

sequential_1/dense_1_2/Add/ReadVariableOp:0 f4 [84]
000000 66 c4 4c 3e 03 ef c1 3d ae 66 3b 3d fe 04 a7 3d
       0.19996795 0.09469416 0.04575222 0.08155249
000010 05 29 84 3c 64 c6 15 3e ac 9f ff bc 54 ac c1 3d
       0.01613284 0.14626461 -0.031204067 0.09456697
000020 d4 57 3e bc 2c ab 29 3d 32 8a 35 3d 90 66 57 bd
       -0.01161762 0.041423008 0.044321246 -0.052588046
000030 a1 48 69 3d 28 af d2 bc 6e 2c c9 bd 73 e9 17 3e
       0.05695403 -0.025718287 -0.098229274 0.14835148
000040 31 4a 86 3d 32 40 9a bc de bb 9d bd a8 1b 66 bb
       0.0655712 -0.018829439 -0.077018484 -0.00351117
000050 27 6a da bc cd fb 73 bc a1 7b 1a 3d 1e 42 58 3e
       -0.026661946 -0.014891577 0.037715558 0.21118972
000060 48 6e 76 bd 07 52 c6 bc f5 1f 44 bd 33 df 16 3e
       -0.060163766 -0.024209036 -0.04788204 0.14733581
000070 c4 77 f2 3b ef 7e 64 3a b8 ac 7c 3d 9a 6e 29 3d
       0.007399531 0.00087164243 0.061688155 0.041365243
000080 3e b1 46 3e 8c 8b f7 3b 30 5f 93 bd c5 2b c3 3d
       0.1940355 0.007554477 -0.0719589 0.09529833
000090 9d a5 93 bc 91 b3 7b bd 10 42 3b 3d 06 1f c0 3d
       -0.018023307 -0.061450545 0.0457173 0.09380917
0000a0 47 84 b1 bb d7 48 ec 3d 36 96 35 bd 94 00 ff bc
       -0.00541738 0.115373306 -0.044332705 -0.031128205
0000b0 8f 91 fc bc 5a 55 b7 3d 88 42 29 3d db 6e 07 bd
       -0.030831126 0.089518264 0.041323215 -0.033064704
0000c0 63 1f ed 3d ac 61 7d bc af fa 82 3d 56 c7 8a bd
       0.11578252 -0.015465181 0.0639547 -0.067763016
0000d0 e6 9c 06 3e 56 10 c2 3d e8 04 a1 3b a6 00 55 3d
       0.1314579 0.09475772 0.004913915 0.05200257
0000e0 f5 f2 88 3d 38 ae e7 bd b2 5f 23 bb 14 e2 12 3e
       0.066869654 -0.113125265 -0.0024928865 0.14344054
0000f0 c0 6f bc ba 70 3e 90 bc 99 92 c2 3d d0 45 4c bd
       -0.0014376566 -0.017607898 0.095006175 -0.049871266
000100 46 21 20 3e 7a 67 46 bc 7a 7b 00 bd 77 ee 0a 3e
       0.15637693 -0.012109632 -0.031367756 0.1356753
000110 ec b0 ea 3d 47 d4 8b 3c fb a6 21 3d 36 02 aa 3d
       0.114595264 0.017068995 0.039465886 0.08301203
000120 84 26 eb 3d 7a eb 40 3c 78 4e 8f 3d 92 bf c0 3d
       0.11481956 0.011774892 0.069973886 0.09411539
000130 1a 0d 7c 3c 7d 7a 4d 3e 40 34 83 bd 69 ad 2a 3e
       0.015383983 0.20066257 -0.0640645 0.16667713
000140 31 81 b2 3b 9e 06 a6 3c 4f e9 18 3e 2a 90 17 bc
       0.0054475297 0.020266827 0.1493275 -0.00925068

sequential_1/dense_1/Cast/ReadVariableOp:0 f4 [400, 120]
000000 e1 91 30 bc 6d 0a 7f 3d f8 98 fa bd ec f6 2b bd
       -0.010776968 0.062265802 -0.12236208 -0.04198353
000010 f9 cf 78 bd 04 6e 31 3c 83 d0 75 3d be ba 20 bc
       -0.060745213 0.010829452 0.060013305 -0.009810148
000020 14 9e b0 3c 01 ec 64 bd 08 b4 21 3d 2b ab 47 bc
       0.021559753 -0.055889133 0.03947833 -0.012186806
000030 b9 dc 0a be 7f 1c 94 3d 13 a7 d8 bd d7 5d 08 3e
       -0.13560762 0.07231998 -0.10578742 0.13317047
000040 cd fa 44 3d cf 56 f7 3c ad f6 4c 3d 45 14 a2 bd
       0.048090745 0.03019276 0.050039936 -0.07914022
000050 75 5e ad bd b9 95 0f 3e f7 8f a3 bc e3 7f dc 3d
       -0.08465282 0.14021958 -0.019966109 0.1076658
000060 0b 2c ac be a2 fb 85 bd 74 ec 98 3d e5 88 31 3d
       -0.33627352 -0.06542136 0.07466975 0.043343443
000070 9a 23 96 bd 58 25 b6 3d c7 8b 2b 3d b0 2b 19 be
       -0.07331009 0.088938415 0.04188135 -0.14958072
000080 7c a8 7f bd b7 7f 16 3a a8 c7 8a 3d 31 42 a5 bb
       -0.06241654 0.0005741077 0.06776363 -0.005043291
000090 12 f2 b6 39 02 77 a0 bd 61 06 ab bd c4 b6 2a 3e
       0.00034894102 -0.07835199 -0.08350826 0.16671282
0000a0 d7 e1 da bc 6f 4a 56 3e a2 0a eb bd aa b4 87 3d
       -0.026719017 0.20926832 -0.114766374 0.06626256
0000b0 ae 3a f5 3d 25 2f 67 3d 60 44 81 bd 03 6d 20 bd
       0.11974083 0.056441445 -0.063118696 -0.03916646
0000c0 01 72 5f 3d ca 9d ef ba e7 ea 18 3d f9 14 95 bd
       0.054552082 -0.0018281278 0.037333395 -0.07279391
0000d0 e1 8d 35 be 9d 71 45 3d 61 ff d6 bd 14 3d 1c bc
       -0.17729904 0.048204053 -0.104979284 -0.009536047
0000e0 d4 b8 db bd 3c 97 8a bd 75 dd 7e 3d 70 5f b3 bc
       -0.107286125 -0.06767127 0.062222917 -0.021896094
0000f0 82 76 b2 bb 3c 8e 42 bc bc 67 6b bd 7f 08 7c 3d
       -0.005446256 -0.011874732 -0.057471976 0.06153154
000100 2f 12 98 3d d8 4c 5f 3d 9a d0 be bc ff 39 74 3d
       0.07425343 0.054516643 -0.023292828 0.059625622
000110 b0 26 61 3d 72 0d 82 bb 7d 24 95 bc a3 09 c9 bd
       0.054968536 -0.003968888 -0.018205876 -0.09816291
000120 9c 48 e5 3d dc 27 24 be f6 3b 47 bc 18 09 64 3c
       0.1119549 -0.1603083 -0.012160292 0.013918184
000130 47 7b 57 be 98 f5 67 3b c3 b0 be 3c a3 24 1a bc
       -0.2104312 0.0035394188 0.023277646 -0.009408149
000140 61 4e cb bd 3c 8c d8 bd ac 7b 6e bd 1d b5 8d 3d
       -0.09927059 -0.105736226 -0.05822341 0.0691931
000150 fc fc c9 bd 4e cf 68 3d 8d a1 ab 3c fa 1e 03 3c
       -0.09862706 0.056838326 0.020951057 0.008002991
000160 2f 81 34 3c e5 d9 c7 3c a5 a5 85 bd db fc 02 3d
       0.011017128 0.024395892 -0.06525735 0.031979423
000170 24 3f 06 3e 47 82 37 bd de b8 15 bd d3 6d d4 bd
       0.13110024 -0.044801977 -0.036553256 -0.1037251
000180 e1 91 e7 3b c2 f3 2b be bb 4c 0d 3e 24 20 61 3e
       0.0070669507 -0.16792205 0.13798802 0.21984917
000190 47 cb 93 3d a7 19 1d 3e aa 9f 6c 3d 0a c4 41 bd
       0.072165065 0.15341817 0.057769455 -0.047306098
0001a0 1c 08 b0 39 6f c2 47 3d 15 a6 9f 3d 74 0b 1f bd
       0.00033575378 0.04876941 0.077953495 -0.038829282
0001b0 da 13 29 3b 7c 7e aa 3d 83 38 02 3c f1 7d 31 3d
       0.0025799186 0.08324906 0.007948044 0.043332998
0001c0 20 1b f2 3d 28 92 8e bd e6 52 8c bc b6 62 d1 3d
       0.1182158 -0.06961471 -0.017129373 0.10223906
0001d0 23 8b 5c 3d 5f 21 e7 3d eb cd c4 bc 7e be 46 3c
       0.05384363 0.11285662 -0.02402397 0.012130378
0001e0 d0 c6 0d bb 71 4b ad 3d 3f 7a f3 3d 38 e8 b8 bd
       -0.0021633394 0.08461655 0.11888551 -0.09028667
0001f0 a0 a4 99 3b 76 2c 85 3d 34 ad 97 3d db a0 be bd
       0.0046888143 0.06502621 0.07406083 -0.093080245
000200 89 c9 05 bd f6 f2 ec bd a4 bc 1a bd 8e 8e 4b 3d
       -0.032662902 -0.115697786 -0.037777558 0.049696498
000210 bd c9 ee 3d ac ee b5 3d 91 2c 36 3c 3a 7a 92 3d
       0.11659572 0.08883414 0.011119024 0.07152219
000220 28 d3 5d bd b4 55 66 3d 27 65 b3 3d f2 2d 76 3d
       -0.054156452 0.056234077 0.08759528 0.06010241
000230 0c 5d 69 bd 68 89 9a bc 8b 9c 0f bb 59 1b 20 3d
       -0.056973502 -0.018864349 -0.0021913375 0.03908858
000240 73 e6 34 3b e2 28 af 3d a6 d4 cc bd 47 9c 08 3c
       0.0027603179 0.0855272 -0.10001497 0.008338041
000250 c2 59 fd bd c4 f4 e2 3d c5 fa 61 3b 2a f9 49 3d
       -0.123706356 0.110818416 0.0034481746 0.049309887
000260 a7 f7 88 3d 5c 75 35 bc ef ef 21 3c b0 a0 80 ba
       0.06687861 -0.011075344 0.009883865 -0.0009813514
000270 f3 82 ed 3d 46 6c 46 3b 63 33 2b bd 82 09 d4 bd
       0.11597242 0.0030276938 -0.041797053 -0.10353376
000280 76 21 f4 bd 3d 00 7c be a1 6e 23 bd 78 cd 68 bd
       -0.11920445 -0.24609466 -0.039900426 -0.056836575
000290 13 e2 00 3d 88 42 92 bd e2 eb 2b 3d b6 1e ac 3d
       0.0314656 -0.07141596 0.041973002 0.08404295
0002a0 c4 4d a2 bc c0 32 e8 3d 0c d9 e2 bc 3d d2 41 3b
       -0.019812472 0.11337805 -0.027691387 0.0029574775
0002b0 b0 bc ae be e2 29 ab 3d fa 7f 0d 3d e4 23 70 3d
       -0.34128332 0.08357598 0.034545876 0.058627978
0002c0 38 16 2e 3e 29 44 95 bd 63 ac 11 3e c0 eb 86 bd
       0.17000663 -0.07288391 0.14225917 -0.065879345
0002d0 ff d3 e0 bd d5 eb f5 3d 3f 10 19 3e 9b 69 fb bd
       -0.10977935 0.12007872 0.14947604 -0.12276002
0002e0 57 20 5f bd a7 d4 93 bc 46 d4 40 3e 34 41 df 3d
       -0.0544742 -0.018045736 0.18830976 0.109011084
0002f0 11 34 9f be b9 3c fc 3c 7a e4 90 bd a9 96 59 be
       -0.3109441 0.030790674 -0.070748284 -0.21248879
000300 d4 d6 55 3c a5 68 67 bd 8a 16 88 3d 76 4a 6e 3d
       0.013051707 -0.05649628 0.06644924 0.05817648
000310 55 0f 9b 3e 77 6c b1 3d 5b 0f e1 3b 3a 38 26 bc
       0.30285135 0.08663266 0.0068682856 -0.010145241
000320 a9 db a1 bd 7a a1 a3 3d a0 55 5e 3d 60 81 93 bd
       -0.07903225 0.079897836 0.054280877 -0.07202411
000330 a1 8e 49 be 14 55 94 bc a8 78 13 be 56 df fe 3c
       -0.19683315 -0.018106975 -0.14401495 0.031112354
000340 23 1a a7 3d f2 99 48 3d 9d 7b de bd 01 63 29 3e
       0.08159282 0.04897494 -0.10863421 0.16541673
000350 67 82 1e be 1f b4 fe bd c4 c8 4d be e0 21 a1 3d
       -0.15479432 -0.12436699 -0.20096117 0.07867789
000360 1f 14 90 bd db 31 cf bd 16 24 d8 3d 87 a4 84 bd
       -0.07035088 -0.10116931 0.10553758 -0.064766936
000370 ea 8f 03 be 19 fb 2c 3e a1 1c 19 bd d0 dd 3d bd
       -0.12847868 0.16892661 -0.03738082 -0.046354115
000380 20 4d 60 bd 50 26 d8 3d e5 0c d1 3c 44 5f b8 bd
       -0.054761052 0.105541825 0.025518844 -0.090025455
000390 09 55 91 3c 5e 13 1a be ab 4d 28 bd bb c0 ba 3d
       0.017740743 -0.1504645 -0.041089695 0.09118792
0003a0 e2 ee 79 3d e4 3f 54 bc f9 b6 89 bd 56 7f 61 bc
       0.061018832 -0.012954686 -0.067243524 -0.013763269
0003b0 c0 d5 ef 3c 8c 49 35 3e 06 7a b1 be c8 df 12 be
       0.029276729 0.17703837 -0.3466341 -0.14343178
0003c0 e9 1f 47 3e 7a 01 6a 3d b1 65 1b 3e 44 48 9a 3d
       0.19445767 0.057130314 0.15175511 0.07533315
0003d0 42 6e 4c 3e de 11 79 bc aa b0 83 bd ab 06 19 3e
       0.19963935 -0.015202014 -0.0643018 0.1494395
0003e0 3b 3d dd 3d b3 f7 1b bd e1 7a 95 bd 13 4d ac 3d
       0.108026944 -0.03807802 -0.07298828 0.08413138
0003f0 45 90 a2 bd 26 01 a9 3d d8 13 23 bd 62 8f 43 3d
       -0.079376735 0.08252172 -0.039813846 0.047744162

sequential_1/dense_1/Add/ReadVariableOp:0 f4 [120]
000000 1e 83 e4 3d 15 50 22 3d fd e5 39 3e b9 33 97 3d
       0.11157821 0.039627153 0.1815414 0.07382912
000010 ad 7f 03 3e f0 5a a3 bc f1 69 59 bc 7b 50 a2 3d
       0.12841673 -0.019940823 -0.013269887 0.07925507
000020 f2 0e 0f 3e db 24 4d bc b0 2b 7c 3e 47 7b 79 3d
       0.13970545 -0.012520994 0.2462604 0.060908582
000030 57 aa 00 3e 80 7d cd 3d ec 74 ec 3d a1 08 ae 3d
       0.1256498 0.10033703 0.115457386 0.084977396
000040 5d 56 73 bc 88 7b ec 3d 56 20 82 3d 67 7d 1c bd
       -0.014852134 0.11546999 0.06353824 -0.03820553
000050 fe b3 f5 bb 1b ca a6 3c c5 f1 53 bd 70 43 5b 3d
       -0.0074982634 0.020360043 -0.05174424 0.05353111
000060 44 d3 05 3d 65 67 3f bd bb e3 42 bc 24 d4 6c bd
       0.03267218 -0.046729464 -0.0118951155 -0.0578195
000070 a3 e1 7e 3d 09 d2 74 bd a4 d8 e0 bc df d6 90 3d
       0.062226903 -0.059770618 -0.027447052 0.070722334
000080 49 ba 32 3e c3 36 9a 3d b6 b6 bb bc 89 5b f6 bb
       0.17453875 0.07529976 -0.022914272 -0.007518236
000090 ae 26 1e bc e4 78 ab bb 98 b0 1c bb 18 06 ef 3d
       -0.009652777 -0.005232917 -0.002390897 0.11671084
0000a0 c5 48 9f 3d b4 91 9d 3c 80 41 2a bc ab 4b f8 3b
       0.077775516 0.019234516 -0.010391593 0.0075773797
0000b0 43 8b fa bc 81 a7 b8 3d ae 39 a5 3d c4 40 25 bc
       -0.030583983 0.09016324 0.08067642 -0.010086242
0000c0 c0 75 8a bc df ee 14 3e 08 49 a8 bb 49 46 13 3d
       -0.01690185 0.14544247 -0.005135659 0.0359557
0000d0 46 ff f2 3c cf d5 bc bb 61 ac 1b 3e 26 1d 01 3e
       0.02966274 -0.0057627927 0.15202476 0.12608775
0000e0 f6 d0 1e bd d3 10 3b bc 32 2c 26 3d 25 32 30 3d
       -0.0387735 -0.011417585 0.04056949 0.04301657
0000f0 86 26 0d bd d6 ac 3f 3d 6c 8d 2b 3d b5 84 cc 3d
       -0.034460567 0.04679569 0.041882917 0.09986249
000100 7d f6 a2 3d c1 4d 24 3e fb cb ce bc 77 66 c0 bc
       0.0795717 0.16045286 -0.02524375 -0.023486359
000110 9b 9e 8d 3d 3d 17 a2 3d ff 7e 55 3c 33 fb 85 3c
       0.06915017 0.079145886 0.0130307665 0.016355133
000120 b1 14 f1 3c 0d 1c f6 bc c3 7e fa 3d 7d 9f c1 3d
       0.029428812 -0.030042673 0.12231209 0.09454248
000130 67 f9 08 bd c3 db 8b 3d 62 2f 12 bd 1c 46 15 bc
       -0.033440974 0.068290256 -0.03568972 -0.009110954
000140 4c 26 fd 3d 9d 72 24 bc f3 b4 71 3e 35 d5 28 bc
       0.1236082 -0.010037092 0.23604183 -0.010304739
000150 bb 29 2b 3c fa 78 4f 3d 31 45 c1 3c 2c 7d e3 3d
       0.010446961 0.05065248 0.023592563 0.11107859
000160 5f fa 08 bc 91 65 cf 3d 81 d4 94 bd d3 b7 90 bc
       -0.008360474 0.10126794 -0.072670944 -0.01766578
000170 6f 3f cd 3d 0a de 5d bc 96 d7 97 bd 77 60 03 3e
       0.100218646 -0.013541708 -0.07414167 0.12829767
000180 dd 2c 9a 38 e2 d5 b6 bc 41 ae 9a bc b9 cd 61 3e
       7.351649e-05 -0.022318784 -0.018881919 0.22051133
000190 af c9 c7 3d 74 15 aa bb 0b 56 bd bb 12 d4 cc 3c
       0.09755265 -0.0051905457 -0.0057780794 0.025003467
0001a0 43 23 7c bc ce 24 2a 3d d6 ae 70 bb cf 45 58 3d
       -0.015389266 0.041539006 -0.0036725304 0.05280095
0001b0 8a 33 4e 3e 61 9f bf 3d 51 6b 82 bc 8b b5 95 bc
       0.20136848 0.09356571 -0.015920313 -0.018275043
0001c0 37 2e 06 3d 8c 20 cf 3d b9 27 2d 3d 06 1f 00 bd
       0.032758918 0.1011363 0.04227421 -0.031279586
0001d0 64 f8 c9 3c 6c c3 bb 3d 2a 5f b6 3c b2 8a df bd
       0.024654575 0.09168133 0.022262175 -0.10915126

sequential_1/conv2d_1_2/convolution/ReadVariableOp:0 f4 [16, 6, 5, 5]
000000 d7 af db 3d 4d ec a8 3c 23 28 be 3d 55 c7 55 bd
       0.10726898 0.02062049 0.09284999 -0.05219205
000010 39 4a 70 be c1 a2 87 3d 76 b7 a2 3e 39 4b 48 3e
       -0.23465814 0.0662284 0.31780595 0.19559945
000020 dd 97 a8 3b 65 25 43 be 9c d0 d7 bc b8 b1 4a 3e
       0.0051450566 -0.19057234 -0.02634459 0.19794357
000030 34 b1 17 3c 21 f8 6b be 6b 53 58 be 08 78 9f 3d
       0.009258557 -0.23043872 -0.21125571 0.07786566
000040 4f ce 68 3c e0 5a 9d be 0a 52 a3 be a5 d5 58 bd
       0.014209344 -0.30733395 -0.31898528 -0.052938122
000050 5d d0 07 3c 0d 97 73 be 68 bd 87 be 7f bc 71 bd
       0.008289424 -0.2378809 -0.26511693 -0.059017655
000060 52 38 4e 3e c8 7e 9e 3d 7c 1c 05 3e 39 aa b7 3d
       0.20138672 0.07739025 0.12999147 0.08968014
000070 ff 8a 9c 3d fd 6b 19 be a9 4f e7 3d a3 75 35 3e
       0.07643699 -0.149826 0.11294491 0.17720656
000080 ee 7c 2b 3e 46 38 e5 bc 80 47 62 be d7 3f 01 3e
       0.16746876 -0.027980935 -0.22097588 0.12622009
000090 56 10 16 3e 47 dc 79 bc d9 a8 75 be 0c a4 61 be
       0.14654669 -0.015250272 -0.23990192 -0.22035235
0000a0 24 cb 2e 3e 3f 41 2a 3e 68 2b 89 bd e6 17 92 be
       0.1706968 0.16626452 -0.06697732 -0.28533858
0000b0 1f 9f 03 be 05 da 19 3c 05 58 1f 3d 90 51 82 be
       -0.12853669 0.009390359 0.0389023 -0.25452852
0000c0 0a d0 a1 bd 4f 19 ea bd 16 d0 2d 3e 1c f8 cf bc
       -0.079010084 -0.114306085 0.1697391 -0.025386862
0000d0 5a 1d 1e 3c ce 2a ab bd 92 a6 3e bd 5a 6c 50 3e
       0.009650553 -0.08357774 -0.046545573 0.20353833
0000e0 62 b4 91 3e 39 56 01 3e 2c 7d ed 3d 8e 16 10 be
       0.28457934 0.12630548 0.1159614 -0.14071104
0000f0 41 2f 35 3d 55 d6 14 3e cc d8 54 3e 94 c5 2c 3c
       0.044234518 0.14534886 0.20785826 0.010545153
000100 d2 40 b4 bd fc 84 01 3e 9b 8d 55 bc 0c 5f c2 bd
       -0.08801426 0.12648386 -0.01303425 -0.09490785
000110 80 5a 82 bd 64 16 d4 bc ef ff ae bd 3f 8e d7 3d
       -0.06364918 -0.025889583 -0.08544909 0.10525178
000120 5e 35 0f bd d5 60 97 bd 94 71 42 bc 5a bc dc 3d
       -0.034963004 -0.07391516 -0.011867899 0.10778113
000130 3f b4 d5 3d cd 99 04 3e 77 8e 10 3d 62 9b 6a 3d
       0.1043477 0.12949295 0.035292115 0.05727709
000140 c9 2b c0 bd 22 f6 2f 3d 27 05 2e 3e dc d5 80 3d
       -0.09383351 0.04295934 0.16994153 0.062907904
000150 4c 86 1b bd 18 80 dc 3d 40 57 15 3e 99 3c 8a 3e
       -0.037969872 0.107666194 0.14584064 0.26999357
000160 15 3c f1 3d 1a 34 36 be 88 0a 5a 3e 91 d9 4d 3e
       0.11779038 -0.17793313 0.2129308 0.20102526
000170 26 91 cf 3d 15 48 f6 bd 4c e1 72 be 02 8b 5b 3e
       0.10135107 -0.12025467 -0.23718756 0.21439746
000180 8f 1b 5d 3e e7 dd 9e bd 20 97 95 be fe 0e 56 be
       0.21592544 -0.07757168 -0.29216862 -0.20904157
000190 6b d3 03 3e f1 4e 94 3c 5c 01 54 bd ad 7f 31 bc
       0.12873618 0.018104048 -0.05175911 -0.010833663
0001a0 79 7a d5 bc f0 13 c7 3d de 87 fe 3d 29 dd b7 bb
       -0.026059376 0.097206 0.12428258 -0.005611081
0001b0 1e 26 9b bd 98 f6 8a bd 5b 6c d4 3d 5d 9f f2 3d
       -0.0757563 -0.06785315 0.1037223 0.118468024
0001c0 41 b7 bc 3d d0 75 30 3d cf 83 aa bd 03 e9 c8 bc
       0.092146404 0.043081105 -0.08325922 -0.024525171
0001d0 aa ec 59 3d 7e b1 62 bd f7 92 e9 bd 5c bc 9b bc
       0.053204216 -0.05534505 -0.114049844 -0.019010715
0001e0 c8 88 a0 3d 0c ea e7 3d 4f e5 a9 3d 11 34 03 be
       0.07838589 0.11323938 0.0829569 -0.1281283
0001f0 0c ba 55 bd fc af 0f 3e 00 7b 3f 3d cd 8e ec 3d
       -0.05217938 0.14031976 0.04674816 0.115506746
000200 99 2f d5 bd 68 77 c9 3b 50 7e e4 3d 0b f7 19 3e
       -0.10409469 0.0061482675 0.11156905 0.15035646
000210 f5 0b 05 3e 73 f9 1b be 2d 65 fe bd d8 ce f9 3c
       0.12992842 -0.15231876 -0.124216415 0.030494139
000220 47 b1 4b 3e 40 d3 bd 3d 39 39 68 be 15 6b 29 be
       0.19891845 0.09268808 -0.22678079 -0.16544755
000230 a8 35 38 3e 6d ec 49 3c c0 cd 04 be ab 85 99 be
       0.17989218 0.012324435 -0.12969112 -0.29984793
000240 f4 bb 50 be ee 2f 57 3e bd 7a 22 bb 6c 11 ae be
       -0.20384198 0.21014377 -0.0024792396 -0.33997667
000250 9d d5 64 be 3c a3 57 3b 0e 3c 45 be 93 8c 79 bd
       -0.22347112 0.0032903692 -0.1926119 -0.060925078
000260 7d 13 47 3e 92 81 b7 3c ab 0d 82 bd 3b 19 a4 be
       0.19441028 0.022400651 -0.06350263 -0.320505
000270 cf 49 d4 be 75 64 4d be 3d 53 f3 3d f5 26 b5 3d
       -0.4146256 -0.20057853 0.11881111 0.08845321
000280 65 3d 81 3e 63 89 e4 bd 70 9a 13 bf 09 fc 21 be
       0.25242153 -0.11159017 -0.5765753 -0.158188
000290 52 e3 29 3d d2 d9 04 3f 2d 00 2e 3f 35 c6 fa 3d
       0.041476555 0.5189487 0.6796902 0.12244836
0002a0 c7 f1 0c bf b0 37 28 bf 0f b6 08 3a 1e d2 0c 3f
       -0.5505642 -0.6570997 0.0005215117 0.55008113
0002b0 ac 27 3d 3f 27 d8 ec 3e 79 4f 35 3c d9 a2 42 be
       0.7388866 0.4625866 0.011066311 -0.19007434
0002c0 f2 5d a1 bc b5 d6 61 3d 3c 9e dc bd e4 d7 1e 3d
       -0.019698117 0.0551364 -0.10772368 0.038780108
0002d0 b6 41 cc 3b df e6 fb bb 73 f6 10 be 5b 7d 24 3e
       0.0062334193 -0.007687434 -0.14156513 0.16063444
0002e0 92 cb c7 3c c6 22 c3 3c 6c 71 cb 3c 2d c6 07 be
       0.024389062 0.023820292 0.024834357 -0.13259192
0002f0 93 1f 88 bd f3 9f 4c bd 26 16 8b 3d ff 4b 74 3e
       -0.06646647 -0.049957227 0.06791334 0.23857115
000300 ae 3a 24 3e b3 3b 1a be ed eb 9d be d5 31 0a bd
       0.1603801 -0.15061836 -0.3084406 -0.03373893
000310 f8 57 59 3e f8 47 7a 3e 5d 67 1c 3e ac b0 e7 3b
       0.21224964 0.24441516 0.15273805 0.0070706215
000320 1d 8c 89 be 45 1f 95 be 39 9e d2 3d 86 6d 26 bd
       -0.2686471 -0.2912542 0.10284085 -0.040631793
000330 6f cf 27 be 8a fa 91 be 85 70 1d bf a8 54 27 bd
       -0.16387723 -0.2851146 -0.61499816 -0.04085222
000340 79 fc b4 3e df 97 2d 3e bf 4a 9a 3e 53 25 80 be
       0.3534887 0.16952465 0.30135152 -0.25028476
000350 95 6a 2b bf 69 25 13 be 33 9e 83 3d f0 45 8d 3e
       -0.66959506 -0.1436974 0.064266585 0.2759242
000360 5d b8 05 3f 80 e5 3a bc 9f 22 14 bf 5d 4a ef be
       0.5223444 -0.011407256 -0.5786533 -0.46736422
000370 fe 4c 6f bb 10 5a c8 3e 06 0c 1c 3f ff 9f ac 3e
       -0.0036514397 0.39131212 0.60955846 0.33715817
000380 1e 05 58 3d c6 6c b1 3d 74 89 a4 bd 32 1b 76 3d
       0.052739255 0.08663325 -0.080340296 0.06008453
000390 05 bc 9a 3d ac 58 0c 3e b5 18 15 3d a5 04 3b 3c
       0.07555393 0.137057 0.036400516 0.011414682
0003a0 f7 a4 d6 bd 0c 24 ad bd 2a 10 43 3c 5b 82 41 bd
       -0.10480683 -0.08454141 0.011905709 -0.047243457
0003b0 43 2b cc bd a2 03 22 bd 43 5c f5 3d f1 2a 2b 3e
       -0.09969189 -0.039554246 0.11980488 0.167156
0003c0 b9 5b 7b be af 2e 0a be 97 d0 1d 3d 94 6b 33 3e
       -0.24546708 -0.13494371 0.038529005 0.17521507
0003d0 fe f3 99 3c 74 00 d4 bd 03 2c 92 bc 7c 94 f3 3d
       0.018793102 -0.10351649 -0.017843252 0.118935555
0003e0 3b d4 5b bd 09 29 8f bd de e9 6a bd 80 7e 04 3e
       -0.053669196 -0.06990249 -0.05735194 0.12938881
0003f0 b6 e4 93 bc 01 31 3d bc f4 41 8e 3d 47 b3 31 be
       -0.018053394 -0.011547328 0.06946173 -0.17353545

sequential_1/conv2d_1_2/Reshape:0 f4 [16]
000000 d2 0c 2e 3d 05 d7 96 3d a1 92 96 3e e4 32 86 bb
       0.042492695 0.073652305 0.29408744 -0.004095422
000010 fa bf ed 3d e9 e3 1d 3e 5b ea 56 3e be f8 80 3d
       0.11608882 0.15418972 0.20987837 0.06297444
000020 86 47 1f 3d 4a ef 33 3c fe 38 66 3c d7 48 27 3e
       0.03888657 0.010982344 0.014051674 0.1633638
000030 16 53 94 bc 88 26 72 3e 16 d2 2d bb ed aa fe bc
       -0.018106025 0.23647511 -0.0026522926 -0.031087363

sequential_1/conv2d_1/convolution/ReadVariableOp:0 f4 [6, 1, 5, 5]
000000 d1 2e 8a be 00 03 25 bf 39 29 14 bf 25 5b fc be
       -0.26988843 -0.644577 -0.578754 -0.49288288
000010 76 c6 86 be 3a 86 be be e5 95 c3 be 0c 6a db be
       -0.2632329 -0.37211782 -0.38200298 -0.42854345
000020 af bb f4 be 79 b1 da be 36 33 af 3e 8d 00 14 3e
       -0.4779944 -0.42713526 0.34218758 0.14453335
000030 f6 e6 93 3e 8c f5 f4 3d 5d 10 b3 bd 28 c6 e0 3e
       0.28887147 0.11960897 -0.087433554 0.4390118
000040 26 a1 12 3f 80 0d 16 3f 09 90 d9 3e 88 51 77 3e
       0.57277143 0.5861435 0.42492703 0.24152195
000050 fd 38 78 3e f7 12 93 3e d1 60 8a 3e fe ff e0 3e
       0.2424049 0.28725407 0.2702699 0.43945307
000060 be dc 86 3e 9f f0 10 bf c2 75 0f bf c5 3a 38 bd
       0.26340288 -0.5661716 -0.5603906 -0.044977922
000070 60 c6 f1 bd ee 76 73 3c df 84 bb be c6 75 a4 be
       -0.11805415 0.014859898 -0.3662481 -0.32121104
000080 9e da e8 bc 54 a9 ff bd 31 48 c9 3d 27 ff f2 bd
       -0.028424557 -0.12483469 0.098282225 -0.11865073
000090 88 72 25 be 65 92 13 3e 2c e9 b4 3e 9c f5 21 be
       -0.16156971 0.14411314 0.35334146 -0.15816349
0000a0 40 99 cc 3d d5 9f bb 3e 7b af f5 3e f9 4a 0e 3f
       0.099901676 0.3664538 0.47985443 0.5558315
0000b0 c0 2f 2a 3e 74 2a cb 3e 3f 8c 36 3f 9c a5 43 3f
       0.16619778 0.39680827 0.7130775 0.76424575
0000c0 30 ab 99 3e 84 29 6c be 81 fb 08 be 8f 60 b4 be
       0.30013418 -0.23062712 -0.13377191 -0.35229918
0000d0 8a 23 f6 be 8b bd f5 be fb 96 ed be 29 6b 7f 3e
       -0.4807399 -0.47996172 -0.4640425 0.24943222
0000e0 62 5d 74 3d 2f 5b 92 be 61 5f 1c bf af 0d 18 bf
       0.05965937 -0.28585193 -0.61083037 -0.5939588
0000f0 1e 89 cb 3e a0 75 b6 3e 12 b8 7f 3e 86 38 cf bd
       0.3975305 0.35636616 0.24972561 -0.10118203
000100 12 4b 00 bf d7 f6 db 3e f4 e5 2a 3f f2 75 07 3f
       -0.5011455 0.4296176 0.6675713 0.52914345
000110 04 d1 9c 3e 3a 07 02 be 25 4a 9f 3e 76 9a 20 3f
       0.30628216 -0.12698069 0.31111255 0.6273569
000120 0d 01 16 3f 45 23 f9 3e 3f 77 bc 3d 3b c9 8c be
       0.58595353 0.4865972 0.09202432 -0.27497277
000130 30 05 3f bd 8e 05 70 3e 1e 74 b1 3e 7b 70 ae bd
       -0.046635807 0.23439619 0.34658903 -0.08517548
000140 c0 fb 53 3d c1 6a 64 3d 0d b0 ec 3e c0 e1 d6 3e
       0.05175376 0.05576587 0.46228066 0.4196911
000150 c9 1d d0 bc 57 c2 74 3c f2 ee 33 3e 2b 90 d1 3e
       -0.025404828 0.014938912 0.17571619 0.40930304
000160 10 73 73 3d 3f 71 43 bd 83 e8 50 3e 5c d2 74 3e
       0.059435904 -0.04771542 0.20401196 0.2390837
000170 e7 31 3d 3e aa ec 07 be d1 a9 d3 be cb cb ae 3d
       0.18476067 -0.13273874 -0.41340497 0.08534964
000180 91 ed be bd 79 60 ee bc 6e e3 a7 be 71 9c f8 be
       -0.09322656 -0.029098736 -0.32790703 -0.48556855
000190 6c 17 bd 3d 9a 01 ad 3e 4b f6 c2 3d 0b 44 ce bd
       0.09232983 0.33790284 0.09519633 -0.10071572
0001a0 f6 62 e4 bc 38 c9 43 3e f2 20 bf 3e 48 f4 44 3e
       -0.02787922 0.19119728 0.37329823 0.19233811
0001b0 a2 fb 90 3d e4 0e 45 3e 55 bb fa 3d b8 b3 7c 3d
       0.07079245 0.19243962 0.12242762 0.06169483
0001c0 39 d5 9e 3d 32 c9 7a 3e e5 90 a5 3e 38 12 8b bd
       0.07755513 0.24490812 0.32337108 -0.06790584
0001d0 1f 47 f1 3d 20 10 ed bd fa 6b 38 3e a9 f9 8a 3e
       0.117811434 -0.11575341 0.1800994 0.271436
0001e0 10 1c 90 be 35 a6 af be 96 db 97 be c3 59 c2 bc
       -0.2814641 -0.34306493 -0.29659718 -0.023724442
0001f0 f6 93 5b bd dd 2d 5c bf 59 44 32 bf 2f c2 80 be
       -0.053607903 -0.8600748 -0.6963554 -0.2514815
000200 3d 2e 98 3e dd 35 d0 3e 7f 1e 3b bf b1 35 06 bf
       0.29722777 0.40666094 -0.7309341 -0.52425677
000210 b0 61 0b 3e 3a c4 d2 3e 42 c2 a3 3e aa c6 6f be
       0.13611484 0.41165334 0.31984144 -0.23415628
000220 ce b4 7a 3c dc 2c 21 3f 77 72 4f 3f 60 e2 d8 3e
       0.015301896 0.62959075 0.81034034 0.4236021
000230 14 ba 1f 3d d8 24 05 3f 0b e6 68 3f ea 37 5a 3f
       0.038995817 0.52009344 0.9097602 0.8524157
000240 73 57 e3 3e 90 75 2c 3c 12 1d dd 3e b4 2b b6 3e
       0.44402656 0.010526076 0.4318624 0.35580218
000250 e2 2d f4 3e 30 20 fa bd
       0.47691256 -0.122131705

sequential_1/conv2d_1/Reshape:0 f4 [6]
000000 22 41 fc 3d 39 12 55 bd cb f9 5e 3d c2 d9 4a 3e
       0.123171106 -0.05201933 0.05443744 0.1980963
000010 0c 79 9c bd 64 24 19 be
       -0.07640275 -0.14955288
