models/model.onnx (onnx, 261306 bytes, 10 tensors)

sequential_1/dense_2_1/Cast/ReadVariableOp:0 f4 [84, 43]
0	0xbe0ca1ff	-0.13733672
1	0x3e3ef11b	0.18646662
2	0xbe92283b	-0.28546318
3	0x3e0b359a	0.13594666
4	0x3cdf2be2	0.027242605
5	0x3dd7ddc4	0.10540345
6	0xbda95db3	-0.08269825
7	0x3cad88b3	0.021183347
8	0x3e7b484c	0.24539298
9	0x3d822efe	0.06356619
10	0xbf0dc759	-0.55382305
11	0xbe94fef5	-0.29100767
12	0x3e90ea20	0.28303623
13	0x3d2d8e8c	0.04237227
14	0xbd8dccb3	-0.06923809
15	0x3e98d076	0.29846543
16	0xbe99d3d6	-0.3004443
17	0x3e01593b	0.12631695
18	0x3da686d0	0.08131182
19	0x3db56914	0.08857933
20	0xbe0a7e3f	-0.13524722
21	0xbeb780cf	-0.3584046
22	0x3d6837cc	0.056693837
23	0xbd936127	-0.07196265
24	0xbf1808ff	-0.59388727
25	0x3e47a140	0.19495106
26	0xbd887a2d	-0.06663928
27	0xbce2a83c	-0.027668111
28	0xbda61c8a	-0.08110912
29	0xbe426837	-0.18985067
30	0xbe467b36	-0.19382939
31	0xbdb48ffa	-0.08816524
32	0x3e94c5b3	0.29057083
33	0xbe9d502d	-0.30725232
34	0xbe80a17d	-0.25123206
35	0x3c043934	0.008070279
36	0x3e08ff8e	0.13378736
37	0xbe9a01fe	-0.30079645
38	0x3d7e3d76	0.062070332
39	0xbd2d04fb	-0.042241078
40	0x3e33b0ad	0.17547865
41	0x3e46340d	0.19355793
42	0xbe3be886	-0.1835042
43	0xbeb03f38	-0.34423232
44	0xbedeb6b2	-0.4349876
45	0xbe0b83ac	-0.13624448
46	0x3e6a3a6e	0.22873852
47	0x3e75a9b8	0.23990524
48	0xbd4caa68	-0.0499672
49	0xbd71377a	-0.058890797
50	0xbe1111ad	-0.14166899
51	0xbc898227	-0.016785694
52	0x3c187658	0.009305559
53	0xbd11812d	-0.035523582
54	0x3d4e9106	0.050431274
55	0xbd92e681	-0.071728714
56	0x3d5d3f99	0.05401573
57	0xbe61dd40	-0.22057056
58	0xbd1c9817	-0.03823098
59	0xbeb4e768	-0.353328
60	0xbe6e9455	-0.23298772
61	0xbc89ec15	-0.016836205
62	0x3c09b34a	0.008404562
63	0xbe3dcbc0	-0.18534756
64	0xbd9e8cea	-0.07741721
65	0xbdf2876e	-0.118422374
66	0xbe015cd3	-0.12633066
67	0xbcf71ee0	-0.03016609
68	0x3c9a8577	0.01886247
69	0xbdefdde9	-0.11712248
70	0xbdabc6fc	-0.08387563
71	0xbd398ac0	-0.045298338
72	0x3e673e25	0.225823
73	0xbe88f1b7	-0.26746914
74	0xbd86dc5c	-0.06584999
75	0x3c270762	0.010194631
76	0xbd8e15f8	-0.06937784
77	0x3d222a83	0.039591324
78	0xbe2a1857	-0.16610847
79	0xbdb33b11	-0.087515004
80	0xbeae49bc	-0.3404063
81	0x3e950f62	0.291133
82	0xbea646bb	-0.32475838
83	0xbedc598b	-0.43037066
84	0xbc8f5054	-0.017494358
85	0xbd491f98	-0.049102396
86	0xbeb6cde3	-0.35703954
87	0xbe268320	-0.16260958
88	0x3da43777	0.080183916
89	0xbda1c11d	-0.078981616
90	0xbdba9857	-0.09111088
91	0xbd8b4e84	-0.06802085
92	0xbf5fad6a	-0.87373984
93	0x3d6f7b40	0.05846715
94	0xbdd8c134	-0.105837256
95	0x3b68c8ba	0.0035520033
96	0x3e77868c	0.2417242
97	0xbe4cc1e7	-0.19995843
98	0xbea0dc87	-0.3141825
99	0x3d31f5d0	0.043447316
100	0x3e4cb8e5	0.19992407
101	0x3ceed9bc	0.029156558
102	0xbe0bf0e1	-0.13666107
103	0x3c5fde05	0.013663773
104	0x3db704fc	0.089364976
105	0x3dc17519	0.09446163
106	0xbd6567fc	-0.05600737
107	0xbe17226a	-0.14759222
108	0x3dd47d64	0.10375479
109	0xbe6eec95	-0.23332436
110	0x3e310c84	0.1728993
111	0xbd736588	-0.059423
112	0xbc7633cb	-0.015026997
113	0x3d628d80	0.055310726
114	0xbdb28aef	-0.08717906
115	0xbe4daef1	-0.20086266
116	0x3e61a263	0.22034602
117	0xbea07d7b	-0.31345734
118	0xbec00d13	-0.37509975
119	0x3e691640	0.22762394
120	0xbd209fd8	-0.03921494
121	0xbde99777	-0.11405843
122	0xbdbe46e1	-0.09290863
123	0x3ca36de8	0.019949868
124	0x3db90a80	0.09035206
125	0x3e51be06	0.20482644
126	0xbeadf79b	-0.3397797
127	0xbf3577e0	-0.7088604
128	0xbe9c17ca	-0.304869
129	0x3e8f76ef	0.28020427
130	0x3e46d6e4	0.19417912
131	0xbdc26fe5	-0.094939984
132	0xbe28b1ac	-0.16474026
133	0x3d3c52c9	0.045977388
134	0x3e2a5a5d	0.16636033
135	0x3e038c24	0.12846428
136	0x3e613eb0	0.2199657
137	0x3e06af32	0.13152769
138	0xbe2bd482	-0.16780284
139	0x3dde707a	0.10861297
140	0xbeb893c5	-0.3605024
141	0xbe0742d7	-0.13209091
142	0xbcddb207	-0.02706243
143	0xbe84567f	-0.2584724
144	0x3d533d6c	0.05157225
145	0xbd9fdc79	-0.07805724
146	0xbe77e21c	-0.24207348
147	0xbd103c4c	-0.035213754
148	0x3df0eb24	0.117635995
149	0x3dcdb561	0.10044361
150	0xbef46b12	-0.47737938
151	0xbe4b3948	-0.1984607
152	0x3ce9f3b0	0.028558582
153	0x3e8b3fb5	0.27197042
154	0xbec1aa61	-0.378253
155	0xbdfd857f	-0.12378978
156	0xbe8cdb24	-0.2751094
157	0x3e115401	0.14192201
158	0xbd962f75	-0.073332705
159	0xbf14fae1	-0.5819531
160	0xbe14d265	-0.14533384
161	0xbe6b8374	-0.22999364
162	0x3dd7d7b9	0.10539193
163	0xbea806ee	-0.32817787
164	0x3e423c6d	0.18968363
165	0xbe84ddb3	-0.25950393
166	0x3de90266	0.113774106
167	0xbd7d1718	-0.061789602
168	0x3e60b016	0.21942171
169	0x3e43caa6	0.19120273
170	0xbee5f37b	-0.44912323
171	0x3dc15a4b	0.0944105
172	0xbd9afb22	-0.07567431
173	0x3df88fbb	0.121367894
174	0x3e2abf56	0.16674551
175	0xbd148108	-0.036255866
176	0x3e6d8705	0.23196037
177	0x3e6bf530	0.2304275
178	0x3e5f25fc	0.21791834
179	0x3e8d0ea4	0.27550232
180	0x3e392958	0.18082178
181	0xbd9398b4	-0.0720686
182	0xbdddc482	-0.108284965
183	0xbf214669	-0.6299806
184	0x3e32ae6b	0.17449348
185	0x3ea1c29b	0.31593785
186	0xbe50b2fe	-0.2038078
187	0x3d030bc8	0.031993657
188	0x3d81dd64	0.06341055
189	0x3e18751c	0.14888424
190	0xbe838cd3	-0.25693378
191	0x3d9feea7	0.07809191
192	0xbf11cd5a	-0.56953967
193	0xbd4a5596	-0.049398027
194	0xbeb80477	-0.35940906
195	0xbed70217	-0.41993782
196	0x3e7c1595	0.24617608
197	0xbe8c92e7	-0.27455828
198	0xbf03829d	-0.51371175
199	0xbf2d8b7d	-0.6779097
200	0xbe4f12d0	-0.2022202
201	0xbdf62b98	-0.120200336
202	0xbf524182	-0.82131207
203	0xbef2580b	-0.47332796
204	0x3e1426f6	0.14467987
205	0xbdc82424	-0.09772518
206	0xbed91e08	-0.42405725
207	0x3ca34567	0.019930555
208	0xbe3522bf	-0.17689036
209	0xbeaf0079	-0.34180048
210	0xbde689d6	-0.11256759
211	0x3d9ba588	0.07599932
212	0xbe2db034	-0.16961747
213	0x3d7fb282	0.062426098
214	0x3e5d3822	0.21603444
215	0xbd3654a3	-0.04451431
216	0x3e489e73	0.19591694
217	0x3dc0856b	0.094004475
218	0x3e31d0d4	0.17364818
219	0xbdce507c	-0.10073945
220	0xbd8be1c0	-0.06830168
221	0x3dbf99da	0.09355517
222	0xbe5b1f03	-0.21398549
223	0xbebb7af2	-0.36617237
224	0xbe30bc81	-0.17259409
225	0xbeb4195b	-0.35175595
226	0x3d75089d	0.059822667
227	0x3eaff71b	0.34368214
228	0xbdda9a95	-0.106740154
229	0x3dde9532	0.108683005
230	0xbe0e3e9f	-0.13891076
231	0xbe83262a	-0.25615054
232	0x3e1c74ad	0.15278883
233	0xbeafd2c3	-0.34340486
234	0xbee5e0cb	-0.44898066
235	0x3da2b1a1	0.07944036
236	0x3e0d9c09	0.13829054
237	0xbe20876d	-0.15676661
238	0x3dc4ec84	0.09615424
239	0xbece7ce7	-0.40329668
240	0xbe573134	-0.21014863
241	0xbd15130f	-0.03639513
242	0xbecd08bb	-0.40045723
243	0x3e8d2c4b	0.27572855
244	0x3d98e75d	0.07466004
245	0xbebba7ea	-0.36651546
246	0xbdf14228	-0.117801964
247	0x3d395112	0.04524333
248	0x3c9f8266	0.019471359
249	0xbe9a6d3d	-0.30161467
250	0x3e0f7e55	0.14013036
251	0x3db65cc4	0.089044124
252	0xbec763dd	-0.38943377
253	0x3e066c7d	0.13127322
254	0xbe901dab	-0.28147635
255	0xbd94dfb3	-0.0726923

sequential_1/dense_2_1/Add/ReadVariableOp:0 f4 [43]
0	0xbdff9f32	-0.12481536
1	0x3c54dd9e	0.012992291
2	0xb9a92806	-0.00032264012
3	0x3dc7c031	0.097534545
4	0x3deeaafe	0.11653708
5	0x3de88b58	0.11354703
6	0x3e223312	0.15839794
7	0x3d89d862	0.06730725
8	0x3e16c9ca	0.14725414
9	0xbd8ef539	-0.06980366
10	0xbd831693	-0.0640079
11	0xbde03b01	-0.10948754
12	0x3c9bd491	0.019022258
13	0x3b9c54cf	0.004770852
14	0xbb55144a	-0.0032513314
15	0xbd611239	-0.05494902
16	0xbe314aaa	-0.17313638
17	0xbdf32fe8	-0.11874372
18	0x3e15544c	0.14582938
19	0xbe1eb7c0	-0.15499783
20	0x3e27eea2	0.16399625
21	0xbe09ab39	-0.13444223
22	0xbe92a69e	-0.28642744
23	0xbe100032	-0.14062575
24	0x3e364422	0.17799428
25	0x3d04facc	0.03246574
26	0xbd37531b	-0.04475699
27	0xbd30c821	-0.043159608
28	0xbc54bcb9	-0.012984448
29	0xbdf2545b	-0.11832496
30	0x3e1f97d4	0.15585262
31	0x3df57582	0.119853035
32	0x3e17a1fa	0.14807883
33	0x3d0bb0e9	0.03410426
34	0xbe13bca0	-0.14427423
35	0xbdf6172a	-0.12016137
36	0xbd727ac6	-0.059199117
37	0xbe23fed3	-0.16015176
38	0x3ce58707	0.028018488
39	0xbc39c718	-0.011338972
40	0xbe32e14b	-0.17468755
41	0xbe837413	-0.25674495
42	0xbd974edb	-0.07388087

sequential_1/dense_1_2/Cast/ReadVariableOp:0 f4 [120, 84]
0	0x3e39bd6a	0.18138662
1	0xbdcfe8b9	-0.1015181
2	0xbe4468c8	-0.19180596
3	0x3e275541	0.16341116
4	0x3e970dd1	0.2950273
5	0xbd2c9be1	-0.042140845
6	0xbd3d35c3	-0.04619385
7	0x3e45922c	0.19294041
8	0x3c005c62	0.007834526
9	0xbc27cbd4	-0.0102414675
10	0xbe023c59	-0.12718333
11	0x3e89e9f8	0.26936316
12	0x3e7cc944	0.24686152
13	0xbdafdafc	-0.0858669
14	0xbcce53f6	-0.02518652
15	0x3c38fd32	0.011290835
16	0xbe473fdb	-0.19457953
17	0x3e62de17	0.22155033
18	0xbde37795	-0.11106793
19	0xbd98058b	-0.07422932
20	0xbebdb626	-0.3705303
21	0xbe246584	-0.1605435
22	0x3e9f0a14	0.31062376
23	0xbe9a2bb8	-0.3011148
24	0xbe8736f9	-0.26409128
25	0xbcb17dbd	-0.021666402
26	0xbe1180e2	-0.14209321
27	0xbe933c83	-0.28757104
28	0xbe22df63	-0.15905528
29	0xbd0f90ef	-0.03505033
30	0xbcca0e63	-0.024665063
31	0x3df3eab8	0.119100034
32	0xbe99455e	-0.29935735
33	0xbca611f3	-0.02027223
34	0xbd2319e6	-0.03981962
35	0xbea38a0a	-0.31941253
36	0x3d27dfee	0.04098504
37	0x3dc3ab84	0.095541984
38	0x3dc48746	0.09596114
39	0x3ec3916b	0.38196883
40	0xbd9b24a6	-0.075753495
41	0xbd98e348	-0.074652255
42	0x3d48c27a	0.049013592
43	0x3e0ce156	0.13757834
44	0xbd9478f5	-0.07249633
45	0x3d7e6ad5	0.0621136
46	0x3d944b32	0.07240905
47	0xbdae25cf	-0.08503305
48	0xbcea4e88	-0.0286019
49	0xbdf4d4e5	-0.11954669
50	0x3de4dac6	0.1117454
51	0x3e5e2492	0.21693638
52	0xbe211216	-0.15729555
53	0x3e1729a1	0.14761974
54	0xbdfc5b59	-0.12322111
55	0x3e6ac01f	0.22924851
56	0xbe115e30	-0.14196086
57	0x3d8e1889	0.069382735
58	0x3cc4d289	0.024026172
59	0xbe18265b	-0.14858381
60	0x3d6b67f3	0.05747218
61	0x3e9d18a0	0.3068285
62	0xbe900e15	-0.28135744
63	0xbe5c6b10	-0.21525216
64	0xbdb2e21e	-0.08734535
65	0xbd6cbb60	-0.057795882
66	0x3e42322d	0.18964453
67	0xbc9d2c79	-0.019186245
68	0x3dd5f5bc	0.10447261
69	0x3e13ed0e	0.14445898
70	0x3d96d924	0.07365635
71	0xbe9e72a9	-0.30946854
72	0x3dd852ed	0.10562692
73	0xbdb1aefa	-0.08675952
74	0xbc08a288	-0.008339532
75	0x3e372777	0.17886148
76	0x3ca3c1dd	0.019989902
77	0x3e1466a1	0.14492275
78	0x3e32ed66	0.17473373
79	0xbe0848e8	-0.13309062
80	0xbd151be1	-0.03640354
81	0xbe82367b	-0.2543219
82	0xbe6f06f1	-0.23342492
83	0xbc779b6d	-0.01511274
84	0x3d8bd843	0.06828358
85	0xbe6efab8	-0.23337829
86	0xbda55ced	-0.08074365
87	0x3deb6fbb	0.1149592
88	0x3e530715	0.2060817
89	0x3d999456	0.07498996
90	0x3de28e3a	0.11062284
91	0x3e34308a	0.17596641
92	0xbe1dd3e1	-0.15412857
93	0x3c716350	0.014733151
94	0x3d8b9758	0.06815976
95	0x3ddb7620	0.1071589
96	0x3d958423	0.07300594
97	0xbdba801b	-0.091064654
98	0xbdf44279	-0.11926741
99	0xbcd24930	-0.025669664
100	0x3dba315d	0.090914465
101	0xbe13fe74	-0.14452535
102	0x3dd14d2a	0.10219796
103	0xbd85cc04	-0.065330535
104	0x3e8e4363	0.27785787
105	0x3db0e531	0.08637465
106	0x3d9c3764	0.076277524
107	0x3c9b02a4	0.018922158
108	0xbe40c96b	-0.18826835
109	0x3d96ab21	0.07356859
110	0xbdf1e8cc	-0.118119806
111	0xbec7d284	-0.39027798
112	0x3d229744	0.03969504
113	0x3c009dfa	0.007850165
114	0x3d092f1d	0.033492196
115	0x3e7cf1b5	0.24701579
116	0x3d85fdef	0.065425746
117	0xbe207326	-0.15668926
118	0xbe0646e7	-0.13112985
119	0x3e99e9f2	0.300613
120	0x3da9097f	0.08253764
121	0xbc0d9131	-0.008640573
122	0xbe156125	-0.14587839
123	0x3dd6e7c3	0.10493424
124	0x3db5ba8d	0.08873472
125	0xbe17f9b5	-0.1484135
126	0xbd5099e6	-0.05092802
127	0x3d48ee1d	0.049055208
128	0x3c8bb76a	0.017055232
129	0x3d69db98	0.057094187
130	0xbd4ecbce	-0.050487332
131	0xbe212fac	-0.15740842
132	0x3e273a14	0.16330749
133	0xbd8b1afe	-0.06792258
134	0x3e0912a7	0.13386022
135	0x3e22e787	0.15908633
136	0x3e1127f4	0.14175397
137	0x3e837ec0	0.2568264
138	0xbc3a1b15	-0.011358996
139	0x3e9973e6	0.29971236
140	0x3d917698	0.07102698
141	0x3d662555	0.056187946
142	0x3db1ae27	0.08675795
143	0xbe8ef2da	-0.27919656
144	0x3da0a5e5	0.07844142
145	0x3dce9179	0.100863405
146	0xbddfed93	-0.109339856
147	0x3d5d2a8a	0.053995647
148	0x3e1f77fb	0.15573113
149	0xbe197a9b	-0.14988177
150	0x3ca02142	0.019547109
151	0x3e8f036b	0.27932295
152	0x3dfa417f	0.12219524
153	0x3c7ba4cb	0.015359114
154	0xbd999e01	-0.0750084
155	0x3d606a38	0.054788798
156	0xbe1363af	-0.14393495
157	0x3d84c908	0.06483656
158	0x3ca92db4	0.020651676
159	0xbe1cedb0	-0.15325046
160	0xbd167864	-0.036735907
161	0xbe9c9e47	-0.30589506
162	0x3e81153e	0.2521152
163	0xbd867ebe	-0.06567143
164	0xbdb1fdae	-0.08690964
165	0xbc4a50a4	-0.012348328
166	0x3d27318c	0.040818736
167	0xbe3dd801	-0.1853943
168	0x3e0b0177	0.13574778
169	0xbe84f0f2	-0.25965077
170	0x3e115ecf	0.14196323
171	0x3dd02f96	0.10165326
172	0xbe245994	-0.16049796
173	0xbe5dc245	-0.21656139
174	0x3e56a6df	0.20962094
175	0x3e43d4c9	0.1912414
176	0xbdf31d6e	-0.11870848
177	0xbe72062d	-0.23635168
178	0x3db176cf	0.08665239
179	0x3c950263	0.018189615
180	0xbc126a19	-0.008936428
181	0x3dd3c2db	0.103399
182	0x3dba5909	0.09099013
183	0xbd257a89	-0.04040006
184	0xbdbf6054	-0.09344545
185	0xbe9a678d	-0.30157128
186	0xbe081f5b	-0.13293211
187	0x3c896f39	0.016776668
188	0xbcbcb24d	-0.02303424
189	0x3d13911f	0.03602707
190	0xbe0e3e62	-0.13890985
191	0x3d999e1d	0.07500861
192	0x3dd51d1d	0.104059435
193	0xbe495123	-0.19659857
194	0xbe4263e8	-0.18983424
195	0xbd1e6ff4	-0.038680986
196	0x3e0e67e6	0.13906822
197	0xbe2605c0	-0.16213131
198	0x3e2ce991	0.16885974
199	0x3d73d10b	0.05952553
200	0x3e34374c	0.17599219
201	0x3b2db111	0.0026503245
202	0x3dc505e8	0.09620267
203	0x3d39b332	0.04533691
204	0x3debebbd	0.11519573
205	0x3e3dd5e2	0.18538621
206	0x3c4e4c5f	0.0125914505
207	0x3c2dbb34	0.010603715
208	0xbdc658db	-0.096849166
209	0x3df7a350	0.12091696
210	0x3e3638c2	0.17795089
211	0xbe9bb210	-0.30409288
212	0x3e3100cf	0.17285465
213	0x3d173ff3	0.03692622
214	0x3da81922	0.08207919
215	0x3e501a7b	0.20322601
216	0xbe0dd397	-0.13850246
217	0xbce33357	-0.027734442
218	0xbd88881c	-0.06666586
219	0x3e0c4dfb	0.13701622
220	0xbd93bf73	-0.072142504
221	0x3e203260	0.15644217
222	0x3e0c251f	0.13686036
223	0xbd90dd3f	-0.07073449
224	0x3e5c71de	0.21527812
225	0xbd9f6519	-0.07782955
226	0xbcebe418	-0.028795287
227	0xbda1cec3	-0.07900765
228	0xbd15a21a	-0.036531545
229	0x3c4dd13e	0.012562094
230	0x3d351b5f	0.044215556
231	0x3c993e44	0.018706448
232	0x3dca6a04	0.09883502
233	0x3df7dcd5	0.12102667
234	0x3cd16820	0.025562346
235	0xbb9d556d	-0.0048014433
236	0x3ddcceb1	0.10781611
237	0xbd9c57cc	-0.076339334
238	0x3e3e8490	0.18605256
239	0x3e402e1f	0.18767594
240	0xbddd4166	-0.108034894
241	0x3dcc2968	0.09968835
242	0xbe0181a2	-0.12647107
243	0xbe1771be	-0.14789483
244	0x3e7fc418	0.24977148
245	0xbcdab550	-0.026697785
246	0xbe10d4b7	-0.14143644
247	0x3e49625b	0.19666426
248	0x3da78681	0.081799515
249	0xbd3411f5	-0.043962438
250	0x3df414bd	0.11918018
251	0xbe596aad	-0.212321
252	0x3ecf6ed4	0.40514243
253	0x3d9cd75b	0.07658263
254	0x3d861ef5	0.06548873
255	0x3e3bc559	0.18337001

sequential_1/dense_1_2/Add/ReadVariableOp:0 f4 [84]
0	0x3db54c3e	0.08852433
1	0xbd8f42f2	-0.06995191
2	0x3e00c3e8	0.12574732
3	0x3da0ecd9	0.07857675
4	0x3e74bb0c	0.23899478
5	0x3e1243b6	0.14283642
6	0x3c69b2fc	0.014263865
7	0x3ddacfb7	0.1068415
8	0x3e3c0bad	0.18363829
9	0x3e47234c	0.19447058
10	0x3df940c5	0.12170557
11	0x3d8e3f01	0.06945611
12	0xbdbc37c4	-0.09190324
13	0x3dc8fa4e	0.09813367
14	0xbdecc099	-0.115601726
15	0xbcda0b7d	-0.026616806
16	0x3e1df6d4	0.15426189
17	0x3dbde921	0.092729814
18	0xbc295a97	-0.01033654
19	0x3db37230	0.08762014
20	0xbd648cac	-0.055798218
21	0xbdae9075	-0.08523647
22	0x3e617b53	0.220197
23	0x3e691fbb	0.2276601
24	0xbdc7b483	-0.09751227
25	0x3df61ad1	0.120168336
26	0xbdddcda7	-0.10830241
27	0x3ddf316b	0.108980976
28	0x3d2d7e9a	0.042357065
29	0xbc2dfc40	-0.010619223
30	0x3b6a4f37	0.0035752782
31	0x3d8392b9	0.064244695
32	0xbe0f6c77	-0.1400622
33	0x3d5f8e73	0.05457921
34	0x3e3ac7fb	0.18240349
35	0x3e01e89d	0.12686391
36	0xbc89e859	-0.016834425
37	0x3d8ce98a	0.068804815
38	0xbcdc1593	-0.026865756
39	0x3dace411	0.08441938
40	0x3dbfc88e	0.09364425
41	0xbdae6528	-0.08515388
42	0x3e422ad0	0.18961644
43	0x3d6b220c	0.057405517
44	0x3d215a4b	0.03939275
45	0xbd87013e	-0.06592034
46	0xbcfd13be	-0.030893203
47	0x3dcf97e8	0.10136396
48	0x3cf3e7e2	0.029773656
49	0x3e12d7c6	0.14340124
50	0x3d6f0551	0.05835468
51	0x3e1d2863	0.15347438
52	0x3dcfdb30	0.101492286
53	0x3dc56b9b	0.09639665
54	0xbdc06d6c	-0.093958706
55	0x3e16c269	0.14722599
56	0x3dcc6861	0.09980846
57	0xbc544e1d	-0.012958077
58	0xbc029b4d	-0.007971597
59	0x3bd9f063	0.006650971
60	0x3d08333d	0.03325199
61	0xbd77e7d2	-0.060523815
62	0x3e32a7fc	0.17446893
63	0xbddd6905	-0.108110465
64	0xbc668cf9	-0.014071696
65	0xbd2c493c	-0.04206203
66	0xbd9b7ce1	-0.07592178
67	0x3e47465d	0.19460435
68	0x3d986ba8	0.07442409
69	0xbd560d3d	-0.05225872
70	0x3d3333bb	0.043750506
71	0x3e0ea4c8	0.13930047
72	0xbcb3b26b	-0.021935662
73	0x3e6bb017	0.23016392
74	0x3cec4ae8	0.028844312
75	0x3d61b6ca	0.05510596
76	0x3e0664ba	0.13124362
77	0x3da829c3	0.082110904
78	0x3dd4fb48	0.103994906
79	0x3d0b1e63	0.033964526
80	0x3da452d8	0.08023614
81	0xbe5a9e81	-0.21349527
82	0x3e2c8999	0.16849364
83	0xbe4f2e1d	-0.20232435

sequential_1/dense_1/Cast/ReadVariableOp:0 f4 [400, 120]
0	0xbd8949c9	-0.067035265
1	0xbdd4c0f1	-0.10388363
2	0xbc82b09e	-0.015953358
3	0xbc04032d	-0.008057398
4	0xbcae0dff	-0.021246908
5	0xbce028d8	-0.027363226
6	0xbdee8e13	-0.11648192
7	0x3d197842	0.037468202
8	0x3d8704c8	0.06592709
9	0x3d828045	0.06372122
10	0xbd882dc2	-0.066493526
11	0x3da3203d	0.07965133
12	0x3d923a2d	0.071400024
13	0x3d5f85aa	0.05457083
14	0xbe00966d	-0.12557383
15	0xbdd1aa27	-0.10237532
16	0xbd17e946	-0.0370877
17	0xbdd2ad97	-0.10287016
18	0xbe02e4f4	-0.12782651
19	0xbdba32c9	-0.09091718
20	0x3bc22093	0.0059242933
21	0xbd8c89b2	-0.06862201
22	0xbd4ea8de	-0.050454013
23	0xbd148fdd	-0.03627001
24	0x3e379a17	0.17929874
25	0xbd83545f	-0.06412577
26	0xbc2c4988	-0.010515578
27	0xbcc34215	-0.023835221
28	0x3de0fa60	0.10985255
29	0xbd5b90f4	-0.053605035
30	0x3e5e753b	0.21724407
31	0x3ce9b19b	0.028527072
32	0x3d90e440	0.07074785
33	0x3e123206	0.14276895
34	0xbd00c1c5	-0.031434793
35	0x3d13241a	0.0359231
36	0x3d4d5615	0.050130922
37	0xbc743c39	-0.014906936
38	0x3d087b3d	0.033320654
39	0x3e26c56b	0.16286246
40	0x3df0ee8c	0.11764249
41	0xbd503e93	-0.050840925
42	0x3d9ea471	0.077462085
43	0xbd2d3a09	-0.042291675
44	0x3e2e0245	0.16993053
45	0x3d16d367	0.036822703
46	0xbb323d34	-0.0027197124
47	0x3e1acb97	0.15116726
48	0x3cbf155f	0.02332562
49	0xbe026fdf	-0.12737988
50	0x3e2c2818	0.1681217
51	0xbdbb11dd	-0.091342665
52	0xbbb1b228	-0.005422849
53	0x3dc9fe7b	0.098629914
54	0xbe181492	-0.14851597
55	0x3dbbce19	0.091701694
56	0x3df8137d	0.12113092
57	0xbc5ee327	-0.013603962
58	0x3e50ad88	0.20378697
59	0x3daa950f	0.08329212
60	0xbd1ca41d	-0.038242448
61	0x3be59685	0.0070064687
62	0xbe0259c2	-0.12729552
63	0x3c134194	0.008987803
64	0x3b3c08d7	0.0028691792
65	0xbdbf1fdb	-0.09332248
66	0xbc3b9265	-0.011448477
67	0x3d9bf2fa	0.076147035
68	0x3d6b00f4	0.057373956
69	0xbda4d775	-0.08048908
70	0xbc75d50d	-0.015004409
71	0xbd2f32c2	-0.042773016
72	0xbdd793db	-0.10526248
73	0x3db698cb	0.08915862
74	0xbe1e1632	-0.15438154
75	0xbd39dd2f	-0.045376953
76	0x3d5df176	0.054185353
77	0xbd916042	-0.07098438
78	0xbc9f5eba	-0.019454349
79	0x3cb7f298	0.022454545
80	0x3d6eff34	0.05834885
81	0xbb375417	-0.0027973705
82	0xbd896bb7	-0.06709998
83	0x3c4a2f50	0.012340382
84	0xbd8f72f3	-0.07004347
85	0xbdb5a46e	-0.08869253
86	0xbd554c85	-0.052074928
87	0x3d32536d	0.043536592
88	0xbd85a3a7	-0.06525355
89	0xbe67c398	-0.22633207
90	0xbd9d8dfa	-0.076930955
91	0xbe170341	-0.14747335
92	0xbd9a043f	-0.07520341
93	0x3be011e6	0.006838071
94	0x3d4410b7	0.047867503
95	0xbc2e0c9e	-0.010623125
96	0x3e0bc295	0.13648446
97	0x3d38d31d	0.04512321
98	0x3e06d135	0.13165744
99	0xbc8f0945	-0.017460475
100	0xbd0cf949	-0.034417424
101	0xbd1d2dac	-0.038373634
102	0xbe1f707b	-0.15570252
103	0x3d983ca7	0.074334435
104	0xbe5e1db0	-0.21691012
105	0xbc4ebba7	-0.012617982
106	0xbcec875c	-0.028873138
107	0xbda466f6	-0.08027451
108	0xbdae647a	-0.08515258
109	0x3e001164	0.12506634
110	0xbdd47d98	-0.103755176
111	0x3d920e57	0.07131641
112	0xbde8ee8f	-0.113736264
113	0x3c29eed1	0.01037188
114	0xbd050416	-0.0324746
115	0xbdd3e744	-0.10346845
116	0x3cc6791b	0.02422767
117	0xbcbb9728	-0.022899225
118	0xbd6ce37b	-0.05783413
119	0x3dc98111	0.098390706
120	0xbc87030c	-0.016480945
121	0xbc4377e0	-0.011930436
122	0xbc92a698	-0.017901704
123	0x3d7f668a	0.06235365
124	0xbd8c9130	-0.0686363
125	0xbc9ce520	-0.019152224
126	0x3d58988a	0.052879848
127	0xbce893a8	-0.02839072
128	0xbd774edc	-0.06037794
129	0x3d09bd5e	0.03362786
130	0x3d5fe7be	0.054664366
131	0xbd802ed3	-0.06258931
132	0x3da3f3a9	0.08005459
133	0xba0be900	-0.0005337149
134	0xbb2106e0	-0.0024570748
135	0x3cb4fdc4	0.022093661
136	0x3d2589de	0.040414684
137	0xbcdc8808	-0.026920334
138	0xbd042360	-0.0322603
139	0x3c17b388	0.009259112
140	0xbdcb9bf8	-0.09941858
141	0x3d916839	0.07099957
142	0xbc274fa8	-0.010211863
143	0x3c862ba0	0.016378224
144	0xbd6baaf8	-0.057536095
145	0x3daa75f1	0.08323277
146	0xbd077d3e	-0.033078425
147	0x3d3323be	0.04373526
148	0xbc37ad28	-0.011210717
149	0xbd7accbb	-0.061230402
150	0x3d87634d	0.06610737
151	0x3d8c1fbf	0.068419926
152	0x3cae5444	0.021280415
153	0xbd8cfdb5	-0.06884328
154	0xbcacaeb4	-0.021079399
155	0xbd77d294	-0.060503557
156	0x3d7a6596	0.061132036
157	0x3cf32a44	0.02968324
158	0xbb982a00	-0.0046436787
159	0xbd7a8b65	-0.061168093
160	0x3cd60924	0.026127405
161	0xbc1a6290	-0.009422913
162	0xbdcc0f30	-0.09963834
163	0x3d709b76	0.05874201
164	0x3a24ed00	0.0006291419
165	0xbdab68c6	-0.08369593
166	0xbdcea89d	-0.10090754
167	0x3abd6840	0.0014450625
168	0xbd688074	-0.056763127
169	0x3c335750	0.01094611
170	0x3d104e6e	0.035231046
171	0xbda948f6	-0.08265869
172	0xbb1fb6e0	-0.0024370477
173	0x3cc11634	0.023570158
174	0xbdbf31df	-0.09335684
175	0xbd4496cd	-0.047995377
176	0x3d9cc1bf	0.07654142
177	0xbdc881cc	-0.09790382
178	0x3d1a2bd6	0.03763946
179	0xbdb7be7a	-0.089718774
180	0xbdac0249	-0.08398873
181	0x3dc3f5a3	0.09568336
182	0x3d079402	0.033100136
183	0x3d9d2855	0.07673708
184	0x3d582386	0.052768253
185	0xbd288746	-0.04114463
186	0x3dc0d1f1	0.09415043
187	0x3cdc75ec	0.026911698
188	0x3d6f894e	0.058480553
189	0xbdcd0e8f	-0.100125425
190	0xbdb772e8	-0.089574635
191	0x3d6a0102	0.057129867
192	0x3d8076f7	0.06272691
193	0x3d002742	0.03128744
194	0xbcf84668	-0.03030701
195	0xbdb5873c	-0.088636845
196	0x3d1c8f76	0.038222753
197	0x3dc1700f	0.094452016
198	0xbdd7015e	-0.10498308
199	0xbdd9bb01	-0.10631371
200	0xbdb737e9	-0.08946211
201	0xbd9abaa8	-0.07555133
202	0xbd37cebc	-0.04487489
203	0x3da1509b	0.078767024
204	0xbb825a40	-0.003978044
205	0x3b0cf4e0	0.0021508262
206	0xbd622099	-0.05520687
207	0xbd587025	-0.052841324
208	0xbdcc05ce	-0.09962045
209	0xbd9aba6a	-0.07555087
210	0x3d97f36f	0.07419478
211	0x3cbeb624	0.02328021
212	0x3d7a5bce	0.061122708
213	0x3b5f9580	0.0034116209
214	0xbc3d75b0	-0.011563703
215	0xbcff7b04	-0.031186588
216	0x3d6119ce	0.05495625
217	0x3db0e619	0.08637638
218	0x3d29729a	0.04136906
219	0xbbd6a060	-0.00654988
220	0xbd3db8dd	-0.046318877
221	0xbd1e535e	-0.038653724
222	0xbd80f434	-0.06296578
223	0x3ca13b2c	0.019681536
224	0x3d1ef5a6	0.038808487
225	0x3b226b80	0.0024783313
226	0xbdae7487	-0.085183196
227	0x3db94f09	0.09048278
228	0xbdcc136b	-0.09964641
229	0xbdca8c01	-0.09889985
230	0xbda50f6e	-0.080595836
231	0x3bf1b810	0.0073766783
232	0x3cf27dd4	0.029601015
233	0x3da4e7b7	0.080520086
234	0xbd279d14	-0.040921286
235	0xbd555b7d	-0.052089203
236	0x3c0e6708	0.008691557
237	0xbbeb96b0	-0.007189594
238	0xbdd40a06	-0.10353474
239	0x3dd54e25	0.104152955
240	0x3deb20f6	0.11480896
241	0x3c74426c	0.014908414
242	0x3ae461ca	0.0017424163
243	0x3c10ab1a	0.008829856
244	0xbca6d2d4	-0.020364203
245	0x3d4783a2	0.04870952
246	0x3cb382e3	0.021912998
247	0xbc968f85	-0.018378982
248	0x3bce960b	0.0063045076
249	0xbd27742a	-0.040882267
250	0xbcdd684d	-0.027027274
251	0x3d01f2bd	0.031725634
252	0xbd8c77ab	-0.06858762
253	0xbdaf7364	-0.08566931
254	0xbd800fda	-0.062530234
255	0xbd2af92b	-0.04174153

sequential_1/dense_1/Add/ReadVariableOp:0 f4 [120]
0	0x3dd63a56	0.104603454
1	0x3e26c58b	0.16286294
2	0x3b92b855	0.0044775405
3	0x3e3f32aa	0.1867167
4	0xbccca535	-0.02498112
5	0xbc57ba7b	-0.013167019
6	0xbc97a9e7	-0.018513633
7	0xbca109d3	-0.019658005
8	0x3e1b6701	0.15176012
9	0xbd2c693d	-0.04209255
10	0xbcd9d5d0	-0.026591212
11	0x3e002e0f	0.1251757
12	0x3e3071e9	0.17230953
13	0xbc2448c3	-0.010027113
14	0x3e3b81db	0.18311255
15	0xbcf5af2c	-0.029990755
16	0xbca5ce8a	-0.020240087
17	0x3d92f847	0.071762614
18	0xbbc2c42b	-0.005943795
19	0xbc9eb1f2	-0.01937196
20	0xbd092c45	-0.033489484
21	0x3e093a46	0.13401136
22	0xbda43ce0	-0.080194235
23	0xbd97ea5a	-0.07417746
24	0x3d3ca6c7	0.04605749
25	0x3d537691	0.051626746
26	0x3da24172	0.07922639
27	0x3e7f2808	0.24917614
28	0x3e161a53	0.1465848
29	0x3e82274f	0.25420615
30	0x3d85faf7	0.06542008
31	0x3a9fb662	0.0012185092
32	0x3aa44110	0.0012531597
33	0x3e67341b	0.2257847
34	0xbcb21cdf	-0.021742282
35	0xbcc973a4	-0.024591275
36	0x3bc4b78b	0.0060033253
37	0xbc8d0888	-0.017215982
38	0xbca2d615	-0.019877473
39	0xba6c9c49	-0.0009025974
40	0x3de6b2db	0.11264583
41	0x3b7dad48	0.003870802
42	0x3e07cfc2	0.13262847
43	0xbd33befa	-0.0438833
44	0x3e37bf30	0.17944026
45	0x3dd53a3b	0.10411497
46	0x3e3a2baf	0.18180726
47	0xbd51d2c6	-0.0512264
48	0x3e298c1b	0.16557352
49	0xbc197f06	-0.009368664
50	0x3c90189c	0.01758986
51	0xbdc3c0f8	-0.0955829
52	0xbd43861b	-0.047735315
53	0xbdcb40d5	-0.09924475
54	0x3c10479e	0.008806137
55	0x3e2299d7	0.15878998
56	0x3e429c99	0.1900505
57	0xbb8152fc	-0.00394666
58	0xbe0ba19b	-0.13635866
59	0xbc99607f	-0.01872277
60	0xbbf7b6a3	-0.007559614
61	0xbca66cf0	-0.020315617
62	0x3d17318c	0.036912486
63	0x3da7ec7c	0.08199403
64	0xbc88e51b	-0.016710809
65	0xbc6f1f71	-0.014594899
66	0x3d21f6a3	0.03954185
67	0xbd0001fd	-0.031251896
68	0x3d9a2970	0.07527435
69	0xbca9bd1d	-0.020720059
70	0xbc0cf017	-0.008602164
71	0x3de54b79	0.11196036
72	0xbd09a758	-0.033606857
73	0x3dbf38aa	0.0933698
74	0x3c9ef69f	0.019404707
75	0xbca3a7d6	-0.019977491
76	0xbe31e648	-0.17373002
77	0xbcb132fc	-0.021630757
78	0x3e4c353c	0.19942182
79	0xbc16db40	-0.009207547
80	0x3dfe5cbc	0.124200314
81	0x3e124e67	0.1428772
82	0xbcc73e90	-0.024321824
83	0x3e941607	0.28923056
84	0xbdb7be64	-0.08971861
85	0xbd5662a5	-0.05234017
86	0x3dedba05	0.11607746
87	0x3e208f7d	0.15679736
88	0x3bf1527c	0.007364569
89	0x3e2f259c	0.1710419
90	0xbc6f052a	-0.014588634
91	0x3d16e0f5	0.03683563
92	0xbc0e990b	-0.0087034805
93	0x3df64f44	0.120268375
94	0xbbc35079	-0.005960521
95	0x3db2b401	0.08725739
96	0x3d9beaea	0.07613166
97	0x3de3011b	0.11084195
98	0x3e31fa6c	0.17380685
99	0x3e09916f	0.13434385
100	0xbcb3d9e1	-0.021954479
101	0xbe14a790	-0.14517045
102	0xbd905478	-0.07047361
103	0x3da71d0b	0.081598364
104	0xbbd8db13	-0.0066179126
105	0xbd9e16cf	-0.07719194
106	0x3e115291	0.14191653
107	0x3de6f3c3	0.112769626
108	0xbd209a7b	-0.039209824
109	0x3d16767a	0.03673408
110	0xbd0dd970	-0.034631193
111	0xbc50ad5e	-0.012736646
112	0x3d93b778	0.07212728
113	0x3d6533f9	0.055957768
114	0x3d8f862f	0.07008015
115	0x3e92f244	0.2870046
116	0x3e7d5585	0.24739654
117	0x3dba4b2b	0.090963684
118	0x3d8ae4df	0.06781935
119	0x3e612eed	0.21990557

sequential_1/conv2d_1_2/convolution/ReadVariableOp:0 f4 [16, 6, 5, 5]
0	0xbdffce75	-0.124905504
1	0xbdbf2e16	-0.09334962
2	0x3de5c7b3	0.1121973
3	0x3df545f8	0.11976236
4	0xbe006459	-0.1253828
5	0xbe0b7f20	-0.13622713
6	0xbe4d49a1	-0.20047618
7	0xbdc01a72	-0.09380044
8	0x3e49cdba	0.19707385
9	0x3ddfb86f	0.1092385
10	0xbdcdbf1e	-0.10046218
11	0xbe67464b	-0.22585408
12	0xbe9715f7	-0.29508945
13	0xbdecaa20	-0.11555886
14	0x3dea3738	0.114363134
15	0x3d629fc0	0.05532813
16	0x3e56fc9f	0.20994805
17	0x3e0f0a82	0.13968852
18	0x3c946a18	0.018116996
19	0xbc944b76	-0.018102389
20	0x3dbbb9e3	0.091663145
21	0x3e1afb36	0.15134892
22	0x3e9c6c42	0.30551344
23	0x3d95a37b	0.07306572
24	0x3e5f268d	0.2179205
25	0xbe573d73	-0.21019535
26	0xbe1dca97	-0.15409313
27	0xbd63daca	-0.055628575
28	0x3e20a1d1	0.15686728
29	0x3c87cc55	0.016576925
30	0xbe8fe05c	-0.2810086
31	0xbe36a761	-0.17837287
32	0xbe07a059	-0.13244762
33	0xbe0b9219	-0.1362995
34	0x3da48423	0.080330156
35	0x3d8611b6	0.06546347
36	0x3ee65670	0.44987822
37	0x3ebe465b	0.37163052
38	0x3d983d89	0.07433612
39	0x3d1c75c4	0.038198248
40	0x3e4c4c20	0.19950914
41	0x3f0a5c3b	0.5404698
42	0x3ef0154f	0.46891257
43	0xbd98a5f5	-0.07453529
44	0x3dd74a8f	0.10512268
45	0xbdf9b36b	-0.121924244
46	0x3c9d3a6b	0.019192895
47	0xbead5777	-0.33855793
48	0xbf0a0598	-0.53914785
49	0xbe2e04ec	-0.16994065
50	0x3c2043bd	0.009781775
51	0x3b8136c3	0.0039432957
52	0x3d14f231	0.036363784
53	0x3d4b3fe6	0.049621485
54	0x3c9a18dd	0.018810684
55	0xbe503914	-0.20334274
56	0xbd90bc96	-0.0706722
57	0xbe58d04b	-0.21173207
58	0xbd8d9bff	-0.069145195
59	0xbda87230	-0.082249045
60	0xbe1740a1	-0.14770748
61	0xbe072bc7	-0.13200293
62	0xbb9ccfd2	-0.0047855163
63	0x3d37b825	0.04485335
64	0x3ce6d6d0	0.028178602
65	0x3d8bdd3d	0.06829307
66	0x3da43426	0.08017759
67	0x3e48b4e4	0.19600254
68	0x3dd4519a	0.10367127
69	0xbd30cc07	-0.043163326
70	0xbc0111fc	-0.007877823
71	0x3bca1b09	0.0061677736
72	0x3e1cfa11	0.15329768
73	0x3d0e6b0a	0.03477005
74	0x3c7f258a	0.015572915
75	0x3c9d3d98	0.01919441
76	0xbe43d1a4	-0.1912294
77	0xbdc9c540	-0.098520756
78	0xbd0b6672	-0.034033246
79	0xbcd71be8	-0.026258424
80	0x3d1dc49a	0.038517572
81	0xbe2890ec	-0.16461533
82	0xbea6d6be	-0.3258571
83	0xbd054776	-0.032538854
84	0x3bc05d1a	0.0058704736
85	0xbc6fc135	-0.0146334665
86	0x3d7fe6bb	0.0624759
87	0xbd8040c1	-0.06262351
88	0xbc467190	-0.012112036
89	0xbe098108	-0.13428128
90	0x3dd552df	0.10416197
91	0x3e403f2d	0.187741
92	0x3e2a8404	0.16651922
93	0x3e1fc4a6	0.15602359
94	0xbd1dcf96	-0.038528048
95	0xbdfe19dc	-0.12407276
96	0x3a7373fe	0.00092869985
97	0x3dd370b0	0.10324228
98	0xbd6b3afd	-0.057429302
99	0x3c5fa0be	0.013649164
100	0x3c96cc9c	0.018408112
101	0x3e990fcf	0.29894873
102	0x3eac0ade	0.3360204
103	0x3e1c49b7	0.15262495
104	0xbe9465e4	-0.28983986
105	0x3e9c83f8	0.30569434
106	0x3e859c2f	0.2609572
107	0x3eb7429f	0.35793015
108	0x3eb96873	0.362125
109	0x3e8e9ea5	0.2785541
110	0x3ee2635b	0.44216427
111	0x3e868774	0.26275218
112	0xbf3c11a8	-0.7346444
113	0xbeeb5d2f	-0.4596953
114	0x3d33dbc5	0.04391076
115	0xbdbc5cfe	-0.09197424
116	0xbe8fa062	-0.2805205
117	0xbefabfba	-0.489744
118	0xbe8f85ab	-0.28031668
119	0xbe3d0616	-0.18459353
120	0xbd0b667c	-0.034033284
121	0x3d3c113e	0.04591488
122	0x3ea83747	0.32854673
123	0x3ee4c9eb	0.446853
124	0x3de40ece	0.11135636
125	0x3e22e54f	0.15907787
126	0x3e8e6ddc	0.2781819
127	0x3eabb399	0.3353546
128	0xbca8247d	-0.020525211
129	0xbe1aa3b5	-0.15101512
130	0x3d125804	0.03572847
131	0xbe8b4e98	-0.272084
132	0xbddebe4b	-0.10876139
133	0x3e98e47e	0.29861826
134	0xbda8ef3f	-0.082487576
135	0xbdfd6d85	-0.12374405
136	0xbd9c596a	-0.07634242
137	0xbce5e64c	-0.028063916
138	0xbe402c52	-0.18766907
139	0xbec65d82	-0.38743216
140	0x3ec51847	0.38495085
141	0x3f374705	0.7159274
142	0x3eb13a65	0.34614864
143	0xbf48d331	-0.7844725
144	0x3cb0713a	0.021538366
145	0xbecffc68	-0.40622258
146	0xbdec2bdc	-0.11531803
147	0xbf2d69df	-0.6773967
148	0xbf72642f	-0.9468412
149	0x3d9c0240	0.07617617
150	0xbdd4925b	-0.103794776
151	0xbd5e9a3c	-0.054346308
152	0x3c27ba87	0.010237343
153	0xbdce7143	-0.10080197
154	0x3d2e2d44	0.042523637
155	0x3d96bb61	0.073599584
156	0x3d9a65cd	0.07538948
157	0x3b4e5683	0.003148467
158	0xbd9afe5e	-0.07568048
159	0xbdca47e2	-0.09876992
160	0x3d48d229	0.04902855
161	0x3d6cb484	0.05778934
162	0xbc5b9255	-0.0134015875
163	0xbd7712ed	-0.060320783
164	0x3d421b1c	0.047389135
165	0xbd38a22c	-0.045076534
166	0x3cd6c620	0.02621752
167	0x3c4c70f5	0.012478103
168	0xbdd9fb07	-0.10643583
169	0xbd9edcd8	-0.07756966
170	0xbc4255d8	-0.011861287
171	0xbd5ca417	-0.053867426
172	0xbdad96ab	-0.08476003
173	0xbdc4383a	-0.09581037
174	0xbd9f8e07	-0.077907614
175	0xbc85d1e8	-0.016335443
176	0xbd6af946	-0.057366632
177	0xbc15a340	-0.00913316
178	0xbdb2197f	-0.08696269
179	0xbd6233e1	-0.055225257
180	0xbccc0ba0	-0.024907887
181	0x3dbc4c9c	0.091942996
182	0x3da08550	0.07837927
183	0xbc46a130	-0.012123391
184	0x3d5fabad	0.054607082
185	0xbd11faa9	-0.03563944
186	0xbb5411fd	-0.0032359355
187	0xbda113b9	-0.0786509
188	0xbc5fd3e8	-0.013661362
189	0xbdc03a74	-0.09386149
190	0x3cc14098	0.023590371
191	0x3d2cee6c	0.042219564
192	0xbdafcfbc	-0.08584544
193	0xbdbe2667	-0.092846684
194	0x3d81c51e	0.06336425
195	0x3da33720	0.07969499
196	0xbdd33f17	-0.10314768
197	0xbd9caf65	-0.07650641
198	0xbdb2ee87	-0.08736902
199	0xbd71a245	-0.058992643
200	0x3cff3a1d	0.03115564
201	0xbd7be967	-0.061501887
202	0xbd20590a	-0.039147414
203	0x3dc6621d	0.096866824
204	0xbc6ed3f4	-0.014576901
205	0xbd904018	-0.07043475
206	0xbcb7248e	-0.022356298
207	0xbd47920c	-0.048723266
208	0x3db4fa22	0.088367715
209	0x3ca072d2	0.019586
210	0x3d5335d2	0.051565
211	0xbdba8fad	-0.09109435
212	0x3cb6a8d6	0.022297304
213	0x3c0eb1a2	0.008709343
214	0xbde052b8	-0.10953277
215	0xbd2a53c1	-0.04158378
216	0x3d1c38be	0.03814005
217	0xbc9bd5bd	-0.019022817
218	0xbcd5f79d	-0.026119048
219	0xbd14a17c	-0.036286816
220	0x3da8fb59	0.08251066
221	0xbd4591f7	-0.048234906
222	0xbd75211a	-0.05984602
223	0x3da7e2f3	0.08197584
224	0x3d7d3686	0.061819576
225	0x37b093f8	2.1049738e-05
226	0xbd056931	-0.03257102
227	0xbd884c83	-0.066552185
228	0xbbb75e74	-0.0055959765
229	0xbdd71bcb	-0.10503348
230	0x3d9fbc83	0.07799628
231	0x3d5086c6	0.05090978
232	0xbd4db769	-0.05022374
233	0x3cd516f0	0.026011914
234	0x3dbd08de	0.09230207
235	0xbc6eaa6a	-0.014566997
236	0xbd94b48d	-0.07261
237	0xbdb2c7d8	-0.087295234
238	0xbdb8a9c4	-0.09016755
239	0xbdbfb595	-0.09360806
240	0xbdaf8e5f	-0.08572077
241	0x3cb4f4a2	0.022089306
242	0xbd7d3752	-0.061820336
243	0x3d501831	0.05080432
244	0xbd679350	-0.056536973
245	0x3d7cb6a9	0.061697636
246	0xbdbcb0ea	-0.09213431
247	0xbd24a75f	-0.04019868
248	0xbd1cd632	-0.03829021
249	0xbc913f7d	-0.017730469
250	0xbd3e252d	-0.046422172
251	0x3d3b6584	0.04575111
252	0xbd3c2fdc	-0.04594408
253	0xbdbb15f2	-0.09135045
254	0x3d8579b2	0.06517352
255	0xbd33a06a	-0.043854155

sequential_1/conv2d_1_2/Reshape:0 f4 [16]
0	0x3d956b04	0.07295802
1	0xbbc3f982	-0.0059806714
2	0x3da0f19e	0.07858585
3	0x3e18e137	0.14929663
4	0xbcf092c7	-0.029366864
5	0xbc91e50c	-0.017809413
6	0x3e6903f0	0.22755408
7	0x3d35e934	0.044411853
8	0x3dfb7766	0.12278633
9	0xbd44e47c	-0.048069462
10	0x3e330035	0.17480548
11	0xbcd3bb01	-0.025846006
12	0x3d530178	0.051515073
13	0x3e23a857	0.15982185
14	0xbc2a5bdc	-0.010397878
15	0x3e483bd6	0.19554076

sequential_1/conv2d_1/convolution/ReadVariableOp:0 f4 [6, 1, 5, 5]
0	0x3d9a78a4	0.075425416
1	0x3eb9a656	0.36259717
2	0x3ee659a1	0.44990256
3	0x3eb86032	0.3601089
4	0xbbfe5a82	-0.007762254
5	0x3ea0f181	0.31434253
6	0x3edb7fb3	0.42870864
7	0x3f0e75a1	0.5564824
8	0x3f31964d	0.69369966
9	0x3e5af9ef	0.21384405
10	0xbd7580e6	-0.05993738
11	0x3df20fee	0.118194446
12	0x3efbd82a	0.49188358
13	0x3f01e0da	0.5073372
14	0x3e9661c5	0.29371467
15	0xbf26a152	-0.65089905
16	0xbe2108c9	-0.15726008
17	0x3e9e0343	0.30861863
18	0x3e59bf24	0.2126432
19	0x3be2cf12	0.0069216574
20	0xbee635b1	-0.44962838
21	0xbf2a7674	-0.66586995
22	0xbecc01aa	-0.3984502
23	0xbeef617a	-0.46754056
24	0xbe1fed8d	-0.15617962
25	0xbee68025	-0.45019642
26	0xbf0bece4	-0.5465834
27	0xbf20da16	-0.6283277
28	0xbe8d3d36	-0.27585763
29	0xbee92bc3	-0.455412
30	0xbea81c52	-0.32834107
31	0xbeefbd48	-0.46824098
32	0xbd0dee73	-0.03465123
33	0xbd7ebea0	-0.062193513
34	0xbdfd6558	-0.123728454
35	0xbdd2df93	-0.1029655
36	0xbde25f17	-0.11053293
37	0x3e58e061	0.21179344
38	0x3f054762	0.52062047
39	0x3ee3e847	0.4451315
40	0xbe86b303	-0.2630845
41	0x3dc3ea5b	0.09566184
42	0x3f28b3fe	0.65899646
43	0x3f0e4b40	0.5558357
44	0x3ec521b0	0.38502264
45	0xbe749e1e	-0.23888442
46	0x3ea7e0d8	0.3278873
47	0x3f005b35	0.5013917
48	0x3f1573a9	0.5837961
49	0x3ee680cb	0.45020136
50	0xbcfc23d8	-0.03077881
51	0x3c059c08	0.0081548765
52	0x3d4933c9	0.04912165
53	0x3e576504	0.21034628
54	0x3de76d94	0.11300197
55	0x3db787f5	0.089614786
56	0x3e121e17	0.14269291
57	0x3eb1f48c	0.34756887
58	0x3ef0b283	0.47011194
59	0x3e8f2a86	0.2796213
60	0x3d00e13d	0.031464804
61	0x3e3e8f11	0.18609263
62	0x3ec26787	0.3796961
63	0x3eee77a8	0.46575665
64	0x3eae07ea	0.33990413
65	0x3da206f8	0.079114854
66	0x3cc5a8ca	0.024128336
67	0x3ebfc5b7	0.37455532
68	0x3efa0af6	0.48836488
69	0x3e29b829	0.16574158
70	0xbd3ddd7f	-0.046353813
71	0xbdcfb8a0	-0.10142636
72	0x3e4e8a7a	0.20170012
73	0x3de7c10c	0.11316118
74	0xbc39e1b5	-0.011345317
75	0x3da2d2cc	0.079503626
76	0x3e18af0f	0.1491053
77	0xbd787362	-0.060656913
78	0xbe6dc693	-0.23220281
79	0xbf4bf813	-0.79675406
80	0x3df6a4d3	0.120431565
81	0x3eb952b8	0.36195922
82	0x3f209c30	0.62738323
83	0x3e431d12	0.19054058
84	0xbeecb73a	-0.4623354
85	0x3d0c89df	0.03431117
86	0x3f31fb61	0.695242
87	0x3f74bf13	0.95604056
88	0x3ea56f6d	0.32311574
89	0x3d4e5881	0.050377373
90	0x3dfabd99	0.12243194
91	0x3f247948	0.6424756
92	0x3f2ef627	0.6834435
93	0x3f1022ed	0.5630329
94	0x3e1aa7e7	0.15103112
95	0xbe140ca4	-0.14457947
96	0x3eaa7688	0.33293557
97	0x3ef75b11	0.48311666
98	0x3ecbed85	0.3982965
99	0xbd121695	-0.035666067
100	0x3f043b6b	0.51653165
101	0x3f3e0ecf	0.74241346
102	0x3f01d67b	0.50717896
103	0x3ed2fd3e	0.41208833
104	0xbe89c8c3	-0.26910982
105	0x3e5bb1b6	0.2145451
106	0x3ef0b7c0	0.4701519
107	0x3ea5516a	0.32288677
108	0x3e9ac414	0.3022772
109	0xbe5e2a97	-0.21695934
110	0xb9e32274	-0.00043322484
111	0x3d3149f7	0.04328343
112	0xbc2967dc	-0.010339703
113	0xbcdf5b1a	-0.02726512
114	0xbe5c55ac	-0.21517056
115	0xbee27bdf	-0.4423513
116	0xbf24ddeb	-0.6440112
117	0xbe77e94e	-0.24210092
118	0xbe9118af	-0.28339145
119	0xbdcba118	-0.099428356
120	0xbdc1ab5a	-0.09456511
121	0xbf0a0a7c	-0.5392225
122	0xbf08d548	-0.5345044
123	0xbda3c45b	-0.07996436
124	0x3dff7b24	0.12474659
125	0xbed08892	-0.40729195
126	0xbea2991f	-0.31757447
127	0xbe86bab7	-0.26314327
128	0xbd949c35	-0.072563566
129	0xbe0c457f	-0.13698386
130	0xbf43bf56	-0.7646383
131	0xbef56228	-0.4792645
132	0x3df3fd9b	0.11913606
133	0x3ec98c4e	0.39364856
134	0x3f0be75e	0.54649913
135	0xbf25127a	-0.6448132
136	0x3d2378cd	0.039910126
137	0x3ee9d93e	0.45673555
138	0x3f3a4b2e	0.72770965
139	0x3f5c1e9a	0.85984194
140	0xbee5cf51	-0.44884732
141	0xbe44f88c	-0.19235438
142	0x3d298c42	0.041393526
143	0x3f188a7a	0.595863
144	0x3f21afa3	0.63158625
145	0xbe434630	-0.19069743
146	0xbe2fb005	-0.1715699
147	0x3cd2c0df	0.025726734
148	0xbdd525c4	-0.10407594
149	0x3dad6eaa	0.08468373

sequential_1/conv2d_1/Reshape:0 f4 [6]
0	0xbda8bee9	-0.08239538
1	0x3c560ec4	0.013065044
2	0xbe483025	-0.19549616
3	0xbe69f6a2	-0.22847989
4	0x3e92fdd9	0.28709295
5	0x3dc85113	0.09781089
