models/model.onnx (onnx, 261151 bytes, 10 tensors)

sequential_1/dense_2_1/Cast/ReadVariableOp:0 f4 [84, 43]
000000 8e 6e bf bd 56 c9 fc bb 98 3b 96 3d 4d 90 35 be
       -0.093472585 -0.007714431 0.07335585 -0.17730828
000010 9b bc e4 bd 16 72 f6 3c 4f 65 4c be 86 52 92 3d
       -0.11168786 0.030083697 -0.19960521 0.07144646
000020 44 9c a8 bc fb e0 4f be 1a 46 2b 3e 27 e6 bf bd
       -0.020582326 -0.20300667 0.1672596 -0.0937007
000030 2b 36 31 be 70 da f1 bc 60 77 d6 bd 73 a4 78 3c
       -0.1730582 -0.029523104 -0.10471988 0.0151759265
000040 43 a4 16 3d 44 72 1a be c4 e4 32 be 8d 5f 21 3e
       0.036777746 -0.15082651 -0.1747008 0.15759106
000050 c3 f2 06 bc f8 27 3c be cf 53 29 be 6f 93 22 be
       -0.00823659 -0.18374622 -0.16535877 -0.15876554
000060 f5 99 bb bd a8 dd 24 3e 6b db ae bd 01 a4 06 3e
       -0.09160224 0.1610018 -0.085379444 0.131485
000070 07 78 95 3c 58 ee a2 3c df e0 e4 bd 65 9c 5c bd
       0.01824571 0.019889042 -0.11175703 -0.053860087
000080 ba 8e 62 3d 69 ae 9c bd a1 5c f5 3c 0b 50 50 be
       0.055311896 -0.076504536 0.029951395 -0.20343034
000090 89 7c 1f 3e 7a 45 c2 bd 5b a0 cd 3d 90 86 23 be
       0.1557485 -0.09485908 0.10040351 -0.159693
0000a0 b6 7b 9c be 42 12 c3 bd 58 cf 14 be 76 39 a0 3d
       -0.30563134 -0.09524967 -0.1453222 0.0782346
0000b0 b3 69 84 3e 9b a9 78 3d 4b 34 cd 3e 28 f1 b1 bd
       0.25861892 0.060708623 0.4007896 -0.08688575
0000c0 6e 56 6e bd 64 10 d0 bd f8 31 44 be 69 e9 6d be
       -0.058187895 -0.10159376 -0.19159687 -0.2323357
0000d0 09 d7 8c 3d fe cc 15 bf d1 32 34 3e 5d 76 28 3e
       0.06876952 -0.5851592 0.1759751 0.16451402
0000e0 91 7b aa 3e 4c 83 0a 3d 51 06 0d be 8c 6e 0d be
       0.332974 0.03381662 -0.13771941 -0.13811702
0000f0 89 fb 2b 3c 91 52 b2 3e 46 09 30 be 41 e4 e6 bd
       0.010496982 0.34828618 -0.17191038 -0.11274005
000100 16 df 4b be 2a 56 c3 bd 67 a5 8f 3d d2 08 34 bd
       -0.1990932 -0.09537919 0.0701397 -0.043953724
000110 5a ad 9e 3d 29 3d c9 bd 18 7c 27 3e bd 39 0d 3e
       0.07747908 -0.098261185 0.16355932 0.13791557
000120 b9 3a 28 be 11 0b 50 bd 33 32 a4 3e 45 0b 38 be
       -0.16428651 -0.050791804 0.3206955 -0.17973049
000130 68 6f 7a 3d 79 36 b4 be 4f 34 21 bd 01 8a 03 bf
       0.0611414 -0.3519781 -0.039356526 -0.5138245
000140 a0 df 99 bd fe a2 5e bd 9d f1 00 3c 02 04 49 3e
       -0.07513356 -0.05435466 0.007870105 0.19630435
000150 68 62 c3 be 20 18 00 bf a8 cb 28 be 24 b1 e5 bb
       -0.38161016 -0.5003681 -0.16483939 -0.007009642
000160 0a 98 2f 3d 50 3e 10 be 3a 78 00 be d8 82 05 bd
       0.042869605 -0.1408627 -0.12545863 -0.032595485
000170 34 3c 8a be d0 28 44 3e ee 63 4c be 47 4d 22 be
       -0.26999056 0.19156194 -0.19959995 -0.15849791
000180 bc e5 02 3e db 96 82 bd a3 69 0c 3e ca 57 be 3d
       0.12782949 -0.0637643 0.13712172 0.09294088
000190 fe 3e 82 3e a1 8e b1 be f9 61 cd be 1c 48 12 3d
       0.25438684 -0.3467913 -0.4011381 0.0357133
0001a0 ff 88 5b be 63 24 ad be 7a 40 f0 3d 68 8d 40 be
       -0.21438979 -0.33816823 0.11731048 -0.18803942
0001b0 c1 d7 7a bb 9d 02 77 be 3f 9b 13 bd fe e2 2e 3d
       -0.0038275572 -0.2412209 -0.036036726 0.042696945
0001c0 25 2f b1 3c 6f 77 05 be ef a8 98 3d 27 b0 0a bc
       0.021628926 -0.13033842 0.074540965 -0.00846485
0001d0 c7 a0 44 bc db c9 a3 be 52 f6 97 be fe ca 57 3e
       -0.012001223 -0.3198994 -0.29680115 0.21073529
0001e0 76 2d 36 be f1 9a 23 bd 14 cd 2d be 19 0e 98 3e
       -0.1779078 -0.039942686 -0.16972762 0.29698256
0001f0 d4 25 3f be 8e 37 49 bc 65 57 81 3e 95 57 13 bf
       -0.18666774 -0.012281312 0.2526199 -0.57555515
000200 11 f5 d5 bd dc db e2 3d ba 6b 91 bd c2 cf ef 3c
       -0.10447133 0.11077091 -0.07100625 0.029273871
000210 5f 2f 2d 3c fa 6b 47 3e 58 f1 20 be fd f1 d1 bc
       0.010570376 0.19474784 -0.15717065 -0.025628084
000220 38 7e cc be e4 0b 4b 3e 33 f3 90 be be 06 15 bd
       -0.39940047 0.19828755 -0.28310546 -0.036383383
000230 5b d4 8d 3d 79 7c ba 3d 5c 3d 85 be 69 ef 70 3e
       0.06925269 0.091057725 -0.26023376 0.23528828
000240 41 36 1e 3e 2f 6b cf be 0e ff 31 3e f0 4c 78 3e
       0.15450384 -0.40511462 0.17382452 0.242481
000250 5a d8 f1 bd 56 e4 6c bd c3 94 f4 3d 38 a8 90 ba
       -0.11808844 -0.057834946 0.119424365 -0.0011036461
000260 e6 51 85 be 37 01 f5 bd 0e 57 0e 3e 7d ba 7d 3d
       -0.26039046 -0.11963122 0.13900396 0.061945427
000270 44 32 2d be 01 15 81 3d 1f 01 f7 bb 53 c9 31 be
       -0.16913706 0.06302834 -0.0075379754 -0.17361955
000280 26 b5 40 bc 79 42 67 3d 50 9e a8 3d 58 1b c6 bb
       -0.011761939 0.056459878 0.08233321 -0.00604574
000290 b7 69 79 be a6 e5 71 be 4f c3 82 be 22 3a 63 3e
       -0.24356733 -0.2362276 -0.25539634 0.22190145
0002a0 f4 d9 50 bd 79 a9 f6 3c 9c 70 3a be 83 3c cb be
       -0.050989106 0.030110108 -0.1820702 -0.39694604
0002b0 e4 37 60 3e 33 fe 1b be 87 1b 60 be fa 52 05 bf
       0.2189632 -0.15233688 -0.21885501 -0.5207974
0002c0 ca bf d1 3d 4f 94 91 be 4c 3b f3 be 89 a1 ef bd
       0.10241659 -0.28433463 -0.47506177 -0.11700732
0002d0 4f 0e 0a 3e 2a 83 c7 3d 94 9d 9d be 62 aa b0 be
       0.13482021 0.097418144 -0.30784285 -0.34504992
0002e0 12 ca 57 3e d3 57 21 be ba 4c 31 3e ca c4 aa be
       0.21073177 -0.15756159 0.17314425 -0.33353263
0002f0 44 96 2c 3d d2 ae cb 3d a5 6f a3 bd ea 0e 98 3e
       0.042135492 0.09945454 -0.07980279 0.2969888
000300 ef d8 b1 bd e5 7c d1 bd dd 7a a0 bc dd 90 b7 3d
       -0.08683955 -0.102289 -0.019589836 0.08963177
000310 90 f2 48 be b7 b3 36 bd 9a f0 4e 3e 22 ab 92 bc
       -0.1962378 -0.044604983 0.2020897 -0.017903868
000320 53 da 7b 3e 03 8d 93 3d eb 1c a5 bd 8c 2f 2e bc
       0.24595003 0.0720463 -0.08062156 -0.010631453
000330 19 58 26 be 5d 52 b7 3c df 63 a6 bc 97 d4 8c be
       -0.16244544 0.022378141 -0.020311294 -0.27505943
000340 9b 49 64 3e 25 e0 5e be 0e f4 a9 3d 62 a3 c2 3d
       0.22293703 -0.21765192 0.08298503 0.09503819
000350 3f 3b b3 bc 25 7a f3 be 54 64 fe be 85 53 3e 3e
       -0.021878837 -0.47554126 -0.4968592 0.18586548
000360 01 ca e9 bd 9d 06 50 be 7f 40 35 3d 8a bf 30 be
       -0.11415482 -0.20315023 0.04425096 -0.17260566
000370 77 76 e0 3c d3 72 a0 3d a0 90 3a 3e de c7 5f 3b
       0.027400238 0.07834401 0.18219233 0.003414623
000380 c0 68 0d be d6 7f 97 bd b1 1d 59 3e 6c 7a 98 bd
       -0.1380949 -0.0739743 0.21202733 -0.07445225
000390 8f 87 c6 be d5 bc 83 3e 18 65 9d be 80 af b8 3e
       -0.38775298 0.25730005 -0.3074119 0.36071396
0003a0 90 6f a3 3d 33 ff b7 bd 4a 07 80 be 5d d5 0f 3e
       0.07980263 -0.08984222 -0.2500556 0.14046235
0003b0 fb c6 8c 3d 7d d1 72 be 8b df 09 be 8a a4 9f 3e
       0.0687389 -0.23712726 -0.13464181 0.3118022
0003c0 e2 1b 8d be 29 92 87 3b 44 4b 13 be 29 e1 12 be
       -0.27560335 0.0041372967 -0.1438418 -0.14343704
0003d0 ab af e4 3d 1e 78 9b 3d bc 41 44 3c df f0 21 3d
       0.111663185 0.0759127 0.011978563 0.039536353
0003e0 b2 61 a8 bd fd 2b 91 3d 70 13 2b be 42 cc 39 bf
       -0.08221759 0.07088468 -0.16706634 -0.725773
0003f0 3c 9a 3e bd f0 d8 3c be 98 4a 9c bd 92 b6 fd 3d
       -0.046533808 -0.1844213 -0.07631415 0.12388338

sequential_1/dense_2_1/Add/ReadVariableOp:0 f4 [43]
000000 5f 1e 9c be d6 68 1f bd e7 8d 50 bc 4f 6f 06 3e
       -0.3049192 -0.03891834 -0.012729145 0.13128398
000010 05 69 fd 3d 8c ab 1a bc 84 54 bd 3d 6b 09 08 3e
       0.123735465 -0.009440314 0.09244636 0.13284843
000020 03 4f 11 3e 9b c8 27 bd 12 fd 86 3c 63 e3 a7 bc
       0.14190297 -0.040962797 0.016478095 -0.020494169
000030 36 4d 3e bc a9 c4 42 bc a2 a7 f6 bd ee 45 32 3d
       -0.011615088 -0.011887708 -0.12043692 0.04352372
000040 07 7c 9b bd 7a 17 4f bc 35 70 1d 3e d5 4e 91 bd
       -0.07592016 -0.012639875 0.15374835 -0.07095114
000050 7e b8 04 3e 4a 9b 39 be 45 e1 70 be 25 ec 23 be
       0.12961003 -0.18125644 -0.23523434 -0.1600805
000060 3c 38 55 3e 7c ce 85 bc 95 bb 3f 3d 78 ab 18 3d
       0.20822233 -0.016333811 0.04680975 0.0372729
000070 cc c6 0b be 0d 24 5b be 44 c2 18 3d 02 3a 33 3e
       -0.13650054 -0.21400471 0.03729464 0.17502597
000080 e6 ec 70 3e 38 94 be 3d 7f 0a 20 be 39 7d cd bd
       0.2352787 0.09305614 -0.15629004 -0.1003365
000090 be 57 f9 bd 95 ea 2a be da 83 42 3c ba 3e 3f bc
       -0.121749386 -0.16691048 0.011872256 -0.01167267
0000a0 53 98 da bd 23 26 36 be fe 57 8f bd
       -0.10673585 -0.17787986 -0.06999205

sequential_1/dense_1_2/Cast/ReadVariableOp:0 f4 [120, 84]
000000 4e 53 f2 bd e1 65 c6 3d b8 87 10 be 2c 58 f3 bd
       -0.11832295 0.096874006 -0.14114273 -0.11882052
000010 7b ed 37 3e f3 dc 42 be 50 e0 20 3e bb 9a f7 3d
       0.17961685 -0.19029598 0.15710568 0.12090059
000020 f4 15 94 3e 0b 76 6c bd b4 be 6d bd 34 3a 90 3e
       0.28923 -0.057729762 -0.058043197 0.28169405
000030 0c 8a d4 bd 3f fe 69 3d e6 53 5c 3e 04 3f 01 3d
       -0.10377893 0.057127234 0.2151638 0.031554237
000040 a7 e2 b8 bc 6e 04 6f be 1e b6 44 3a b5 81 b5 bd
       -0.022569014 -0.23341534 0.0007503944 -0.0886263
000050 a0 64 4b bd bc 08 2d be 2a 79 60 3e 0e 77 02 3e
       -0.04965651 -0.16897863 0.2192122 0.12740728
000060 4c ce db bd c0 40 f5 3d e6 2a 91 3c 01 18 44 be
       -0.107327074 0.11975241 0.01772065 -0.19149782
000070 c0 01 29 be 32 c0 1f bd f6 64 92 3e 8c 52 9a 3e
       -0.16504574 -0.03900165 0.28592652 0.30141103
000080 6f 62 0c be 69 31 7b bd 81 6d c5 3d 71 68 18 3d
       -0.13709424 -0.061326418 0.09640027 0.037208978
000090 c1 b4 c7 3d f7 22 9f 3e d8 73 3f be 70 49 a7 bc
       0.09751273 0.31081364 -0.18696535 -0.02042076
0000a0 70 22 93 3d f2 cb 16 be a6 b6 1e 3e 12 64 9c bb
       0.07184303 -0.14726236 0.15499362 -0.0047726715
0000b0 f7 e4 d0 be 44 a0 87 bd 03 7e 70 3e 3c 3e cd bd
       -0.40799686 -0.06622365 0.2348557 -0.10021636
0000c0 55 92 ad 3d 80 cf 46 3e 16 ce 24 3d 3c 96 9e bd
       0.08475176 0.19415092 0.0402356 -0.07743499
0000d0 b5 0b 26 be a7 1d ed 3c 13 96 06 be aa e5 88 be
       -0.16215403 0.028944803 -0.13143186 -0.2673772
0000e0 c7 c7 a5 3d 34 2d 8e bd 9b 1a 44 3a 42 85 0e bd
       0.08094745 -0.069422156 0.0007480771 -0.034795053
0000f0 e2 a0 52 be e6 57 b2 bc b0 68 7f bd 88 4b be 3e
       -0.20569184 -0.021770429 -0.062355697 0.37167
000100 a6 55 43 3d 5b 2f 6f 3e 91 db 86 3e ae d0 f2 3d
       0.047689103 0.23357908 0.2633939 0.11856209
000110 ce da 3b be a6 ec 7d be 21 60 23 be 55 8d 8e 3e
       -0.18345186 -0.24797305 -0.15954639 0.27842203
000120 c4 4b 60 3e d6 fd af bd d1 81 d7 3b a2 49 fd bd
       0.21903902 -0.08593337 0.0065767546 -0.1236756
000130 90 52 8c bc 00 1c 10 3e 92 4d 26 3e 09 2e df bd
       -0.017129213 0.14073181 0.16240528 -0.108974524
000140 20 b7 da bd a6 13 46 bd f4 52 27 3e c1 29 46 3d
       -0.106794596 -0.048358582 0.16340238 0.048379663
000150 44 72 49 3d f1 51 ef 3c d9 cc 81 3d f0 d7 6c 3e
       0.049181238 0.029213877 0.063379 0.23129249
000160 53 2f 88 bd 12 31 0a 3e 30 2e 09 bd 7c 4f 91 bd
       -0.066496514 0.13495281 -0.033491313 -0.070952386
000170 7c 38 98 be 52 5e 9b 3a 49 e8 5f bd 86 35 7a 3e
       -0.29730594 0.0011853671 -0.054664884 0.2443448
000180 1e 78 01 3e c4 be 23 3e c2 ee 09 3e 53 fc ae 3e
       0.12643477 0.1599074 0.13469985 0.34176883
000190 1d 7f 4e be b0 5b ca 3d fb 93 ef 3d 06 be ae 3d
       -0.20165677 0.09880769 0.11698147 0.08532338
0001a0 6a 24 5b be c1 c5 57 be 73 4a 46 3e 6b e1 f8 bc
       -0.2140061 -0.21071531 0.19364338 -0.030380925
0001b0 33 97 33 3e 87 2e 49 bc 83 da 30 be 67 d0 82 3e
       0.17538147 -0.012279159 -0.17270856 0.25549623
0001c0 17 41 0e bd 57 a0 91 3e 74 b1 6c 3e 88 e7 86 bc
       -0.034730043 0.28442642 0.23114568 -0.016467825
0001d0 a1 e5 04 be 73 d0 c5 3d 70 df a9 3d e1 17 c6 bd
       -0.12978221 0.09658899 0.082945704 -0.09672523
0001e0 95 3f e3 be ec a5 06 3e 7a da c7 bc 1d 34 91 bd
       -0.44384447 0.13149232 -0.02439617 -0.07090018
0001f0 eb a1 15 3e c5 e0 38 3d 19 48 b6 3d b1 53 f1 bd
       0.14612548 0.045136232 0.0890047 -0.11783541
000200 8c a9 38 3d dd 9f cc 3d fd f6 ba be 53 f6 40 3e
       0.045083568 0.09991429 -0.36516562 0.18843965
000210 38 57 5a be 2f 19 4f be 4b 67 98 be 31 7b 33 3e
       -0.21322334 -0.2022445 -0.29766306 0.17527463
000220 44 ab 16 3e 2d c2 15 be a6 eb ba 3d 66 1c 77 3d
       0.1471377 -0.14624853 0.091269776 0.060329817
000230 a6 18 9c 3d 4c 98 3a bd 32 5f 6f bd c9 a4 46 bd
       0.07621889 -0.045555398 -0.058440395 -0.048496995
000240 65 3b 7c 3e d6 61 82 bd 9f 07 99 3e 77 16 a6 3d
       0.24632032 -0.06366317 0.29888627 0.081097536
000250 d3 75 b0 bd 6c c5 56 be bd 3a 83 3d 4a c8 8a bd
       -0.08616223 -0.20973748 0.06407688 -0.06776483
000260 00 41 23 3d 09 a7 9d 3d 26 27 df bd df 33 11 bc
       0.03985691 0.07697875 -0.10896139 -0.008862465
000270 26 f7 5a bc 7c 46 70 bc e7 f2 3b be 53 3a 08 3e
       -0.013364589 -0.014665242 -0.18354379 0.13303499
000280 2d 3c 24 3e 2a 27 30 3e d4 7b c2 be e9 02 16 3e
       0.1603858 0.1720244 -0.37985098 0.14649548
000290 b7 1c 36 be 4f 54 05 be 4f 7f 01 3e 17 64 f0 bb
       -0.17784391 -0.13020442 0.1264622 -0.0073361504
0002a0 f9 98 06 3e af 02 5d 3d c4 7a 8d bc df 3f c7 bd
       0.13144292 0.053957637 -0.017270453 -0.09728979
0002b0 90 df 2d 3e ac 95 30 bd 8e 84 da 3c 03 e0 1b be
       0.16979814 -0.04311149 0.026674535 -0.15222172
0002c0 c2 f7 31 3d 68 0f d4 bc 69 aa 25 3c 77 f9 a5 3c
       0.04344917 -0.025886253 0.01011143 0.020260556
0002d0 a4 6d e1 3d ea 78 a6 bc 84 45 a9 bd bc b2 0b be
       0.110072404 -0.020321328 -0.08265212 -0.136424
0002e0 42 e0 64 3d 07 19 25 be ee cf 52 bb 86 e5 cb bd
       0.05587793 -0.16122828 -0.0032167393 -0.099558875
0002f0 cd cd 72 3d 21 60 e8 bd 4a b5 05 3e d4 13 52 bc
       0.0592783 -0.1134646 0.13057438 -0.01282211
000300 91 d5 99 3d 80 43 b5 ba 18 e8 16 3e 99 25 8e bd
       0.07511438 -0.0013829321 0.14736974 -0.06940765
000310 5f 01 0d 3e 50 c6 3b 3c 87 3e 94 bc 20 20 23 3c
       0.13770054 0.011460856 -0.018096222 0.00995639
000320 95 64 f7 bd 82 2b 85 bd cc 8a 10 bd 7b 0f ab bd
       -0.120797314 -0.06502439 -0.035288617 -0.08352562
000330 54 b2 22 be ad 38 07 3c e1 eb e0 3c 0f de 0e 3e
       -0.1588834 0.008253259 0.027456226 0.13951896
000340 ed 6a 33 be b1 52 1a 3e f7 17 94 bd cb 38 21 be
       -0.17521258 0.15070607 -0.072311334 -0.15744321
000350 2c 56 b3 3d 77 d2 42 bd 6a 9c da 3d 50 3f 14 be
       0.0875667 -0.047563996 0.10674365 -0.14477277
000360 44 58 1d be df a4 d0 3d 0e 3f f9 bd fe 4a b5 bd
       -0.15365702 0.10187697 -0.1217023 -0.08852194
000370 4c 0e 86 bd 60 07 e4 3c 53 b7 2e 3e de e7 7a 3d
       -0.06545696 0.027835548 0.1706212 0.061256282
000380 78 84 56 3d cd f9 73 bd 64 03 eb 3d fc c4 2e bd
       0.052372426 -0.0595644 0.11475256 -0.042668328
000390 b0 d8 73 bb c8 4b c6 3d 7b 76 04 be 2a 9d 02 3e
       -0.0037208013 0.09682423 -0.12935822 0.12755266
0003a0 74 be fb bd 0e b9 17 be 6b eb db 3d ec c4 0d bd
       -0.122921854 -0.14816687 0.10738262 -0.034611627
0003b0 5e 71 43 3c 7b bc 89 bc b8 e1 73 bd d6 3b fa 3d
       0.011928884 -0.016813507 -0.059541434 0.12218444
0003c0 18 fe 5e bd 51 7a cd 3c bf be be 3d 59 c0 9d 3c
       -0.05444154 0.02508274 0.09313726 0.019256758
0003d0 2c 18 1d bd a8 61 08 be 7e 25 b5 bd c9 6a 93 bd
       -0.03835313 -0.13318503 -0.08845042 -0.07198102
0003e0 ea 6e a1 3d 1e 9d 0b be 4d f4 a7 3c 05 9b 64 3d
       0.07882483 -0.13634154 0.020502234 0.0558119
0003f0 22 51 f9 3d e3 da fa bd 67 90 17 3d ae 7e 06 be
       0.12173678 -0.122487806 0.037002947 -0.13134262

sequential_1/dense_1_2/Add/ReadVariableOp:0 f4 [84]
000000 e3 36 4e 3c df 03 0a 3e 0b ac a1 ba 83 c9 e5 3d
       0.012586328 0.13478039 -0.0012334598 0.11220076
000010 4c c2 47 3d 9c 93 ba 3d c4 9d f1 3d cc 60 47 3e
       0.04876928 0.091101855 0.117976695 0.19470519
000020 c0 04 9d 3d 7b ce 2f bd 72 ef ef bc 8b 32 f1 3d
       0.076669216 -0.042921524 -0.029288981 0.117772184
000030 e0 1c 98 3d 92 c6 0c 3e 69 56 03 3e 42 f0 e6 3d
       0.074273825 0.13747624 0.12825932 0.11276294
000040 1e b4 19 bd e3 4d 85 3d ab 75 bb bc 68 74 0c 3d
       -0.03752529 0.06508996 -0.022883257 0.0342907
000050 2e 9e 12 be 96 b1 9f 3d 72 ce 29 3d 8f 6e ed bd
       -0.14318153 0.07797544 0.041456647 -0.11593353
000060 be bf 1c 3e 08 20 d2 bb b7 c6 e0 3d ef e8 fb 3c
       0.15307519 -0.00641251 0.10975402 0.03075072
000070 64 eb 4a bc 4f 09 8b 3c 73 01 35 3e 66 78 05 3e
       -0.012385223 0.016972212 0.17676334 0.1303421
000080 76 66 1c 3e e0 97 de bb d2 21 13 3c ab 39 54 3d
       0.15273461 -0.0067930073 0.008980231 0.05181281
000090 c5 33 f2 bb 52 e9 2d 3e 4a dc 2d 3e 0b 6e 08 bd
       -0.0073914253 0.16983536 0.16978565 -0.03330807
0000a0 24 b7 1f 3e bc 8c ba 3d 90 f6 ac bd 02 da 0b 3e
       0.15597206 0.09108874 -0.084454656 0.13657382
0000b0 92 13 b1 3d ed fd 31 3e 0e ee 9b 3d 19 33 0c 3d
       0.08646311 0.17382021 0.07613765 0.034228418
0000c0 2c 63 e9 3d e6 ba 03 bc dd 17 58 3d da ed b1 3d
       0.11395869 -0.0080401655 0.052757133 0.08687945
0000d0 69 ee 83 bc c7 7c 5f 3b 9a ce 10 bd 92 39 0e be
       -0.016104894 0.0034101473 -0.03535328 -0.13889149
0000e0 ee 13 64 bc 73 95 02 bd ed f7 d0 3d 54 72 82 bc
       -0.013920767 -0.031880807 0.10203538 -0.015923657
0000f0 1c 78 6d 3d b2 3e 10 3e 09 51 b2 3d fb c2 ef 3d
       0.057975873 0.14086416 0.087068625 0.117071114
000100 73 b0 6c bc 74 45 e0 ba a1 25 e0 3d be 9b 1e 3e
       -0.014446366 -0.0017110542 0.10944677 0.15489098
000110 98 dc 2f bc 42 e2 ba bd 13 cd c1 bc 05 1e 3d 3e
       -0.010733746 -0.091251865 -0.023657357 0.18468483
000120 6e 1c 27 3d 50 30 29 3d c4 ab 55 be f7 2f 96 3c
       0.040798597 0.04130584 -0.20866305 0.018333418
000130 a9 27 08 be 76 43 5e 3e 43 92 80 3e cd f7 cb 3d
       -0.13296379 0.21705422 0.2511159 0.099593736
000140 18 39 df bc e4 31 18 bd 96 7f f0 bd 45 a1 9d bc
       -0.027248904 -0.037156954 -0.11743085 -0.019241938

sequential_1/dense_1/Cast/ReadVariableOp:0 f4 [400, 120]
000000 06 01 7e bd 3c 50 60 bd 80 de 64 3b 00 10 09 bd
       -0.062012695 -0.054764017 0.003492266 -0.033462524
000010 49 67 a0 bd ab 9b 47 bd 05 bb d5 3d 51 3c d7 3d
       -0.078322 -0.04873244 0.10436062 0.10509551
000020 4b 96 5f bd 10 8b ca bd be 12 63 3d a5 36 d5 3d
       -0.05458669 -0.09889805 0.055437796 0.10410813
000030 11 42 81 3d 20 44 0f bb 5c ad f4 3c 03 67 9d bd
       0.06311429 -0.0021860674 0.02986782 -0.076856636
000040 68 9a 48 bd 1e a8 04 3d f3 b7 90 bd 70 70 7d bc
       -0.04897538 0.03238689 -0.070663355 -0.015468702
000050 e0 30 90 3b b1 09 3d bd c0 0a 64 bb 7c 5f e9 3c
       0.0044003576 -0.04615182 -0.0034796447 0.028487913
000060 e6 86 89 bd 06 59 31 3d 1e f9 08 3d 6f fd c2 3d
       -0.06715183 0.04329779 0.0334407 0.09520995
000070 45 f2 80 bd 90 74 8f 3c 9a 4a 4a 3d 86 61 b3 bd
       -0.06296209 0.017511636 0.04938755 -0.087588355
000080 30 b0 ed bb 40 cb 87 3b c0 01 c6 ba a0 00 7d 3c
       -0.007253669 0.0041441023 -0.0015106723 0.015442044
000090 ba 17 77 3d c0 24 6e 3c db b5 63 bd c4 63 cb 3c
       0.06032536 0.014535129 -0.055593353 0.024827845
0000a0 59 df b9 3d 84 1b cc bd f0 93 0e 3c 64 c6 b4 3c
       0.09075803 -0.09966186 0.008702263 0.022067256
0000b0 84 bd df 3c 94 6d 82 bc c0 b5 aa ba 21 96 5e bd
       0.027312048 -0.015921392 -0.0013024136 -0.054342393
0000c0 26 db 05 bd ad 9b 9a 3d d6 d0 81 bd f4 ec bb bc
       -0.0326797 0.07549224 -0.063386604 -0.022940136
0000d0 39 bf 88 3d df cb bb 3d e8 2e 3c bc bb 9e 9c bd
       0.06677098 0.09169745 -0.011485793 -0.07647463
0000e0 ac d8 ba bc a8 66 c0 bd 93 41 62 bd 18 51 02 3c
       -0.022808395 -0.0939458 -0.055238318 0.007953905
0000f0 6e 70 7b 3d 5e 91 32 bd d4 b6 65 bd 6f 87 83 3d
       0.06138652 -0.043595664 -0.05608256 0.06422316
000100 86 9d 89 bd f4 53 82 bd f7 1f cf 3d db 6e 7d bd
       -0.06719498 -0.06363669 0.10113519 -0.0618733
000110 b0 7f 83 3b 68 ad 90 bd f0 b0 86 bc 12 53 2c 3d
       0.0040130243 -0.070643246 -0.016441792 0.04207141
000120 75 8d a0 3d b2 44 17 3d 81 67 af 3d 04 4c f2 3c
       0.07839481 0.036930747 0.08564664 0.029577263
000130 c8 16 50 bc fa eb 1e 3d 7a f8 81 bd f9 1c d4 3d
       -0.012700744 0.038799264 -0.06346221 0.103570886
000140 fc b7 9a bd 8e 96 1c 3d ce 1e 10 3d aa c3 18 bd
       -0.075546235 0.038229518 0.035185628 -0.037295975
000150 d1 ba ad bd 2c 64 a7 3c e8 b5 a8 bd 00 98 8e 38
       -0.08482898 0.020433508 -0.08237821 6.7994e-05
000160 74 16 26 bd a2 77 18 3d e8 58 fb bc 3b 02 c0 3d
       -0.040548757 0.037223466 -0.030682042 0.093754254
000170 c0 cd f2 ba fc 2e 83 3c 2b a4 d5 3d 58 e9 47 bc
       -0.0018524453 0.016013615 0.10431703 -0.01220163
000180 cc 01 cf bd 94 25 02 bd 0c b3 e2 3c 5d 9f ce 3d
       -0.101077646 -0.03177412 0.027673267 0.1008899
000190 d7 6e d1 bd 0c 07 ba bc 49 d2 8e 3d 6a 76 05 bd
       -0.10226219 -0.022708438 0.069737025 -0.03258363
0001a0 b7 5f ce 3d 06 1b 89 bd 0c 65 ab bc 79 ae 3e bd
       0.1007685 -0.066946074 -0.020922206 -0.04655311
0001b0 4a 3e 7a 3d b6 ff 27 3d e7 81 b0 3d be b6 90 bd
       0.06109456 0.04101535 0.08618527 -0.07066105
0001c0 d2 b8 37 3d 6e d4 73 3d e3 e1 8c 3d 56 73 56 3d
       0.044853993 0.05952876 0.06879022 0.052356087
0001d0 f3 0f 62 bd 44 63 d0 3c 20 f0 cd bd ee ca 3b 3d
       -0.05519099 0.025437959 -0.10055566 0.045847826
0001e0 22 e3 ac 3b b4 85 17 3e bc 5a 8f 3d 4a d3 50 bd
       0.0052761 0.14797097 0.06999728 -0.05098275
0001f0 39 11 b7 bd 2a be 0e 3d 09 aa f4 3d 9c aa 56 3c
       -0.08938832 0.034849323 0.11946494 0.0131022
000200 31 c8 fb bd a7 7a e4 3d f6 72 16 3e d0 53 af 3d
       -0.12294043 0.111562066 0.14692292 0.08560908
000210 c1 36 d2 bd 47 3c b9 bd f0 39 cf 39 35 71 d4 3d
       -0.1026435 -0.090447 0.00039525284 0.10373155
000220 11 39 6f 3d 05 00 2d 3d 36 be c2 3d 48 67 7e bc
       0.058404032 0.042236347 0.09508936 -0.015527554
000230 b2 f8 8e 3d 12 0e 63 3d ce d1 a3 3d 78 18 f0 3d
       0.069810286 0.05543334 0.079990014 0.11723417
000240 17 11 9c 3d 06 8b 39 3d 19 dd 00 be 79 4f 23 3d
       0.07620447 0.0452986 -0.12584342 0.039870713
000250 7b ec c7 bd 2b 21 1e be 06 53 98 bd 0c e6 b8 bb
       -0.09761902 -0.1544234 -0.074377105 -0.005642658
000260 0f b8 2e bd 83 92 89 3d 2b 64 05 3d de 77 32 3d
       -0.042656 0.06717398 0.03256623 0.043571346
000270 2e 11 64 bd b1 35 ac 3b 69 db 22 bd 9e a0 08 3e
       -0.055680446 0.005255424 -0.039760027 0.1334252
000280 dc b5 fd 3a 95 a6 cc 3d 71 ba 80 3d 79 23 0d bd
       0.0019356566 0.099927105 0.06285561 -0.034457657
000290 65 49 cf bd ed 9d ce 3d 79 10 cf bd 6c 27 73 3d
       -0.10121421 0.10088716 -0.10110564 0.059363768
0002a0 21 17 9f 3c eb 2c 35 3d ba c7 88 3d 7c 6d 7a bd
       0.019420208 0.04423229 0.0667872 -0.06113957
0002b0 2e c5 c1 3c 8c b7 38 3d 52 52 0b 3d aa a1 51 3d
       0.023653593 0.04509692 0.034014054 0.051179565
0002c0 f4 c2 dd 3d aa a2 8d 3c ad ae 69 3e 2d 6b fd 3c
       0.108282 0.017289478 0.2282054 0.030934894
0002d0 75 a9 ac 3d cb 39 a8 3d d3 16 74 3d be ac 0f 3e
       0.08430759 0.08214148 0.05959208 0.1403074
0002e0 dd f1 22 be 62 5a 8d 3d 0d c6 1e 3d 34 6a 9d bd
       -0.15912576 0.06902005 0.038763095 -0.07686272
0002f0 80 47 91 3b 04 60 e4 3a c1 37 8b bc 3e fa 4c 3d
       0.0044335723 0.0017423634 -0.016994359 0.050043337
000300 c7 9a 6e bc 30 e6 01 be 2e ef c5 3d f8 f4 51 3e
       -0.014563269 -0.12685466 0.096647605 0.20503604
000310 76 5c a3 3d e6 67 b1 3c 6c 4f dd bb d1 39 e3 3d
       0.0797662 0.021655988 -0.0067538526 0.11095012
000320 d0 ca 13 bd d3 1d 30 3c 6d 30 36 bc 68 0d 1f 3e
       -0.03608209 0.010749298 -0.011119944 0.15532458
000330 58 75 77 bd 6d 50 a4 3b 98 5e d4 bd 04 a8 8f bd
       -0.060414642 0.0050144703 -0.10369605 -0.07014468
000340 a0 91 58 3d 9c 4b fb bc a3 95 b5 3d 5e 11 b2 3d
       0.052873254 -0.030675702 0.088664316 0.08694719
000350 98 33 25 bd 9a 2c d6 bd 40 f2 f6 3d 27 ea 29 3e
       -0.040332407 -0.10457726 0.12057924 0.16593228
000360 ab 19 1f bd fd 7a 8c bc 0a b9 4b 3c 50 95 be bd
       -0.03884284 -0.01714849 0.0124342535 -0.09305823
000370 95 45 69 bb ef f8 01 bd 19 25 38 3c b8 cb cc bc
       -0.0035594453 -0.031731542 0.0112393135 -0.024999484
000380 89 6a 16 bd be 0a 95 bc c0 15 e2 3c 31 42 e9 bc
       -0.036722694 -0.018193599 0.027598262 -0.028473945
000390 b7 71 72 3c af 79 75 bc bd 88 55 bd 65 17 3f 3d
       0.01479762 -0.014982625 -0.052132357 0.04665317
0003a0 9d b5 b6 bd de ca d1 bd 12 17 47 3d aa 2a e1 3c
       -0.08921359 -0.10243772 0.048605986 0.027486164
0003b0 98 8d 34 bc d1 75 50 3e f0 a3 a3 3d 5f 62 8c bc
       -0.011020087 0.20357443 0.07990253 -0.01713675
0003c0 5b eb 1c 3d 95 3e b6 3d 18 cc 49 bd d8 7e 10 bd
       0.03831039 0.08898655 -0.049266905 -0.035277218
0003d0 8d e9 08 3d 75 d3 8e 3e 09 81 36 3e 37 9f da bd
       0.033425856 0.27895704 0.1782266 -0.10674899
0003e0 72 7e 07 bd a6 2d 5c 3e 23 88 68 3e fb 55 e1 bd
       -0.033079572 0.21501788 0.22708182 -0.110027276
0003f0 82 43 c4 3d 9e d8 a3 bd fb 96 04 bd 8a 0a cb bc
       0.095831886 -0.08000301 -0.03237055 -0.024785299

sequential_1/dense_1/Add/ReadVariableOp:0 f4 [120]
000000 63 bf 00 3e 46 4f b0 3d 15 d0 30 bc 53 74 a2 bc
       0.12573008 0.0860887 -0.010791798 -0.019830858
000010 49 95 fd 3c ae a6 d8 ba ae 9d 58 3d 8a 85 57 3e
       0.030954974 -0.0016529167 0.05288475 0.21047035
000020 d0 c1 3c bc 4f 4c 1f 3d cd 0e 2c 3e 66 5b da bc
       -0.011520818 0.038891133 0.16802521 -0.02665491
000030 a5 3f 1f bc 64 5d d0 3d b7 a2 50 3d c1 68 70 3e
       -0.009719764 0.10174063 0.050936427 0.2347746
000040 e0 d6 e6 3c b8 8a 42 3d 2a 40 bc bc a4 ab 23 bc
       0.028178632 0.047495574 -0.022979815 -0.009989653
000050 c9 c6 05 3e 9e 8c f9 bd 92 b4 09 3e f6 d3 e3 3c
       0.13064112 -0.12185024 0.13447788 0.027811032
000060 20 35 07 3c ea 29 3a bc 26 63 09 bc 47 94 40 bc
       0.008252412 -0.011362532 -0.008385455 -0.011754102
000070 72 4f 03 bc d0 5f 2c 3e 7c 9e 05 be 5a 97 dd 3d
       -0.008014547 0.16833425 -0.13048738 0.10819884
000080 c5 70 7a bc 5c 01 a5 bd b7 66 9c bc 93 e7 2f 3e
       -0.015285675 -0.080569 -0.019091947 0.17178182
000090 fd e1 71 bd ab 18 7e 3e 26 09 e7 3d 5d 00 b0 3d
       -0.05905341 0.24814098 0.11281042 0.08593819
0000a0 b5 5f 60 bd b2 be 36 3d 29 0c b5 bc e6 d1 95 3d
       -0.054778773 0.044615455 -0.022100525 0.073154256
0000b0 26 06 b4 bc db 34 7b 3e 70 71 68 3e c2 da ba 3d
       -0.021975588 0.24531882 0.22699523 0.09123756
0000c0 65 96 e4 3c 49 ab 29 3e 9c 40 c9 3d 66 04 7f 3d
       0.027903745 0.16569246 0.098267764 0.062260054
0000d0 75 e1 75 bc 98 11 0a 3e 54 69 d9 3c 7c 7e 62 3d
       -0.015007366 0.13483274 0.026539482 0.055296406
0000e0 06 65 2e 3e d9 a9 9b bc 89 6b 3b 3e a5 e5 93 bd
       0.17030725 -0.019001888 0.1830274 -0.072215356
0000f0 26 47 36 3e 24 1c b0 3c 93 9e 57 bc 77 af 24 bc
       0.17800578 0.021497793 -0.013160366 -0.0100516
000100 85 1a 27 3d d2 69 31 3e 18 f0 a5 bc 10 25 05 3e
       0.040796775 0.17325523 -0.020256087 0.1300242
000110 70 6f 30 bc 99 19 29 bd 6d 12 0d be 27 45 0c 3e
       -0.010768756 -0.041284177 -0.1377656 0.13698255
000120 46 6c 9e 3c ed c6 b1 ba 79 bf 03 3e 54 e0 a3 3d
       0.019338738 -0.0013563313 0.1286601 0.080017716
000130 b4 74 d7 3d a9 73 5c bc 8e 5b 7e bd 52 b3 a4 3d
       0.10520306 -0.01345531 -0.062099032 0.08042015
000140 ee c6 56 3d 8e f7 98 bd 0d 79 65 bc 05 dd 10 3e
       0.052435808 -0.07469092 -0.014005912 0.14146812
000150 30 d9 0a 3e db f1 d7 3b 66 48 57 3c ef 05 0d bc
       0.13559413 0.0065901107 0.01313982 -0.008607372
000160 dc 15 32 bc af 31 94 bc 51 f8 a8 bc 43 30 2c 3e
       -0.0108694695 -0.018090097 -0.020626219 0.16815285
000170 42 f0 be bc e9 b6 fe bc 5e 9b e3 3b 22 6f 51 bd
       -0.023307923 -0.031093078 0.0069460114 -0.051131375
000180 78 f6 e9 3c 80 34 0a bd b7 48 8e bc d5 19 eb bc
       0.028559908 -0.033741474 -0.017368658 -0.028698841
000190 a9 88 d8 bc 03 2e 33 bd de c7 f6 3c 01 1c e8 bc
       -0.026432352 -0.043745052 0.030124601 -0.028333666
0001a0 d5 e4 1c bc 2b df 1b 3d 56 e7 48 3d fd 39 cc 3c
       -0.009576042 0.038054626 0.049048744 0.024929995
0001b0 20 32 33 bc d0 69 14 bc e2 1c f0 bc db 96 06 3e
       -0.010937244 -0.009058431 -0.029310647 0.13143484
0001c0 54 49 66 bc ef a2 1c bc d6 ad fd bc 4b de 06 bd
       -0.014055569 -0.009560331 -0.03096668 -0.03292684
0001d0 eb f8 37 3e 1f b0 94 3d 58 67 94 3d 59 d4 bf 3c
       0.17966048 0.07260155 0.07246274 0.023416685

sequential_1/conv2d_1_2/convolution/ReadVariableOp:0 f4 [16, 6, 5, 5]
000000 05 c3 51 3d c4 4c ab 3d cd f9 49 bd 90 bf 0a 3d
       0.051211376 0.08364251 -0.049310494 0.033874094
000010 30 51 a6 3c 4d 77 84 bd d8 94 c1 bd 9b b4 73 bd
       0.020302385 -0.06468067 -0.09452218 -0.05949841
000020 2d 2e 20 bd 3f ba 88 bd 1f 87 48 bc 25 3a 4c bc
       -0.039106537 -0.066761486 -0.012239247 -0.012465035
000030 0e 78 62 bd e0 d5 ba bb 19 d3 96 bd c8 ff 98 3c
       -0.055290274 -0.0057017654 -0.073644824 0.018676654
000040 a8 d8 3d bc b4 7c cc bd 5d 75 9a bd 54 85 46 3d
       -0.011587299 -0.09984723 -0.075419165 0.048466995
000050 07 ac 2f bd 02 c6 47 bd b3 5b 89 3d 8c 2a ed bb
       -0.042888667 -0.04877282 0.06706943 -0.007237738
000060 cd c8 4f bd 28 44 f0 bd 86 ce 4a bd c6 52 8e bd
       -0.050728608 -0.1173175 -0.049513362 -0.069493815
000070 f9 16 7f 3d aa 02 59 bd 5a 85 e6 3c f8 06 bd 3c
       0.062277768 -0.052981056 0.028139759 0.023074612
000080 c8 1f fe 3c fb 32 76 3d c7 28 40 bd aa 4b 80 bc
       0.031021014 0.060107213 -0.04691389 -0.01566108
000090 48 68 e8 bd 2f 5d 54 bd 11 55 65 3d a7 d8 56 3d
       -0.11348015 -0.05184668 0.05598933 0.05245271
0000a0 4a 4c a1 bd 0e 7d 11 bd 4e a7 34 bd 68 5b ad bd
       -0.07875879 -0.035519652 -0.044104867 -0.084647
0000b0 45 21 e7 bd 29 e1 fd bd 51 7a e6 bd ff d9 93 3d
       -0.112856425 -0.123964615 -0.11253799 0.07219314
0000c0 84 2b 99 3d f7 07 54 bd 78 c2 5b 3d f8 4f b6 bd
       0.07479003 -0.05176541 0.053652257 -0.089019716
0000d0 e7 56 18 bc a8 f0 f4 bd c6 5f d6 bc 7b dd 86 3d
       -0.009298063 -0.11959964 -0.026168715 0.06585213
0000e0 21 47 e6 bc 6c 88 c6 bd 5c 76 01 bd 2b 7f 9c bc
       -0.028110089 -0.09693989 -0.031607017 -0.019103607
0000f0 db e8 9d bc 19 56 82 bd b1 1d 2a bc 2d 36 eb bd
       -0.019276073 -0.06364078 -0.010383056 -0.114849426
000100 25 9f b0 3c 8f 14 02 3d b3 1e a1 bd ef 3e 59 bc
       0.021560261 0.031757887 -0.078671835 -0.013259633
000110 79 1e db bc e4 89 d3 bb 58 90 fa 3b cc db 93 3d
       -0.026747929 -0.006455647 0.0076466016 0.07219657
000120 77 e9 3c bd ec c3 fb bd cd 81 81 b9 6a be ea bc
       -0.046121087 -0.122932285 -0.00024701506 -0.02865525
000130 85 d2 20 3d 69 40 93 3d e9 d4 9c bd e9 52 af bc
       0.039263267 0.0719002 -0.07657797 -0.02140184
000140 88 ab 89 bd c5 be b2 bc c0 13 56 bd cb 5a e4 bd
       -0.0672217 -0.021819482 -0.05226493 -0.1115013
000150 3e 45 f9 3c 04 8c bf bd 92 85 3d 3b 77 00 2e bd
       0.030428525 -0.09352878 0.0028918725 -0.042480912
000160 6c d6 a0 3d 40 27 1a bc 77 b8 3e bd 24 2e 16 bd
       0.07853398 -0.009408772 -0.046562638 -0.036665097
000170 46 2a 7f bc 7e 7b 54 bb 6c ce a1 bd 1c 63 18 3d
       -0.015574044 -0.003242224 -0.079007 0.037203893
000180 e7 11 91 bd c4 4e c2 3c 4d 52 9b 3d cc a5 fb 3c
       -0.07083493 0.023719199 0.07584057 0.030718707
000190 3b 0d bb 3d 1e f3 be bd 07 16 e3 bd b7 33 41 3b
       0.09133383 -0.09323715 -0.11088186 0.0029480287
0001a0 43 eb 86 bd 0e 2a a6 3c 61 e1 1c bd 7d b5 6f 3d
       -0.06587841 0.020283725 -0.038300876 0.05852269
0001b0 64 18 72 bd c7 a6 a5 bd d3 b4 c1 bd 2d 36 ca bd
       -0.059105292 -0.08088451 -0.094583176 -0.098736145
0001c0 f7 f2 3d bd 55 a2 ea bd ca fd c6 bd 41 f8 9d 3d
       -0.046374287 -0.11456744 -0.09716375 0.07713366
0001d0 2d 6d 9a bd ae 44 7c 3d 54 38 e9 bd e4 90 33 3b
       -0.07540355 0.061588936 -0.11387697 0.0027399594
0001e0 1d eb b6 bd 89 cb 3c 3b b0 b8 1a 3d da df 78 bb
       -0.08931563 0.002880784 0.037773788 -0.0037975223
0001f0 01 5e 1d 3c bb 34 40 bd 4c 47 13 3d c6 cc 93 ba
       0.009604932 -0.046925288 0.035956666 -0.0011276237
000200 75 b8 3d 3d ed 22 a1 bc 39 08 15 3d b4 9f 84 3d
       0.04631849 -0.019669974 0.036384795 0.064757735
000210 03 bc f7 bc a5 69 bc bd 85 0e cf bd 21 e2 3c bd
       -0.030241018 -0.091998376 -0.10110191 -0.04611409
000220 ee f1 8b bd 9b d1 9a bd e7 4f b4 ba 95 14 ab bc
       -0.06833254 -0.0755951 -0.0013756723 -0.020883838
000230 97 37 09 3d 1f 74 ff bd 1b e0 2b 3d ea 4f 4e 3d
       0.03350028 -0.1247332 0.04196177 0.05036918
000240 00 71 c2 39 37 ce 3b bd cc 55 cd 3b 97 71 44 bd
       0.00037086755 -0.04585096 0.0062663313 -0.04795989
000250 88 32 13 bd 96 89 51 bc 97 64 02 3d dd 11 7a bd
       -0.035936862 -0.012789151 0.03183421 -0.061052192
000260 77 3e e1 3d cb 8b 0f 3e f2 7b 87 3b c7 12 7d bd
       0.10998242 0.1401817 0.0041346485 -0.061785486
000270 54 dc e4 bd be cb e3 3d 5b 72 fa 3c 06 ff 48 bd
       -0.11174837 0.11122845 0.030572107 -0.049071334
000280 13 50 26 be 6c 5d db bd fe 81 e3 3c cc a6 68 3e
       -0.16241483 -0.10711178 0.027771946 0.22719878
000290 9f 57 37 3e fe d5 54 be 1e f0 78 be 3d b9 72 bd
       0.17904519 -0.20784757 -0.24310347 -0.05925869
0002a0 06 98 ad 3d 1c 0c 50 3e 77 45 05 3c 82 27 41 be
       0.08476262 0.2031712 0.0081342375 -0.18862727
0002b0 53 45 65 be 24 69 fd bd 01 a7 2f 3e f3 86 e7 bc
       -0.22389726 -0.123735696 0.1715355 -0.028262591
0002c0 e3 b8 9d 3c 07 8b 22 3e 3f cc d0 3d 67 84 b6 3d
       0.0192532 0.15873347 0.10195207 0.089119725
0002d0 ff 87 0e bd 88 21 d3 bd b3 73 ab bc 2b 34 64 3d
       -0.034797665 -0.1030913 -0.020929193 0.055713814
0002e0 5c a6 30 3e 78 46 0e be d6 ca b8 bd eb 25 d5 3d
       0.17250961 -0.13894069 -0.09023063 0.10407623
0002f0 4c 7c 6a 3d 38 3e 2c 3e 35 c9 e8 bd bf 84 09 be
       0.057247445 0.1682061 -0.11366502 -0.13429545
000300 6c d4 2e bc 11 ba fc 3d 0e 34 ee 3c 65 a9 3d bc
       -0.0106707625 0.12340177 0.029077556 -0.011576031
000310 a0 ac 30 be 83 e1 e7 bd 93 36 a6 bd f7 11 9d bd
       -0.17253351 -0.1132231 -0.08115878 -0.07669442
000320 54 25 51 bd 04 84 f2 3d 87 96 0c 3e e2 55 70 3e
       -0.05106099 0.11841586 0.13729297 0.23470262
000330 f4 8d 95 3d d6 8e d4 3c 97 56 48 3e a3 4d 7e bc
       0.07302466 0.025947016 0.19564281 -0.01552144
000340 48 6a 82 be be 49 fd 3d 56 1c b4 3d 55 03 3a 3e
       -0.2547171 0.12367581 0.08794467 0.18165334
000350 f3 cd 8a 3e 6d a2 8b be ec 16 51 3d 00 26 20 3e
       0.27110252 -0.2727236 0.05104725 0.15639496
000360 12 41 7f 3c c0 73 5d 3e 7e 0f 41 bd c8 e1 bc be
       0.015579479 0.21626186 -0.047133915 -0.36891007
000370 35 ef 09 3e 22 1e 1c bd e3 71 bd bd bb 4d c9 3d
       0.13470156 -0.038114674 -0.09250238 0.09829279
000380 91 96 9e bd 3b 5b 8c bd ea 84 9f bd 2b 41 ad bc
       -0.07743562 -0.06853338 -0.07789023 -0.021149239
000390 7a 3b a7 3d 40 f4 2a be c1 94 d3 bd a5 51 7f 3d
       0.08165641 -0.16694736 -0.10331107 0.06233372
0003a0 7c f5 61 3e cd e5 2f be f8 3d 25 be c5 ce 24 3c
       0.22066301 -0.17177506 -0.1613692 0.010059063
0003b0 76 0b 1b 3e 59 76 95 3e f8 85 a2 3d 8a 2b 1f bd
       0.15141091 0.29191855 0.07935709 -0.03885988
0003c0 c9 1f 95 be c1 d1 e2 bd 03 af 13 3d 6d 30 9c 3e
       -0.29125813 -0.11075164 0.036055576 0.30505696
0003d0 60 58 2d 3e 65 5e b8 bc 3d 49 a6 bd fe 60 21 be
       0.16928244 -0.022505948 -0.08119438 -0.15759656
0003e0 79 7b c3 3d 4a 49 1a 3e b1 bd 7c 3c ca 46 49 be
       0.09545035 0.1506702 0.015426085 -0.1965591
0003f0 52 f8 1e bd 43 64 7b 3d 29 b0 a2 3d d1 d7 3c be
       -0.038811035 0.061374914 0.07943756 -0.18441702

sequential_1/conv2d_1_2/Reshape:0 f4 [16]
000000 9f 83 0c bc 95 1d 5a 3e ce d9 63 3e b5 ba 43 3e
       -0.008576303 0.21300347 0.22251055 0.19114192
000010 d3 5d d7 3d 0c 90 b2 3d 5d a9 11 bc b1 cd c8 3d
       0.105159424 0.08718881 -0.008890477 0.098048575
000020 5f 87 b1 3e de d4 0c 3e 47 da 5a 3e 0b b2 57 3e
       0.34673592 0.13753077 0.21372329 0.21064012
000030 27 15 85 bc b5 81 00 3e cd 4d 62 3e 1e 39 86 3e
       -0.016245438 0.1254948 0.22099991 0.26215452

sequential_1/conv2d_1/convolution/ReadVariableOp:0 f4 [6, 1, 5, 5]
000000 9e 40 50 3e 9f e1 05 3f 40 10 1b 3f fc ba 98 3e
       0.2033715 0.52297395 0.6057167 0.29830158
000010 d3 7f a3 be a6 7e ae 3e a0 c2 02 3f 2a 56 46 3f
       -0.3193346 0.34081 0.51078224 0.77475226
000020 0e 14 1b 3f a8 63 bc bd 51 5a 55 bd d7 f8 a8 3e
       0.60577476 -0.091986954 -0.052088086 0.3300235
000030 88 b1 25 3f 28 1c 0a 3f f5 2d d6 bd d6 48 92 be
       0.64724016 0.53949213 -0.10457984 -0.28571194
000040 68 ae dc be 9b 17 37 bd 9d e7 8b bd cc ba d6 bc
       -0.4310181 -0.044700246 -0.06831286 -0.026212119
000050 66 38 c2 be 8f 5c 3a bf 26 b6 51 bf e4 fe 2d bf
       -0.37933654 -0.72797483 -0.8191856 -0.6796706
000060 e5 73 4c be 2e 05 e8 3c e9 b0 49 3d 4a 5f 93 3e
       -0.19966085 0.028322782 0.04924098 0.28783637
000070 da 33 5e 3e 21 88 2f bd 75 d1 0a 3e f8 0e f4 3d
       0.21699467 -0.042854432 0.13556464 0.119169176
000080 81 0f 94 3e fa 11 bd 3e 3d d1 a9 3e 26 56 77 be
       0.2891808 0.36927778 0.3316745 -0.24153957
000090 63 aa 5b bc 7f 2b de 3d 91 a3 81 3e 6d 6b 73 3e
       -0.013407323 0.1084814 0.25320104 0.23771448
0000a0 54 08 37 be e1 a5 15 bc d0 e6 06 3d 6f cd 2b 3d
       -0.1787427 -0.009133787 0.032934964 0.041943964
0000b0 33 1e 0d 3e 3b 34 2b 3e 24 95 06 bb 0e 05 9b 3d
       0.13781051 0.16719143 -0.0020535672 0.075693235
0000c0 39 e1 4d be fc af 15 bd 6f ae f1 be f4 67 1c bf
       -0.20105447 -0.036544785 -0.47203395 -0.6109612
0000d0 bf 21 6c be 6d df a7 3d f8 f8 74 3e dd 03 ae bd
       -0.23059748 0.08196912 0.23923099 -0.084968306
0000e0 56 e4 fb bd b4 f4 6e be 00 27 8d 3e 0e 27 e9 3e
       -0.12299411 -0.23335534 0.27568817 0.4553761
0000f0 de b7 c6 3e 19 88 57 3c f2 a9 a0 be 34 81 2b be
       0.38812155 0.013155007 -0.31379658 -0.16748506
000100 7f fa ee 3e 26 4c a0 3e 94 d8 f1 3e 1b 5f 64 be
       0.46675488 0.31308097 0.47235548 -0.22301905
000110 62 ea cd be 94 48 e4 bd 16 65 86 3e 76 7d ff 3e
       -0.40217882 -0.11146656 0.26248997 0.49900407
000120 f4 59 8c 3e 9f 16 0e bf 46 29 8e be 71 a7 c7 3e
       0.2741238 -0.5550327 -0.27765864 0.38994935
000130 fd 99 22 3f aa 04 16 3f 2b 22 a2 3e ce 3b 8e 3e
       0.6351622 0.58600867 0.31666693 0.27780002
000140 be ed 05 3e 16 d6 b2 3e d1 b2 8d 3e 1a 48 2d 3e
       0.13078973 0.3492896 0.2767549 0.16922036
000150 ab f7 78 3e d1 59 d8 bd f9 cc 15 3e 2f c0 2b be
       0.24313228 -0.10564006 0.14628972 -0.16772531
000160 af 46 95 be f8 31 ad bc 87 fc e4 bd 80 bf 06 bf
       -0.2915549 -0.021141991 -0.11180978 -0.52635956
000170 20 c1 d1 be 3a 12 05 bf da ad 08 bd 17 ba 1a bd
       -0.40967655 -0.51980937 -0.033368923 -0.037775125
000180 1c 4c c1 be 86 c5 89 be eb 1d c2 be 28 01 d2 bd
       -0.3775338 -0.2690851 -0.3791345 -0.10254127
000190 2d c7 9d be 3b 07 39 be 66 94 15 bf 80 90 13 bf
       -0.30816022 -0.18069164 -0.58429563 -0.57642365
0001a0 b7 15 f1 be 03 62 d6 3c 34 d6 44 be 60 e3 98 be
       -0.4708688 0.026169783 -0.19222337 -0.29860973
0001b0 8d c0 95 be ff 0d 1b bf e6 57 bb 3e 6a da e7 3e
       -0.29248467 -0.6056823 0.365905 0.45283824
0001c0 32 8c 00 3f 83 23 6a 3e b9 fa c7 bd ba b6 5a 3e
       0.5021392 0.22865109 -0.097646184 0.21358767
0001d0 f6 0b 0e 3f fe 07 b6 3e a9 4c 13 3e 83 00 f7 3c
       0.55487 0.35552973 0.14384712 0.030151611
0001e0 36 13 33 3e 33 f0 db 3e d9 d9 e9 3e c6 15 9c 3e
       0.17487797 0.42956695 0.45674017 0.30485362
0001f0 51 97 85 3c a3 fb 9a be 25 24 0e be 3b be 14 3e
       0.016307505 -0.3027011 -0.13880976 0.14525692
000200 8a c3 31 3d a8 07 1e 3e 52 c6 a9 be b4 c8 07 be
       0.04339937 0.15432608 -0.3315912 -0.13260156
000210 c1 9b 55 3e 9d 16 ad 3e b7 54 79 3e 4d 0f 6b be
       0.20860197 0.33806315 0.24348722 -0.22955056
000220 30 06 c7 bd af 8b 92 3e be 66 da 3e d3 4d dc 3e
       -0.09717977 0.28622195 0.4265651 0.43028125
000230 3d 02 0b bf 4b c7 9d be f6 7a cf 3d b8 0b af 3e
       -0.5430029 -0.3081611 0.10130875 0.34188628
000240 59 76 1c 3f 2e 3f 07 bf 1c e0 0e bf c8 08 49 be
       0.61118084 -0.5283078 -0.55810714 -0.19632256
000250 0a f3 ea bd 36 5e 9c 3e
       -0.11472137 0.30540627

sequential_1/conv2d_1/Reshape:0 f4 [6]
000000 40 d8 73 bc 5d a0 93 bd 92 96 55 3e 00 6e 5a 3d
       -0.014883101 -0.07208321 0.2085822 0.05332756
000010 c1 b0 f7 3c a0 8d b7 3d
       0.03023565 0.0896256
