models/model.onnx (onnx, 261306 bytes, 10 tensors)

sequential_1/dense_2_1/Cast/ReadVariableOp:0 f4 [84, 43]
00000000: f68a eb3d 2509 f83d d564 b9bc 56fb 783e
00000010: 4610 553d 4934 fe3d f7e2 fa3d 2459 65be
00000020: a790 853d 9f5c 82be 3026 2b3e 27e6 183e
00000030: ec3c 3fbe 13c3 063e e424 2bbe 79d0 1e3e
00000040: 3656 f23d 8074 debe 18cf dcbe 89e6 893e
00000050: 0258 e6bc e5a9 6abd 666a a1bc 84e5 a6bc
00000060: a35f 4a3e cb80 edbd 7791 09bf 454b 1ebc
00000070: 9e06 31be 9735 58bc 55f2 2abe 1ab2 27bd
00000080: cf38 2c3e a29c 05bf 5f24 133d 4c22 0d3e
00000090: f7bc 183e 6c8d 073d 4a33 913e c81f d4be
000000a0: 66d0 8cbe af5b b73d 7439 83bd df9e ba3e
000000b0: a2a0 953e df6d 0f3c de9f 38bd df75 30bd
000000c0: 816c 5e3d 65b6 433e 00a8 4fbe f5ac 0f3e
000000d0: eb21 27bd 7f3a df3d 2fdc 16bd 20ff 023c
000000e0: 7f58 7cbd b32d 283e 8408 b83c 6d88 b4bc
000000f0: afa5 013e 61e0 68be 0c2c c3bd 9974 3a3d
00000100: 0f10 12bf 2514 4dbe 1926 523d fffd 1abf
00000110: ec62 cfbd 0139 47be 70c8 b7be c9ab 95be
00000120: 7cd5 95be c18a 14bf 9c8d 02be b172 f0bd
00000130: 8882 763e 3d9b ab3d 8817 143d 9624 13be
00000140: a016 1739 2c12 93be d603 893e 5861 073e
00000150: ef8e 81be d0fd 6bbe 8060 3fbe 54ed 38be
00000160: 354c 1dbd 2de7 bebd fdb1 56be 0e1c 1cbd
00000170: 1926 593e c370 2f3e ad8f 1f3e 653a d7bd
00000180: b6bd 55be c303 ddbd 8945 89bd 85f3 08bd
00000190: 35ae 36be b076 03be 20dc 65be 8996 92be
000001a0: 2fb5 6abd b82b 263e e439 8f3e 6774 70be
000001b0: ca9b 183e 3393 30be 7357 ae3d 82ae 6a3e
000001c0: 2d19 babd e081 85be 15bf 083e 41a9 88bd
000001d0: 8009 1b3d f778 08be 843d 13be d83b 953d
000001e0: 68b8 71be 48cf 023e 077b 0ebe d4c5 503d
000001f0: b4f1 99bd ccf9 0ebe 0740 81bd b904 3e3b
00000200: a219 1ebc 39cd 2a3d 2456 00be 7367 c8bd
00000210: b60f e5bd 4c26 bcbd 5c82 3fbe 0341 5cbe
00000220: d4f2 30be c4d4 4abe 5670 0f3e 38b4 663d
00000230: 3089 d03c 442e f0bc 9ac4 5fbd 9c7e 0abe
00000240: f794 b2bd a4fe f8bc 1be4 fa3c 7a22 15be
00000250: 73f8 22bd b461 58be 752e c13d 1f09 0abe
00000260: 0105 dfbd 7dec c53d 0e2b f23d ef0b dbbd
00000270: 4da0 08be 3d4f 91be ae9c ddbd 789b c93c
00000280: 3748 42be 80c0 db3d 810a f2bd 793b 0fbd
00000290: 834d dcbd 579b 3dbe 87ed 46be 5edd a13d
000002a0: 48f7 bbbd dc8e 04bd ea75 0e3e e148 70be
000002b0: 065e 3abe a371 82bd c8aa 1cbe 605a 44be
000002c0: cab3 223d a71e 10be 46df 90be 228c ed3d
000002d0: fa7a 6abe 5aef 3ebd e73c fabc 7817 c0bd
000002e0: 051b 25be c2fb 21be fa7a b5be f483 62be
000002f0: 35fa 38be aae6 67bc 23a9 21be e443 d23c
00000300: 39ca 1abe d495 143e 697c ecbd 4c8c 1abe
00000310: 2bd7 bfbd c163 7ebe ef1b 183d 6f8c 1fbe
00000320: 96f8 ed3d 65d4 883b 0926 91be e703 3abd
00000330: f7d6 27be 7ade 1ebe 0c5b 743c d2fc 63be
00000340: 7e59 ee3b 3c4a aabc b350 df3e 11a9 943d
00000350: 55ed debd 096a debd cf8a 06be fe6b 083e
00000360: 3b04 1cbe 4b0c 7fbe 4501 a33d 1cbe d9be
00000370: 9165 a7be e039 483d df69 243d 0d8e 19be
00000380: 4225 bb3e 422c 22be 8914 0e3d d70c 59bd
00000390: e2e5 00be 64c2 9f3e d13f 3a3c 8989 a8be
000003a0: 8f65 873e adf7 64be 5c28 8fbe cfb5 313e
000003b0: 3f36 8dbe 82ac 1b3e 32e4 3a3c 915e 01be
000003c0: 2db0 8cbe ca56 d73d 4087 ddbe c64d 693d
000003d0: c6da 86bd 0abd dd3d d0ca a8be 184a d1bc
000003e0: 9a84 a73d 8320 853d d4d7 1b3e 6a1a 7dbe
000003f0: 0bfe f2bd 78d3 583d ab82 9dbe 19e9 06be
0.11501114 0.12111119 -0.022631088 0.24314627 0.052017473 0.12412316 0.12250321 -0.22397286
0.06521731 -0.2546129 0.16713786 0.14931546 -0.18675584 0.13160352 -0.16713291 0.15509214
0.1183285 -0.43448257 -0.4312675 0.26933697 -0.028118137 -0.05729093 -0.019704055 -0.020373113
0.19763045 -0.11596831 -0.53737587 -0.0096615 -0.1728768 -0.013196371 -0.16694005 -0.040941335
0.16818546 -0.5219213 0.035923358 0.13782614 0.14915834 0.033093855 0.28359443 -0.41430497
-0.27502745 0.08953034 -0.06407443 0.36449334 0.29224116 0.008754223 -0.045074336 -0.04308116
0.054302696 0.19112547 -0.2027893 0.14030822 -0.04080383 0.10899829 -0.036831077 0.007995397
-0.061607834 0.16423683 0.022464998 -0.02203771 0.1266086 -0.22741844 -0.09529886 0.045521352
-0.57055753 -0.20027216 0.051305864 -0.6054382 -0.1012629 -0.19455339 -0.3589511 -0.29232624
-0.29264438 -0.5802422 -0.12749332 -0.11740626 0.24073231 0.08379219 0.036155254 -0.14369425
0.0001440891 -0.28724802 0.2676074 0.13220727 -0.25304362 -0.2304604 -0.18689156 -0.18059283
-0.038402755 -0.09321437 -0.20966335 -0.038112693 0.2120594 0.17132859 0.15582152 -0.10509185
-0.2087315 -0.10791733 -0.06702716 -0.033435363 -0.17839892 -0.12838244 -0.22447252 -0.28630474
-0.057301696 0.16227615 0.27973855 -0.23481904 0.14903179 -0.17243652 0.08512773 0.22918132
-0.09086833 -0.2607565 0.13354142 -0.066729076 0.037850857 -0.13327394 -0.14378935 0.07286805
-0.23605502 0.12774384 -0.13914119 0.050969914 -0.07516804 -0.13962477 -0.0631104 0.0028994514
-0.009649666 0.04169962 -0.1253286 -0.097853564 -0.11184637 -0.09186992 -0.18702072 -0.21509175
-0.17280132 -0.19807726 0.14007697 0.056324214 0.025456041 -0.029318936 -0.054630853 -0.1352486
-0.08719819 -0.03039486 0.030626347 -0.14563933 -0.03978772 -0.21131021 0.09432689 -0.13480042
-0.10889626 0.09664247 0.11824618 -0.106956355 -0.133424 -0.28380767 -0.108209 0.024610266
-0.1897286 0.10730076 -0.1181841 -0.034968827 -0.10756972 -0.18516289 -0.19426547 0.079035506
-0.091780245 -0.032362804 0.13912168 -0.23465301 -0.1819993 -0.06369331 -0.15299523 -0.191751
0.03972224 -0.14074193 -0.28295344 0.11598994 -0.22898474 -0.046614982 -0.030546619 -0.09379476
-0.16123588 -0.15818694 -0.35445386 -0.22120649 -0.18064196 -0.014154116 -0.15787177 0.025667138
-0.15116204 0.1451028 -0.11547167 -0.15092582 -0.09367212 -0.2484274 0.037136015 -0.15580915
0.1161968 0.00417571 -0.2834933 -0.045413878 -0.16390596 -0.15514556 0.014914285 -0.22264412
0.007273852 -0.02078735 0.43616256 0.07258809 -0.10885111 -0.10860068 -0.13138889 0.13322446
-0.15235989 -0.24907033 0.079592265 -0.42527854 -0.32694677 0.04888332 0.04014003 -0.14995594
0.36551863 -0.15837196 0.034687553 -0.05299076 -0.12587693 0.31202996 0.011367754 -0.3291743
0.2644467 -0.22360106 -0.2796048 0.1735451 -0.2758045 0.15202525 0.011406945 -0.1263373
-0.2747816 0.105146006 -0.4326725 0.056958936 -0.065846965 0.10827072 -0.32967234 -0.025548026
0.081795886 0.06500342 0.1521905 -0.24717107 -0.11864861 0.052936047 -0.30763754 -0.13174857

sequential_1/dense_2_1/Add/ReadVariableOp:0 f4 [43]
00000000: c220 9dbe 07ba 0cbc 1984 443d d2e2 1e3e
00000010: 684a fa3d 3d4f 313d 4330 043e 8ebd bf3d
00000020: a42f 363e 3f87 f5bd 8605 b8bc eab2 11be
00000030: 042d da3d 4028 873d 1d9e 07be aa94 25bd
00000040: 8313 09be d7ef 07be baf7 eb3d 066b 80bd
00000050: dba4 d13d 5a55 4ebe 6df0 79be 792f 75be
00000060: 2b36 e53d 46ae d43d 5b1a d63b 3635 2e3a
00000070: 058b 92bd 9201 66be a311 013e 30ac 213e
00000080: 1202 113e 02b6 333d 8db9 50be f3d0 92bd
00000090: bd6e 9b3c 289c 5abe 4109 083d f259 4cbd
000000a0: 6942 cdbd 6bc3 49be 7d76 ddbd
-0.30689055 -0.008589274 0.04797754 0.15516213 0.12221223 0.04328846 0.12909035 0.093623266
0.17791611 -0.11988687 -0.022463571 -0.14228407 0.10653117 0.06599474 -0.13243909 -0.04042498
-0.1338635 -0.13275085 0.115218595 -0.06270413 0.10236522 -0.20149747 -0.24408121 -0.2394389
0.11191972 0.103848025 0.0065339035 0.0006645502 -0.07155422 -0.22461537 0.12604384 0.1578834
0.14160946 0.043874748 -0.20383282 -0.0716876 0.018973703 -0.21348631 0.03321195 -0.049890466
-0.10022432 -0.19703452 -0.108136155

sequential_1/dense_1_2/Cast/ReadVariableOp:0 f4 [120, 84]
00000000: dc29 9f3e d4ad d33b c461 62bc 024f 0d3d
00000010: 0515 32be 8b95 6f3d e109 33be 27a4 7dbd
00000020: 21a5 73bd ec35 8f3b fcef 3fbe ba03 ed3d
00000030: 3fa9 b8bd f1da 083e 8df7 413d 9e2e 4bbe
00000040: f15b 693e fe2d 7a3e 789e d03c db8f 993e
00000050: c0c4 313a e18b 64bb 1d42 94bd ec34 343e
00000060: 3a70 703d 69ee 383d 75e7 88be 89b7 c8be
00000070: c0c0 193e 3aa8 3dbe ad4c 2b3d 78c6 b2bd
00000080: 0422 f13d a066 1bbe 99e7 503d 6bdd 94be
00000090: f393 f33c e139 383d 6566 c6ba deb6 7bbc
000000a0: 849e 093e f9e0 c5bd cf95 b63c 9880 bebc
000000b0: 0a25 f0bd 2178 57bd 819d 8a3d 33be a03d
000000c0: 7383 0a3e a43b f63d 4058 863d a92d 38be
000000d0: 5983 e43d 1ed5 ab3e 3625 ecbd 7826 e4bd
000000e0: cbfb 883d d9f7 b03d a850 16be 4675 2b3e
000000f0: 5375 c23d 78e1 e33d 6618 14be c2e5 0b3e
00000100: a1c5 d0bd 721a 1e3e f703 bf3d af80 2c3d
00000110: dbd9 e83d f138 843d 24ab 23be 7392 fd3c
00000120: 23d4 73bd 39d6 d03e d09f 65bd e331 2ebe
00000130: e4e1 843c 3393 1cbd a505 123e 06c5 0c3e
00000140: 2b96 96be a95d 383d 84c1 313d bb06 2abe
00000150: 9b20 7d3d 80d8 e93c cf39 0c3c 805a fb3a
00000160: a769 733d b772 16be b8d8 693c adfa 32be
00000170: 88dd a43d 4933 cbbd d8c2 163e cebf c8bd
00000180: 5677 1abe cbda 1f3e 455e 94bc 004d a5ba
00000190: e0f7 bfbd 8125 c73c 6d2a c7bd 5190 d1bd
000001a0: 2260 febd 4680 fd3d 692e e4bd c9ac 0dbe
000001b0: 922b 6a3d 663c cb3d 4822 993d 971f fb3d
000001c0: 1c71 c9b9 296c 103e 4899 26be c6a5 ee3d
000001d0: 24a5 ddbd dbc9 74bc d69a 653d c675 56ba
000001e0: 2428 19bd 7310 e1bb 12ad d23d f7a5 133e
000001f0: a406 78bd 7acf 18be 243b 353e e875 f0bd
00000200: 2a03 ab3d 7c75 083d ceb5 5b3c e67f e33d
00000210: b24d c3bd fc6a be3c e9e3 b2bd 0722 ba3c
00000220: 455f 9dbd c7ec d03d 4120 5c3d c987 0b3e
00000230: b432 323d fba5 09be ac85 ea3c 5dbf 833c
00000240: 696d cc3d 134e b33c d08e 863d d276 af3c
00000250: be1a 503d 8f28 6f3d c17c 0f3d 95e6 58bd
00000260: d3c4 a2bc cede d6bc ba1f 413d 268b cebd
00000270: 78ad f4bc 0208 95bd b810 f03d 07d8 1ebe
00000280: d0a6 133c ce20 b13c 542d 3abd af71 3b3d
00000290: 4207 b53d 2fbd 123e 1eab 003d 03d7 d3bd
000002a0: 5d72 933e 8d26 653d f7e3 79bd 4ae1 b1bd
000002b0: 5dd6 8e3e ff9a 913e 971f 8c3e 3d50 4dbe
000002c0: f525 a1bc 0373 13be 25e7 eb3d 6e56 803e
000002d0: a1b8 073f 1244 a83e 6367 d4bc cb69 d53d
000002e0: 28fe fe3d b88e 1cbc 6d45 9a3d 7bb9 bc3e
000002f0: 95ff 803d 7f8b ffbd 8876 933e e7ed 1a3e
00000300: f045 ef3d 9897 1d3e ae2a a6bd 7641 963e
00000310: 071b 3bbe da66 0f3e 5da3 753e 3f13 2fbd
00000320: 89a9 fabd 5edb bd3e 4e4c afbe b792 2fbe
00000330: 4c44 f53d 88e4 793e b192 db3d 29ea 8e3e
00000340: fa6f b33e 5a34 22be fecc ae3b b466 f93b
00000350: 30af e0bb 8618 f33c 5316 52be 8227 d53d
00000360: 98f3 aabe ba74 983e 8f56 223d 10c7 be3b
00000370: c721 823e 794f a7be 2284 94be ca64 ffbd
00000380: 067a 183e ae96 833d 78ad c7bd eb25 4bbe
00000390: d10b 563e c8cd 24bc 4512 6b3e 70c5 96be
000003a0: b77e 70bd 6f1c 28be 6454 72be 3998 adbd
000003b0: dd6b 3e3d e70a c93d fb48 ac3e 9871 c03d
000003c0: 1be4 2dbe 7152 293d 4003 3cbd 2d80 bf3d
000003d0: 2f1a 633e b39b 4a3e 82e2 1ebe 0b87 c2be
000003e0: 7fa3 eebd 18cc 053d 961d 2bbe 5f38 6d3c
000003f0: af23 473e 55d7 f43c 6ab1 20be a03e 47be
0.31086624 0.006459931 -0.013817254 0.034499176 -0.17390831 0.058492225 -0.17484237 -0.061924126
-0.05948365 0.0043704417 -0.1874389 0.115729764 -0.09016656 0.1336477 0.047355223 -0.19842002
0.22788979 0.24431607 0.025466189 0.29992566 0.0006781332 -0.0034873413 -0.072391726 0.17598313
0.058700778 0.04514924 -0.26739088 -0.39202526 0.15014935 -0.18521205 0.04182117 -0.08729261
0.11774066 -0.15175867 0.05100212 -0.29075179 0.029733634 0.044977073 -0.0015136717 -0.015363423
0.13439375 -0.09662051 0.022288231 -0.023254678 -0.11725815 -0.0526048 0.06768323 0.078487776
0.13526706 0.12023094 0.06559801 -0.17986168 0.11157865 0.33561033 -0.11530535 -0.1114015
0.06688651 0.08641023 -0.14679205 0.16743955 0.09495034 0.11126989 -0.14462432 0.13661864
-0.10193945 0.15439776 0.09326928 0.04211491 0.11369678 0.06456173 -0.15983254 0.030953621
-0.05952848 0.4078844 -0.056060612 -0.17011218 0.016220994 -0.038226318 0.14259966 0.13747033
-0.29411444 0.045011196 0.04339744 -0.1660413 0.061798673 0.028545618 0.0085587045 0.0019176751
0.05942693 -0.14692198 0.014272861 -0.17478438 0.08050066 -0.09921891 0.14722764 -0.09802209
-0.15084586 0.15610807 -0.018111357 -0.0012611449 -0.0937345 0.024309875 -0.09724889 -0.10232604
-0.1242068 0.12377982 -0.111416645 -0.13835444 0.05717046 0.099236295 0.07477242 0.12261885
-0.0003842198 0.1410376 -0.1626941 0.116527125 -0.10822514 -0.014940704 0.056055866 -0.0008181002
-0.037391797 -0.006868416 0.10286917 0.1441878 -0.060553208 -0.14922896 0.17698342 -0.11741239
0.08350213 0.033315167 0.013410045 0.11108379 -0.095363036 0.023244374 -0.08734877 0.022721304
-0.07684187 0.10201412 0.053741697 0.13626017 0.043505386 -0.13442223 0.028628193 0.01608246
0.09981806 0.021887815 0.06570208 0.021418963 0.050806753 0.05838829 0.035031084 -0.052954275
-0.019869244 -0.026229288 0.047149397 -0.10085134 -0.029867873 -0.07276918 0.11721939 -0.15512095
0.009011939 0.021622088 -0.045453385 0.045762714 0.08839275 0.1432998 0.03141319 -0.103437446
0.2879819 0.055944968 -0.06100842 -0.086855486 0.2789792 0.28438565 0.2736785 -0.2005014
-0.01967142 -0.14399342 0.11518697 0.2506594 0.53016096 0.32864434 -0.025928205 0.10420569
0.1245082 -0.009555511 0.07532773 0.3686026 0.062987484 -0.12477779 0.2880137 0.15129815
0.116832614 0.1538986 -0.08113609 0.29346818 -0.18272029 0.14004079 0.239881 -0.042742964
-0.122393675 0.37081426 -0.34237903 -0.17145811 0.11975917 0.24403584 0.107213385 0.27913025
0.3504637 -0.15840283 0.0053344956 0.00761112 -0.0068568215 0.02967478 -0.20516329 0.10407926
-0.33388972 0.29776555 0.03963333 0.00582207 0.25416395 -0.3267782 -0.2900706 -0.12470396
0.14890298 0.06425224 -0.097498834 -0.19838683 0.20902945 -0.010058828 0.22956188 -0.29447508
-0.058714595 -0.16417097 -0.23665005 -0.084763 0.046489585 0.098165326 0.3364943 0.09396666
-0.16981547 0.041338388 -0.045901537 0.093506195 0.22177957 0.19785957 -0.15516093 -0.37993655
-0.11652278 0.032665342 -0.16710505 0.014478772 0.19447206 0.029887835 -0.15692678 -0.19457483

sequential_1/dense_1_2/Add/ReadVariableOp:0 f4 [84]
00000000: 5338 953d 843a 333d 081e 03bc 7ab3 98bd
00000010: d117 2fbe c617 2bbe 552c 2a3d 44cc 413d
00000020: c490 653c 9c7d 0e3e c99b e6bc a644 7b3c
00000030: 500e 123e b916 ccbb 2e6b 8c3a 437e 303d
00000040: 208f 643d 2db8 43bb 966b 033e 700c d13d
00000050: 899c b9bc 09cc 763d fe27 12bd 4ff5 853d
00000060: d96a 013e 9182 c2bc d22f 103d d9f1 b63d
00000070: 7256 c6bc 36a6 64bc fd91 46bc 9d2e 16bd
00000080: ddd3 223d 1171 403d 5e74 cc3d 4763 c83d
00000090: 2a33 d0bb f47f 743e 8853 23bd a3e5 a2bd
000000a0: 498e 413d 258d 233e ea22 0c3e ea40 523e
000000b0: c31a 133e ea98 c63a ec48 a6bd 0c8a ef3b
000000c0: 6458 a43d 1700 623e 5fb6 893d 4025 0b3e
000000d0: 7544 3ebe cbc6 81bc 7f19 2b3d d0be 6bbc
000000e0: 7ee3 8d3e 8068 483d 0d93 893d 7d2c 9e3e
000000f0: 7277 133e d322 8ebc 154e fa3b ca66 78bc
00000100: e534 9dbc 645c f7bd 3503 cdbd 5302 38bd
00000110: 470a e63d aabb 883d 448b 933d 6031 443e
00000120: 0699 7dbe 54d4 5b3e f72b 31bd 665d 773c
00000130: fc5c 7e3b 4a15 93bb 4dd8 1e3e f025 a13e
00000140: 4d51 86bd 8500 2bbd fdfc 3f3d 5ace 933e
0.072861336 0.043756977 -0.0080027655 -0.074561074 -0.17098929 -0.16708288 0.041546185 0.047313944
0.014011566 0.13915104 -0.028150456 0.015336191 0.14263272 -0.0062282947 0.0010713094 0.043089163
0.055800557 -0.0029864416 0.1283401 0.102074504 -0.02265765 0.060253177 -0.03568267 0.065409295
0.12638415 -0.0237439 0.035201855 0.089328475 -0.024211142 -0.013955643 -0.012119767 -0.036665548
0.03975283 0.04698283 0.09983133 0.09784561 -0.0063537555 0.23876935 -0.039874583 -0.07953956
0.047254834 0.15971811 0.13685194 0.20532575 0.14365678 0.0015151773 -0.081193775 0.0073101576
0.08024672 0.22070347 0.06724238 0.13588428 -0.18580802 -0.015841862 0.04177236 -0.014388755
0.27712625 0.048927784 0.06717501 0.30893317 0.14401034 -0.01735059 0.0076387026 -0.015161226
-0.019190261 -0.12078169 -0.10010377 -0.04492409 0.11232429 0.06676419 0.07204297 0.1915946
-0.24765405 0.21467716 -0.04325482 0.0150979515 0.0038812747 -0.004488622 0.155122 0.31474257
-0.06558476 -0.041748542 0.046872128 0.2886837

sequential_1/dense_1/Cast/ReadVariableOp:0 f4 [400, 120]
00000000: 1cad 653c 148b 6a3d dbce be3c 8c3d 73bd
00000010: 0b9d 27bd ab4a 08be 5c0a e0bd 4971 a33c
00000020: e0ec 2a3e 3269 0e3c e9ec 9bbd 62b6 0d3d
00000030: 1618 e9bc 0bf5 1dbd ab8a 473e a24b 123d
00000040: c99b 6f3c 0651 763d 6757 bfbd b54e dbbd
00000050: d003 7c3d c1a3 d9bd 7772 3a3d 8994 333d
00000060: 60f9 66bc 562a 363b a7f8 dcbd cc94 73bd
00000070: d9b3 b5be b5b7 973b 3339 3ebe da62 bd3d
00000080: e1de 76bc 4e25 003d 0659 1bbd 9516 673d
00000090: 5104 18be b93c a0bd a307 e9bd 052e c53d
000000a0: adb7 cb3d a6df c5bc 1124 da3c 700d 16bd
000000b0: 190b 10be 6ad3 53bd f80f 19be 8cb9 9fbd
000000c0: 0b3b ed3c 117d ef3d 1583 03bb 68ee 23bd
000000d0: efd9 04bd 6055 c53d 7404 9e3c ba78 b53d
000000e0: ac1c 1b3d 919e 1bbd d5cf 483c 1122 7a3d
000000f0: 9ba2 13bc 5509 713d ed67 30bd 42ba b33d
00000100: 4b49 833d c067 063c 8590 993c 3b9f 1a3d
00000110: 38f2 0d3e 57fd dd3d adba 923c d778 79bc
00000120: 8cf5 f13d 9975 4b3d ed75 00be 9414 93bd
00000130: 354d 3a3d c7a0 883c 86c6 713d d073 3ebe
00000140: 5681 74bc 3722 993d baf2 2bbd 5e05 1d3e
00000150: a3da b8bd 0ed5 8c3d 22f1 91bd 21f1 c73c
00000160: f350 e1bd 5dac b7bb 1f8a 97bd ea01 f2bd
00000170: 65a1 c33d 1697 08bc 1a06 2f3e cefe b7bd
00000180: 2b34 aa3d 7274 9dbd 8bfb 1d3e b54c 3ebd
00000190: 3b3a 693d d130 61be d28d 57bd 9705 703d
000001a0: 638c 033e 8e8a d0bc d493 9dbd f1a5 2abd
000001b0: bdca ae3d 37da 72be f6ba 353d 8515 cbbd
000001c0: 7a91 ffbd bdb1 bfbc 4623 d2bd 482b b73d
000001d0: 1571 423e 6b02 673d fa32 803c e3c6 2c3e
000001e0: 78a6 4a3d fac0 b93b 57aa 8f3d d65d 183c
000001f0: 5e3d e1bd b91d 48bd 814c 0dbe adec a4bd
00000200: 2933 c83d 8079 66bd b8d3 8e3d 60cf 82bc
00000210: 2d30 fe3d 5fc5 96bd 27a3 71be cb11 2ebd
00000220: 47e2 fbbd 91b9 f7bc e22b a93d 2c2d a2bd
00000230: 3218 20bd 4ce5 51bb 4646 8bbd 4d7a b63d
00000240: b33d 50bd cee6 ee3b cc20 b1bc 03f9 75bd
00000250: 5a6d ac3c 1d54 103e f093 8dbb ec72 20be
00000260: 4c7c ec3c a8ee f53d fbfd ffb7 db27 683e
00000270: 9212 06be 84ff d9bd 92a0 863d fce0 663d
00000280: 5750 093e 28b3 013d 3728 ac3d 9d50 1c3d
00000290: e1c9 8a3d dfa2 783c bccf 42bc f6a3 8e3c
000002a0: 530e a83d 8330 cebd 5e8c 3abe a059 b73d
000002b0: 457b 193e aa6c ad3d 966a 98bc 4d8c 863d
000002c0: c9dc 963c 0ad7 f63b 470f 243d b4e3 e5bd
000002d0: 50ad b43b 278c 04be 2dca 07be 281c 55bb
000002e0: 6349 eebd 6cda 84bc 4e93 72be 601c 24be
000002f0: 8fb5 3f3c 36d0 77bc 1111 e83b 3c9c 00be
00000300: 4808 9cbd 2a42 b8bd 6c41 883b cf1e ec3d
00000310: 00ac 0a35 5b14 0f3d 599f 823d 99cd 0fbe
00000320: 6136 da3d 9ca7 0d3e 8930 69bd 063e 023e
00000330: 48e2 73bc 8518 9fbd 739d 26bc abe7 cebd
00000340: 103a c53d 4d84 613c d31c 09be 19e6 e9bc
00000350: a34e 04bc b00e 6bbd deed d03d ba88 e03d
00000360: 416c c9bd f2ab fdba c155 283c 14a0 5ebd
00000370: 1c2b 643e 27cf 613c 7a23 323d 6826 e73c
00000380: 569c ec3c f5dc bdbd 5cb5 7cbb 2f11 273e
00000390: 2654 16be 0238 f73d 1537 0e3e 2643 babd
000003a0: fa5d e7bd 70ce cf3d cfb9 ec3c 0d5e 223e
000003b0: a4dc 98bd 2ba8 d1bd 077c 8d3c 758e 15bd
000003c0: 2d1a 313d c6dd 5fbd cd6a dc3d ef0b 433d
000003d0: a89e 51bd e7e8 d5bb d132 40bd ab3e 6d3d
000003e0: 821e 2c3d 6582 153d 6acb 87bd b513 523b
000003f0: 0763 53bd 00e2 a23c d556 7b3e 98c4 aa3d
0.014018323 0.05726154 0.023291996 -0.059384868 -0.040921252 -0.13309734 -0.10939476 0.01995148
0.16691923 0.008692073 -0.076135464 0.034597762 -0.028453868 -0.03856377 0.19486491 0.03571666
0.014624544 0.060135864 -0.093428425 -0.107083715 0.061527073 -0.10626937 0.04551932 0.043842826
-0.014097542 0.002779623 -0.10789614 -0.059468076 -0.35488775 0.004630054 -0.18576507 0.0924737
-0.015067787 0.031285577 -0.037926696 0.05641802 -0.14845397 -0.07824082 -0.1137841 0.09627918
0.09947143 -0.024154495 0.026628526 -0.03663391 -0.14066733 -0.051715292 -0.14947498 -0.07799062
0.028958818 0.116937764 -0.0020067145 -0.040022284 -0.0324344 0.096354246 0.019289233 0.088609174
0.03786914 -0.037993018 0.012256582 0.061067645 -0.009010936 0.05884679 -0.04306786 0.0877576
0.06410464 0.008203447 0.01874567 0.03774951 0.1386193 0.10839336 0.01791128 -0.015226564
0.118144125 0.049672697 -0.12544985 -0.07181659 0.045483787 0.016678227 0.059027217 -0.18598866
-0.014923414 0.07477229 -0.04197953 0.15334079 -0.09026077 0.068765745 -0.071260706 0.024406971
-0.11001768 -0.005605264 -0.073993914 -0.11816771 0.09552268 -0.008336803 0.17092171 -0.08984147
0.083107315 -0.07688226 0.15427987 -0.046459872 0.0569403 -0.21991278 -0.052625485 0.05859908
0.12846522 -0.025456693 -0.076942116 -0.04166216 0.08534763 -0.23716055 0.044367753 -0.09916214
-0.12478919 -0.023400182 -0.10260634 0.08943802 0.1898845 0.05639879 0.015649308 0.16872744
0.049475163 0.0056687566 0.070149116 0.009299716 -0.10998033 -0.04885647 -0.13798715 -0.08052955
0.09775383 -0.056268215 0.06973976 -0.015968025 0.124115326 -0.07361864 -0.23597394 -0.042497437
-0.12299018 -0.030239852 0.08260323 -0.07918772 -0.039085574 -0.003202754 -0.06800513 0.08910046
-0.05084009 0.0072906977 -0.021622084 -0.06005193 0.021048237 0.14094587 -0.004320614 -0.15668839
0.028867863 0.12008411 -3.0516638e-05 0.22671454 -0.13093022 -0.10644439 0.06573595 0.056366906
0.13409553 0.031664997 0.08406108 0.038162816 0.067767866 0.01517555 -0.011890348 0.017412167
0.08205857 -0.100678466 -0.18217608 0.089526415 0.1498843 0.08467992 -0.018605512 0.06569729
0.018415825 0.007532959 0.040053632 -0.112250715 0.0055138245 -0.12944089 -0.13260718 -0.0032518003
-0.11635091 -0.016217433 -0.23689005 -0.16026449 0.011701002 -0.015125325 0.0070821126 -0.12559599
-0.07618767 -0.08996995 0.0041581895 0.11529314 5.16593e-07 0.034931522 0.063780494 -0.14043273
0.10654903 0.13833469 -0.056931052 0.12718973 -0.014885493 -0.077683486 -0.010169375 -0.10102781
0.09630215 0.013764453 -0.13389902 -0.028552102 -0.008075389 -0.057387054 0.102016196 0.109635785
-0.09835101 -0.0019353612 0.010274352 -0.05435188 0.2228207 0.013782299 0.043490864 0.028216556
0.02888314 -0.0927066 -0.0038560247 0.16315149 -0.14680538 0.120712295 0.138882 -0.09094839
-0.112972215 0.10146797 0.028897194 0.1585619 -0.07463959 -0.102371536 0.017271055 -0.03651281
0.043237854 -0.05465486 0.10762558 0.047618803 -0.051176697 -0.0065280083 -0.046923462 0.057921093
0.042021282 0.036501307 -0.06630595 0.0032055203 -0.05160811 0.019883156 0.24544843 0.083382785

sequential_1/dense_1/Add/ReadVariableOp:0 f4 [120]
00000000: f688 d73d 4d71 51bc 5c29 d03d d0f1 cf3d
00000010: f3fd 0f3d 564e 80bc c8ca 1bbd 7be9 ebbc
00000020: b7c5 80bc 76bb 563e c483 27bc ce6e a5bd
00000030: b62e de3e a3eb 8bbc 3907 683d 9bec 39bc
00000040: c5dc 723d ae0e a03e fb84 81bc b3a0 98bc
00000050: 5f3f 753e bed0 cabc 686a 33bd e2e4 15be
00000060: dce4 17bc e30f 053d 76da b3bd c205 5e3e
00000070: 3346 14be 44d5 4ebc 04e3 053e f760 533e
00000080: e3b1 e1bc 0afc de3d b225 a4bd 2abd 20be
00000090: 9a5d fcbc 1a6e a83c cb1e 81bc 04e8 34bd
000000a0: cc30 2d3e 65c7 24bd f2ab 6abc dac4 323d
000000b0: dce7 273e 73a1 213d 0c40 1dbd 77fc 61bc
000000c0: 30e2 7cbe 4048 b73c 749b e33c 02e9 443e
000000d0: dc2d ce3d 9563 e13d 57ae 273a 003a 593e
000000e0: 5154 3f3e a004 023e d66a 523c 0783 38bc
000000f0: 68d6 763e dcf9 713e f631 6dbc e3d6 c0bd
00000100: a7e2 573c 2687 8a3d cc76 0abd 71ff b9bc
00000110: bfb4 253e e0bd 523e b9f2 aa3d 8f11 57bc
00000120: efd0 063e 849d b43d e724 723e 347e bebd
00000130: f2ba b43d 148f 39bc e943 ca3c baf1 a7bd
00000140: f205 213e b27e 62bc 842f 01bc 585e a33d
00000150: eb47 a43c 8353 783e 7f2c d33d 2c87 d7bb
00000160: 6e48 6cbd e86c 98bc 9ab2 573e bdfc d83d
00000170: da46 d73e 1c62 f0bb 629e f83c 24c5 10bd
00000180: 63bd 74bd 1bb2 193e c62f af3d 7a4f 15bd
00000190: 4e7b f43d 191b c43b ed22 6abd 24e2 7ebc
000001a0: 83da 453e 0f33 06bd fc0f 25bc 56cd 46bd
000001b0: 16ab 2f3d a4cb 4f3e d965 053e e027 26bb
000001c0: 37dd 4b3c 24cf e33d f537 f43c b153 d73d
000001d0: 2ed0 a1bd b9e9 353e ff06 f2bc ec6a f13c
0.1052417 -0.012783361 0.10164139 0.10153544 0.035154294 -0.015662353 -0.038035184 -0.028797856
-0.015719278 0.20969948 -0.0102242865 -0.08077775 0.43395013 -0.017080134 0.056647513 -0.011347915
0.059292573 0.312612 -0.01581048 -0.018631315 0.23949955 -0.02475774 -0.04380265 -0.14638093
-0.009270873 0.032485854 -0.087819025 0.21681884 -0.14479904 -0.012624089 0.13074881 0.20642458
-0.027550643 0.108879164 -0.08015002 -0.1569716 -0.030806351 0.020560313 -0.015761754 -0.04416658
0.16913146 -0.04022922 -0.0143232215 0.043644764 0.16397041 0.03946061 -0.038391158 -0.013793102
-0.24695659 0.022373319 0.027784087 0.1922951 0.10067341 0.11005322 0.0006396523 0.21213531
0.18684508 0.12697077 0.0128428545 -0.011261708 0.24105227 0.2363047 -0.014477244 -0.094159864
0.013176597 0.06764059 -0.0338047 -0.022704812 0.1618223 0.20580244 0.08347077 -0.013126745
0.1316564 0.08819106 0.2364689 -0.09301415 0.088247195 -0.011325616 0.024690585 -0.082004026
0.15724924 -0.013824152 -0.007884864 0.07976979 0.020053824 0.24250607 0.10311221 -0.006577393
-0.05768626 -0.018606618 0.21064225 0.10595081 0.42046243 -0.0073359143 0.03034896 -0.035344258
-0.059750926 0.15009348 0.08554034 -0.036452748 0.11937581 0.0059846756 -0.057162214 -0.015556846
0.19321637 -0.032763537 -0.010074612 -0.048535667 0.04288777 0.20292526 0.13027133 -0.0025353357
0.012442878 0.11123493 0.029811839 0.1051401 -0.07901035 0.1776494 -0.029544352 0.02946993

sequential_1/conv2d_1_2/convolution/ReadVariableOp:0 f4 [16, 6, 5, 5]
00000000: 6475 6c3e 07dd bebd 908e afbe bf38 34bd
00000010: a3ee bf3e 8052 3ebd a1f4 9c3d 07a0 91be
00000020: 3472 29bf 341c d0be 88c4 253e 2ea5 a63e
00000030: f4a2 1a3f 1b30 993e 7f71 983d 7678 dcbd
00000040: b39f 6bbd 3a24 333e 010c 873e 2311 3a3e
00000050: 6971 dbbd 946b 29be 37bf b9be 9484 b7be
00000060: ae2f cfbe ca01 15bc a5f6 403d 0ae8 e7bd
00000070: 44bf acbe ffac 25be 0a48 dabe 04a3 013d
00000080: 7eab 223e a1a0 32be c9b3 bfbe 7fed f2bd
00000090: a6b2 4b3e 9989 b93d 45ff a53e afa3 853d
000000a0: ab38 64be fbbb cbbe 92cb d4be 58c7 ffbe
000000b0: 87e0 8cbe e07d d43d bd04 993e 2824 e038
000000c0: a6a4 0abd e329 3b3e 1d00 6fbe 5523 453d
000000d0: eb9b c13d 6774 803d 3e37 a7be 1660 20bd
000000e0: 0a63 35bd a38e 0e3e f059 c33e 4d28 733e
000000f0: a603 233e 5686 d03d 9d78 5dbe 5d7b dc3d
00000100: 3f93 883e 20fd 45bd 40c1 c7bd 9c62 18be
00000110: cf11 0abf 1ec0 94be 75ff 9e3e a112 953d
00000120: c124 a13e 8e47 2c3e 3ab2 5bbd 8023 53bd
00000130: f6a4 42bc 61e6 0dbd e8f2 a33d 827c 64bd
00000140: d079 cc3d b8e4 613d 3858 8dbd 914d c63d
00000150: 037e b73d b097 693d 5dfa ba3d 5880 44be
00000160: aaf0 5dbe d531 24be 94d1 de3d b55c 243e
00000170: 3eec 843d 714c ae3c 695b e73c 34b1 683d
00000180: 0c4b bb3d c9d1 173c 3a6b db3d ca35 5b3d
00000190: 534f ab3d b2b9 823d f2e5 85bd f768 9cbd
000001a0: 7fd0 3e3c 269d b63d 099a d6bd a993 23be
000001b0: 2645 913d 2c81 533d 4b19 babd c62c 413b
000001c0: 25bb c7bd ca8f 51be b830 0b3c ee98 133e
000001d0: 01f6 2a3e 00e2 3c3d d99f a23d 5a4b 99bc
000001e0: be78 993a 923d ce3c 551b 35bd 83c3 633d
000001f0: 817b b3bd 36ce b43c 8199 fabb 07ef f0bd
00000200: 8689 59bd 31f0 723d 0999 993d 278b c13d
00000210: cf51 25bb f2b7 6fbe b6c3 863d a7d1 f03d
00000220: 9f56 193e 1504 0c3e c16b 98bc b12a 7dbd
00000230: d895 573d 947c 65bc 835e df3c cf4c d03d
00000240: d095 2dbd ce08 6f3d 7b05 fe3c 3b8d 6b3d
00000250: 7b95 47bd ba8e 56bd 1541 f13c 40de 573d
00000260: 231b 433c 8599 bebc fe07 46bb b980 eb3e
00000270: ffd6 113f 2d63 103f 20c2 f23e 36f2 74bd
00000280: 3f68 10bf bb06 02bf 2e56 ecbe d4b9 6ebe
00000290: b0f8 debe 150a b13c 1673 8e3e 847c 8a3e
000002a0: f5a5 e3bd 2ae4 b23d 88e6 9cbe b3f0 93bd
000002b0: a1a0 db3c 4f78 213e ff97 023f e447 c73e
000002c0: 4a1f 413e b059 933b b213 19be efd2 a5be
000002d0: 6f64 a3be 3236 76be 0936 98bb e8ce 81be
000002e0: f7d1 9b3d c63d 853d c0d6 c63d a45f 2dbe
000002f0: 7db7 98be c12c 58be 626f 233e 7858 a33e
00000300: 4f56 a13e 4d85 983e 9bfa 9e3e 8ade 95be
00000310: f9d6 c0be 55d2 5cbe 1768 aebe dbed b0be
00000320: 4e77 213e 64a5 ac3e 7df9 f03d 33ee 0e3e
00000330: d883 d1bd 96ce 95be c77a f9be e702 e8be
00000340: 5629 e9be 861b 84be eb82 b93e 6d19 c53e
00000350: be43 593e c226 333e 3e89 823d e6c6 c73c
00000360: cf52 533e 8e3d a83e 7eb2 143f 3a76 bd3e
00000370: c05b c73c 7071 86be bdbd d7be ae57 ffbe
00000380: 4989 e0be 952e 10be 5925 b3bd 2fbe fe3b
00000390: a749 b9bd 6e15 d2bd a3b5 3a3d c220 ea3b
000003a0: 2a0b 9d3c e717 c03d 542d 813c beef 093e
000003b0: 65b8 793d 1762 e53d 357a 513e 77ab 003d
000003c0: f1e3 4bbd eec0 b1ba acb8 8039 c967 b5bd
000003d0: e86f 913d 8b2f d53c 4544 373d 2f8e 503d
000003e0: e2c6 0dbe 9129 27be 0869 bbbd 9817 64bc
000003f0: dc79 2bbe c25d 27bd ec5e 8a3d 6185 b13b
0.23091656 -0.09319501 -0.34288454 -0.04399943 0.37486753 -0.046465397 0.07663847 -0.28442404
-0.66189885 -0.40646517 0.16188252 0.32547897 0.60404897 0.29919514 0.07443523 -0.107651636
-0.057525348 0.17494288 0.26376346 0.181706 -0.10714991 -0.16544944 -0.36278698 -0.35843337
-0.40466064 -0.009094665 0.04711022 -0.11323555 -0.33739674 -0.16179274 -0.42633086 0.031649604
0.15885732 -0.17444088 -0.37441853 -0.11861705 0.19892368 0.09059448 0.32421318 0.06525361
-0.22287242 -0.39791855 -0.41561562 -0.49956775 -0.2751505 0.10375571 0.29886428 0.00010687887
-0.033848427 0.18277697 -0.23339887 0.0481294 0.09453567 0.06272202 -0.32659334 -0.039154135
-0.044283904 0.13921599 0.38154554 0.23745842 0.1591936 0.101818725 -0.21628042 0.10765717
0.2667484 -0.048337102 -0.097536564 -0.14881366 -0.53933424 -0.29052824 0.31054273 0.07278944
0.31473354 0.16824171 -0.053636767 -0.051547527 -0.01188015 -0.034643535 0.08005315 -0.055782802
0.099841714 0.055149764 -0.06901592 0.09682763 0.08959582 0.057029426 0.09129784 -0.19189584
-0.21673837 -0.16034634 0.108798176 0.1605099 0.06490372 0.021276684 0.02824183 0.05680962
0.091451734 0.009266325 0.10713811 0.053518094 0.08364739 0.06383075 -0.06537999 -0.07637208
0.011646389 0.089166924 -0.104785986 -0.15974297 0.07093267 0.05163686 -0.090868555 0.002947615
-0.09752492 -0.20465007 0.008495502 0.14413807 0.16695406 0.046113968 0.07940645 -0.018712688
0.0011708958 0.025175843 -0.04421552 0.055606376 -0.08763791 0.022070985 -0.0076476936 -0.11764341
-0.05310967 0.059311096 0.07499892 0.09450369 -0.0025225764 -0.23410013 0.06580298 0.11758738
0.1497445 0.13673432 -0.018606069 -0.06180829 0.052633137 -0.0140067525 0.027266746 0.101709
-0.0423792 0.058358006 0.031008473 0.057507735 -0.04872654 -0.05238221 0.029449979 0.05270219
0.011908325 -0.023266563 -0.0030217166 0.45996645 0.56968683 0.5640133 0.4741373 -0.059801303
-0.56409067 -0.5079152 -0.461595 -0.23313075 -0.43549109 0.021611253 0.2782218 0.27048123
-0.11115638 0.08734925 -0.3064463 -0.07223644 0.026809992 0.1576855 0.5101318 0.38922036
0.18859592 0.0044967756 -0.1494892 -0.32387492 -0.31912562 -0.24044111 -0.0046451134 -0.2535317
0.07608407 0.06505923 0.09708929 -0.16931015 -0.2982749 -0.21110822 0.15960458 0.31903434
0.3151116 0.297892 0.31050572 -0.29271346 -0.3766401 -0.2156461 -0.3406379 -0.3455647
0.15768167 0.33719933 0.11766336 0.13958053 -0.10230225 -0.29259175 -0.48726484 -0.45314714
-0.4553935 -0.2580225 0.36232695 0.3849596 0.21217248 0.17495254 0.06373833 0.024386834
0.20637058 0.32859462 0.5808486 0.37004262 0.024335742 -0.2625842 -0.42136946 -0.49871582
-0.4385474 -0.1408027 -0.08747358 0.0077741365 -0.09047251 -0.10257994 0.04558338 0.0071450183
0.019170363 0.09379559 0.015768684 0.1347036 0.060966868 0.1120035 0.20456775 0.03141352
-0.04977793 -0.0013561526 0.00024551654 -0.08857686 0.071014225 0.026023647 0.04474284 0.050916847
-0.13845399 -0.1632445 -0.091508925 -0.013921641 -0.16745704 -0.0408609 0.06756386 0.0054175113

sequential_1/conv2d_1_2/Reshape:0 f4 [16]
00000000: 55ee 243e 1e4a b03d bd7d 17bd 9667 323a
00000010: 954a 91bd 08e7 0fbd ae7b 003e c553 3c3e
00000020: 810f 623c 343c b33e 05a2 523e c932 6a3e
00000030: 3388 133e 96e6 353e 4c33 683e 00b8 08bd
0.16106541 0.08607887 -0.036985148 0.00068055966 -0.070943035 -0.035132438 0.1254718 0.1839133
0.013797642 0.3500687 0.20569618 0.22870935 0.14407425 0.17763743 0.22675818 -0.0333786

sequential_1/conv2d_1/convolution/ReadVariableOp:0 f4 [6, 1, 5, 5]
00000000: 7faa 25be 0769 2abf 68c2 bfbe 29f4 edbe
00000010: 72af 7ebe c307 d5be 1f49 31bf 8347 0ebf
00000020: a9c5 0bbf 030c 1cbf cdac 98be 48b5 47bd
00000030: e23a e23e a9ff 293e a701 d2bd 4c15 c0bd
00000040: 363f fc3e 1089 133f 2e26 253f fa7d d33e
00000050: f9e5 383e 62d3 1a3f f9fa 073f c909 253f
00000060: b3ea 0a3f fe24 5c3e ddf6 253f 97ab 1f3f
00000070: 3f15 523e fb4a 883e 82f5 d63d b83e 8d3d
00000080: 3f1f 9b3d b3b1 d5be d630 1ebf c88d dd3d
00000090: 7300 f23d fefe 19be f3ab 4cbf 6327 66bf
000000a0: 7355 1a3f 43a2 e93e 254f 0fbe d79b 0ebf
000000b0: 87d5 5fbf 4507 143f 64f2 e63e 3412 883e
000000c0: 2e15 73be 0289 dabd 0606 253e 82b1 a63e
000000d0: 1649 213f b279 083f b564 923e 8a8e 5abe
000000e0: e2c8 053e df92 e43e 2c6e 363f b295 133f
000000f0: e707 e6be 5787 e5be 0d9f 01be c19d aa3c
00000100: 7eba 163d d44b 5fbd 1954 19bf 2bc0 c8be
00000110: 6ac5 20bf 298c 94be 9974 333e 6e30 4bbe
00000120: 9cc7 d1be 36c6 31be 85b1 05be 0f64 253e
00000130: 5952 233e 06dc af3e c39d 8e3e d898 7a3e
00000140: 5408 733e 96ae 883e a7b1 c73e 1eaf 7d3e
00000150: 1b68 d03e d874 bf3d 65c4 273e c54d 773e
00000160: 570d ba3e 07a0 a93e a350 0dbe fbb3 303e
00000170: 5a47 b73e 85ad c13e 0bc2 353e 5e2c d6be
00000180: 5b7b b1be be1f 6ebe 99f7 e8bc 528d aabc
00000190: e996 b03d 67c8 e1bd 769a 243c 6664 943e
000001a0: be88 573e 2bb5 3c3e 2057 563e 92ec 8b3e
000001b0: d159 0b3f 6ad4 093f 20b7 c3bd 41e6 9dbd
000001c0: b71b c03e e175 073f 32c5 e73e e249 a1be
000001d0: c017 b03d c09c 163e c15f da3e 1842 503e
000001e0: 9a81 87be 8098 1b3e 708a 1bbc b33f 973c
000001f0: cd73 97bd 25fe 873c 23f7 91bc 8cf7 94bd
00000200: 4fb9 f6be 5e7e d8be 6245 72bd 2768 183e
00000210: 5250 cdbb bc38 e0bd bada 09bf 578e b8bd
00000220: 4ece e23e d667 663e 752c 0d3e 3788 94be
00000230: 6f59 8bbd 9c90 9b3e de7d 163f b286 dc3e
00000240: f858 d8bc dc80 823c a94f f23d c0a3 c73e
00000250: 1fc5 d13e 59c7 0e3e
-0.1617832 -0.6656651 -0.37453008 -0.46475342 -0.24871615 -0.41607484 -0.692522 -0.5557787
-0.5459848 -0.6095583 -0.29819337 -0.048756868 0.4418555 0.16601433 -0.102542214 -0.09379062
0.49266976 0.57631016 0.6451138 0.4130705 0.18056478 0.60478795 0.5311733 0.64468056
0.5426437 0.21498486 0.6482981 0.623712 0.20515917 0.26619706 0.10496046 0.06896728
0.07574319 -0.41737136 -0.6179327 0.10818058 0.11816492 -0.15038678 -0.79949874 -0.8990385
0.60286635 0.45631608 -0.13995035 -0.5570654 -0.8743519 0.5782359 0.45106804 0.26576388
-0.23738548 -0.106706634 0.16115579 0.32557303 0.63002145 0.5331069 0.28592458 -0.21343437
0.13064912 0.44643304 0.7126186 0.5765029 -0.44927904 -0.4482982 -0.1265833 0.020827176
0.036798947 -0.054515675 -0.5989395 -0.39209113 -0.6280123 -0.29013184 0.17524947 -0.19842693
-0.40972602 -0.17360768 -0.13056 0.1615145 0.15949382 0.34347552 0.27854738 0.24472368
0.23733646 0.26695698 0.39002725 0.24773833 0.40704426 0.09348458 0.16383512 0.2415076
0.36338302 0.33129904 -0.13800292 0.17256157 0.35796624 0.37827697 0.17749803 -0.41830724
-0.34664425 -0.23254296 -0.028438376 -0.02081934 0.08622534 -0.11024552 0.010046592 0.28982848
0.21048257 0.18428485 0.20931673 0.27328926 0.54433924 0.53839743 -0.09556413 -0.07709933
0.37521145 0.52914244 0.45267636 -0.3150168 0.0859828 0.14708233 0.4265118 0.20337713
-0.26466066 0.15194893 -0.009493455 0.018462991 -0.07395134 0.016600678 -0.01781804 -0.07273778
-0.48188254 -0.4228391 -0.0591482 0.14883481 -0.0062656784 -0.10948321 -0.53849375 -0.09011524
0.44298023 0.22500548 0.1378649 -0.29010174 -0.068041675 0.30383766 0.5878581 0.43071514
-0.026409611 0.015930586 0.118316 0.3899212 0.40970704 0.13943233

sequential_1/conv2d_1/Reshape:0 f4 [6]
00000000: 584f 1d3e cec9 d03d b8a5 6f3e a1c0 3ebe
00000010: 8cb0 4fbe 6988 37bc
0.15362298 0.10194741 0.2340306 -0.1862817 -0.20282191 -0.011201956
